saved_models/ambaudio_brainlike/big_rnn/big_rnn_1.pt (torch, 118160 bytes, 14 tensors)

cell_list.0.conv_gates.weight f4 [20, 11, 3, 3]
0	0x3f93daaa	1.1551106
1	0x3f5fe8fe	0.8746489
2	0x3f8dbbdd	1.1072956
3	0x3e944258	0.28956866
4	0x3d47aa13	0.04874618
5	0x3f2eeed8	0.68333197
6	0x3f18719c	0.59548354
7	0x3f0d5096	0.5520109
8	0x3f49949a	0.78742373
9	0xbfdf2da6	-1.7435806
10	0xbfc29657	-1.520213
11	0xbf0b6a06	-0.54458654
12	0xbfa7bda1	-1.3104745
13	0xc060b6bf	-3.511154
14	0xbef5ee99	-0.48033598
15	0xbf9ede4f	-1.2411593
16	0xbf503e90	-0.8134546
17	0xbe223674	-0.15841085
18	0x3fb96809	1.4484874
19	0x3f711797	0.9417662
20	0x3f826465	1.0186888
21	0x3f61a195	0.8813718
22	0x3f4bc207	0.7959294
23	0x3ef297b2	0.4738136
24	0x3e6f075a	0.23342648
25	0xbf2331b6	-0.6374773
26	0xbf08012a	-0.53126776
27	0xc002fee0	-2.0468063
28	0xbf917f9b	-1.1367067
29	0x3e8aec95	0.27133623
30	0xbff68a63	-1.9260982
31	0xbef57c85	-0.47946563
32	0x3f40b76e	0.7527989
33	0xbf98af81	-1.192856
34	0x3ebb903b	0.36633477
35	0x3f92ba54	1.1463113
36	0x3f84cb9e	1.0374639
37	0x3f0331b4	0.51247716
38	0x3f274ad5	0.6534856
39	0x3f227923	0.6346609
40	0x3ef405e3	0.4766074
41	0x3f74c319	0.95610195
42	0xbd1d31d3	-0.038377594
43	0xbe7e779c	-0.24850315
44	0x3eaba631	0.3352523
45	0x3c331e3e	0.010932503
46	0xbefb199e	-0.49042982
47	0xbe8a05b5	-0.2695748
48	0x3f0b37bb	0.5438191
49	0x3d5bb5ca	0.053640164
50	0x3eaaf80a	0.33392364
51	0x3ee8d63d	0.4547595
52	0x3f192bfa	0.5983273
53	0x3f46d613	0.776704
54	0xbf166b7f	-0.58757776
55	0xbef9cce2	-0.48789126
56	0x3d936d6e	0.071986064
57	0xbffeb844	-1.9899983
58	0xbffa7cb1	-1.9569303
59	0xbf98822f	-1.1914729
60	0xbff16eb2	-1.8861907
61	0xbfd01f39	-1.6259528
62	0xbf429020	-0.7600117
63	0x3f2f1b31	0.68400866
64	0x3f966471	1.1749402
65	0x3f10f02b	0.5661647
66	0x3ece3c07	0.40280172
67	0x3ec1501c	0.3775643
68	0xbe4ef7e3	-0.20211749
69	0xbe56e429	-0.20985474
70	0xbecef2ce	-0.4041962
71	0xbf628f99	-0.8850036
72	0x4001e786	2.029756
73	0x3f432ef1	0.762435
74	0x3ee264a2	0.44217402
75	0x3f80ff33	1.0077881
76	0x3d2e76c9	0.04259375
77	0xbda32862	-0.07966687
78	0x3e82348e	0.2543072
79	0xbebfaadb	-0.3743504
80	0xbe857b7e	-0.2607078
81	0x3ec082db	0.37599835
82	0x3e736fa6	0.23773059
83	0x3f17009d	0.5898531
84	0xbeff9308	-0.49916863
85	0xbf544d89	-0.8293081
86	0xbe9a861a	-0.30180436
87	0xbfe22218	-1.7666655
88	0xbfd62a11	-1.6731588
89	0xbf8cc98d	-1.0999008
90	0xbfa83a62	-1.3142817
91	0xbfb43a12	-1.4080222
92	0xbfc14260	-1.5098381
93	0xbf70687b	-0.93909425
94	0xbf5fb524	-0.87385774
95	0xbf7bc150	-0.98341846
96	0x3e05e995	0.13077386
97	0xbe47d686	-0.19515428
98	0xbf253aac	-0.6454265
99	0xbe9a0419	-0.3008125
100	0xbea3eeba	-0.3201807
101	0xbe04d684	-0.12972456
102	0xbfd8f5b1	-1.6949979
103	0xbfd97004	-1.698731
104	0xbfac8bb6	-1.3480136
105	0xc026b689	-2.604891
106	0xc0115d8d	-2.271335
107	0xbfd29230	-1.6450863
108	0xbeddb459	-0.43301657
109	0xbf9a20db	-1.2041277
110	0xbfacc2ec	-1.3496985
111	0xbe113346	-0.14179716
112	0xbe4b19a8	-0.19834006
113	0xbf5c5bd8	-0.8607764
114	0xbf196f96	-0.5993589
115	0xbf3a1986	-0.72695196
116	0xbf7cf218	-0.98806906
117	0x3ea268a1	0.3172045
118	0x3ee9b444	0.45645344
119	0x3e61ce70	0.22051406
120	0xbf0fdb59	-0.5619407
121	0x3f9dcf02	1.2328799
122	0x3d87abd0	0.066245675
123	0x3f0957d2	0.5364963
124	0x3fddabe5	1.7318083
125	0x3fdde61b	1.7335848
126	0xbd93d2d1	-0.072179444
127	0xbf08f728	-0.5350213
128	0xbed24467	-0.41067812
129	0x3e017019	0.12640418
130	0xbea7da76	-0.3278386
131	0xbd82979e	-0.06376575
132	0x3e54aa04	0.20767981
133	0xbf277064	-0.6540587
134	0xbfac64a5	-1.3468214
135	0x3e9c56ea	0.3053506
136	0x3ed44931	0.4146209
137	0xbd035473	-0.03206296
138	0x3ecdb202	0.40174872
139	0x3ebb8d8f	0.36631438
140	0x3e904ff5	0.28186002
141	0x3f784758	0.9698386
142	0x3f98c505	1.1935126
143	0x3f8cb877	1.0993794
144	0xbe036003	-0.12829594
145	0xbd9a8455	-0.075447716
146	0xbc6f3d83	-0.014602068
147	0x3f0595c3	0.52181643
148	0x3f4607ee	0.7735585
149	0x3f49a05a	0.787603
150	0x3e0ff52c	0.1405837
151	0x3c58479f	0.01320067
152	0x3c9b4649	0.018954413
153	0xbf1a1b30	-0.60197735
154	0xbf0ff1c3	-0.56228274
155	0xbec78bc2	-0.38973814
156	0xbf14a492	-0.58063614
157	0xbf6410dd	-0.8908823
158	0xbe8dcf79	-0.27697352
159	0xbe0d6c67	-0.13810883
160	0xbee12220	-0.43971348
161	0xbf1b5ae9	-0.6068559
162	0x3f00ca55	0.50308734
163	0x3f2c3335	0.67265636
164	0x3f2890b6	0.6584581
165	0xbc1a6484	-0.009423379
166	0xbe8c281d	-0.27374354
167	0xbe213d71	-0.15746094
168	0xbe08c2f6	-0.13355622
169	0xbe0bb470	-0.1364305
170	0xbee3cb86	-0.44491214
171	0xbed83171	-0.4222522
172	0xbf905cc7	-1.1278313
173	0xbf8a2234	-1.0791688
174	0x3e1418f7	0.14462648
175	0xbf05c4ab	-0.52253217
176	0xbe92e0e8	-0.28687215
177	0x3df6b210	0.120456815
178	0xbefb07f3	-0.49029502
179	0xbf273dc8	-0.65328646
180	0x3f839cb1	1.0282193
181	0x3edb2928	0.42804837
182	0xbedf623a	-0.43629628
183	0x3e5c22c5	0.21497639
184	0x3ccb71c1	0.024834516
185	0xbd8fdd57	-0.07024639
186	0x3f62d5aa	0.88607275
187	0x3eb17d99	0.34666136
188	0x3e109135	0.14117892
189	0xbe574775	-0.21023352
190	0xbc030fec	-0.007999402
191	0x3f27668e	0.6539086
192	0xbf4eff13	-0.8085796
193	0xbf0139ed	-0.5047901
194	0xbf06eeb6	-0.52707994
195	0xbf7a6c48	-0.97821474
196	0xbf4a7c91	-0.79096323
197	0xbf2ba991	-0.6705561
198	0xbf9e1efb	-1.2353204
199	0xbf85db59	-1.0457565
200	0xbe8ae457	-0.27127334
201	0xbfa0c2d7	-1.255946
202	0xbf35b979	-0.70986134
203	0xbec33cbd	-0.38132277
204	0xbf641b4d	-0.8910416
205	0xbf1a2b83	-0.60222644
206	0xbe91c17e	-0.28467935
207	0xbf5a574e	-0.85289466
208	0xbf95e062	-1.1709101
209	0xbf9ba6a8	-1.2160234
210	0xbf2a0279	-0.6641002
211	0xbf0a63c0	-0.54058456
212	0xbf831d37	-1.0243291
213	0xbf8055e3	-1.002621
214	0xbf64c49d	-0.8936251
215	0xbf82bcc5	-1.0213858
216	0x3f1f4d28	0.62227106
217	0x3db91a21	0.09038187
218	0xbf74c8a1	-0.95618635
219	0x3e275019	0.16339149
220	0xbec5756a	-0.38566142
221	0xbf7c5679	-0.98569447
222	0x3ec51da0	0.38499165
223	0x3d1a6d75	0.037702043
224	0xbf5435e3	-0.82894725
225	0xbe2cd71f	-0.16878937
226	0xbeb9021d	-0.36134425
227	0x3eab7401	0.3348694
228	0xbc1a71dd	-0.009426561
229	0xbf1a5e93	-0.6030056
230	0x3ed15623	0.4088603
231	0xbe0d5fe8	-0.13806117
232	0x3c86693f	0.016407607
233	0xbdc30e11	-0.09524167
234	0x3ab58b5e	0.0013850739
235	0xbe5293a6	-0.20564136
236	0xbf37e89c	-0.7183931
237	0xbe48f958	-0.19626367
238	0x3e411ac7	0.18857871
239	0xbe4ad5fd	-0.19808193
240	0x3e1e874c	0.15481299
241	0x3e97a05d	0.29614535
242	0xbed2d4cd	-0.4117798
243	0x3e0232fe	0.12714764
244	0xbe4d6113	-0.20056562
245	0xbfc93b55	-1.5721232
246	0x3f157d0f	0.5839395
247	0x3e8c4aa8	0.27400708
248	0xbfb78b8d	-1.4339463
249	0x3f035a5c	0.5130975
250	0xbed6e424	-0.41970932
251	0xbff11c48	-1.8836756
252	0xbf5c4b8d	-0.8605278
253	0xbeb20f6b	-0.34777388
254	0x3e3c130e	0.18366644
255	0xbf1c4f9d	-0.6105898

cell_list.0.conv_can.weight f4 [10, 11, 3, 3]
0	0x3e8d09c5	0.27546516
1	0xbf1e0907	-0.61732525
2	0x3e60f55b	0.21968596
3	0xbf13a952	-0.5768024
4	0xbfbaf8aa	-1.4607136
5	0xbf2fbb31	-0.68645006
6	0xbebd1560	-0.3693037
7	0xbf801917	-1.0007657
8	0x3d60f16c	0.054917738
9	0x3f8f25f4	1.1183457
10	0x3f23e41f	0.6401996
11	0x3eeff642	0.46867567
12	0x3ebef7a5	0.37298313
13	0xbf5ebd4d	-0.870076
14	0xbdd6671b	-0.104688846
15	0x3e1bc600	0.1521225
16	0x3d527ec3	0.05139042
17	0x3d84121c	0.064487666
18	0xbf490fb9	-0.78539616
19	0xbe6525ee	-0.2237775
20	0x3f09ad73	0.5378029
21	0xbf5e05f1	-0.86727816
22	0xbeddb4f9	-0.43302134
23	0x3e8e7958	0.27826953
24	0xbe87a9f8	-0.26496863
25	0xbe3db076	-0.18524346
26	0xbd4d4015	-0.05010994
27	0x3f11a864	0.5689757
28	0x3defe632	0.11713828
29	0xbeee6f17	-0.4656913
30	0x3eb18a8d	0.34676018
31	0xbd9291c1	-0.071567066
32	0xbf672164	-0.90285325
33	0x3f0e732d	0.55644494
34	0xbcd192d7	-0.025582714
35	0xbf154df4	-0.5832207
36	0xbf83ba66	-1.0291259
37	0xbf5321f8	-0.8247371
38	0xbe62a2eb	-0.22132461
39	0xbf3e978a	-0.7444998
40	0xbf7cc2a0	-0.98734474
41	0xbeea0f69	-0.45714882
42	0x3e06b71f	0.13155793
43	0xbe7e9ffd	-0.24865718
44	0xbe46a447	-0.19398604
45	0x3dfceeb4	0.123502165
46	0x3eee8797	0.46587822
47	0x3f0337d4	0.5125706
48	0xbecad198	-0.39613032
49	0xbd9d1f90	-0.07672036
50	0x3e27df63	0.16393809
51	0xbf0498d8	-0.5179572
52	0xbea0692b	-0.31330237
53	0x3e43828d	0.1909277
54	0x3f529827	0.82263416
55	0x3f1c4b73	0.61052626
56	0x3e312006	0.17297372
57	0x3f01d654	0.50717664
58	0x3ee67f1e	0.45018858
59	0x3d7fb2fd	0.062426556
60	0x3e828741	0.25493816
61	0x3e0aeba7	0.13566457
62	0xbe9c1a44	-0.3048879
63	0x3e94a1fb	0.2902983
64	0xbaef6193	-0.0018263332
65	0xbed5be4b	-0.41746745
66	0x3f07e3aa	0.5308176
67	0x3e4a2d2f	0.19743799
68	0x3db1a33c	0.086737126
69	0x3e98eac5	0.29866615
70	0x3ec6188e	0.3869061
71	0x3ee24d7f	0.4419975
72	0xbebb9e4d	-0.3664421
73	0x3ddea590	0.10871422
74	0x3f023c49	0.5087324
75	0xbf1947c0	-0.59875107
76	0xbe0d35f2	-0.1379011
77	0x3e6f06a0	0.23342371
78	0xbf0cdb19	-0.55021816
79	0xbf013bdc	-0.50481963
80	0xbe4f0c2e	-0.2021949
81	0xbf968e94	-1.1762261
82	0xbd4347a9	-0.047675762
83	0x3fae7468	1.3629274
84	0xbe46e3a8	-0.19422781
85	0x3e073503	0.13203816
86	0x3f6c5f7e	0.9233321
87	0x3fe47039	1.7846748
88	0x3faa215a	1.3291428
89	0x3fb048b8	1.3772192
90	0x3f81d832	1.0144103
91	0x3f92af13	1.1459678
92	0x3eab2b90	0.33431673
93	0x3eb33b45	0.35006157
94	0x3ef9db6d	0.4880022
95	0xbe35eeb2	-0.17766836
96	0x3ee6c88b	0.45074877
97	0x3e8c219e	0.27369398
98	0xbec03114	-0.37537444
99	0xbea525ea	-0.3225549
100	0xbe0cd1c3	-0.13751893
101	0xbf08be1d	-0.5341509
102	0x3e945c34	0.28976595
103	0x3ef02a75	0.46907392
104	0xbd943cea	-0.07238181
105	0x3f518f60	0.818594
106	0x3f4aeac4	0.79264474
107	0x3cb65390	0.022256643
108	0xbe69777d	-0.22799487
109	0xbe1a21d3	-0.15051965
110	0x3d8d3517	0.06894892
111	0xbe89874e	-0.26861042
112	0x3d9ba5b7	0.07599967
113	0x3f14c5ea	0.5811449
114	0xbe4e785b	-0.201631
115	0xbe4aaedf	-0.1979327
116	0x3e7cdb46	0.24693021
117	0x3e164fb6	0.14678845
118	0x3f0ae7b1	0.54259783
119	0x3f56ec3c	0.83954215
120	0x3f8d0da6	1.101979
121	0x3f15fe91	0.5859156
122	0x3f366b68	0.7125764
123	0x3f39f2a5	0.7263587
124	0x3f033046	0.51245534
125	0x3e587657	0.21138893
126	0xbccdeefa	-0.025138367
127	0xbf2236b9	-0.6336475
128	0xbf64ae46	-0.8932842
129	0xbebf5ed2	-0.3737703
130	0xbf76d58f	-0.96419615
131	0xbf262c52	-0.6491138
132	0xbef1132a	-0.47084934
133	0xbf6e9b93	-0.9320614
134	0xbf2a4e74	-0.6652596
135	0x3ca4f99e	0.020138558
136	0x3ecf8b52	0.4053598
137	0x3f53a7d4	0.8267796
138	0x3f1f9020	0.6232929
139	0x3e76f9df	0.24118756
140	0x3e8a6d5f	0.2703657
141	0x3f422d85	0.7585071
142	0x3f2e7af1	0.68156344
143	0x3d44ff5b	0.04809509
144	0x3ef5a22f	0.479753
145	0x3f40c5f1	0.75302035
146	0x3f134cfc	0.57539344
147	0x3e9e74f4	0.30948603
148	0xbc2cf366	-0.010556078
149	0x3e90919e	0.28236097
150	0x3cfc087d	0.030765766
151	0x3dc08911	0.09401143
152	0x3ea5a8b7	0.32355282
153	0xbee3b175	-0.44471326
154	0xbf34386e	-0.70398605
155	0xbec9b3d6	-0.39395016
156	0xbeeb474a	-0.45952827
157	0xbe8c4350	-0.27395105
158	0xbd5dee72	-0.054182477
159	0xbefdfa59	-0.49605063
160	0xbf0bc78b	-0.54601353
161	0xbeb23a62	-0.34810168
162	0xbd45956b	-0.0482382
163	0xbf23d016	-0.6398939
164	0xbf3376fc	-0.7010343
165	0x3ec77ca9	0.38962296
166	0xbe2a9b93	-0.1666091
167	0xbe19c000	-0.15014648
168	0x3ed01204	0.40638745
169	0x3e91517d	0.28382483
170	0x3cad4221	0.021149697
171	0x3f03d582	0.5149766
172	0x3f03afe2	0.5144025
173	0x3d88853f	0.0666604
174	0x3f238b64	0.6388457
175	0x3efa95e3	0.4894248
176	0xbd82172a	-0.063520744
177	0xbe13b835	-0.14425738
178	0xbc9916a9	-0.018687563
179	0xbe59e488	-0.21278584
180	0x3f40b024	0.7526877
181	0xbf274225	-0.65335304
182	0xbf5d558e	-0.8645867
183	0x3cc17af9	0.023618208
184	0xbf22d97d	-0.6361311
185	0xbe34f125	-0.17670114
186	0xbfdd2e60	-1.7279778
187	0xbfc6068b	-1.5470747
188	0xbf3045e3	-0.6885664
189	0xbf9f14ba	-1.24282
190	0xbf08dd89	-0.53463036
191	0xbe3736a9	-0.17891945
192	0xbfb01294	-1.375567
193	0xbeb15e16	-0.34642094
194	0xbde518eb	-0.11186393
195	0xbeb37c5f	-0.35055825
196	0xbe198a28	-0.14994109
197	0x3d8bb852	0.06822266
198	0x3dd148d0	0.10218966
199	0xbebe2335	-0.37136236
200	0xbd44623d	-0.04794525
201	0xbd21319f	-0.039353963
202	0xbee78c04	-0.4522401
203	0x3d5d5e21	0.054044846
204	0xbdc633d6	-0.09677856
205	0xbf1c4ef7	-0.6105799
206	0x3dae951d	0.08524535
207	0x3f0edf88	0.5580983
208	0x3c0242f9	0.007950538
209	0xbefc642c	-0.49295175
210	0x3e4ae339	0.19813241
211	0xbebf8f14	-0.37413847
212	0xbf3ef142	-0.7458688
213	0x3da2c581	0.07947827
214	0x3da6470a	0.081190184
215	0xbe409b17	-0.18809162
216	0xbfdabdff	-1.7089232
217	0xbf5a7936	-0.85341203
218	0xbd40de5f	-0.04708707
219	0xbfa19039	-1.2622138
220	0xbf11cb89	-0.56951195
221	0xbeb175b1	-0.34660104
222	0xbf325b05	-0.69670135
223	0xbf1e9e88	-0.6196065
224	0x3e0bf1d1	0.13666464
225	0x3fe9c97d	1.8264614
226	0x3ef1bce9	0.4721444
227	0xbdf062d5	-0.11737601
228	0x400b7f47	2.1796434
229	0xbf8c35f7	-1.0953969
230	0xbf4d1969	-0.801169
231	0x3f923608	1.1422739
232	0xbc9c19cc	-0.01905527
233	0xbf058fef	-0.5217275
234	0xbfab7794	-1.3395867
235	0xbf64f75b	-0.89439934
236	0xbe7c2425	-0.24623163
237	0xbf541efc	-0.8285978
238	0xbf6cc099	-0.9248138
239	0xbe9fcead	-0.3121237
240	0xbf4079f8	-0.7518611
241	0xbf3bafec	-0.7331531
242	0xbe9aace1	-0.3021002
243	0xbf1faa26	-0.62369
244	0xbcaf8bec	-0.021429025
245	0x3b47137d	0.0030376606
246	0xbe95d4fc	-0.29264057
247	0x3e24eb1b	0.1610531
248	0x3dd1e542	0.102488056
249	0xbe211b15	-0.15732987
250	0x3c87c04c	0.016571186
251	0x3e5fae50	0.21843839
252	0xbe55fea5	-0.2089792
253	0xbeb36f6d	-0.3504595
254	0xbf2e851e	-0.6817187
255	0xba9d1e40	-0.0011987165

cell_list.1.conv_gates.weight f4 [20, 20, 3, 3]
0	0x3f235bbe	0.6381186
1	0x3f397076	0.72437227
2	0x3f76eb13	0.96452445
3	0xbd238766	-0.039924048
4	0x3ef0765c	0.469653
5	0x3f9002f6	1.1250904
6	0x3fa5a666	1.2941406
7	0x3fb29d9b	1.3954347
8	0x3fd4a736	1.6613529
9	0xbe724a3f	-0.23661135
10	0xbeb44b56	-0.35213727
11	0xbea94af7	-0.33065006
12	0x3f8d206c	1.1025519
13	0x3f07ad1a	0.5299851
14	0x3f93f78c	1.155992
15	0x3f244a10	0.6417551
16	0x3f34c2cf	0.70609754
17	0x3faf7c0f	1.3709735
18	0x3db2fdba	0.08739801
19	0x3dca8442	0.098885074
20	0x3f21524e	0.6301621
21	0x3f72f25b	0.94901055
22	0x3eac82d0	0.33693552
23	0x3e1cb8c6	0.1530486
24	0x3ef604f8	0.48050666
25	0xbddd3150	-0.10800421
26	0xbefba8b1	-0.4915214
27	0xbf43f0c3	-0.7653925
28	0xbea8a7c3	-0.32940492
29	0xbf132de1	-0.5749188
30	0x3e408112	0.18799236
31	0x3e02de7b	0.12780182
32	0x3d87560a	0.066082075
33	0xbf27846b	-0.6543643
34	0xbeaf3e7f	-0.34227368
35	0xbdb0da82	-0.08635427
36	0x401c363a	2.4408097
37	0x3fd9316f	1.6968211
38	0x3f976578	1.1827841
39	0x400436a2	2.0658345
40	0x3f9a85e1	1.2072107
41	0x3f7dc861	0.9913388
42	0x3facaa71	1.3489515
43	0x3eed73b2	0.4637733
44	0x3ea89d1f	0.32932374
45	0x3ce19f5e	0.027541813
46	0x3d6fd89e	0.05855619
47	0xbf2350c1	-0.63795096
48	0xbef9f888	-0.48822427
49	0xbf488b88	-0.7833791
50	0xbf5c28d2	-0.85999787
51	0xbf246a14	-0.6422436
52	0xbf653b8a	-0.89543974
53	0xbf17aa84	-0.5924456
54	0xbf773613	-0.96566886
55	0xbf92222a	-1.1416676
56	0xbf9d8a25	-1.2307783
57	0x3c61f575	0.013791432
58	0x3e63f7bf	0.22262476
59	0x3e9c67b2	0.30547863
60	0xbebee6bb	-0.37285408
61	0x3e00f9a2	0.12595227
62	0xbd8de5f1	-0.069286235
63	0xbf362e1b	-0.711641
64	0x3ce2c3fa	0.02768134
65	0xbeda3a1d	-0.42622462
66	0xbe0273a5	-0.12739427
67	0x3ea69bb9	0.32540682
68	0x3dc5f1a5	0.09665231
69	0xbed490d1	-0.41516736
70	0xbf71b94a	-0.94423354
71	0xbf99b677	-1.2008809
72	0x3ead79f3	0.33882102
73	0xbdb5dacb	-0.08879622
74	0xbe6ddb7b	-0.23228256
75	0x3cd9c443	0.026582843
76	0xbeb161b0	-0.34644842
77	0xbee3dcd5	-0.4450442
78	0x3f13759b	0.57601327
79	0x3dcbaf11	0.09945501
80	0xbf1e0991	-0.6173335
81	0xbc7cbeab	-0.015426318
82	0xbde8b1f3	-0.11362066
83	0xbf8aab6a	-1.0833561
84	0xbdb00dbb	-0.08596369
85	0xbecee2a6	-0.40407294
86	0xbeaa340f	-0.33242843
87	0xbf7491df	-0.9553508
88	0xbf86e511	-1.0538656
89	0xbf9f35ab	-1.2438253
90	0x3f4f7daf	0.8105115
91	0x3ed3efd1	0.41393903
92	0x3e7a9b7e	0.24473378
93	0x3eea2551	0.45731595
94	0x3ec0869d	0.37602702
95	0x3ed71b25	0.42012897
96	0x3e82a00e	0.25512737
97	0x3e9ad058	0.3023708
98	0x3d13c5b0	0.0360772
99	0x3fb78157	1.4336346
100	0x3f63b574	0.8894875
101	0x3f56a0cd	0.8383911
102	0x3ea9c8b6	0.33160943
103	0xbdb18016	-0.086670086
104	0x3cc0ecce	0.023550417
105	0xbc1f5d69	-0.009726861
106	0x3e85671a	0.26055223
107	0x3eaed28a	0.34145004
108	0xbf06a3f0	-0.525939
109	0xbe7ba368	-0.24574053
110	0xbee096f9	-0.43865183
111	0xbe9d9323	-0.3077632
112	0xbcd3a2c5	-0.02583445
113	0xbe91cacd	-0.28475037
114	0xbf5fad4e	-0.87373817
115	0xbf151069	-0.58228165
116	0xbe89afc4	-0.2689191
117	0xbf8cf720	-1.1012917
118	0xbf006365	-0.50151664
119	0xbde1b49a	-0.11020775
120	0xbf252719	-0.64512783
121	0xbe4ca649	-0.19985308
122	0xbe5877c4	-0.21139437
123	0xbede294d	-0.43390885
124	0x3e5bfb9f	0.21482705
125	0x3ead199a	0.33808595
126	0xbd75baf3	-0.05999274
127	0xbdb98379	-0.090582795
128	0x3e264101	0.16235735
129	0xbe4a3cd3	-0.19749765
130	0x3e1dba67	0.15403138
131	0x3d1d207d	0.03836106
132	0xbeb2fd44	-0.3495885
133	0xbe6913e8	-0.227615
134	0xbf03b9cd	-0.51455384
135	0xbe958aad	-0.29207364
136	0xbef64f9a	-0.48107606
137	0xbf90e0e0	-1.1318626
138	0xbdaffa5c	-0.08592674
139	0x3e74b1f0	0.23896003
140	0xbe9fd7b1	-0.31219247
141	0x3ed13c78	0.40866446
142	0x3f181e4d	0.59421235
143	0x3f842ed6	1.0326793
144	0xbed7e8d2	-0.42169815
145	0xbe8a1fec	-0.2697748
146	0xbd048fd1	-0.032363717
147	0xbdebea49	-0.11519296
148	0x3e6fd317	0.23420368
149	0xbe212eb8	-0.15740478
150	0xbeb65e13	-0.35618648
151	0x3e253800	0.16134644
152	0x3f3e5dce	0.74361885
153	0x3ec4b807	0.38421652
154	0x3f0f11e7	0.5588669
155	0x3f1c5b15	0.6107648
156	0x3ded7437	0.11594432
157	0xbe0c4e5a	-0.13701764
158	0xbd8e5b27	-0.0695098
159	0xbe56068a	-0.20900932
160	0xbd2472c0	-0.040148497
161	0x3f071831	0.5277129
162	0xbf451ffc	-0.7700193
163	0x3f18e450	0.5972338
164	0x3f961d4b	1.172769
165	0xbf1a125c	-0.60184264
166	0x3ec8dfc8	0.39233232
167	0x3f713126	0.9421562
168	0x3e7cb6d9	0.24679126
169	0x3f1033ed	0.5632923
170	0x3f884c0f	1.0648211
171	0xbe72a7aa	-0.23696771
172	0x3d994303	0.074834846
173	0xbd028248	-0.031862527
174	0x3e0f8ff2	0.14019755
175	0x3f303c05	0.6884158
176	0x3f4bfb90	0.7968073
177	0xbdfb6c52	-0.1227652
178	0x3ce1e9bc	0.027577274
179	0x3d4c92b4	0.049944595
180	0x3d5df0f7	0.05418488
181	0xbf11b477	-0.5691599
182	0xbe462966	-0.1935173
183	0x3f2499b6	0.64297044
184	0xbea89702	-0.3292771
185	0x3edd7d62	0.43259722
186	0x3cd2fcfe	0.025755402
187	0xbed355c8	-0.41276383
188	0x3e90ee2b	0.28306708
189	0xbfae923e	-1.363838
190	0xbf90923c	-1.1294627
191	0x3ef5f462	0.48038012
192	0xc02dd829	-2.7163184
193	0xbfbc9ab6	-1.4734714
194	0xbe4d99b0	-0.20078158
195	0x3ce01c7d	0.027357334
196	0x3f8510a6	1.0395706
197	0x3f97b021	1.1850625
198	0xbeb1bf79	-0.34716395
199	0xbf5a7195	-0.8532956
200	0xbf4b727a	-0.7947155
201	0x3f36378a	0.71178496
202	0x3d737573	0.05943818
203	0xbf68386a	-0.9071108
204	0x3f9fa401	1.2471925
205	0x3de56f29	0.11202843
206	0xbf2e9f2b	-0.6821162
207	0x3ec89a5c	0.39180267
208	0xbe3060b8	-0.17224395
209	0xbe8b3356	-0.27187604
210	0x3f55eb58	0.8356223
211	0xbe0ba28e	-0.13636228
212	0xbf1f6b42	-0.6227304
213	0x3eccab3d	0.39974394
214	0x3f2c411c	0.6728685
215	0x3f2310e1	0.6369763
216	0x3f50a3f3	0.81500167
217	0x4002552c	2.0364485
218	0x401175a1	2.2728045
219	0xbd673bf4	-0.05645366
220	0x3f69feaf	0.9140424
221	0x3fdfd6b2	1.7487395
222	0x3ec0f6be	0.3768825
223	0x3f675318	0.90361166
224	0x3fca2084	1.5791173
225	0xbc860758	-0.016360924
226	0x3f385d41	0.72017294
227	0x3f597930	0.8495054
228	0xbdfe0fe5	-0.124053754
229	0x3e3d2497	0.18470989
230	0x3eee0dfd	0.46495047
231	0xbf2dda8a	-0.6791159
232	0xbf9d6668	-1.2296877
233	0xbfdc346f	-1.7203501
234	0xbfd7e585	-1.6866919
235	0xbf794801	-0.97375494
236	0xbea521b8	-0.32252288
237	0x3cb53795	0.02212123
238	0x3ec6dcc2	0.388403
239	0x3e76adb5	0.24089701
240	0x3d5180ec	0.05114834
241	0xbeaae8d3	-0.33380756
242	0xbf438c54	-0.76386
243	0xbf33d5ba	-0.70247996
244	0xbe478f67	-0.19488297
245	0xbf486f56	-0.78294885
246	0x3d894043	0.0670171
247	0xbda0ee22	-0.0785792
248	0xbe4afb91	-0.19822527
249	0xbe9a0b9d	-0.30086985
250	0x3dfbfa3e	0.12303589
251	0xbf258aeb	-0.64665097
252	0xbebf2e23	-0.37339887
253	0xbde38a5e	-0.11110376
254	0x3d97e88a	0.074174
255	0x3f65407c	0.8955152

cell_list.1.conv_can.weight f4 [10, 20, 3, 3]
0	0x3d89430f	0.067022435
1	0x3e909e29	0.28245667
2	0x3e94d9ed	0.29072514
3	0x3ecd6175	0.40113416
4	0x3e725151	0.23663832
5	0x3cf5efd9	0.030021595
6	0xbecbc019	-0.39794996
7	0xbdcbd71e	-0.0995314
8	0xbe8b3bdb	-0.27194104
9	0x3f456db2	0.77120507
10	0x3dbd437c	0.09241387
11	0x3e11ec6f	0.14250349
12	0xbdc7b43b	-0.09751173
13	0xbdb86ba0	-0.09004903
14	0x3c99d3ee	0.018777814
15	0xbdf8e4b2	-0.12152995
16	0x3dec5f39	0.115416
17	0xbf31ef91	-0.69506174
18	0xbeef4bdb	-0.4673756
19	0xbeaef9ef	-0.3417506
20	0xbf045133	-0.516864
21	0xbf0b90bd	-0.5451773
22	0xbec3ef87	-0.38268682
23	0xbe69115b	-0.22760527
24	0xbec8615b	-0.39136776
25	0xbe45baf6	-0.19309601
26	0x3e58fef5	0.21191008
27	0x3d8d5abc	0.06902072
28	0xba925754	-0.0011164942
29	0x3e48c026	0.19604549
30	0x3dc97729	0.09837181
31	0x3e1f2ff6	0.1554564
32	0x3ed39d9f	0.41331193
33	0x3f3fac4f	0.748723
34	0x3d68b3a0	0.05681193
35	0x3ddda84c	0.10823116
36	0x3e7f17cf	0.24911426
37	0xbc288957	-0.010286651
38	0xbd610ae4	-0.054942027
39	0xbf2acce5	-0.66718894
40	0xbecb98f7	-0.3976514
41	0xbe995b41	-0.29952434
42	0xbf09a35f	-0.5376491
43	0x3e98b06e	0.29822105
44	0x3e3dfa66	0.1855255
45	0x3eacf2d0	0.33779
46	0x3e1ef406	0.15522775
47	0x3ea7ded6	0.32787198
48	0xbed3855e	-0.4131269
49	0xbf168abf	-0.5880546
50	0xbf3238f2	-0.6961814
51	0xbd1612b1	-0.03663892
52	0xbd497f8b	-0.0491939
53	0x3d47a9c0	0.04874587
54	0x3e7182ee	0.23585102
55	0xbecc5bce	-0.3991379
56	0xbf0139e8	-0.5047898
57	0xbeeae422	-0.45877177
58	0xbe1b6959	-0.15176906
59	0xbe880bca	-0.26571494
60	0x3e897fa2	0.2685519
61	0x3f058b31	0.52165514
62	0x3e781317	0.24226032
63	0x3ea24f16	0.31700963
64	0x3e0ff585	0.14058502
65	0x3da38d1d	0.079858996
66	0x3d8da226	0.06915693
67	0xbe70e23a	-0.23523799
68	0xbd9a2e16	-0.075283214
69	0x3e4e884e	0.20169184
70	0x3d91b6b9	0.0711493
71	0x3d9bd872	0.07609643
72	0x3df86fca	0.12130697
73	0x3ead92f5	0.33901182
74	0x3e7fbb05	0.24973686
75	0x3ea026e3	0.31279668
76	0x3e01e7a7	0.12686025
77	0xbdc627fd	-0.09675596
78	0x3e66b609	0.22530378
79	0x3d07cdf7	0.033155408
80	0xbe6418fa	-0.22275153
81	0x3dd297df	0.10282873
82	0xbcb258c5	-0.021770844
83	0xbe86124d	-0.26185837
84	0x3d47bc6c	0.048763677
85	0xbebe345d	-0.37149325
86	0x3cd429b9	0.025898801
87	0x3e9749d1	0.29548505
88	0xbe5aef37	-0.21380316
89	0xbed1da31	-0.4098678
90	0x3e123db7	0.14281355
91	0x3ea1c874	0.31598246
92	0x3ed356c2	0.41277128
93	0x3eb079f8	0.34468055
94	0xbe00b0d8	-0.1256746
95	0x3ed0e0f9	0.4079664
96	0x3e2d8d4c	0.16948432
97	0x3e01e7b8	0.1268605
98	0xbe45c95c	-0.19315094
99	0xbb1d05d6	-0.0023959777
100	0x3dce96ac	0.10087332
101	0xbe20c6c8	-0.15700829
102	0x3e46b006	0.19403085
103	0xbd8d2ac0	-0.068929195
104	0xbe815e60	-0.25267315
105	0x3e4fdd34	0.20299226
106	0xbe4a0085	-0.1972676
107	0xbec30205	-0.38087478
108	0xbdb2b8c7	-0.0872665
109	0xbd34eb51	-0.044169728
110	0xbd3728e3	-0.044716727
111	0x3bf0330f	0.0073303054
112	0xbc15b364	-0.009137008
113	0xbe0ef33e	-0.13959977
114	0xbf13979f	-0.5765323
115	0xbf0def77	-0.5544352
116	0xbed02aa0	-0.4065752
117	0xbe32b2d7	-0.17451034
118	0xbdee1fff	-0.116271965
119	0xbe3b0f9a	-0.1826767
120	0x3e42a6c4	0.19008929
121	0x3d09320d	0.033494998
122	0x3d1175e5	0.035512824
123	0x3f4f7962	0.8104459
124	0x3f3105e3	0.6914961
125	0x3e8312ab	0.2560018
126	0x3eb9dae3	0.3629981
127	0x3e30bb19	0.17258872
128	0x3e12a583	0.1432095
129	0x3f3c6848	0.7359662
130	0x3e9decda	0.30844766
131	0xbe1dbc1d	-0.15403791
132	0xbd855e05	-0.065120734
133	0xbe8dba50	-0.27681208
134	0xbf4ff859	-0.81238323
135	0x3e7d2119	0.24719657
136	0x3e91c03a	0.2846697
137	0xbcf74aac	-0.030186974
138	0xbdcedfc8	-0.10101277
139	0x3ec9dfc9	0.39428547
140	0x3f3f8099	0.748056
141	0xbe5bb264	-0.2145477
142	0x3e6bc603	0.23024754
143	0x3f2a47bd	0.66515714
144	0x3e17cf16	0.14825091
145	0xbd788e42	-0.060682543
146	0x3f1b18f2	0.6058494
147	0xbe020a3c	-0.12699217
148	0xbdc6b860	-0.097031355
149	0x3e906774	0.28203928
150	0xbdc4f4f9	-0.09617037
151	0xbe152e1e	-0.14568374
152	0xbe4fa7fc	-0.20278925
153	0xbe77226a	-0.24134222
154	0xbd88656a	-0.06659968
155	0x3dc10a6d	0.09425817
156	0x3d9554db	0.072915755
157	0x3e5ef087	0.21771441
158	0x3eaecee0	0.34142208
159	0xbc797bfa	-0.015227312
160	0xbe43ddaf	-0.19127534
161	0x3e058b6c	0.13041466
162	0x3e6ef715	0.23336442
163	0x3b875514	0.004130015
164	0xbf3c5425	-0.73565894
165	0x3ed7716d	0.42078725
166	0xbec05e45	-0.37571922
167	0xbe71377b	-0.2355632
168	0x3f676c5a	0.90399706
169	0x3eb853f5	0.36001554
170	0x3ecc7e17	0.3993995
171	0xbeb2a4af	-0.3489127
172	0xbd046f0b	-0.03233246
173	0xbeddd27f	-0.43324658
174	0xbde318aa	-0.11088689
175	0x3da54286	0.08069329
176	0x3e0ed957	0.13950096
177	0xbef13b99	-0.47115782
178	0xbf18e7e9	-0.59728867
179	0xbe93863a	-0.28813344
180	0xbf0b80b6	-0.5449327
181	0x3e05c919	0.13064994
182	0x3e89a08b	0.26880297
183	0xbb899389	-0.0041984958
184	0x3e550ce7	0.20805703
185	0x3ec3f02d	0.38269177
186	0x3eab9fb4	0.3352028
187	0x3c9ab623	0.018885678
188	0xbcc51dbd	-0.024062032
189	0x3e3a7f53	0.18212633
190	0xbe48ea11	-0.19620539
191	0xbeaae5ff	-0.33378598
192	0x3e1a4732	0.15066221
193	0xbdd077f3	-0.101791285
194	0xbedd61b5	-0.43238607
195	0xbc3b8180	-0.011444449
196	0x3e22e83b	0.15908901
197	0x3e73a51f	0.23793457
198	0xbf161fab	-0.5864207
199	0x3d9a6bdd	0.075401045
200	0x3e4f5d8c	0.20250529
201	0xbcbc392c	-0.02297648
202	0x3d90b1a4	0.07065132
203	0x3ea2ca1d	0.31794825
204	0xbee20db8	-0.44151092
205	0x3e0280bc	0.12744421
206	0x3cb7e867	0.022449685
207	0xbec25bea	-0.3796075
208	0xbe62e2a5	-0.2215677
209	0x3c24dc5e	0.010062305
210	0xbe8a72cb	-0.27040705
211	0xbedf6bb0	-0.43636847
212	0xbea4290d	-0.3206257
213	0xbe030f5d	-0.1279883
214	0xbe14dfcf	-0.14538501
215	0x3da185c6	0.078868434
216	0x3eea3dbf	0.45750234
217	0x3d3339ff	0.04375648
218	0xbd641bcb	-0.055690568
219	0x3e79ae8d	0.24382992
220	0x3bab4489	0.005226676
221	0xbe8e5e46	-0.278063
222	0xbe1cbdd9	-0.15306796
223	0xbe644980	-0.22293663
224	0xbe178668	-0.14797366
225	0xbe9c6e53	-0.3055292
226	0xbdd42da6	-0.10360269
227	0x3e2bd22f	0.16779397
228	0xbec74232	-0.3891769
229	0xbe75d708	-0.24007809
230	0x3d3e8d4d	0.046521474
231	0xbeefd283	-0.46840295
232	0xbd334d40	-0.043774843
233	0xbce1f6da	-0.027583528
234	0x3c0f6003	0.008750918
235	0xbec20e9e	-0.37901777
236	0xbed30c06	-0.4122011
237	0x3e4ae97b	0.19815628
238	0xbe3e0f54	-0.18560535
239	0xbe873ebd	-0.26415053
240	0xbe3f8927	-0.18704663
241	0xbdc21eb5	-0.09478513
242	0x3e6b98b9	0.23007478
243	0x3e8163f2	0.25271565
244	0x3e22aa95	0.15885384
245	0x3e1ce923	0.1532331
246	0xbdbf0b20	-0.09328294
247	0xbe2003e2	-0.15626481
248	0x3d9d5ad3	0.07683339
249	0x3de70bbc	0.11281535
250	0x3e2c4a5a	0.16825238
251	0x3e76751e	0.24068114
252	0x3b6412dd	0.0034801282
253	0xbe19c433	-0.1501625
254	0xbe08ce5e	-0.13359973
255	0x3df4a444	0.11945394

cell_list.2.conv_gates.weight f4 [20, 20, 3, 3]
0	0xbee4225f	-0.44557473
1	0xbf5ef820	-0.8709736
2	0xbef6e88a	-0.48224288
3	0x3be30542	0.006928117
4	0x3f25c444	0.647526
5	0x3f82a734	1.0207276
6	0xbdeb6de4	-0.11495569
7	0x3f98c53e	1.1935194
8	0x3f4aa668	0.79160166
9	0x3f448b08	0.76774645
10	0xbec89d6d	-0.39182606
11	0x3f93eda5	1.1556898
12	0xbdd10cba	-0.102075055
13	0xbfc63316	-1.548434
14	0xbef41407	-0.4767153
15	0xbfabc42b	-1.3419241
16	0xbef91aec	-0.48653352
17	0x3f872dde	1.0560873
18	0x3f0f900c	0.56079173
19	0xbdf0d47c	-0.11759278
20	0xbf435249	-0.7629743
21	0xbebda960	-0.37043285
22	0x3e93060d	0.28715554
23	0xbf98cd67	-1.1937684
24	0x3c973081	0.018455746
25	0xbdd0f34d	-0.10202656
26	0xbfa87c1f	-1.3162879
27	0x3f26586c	0.6497867
28	0x3e78ee68	0.24309695
29	0x3f041187	0.51589245
30	0x3efe5695	0.49675432
31	0x3fd749cd	1.6819397
32	0x3f748fb5	0.9553178
33	0xbfc1a90e	-1.5129716
34	0xbfde12cc	-1.7349486
35	0x3e4150cc	0.18878478
36	0xbed93758	-0.42425036
37	0xbfac7a75	-1.3474871
38	0xbf80fca7	-1.0077103
39	0xbf75d5d2	-0.9602939
40	0xbf01b4bd	-0.5066641
41	0xbf8bd631	-1.0924741
42	0x3f598cae	0.84980285
43	0x3fd2e53a	1.6476204
44	0x3ff252ff	1.8931578
45	0xbf0d8f8c	-0.5529716
46	0xbf14fa88	-0.5819478
47	0x3ff07820	1.8786659
48	0x3e28709d	0.16449209
49	0x3f0ff6e7	0.5623612
50	0x3e06073d	0.13088699
51	0xbee3a987	-0.44465277
52	0xbdccb068	-0.09994584
53	0xbf40c493	-0.7529995
54	0xbd250af6	-0.040293656
55	0x3f49f9e8	0.7889695
56	0x3e9d6033	0.30737457
57	0x3f722458	0.94586706
58	0x3e9f593a	0.31122762
59	0xbf7d983c	-0.99060416
60	0x3ea2093a	0.31647664
61	0xbeaa12f7	-0.33217594
62	0x3faf1730	1.3678951
63	0x3f1132c6	0.567181
64	0x3ead4f7e	0.3384971
65	0x3ef19a28	0.47187924
66	0xbf9e51af	-1.2368678
67	0xbf041fbc	-0.5161092
68	0x3ed2c372	0.41164738
69	0x3e30413d	0.17212386
70	0x3f8b440a	1.0880139
71	0x3ef6dbb6	0.482145
72	0x4009bbf5	2.152097
73	0x3fa7ce67	1.3109864
74	0x3ede8372	0.4345966
75	0x3fbcca99	1.4749328
76	0x3ea81874	0.32831156
77	0x3ecb33e1	0.39688018
78	0x3e28f01f	0.16497849
79	0x3e8139b4	0.25239336
80	0xbec5283f	-0.38507268
81	0x3ecfd326	0.4059078
82	0xbe239d58	-0.1597799
83	0x3f33ff71	0.7031165
84	0x3f0cbc2c	0.5497463
85	0x3b554ce4	0.003254705
86	0xbf905a1e	-1.1277502
87	0x3f9e0e94	1.2348199
88	0x3f359d87	0.7094349
89	0x3f0c4c95	0.54804355
90	0x3e765f70	0.24059844
91	0x3f0ea147	0.5571484
92	0xbeb64579	-0.35599878
93	0xbdd7faca	-0.10545881
94	0xbef4ceef	-0.47814128
95	0xbf5d1358	-0.8635764
96	0xbe9f5dff	-0.311264
97	0xbeeabbff	-0.45846555
98	0xbe31377a	-0.17306319
99	0xbed72f3e	-0.4202823
100	0xbebe2e58	-0.37144732
101	0xbeb8fa82	-0.36128622
102	0xbea7e1b3	-0.32789382
103	0xbe797310	-0.24360299
104	0xbcf345d2	-0.029696379
105	0xbc70ddd2	-0.014701324
106	0xbe428879	-0.18997373
107	0x3e1cd98e	0.15317366
108	0xbdd9638b	-0.106146894
109	0xbcd22bb5	-0.025655607
110	0xbe901e16	-0.28147954
111	0xbe326f2a	-0.17425218
112	0x3de564f1	0.11200894
113	0x3e89e50b	0.26932558
114	0x3f175836	0.59118974
115	0x3e03d90d	0.12875767
116	0x3e1ed780	0.15511894
117	0xbd32a1d6	-0.04361137
118	0x3efac46b	0.4897798
119	0x3ef8c30f	0.48586318
120	0x3ca099c8	0.019604579
121	0x3e3cf85e	0.1845412
122	0xbe45b235	-0.19306262
123	0xbe710806	-0.23538217
124	0x3d25aa94	0.04044588
125	0xbe82ed43	-0.2557164
126	0xbe832aa9	-0.25618485
127	0xbea42ed0	-0.32066965
128	0xbdfec3b1	-0.12439669
129	0xbcb88d9d	-0.022528464
130	0xbddb2c3d	-0.10701797
131	0xbd14635d	-0.036227573
132	0xbe0f91d1	-0.14020468
133	0xbeab87ee	-0.33502144
134	0xbe6ac458	-0.22926462
135	0xbeb30336	-0.34963387
136	0xbf599caa	-0.85004675
137	0xbc945e82	-0.018111471
138	0x3ca06ced	0.01958319
139	0xbdc2f939	-0.09520192
140	0x3ec4ce46	0.38438624
141	0xbe979062	-0.29602343
142	0xbe3b67e2	-0.18301347
143	0xbe94450c	-0.2895893
144	0x3ef3dce9	0.4762948
145	0xbf630710	-0.8868265
146	0xbf0636ed	-0.5242756
147	0x3d528082	0.051392086
148	0xbeb75543	-0.35807237
149	0xbeb4b9a2	-0.35297877
150	0xbe19b0f0	-0.15008903
151	0x3c150a8a	0.009096751
152	0x3eb0ff03	0.34569559
153	0x3dbc9f6d	0.092100956
154	0x3ebeeb2e	0.37288803
155	0xbea2db8c	-0.31808126
156	0x3ecd02b1	0.40041116
157	0x3f2ac4e4	0.6670668
158	0x3f2c87ab	0.6739451
159	0x3da9895d	0.08278153
160	0x3ee4d49a	0.44693452
161	0x3ea506bd	0.32231703
162	0x3d277bd6	0.040889584
163	0x3ece110c	0.4024738
164	0xbec01bd3	-0.37521228
165	0xbe8d590d	-0.27607003
166	0x3e0051b9	0.12531175
167	0xbe81688e	-0.2527508
168	0x3e1da6ee	0.1539571
169	0xbd9399d8	-0.07207078
170	0x3e582725	0.21108682
171	0xbe10d541	-0.1414385
172	0x3e4543e4	0.1926418
173	0xbe3fdd6b	-0.18736808
174	0xbdd87eb6	-0.10571043
175	0x3c32d79b	0.010915662
176	0xbd9985f7	-0.07496255
177	0xbe76c06a	-0.24096838
178	0x3e8f80bd	0.28027907
179	0xbe2e708a	-0.17035118
180	0x3e85fda1	0.26170066
181	0x3ee79cba	0.4523676
182	0x3f0e0918	0.55482626
183	0x3e8ddcf4	0.27707636
184	0x3dc11cc9	0.094293185
185	0x3dfd9846	0.123825595
186	0x3f84bf63	1.0370907
187	0x3d8ed833	0.069748305
188	0xbe0fa168	-0.14026415
189	0xbfc8022e	-1.5625665
190	0x3f02c33e	0.51079166
191	0xbf010181	-0.5039292
192	0x3f82bfbb	1.0214761
193	0x3eb17b96	0.346646
194	0xbf75d285	-0.9602435
195	0x3ff42f5f	1.9076957
196	0xbea1eac7	-0.31624433
197	0x3ee942c8	0.45558763
198	0x3e901ef3	0.28148612
199	0x3f21de71	0.63230044
200	0x3e881b94	0.2658354
201	0xbc6f07cb	-0.01458926
202	0xbe2a7404	-0.16645819
203	0x3f801956	1.0007732
204	0x3eaadf43	0.3337346
205	0x3f4106f7	0.7540125
206	0xbec32f01	-0.381218
207	0x3f12d531	0.57356554
208	0xbf423cf2	-0.75874245
209	0xbfa0e56f	-1.2570018
210	0x3f4f2dfb	0.80929536
211	0x3ee68662	0.450244
212	0x3ec9675d	0.39336672
213	0x3f806ffc	1.0034175
214	0xbf21e3bd	-0.63238126
215	0xbf4dbb87	-0.8036427
216	0x3f08cad1	0.53434473
217	0xbfccdbf1	-1.6004621
218	0xbfd71165	-1.6802183
219	0xbe133fb4	-0.1437977
220	0xbfa936a7	-1.3219804
221	0xbf692b9c	-0.9108217
222	0xbf0dcdf7	-0.553924
223	0xbf86cdd4	-1.0531564
224	0x3e5f27eb	0.21792571
225	0xbee63c02	-0.44967657
226	0xbf8d536c	-1.1041083
227	0xbf5bc53a	-0.8584782
228	0x3e6eeb5a	0.23331967
229	0x3e13e8e3	0.14444308
230	0x4001d438	2.0285778
231	0xbdad8a89	-0.08473689
232	0x3f10b2f2	0.5652305
233	0x3fe5a90d	1.7942215
234	0xbf4ede42	-0.8080789
235	0xbf88a408	-1.0675058
236	0x3f87a395	1.0596796
237	0xbebb407f	-0.36572644
238	0x3f0b6e70	0.5446539
239	0x3f3ddc48	0.7416425
240	0xbf059c5b	-0.52191705
241	0x3f16e46e	0.58942306
242	0xbef9cc56	-0.48788708
243	0xb9943627	-0.00028269106
244	0xbef8651f	-0.4851465
245	0x3ebf4c92	0.37363106
246	0x3f888b30	1.0667477
247	0xbeada5f0	-0.33915663
248	0xbdb8e364	-0.09027746
249	0xbf9b5621	-1.213566
250	0xbf28f129	-0.6599298
251	0x3fc420ac	1.5322471
252	0x3deb8804	0.11500552
253	0x3fc51d57	1.5399579
254	0x3fdf166b	1.7428716
255	0x3dcfde05	0.10149769

cell_list.2.conv_can.weight f4 [10, 20, 3, 3]
0	0xbdc98b80	-0.09841061
1	0xb9a39966	-0.00031204073
2	0x3dccaae9	0.09993536
3	0xbce56ea9	-0.028006868
4	0xbe413d28	-0.18870986
5	0xbe533389	-0.20625128
6	0x3cd0e649	0.025500434
7	0x3ed1083b	0.40826592
8	0x3ed67d23	0.41892347
9	0x3eb350fa	0.35022718
10	0xbf569bc7	-0.8383145
11	0x3e3b8094	0.18310767
12	0xbeeb9bb9	-0.46017244
13	0xbef42f64	-0.47692406
14	0x3e4262a9	0.18982948
15	0x3ed20ae5	0.41023937
16	0x3e88bf4c	0.26708448
17	0x3d812ad5	0.06306998
18	0x3f11d89a	0.5697113
19	0x3e9a5c16	0.3014838
20	0xbde87a20	-0.113514185
21	0x3dd48a83	0.103779815
22	0x3f2063a2	0.6265203
23	0xbefe21bd	-0.49635115
24	0xbe80d16a	-0.2515977
25	0x3e66af79	0.22527875
26	0xbf24b9a6	-0.6434578
27	0x3eedce72	0.46446568
28	0x3da7add4	0.08187452
29	0xbdc1fcfe	-0.094720826
30	0x3cdd7195	0.0270317
31	0x3dc36afb	0.09541889
32	0xbd9e531b	-0.07730695
33	0xbe1239dd	-0.14279886
34	0xbeecd6eb	-0.4625772
35	0x3e0a2a5e	0.13492724
36	0xbde9522c	-0.11392626
37	0x3d6d3444	0.057911173
38	0x3ee92691	0.45537236
39	0xbe98584c	-0.29754865
40	0xbec61f90	-0.38695955
41	0xbe1b70dd	-0.15179773
42	0x3ea509a4	0.32233918
43	0x3ee9df4d	0.45678177
44	0xbf0efa6d	-0.5585087
45	0x3c395827	0.011312521
46	0x3df0d7b7	0.11759894
47	0x3db21eb6	0.08697264
48	0xbf443c04	-0.76654077
49	0xbe6b81ab	-0.22998683
50	0xbd8ca820	-0.06868005
51	0x3e7e8d9c	0.24858707
52	0xbe911ea1	-0.2834368
53	0xbf987edc	-1.1913714
54	0x3e023f9e	0.1271958
55	0x3e033ec9	0.1281692
56	0xbe9e9da6	-0.3097965
57	0x3d699aa6	0.05703225
58	0xbdf7a18d	-0.1209136
59	0xbae4a1e1	-0.0017443263
60	0xbe87e8e5	-0.26544872
61	0xbecaa0b1	-0.39575723
62	0xbf054d64	-0.52071214
63	0x3dffc68b	0.12489041
64	0x3e4b2d53	0.19841509
65	0xbe859550	-0.2609048
66	0xbf0ad2a7	-0.5422768
67	0xbef0d586	-0.47037905
68	0xbca20ab5	-0.019780496
69	0xbde9e70c	-0.11421022
70	0x3e35c81a	0.17752114
71	0x3da4f8cc	0.08055267
72	0xbda5556f	-0.08072936
73	0xbf0fcf4d	-0.5617569
74	0xbe6629df	-0.2247691
75	0x3c02dfd0	0.007987931
76	0x3ccf6757	0.025317831
77	0x3f36cc53	0.71405524
78	0xbf0b4004	-0.54394555
79	0x3f0d7876	0.55261934
80	0x3b911232	0.004427218
81	0x3d1431e1	0.03618038
82	0x3d593c7b	0.053036194
83	0x3cf82dc1	0.030295255
84	0x3f0fb25c	0.5613153
85	0x3da47715	0.080305256
86	0xbe3d749e	-0.18501517
87	0x3e36bf20	0.17846346
88	0x3dce047d	0.1005945
89	0xbe25bc33	-0.16185074
90	0x3e6b42bb	0.22974674
91	0x3e329468	0.17439425
92	0x3f171392	0.59014237
93	0x3f00d6b8	0.50327635
94	0xbd535c09	-0.051601443
95	0xbec12f13	-0.37731227
96	0xbea5e03a	-0.32397634
97	0xbeb16d2a	-0.34653598
98	0xbf0d2136	-0.551288
99	0x3f0ee710	0.55821323
100	0x3e980a12	0.29695183
101	0xbdf33b47	-0.11876541
102	0x3e73a7ab	0.23794429
103	0xbdc5f239	-0.09665341
104	0xbd39ccee	-0.04536145
105	0xbf030dc4	-0.5119288
106	0xbdee00fb	-0.11621281
107	0xbe9cd6bc	-0.3063258
108	0x3e0bc6cf	0.13650058
109	0xbcdd2051	-0.026992949
110	0xbf6e6b82	-0.93132794
111	0x3ea9f396	0.33193654
112	0xbc836f71	-0.01604435
113	0xbed2d4e6	-0.41178054
114	0x3ea3e5e1	0.3201132
115	0xbd55164b	-0.052023213
116	0x3f0ecef8	0.5578456
117	0x3e50ecd3	0.20402841
118	0x3e789a92	0.24277714
119	0xbe11e436	-0.14247212
120	0x3ead262b	0.33818182
121	0x3eb594cf	0.35465094
122	0x3e214440	0.15748692
123	0x3f124579	0.57137257
124	0x3e6c3c74	0.23069936
125	0x3ec73286	0.38905734
126	0xbc64168e	-0.013921393
127	0xbee268ef	-0.44220683
128	0xbe594baf	-0.21220277
129	0xbed4b3df	-0.4154348
130	0x3e42d10a	0.19025055
131	0x3f1a807e	0.60352314
132	0xbe8b3d5d	-0.27195254
133	0x3ecfdc86	0.40597934
134	0x3f069c6a	0.5258242
135	0x3f067d02	0.52534497
136	0x3ec8c088	0.3920939
137	0x3d2b0051	0.04174835
138	0xbea59420	-0.32339573
139	0xbdc12e39	-0.094326444
140	0x3e71a8bf	0.23599528
141	0x3db5942b	0.088661514
142	0xbdb8bf44	-0.09020856
143	0xbf21e26d	-0.63236123
144	0xbdc9de97	-0.09856909
145	0x3eb3dea6	0.35130805
146	0x3eab1756	0.3341624
147	0xbe803165	-0.25037685
148	0x3d73e822	0.05954755
149	0xbda24cbd	-0.07924793
150	0xbd9986be	-0.07496403
151	0xbe030db6	-0.12798199
152	0x3ea5bad7	0.3236911
153	0xbdc3b0b0	-0.09555185
154	0xbe7f490d	-0.2493021
155	0xbf4c553f	-0.79817575
156	0x3e30813d	0.172368
157	0xbe8a38e3	-0.26996526
158	0xbf607680	-0.87680817
159	0xbe29707e	-0.16546819
160	0xbee9a419	-0.4563301
161	0x3f08ec04	0.5348513
162	0xbf7924db	-0.9732186
163	0xbe228af0	-0.15873313
164	0x3e2ef72f	0.1708648
165	0xbcc72246	-0.024308335
166	0xbeda0ccf	-0.42587897
167	0xbd9aa51e	-0.07551025
168	0xbf0e0697	-0.55478805
169	0xbe892bc6	-0.2679121
170	0x3d34a78b	0.044105094
171	0xbf064367	-0.524466
172	0x3e4dc5e6	0.20095024
173	0xbd324547	-0.0435231
174	0x3d65aae6	0.056071185
175	0x3e23bf83	0.15991025
176	0x3e0c8790	0.13723588
177	0x3e040877	0.12893854
178	0xbe19cf37	-0.15020452
179	0x3e2df83e	0.16989228
180	0xbe4dc4fb	-0.20094673
181	0xbe87c395	-0.26516405
182	0xbe4b2e82	-0.1984196
183	0x3eee7dff	0.46580502
184	0xbe790138	-0.24316871
185	0xbf0f796f	-0.5604467
186	0x3e8341df	0.25636193
187	0xbc44d6b6	-0.012014082
188	0xbe81119c	-0.25208747
189	0x3e25ebc9	0.16203226
190	0x3ec2394d	0.37934342
191	0xbf191dbd	-0.59811
192	0x3e0c070d	0.13674565
193	0x3d0e2da9	0.034711514
194	0xbee55666	-0.4479248
195	0x3ea1b7e8	0.31585622
196	0x3f09cadd	0.5382517
197	0x3d115242	0.035478838
198	0x3f0fe4c8	0.5620847
199	0x3d25a0c9	0.04043654
200	0x3eb18fb1	0.3467994
201	0xbdd84802	-0.105606094
202	0x3e806593	0.25077495
203	0x3f3ee420	0.7456684
204	0xbe496f29	-0.1967131
205	0x3d206150	0.039155304
206	0x3dfac2a0	0.12244153
207	0x3e856286	0.2605173
208	0x3f161c3e	0.58636844
209	0x3eae22fa	0.3401106
210	0xbe9fd3b2	-0.31216198
211	0xbf21c726	-0.631945
212	0x3d61c20f	0.05511671
213	0x3e6fd62b	0.23421542
214	0x3f18a708	0.5962987
215	0xbea71c7c	-0.3263892
216	0x3edf5515	0.436196
217	0xbc355cb8	-0.011069469
218	0x3eab931b	0.3351067
219	0xbf48eff3	-0.78491133
220	0xbf00bcb6	-0.5028795
221	0xbda63a2a	-0.08116563
222	0x3e8237a8	0.25433087
223	0xbe9bf3be	-0.30459398
224	0x3f242355	0.6411641
225	0xbeda9b00	-0.4269638
226	0x3e654eda	0.2239336
227	0xbf25bdb0	-0.64742565
228	0xbf178254	-0.5918324
229	0x3da91061	0.08255077
230	0x3d26fb2c	0.04076688
231	0x3f0dc5e6	0.55380094
232	0x3eebfd49	0.4609168
233	0x3d882ea5	0.06649522
234	0xbf6c4698	-0.9229522
235	0xbe86b28d	-0.26308098
236	0xbf254412	-0.6455699
237	0x3ecdf387	0.4022486
238	0x3ebea8db	0.37238201
239	0xbb5b8442	-0.003349558
240	0x3c15ab19	0.009135031
241	0x3e91e8a5	0.28497806
242	0xbf6cd317	-0.925096
243	0x3f0c13ab	0.5471751
244	0x3ea78eea	0.32726222
245	0x3e9a8d76	0.3018605
246	0xbf98f8a1	-1.1950876
247	0xbf5c3d5f	-0.86031145
248	0xbe02a398	-0.12757719
249	0x3e70ed9a	0.23528138
250	0x3ec9f5aa	0.3944524
251	0x3ea1e420	0.31619358
252	0x3f82fb82	1.0233004
253	0x3f0a56ed	0.5403889
254	0x3ede525f	0.4342222
255	0xbeffbb4b	-0.4994758

cell_list.3.conv_gates.weight f4 [20, 20, 1, 1]
0	0xbf4b5e0e	-0.7944039
1	0xbfa81636	-1.3131778
2	0xbf138159	-0.57619244
3	0xbe2842cb	-0.1643173
4	0x3e4b7860	0.19870138
5	0xbe0f64dd	-0.1400332
6	0xbd22305a	-0.039596893
7	0xbea982f0	-0.3310771
8	0x3f7d6cad	0.9899395
9	0xbf2815db	-0.6565835
10	0xbf723a1c	-0.9461992
11	0xbffc5e35	-1.971625
12	0xbf44b5e4	-0.76840043
13	0x3d2d78c5	0.042351503
14	0xbfb6d5cb	-1.4283994
15	0xbe9096f4	-0.28240168
16	0x3e833dda	0.25633126
17	0xbf06e014	-0.52685666
18	0xbf3f719d	-0.74782735
19	0xbdf1e0dc	-0.11810467
20	0xbd66b05d	-0.056320537
21	0x3e9b7795	0.3036467
22	0x3f60a238	0.87747526
23	0x3e6b54ec	0.22981614
24	0xbf412c50	-0.7545824
25	0xbf57243c	-0.84039664
26	0x3f8f57ef	1.119871
27	0xbfac9c12	-1.3485129
28	0x3f4e1e22	0.8051473
29	0xbf2c8233	-0.6738617
30	0x3d701755	0.058616
31	0x3f2a8c97	0.66620773
32	0xbf011cd4	-0.50434613
33	0x3e726ba9	0.23673882
34	0xbdccec51	-0.10006011
35	0x3c9a172b	0.018809875
36	0xbea49624	-0.32145798
37	0x3f01a1ff	0.5063781
38	0xbf1ee0e2	-0.62061894
39	0xbf2b52ed	-0.6692341
40	0x3fb66d48	1.42521
41	0xbd492fe4	-0.049117938
42	0xbec6b266	-0.38807982
43	0xbf12cbb7	-0.57342094
44	0x3ff8e634	1.9445252
45	0xbf9dcb26	-1.2327621
46	0xbd15ae9a	-0.036543466
47	0x3f1b07fb	0.6055905
48	0xbee06e81	-0.43834308
49	0x3f513da7	0.817347
50	0xbf594188	-0.8486562
51	0x3d8f84b8	0.07007736
52	0x3ea3a1fc	0.31959522
53	0xbfc890ad	-1.5669152
54	0x3f19fd66	0.6015228
55	0xbf7bb0bb	-0.98316544
56	0x3f08f0d8	0.534925
57	0xbf00a95e	-0.50258434
58	0xbf04ccfb	-0.51875275
59	0xbccff6e0	-0.025386274
60	0xbe337a17	-0.17527042
61	0x3f4490ca	0.7678343
62	0xbf131f5d	-0.5746973
63	0x3dd21f9c	0.10259935
64	0x3f9af1c0	1.2105026
65	0xbf19c8c0	-0.60071945
66	0xbdf8e6fe	-0.12153433
67	0x3f1ee3c4	0.6206629
68	0xbe3e20d7	-0.18567215
69	0x3e581154	0.2110036
70	0x3d94f552	0.07273354
71	0xbf0ab1c2	-0.54177487
72	0xbf49be48	-0.7880597
73	0xbf79c047	-0.97559017
74	0xbf10870f	-0.56456083
75	0x3d155194	0.036454752
76	0xbf3a7454	-0.7283375
77	0x3e40111a	0.18756524
78	0x3e4ed91e	0.20200011
79	0xbebc3d6a	-0.36765605
80	0x3efa0a60	0.4883604
81	0x3ded831d	0.115972735
82	0x3e43d2e2	0.19123414
83	0xbe93a3a5	-0.28835788
84	0xc00b0b75	-2.1725743
85	0x3e8417b9	0.2579935
86	0x3f900948	1.1252832
87	0xbf5bd3d6	-0.8587011
88	0xbf82c12c	-1.0215201
89	0x3fcb1ae8	1.5867586
90	0xbe2b19ed	-0.16709109
91	0xbe08484f	-0.13308834
92	0xbf53e944	-0.8277781
93	0x3f04f226	0.5193199
94	0xbf2bf969	-0.67177445
95	0xbe0c15bc	-0.13680166
96	0x3e926724	0.28594315
97	0x3ec276ed	0.37981358
98	0xbef56143	-0.47925767
99	0xbf57fa22	-0.8436605
100	0x3f2b185c	0.66834044
101	0x3f827647	1.0192345
102	0xbe07cabd	-0.13260932
103	0x3e1a2ed8	0.15056932
104	0x3e05852e	0.13039085
105	0xbf329ea4	-0.69773316
106	0xbf1c7fa5	-0.6113227
107	0xbec294ad	-0.38004056
108	0xc01c75c4	-2.4446878
109	0xbf6b7a3a	-0.9198338
110	0xbdf72fbc	-0.120696515
111	0xbe048163	-0.12939982
112	0x3ec792da	0.38979226
113	0xbf02f526	-0.51155317
114	0xbe72aa44	-0.23697764
115	0xbfa8984a	-1.3171475
116	0x3eb6ed5b	0.35727963
117	0xbf8d8fb5	-1.1059481
118	0xbd80a21e	-0.062809214
119	0xbe99e8c1	-0.3006039
120	0x3f882e36	1.0639102
121	0x3f13c9b3	0.57729644
122	0xbfd9225f	-1.6963614
123	0xbe6feb1b	-0.2342953
124	0xbf11cf7c	-0.5695722
125	0x3f209aac	0.6273601
126	0xbf244b50	-0.6417742
127	0x3ee9e40e	0.45681804
128	0xc00124ea	-2.017878
129	0x3ebf9d5f	0.37424752
130	0xbeb7b7ab	-0.35882315
131	0xbd9e5cea	-0.07732566
132	0x3ee27c25	0.4423534
133	0xbf6d4dda	-0.9269692
134	0xbdc10d21	-0.09426332
135	0xbeac50a3	-0.3365527
136	0x3e853ee0	0.26024532
137	0xbeff2ccf	-0.49838874
138	0xbf75445a	-0.9580742
139	0xbfd41a92	-1.6570609
140	0xbeaf71db	-0.34266552
141	0xbff51110	-1.9145832
142	0xbefbbb02	-0.49166113
143	0xbcdd2f79	-0.027000176
144	0xbc6f18ea	-0.014593342
145	0x3f4fbacb	0.811444
146	0xbfa16f91	-1.2612172
147	0xbe0b13b6	-0.13581738
148	0xbdb5cc25	-0.08876828
149	0x3f5ee2ca	0.870648
150	0xbf222d0f	-0.63350004
151	0x3e379dca	0.17931286
152	0x3ef47adb	0.4774998
153	0xbed6eab8	-0.4197595
154	0xbe52bc57	-0.20579658
155	0xbfbf53de	-1.4947469
156	0x3e4d7c56	0.20066962
157	0xbfa47c68	-1.2850466
158	0xbec72099	-0.38892058
159	0x3e99b4f7	0.30020878
160	0x3e5390b0	0.20660663
161	0x3f16fa80	0.5897598
162	0x3f217381	0.6306687
163	0x3fd06cf6	1.6283252
164	0x3f482f84	0.78197503
165	0xbfe9afa4	-1.8256726
166	0xbe5c6d40	-0.2152605
167	0xc041e5fd	-3.0296624
168	0xbf8fb929	-1.1228381
169	0xc00484af	-2.0705984
170	0x3d832c91	0.06404985
171	0xbf09176f	-0.5355138
172	0x3f90964b	1.1295866
173	0xbf69dbde	-0.91351116
174	0xbdfbcde5	-0.12295131
175	0xbf49d4e4	-0.7884047
176	0xbd2280a6	-0.03967347
177	0xbc84df15	-0.016219655
178	0x3ef73d5c	0.48289
179	0xbf0c3480	-0.5476761
180	0x3e8b598f	0.27216765
181	0x3dbb5cbe	0.091485485
182	0xbf78e02b	-0.97217053
183	0x3f4fb463	0.81134623
184	0x3ebcf0eb	0.36902556
185	0x3f60f641	0.87875754
186	0x3f001495	0.50031406
187	0xbfe926da	-1.8214982
188	0xbf3c31fd	-0.73513776
189	0xbf0c8f9c	-0.5490663
190	0xbf141c1a	-0.5785538
191	0x3e71565d	0.23568101
192	0x3f6d0a14	0.92593503
193	0xbf2d1ab4	-0.6761887
194	0xbdfabc36	-0.1224293
195	0xbf2b60dc	-0.6694467
196	0xbffd6081	-1.9795076
197	0x3dfeb71d	0.1243727
198	0x3e11bd08	0.14232266
199	0x3dcb8a45	0.09938482
200	0xbe889c00	-0.2668152
201	0x3caf147e	0.021372076
202	0xbefd2689	-0.49443462
203	0x3ea75f9d	0.32690135
204	0x3d79a7bc	0.06095098
205	0x3dd09a22	0.101856485
206	0xbf13d144	-0.5774119
207	0x3f18f677	0.59751076
208	0x3e9f1a4b	0.31074747
209	0xbec6bb4e	-0.38814777
210	0xc05158b0	-3.271038
211	0xbff9cdce	-1.9515932
212	0xbe882e0f	-0.2659764
213	0x3f1e4390	0.6182184
214	0xbfd91ea4	-1.6962476
215	0xbe2fe4be	-0.17177102
216	0xbe1f34a7	-0.15547429
217	0x3ecb9f2d	0.3976988
218	0xbf7c8ffb	-0.98657197
219	0xbef32c0e	-0.4749455
220	0xbe829edf	-0.25511834
221	0xbe961efa	-0.29320508
222	0xbe8a8a6a	-0.27058727
223	0x3f42e6a4	0.7613318
224	0x3ddc193b	0.10747
225	0xbef8ba88	-0.48579812
226	0xbf159aa1	-0.5843907
227	0xbdb37032	-0.08761634
228	0x3e84e1a9	0.25953415
229	0xbeaea273	-0.34108314
230	0xbfbfa1ee	-1.4971292
231	0xc0875d21	-4.2301183
232	0x3e40c6b8	0.18825805
233	0xbee8b7ed	-0.45452824
234	0x3fee2545	1.8605124
235	0x3ec2d088	0.38049722
236	0xbeab4e19	-0.3345802
237	0xbf2c02db	-0.6719186
238	0x3f86911c	1.0513034
239	0x3f0672c6	0.5251888
240	0xbe1f6114	-0.15564376
241	0x3ef90bd4	0.48641837
242	0xbf1a92cc	-0.60380244
243	0xbd36144a	-0.044452943
244	0x3ebd3e32	0.36961514
245	0x3f0b5b65	0.5443633
246	0x3f59be47	0.85055965
247	0xbf36894f	-0.71303266
248	0xbf78288b	-0.96936864
249	0xbe4161ac	-0.18884915
250	0xbec373e1	-0.38174346
251	0x3e87cd10	0.26523638
252	0xc04e6bb1	-3.225323
253	0xbfd2bf1a	-1.646457
254	0x3c21da7d	0.009878752
255	0xbf25be1e	-0.6474322
