saved_models/ambaudio_brainlike_composite/random3_8.pt (torch, 120528 bytes, 14 tensors)

cell_list.0.conv_gates.weight f4 [20, 11, 3, 3]
00000000: 2626 d1bd 9dac 87bd e7e2 42bd 2d67 7e3d
00000010: f4d1 fb3d f28a 023e 1b86 803e 2935 dc3d
00000020: 9bfc 743e edd9 b2be 26b0 44be 144b 8abe
00000030: e3e5 bebe 2d2e d7be c7c9 dabe 2937 a2bd
00000040: e863 11bc 1a94 79be 820e 9f3d decd f63c
00000050: 1c30 343d d537 8c3e fd9f 243e 3764 933e
00000060: 2b15 813e 77a3 7c3d 2cea 753e 6749 5f3d
00000070: 2c98 843d 08d7 073d 3934 e7be d16c d9be
00000080: e4e7 ddbe f8c7 f2be 5dba 01bf 92be c1be
00000090: 1282 b4be 62ff 83be c2d7 f6be 36d2 60be
000000a0: 8115 bcbd aa9c 49be f9c7 2d3e 3fa4 f63d
000000b0: 539a 083e 8e52 5abd 39fd 32be 4ffe 44be
000000c0: 986a b2be 0976 51be a7ae 97be 46b5 c4bd
000000d0: ca44 a3bd eb35 12be 6dc0 a2be 6520 8dbe
000000e0: 29cb b5be f3b7 1c3e 85e1 a73d b0e2 733c
000000f0: 4adc fe3e f6dd 003f 978f bb3e 77d0 a33e
00000100: 83c6 ac3e 2efd 993e 855b 983e edd2 a53e
00000110: cfcb 8b3e 98fd a5bc c81c 693d 3c57 803d
00000120: 5df4 83be 9a4f b9be 6aea bcbe 2b12 a4be
00000130: 72dc acbe b162 b6be f2e9 14be 24b7 d93b
00000140: e547 ddbd 801f 7d3e 0e7b a73e 9b67 b43e
00000150: a841 043e 0cd2 2e3e d58a 023e cb8b 40be
00000160: b81e 2fbe fcaa 5a38 57e0 d0be ceff 7cbe
00000170: 5917 ebbe 4c23 19be b79e 3bbe 1e9c 5fbe
00000180: 1d73 b23d 3835 a23c 9c6e e0bd 21a3 ebbd
00000190: 9e56 81be 09fd 47be 9d5a 873c 5008 2bbd
000001a0: bfa6 4fbd aa5f b53d 63da d13d 9c08 ac3d
000001b0: c9f2 abbe aa41 a4be 4c51 69be ef18 72be
000001c0: c7c4 29be 94bb 1fbe aadf 9cbd cd53 7d3d
000001d0: e57b e6bb a877 783e c243 4d3e de8f 5f3e
000001e0: bd52 b23d 835e 0b3e 0b7f 903d b563 043e
000001f0: 247d 58bc 7789 61bc 8af4 1bbe e10f 24be
00000200: e223 4abe 15e3 c6be e5f4 d6be 9f40 b2be
00000210: 28bb d0be db79 c7be 8b54 d0be aa9b 19be
00000220: 2762 afbd 8d29 4bbe ce18 9d3c b96c 3dbd
00000230: 43c0 6dbd ffc6 923e 0af7 b23e 210f 583e
00000240: 4d96 3fbe bbea 6bbe ab72 71be b031 18bd
00000250: 5e86 e0bc cdde 44be 0d2e 1fbd 096c 583d
00000260: c67f f33d 09f8 dcbd bc8b 393d 9ed0 02be
00000270: 2d2e b03e 84a9 ac3e fe44 b23e cfd1 963e
00000280: 9b2d e83e 8247 733e b6be fc3d 8914 473e
00000290: 078e 573e cc05 293e 7aaa a93d 142e a83d
000002a0: 5e05 d2bd 9ab6 10be 0256 e5bd 3fe5 1fbe
000002b0: fd68 1bbe d7ab 8ebe a364 77be 476f 20bd
000002c0: c8ee 1dbe 7fa4 103d cea8 3b3d 6450 bb3d
000002d0: b077 5f3e cb0b 493e 4e8b 7d3e 0a44 81bd
000002e0: 8d78 863d e1f6 a33d dc3d 73be 87b5 5bbe
000002f0: 0e48 54be 19ad 79be a8fb 48be 94e5 1abe
00000300: 1292 cbbd 3ce2 ab3d d6b7 6ebd 0a30 ef3d
00000310: 8ad9 0d3e e4c5 103e 323f a93e 4003 983e
00000320: b2e3 823e 25c3 b43e 3528 ac3e 063a ad3e
00000330: 084e ca3e cc35 9d3e 83ff 9b3e dede 1dbf
00000340: d1f6 efbe 7acf cbbe 067a 30bf 046b acbe
00000350: d766 0fbe 5775 88be 0012 49be a8f2 c5bd
00000360: d490 e03e 6fde 083f 13bc 9d3e 459b 353f
00000370: a343 c33e 9e14 7e3e c4a3 043e 784b bc3d
00000380: d35c 04be 25aa 91bd 8ecb 6cbe ad0a 37be
00000390: bee6 d0bd 9d75 5fbe fec9 a8bd 70a1 42be
000003a0: 7cb4 16be 6150 c2bd fac1 2abf 61fa cdbe
000003b0: 1212 6fbe 20e1 72be dfa1 c73c 20ee 143e
000003c0: 0b46 20be 0cc5 91bd 877b 163d 8f0a 0cbf
000003d0: 0695 fbbe b6bb a3be 8c76 12bf d7c0 5abe
000003e0: 9236 cdbd bac7 06be 48e3 393d 83be 383e
000003f0: ad69 56be 7f09 d53c 0c8a 423e 8e38 f6bd
-0.10212354 -0.0662472 -0.047579672 0.062110115 0.12295905 0.12748316 0.25102314 0.10752327
0.23924486 -0.3493189 -0.1920782 -0.27010405 -0.37284765 -0.42027417 -0.4273207 -0.07920677
-0.008873917 -0.24372903 0.07766439 0.030127462 0.043991193 0.27386346 0.16076656 0.28787395
0.25211462 0.06167933 0.2401511 0.05451336 0.06474337 0.033164054 -0.4515703 -0.42465833
-0.4334098 -0.4741819 -0.5067499 -0.37840706 -0.35255486 -0.2578078 -0.48211485 -0.21955189
-0.09183789 -0.19688669 0.16970815 0.12043046 0.1334012 -0.053301387 -0.1747941 -0.19237636
-0.3484695 -0.20455183 -0.29625437 -0.09604888 -0.07972105 -0.1427838 -0.31787434 -0.27563778
-0.3550656 0.15304546 0.08197311 0.0148855895 0.49777442 0.50338686 0.36632988 0.31994984
0.33745202 0.30075973 0.29757324 0.32387486 0.2730393 -0.020262524 0.056912214 0.06266639
-0.25772372 -0.36193544 -0.36897594 -0.3204511 -0.33761936 -0.3562217 -0.14542368 0.0066441465
-0.108047284 0.24719048 0.3271107 0.35235295 0.12915671 0.17072314 0.12748273 -0.18803327
-0.17101562 5.2134492e-05 -0.40796158 -0.24706957 -0.4591625 -0.14954871 -0.18322264 -0.21836898
0.08713362 0.019800767 -0.10958597 -0.11505724 -0.25261396 -0.19530119 0.0165227 -0.041755974
-0.05069613 0.08856137 0.10246732 0.084000796 -0.33583668 -0.32081348 -0.22784919 -0.23642324
-0.16578971 -0.15598899 -0.07659848 0.061847497 -0.0070338123 0.24264395 0.20045379 0.21832225
0.08707187 0.13610272 0.070554815 0.1292866 -0.01321343 -0.013765684 -0.15230003 -0.16021682
-0.1974025 -0.38845125 -0.41983715 -0.34814927 -0.4076779 -0.38960156 -0.406895 -0.15000787
-0.08563643 -0.19840069 0.019176867 -0.046246264 -0.058044683 0.28667447 0.349541 0.21099521
-0.18709679 -0.23038761 -0.23578899 -0.03715676 -0.027407821 -0.19225617 -0.038862277 0.052837405
0.11889605 -0.107894965 0.045299277 -0.12774894 0.3441023 0.3372308 0.34818262 0.29456946
0.45347294 0.23757747 0.12341063 0.19441427 0.21050273 0.16506118 0.08284469 0.08211914
-0.1025493 -0.14132157 -0.11198045 -0.15614794 -0.15176769 -0.27865478 -0.24159484 -0.039168622
-0.15423119 0.035313126 0.04581528 0.09146193 0.21823001 0.19633405 0.24760172 -0.063118055
0.06565962 0.08006073 -0.23754066 -0.21455966 -0.20730612 -0.24382438 -0.19627249 -0.1512664
-0.0993997 0.0839276 -0.05828079 0.116790846 0.13852516 0.1413799 0.33056027 0.2968998
0.25564343 0.35305133 0.33624426 0.3383333 0.39512658 0.30705106 0.30468377 -0.61668193
-0.46867993 -0.3980673 -0.68936193 -0.33675396 -0.14004074 -0.26652023 -0.19635773 -0.09665424
0.43860495 0.53464407 0.30807552 0.7094005 0.3813754 0.24812552 0.12953097 0.09194082
-0.12926035 -0.071125306 -0.23124525 -0.17875166 -0.102002606 -0.2182221 -0.08241652 -0.19006896
-0.14717287 -0.09487987 -0.66702235 -0.40230086 -0.23346737 -0.23718691 0.024369178 0.14543962
-0.1565172 -0.07117662 0.0367389 -0.5470361 -0.49137133 -0.3197915 -0.5721214 -0.21362625
-0.10020174 -0.13162127 0.045382768 0.18041424 -0.2093875 0.026005505 0.18997973 -0.12022506

cell_list.0.conv_can.weight f4 [10, 12, 3, 3]
00000000: 8a9f 09be ec21 0dbe fd0b 85bd af7d a73d
00000010: e6b8 ce3b b4f6 0b3c 91af 183d 2c46 633e
00000020: 7904 0b3e e7d1 cd3e dc36 973e feb1 6e3e
00000030: 0a81 ed3e ce9f ac3e fc38 573e 1533 733d
00000040: cba1 033e 645b 99bd bb2c bdbe e2f8 c2be
00000050: 25d2 82be 5d5c 07bf 7643 03bf e08a 91be
00000060: e103 80be 8319 6abe eac9 28be 3b99 20be
00000070: d176 83bd 2ef7 9f3d 428e 853d 85cf 493e
00000080: 1de4 5f3e c8c2 3f3e f907 9f3e a252 963e
00000090: 328d 3e3f b742 243f 9eec cc3e f31f c73e
000000a0: e765 c03e d7c4 893e 7460 ddbd 8167 3bbe
000000b0: 78e8 0abe 5576 fb3e 98f8 003f 1b0a be3e
000000c0: 49fa 4b3f 9961 243f c75a 013f cc0f 5d3e
000000d0: 10e7 e63d cae3 c6bd ddd8 983f c242 703f
000000e0: bdf7 453f f519 8c3e b434 333e e0f7 c53c
000000f0: 4430 79be 9a95 97be f715 d7be 3d66 0bbf
00000100: 1d0b 09bf 52d2 cabe 1792 ddbe 8556 00bf
00000110: fc1d c6be 1516 97bc 2abd 6e3c acaa f83d
00000120: 73d9 3b3f 3843 1a3f 08a3 fe3e 26f7 483f
00000130: beb8 3c3f 559e 9d3e 862a 833e 3761 9d3d
00000140: 3710 8e3d 1f7d 0fbf 8d67 15bf 2e58 c7be
00000150: 7a02 09bf fafb bcbe f602 94be ba9a e7bd
00000160: d74b 223c 9cc4 25bd 7cad 323f 6f8f 223f
00000170: bdc5 eb3e 15c4 233f 24aa ff3e dc59 883e
00000180: eafd 093e 005b 89bb 1827 bd3c 7442 9d3d
00000190: 8bee 323e 6e4d 6f3e 9436 183e 27c8 933e
000001a0: 4d32 f13d fb66 aa3d 6d09 1c3e ea17 a53d
000001b0: 4b10 263e 4abd db3c 919d cd3d 59ce fc3c
000001c0: 654d d4bd 9c5a 61bd c002 babb 8e6c 9dbd
000001d0: 1697 5dbe 39cb e2be 78da a3be 9582 54be
000001e0: 3678 9bbe 03aa b1be d7f0 4cbe 2a1f dcbd
000001f0: 64f4 303d 3d9d fb3d 300a cf3e eef1 e93e
00000200: d301 413e 0d3e 033f bbcf 9d3e 4c8c 3c3e
00000210: fe6b 9b3d 5955 193e 78e2 2abe 99ab 17bc
00000220: e2bb 853a 46bb 91bd 0fbe 67bd d9e9 42be
00000230: 9f55 0bbe 415c b4be 75e8 abbe b9e5 73be
00000240: 97d6 2abf ba65 2cbf 3576 f7be a860 66be
00000250: c27e 1cbe 9677 cb3b 166e 353e a792 a43e
00000260: 2997 883e f4a5 e1be ea06 01bf fa7f e4be
00000270: 5f45 14bf 3a4e bfbe 0acc 8cbe 4626 cebd
00000280: d677 4c3d 9589 813e b611 81bf f074 46bf
00000290: 8df3 dbbe 0f22 45be 3c2b 023e d986 4c3e
000002a0: dba0 793e 975a e53e 7feb e13e ac7d 093f
000002b0: 30d9 0b3f fd36 c03e 4dca e13e 519d b83e
000002c0: f39d 763e 0925 4bbe fdbf 34be 5809 98be
000002d0: d7cf 0abf 3fc5 1bbf 0d6c b7be f0fd 12bf
000002e0: eb1b 06bf 5433 79be 8e28 9fb9 ce24 9f3d
000002f0: 36a2 933e 5122 d13e c4cb ed3e 17be 5a3e
00000300: 1aad aa3e 72f1 143e 2d99 1c3e 830d f1bd
00000310: d7dc e5bd 73cb 9ebe 881a eebe 9a66 07bf
00000320: a621 a6be 0d87 c3be f07d b3be 81a1 1cbe
00000330: b50c 9bbc fe52 313e 68db 173e 6054 aabe
00000340: e606 52be 20f2 90be 4209 50be 3a47 4cbe
00000350: cb84 a0be deb7 27be ea17 f9bd ce4f 83bd
00000360: 1af3 e93d a318 d1bc aba7 a23d 1fcd f23d
00000370: f7e1 193d 11f4 8f3d 6a57 e63d c49a a73d
00000380: 55f1 c2bc 7c9b d53e e4eb a33e f8cb 223e
00000390: b02f a13d 549a f93d 62ac e03d 72de 83be
000003a0: 2a4e 58be 6369 57be 0496 73be 8819 4fbe
000003b0: 7726 87bd f47c fabc 8073 cbbd 662a 06bd
000003c0: e460 1a3e a975 5a3e 710b 4a3e d038 1c3e
000003d0: f708 cd3d 9bfb 4fbd 0765 793e 1388 ea3d
000003e0: c3b1 f33d 665e a73b 5429 c23d 9bc9 87bd
000003f0: 4dce 303e af15 5d3e 3c42 9039 8b53 9cbd
-0.13439766 -0.13782471 -0.06496427 0.08178269 0.0063086627 0.008542705 0.03727681 0.22194737
0.13575925 0.40199205 0.29534042 0.23310086 0.46387511 0.3371567 0.21017832 0.059374887
0.12854688 -0.074881345 -0.3694819 -0.38080508 -0.25550953 -0.5287531 -0.5127481 -0.28426266
-0.2500296 -0.22861294 -0.16483274 -0.15683453 -0.06419147 0.07810818 0.06521274 0.19708069
0.21864362 0.18726647 0.3106077 0.2935992 0.74434197 0.641643 0.40024275 0.38891563
0.37577745 0.2690799 -0.108094126 -0.18301202 -0.13565242 0.49113718 0.50379324 0.37117085
0.7967878 0.6421142 0.5052914 0.21588057 0.112745404 -0.09711416 1.1941181 0.93851864
0.77331144 0.27363554 0.17500573 0.024166048 -0.24334818 -0.29606324 -0.42008945 -0.5445288
-0.5353258 -0.39613587 -0.4327552 -0.5013202 -0.3869475 -0.018443147 0.014571467 0.12141928
0.73378676 0.6025882 0.49733758 0.7850212 0.73719394 0.3078486 0.2561838 0.07684558
0.069366865 -0.56050295 -0.5836113 -0.38934463 -0.53519404 -0.36910993 -0.2890851 -0.113088086
0.009905777 -0.040470704 0.69795966 0.6350011 0.460493 0.6397107 0.49934494 0.26631057
0.13475767 -0.0041917562 0.02308993 0.076786906 0.1747381 0.23369381 0.1486457 0.28863642
0.11777172 0.08320423 0.1523797 0.08061202 0.16217153 0.026823658 0.10039819 0.030860113
-0.10366324 -0.055018052 -0.0056765974 -0.07686721 -0.21639666 -0.44295672 -0.32002616 -0.20752938
-0.3036515 -0.3470002 -0.20013748 -0.107481316 0.04320182 0.1228585 0.4043746 0.4569239
0.18848352 0.51266557 0.30822548 0.18412894 0.07588957 0.14973964 -0.16687953 -0.009257221
0.0010203088 -0.07115798 -0.05657774 -0.19034518 -0.1360688 -0.35226634 -0.33575788 -0.23818101
-0.6673369 -0.6734272 -0.48332372 -0.22497809 -0.1528273 0.006209324 0.17717776 0.32143137
0.26677826 -0.44071925 -0.50401175 -0.44628888 -0.5791835 -0.3736437 -0.2749942 -0.10065894
0.049918972 0.2530028 -1.008353 -0.7752218 -0.42959252 -0.19251274 0.12711805 0.19973315
0.24377768 0.44795677 0.44124982 0.53707385 0.54628277 0.37541953 0.44099656 0.36057523
0.2408369 -0.19838347 -0.17651363 -0.2969463 -0.5422339 -0.6084785 -0.35824624 -0.5741873
-0.5238635 -0.24335986 -0.0003035706 0.07770692 0.28834695 0.40846494 0.46444523 0.21361576
0.3333519 0.14545229 0.15292807 -0.11770155 -0.112237625 -0.31014594 -0.46504617 -0.5289093
-0.32447547 -0.38188973 -0.3505702 -0.15295984 -0.018926958 0.17316815 0.1482979 -0.33267498
-0.20510444 -0.28309727 -0.20316032 -0.19949046 -0.31351313 -0.16378734 -0.12162764 -0.06411706
0.11423321 -0.025524443 0.079421364 0.1185553 0.037569012 0.07028974 0.11247142 0.08183816
-0.023796717 0.41720188 0.32015908 0.1589812 0.07870424 0.12187639 0.109703794 -0.2575565
-0.21123567 -0.21036296 -0.23787695 -0.20224583 -0.065991335 -0.03057716 -0.09934139 -0.032755278
0.15076023 0.21333946 0.19730927 0.15256047 0.100114755 -0.05077706 0.24354945 0.11451735
0.1189914 0.0051076887 0.09480539 -0.0663025 0.17266198 0.21590303 0.0002751517 -0.07633122

cell_list.1.conv_gates.weight f4 [20, 20, 3, 3]
00000000: 619d a23d 8ec8 49be 38fd d8be 41d0 2f3e
00000010: 3a9b 8d3e 16eb 333e 9858 84be 9c99 44be
00000020: 0e62 b8bd 66be ff3c 95e8 63bd 8239 b5bc
00000030: d8f4 4bbe b611 9f3d cc9f bb3c 765a e6bb
00000040: 5069 083e 9a5b 4d3e d779 6b3e d39e 303e
00000050: 7e49 823e 377d 28bd 74bb 12bc 53b3 a9bd
00000060: 0dac df3d 02ac 963c 424d 113d f65e aebd
00000070: e570 e5be 5e3e f9be 7cbe 81bd cb00 47bc
00000080: 968a 38bc bdfc 353d fa42 3c3e 52fb 0e3d
00000090: a4bc 393e 90f7 4cbd 8d88 0e3d 453d 8dbd
000000a0: aa66 30be a568 83be b12f b3bd cd40 dcbd
000000b0: 1782 0dbe 1744 2abe f101 c7be ffb6 cebe
000000c0: 1a0a 9c3d e588 e83d edab 603e 7b21 d53d
000000d0: a6d9 683e 93bb 373e 7015 46bd c8a6 98bd
000000e0: f606 213e 797a 71bc 7f94 43bb 6ac3 453e
000000f0: ef0f 473e f55f 603e e757 cd3e 1515 37be
00000100: a4a1 b7bd f946 0fbe 946f ec3c 816f 863e
00000110: 986e a03e 05e3 91bc 311b 493e 0d05 8d3e
00000120: f467 5c3e 95d0 723e 0e12 bb3e 39fc 84bd
00000130: f6c5 b73a c54c ab39 0ba6 83be eaa2 82be
00000140: e564 babe daeb 6dbe e34f 07bf 6764 1bbf
00000150: 6e9b e03c 700f 123d 1019 cbbc be5e 763e
00000160: 7179 393e ae17 d13d 4dbd b63d 542f 153b
00000170: 8b19 4ebe ec6a e53c d118 723d 8736 553c
00000180: b665 60bd 9d3a 5a3d 1c37 d13d 4d49 0d3c
00000190: 1a7e efbd fe02 92be acbe 4c3d dc16 463d
000001a0: fedb d23b 4acf 3c3d baff d13c 9f7f b73d
000001b0: da80 f83d a816 af3e 6148 f93e 088c 903d
000001c0: ec67 463e 4a8d 823e 6946 febd 2556 1fbe
000001d0: 9956 83be e827 a03d 8aa0 5abd 2b5e 4a3e
000001e0: fd1a e73c 5859 a3bd 174e d23d 6aee 8bbe
000001f0: cc51 adbe 0391 95be c825 c0be 5953 86be
00000200: 1906 49be aec9 67be a49e 70be 5943 97be
00000210: b340 8c3e ca03 803e 040e 143e f53d 323e
00000220: 3cc9 9b3d efc1 bbbb bef0 26bd 7015 84bd
00000230: 212e 94bd 626e 15be be07 7bbe 26bd bfbd
00000240: 3de9 8ebd 3027 c3bd 11ef 54bc f0ad b1bc
00000250: 5da7 fc3c 0acc b3bd b52f 013e 165e 8c3d
00000260: 71cb e23c ecba 64bc b20e b8bc 465d 1bbd
00000270: 0d08 ccbd e668 a4bd 2213 f0bd f05d 16bd
00000280: 807b cb3a eba9 ed3d ceea d53d 0280 2e3e
00000290: 9926 f13e e7dc 06be 1ff1 e73d 0e68 1b3e
000002a0: b1d7 98be dc4f 89be cccb 8bbe ab57 86bc
000002b0: 1c1f 0b3e dbd8 903e ec89 3abd 542e e1bc
000002c0: 9060 073e 3a5d 07be 0196 5bbe 8568 9cbe
000002d0: 8f65 8fbe fd31 02be 272b 9a3d 5dcb 90be
000002e0: c189 c1bd 8d5b 8a3e 0e71 cebe 9276 dabe
000002f0: 7e1a 9bbe 963c 88bd 5e2b f5bd 56a7 a3bc
00000300: ccad 3dbe 42cc 36be 4511 cebd 60be c83d
00000310: 4f8a 9dbd 80a9 bebd 4815 b13e 396e 0d3f
00000320: bc2f ec3e 1b5e 1d3d 4a75 753e 57e6 e63d
00000330: b2d6 473d cc2e ac3e ce5e 0c3f f865 31bd
00000340: ac53 0dbe aaad 13be 1ae2 5abe 8d57 193e
00000350: a3b7 633e 7642 1cbd e72c b53c 8c42 02bd
00000360: d8a5 a9bd 8be1 d7bd b6e0 bd3d 9192 23bd
00000370: 8c39 cbbd ae85 1cbe 03f3 8abe 8ea8 09be
00000380: 9366 fbbc f35b a2be 7ef6 59be f4af 333e
00000390: dea1 86bd 2c53 bf3d 62ad 733e 1db1 8dbe
000003a0: 250e aebd 5333 88bb 4313 8b3e 58c1 833e
000003b0: 4a16 413e d307 423e 4b05 223e 10fb 753d
000003c0: 8fe7 ca3e d1df f03e ac9b 9d3e 8e6e 94be
000003d0: 6584 8ebe f667 c0bc 9193 a2bd 10fc 44be
000003e0: 2c0d fa3d c3b7 6ebe 80aa 01bf 5f84 86be
000003f0: 7474 f03d f4ef 613e ec7d b93e 025e 73bd
0.07940174 -0.19705412 -0.4238069 0.17169286 0.2765749 0.17570147 -0.25848842 -0.19199222
-0.090030774 0.031218719 -0.05564173 -0.022122148 -0.19917619 0.0776705 0.022903346 -0.0070298268
0.13321424 0.20054474 0.22995697 0.17248087 0.25446695 -0.04113504 -0.008955825 -0.082861565
0.10921488 0.018392567 0.03547407 -0.08514206 -0.44812694 -0.48680395 -0.0633516 -0.012146185
-0.01126351 0.044430483 0.18384925 0.034907646 0.18138367 -0.05004078 0.034798194 -0.06896452
-0.17226663 -0.25665775 -0.08749331 -0.10754547 -0.13819157 -0.16627537 -0.3886867 -0.4037399
0.07619114 0.113542356 0.21940584 0.104067765 0.22739276 0.17942648 -0.04836029 -0.07453686
0.15725312 -0.014738672 -0.002984315 0.19312826 0.19439672 0.21911605 0.40106127 -0.17879136
-0.089663774 -0.13991918 0.028861798 0.26256946 0.31334376 -0.017808447 0.19639279 0.27542916
0.2152403 0.2371238 0.36537212 -0.0649342 0.0014020789 0.0003267286 -0.25712618 -0.2551492
-0.364051 -0.23234501 -0.5285627 -0.60700077 0.027417865 0.035659254 -0.024792224 0.24059579
0.18112732 0.10209595 0.08922825 0.0022763805 -0.20126931 0.028005086 0.059105698 0.013013489
-0.0547845 0.053278554 0.102155894 0.008623433 -0.11693974 -0.28517908 0.049986526 0.048361644
0.0064349165 0.046096124 0.025634635 0.08959889 0.121339515 0.34196973 0.48688033 0.07057959
0.1937558 0.2549842 -0.124157734 -0.15560205 -0.25652006 0.078201115 -0.05337576 0.19762485
0.028211111 -0.07976025 0.10268801 -0.27330333 -0.3385147 -0.29212198 -0.37528825 -0.26235464
-0.19631232 -0.22635528 -0.23498017 -0.2954357 0.27393112 0.2500289 0.14458472 0.17406447
0.07606742 -0.005729906 -0.040756933 -0.064494014 -0.07235361 -0.14592889 -0.24514672 -0.09362249
-0.069780804 -0.09528959 -0.012996451 -0.021689385 0.030841524 -0.08779152 0.12615855 0.06853883
0.027684899 -0.013960581 -0.022467945 -0.03793075 -0.09962473 -0.0802782 -0.11722399 -0.03671068
0.0015524477 0.11604675 0.10445176 0.17041019 0.4709976 -0.13170205 0.11325287 0.15176412
-0.2985206 -0.2681874 -0.27303922 -0.016399225 0.13586086 0.28290448 -0.04554169 -0.027487911
0.1322043 -0.13219157 -0.2144394 -0.30548492 -0.2800717 -0.12714382 0.07527762 -0.28280154
-0.094501026 0.27022973 -0.4032063 -0.42668587 -0.3029365 -0.06652181 -0.11971162 -0.019977253
-0.1852333 -0.17851356 -0.10061888 0.09801936 -0.07692396 -0.09309673 0.3458655 0.5524631
0.46130168 0.038419824 0.23970523 0.112744026 0.048788734 0.33629453 0.5483216 -0.043310136
-0.1380145 -0.14421716 -0.21375313 0.14974804 0.2223802 -0.03814932 0.022116138 -0.031801745
-0.08283585 -0.10541066 0.09271376 -0.0399347 -0.099230856 -0.1528537 -0.27138528 -0.13443205
-0.03068856 -0.31710777 -0.21285436 0.1754759 -0.065738425 0.09342036 0.23796609 -0.2767419
-0.084987916 -0.004156509 0.27163133 0.25733447 0.18856159 0.18948297 0.15822332 0.060053885
0.3962979 0.47045758 0.3078283 -0.28990597 -0.27835384 -0.023487072 -0.07938302 -0.19236779
0.122095436 -0.23312287 -0.5065079 -0.26272866 0.11740962 0.22064191 0.36228883 -0.059415825

cell_list.1.conv_can.weight f4 [10, 21, 3, 3]
00000000: f5cd 803e 091e 943e a0bb 783d 7f87 fd3c
00000010: cc51 c23c 1082 10be c61c 7cbd 7c86 1c3e
00000020: f992 b2bd 20d1 b1bd 0ef3 aebd f4c1 02be
00000030: ca0d 14bc 76c3 333e a835 8a3d d057 9bbb
00000040: 7a08 d43d ab55 a73c 3f7a cfbd 2f8e 2cbe
00000050: 05e1 85bd 2d06 4cbd 51ee 91bd eff8 28bd
00000060: 356d 2cbe 8d71 75bc cbbb 9abd 9969 10be
00000070: be1d 02be cb3c ccbd 6aa9 e4bd 21cc 80bd
00000080: cacc e2bd ded2 d6ba 2f5b dcbd f39a 50be
00000090: 0986 203d cb51 d6bb 8f2d 13bd 82b6 a73d
000000a0: d009 1c3e 96e6 40bd 1b64 1f3e 978b 803e
000000b0: 20ca 873d 9b38 833e 68e1 143e d27e a83d
000000c0: 81f9 693e b684 483e 1841 bfbd 5bb7 43bd
000000d0: 9337 813d 9eb7 86be 8b88 83bd eae1 10bd
000000e0: 0d5c 7ebd acad ccbd b1f8 e6bd 03c7 44bd
000000f0: 3cde c3bd a5e0 47be 5545 edbd 41c0 ee3d
00000100: 3030 1ebd 1f3c b4bd b1eb 933c ec39 41bc
00000110: 42f7 adbd e451 733d e895 e63d e0bd 4d3e
00000120: ccc6 88bd 20d9 21be 1e68 b3bd 952e 06be
00000130: 1e10 48be 192c 16be 26dc 22bc de54 1cbe
00000140: 257c b1bd df48 6b3d 338f 173e 6d0a 8b3e
00000150: cc8c 233d 73c3 bdbd 632c f9bd eb05 ab3e
00000160: 6914 adbc fee3 94be 2dc5 193e 65b2 233e
00000170: 7c5b a53d 179a 5b3c 2c7b 173e abb5 3b3e
00000180: dcbf 28be da43 e03c 1e53 443d 1214 ddbc
00000190: 4c6f 4bbd b488 60bd 2f84 253e b6cf 3e3e
000001a0: ebf1 123d af88 9ebc 65f8 163d 8719 293d
000001b0: 83f1 143c 76a5 f83d d546 143d 3804 6dbd
000001c0: bdbf 043c 12c7 a5bd f339 9dbe a1a0 23be
000001d0: e898 293c af8f d639 6e49 ad3c c80b 0ebd
000001e0: 7c54 4fbe a193 1fbe ad16 adbd fee6 89be
000001f0: 05fc 96be 5fde 87be 641b 18bd 7251 8bbd
00000200: 9d22 95bd 3235 583d fadb f33d 5401 513c
00000210: 5267 4a3e 1056 153e 19b8 68bd 4a03 1fbd
00000220: a01b 4c3e eb19 0f3e f2c2 fdbd d4c8 643d
00000230: 8b8a f33d 51c9 6fbe b90b 6cbd f3f7 0f3e
00000240: 2760 ecbd 281a 6dbe e61d 05be 2bdd a33d
00000250: 53e0 973b 01e6 30bd c5a4 573e 1ff4 073e
00000260: ffc2 bc3b da85 103e 5b4b c13d f3f8 e2bc
00000270: 560e 173e fa71 fa3d 225b d03d 774e 37be
00000280: e8e0 2f3d 225a 8b3d 4260 44be 42dc c6bd
00000290: c778 cdbd 4414 84be 4bd5 c5bb 1b3f 563d
000002a0: ad5f c8be 0d71 44be 19df ff3c 2cc9 ce3c
000002b0: b7dd cf3c bab0 033e f6f8 5abe 03e5 67bd
000002c0: 94d7 213e c70c acbd d51a d3bd a7e8 673e
000002d0: 241e 85be 936c 69be f79c 94be 8f69 4f3c
000002e0: 4e8b e8bd fbe9 03be 7bdf 923d 0b2d fe3d
000002f0: 57e4 0ebd 5970 e93d 282a ea3d 55a2 083e
00000300: 7e83 e53d b240 1d3d 8b99 84bd 6c4a 4fbd
00000310: 1973 6b3b 7754 7fbd 260a 83bd 3b8f 05be
00000320: bfe1 15be 73b3 843d ed4d 003e 6d3c 98bc
00000330: 1a2a 9fbb 98fa 033e 7604 cf3d b5c7 85bd
00000340: 8d5e 89bc edf8 1cbe ae2e 9fba 8051 b6bc
00000350: d306 5ebd a6b2 c8bd 1701 943b 0b69 173d
00000360: b6b4 36be 396f 6bbd b7ae 74bd 6b2c 76bb
00000370: 48fe 95bd 8e10 8d3b d790 3a3d e7fc 25bc
00000380: 02c5 d7bd 63bd 8d3c 2ecb b43c 9a72 353d
00000390: 1659 503d f9e6 d23d 4225 ce3d 6c4b 45bd
000003a0: 5947 5d3d 8ed9 92bd 4129 6a3e 67fd 693e
000003b0: 8abc fb3d a3dc 0e3e 163d 93bb 060a 02be
000003c0: 82d2 27bd 6f47 76bd 0b5d 99bc 9a1d e4bd
000003d0: 9b91 1b3d f6be c3bc 03fd b2bd 78e9 2ebd
000003e0: 7f02 6e3d f7f1 4dbe 49a9 13be 1aee 703c
000003f0: 7455 ff3d 562e 75bd 4b90 e5bd 640e 423d
0.25157133 0.28929165 0.06072581 0.030948399 0.023720644 -0.14112115 -0.061550878 0.15285677
-0.08719439 -0.086824656 -0.08542453 -0.127693 -0.009036491 0.17555031 0.06748515 -0.0047406927
0.10353179 0.020426592 -0.101307385 -0.16851114 -0.0653706 -0.049810577 -0.07125533 -0.041253027
-0.16838534 -0.014980686 -0.0755535 -0.14102782 -0.12706658 -0.09972533 -0.11165126 -0.062889345
-0.11074217 -0.0016389748 -0.107595794 -0.20371608 0.039190326 -0.006540512 -0.03593212 0.081891075
0.15238118 -0.047094904 0.15565531 0.251065 0.06630349 0.25629124 0.1453911 0.08227314
0.22849084 0.19581875 -0.093385875 -0.047782283 0.06309428 -0.26311964 -0.06422528 -0.0353717
-0.062099505 -0.09994063 -0.11277903 -0.048041355 -0.09563872 -0.19519289 -0.1158549 0.11657763
-0.038620174 -0.0880053 0.018056722 -0.011793595 -0.08494426 0.05940427 0.11259061 0.20091963
-0.066785425 -0.15805483 -0.08760093 -0.13103707 -0.19537398 -0.1466526 -0.009940183 -0.1526675
-0.08666257 0.057442542 0.1480072 0.27156392 0.039929196 -0.092657946 -0.12166669 0.33402953
-0.021127896 -0.29080194 0.15016623 0.15986021 0.0807409 0.013403437 0.1479308 0.1833102
-0.16479439 0.027376104 0.04793083 -0.02698711 -0.049666688 -0.05481787 0.16163705 0.18633923
0.035875242 -0.019352285 0.03685798 0.04128411 0.009090784 0.12140934 0.036200363 -0.05786535
0.008102355 -0.0809461 -0.30708274 -0.15979244 0.010351397 0.00040924313 0.021153178 -0.034679204
-0.20247072 -0.1558366 -0.08451591 -0.26934046 -0.2948915 -0.26536843 -0.037135497 -0.06802644
-0.072819926 0.052785106 0.119071916 0.012756664 0.19765976 0.14583611 -0.056816194 -0.038821496
0.19932413 0.1397473 -0.123906985 0.055855587 0.11891659 -0.2341664 -0.057628367 0.14059429
-0.11541777 -0.23154509 -0.12999687 0.08001169 0.004634896 -0.0431881 0.21058948 0.13276719
0.00576055 0.1411356 0.09438201 -0.027706599 0.14751562 0.122287706 0.10173632 -0.17901026
0.042939097 0.06804301 -0.19177344 -0.097099796 -0.10032802 -0.2579671 -0.0060373894 0.052306276
-0.39135495 -0.1918375 0.031234311 0.02524241 0.025374277 0.12860385 -0.21384034 -0.056614887
0.15804893 -0.084008746 -0.10307852 0.22647344 -0.25999558 -0.22795324 -0.29026005 0.0126594445
-0.11354695 -0.12882225 0.07171532 0.12410935 -0.03488573 0.11398382 0.11433822 0.13343175
0.11206721 0.038391776 -0.064745985 -0.050608084 0.0035926758 -0.06233641 -0.0639842 -0.1304292
-0.14636897 0.0647954 0.12529726 -0.0185835 -0.004857314 0.12888563 0.10108273 -0.06532232
-0.016768718 -0.15329333 -0.0012144649 -0.02225566 -0.054205727 -0.097996995 0.0045167315 0.03696541
-0.17842373 -0.057479117 -0.059736934 -0.0037563096 -0.07323891 0.004304952 0.045548286 -0.010131097
-0.10535623 0.01730222 0.02206954 0.044298746 0.05086621 0.10297961 0.100657 -0.04816763
0.05402312 -0.071704015 0.228673 0.22850572 0.1229182 0.13951354 -0.004493366 -0.12699136
-0.04097224 -0.060126718 -0.018721124 -0.111384585 0.037980657 -0.023894768 -0.087396644 -0.042703122
0.05810785 -0.20111834 -0.14420046 0.014705205 0.12467471 -0.059858643 -0.11209162 0.047377005

cell_list.2.conv_gates.weight f4 [20, 20, 3, 3]
00000000: 5cbd a4bd 0ec4 89be d962 0dbe eef7 82be
00000010: 12da d2be 017c 77be 218a 15be 5a71 55be
00000020: c1b4 aebe 1273 4ebe e579 52bd 2c68 b2bd
00000030: 8995 6abe 5a4d 47be c580 9ebe 0cd0 64bd
00000040: 08dd 1bbd f814 de3d 71ef fa3d 69d0 93bd
00000050: 8d7a a4bc 6e68 fdbd 4f32 bcbd 20c8 67bc
00000060: e059 993d cc28 fcbc 2e23 0bbd f467 a9be
00000070: 9107 28be ea6c 97bd 674a b3bd c85c f0bd
00000080: c842 96bd bb6f 7ebd ae61 b3bd 4c37 d9bb
00000090: e3c1 383e c1f5 0f3e 8f2c 0e3e 3e4c c33e
000000a0: 2519 c53e 1e25 8a3e 6785 5a3e b201 4b3e
000000b0: 3822 333e 6530 f43d b16e 7bbd ac6f bfbd
000000c0: cc8a 323c e631 263d bc8c a93c 8183 3f3c
000000d0: c325 aebc f1b5 47bd e4f0 7bbe a4b0 5fbe
000000e0: dffd 2cbe 93e0 97be a608 5cbe f96e 19be
000000f0: 4f62 c03d f2b1 ecbb 2478 59bc 4805 7cbe
00000100: 7701 c0bc 1f0b 763c a7ae 2abe 09f4 18bd
00000110: 87c9 00bd ab70 123d 3a85 3a3e f727 71bd
00000120: 4929 cbbd 12c6 0bbe b01d 0b3d 9d48 bdbd
00000130: ca92 46be e6c7 52bc 4686 553d 0c87 5cbd
00000140: 9995 cbbd 151f 9c3b f878 8a3d 03b3 d53b
00000150: d325 293e 969d 353e ded8 943d 4665 bfbd
00000160: aa7d a9bd 8353 56bc 93a1 6fbe 5e46 96be
00000170: 37d2 45be 6fe0 80be 1d7a 59be 169d 52be
00000180: 53d0 89bd 531b 32be 9b77 5cbe b96b f2bd
00000190: 794e c6bd 2397 81bd 9f8f 33be 8dde 1abe
000001a0: e259 38bd c5f2 ef3c 2b93 df3d b2ff e13d
000001b0: 5f71 913e 0b71 3d3e 50f2 d13e 1311 783e
000001c0: 010d da3e d759 b73e e139 643e c615 603e
000001d0: 083a 663e 38c3 0fbe b3f3 b9be 6cf2 afbe
000001e0: c05e 72be 5247 b1be 8eca d5be 9bc2 ffbd
000001f0: 73ae 7cbe 2c66 99be 6668 a73c 6e45 96bd
00000200: c96d dbbd c569 393d b503 ea3c cc84 b23c
00000210: be45 21bd 5661 033d cea7 dcbd cc6b bcbd
00000220: cecc 58be 0a5d f0bd 793b f9b9 7fdf c23d
00000230: c094 79bd 66e5 17be e52b 2cbe ea79 54be
00000240: ec3b 4e3d 21a6 6f3c d4db 01bd fa99 03be
00000250: 77df 21be ba77 5abe 5e97 08be a9d9 e13c
00000260: 8867 69bb f151 273e 5d33 7c3e 2986 b43e
00000270: 87e7 6e3e 1567 9b3e 592e b53e 9199 cd3e
00000280: 03bb c53e d4a6 d23e 77e1 84be 2300 2cbe
00000290: 6c72 a4be 093b 86be 44c7 5dbe 5e4b 8fbe
000002a0: 11f1 77be 21b2 bbbe fc1f a4be 0182 ab3c
000002b0: cd52 df3d d928 cfba f2e7 28bd 4bb0 30be
000002c0: d0e0 3dbe 737f cfbd e948 2a3d cd65 4d3c
000002d0: 3d52 a13b a54a 0ebc 082e 093e 6fbe 42bd
000002e0: 45fe 793d 7220 7f3e 39ed ecbd faaf c8bd
000002f0: 78cc 6dbe cd25 15be 263b 07be 1f40 2ebe
00000300: 6040 64bc 3c79 683d d82f 9fbd 0996 243e
00000310: e44d 0c3e 355c 823d 5a74 933d 3441 e7bc
00000320: 2563 2c3e 0909 51bc c1c1 98bd 45fc 903d
00000330: 1a67 da3d 52e6 ddba b120 d23d 63e3 f3bd
00000340: 150f 4dbe b676 d0bd a442 1fbe 2c49 053d
00000350: 86fd 9dbd b8ce 04be 96ce 9dbd 8b89 35bd
00000360: 8c9e bebd 934d b9bd 38f3 a53d 1c5e 88bd
00000370: 082c 8f3d 90a1 adbd 5ce8 3b3d 2d94 3bbd
00000380: 3ea7 46bc 10cb 79bd 8929 bcbd 2eb5 6bbd
00000390: 859b 843d d2c2 3f3e 2a83 873e 8028 523d
000003a0: 091d 523d 0858 ac3c 33bf 003e d68d 833e
000003b0: 0b0c d23e 0872 b53d 6ec5 173e e3f5 c63d
000003c0: be2e f2bc 0d40 65be 173c 74be d4b4 75be
000003d0: 1223 4dbe 0688 2ebe b083 99bd 0b6c 7abd
000003e0: 59aa b3bd 107e 2cbb 6ff3 d7bc 71d0 1fbe
000003f0: 5346 ccbd b5d4 2e3d d8a6 c8bd 96a8 2ebe
-0.0804393 -0.2690739 -0.13807239 -0.2557978 -0.41182 -0.24168397 -0.14603473 -0.20844021
-0.3412228 -0.20161083 -0.05138578 -0.087112755 -0.22908606 -0.19463101 -0.30957618 -0.05586247
-0.03805259 0.10843843 0.12252701 -0.072174855 -0.020077968 -0.12373434 -0.09189283 -0.014146835
0.074878454 -0.030781172 -0.033969097 -0.33087122 -0.16409136 -0.073938206 -0.087544255 -0.117364466
-0.07336956 -0.062118273 -0.08758865 -0.0066289064 0.18042712 0.14058591 0.13884185 0.38144106
0.38495746 0.26981443 0.21339951 0.19824865 0.17493522 0.11923293 -0.06138486 -0.093474716
0.01089735 0.04057493 0.02069699 0.011689068 -0.02125824 -0.048757497 -0.24603611 -0.21844727
-0.16893719 -0.29663524 -0.21487674 -0.14983739 0.09393751 -0.007223361 -0.013273273 -0.2461139
-0.023438198 0.0150173 -0.16668187 -0.037342105 -0.03144219 0.03575198 0.18214884 -0.058876004
-0.09919984 -0.13649777 0.03396386 -0.092423655 -0.19391933 -0.012865042 0.052130006 -0.05383973
-0.09940643 0.0047644475 0.06761354 0.006521584 0.16518335 0.17735896 0.07267927 -0.09345488
-0.08275922 -0.013081434 -0.2340148 -0.2935056 -0.19318472 -0.2517123 -0.21237989 -0.20567736
-0.06729188 -0.17393236 -0.21530001 -0.11836953 -0.09682936 -0.06327655 -0.17535256 -0.15123959
-0.045007594 0.029290566 0.10916742 0.11035098 0.28406808 0.18500154 0.41005182 0.24225263
0.42588046 0.3581073 0.22287704 0.21883306 0.22483075 -0.14039314 -0.3631874 -0.3436464
-0.23668957 -0.34624726 -0.417561 -0.1248829 -0.24675922 -0.29960763 0.020435523 -0.073374614
-0.10714299 0.045266885 0.02856622 0.021791838 -0.039373152 0.03207525 -0.10774194 -0.09200248
-0.21171877 -0.11736496 -0.00047537292 0.09515285 -0.060932875 -0.14833602 -0.1681362 -0.20749632
0.050350115 0.014627011 -0.031703785 -0.12851706 -0.15807901 -0.21334735 -0.13338992 0.027569609
-0.0035614688 0.16339852 0.24628969 0.35258606 0.23330508 0.30352083 0.35386923 0.40156224
0.3861924 0.41142905 -0.25953266 -0.16796927 -0.32118547 -0.26216915 -0.21658045 -0.27987188
-0.24213053 -0.3665934 -0.32055652 0.020936014 0.10904465 -0.001580502 -0.041236825 -0.1725475
-0.1854279 -0.10131731 0.04157344 0.012536478 0.0049231336 -0.008684789 0.13396466 -0.047544893
0.061033506 0.2491472 -0.11568684 -0.0979919 -0.2322253 -0.14565201 -0.13206157 -0.17016648
-0.013931364 0.056756243 -0.07772797 0.16072859 0.13701588 0.06365243 0.07199927 -0.028229333
0.16834696 -0.012758502 -0.074588306 0.070793666 0.10664196 -0.0016929603 0.10260142 -0.11908605
-0.20025285 -0.10178892 -0.15552765 0.032540485 -0.077143714 -0.12969482 -0.07705419 -0.044320624
-0.09307584 -0.09047999 0.08103031 -0.06658575 0.0699082 -0.08478081 0.045875892 -0.04579561
-0.012124835 -0.06098467 -0.0918761 -0.057545833 0.064749755 0.18726662 0.26467258 0.051308155
0.05129722 0.02103807 0.12572937 0.2569415 0.41024813 0.0885964 0.14821407 0.09714868
-0.029563304 -0.22387715 -0.23851047 -0.23994762 -0.2003291 -0.17044076 -0.074958205 -0.061138194
-0.087727256 -0.0026320256 -0.026361195 -0.15606858 -0.09974351 0.042683322 -0.09797448 -0.17056498

cell_list.2.conv_can.weight f4 [10, 21, 3, 3]
00000000: 5b7d 203e 1e6e 093e 5c68 503d 23a8 de3d
00000010: 8474 2f3e 5ff0 683e 84ad 333e d87e 6e3e
00000020: 0238 853e ac08 b23d f3ec 50bd 4263 04be
00000030: c9db 223d 0884 293d 63ce 223d 5c9f ad3d
00000040: 3eba f23c f85e 37bc 7208 753d 6617 fcbc
00000050: 4342 693d 060e 113e 36db 1e3e d50c 0e3e
00000060: 50e9 363d b677 f83d 910d 283e b4a8 273e
00000070: afff 613e 19e0 6d3e c7e4 c2bc a51a a4bd
00000080: 1f47 3cbd 95ff 0dbe 7a6d 90be f3e5 d6bd
00000090: d22d bf3c ed8b b03d ba27 8dbd f50f a8bc
000000a0: fa38 af3d 2164 1bbd 3f02 96bc 6c3d afbd
000000b0: 66e7 e9bd 8df2 913d bdd4 1f3d 4b18 f83d
000000c0: e598 d23c 429d 81bd d22e ccbd 54aa b0bc
000000d0: c893 91bd 9333 56be d8b1 863e 5de9 5f3e
000000e0: de67 d3bc f375 8f3e 8d0f 833e 294b 2d3e
000000f0: a488 483e 71a7 c53d 16d6 d63d 67af c43d
00000100: 2d27 a63d 77e5 c03e 6650 8a3c 6dd0 a53d
00000110: dfdf 103e 1376 14be 8324 1dbd f252 ab3d
00000120: e19d 2a3d e226 903d b2b6 013e 64ea 15be
00000130: c518 a03c 154a 9a3e c2a3 babd 6c48 803d
00000140: 6353 153e d170 b73c b712 943d 6b4f cd3c
00000150: 66c5 f2bc 1c52 acbd 61e2 28be 2411 f4bd
00000160: 210d 313c f7c3 e9bd 9979 353d 4075 96bc
00000170: 22c7 36bd 7c48 453d da31 d23d aabc 8f3d
00000180: 5019 f2bd 597b f63c f4ff b9bc c139 25bd
00000190: 8eb7 ad3c d605 c63c 64a3 633b 5926 1b3d
000001a0: 737d 803d add5 ea3d 3000 da3d 94d9 2a3d
000001b0: dabf 13be 58b2 ebbd 373f e8bc ae3b fcbb
000001c0: 791b c23d 7c87 da3b 78de a93d 5aac 0b3e
000001d0: dc51 a63d 1172 163e d014 a63d 8b6b 11bd
000001e0: 3fb0 df3b c79d 163d 374c 35bd 646f 4fbc
000001f0: c1c0 723d 0d5e ed3b cf4d 453d a80e 8f3d
00000200: cc63 f13c 6884 7a3d e303 2e3b a550 50bd
00000210: 8f0c d13c 4933 4fbd af0f 12be 9d17 3a3d
00000220: af77 4a3d 7376 23bd 1f15 213d 7c88 4abd
00000230: d748 0e3c 84ff ddbd e0a8 67bc 8ff6 53bd
00000240: 7fe2 0f3e 3e49 bf3d d975 84bc db28 babc
00000250: a7d5 443d db8d 3c3d 4c7d 333e 8bd0 2a3e
00000260: 1531 c53d a792 d4bc 95f9 0e3d a4cb 173d
00000270: 8183 193d b311 223d e700 8d3c f395 253e
00000280: 1413 2e3d 10b4 663d 4212 5f3e c2d1 243e
00000290: 7c40 333e 5263 173e 264a 843e c3a2 6d3e
000002a0: a7fa 163d 2bab febc ed1f 943d 76db e33d
000002b0: ecfe a7bb 0a2d 913c 370f f0bd 4473 1dbe
000002c0: 8d07 70be a1c9 fe3d 615c bf3c 8af3 c4bc
000002d0: 48a4 fb3c 2152 85bc 26b3 473e 9b47 643d
000002e0: dcaa 4a3d 0193 ca3d ebf5 173d 5c4f 9fbd
000002f0: d83d 7ebb e179 5dbd e465 09be d042 d4bd
00000300: 0553 d33d d024 0abd d452 463d 142e 103e
00000310: 0ab5 9f3c 53ef e23d f6ac 6bbd 0d27 833c
00000320: 1f62 32bd 0189 1c3e fbda 033e b8cc 053e
00000330: a582 06be 42f0 22be dbe5 abbd 2976 1abd
00000340: a1eb bcbd d6db a13c a773 f73c 30f9 ca3c
00000350: 8af7 9e3d d556 973d 5063 0f3d 75c6 a9bb
00000360: c65c 9e3d 359a 743d d9bf e03d f0a9 cc3d
00000370: 0fa3 45bd 1104 d03d 4aa2 29be 468f 09be
00000380: b660 2bbe 25bd 1dbd 9300 aa3d 36c7 233d
00000390: 5edd fcbd 2007 a0bd cc5d 44be 71a2 41be
000003a0: 1202 c2bd 388b 2fbe 770d 033e f404 ad3d
000003b0: a77d 573e 1b4c 6d3d f1c2 473d 66c7 473d
000003c0: ec28 ef3d f52a 503c c55d d53c 7ea8 0fbd
000003d0: 6f18 86bd f826 aebd a7b4 b2bc 306f c6bc
000003e0: 9c43 1c3d 85a3 c13b 7874 83bd e612 58bd
000003f0: 9419 703e 16b1 ac3d dd93 943e 8777 c43d
0.1567282 0.13420913 0.050880775 0.10871913 0.17134291 0.22747944 0.1754666 0.23290575
0.26019293 0.0869306 -0.051007222 -0.12928489 0.039760385 0.04138568 0.039747607 0.08477661
0.029629823 -0.011192076 0.059822507 -0.030772876 0.056947958 0.14165506 0.1551331 0.13872083
0.044656098 0.12132208 0.16411425 0.16372949 0.22070192 0.23230018 -0.02379073 -0.080128945
-0.045966264 -0.13867028 -0.28208524 -0.10493078 0.023337279 0.08620439 -0.06892343 -0.020515421
0.08555789 -0.037937287 -0.018311618 -0.08556637 -0.11421089 0.07126341 0.039021242 0.121140085
0.025707671 -0.06328823 -0.09969868 -0.021565594 -0.07108265 -0.20918112 0.2630756 0.21866365
-0.025806364 0.28019676 0.25597802 0.16923203 0.19583374 0.096510775 0.104900524 0.09603768
0.08112941 0.37675068 0.01688404 0.08096395 0.141479 -0.14498167 -0.0383649 0.0836543
0.04165447 0.07038666 0.12667349 -0.14640194 0.019543061 0.30134645 -0.091132656 0.062638134
0.14582591 0.022392662 0.07230132 0.025062284 -0.029635143 -0.084140986 -0.16492607 -0.11917332
0.010806353 -0.114143305 0.044305418 -0.018366456 -0.0446235 0.04816483 0.10263415 0.07018407
-0.11821234 0.030088114 -0.022705056 -0.04033828 0.02120569 0.024172705 0.003473484 0.037878368
0.062739275 0.11466537 0.10644567 0.041711405 -0.14428654 -0.11508626 -0.028350456 -0.007697544
0.09477896 0.006668983 0.08294386 0.13639966 0.08121082 0.1469195 0.081094384 -0.03550295
0.00682643 0.036771562 -0.044262137 -0.012660835 0.059265856 0.0072438777 0.048169907 0.06985217
0.029466532 0.06116143 0.002655261 -0.05085816 0.025518684 -0.05058602 -0.14263795 0.045432676
0.049430545 -0.039907884 0.039326783 -0.049446568 0.008684359 -0.10839751 -0.014139384 -0.05174881
0.14051245 0.09340142 -0.016169475 -0.02272456 0.048055317 0.04603372 0.17528266 0.16681115
0.09628502 -0.025948836 0.03490599 0.03705944 0.037478928 0.03956766 0.017212344 0.16170482
0.042498663 0.056324065 0.21784309 0.16095641 0.17505068 0.14783981 0.2583782 0.2320662
0.036860134 -0.031087479 0.07232652 0.11125843 -0.0051268246 0.017721672 -0.11721652 -0.15376002
-0.2344038 0.124408014 0.02335948 -0.02404191 0.030717984 -0.016274514 0.19501933 0.05573235
0.04947935 0.0989132 0.03709976 -0.077788085 -0.0038794186 -0.05407131 -0.13417774 -0.10364306
0.10318569 -0.033726513 0.048418835 0.14080077 0.019495506 0.11080804 -0.057537995 0.016009832
-0.043550607 0.15286638 0.12876503 0.13066375 -0.13135774 -0.15911964 -0.08393451 -0.037710343
-0.0922463 0.019758146 0.030206515 0.024777025 0.07762058 0.07389609 0.03500682 -0.0051811286
0.07732539 0.059717376 0.10974092 0.099933505 -0.048251208 0.101570256 -0.16565815 -0.1343356
-0.16736111 -0.03851046 0.08300891 0.039984904 -0.1234691 -0.07813859 -0.19176406 -0.18909623
-0.09473051 -0.17142951 0.12798105 0.0844821 0.21044026 0.057933908 0.048769895 0.048774146
0.11677727 0.012705554 0.02604569 -0.035072796 -0.06547629 -0.085035264 -0.021814657 -0.02422294
0.038150415 0.0059093856 -0.06418699 -0.052752398 0.23447257 0.08432214 0.2901906 0.095931105

cell_list.3.conv_gates.weight f4 [20, 20, 1, 1]
00000000: fe43 443c 8d43 573b a5b3 003e ed79 f23d
00000010: ba2f a1bd ec9e c2bb 17fa 06bd abaf 6f3d
00000020: 7556 25bd 4623 1bbe 4d9a bf3c cf8d 52be
00000030: 99ab 683e 043b 903e 34d4 b4bd 5892 44be
00000040: 2352 203e 0263 ad3d eb3d d1bd 3798 7ebe
00000050: 350f 6b3d 5642 0a3d eadc 24be e3dd 913b
00000060: 2be1 1fbe 3628 143d e4d5 363e 44b1 72bd
00000070: 9c1b 1bbe cbcc 0ebe cfd0 9a3c 7b82 243d
00000080: 5775 b43c 2bad 143e 4c81 e73d 61c0 6a3e
00000090: c4b6 923e f161 d6bd 3da5 6abe e89e 22be
000000a0: ff8e 5ebe fd8d e03d 2049 be3e 7e5e b2be
000000b0: f6f9 b83e 2244 00bf d762 d9be ed50 883e
000000c0: e484 bc3d 9b4f ad3d c48b a53e 7639 a63d
000000d0: 789d 2b3e b610 32be 7094 6e3e 504e 02bf
000000e0: 387b 94be a88f 1c3e e2ab 22be 0b5c 733e
000000f0: ff5e 19be aaa8 fb3d eff2 803d 6a54 bdbd
00000100: 6a58 cd3e 44ab 003d ddd6 9dbc b6a4 abbe
00000110: d0d9 a33e bab8 1e3e 4623 2abd 4705 353e
00000120: a592 6bbe 87ab 3abe 10d7 92be 1f9a 0bbe
00000130: 04b6 a0be 5ead 483c 734c 9c3e 265b c13e
00000140: 080e 90be d5fc 7ebc 385b b23d 8126 2abe
00000150: a855 5cbe 53e7 68bd 3d93 fdbd 4460 b0bd
00000160: 5b8b 933d 6f11 193e e8dd f6bd 58e5 853b
00000170: 6a68 383d bec0 31bc a770 b13c 9f8f 7c3e
00000180: 797a c9bc 77db ae3c ac70 153e be24 11be
00000190: f259 a53e 9ba0 8bbc b75e bd3d 15dc 6fbd
000001a0: 6201 7abe 98d6 15bc 4aa4 b23e b831 abbd
000001b0: a41f 95bd 90db 82be 2aae c8bd 0685 013e
000001c0: d93c c13d 2080 b53e dc99 9f3d 8a9b 0ebe
000001d0: 0e6f e53d 56a2 0b3e bd01 133e 97a7 87be
000001e0: dcf8 02be 1d42 32be 3ba2 66be f341 22be
000001f0: 739c 563e 1f7e 333e 75e3 313e aef6 8a3c
00000200: b534 a63c 4bb7 27be 951a 93bd 2479 9ebd
00000210: 99c7 d7bc 84e4 eb3d 8db5 80bd 1f91 f33a
00000220: 2bbb d43d 11c3 983e 3d8c 2cbd 820f 46bd
00000230: 1c6d e4bd 9ae4 43be eae6 80be fa55 993e
00000240: 40d0 56be 1b4c a03e 8e36 6a3c 14a3 2bbd
00000250: 01cc 003c 1c03 e9bd 4470 9bbe 49a6 35bd
00000260: bba6 a1bd d1f9 8f3e a955 d1bd f43a 7a3e
00000270: cde2 c33d 40d1 ed3d 87c8 7c3b c4e4 ba3d
00000280: bdbf 0d3e 73e6 81be d512 ccbe 3af2 8cbd
00000290: 7b44 d2be 3799 583c 28cc 9a3c 7bec 213e
000002a0: 95f6 7fbd 91f6 86be c955 a2be b866 023e
000002b0: 3f98 f83d 7ff1 5b3e dfee 9abe 5033 883d
000002c0: 095c 0f3d 0c5f fdbd f282 743d e18c 813e
000002d0: c7d8 61be 08ed 683e 2e67 d73d 96a7 fd3d
000002e0: e137 50be 3496 2c3e 3d51 00be bff3 0a3e
000002f0: baf6 9d3e dae2 a63d 90b8 723e 9029 3e3e
00000300: 67b6 473d 7d9c 3ebe a7f5 02be 96c0 703d
00000310: 49b7 23be 4f65 883e b5fa ab3e db61 823e
00000320: 196f e7bc 140f ebbc 4aec 94bb 678b 0bbd
00000330: 53a5 0b3e 81fc 87be 5e53 813e 694a 3f3e
00000340: c915 86be 09ed d0bd 8d20 45be 7ab6 b7bd
00000350: 7006 a83d d5ce d8bd 0053 e53d 96dc ec3a
00000360: 1175 433e d605 89bc bcd3 16be 42a0 303e
00000370: 8289 93be e3c6 adbc 4109 6cbb 2f28 99be
00000380: f4f4 debc 15e9 a8be d4a9 803d f034 393e
00000390: 648b 8b3b 01b4 12be 7296 1bbe 8909 6fbd
000003a0: 1575 c1bc 36e2 6fbe 3057 db3c 5193 87be
000003b0: e46c 87be b417 4f3d ab25 4cbe afb7 ac3b
000003c0: 58a1 84be 699d 5e3e 4883 483e 6807 88be
000003d0: 2be0 343e f54f a1be 0279 17be 54c4 ab3e
000003e0: f622 823e e414 0d3e ca08 9b3d a001 533e
000003f0: 8903 ff3d e007 883d 6dfa ca3c 37f7 d0bc
0.011979101 0.003284666 0.12568529 0.11839662 -0.07870431 -0.005939355 -0.032953348 0.05851714
-0.040365655 -0.15150174 0.023389006 -0.20561908 0.2272171 0.28170025 -0.08829537 -0.1919645
0.15656333 0.0846615 -0.10216888 -0.24862753 0.05738755 0.03375467 -0.16099897 0.0044515
-0.15613239 0.03617116 0.1785503 -0.059251085 -0.15147251 -0.1394531 0.018898396 0.0401635
0.022028608 0.14519183 0.11303958 0.22924949 0.28655064 -0.104678996 -0.22914596 -0.1588093
-0.21734236 0.10964582 0.37165165 -0.34837717 0.36128205 -0.5010396 -0.4245822 0.2662424
0.092050344 0.08462449 0.32333195 0.081164286 0.16759288 -0.17389187 0.23298812 -0.50900745
-0.29000258 0.15289176 -0.1588588 0.2376558 -0.14977644 0.122880295 0.06296336 -0.09244616
0.40106517 0.03141333 -0.019267494 -0.33524102 0.32002115 0.15500155 -0.041537546 0.17677794
-0.23005159 -0.18229495 -0.28679705 -0.13633011 -0.31388867 0.012248365 0.30527076 0.37764853
-0.28135705 -0.01556321 0.08708805 -0.1661625 -0.2151705 -0.056861233 -0.12381599 -0.08612111
0.07204314 0.14948057 -0.12054044 0.004086178 0.045021452 -0.010849176 0.021660162 0.24664162
-0.024594532 0.021344883 0.14593762 -0.14174172 0.32295185 -0.017044356 0.09246581 -0.058559496
-0.2441459 -0.009145401 0.34890968 -0.083590925 -0.072814256 -0.25558138 -0.09798844 0.126484
0.09435434 0.35449314 0.07793018 -0.13926521 0.112028226 0.13636145 0.14356132 -0.26495048
-0.12790245 -0.17408033 -0.22522824 -0.1584547 0.20958118 0.1752858 0.17371924 0.01696333
0.020288805 -0.16378514 -0.071828045 -0.077379495 -0.026340293 0.11518195 -0.06284628 0.0018582678
0.10387262 0.29836324 -0.04212593 -0.048354633 -0.111536235 -0.19130173 -0.25176173 0.29948407
-0.20977879 0.31308064 0.014295233 -0.04190357 0.007861138 -0.11377546 -0.3035909 -0.044348035
-0.078931294 0.28120282 -0.102214165 0.24436551 0.09564743 0.11612177 0.0038571672 0.09125665
0.13842674 -0.2537113 -0.39858118 -0.068821386 -0.4106787 0.013220123 0.018896177 0.15812866
-0.06249102 -0.2635999 -0.31706074 0.12734497 0.12138414 0.21478842 -0.3026037 0.06650412
0.03499988 -0.123716444 0.05969519 0.25302795 -0.2205535 0.2274667 0.10517727 0.1238548
-0.20333816 0.16854173 -0.1253099 0.13569544 0.308523 0.08148737 0.23703218 0.18570542
0.048757937 -0.18614383 -0.12789021 0.058777414 -0.15987886 0.26639792 0.33589712 0.25465283
-0.028251218 -0.028693713 -0.0045447694 -0.03406849 0.13637285 -0.26559833 0.25258917 0.18680729
-0.26188496 -0.10201461 -0.19250698 -0.089703515 0.08204353 -0.10586325 0.111974716 0.0018071111
0.19087626 -0.016726416 -0.14729208 0.17248634 -0.28815848 -0.021213 -0.0036016258 -0.2991347
-0.027216412 -0.32990327 0.06282392 0.180866 0.00425856 -0.14326479 -0.15194109 -0.058358703
-0.0236154 -0.23426136 0.026774973 -0.2647958 -0.26450264 0.050559714 -0.19936244 0.00527092
-0.25904346 0.21739735 0.1958133 -0.2656815 0.17663638 -0.31506315 -0.14792255 0.33548224
0.25417298 0.137775 0.07570036 0.20606089 0.12451846 0.06642127 0.024777615 -0.025508506

cell_list.3.conv_can.weight f4 [10, 21, 1, 1]
00000000: 51d3 5b3d beb4 f63d ce9f 4d3e 7efc 7a3e
00000010: 1c7c e7bd 2afd 603e b8c5 3dbe 6fda 88bd
00000020: c8a3 2b3e ffaa a43d 2d9c b93d e327 52be
00000030: e095 16bc a819 8cbd 5312 9d3d 9cd2 803e
00000040: e1c8 3c3d 07bb 963e ea34 283e d49d 23bc
00000050: 7f0d 2dbd ea91 873c 2040 753e 292d cf3b
00000060: dc32 553d d6dc 09be dbbc 863c da8e c8bc
00000070: 0d7b 7c3e 368c 7f3d 8fcf 153e 0105 913e
00000080: 7fae 7ebe 1848 08be c821 21be a255 603d
00000090: 152d 87be 402e 283e 70f9 5e3e 70a2 b039
000000a0: 8447 ffbd 0c81 7cbd c7e8 d2bc 2aec 0ebe
000000b0: 3ea5 723d 754b 25bd d17e 11bc 88a6 d1bc
000000c0: aae0 96bd 7778 8c3d 2441 cc3d 949b 48be
000000d0: d18d 94be 4ca6 9abe 3421 11bd e584 9cbb
000000e0: 37a5 a43e d661 41be ef10 203e 5f61 4e3e
000000f0: 30f4 60be 7a37 ab3d 69c1 293e 00d2 983e
00000100: 1aa5 babe ffcd 1fbe 3c08 803e d9aa 373d
00000110: f077 4f3e 6fa0 823e 3b41 0ebe 9489 84be
00000120: 22e8 20bd 41b9 c8bd 4c44 d6bb c234 e13d
00000130: bdea cebd 1fd4 443e cc89 b53d 8690 c83e
00000140: fc4b 25be 2ba6 733d c7db 4a3e 87ce 233e
00000150: 352c 853e 2846 2e3d 807a 1e3b 34b9 4dbe
00000160: e36d cabd ccbc 4ebe 983b 5f3d edf3 97bb
00000170: f0bf 47be a2b2 f33d bd04 97be 5cb1 6cbd
00000180: bf1b 3c3d 4379 cc3d a2c9 1a3e c4f9 c5bd
00000190: fb04 4d3e 03ed 64bd 07f7 a5be 6f08 8cbe
000001a0: aefd 103e 3907 55be a7fa 4b3e ee8e dfbd
000001b0: 489c 2cbd e63f 31be 4648 e8bc 0a94 ecbc
000001c0: 51fe d73b 543f 593c c2cb 0dbd 620a 48be
000001d0: 1a5b 65be 1947 e2bd e6ed f6bd 858c 9abd
000001e0: 2561 41be 608b 3ebd fe69 27be ca98 f4bc
000001f0: 08e7 c33c dfc2 953d bbf3 d83a 6a0c 40bd
00000200: fe3c 61be dfe7 a1bd e2d3 393e 109e 493d
00000210: a294 943e eabb 6a3c d60d 96be 79aa bd3d
00000220: d4a0 3fbd c23a 9b3e 3275 aa3d 5241 f43c
00000230: f815 603d 6722 713e 4c60 63be b052 733e
00000240: d04e 913e 88f7 4f3d 15e4 533d 8dc2 313e
00000250: d260 9b3d 8a61 e8bc 1f21 323e 3a77 37be
00000260: dc6e a9bc c70a a9bd b201 22be 2953 923d
00000270: 09e3 89ba 116a aabc 6d2a 19bd 8787 1d3e
00000280: 2d4c 5e3c 07d8 de3d 511c 9cbc 704a 4bbd
00000290: cfea a4be 4884 373e b988 af3d c76e b0bd
000002a0: 919f 85be 182f f0bd 41bb e1bd aa89 44be
000002b0: d451 363e 6ccc b63b 22cc dbbc 55a9 46be
000002c0: 14fb 9d3d 1bda 05be a5ea 09be afb8 6ebe
000002d0: 8b5d dd3d bd43 973c 548a 943d 4090 a9be
000002e0: 6419 903d a0be e4bc 43b7 29be 503f a4bd
000002f0: de6b 51be 1085 513e 28d4 3dbe bf6b 1ebe
00000300: fdfd adbc a8fb a9bd d436 60be e62c 1f3c
00000310: 0b3c c33e 641a a03b c922 283d dc4f 9b3c
00000320: 9424 93be aaaa f6bb 925e 04be 0249 803e
00000330: dabd 103e 5020 933c a0bf 4f39 9808 bebd
00000340: 1981 37bd 382a 80be
0.053668324 0.120461926 0.20080492 0.2451038 -0.11302969 0.21971574 -0.18532455 -0.06682288
0.16761696 0.080404274 0.09062991 -0.20523028 -0.009191006 -0.06840831 0.07669511 0.25160682
0.04609001 0.29439566 0.16426435 -0.00998636 -0.0422492 0.01654907 0.23950243 0.006322522
0.052050456 -0.13463148 0.016447475 -0.02448218 0.24656315 0.062389575 0.14629959 0.2832413
-0.24871252 -0.13308752 -0.15735543 0.054769166 -0.26401582 0.16423893 0.2177484 0.0003369036
-0.124648124 -0.061646506 -0.025745763 -0.13957277 0.05923962 -0.040355165 -0.008880333 -0.025592104
-0.0736707 0.06858914 0.09973362 -0.19590598 -0.29014447 -0.30205 -0.035432056 -0.0047765845
0.321573 -0.18884978 0.1563146 0.20154332 -0.2196815 0.08360191 0.16577686 0.29847717
-0.36454087 -0.15605925 0.25006282 0.044840667 0.20260596 0.25513026 -0.13892071 -0.25886214
-0.03928388 -0.098009594 -0.0065389033 0.10996391 -0.101033665 0.19221543 0.08864173 0.39172763
-0.16142267 0.059484642 0.19810401 0.15996753 0.2601029 0.042547375 0.0024181902 -0.2009018
-0.098842405 -0.20189208 0.054500192 -0.0046372325 -0.19506812 0.11899306 -0.29495803 -0.05778633
0.0459249 0.09984066 0.1511598 -0.0966678 0.20021431 -0.055890094 -0.3241503 -0.27350184
0.14159271 -0.20803536 0.19919835 -0.109159335 -0.04214123 -0.17309532 -0.028354775 -0.028879184
0.006591596 0.0132597275 -0.034618147 -0.1953521 -0.22398034 -0.11048717 -0.12057094 -0.07546333
-0.18884714 -0.046519637 -0.16349027 -0.029858012 0.023913875 0.07312559 0.001655213 -0.04688684
-0.21995923 -0.07905554 0.18147233 0.049223006 0.29019648 0.014327029 -0.2930743 0.09261031
-0.046784237 0.30318266 0.083231345 0.029816303 0.05470845 0.2354828 -0.22204703 0.23762012
0.28380442 0.050773174 0.051731188 0.17359371 0.075868264 -0.028366823 0.17395447 -0.17916575
-0.020682745 -0.08254009 -0.15820959 0.07144768 -0.0010519932 -0.02080253 -0.037393976 0.15383731
0.013567966 0.10881048 -0.019056471 -0.049631536 -0.32210395 0.17921555 0.08571 -0.08614879
-0.26098302 -0.117277324 -0.11022044 -0.1919314 0.17804652 0.005578568 -0.026830737 -0.19400533
0.07713905 -0.13071482 -0.13468416 -0.23312639 0.108088575 0.018464917 0.072529465 -0.33117867
0.07036093 -0.027922928 -0.16573815 -0.080198884 -0.20451304 0.20460916 -0.18537962 -0.1547079
-0.021239275 -0.08299953 -0.21895915 0.009715294 0.38131747 0.0048859585 0.0410488 0.018958978
-0.28738844 -0.007527669 -0.129267 0.250557 0.14134923 0.017959744 0.00019812444 -0.09278983
-0.04480085 -0.2503221
