saved_models/4task_composite/random1_9.pt (torch, 143182 bytes, 16 tensors)

cell_list.0.conv_gates.weight f4 [20, 11, 3, 3]
000000 86 64 7f be 5e 90 a1 be f4 af 8a be db c0 29 be
       -0.2494069 -0.31555456 -0.27087367 -0.16577475
000010 41 eb 37 be 8d eb 10 be 90 d5 92 be 40 b8 34 be
       -0.17960836 -0.14152355 -0.2867856 -0.17648411
000020 fc d9 a0 be 62 dc 3d be a1 08 92 3d be ee 9c bd
       -0.3141631 -0.185411 0.07130552 -0.07662724
000030 40 f5 14 be 54 ea df 3c bd 1e ac 3d 23 98 43 be
       -0.1454668 0.027333416 0.084043 -0.19101004
000040 d6 74 87 3b 8e 87 94 bd 10 84 5f 3f bc 91 1f 3f
       0.004133801 -0.072524175 0.87310886 0.6233175
000050 f9 aa 89 3f 1d 7c 4b 3f eb 68 84 3e 41 fe 2b 3f
       1.0755302 0.79486257 0.25861296 0.67184836
000060 e7 67 9c 3f d2 19 30 3f 4c 80 91 3f b8 9e fc be
       1.2219208 0.687894 1.1367278 -0.49339843
000070 d9 25 78 3d c3 8b b1 be 85 66 3b bf af cd 9e be
       0.06058297 -0.34676942 -0.7320331 -0.310163
000080 b1 b2 f7 be 88 03 5f bf e9 ee 3e bf f4 6e 66 bf
       -0.48378518 -0.87114763 -0.745833 -0.9001305
000090 a0 db 22 bf 0a 8d 12 bf 36 ea d6 be 73 9e eb be
       -0.6361637 -0.5724646 -0.41975564 -0.46019325
0000a0 f5 fc 92 be 52 46 a9 be d5 87 92 be ce dd 5b be
       -0.28708616 -0.33061463 -0.28619257 -0.2147133
0000b0 91 79 49 be eb 0a 1d 3f 86 83 6b 3e 65 51 33 3e
       -0.1967528 0.61344784 0.22999391 0.17511518
0000c0 5f 2d 67 3f 11 32 01 3f 87 91 f5 3e 0b f0 77 3f
       0.90303606 0.5046702 0.4796259 0.9685065
0000d0 70 e2 4f 3f 4b b7 3b 3f 37 76 b3 be 16 33 8a 3f
       0.8120489 0.7332656 -0.35051128 1.079684
0000e0 9b 2c 8d 3e 91 92 0b bf 1a 86 a1 3e a3 ea 86 bd
       0.27573094 -0.5452052 0.31547624 -0.06587722
0000f0 34 79 71 bf 14 20 18 bf 36 01 53 bf 66 44 14 bf
       -0.94325566 -0.5942395 -0.8242372 -0.5791687
000100 ac f4 81 bf ab d3 a0 bd b7 e7 e2 be 6c f4 37 bf
       -1.0152793 -0.078528725 -0.4431741 -0.71857333
000110 97 0e 19 3e c4 d1 13 3f f4 47 9f 3e ab 17 25 3f
       0.14946972 0.5774195 0.31109583 0.6448924
000120 0e b8 0d 3f 20 04 55 3e 7c 10 66 3e 2d 09 26 3f
       0.5535897 0.20802355 0.22467226 0.6485775
000130 93 ac 6d 3e 5c 48 7b 3e b1 27 65 3f 69 b0 42 3f
       0.23210363 0.24539322 0.8951369 0.7605043
000140 dd 79 2f 3f a5 46 a2 bf b6 04 7f bf 27 8a 53 bf
       0.68545324 -1.2677809 -0.99616563 -0.8263268
000150 1d 54 84 bf 44 00 e0 be 2a f0 9e be 01 ee 8d bf
       -1.0338169 -0.43750203 -0.31042606 -1.1088258
000160 86 ed f7 be 7c 5e d9 be 64 15 e7 3f ff c5 86 3f
       -0.48423404 -0.42454898 1.8053403 1.0529174
000170 57 da 33 3f b6 f1 c7 3f 16 57 49 3f 31 4b f4 3e
       0.70255035 1.5620639 0.7864851 0.47713616
000180 b4 e2 d7 3f b4 f6 73 3f a3 62 33 3f 28 e7 bd 3e
       1.6866059 0.95298314 0.7007238 0.3709042
000190 a4 d8 eb 3e 9c 05 12 3f 5f 7c c1 3e f0 42 07 3f
       0.4606372 0.5703981 0.377902 0.52836514
0001a0 a6 48 f1 3e 9e 99 d6 3e 85 75 f0 3e 16 a6 cf 3e
       0.4712574 0.41914076 0.4696466 0.405564
0001b0 3b 0c c9 3d 42 c4 9c 3e 56 cb 9f 3e a0 db 5f bc
       0.09816786 0.30618483 0.3120982 -0.0136632025
0001c0 b5 0b 3e 3e 04 78 d0 3e 40 1b 10 bc 0b 15 77 3e
       0.18559153 0.40716565 -0.008795559 0.24129121
0001d0 79 32 d7 3e d2 a3 08 3e 6a b7 bd bc 5c 17 81 3d
       0.42030695 0.13343742 -0.023158748 0.063032836
0001e0 54 e7 08 b8 33 8e 1a 3f 89 1d 9d 3d 5e ec 4d 3e
       -3.2640368e-05 0.6037323 0.07671649 0.20109698
0001f0 95 21 d9 3b 29 be 15 3e e7 de 69 be 5f 53 5d bd
       0.0066263177 0.14623322 -0.22838937 -0.054034587
000200 c7 65 b7 bb 0e ff 94 be 1e d9 50 bc ed 0e 34 be
       -0.0055968496 -0.2910084 -0.012747077 -0.17583819
000210 33 bc ba be 3f 31 8d be d4 83 67 be 5b 2a 90 3e
       -0.3647171 -0.27576634 -0.22608882 0.28157315
000220 a1 5c 82 3e 13 99 a3 3d eb 8f c3 3e 7a 39 a3 3e
       0.25461295 0.07988181 0.38195738 0.3187979
000230 71 be 30 3e 47 7c 89 3e 4d 68 f3 3d 70 1e cf 3d
       0.17260148 0.2685263 0.11885128 0.10113227
000240 7c 9e 2d 3e c9 08 9f bb 13 4f f9 bd 8e 8c 8f 3d
       0.16954988 -0.004853342 -0.12173285 0.070092306
000250 96 aa 17 3e e6 c6 fe 3c 5c 36 94 bc 85 43 ac 3d
       0.14811167 0.031100702 -0.018092327 0.08411316
000260 96 55 59 bc 03 36 e8 be 84 21 8c be aa 73 ab be
       -0.013265034 -0.45353708 -0.2736932 -0.33486682
000270 fd 6d c1 be b1 bd 2e be 96 40 11 be ac d5 a9 be
       -0.37779227 -0.17064549 -0.14184794 -0.3317083
000280 16 31 89 be e4 59 29 bd 43 7f d1 3e 16 aa 94 3e
       -0.26795262 -0.041345492 0.40917405 0.29036015
000290 75 32 37 3e a4 5b de 3e 14 23 45 3e 04 1f 52 3e
       0.17890342 0.4342929 0.19251662 0.20519644
0002a0 10 ee eb 3e 5a bf 64 3e a6 df 48 be c1 ec 6f 3e
       0.46080065 0.2233862 -0.19616565 0.23430158
0002b0 6d 2a 13 3e a6 33 1c 3e 3a 92 a2 3e f0 09 f8 3d
       0.14371653 0.15254077 0.31752187 0.121112704
0002c0 94 be 60 3e bc 1c 70 3e f4 23 9c 3e 88 23 5c 3e
       0.219477 0.23448461 0.3049618 0.21497929
0002d0 5e 74 52 be ca f7 1c be 91 88 21 be 20 80 70 be
       -0.20552203 -0.15328899 -0.15774752 -0.23486376
0002e0 aa 24 d0 bd 69 1f 12 be ea 75 cb bd a5 82 0d be
       -0.10163243 -0.14269795 -0.099346 -0.13819368
0002f0 cf b8 fa 3b 0b 1c 76 3e 82 d1 d5 3d 19 50 cd 3d
       0.0076514254 0.24034135 0.10440351 0.10025043
000300 04 19 ff 3c 1d 44 98 3a ef a3 9b 3d df dd 03 3e
       0.031139858 0.0011616979 0.07599627 0.12877606
000310 c0 ea de 3d c8 18 dd 3d 25 a4 10 3e 1d cf d0 3e
       0.10884619 0.10795742 0.14125116 0.40783015
000320 38 31 99 3e c4 8e b9 3e d2 ef ee 3e 43 93 e8 3e
       0.29920363 0.36241734 0.46667343 0.45424852
000330 77 00 c3 3e 11 08 d5 3e b1 b4 c8 3e b3 e3 2f 3e
       0.38086292 0.41607717 0.39200357 0.17176704
000340 18 21 37 bd 25 47 b3 bd 65 6a 45 3e 6a 40 0f be
       -0.044709295 -0.08753804 0.19278868 -0.13989416
000350 a7 3d 98 be d7 28 99 3e 17 e3 6a 3e 2a f8 43 3d
       -0.29734537 0.2991397 0.2293819 0.04784409
000360 48 cb 90 3d b3 75 1e 3e 77 1b 18 3e 8f ff 19 3e
       0.07070023 0.15474586 0.14854227 0.15038894
000370 76 74 65 3e 8a 55 56 3e 99 16 1d 3d 33 5b 2a 3d
       0.22407708 0.20931068 0.03835163 0.04159088
000380 c3 99 bc 3d 8a 08 92 be 89 f7 d3 be 3a 61 e7 be
       0.09209015 -0.2852214 -0.41399792 -0.45191365
000390 8f 13 36 be 9d 12 0a bf 00 38 a5 be 9a fa 9d 3d
       -0.17780899 -0.5393465 -0.32269287 0.07713814
0003a0 de 37 83 3d dc 0b a0 bd 07 16 06 3f 2c 33 15 3f
       0.0640714 -0.07814762 0.5237736 0.5828121
0003b0 6b 0d e6 3e 71 80 1c 3e 98 e0 11 3e c8 d1 74 3d
       0.44932112 0.15283372 0.14245832 0.059770375
0003c0 74 6c 24 3e d4 b3 26 3c 4f 43 55 be cf 56 c7 be
       0.16056997 0.01017471 -0.20826457 -0.38933417
0003d0 61 36 0a be 98 45 67 3e 9c 03 39 bf 37 8c 43 bf
       -0.13497306 0.22585142 -0.7227113 -0.76385826
0003e0 0a ef 0d bf cb d2 4d bf 66 17 6c bf 05 f8 5f bf
       -0.5544287 -0.8039977 -0.92223203 -0.8748782
0003f0 10 54 09 be dd c1 0e bf 40 23 6a bf 03 fb a4 bd
       -0.13410974 -0.5576456 -0.9146004 -0.08055689

cell_list.0.conv_can.weight f4 [10, 12, 3, 3]
000000 50 bb 59 be d1 fb 91 bd cc 14 95 3d 55 88 56 3d
       -0.2126286 -0.07128108 0.07279357 0.05237611
000010 a5 cf 21 3e 7a 4c 33 3e 30 d0 c9 bd 1b 81 30 3d
       0.15801866 0.17509642 -0.09854162 0.043091875
000020 c5 3b 60 3d b1 d8 cb 3e 36 cb 4f 3f 9e fe 4f 3f
       0.0547445 0.3981376 0.8116945 0.8124789
000030 45 b1 fa 3e bd 3b 48 3f 3d f1 67 3f 18 ae 56 3e
       0.4896337 0.78216153 0.90602475 0.20964849
000040 a1 76 c6 3e 92 10 bf 3e e6 ee dd 3c 48 bd ca bc
       0.38762382 0.3731733 0.027091455 -0.02474846
000050 76 20 dd bd 6f 13 43 bd 6f 83 e6 bd 69 20 ab bd
       -0.10797207 -0.047625955 -0.11255538 -0.08355791
000060 f9 22 c1 3c d0 a8 7b 3b f5 12 9d bd 44 fd 8d bc
       0.023576247 0.003840018 -0.076696314 -0.01733268
000070 d1 00 82 3c 5f 2e 26 3e 8b 07 9d bd 5b dc ab 3c
       0.01586953 0.16228627 -0.07667454 0.020979097
000080 9f 7c a0 3d 04 e4 06 be f2 da c0 bc 91 d3 90 3d
       0.078362696 -0.13172919 -0.023541901 0.07071603
000090 ac 7f cc 3d 8e cb 5f 3e 1b cd b8 3e f5 51 c5 3e
       0.09985289 0.21854994 0.36093983 0.3853909
0000a0 1d 41 db 3e b8 40 0c 3f fd f4 b1 3e 05 5e 0d 3f
       0.42823115 0.5478625 0.34757224 0.5522159
0000b0 7a 9b 30 3f 50 76 93 be a2 fd ec be ce 50 3e bf
       0.6898724 -0.28801203 -0.46287256 -0.7434205
0000c0 94 6e 9c be 13 e0 c8 be d3 eb 06 bf cb cc 67 bd
       -0.30553114 -0.39233455 -0.5270359 -0.05659179
0000d0 c5 70 fb bd 36 ea 2a be 6e 49 5b 3e 7d 09 00 3f
       -0.122773685 -0.16690907 0.2141473 0.5001448
0000e0 34 e2 3c 3f 6f 7f 1d 3e b2 e1 74 3e d6 af a0 3e
       0.7378266 0.15380643 0.23914221 0.31384152
0000f0 be 3d bc bd b6 1d 5d 3d 7c 32 d4 bd be bb e3 be
       -0.09191464 0.053983413 -0.10361192 -0.44479173
000100 6c d6 4a bf a1 3d 73 bf 4e 02 84 be f4 27 fa be
       -0.7923343 -0.95015913 -0.25783008 -0.48858607
000110 14 fe c9 be 0e 94 b0 3d 95 07 0c be 06 2b 30 3d
       -0.3945166 0.08621989 -0.13674767 0.04300978
000120 dc 77 62 bd 58 00 83 be 9a cf 8a be d0 c4 c8 3c
       -0.055290088 -0.255862 -0.27111512 0.02450791
000130 f6 ee 21 be 78 70 fb bd f0 41 18 3e ad b9 1e 3e
       -0.15813813 -0.12277311 0.14868903 0.15500517
000140 39 44 24 3a bb 97 4e bb bb 68 6a 3e f2 fd 81 3e
       0.00062662695 -0.0031523544 0.22891514 0.25389057
000150 42 e6 92 3c 63 f5 9b 3d bb 97 3e 3e 5d 3e 93 3d
       0.017932061 0.07615163 0.18612568 0.07189629
000160 9d 07 44 3d 0e ec 74 3d 0d df 3f bd f3 ab d8 bd
       0.047858823 0.05979543 -0.046843577 -0.10579672
000170 a5 6a 86 be 13 c3 c4 bd ac 27 4e be 91 ed 8c be
       -0.26253238 -0.0960752 -0.20132321 -0.27525
000180 50 26 96 3d dd 59 ed 3c ff 85 81 bc ab d4 e2 be
       0.07331526 0.028973514 -0.015810965 -0.44302878
000190 a0 58 da be d0 46 cc be 50 69 c4 be 81 6a 94 be
       -0.4264574 -0.39897776 -0.38361597 -0.28987506
0001a0 e1 bf de be 80 e1 b0 be c0 d4 db be d3 74 d3 be
       -0.43505767 -0.34547043 -0.42935753 -0.41300067
0001b0 d5 ea b4 3c 4d 12 ee bd de 92 3f be ac 17 1d be
       0.022084633 -0.11624584 -0.18708369 -0.15341061
0001c0 01 64 9d be 52 6d 98 be d2 6f b1 bd 84 81 1c bd
       -0.3074036 -0.29770905 -0.08663906 -0.038209453
0001d0 1d ed 96 bd 15 a1 cc be be f8 78 bf c9 cb b1 bf
       -0.073694445 -0.39966646 -0.9725455 -1.3890315
0001e0 31 d7 bc be fe 65 78 bf 6e b4 7f bf 93 ec 74 be
       -0.36882928 -0.9703063 -0.9988469 -0.23918371
0001f0 b1 48 ab be d1 39 6b be 40 5a 48 3c 41 7a 08 3e
       -0.33453897 -0.22971274 0.0122285485 0.13327886
000200 02 bd 93 3e ec 66 24 be 74 9c 9f 3d c5 5e 90 3e
       0.2885514 -0.16054887 0.07793513 0.28197303
000210 1c 18 8e bc f4 ac 0f bc f2 02 0a bd a7 8a 90 bd
       -0.01734548 -0.008769263 -0.033694215 -0.07057696
000220 0f fc cf be ad aa bd be 9b 11 ae 3d 81 36 ef 3b
       -0.40621993 -0.37044278 0.08499452 0.0073001985
000230 ce 51 9d bd 61 ad ca 3d 88 d4 2e 3c 20 a1 df 3c
       -0.07681619 0.09896351 0.010670789 0.02729851
000240 e1 19 9a bd ac 7e 46 be 97 bb 8a be 5b 9c 84 be
       -0.07524467 -0.19384259 -0.27096245 -0.2590054
000250 8f db 8a be eb fe f9 be 0a ce 8d bd 55 6d 54 be
       -0.27120635 -0.488273 -0.069240645 -0.20744832
000260 77 0f e4 be c5 18 a3 3d aa 8d 96 3e 96 b2 1e 3f
       -0.4454305 0.07963709 0.29404956 0.6199125
000270 ae 40 9d 3d 0a c1 4c 3e a0 e6 e1 3e 3c 7c 48 bd
       0.07678352 0.19995514 0.44121265 -0.048946604
000280 f1 98 75 3d cf f8 a2 3e ff 6e 40 be 2a bf 14 bf
       0.05996031 0.3183045 -0.18792342 -0.58104193
000290 3b ad 46 bf 04 07 40 3d 66 71 10 be e3 58 39 be
       -0.7760808 0.04688169 -0.14105758 -0.18100314
0002a0 36 18 6a 3e 68 ee 85 3c 16 15 ba 3d 43 4f d5 3e
       0.22860798 0.016349033 0.09086053 0.41662034
0002b0 be 4e 75 3f 86 9d 4d 3f 7c 11 29 3e 4c 38 8d 3e
       0.95823276 0.80318487 0.16510576 0.27582014
0002c0 a6 71 2f 3e fb e8 56 be fe f8 c7 bd 16 da 17 be
       0.17133197 -0.20987312 -0.09764288 -0.14829287
0002d0 14 71 29 3e d3 12 ce 3e e9 1f 09 3f 5e 88 12 3d
       0.16547042 0.40248737 0.53564316 0.03577458
0002e0 c5 3b 61 3d 21 26 a5 3d ec 5e 36 be 53 22 49 bd
       0.05498864 0.08063913 -0.17809647 -0.049105
0002f0 b0 47 59 bd 69 55 dc bb bb 08 8f be 08 84 57 be
       -0.053046882 -0.006724049 -0.27936348 -0.2104646
000300 d2 bd f5 3d 2e dc 75 be 54 9f b0 be 20 89 d4 bc
       0.11999096 -0.24009773 -0.34496558 -0.025944293
000310 19 fc 3b be 4c cc 38 be cd 27 b8 bd cd 60 fe 3d
       -0.18357886 -0.18046683 -0.089919664 0.12420807
000320 62 06 c0 3e 29 5c 77 bd 18 e6 c9 3d 5b 6b 7b 3e
       0.3750487 -0.060390625 0.0985834 0.24552672
000330 11 f0 6a bd c3 ea d1 3d ac 0e bd 3d d0 b5 89 3e
       -0.05735785 0.10249855 0.09231314 0.26896524
000340 c4 24 a5 3e 39 bf 9d 3e 83 98 86 3e 0b 2e 84 3e
       0.32254612 0.30809954 0.26288232 0.25816378
000350 8e 88 4c 3e a2 c4 8d 3e d6 d4 be 3e 3e 01 d6 3e
       0.19973966 0.2768908 0.37271756 0.41797823
000360 eb 9b 79 bc 53 74 da 3d 4c 1b 94 bc 93 27 19 3e
       -0.015234928 0.10666718 -0.018079422 0.14956503
000370 8e c0 33 3e dd 49 88 3e 8e 99 b4 bb 0b d7 c8 3d
       0.17553923 0.26618853 -0.005511469 0.09806641
000380 03 47 54 3e 57 8f cc 3d 0b 1b 75 3e b4 73 88 3e
       0.20730214 0.099882774 0.23936097 0.26650774
000390 04 94 07 3f 7d b6 8b 3f 83 ca 97 3f b9 64 12 3f
       0.5296023 1.0915066 1.1858677 0.5718494
0003a0 b8 96 83 3f c6 33 53 3f f1 bc ba 3d 07 1f 6a 3b
       1.0280371 0.82500875 0.09118069 0.003572406
0003b0 f0 43 d8 3c 5d 2c 1a be 22 7e 86 be 75 e4 c8 be
       0.026399583 -0.15055986 -0.26268107 -0.392368
0003c0 9b a2 f4 bd 31 6d a7 be 32 3c af be 6b 13 e9 3d
       -0.11945077 -0.32700494 -0.34225613 0.11380657
0003d0 d3 85 ae 3d 02 2f 35 3e 63 a4 79 3e fb 34 ce 3e
       0.08521619 0.17693713 0.24379115 0.40274796
0003e0 b4 0e a8 3e 6d 3c 11 bc 36 46 4c 3e 08 c7 fb 3d
       0.32823718 -0.008864504 0.19948658 0.122938216
0003f0 43 72 c2 be c3 76 f2 be d2 bc 9b be 74 75 bd bd
       -0.379778 -0.47356233 -0.30417496 -0.09250918

cell_list.1.conv_gates.weight f4 [20, 20, 3, 3]
000000 19 69 a2 3e f6 34 bf bc 0a ac 97 be 90 5e b0 bd
       0.31720808 -0.023340683 -0.29623443 -0.08611786
000010 d2 67 37 bd ec f5 91 be 62 44 9e be 75 fb 6c be
       -0.044776745 -0.28507936 -0.30911547 -0.23142798
000020 e9 b0 68 be 19 a6 1a be f2 ff 35 bd ce 96 38 3e
       -0.22723736 -0.15102424 -0.04443354 0.18026277
000030 d3 3e 65 be 6f 44 7c bd ca 80 fa 3d e3 b6 ac bd
       -0.22387247 -0.0615887 0.12231596 -0.084333204
000040 5a 8d 8c 3d 27 87 7c 3e bb c6 4b 3d 48 17 0f be
       0.06862898 0.24660932 0.04975007 -0.13973725
000050 65 bf be bd 37 b6 fa 3d f0 0d b5 3d 5f 52 04 3e
       -0.09313849 0.12241786 0.08840549 0.12922047
000060 2f f2 a4 3e e8 fa 57 3e e7 92 7c 3e 88 0d 2e 3d
       0.3221602 0.21091807 0.24665414 0.042493373
000070 ed 31 9e 3c 75 f3 3b 3e 5d d9 04 3e 6f c2 a7 39
       0.019310916 0.1835459 0.12973543 0.00031997586
000080 47 64 00 3d 4f ea 80 bd 38 7b 4a bd 1c 65 d5 bc
       0.031345632 -0.06294691 -0.049433917 -0.02604919
000090 1f ee 40 bd 08 20 06 be 45 5d 11 be 64 6f b6 3c
       -0.04710209 -0.13098156 -0.14195736 0.022269912
0000a0 7f ea 9b bd e1 1c 34 be 2b 20 58 bd 66 85 52 be
       -0.07613086 -0.17589141 -0.052765053 -0.205587
0000b0 51 4a 86 be ab d6 eb 3e 3e ae ad 3e ad 55 36 3e
       -0.26228574 0.46062216 0.33922 0.1780612
0000c0 52 43 e2 3e c7 aa 97 3e 3c 12 84 3d 1d 85 77 3e
       0.44191986 0.2962248 0.064487904 0.24171872
0000d0 f1 8d e0 3d 62 c5 1d be 39 0a 65 be 38 95 ab bd
       0.10964573 -0.15407327 -0.22367181 -0.083780706
0000e0 1d 77 97 3d 68 8d 1f 3e 41 fb 8d 3e d1 e0 9c 3e
       0.07395766 0.15581286 0.27730754 0.3064027
0000f0 40 6c 9d 3e a6 aa 2c 3e 26 5f 47 3d a6 76 d3 3e
       0.3074665 0.16861972 0.048674725 0.4130146
000100 6f 99 d9 bd 41 47 27 bf ad eb 1f be 79 e7 07 bf
       -0.10624968 -0.653431 -0.15617247 -0.53087574
000110 d5 e7 2d bf 75 4f 12 bf 06 f9 4b bf d7 71 59 bf
       -0.6793187 -0.5715249 -0.79676855 -0.8493933
000120 39 cc 7b bd d2 fb 3a bc 07 a2 d5 bd cf aa 30 bd
       -0.06147406 -0.011412578 -0.10431295 -0.043131646
000130 62 cb 8a bd 51 05 e2 3c bc eb 8f be 2c 2d 08 be
       -0.067770734 0.027590426 -0.2810954 -0.13298482
000140 13 de 18 bd e5 04 5e 3d b0 6e 3b 3e e3 49 b4 3e
       -0.03732116 0.054203887 0.18303943 0.3521262
000150 ae 0b 20 3e e8 d9 80 3e 17 1e 95 3e e9 c7 1b 3d
       0.15629455 0.2516625 0.2912452 0.038032446
000160 f9 a8 00 3e b5 5c 3f 3e 8d 3e 66 3d 4b 9d 5d 3d
       0.12564458 0.18687709 0.056211997 0.054105084
000170 0c 9b 8d be d4 40 24 3d 94 f5 56 3c 3b b2 2a be
       -0.27657354 0.040100887 0.013120074 -0.16669552
000180 75 51 29 bd 73 f4 42 3d ad 8c 46 3d 79 6e 36 bf
       -0.04133745 0.047596406 0.048474003 -0.7126232
000190 f8 01 bc be 2f 65 46 be 5d 26 41 bf e4 3f 91 be
       -0.36720252 -0.19374536 -0.7544916 -0.28369057
0001a0 ef 12 06 bc f6 1d 31 bf 47 f9 f4 be 8e ba 7a be
       -0.008183225 -0.6918634 -0.47846434 -0.24485227
0001b0 c9 5a 8e bb a0 2b 37 bc 94 cf 1f be de 24 3b be
       -0.0043443185 -0.011179835 -0.15606529 -0.18275782
0001c0 76 1b 89 bd 9c b8 00 be cd 25 61 be 27 0a a5 bd
       -0.06694691 -0.12570423 -0.21987076 -0.08058577
0001d0 f7 c0 12 be 52 37 10 3d e5 59 dc 3d af 8d 1f 3d
       -0.14331423 0.035209008 0.107593335 0.03895348
0001e0 fb d7 81 3e d0 df aa 3d a6 bd 14 bb b1 91 b4 3e
       0.25360093 0.0834347 -0.0022696047 0.35267404
0001f0 dc 54 9d 3e 44 68 81 3d 80 d4 ab 3d 3d 34 1c 3d
       0.30728805 0.06318715 0.083901405 0.038135756
000200 6a 5c 89 bb 9f 6f 38 3e 7d b0 82 bd 50 73 8d bd
       -0.004191925 0.1801133 -0.06381319 -0.0690676
000210 b9 c9 9d 3e 2c 9a 02 3d 9d 53 5e be 60 57 0f bf
       0.30817965 0.03188531 -0.21711583 -0.559927
000220 24 8f b9 be 6c 25 8b bd 4c 1b 1d bf b1 31 aa be
       -0.3624202 -0.06794247 -0.61369777 -0.33241037
000230 c0 83 7b bc 13 46 1e bf a5 8e c0 be bb 1e b2 bc
       -0.015351236 -0.61825675 -0.3760883 -0.021743169
000240 6b 1f 82 3d f0 bb e5 3d f1 e9 28 3e 9a 14 c9 bc
       0.06353649 0.11217487 0.16495492 -0.024545956
000250 b5 4d 40 bd ba c6 0d 3d 68 e2 1e be 91 41 e7 bd
       -0.046949107 0.03461335 -0.15516055 -0.11291803
000260 18 34 a8 bd 4f dc bd bd a9 c0 36 3e d1 76 e1 3e
       -0.08213061 -0.09270536 0.17846932 0.44035962
000270 a8 ed 4f bd aa 58 86 3c 03 23 a8 3e c7 6b 16 bd
       -0.050763756 0.0163997 0.32839212 -0.03672388
000280 ea 08 8a bd 1e 48 41 3e eb 1c 09 be 25 e8 eb bd
       -0.067399815 0.18875167 -0.13389938 -0.115188874
000290 be f0 1a be 59 c2 67 bd 66 4b 2a 3d 61 98 35 bd
       -0.15130898 -0.05658183 0.04157581 -0.044334773
0002a0 a1 0f e4 b9 76 03 68 bd 7b c3 81 be 8f 1b 3e 3e
       -0.00043499193 -0.056643926 -0.25344452 0.185652
0002b0 c0 be b5 3d 95 a2 1e bc 35 1f ff 3e e2 86 66 3e
       0.08874273 -0.009682317 0.49828497 0.22512391
0002c0 c3 39 1a 3c 13 6a 06 3f 93 c5 37 3e ba c4 1e bd
       0.0094131855 0.52505606 0.17946462 -0.03876183
0002d0 cb c9 4c be 40 89 3c be bc 9d c6 bd be 12 bf bc
       -0.19998853 -0.18411732 -0.09698054 -0.023324367
0002e0 9d a5 a0 bc a7 18 d3 3d 96 48 68 3e 8b 6c d6 3e
       -0.01961022 0.103074364 0.2268394 0.41879687
0002f0 06 4b 56 3e 79 9b 57 3e 68 c1 97 bb e4 7b 48 3e
       0.20927057 0.21055402 -0.00463121 0.1957851
000300 3f dc b9 3e 3a 6b 51 be c7 89 a9 3e 92 18 b6 3e
       0.36300847 -0.2045106 0.33112928 0.3556562
000310 1e 18 2c bd f0 11 d3 3e 6c 5e a3 bd 64 1c 80 3e
       -0.042015187 0.41224623 -0.07976994 0.2502166
000320 42 8d db be c3 3f c0 3d 51 37 b6 3e 8d 0e 4a bf
       -0.4288121 0.093871616 0.35589078 -0.7892845
000330 61 b2 19 3e c2 46 87 3e 28 ff 17 bf bd dd 80 3d
       0.15009452 0.2642117 -0.5937371 0.06292293
000340 b0 68 3c be 55 77 20 bf 41 c0 06 be 12 e4 d0 be
       -0.1839931 -0.62682086 -0.13159277 -0.40799004
000350 da 1e 09 bf 7e f9 86 be 25 71 80 be 39 df 3b be
       -0.535627 -0.26362222 -0.25086322 -0.18346871
000360 d6 cc e5 bd da 11 5a bb ab d2 3d 3c 2d d0 23 be
       -0.1122071 -0.00332748 0.011585872 -0.15997382
000370 d8 cb e1 bd 71 3f 33 be dc c3 e1 bd 22 1d d9 bd
       -0.11025208 -0.1750467 -0.11023685 -0.1060126
000380 8f aa 4d be 3a 59 ec 3e 46 bb ad 3e c3 76 09 3f
       -0.20084594 0.46161824 0.3393194 0.5369684
000390 47 c9 c2 3e 04 e4 d2 3e 73 fd 05 3f 48 31 2c 3f
       0.38044187 0.41189587 0.5233986 0.672627
0003a0 f3 22 f4 3e 89 a5 fd 3e 44 f6 55 3f 8f 7e ba 3e
       0.47682914 0.49540356 0.83578897 0.36424682
0003b0 ff f6 55 bd 81 95 28 3f 06 95 76 be 56 2e cd be
       -0.052237507 0.65853125 -0.24080285 -0.40074414
0003c0 d1 a0 24 bd e6 6a 09 bf 20 aa 0d be 87 b3 ac 3e
       -0.04019243 -0.5367874 -0.13834429 0.33730718
0003d0 1f a8 bc bd a6 97 16 3e 66 bd 6e 3e 5f dd fb bd
       -0.09211754 0.14706287 0.23314437 -0.122980826
0003e0 41 8c 8c 3e a9 fd a7 3e c2 b7 a1 3e 8d 69 cb 3e
       0.27450755 0.32810715 0.3158551 0.39728966
0003f0 90 d3 24 bd b5 51 0c 3d a9 e2 59 be 2b 7f 50 be
       -0.040240824 0.03425761 -0.2127787 -0.2036101

cell_list.1.conv_can.weight f4 [10, 21, 3, 3]
000000 0e 5c 62 ba f7 ff d1 b9 fb b2 20 bd 29 62 99 3d
       -0.0008634933 -0.00040054295 -0.03923319 0.07489426
000010 35 83 18 bd 7d fb ce bb 63 7f 22 3e 4a 79 c5 bb
       -0.037234504 -0.006316601 0.15868907 -0.0060264217
000020 db db 35 3d 91 91 9b bd b6 08 36 3d 0f 74 82 3e
       0.044399124 -0.07596124 0.0444419 0.2547917
000030 74 d5 fe bd 8b f3 8d bd 10 0a 60 3e 5c 9a 28 be
       -0.12443057 -0.06931218 0.21878839 -0.16465133
000040 26 8e 62 be 65 5d fb bc 12 83 db 3d 63 fc 91 3d
       -0.22124538 -0.030684182 0.10718359 0.07128217
000050 51 40 48 bd 24 cd 0d 3e 0c 1b 07 3e 91 7d 33 3d
       -0.048889462 0.13847786 0.13193911 0.04382092
000060 7a 65 5f 3d 78 fd 1e 3d 4e eb 09 3d f8 8a b3 3d
       0.054540135 0.038815945 0.03367167 0.087667406
000070 52 dd 2b 3d 54 bf 69 3d 85 92 45 3e 79 80 de bc
       0.041959114 0.05706723 0.19294174 -0.02716087
000080 bb 4a 9f bd 78 06 7d 3e 90 da 31 3d 64 43 17 bd
       -0.077779256 0.24709499 0.043421328 -0.036929503
000090 0b c2 b0 bc ed a2 b4 bd d7 b5 a2 bd a6 e0 41 bd
       -0.021576902 -0.08820138 -0.079448394 -0.047333382
0000a0 56 01 eb bd da 2a 39 bd 94 3e 6d 3c ba b8 b4 bc
       -0.11474864 -0.045206882 0.014480252 -0.02206074
0000b0 9d cb 11 bd 1b 7e 3f 3d 93 a3 0f 3d f8 89 c1 3d
       -0.03559457 0.046751123 0.035068106 0.094501436
0000c0 c2 7b 76 bd 97 ed 01 be 1c fb 8b 3c e5 89 17 3d
       -0.06017662 -0.1268829 0.017087512 0.03699674
0000d0 56 bc 97 3d ac fe 6f 3d 80 d3 90 3d 6f ec 72 3b
       0.07408969 0.058592483 0.070715904 0.0037067195
0000e0 a4 c9 90 bd 34 72 bb 3b 3b 4c 4d bd 3f 5c 14 be
       -0.0706971 0.005720401 -0.050121527 -0.14488314
0000f0 0b 4d 72 3d 98 8e 32 bd 34 6c 04 bd 13 20 84 bb
       0.059155505 -0.04359302 -0.032329753 -0.004032144
000100 8b 62 f4 3d a0 81 38 3e 63 89 a6 3c 46 de 05 3d
       0.11932858 0.18018198 0.020329183 0.03268268
000110 62 ee 5e 3e cb a1 09 be 04 b4 a5 bd df b4 a2 3d
       0.21770623 -0.13440625 -0.08090976 0.07944655
000120 65 86 59 3e 1f 81 84 3e 56 38 58 3e 28 9e ab bc
       0.21242674 0.25879762 0.2111524 -0.020949438
000130 ca a3 51 3c 68 72 30 be d5 64 32 be 98 50 b5 bd
       0.012795398 -0.17231143 -0.17421277 -0.08853263
000140 2b 48 92 be d1 04 1b 3d 9b 54 a6 bb e7 4c 21 3d
       -0.28570685 0.03784639 -0.0050760037 0.03937998
000150 e0 63 90 3d 9c 11 cf bc 78 79 bc bc 54 18 b1 3d
       0.070503 -0.025276951 -0.02300714 0.08647218
000160 93 70 f7 3d 8f ea cc 3d 4d 62 2f be 91 0c 5d be
       0.12082019 0.10005676 -0.17127343 -0.21586825
000170 4f bb a0 be f3 a6 bb 3c 82 d9 98 be df d2 af be
       -0.31392905 0.022906756 -0.29853445 -0.3434057
000180 72 1f 5f 3e e9 69 d2 3b 05 9e d6 bd a8 70 86 3e
       0.21789339 0.006421317 -0.104793586 0.26257825
000190 03 80 d6 3e c4 63 6c 3e 64 85 84 3d 61 0d 4f 3e
       0.4189454 0.23084933 0.06470755 0.20219947
0001a0 50 68 19 3e bb 3f 35 be 07 c5 22 3d 59 23 90 bd
       0.14981198 -0.17700092 0.03973868 -0.07037992
0001b0 7b ad b2 3e 69 69 75 3e 72 bd 5d 3e 8b 8d 6a 3e
       0.3489798 0.23965992 0.21654299 0.22905557
0001c0 03 3e 89 3e 5b 77 80 3d da b8 27 3e 46 3a 3a 3e
       0.26805124 0.06272765 0.16379109 0.18186292
0001d0 50 e6 5f 3d 02 52 57 3d 3b 43 30 3c 13 51 05 3e
       0.054663002 0.052568443 0.0107582165 0.13019209
0001e0 c1 46 d1 bd 5e f6 be bd 90 38 ef 3d 8e e7 90 be
       -0.10218573 -0.093243346 0.1168071 -0.28301662
0001f0 9d 66 30 be 4e 42 20 be c5 9a 2e bd 3b 4e 59 be
       -0.17226644 -0.15650293 -0.04262807 -0.21221249
000200 0d e1 95 be 5d 35 36 be 89 f9 c1 be 55 64 c2 be
       -0.29273263 -0.17793794 -0.37885693 -0.37967172
000210 21 9a 01 bd ef cf 20 be 3a e1 45 be 9e 9d d6 3d
       -0.03164113 -0.1570432 -0.19324198 0.10479282
000220 f8 c5 bb 3e f3 83 cf 3e a3 d3 32 be 89 ee 8c 3d
       0.36674476 0.40530357 -0.17463546 0.068814345
000230 62 5f ff 3d 20 9d 4d be 36 42 82 3c 6d 4d 6e bb
       0.12469365 -0.2007947 0.015900712 -0.0036362067
000240 55 8a c2 bd 21 e4 56 be e3 0d 10 be 92 bc dd 3d
       -0.09499041 -0.20985462 -0.14067797 0.108269826
000250 18 24 ea bb 06 9c 6e 3b 2d 6e dc 3d f1 b8 ee 3d
       -0.007145416 0.0036408915 0.10763202 0.116563685
000260 d4 44 30 3d f7 ec 20 bd b4 d7 99 bd 94 bb bd bc
       0.04303439 -0.039288487 -0.07511845 -0.023160733
000270 71 ab 10 bd 1c ec 15 3d 8a 89 93 bd d2 6f d5 bd
       -0.03531975 0.036602125 -0.07203968 -0.10421719
000280 a3 d2 92 bc a5 b9 99 3b 59 5c 77 3e 46 39 2d 3e
       -0.017922705 0.00469132 0.24156322 0.1691638
000290 c9 4e af 3e 54 f8 13 3c ed 70 dc 3c e5 19 12 3e
       0.34239796 0.009031374 0.026909316 0.1426769
0002a0 ec 73 8e 3d da 40 1f 3e f0 40 3b 3e 25 00 55 bd
       0.06955704 0.15552083 0.1828649 -0.05200209
0002b0 a2 70 ac bd 42 60 2f 3e 46 2c 03 be 09 5c 3f be
       -0.084199205 0.17126563 -0.12809858 -0.18687452
0002c0 9c 70 c6 3d 45 23 f2 bd 46 6e 3f be da 73 a9 3c
       0.09689447 -0.118231334 -0.1869441 0.020685125
0002d0 a2 6b 09 bd a7 ac 51 3c c7 0f 02 3d a6 09 eb bd
       -0.033549912 0.012797511 0.031753328 -0.1147645
0002e0 87 1d d3 bd b6 c7 01 bd 71 01 10 bd ac e5 85 ba
       -0.10308366 -0.0316846 -0.035157625 -0.0010215542
0002f0 c2 ea 92 3c b8 0c 81 be 97 c8 67 3d ee 0d 27 3e
       0.017934207 -0.25205016 0.05658778 0.16313908
000300 8d a5 96 bd 35 e7 5a bd e0 33 a5 3d b6 ad 98 3d
       -0.07355795 -0.053443152 0.08066535 0.07455008
000310 0b 0b 99 bd f5 d5 08 bd bb ef c5 3d 33 61 5a 3d
       -0.074728094 -0.03340717 0.096648656 0.053315353
000320 e1 79 7a bb f1 e3 81 3e a9 4e 40 3e 51 61 24 3d
       -0.0038219618 0.25369218 0.18780006 0.04013187
000330 55 a4 35 3e f8 e1 8b 3e 95 3e ba 3c 7c d6 f9 bd
       0.17738469 0.27320838 0.02273492 -0.12199113
000340 d2 68 54 bd b9 f0 5c bd 14 b1 95 bd 8e 21 07 be
       -0.051857777 -0.05394051 -0.073091656 -0.13196394
000350 4d 9e 15 be 1b d9 b4 3c 37 87 fb bd ce 7d 8a be
       -0.14611168 0.02207618 -0.122816496 -0.27049106
000360 f3 ef e0 bc 60 05 21 bc a9 a9 ad bc a8 4f de 3c
       -0.027458167 -0.009827942 -0.021199064 0.027137592
000370 eb 1e 3a 3d 0f de 42 3e ea e3 71 3c 51 e0 14 3d
       0.045439642 0.19030021 0.014763812 0.036346737
000380 81 17 bf 3c df 62 78 3c 71 fc 86 bc f3 2b be bd
       0.023326637 0.015160291 -0.016477795 -0.092857264
000390 15 2a 13 bd a1 50 09 3d 48 df 3f 3d c0 36 c6 bc
       -0.035928804 0.03352416 0.046843797 -0.024196029
0003a0 e1 20 0f 3e e6 d8 05 3e c6 cd 98 bc 0f 01 42 3d
       0.13977386 0.13071021 -0.018652808 0.04736429
0003b0 ad 29 00 3d 67 40 0f be ce 4c 1a be 4c 96 0e bd
       0.031289745 -0.13989411 -0.15068361 -0.034811303
0003c0 a9 2d 81 be 6d 84 62 be c1 20 19 be cd e4 24 3e
       -0.25230148 -0.22120829 -0.14953901 0.16102906
0003d0 af 46 e7 bb c6 dc 36 3d 60 40 fb 3c 1c eb ab 3d
       -0.0070579867 0.04464414 0.030670345 0.08394453
0003e0 da eb ec 3d 5c 22 83 be 4c a5 a9 bd a2 31 42 3d
       0.115684226 -0.25612152 -0.08283481 0.047410615
0003f0 06 f4 bf be 8d 43 8b 3d 29 82 83 3e ef 4b 43 bd
       -0.37490863 0.06799994 0.25685242 -0.047679838

cell_list.2.conv_gates.weight f4 [20, 20, 3, 3]
000000 c7 7a 93 3d f0 41 15 3e 4b f9 ea bc 95 67 8a bc
       0.07201152 0.14575934 -0.028683325 -0.016895095
000010 67 f8 f0 3d 14 15 d8 3d df fd 0e 3d 7e 49 9b 3d
       0.11766129 0.10550895 0.03491008 0.07582377
000020 e0 c0 26 3e 8a ed b3 be 31 8a 49 be 9b 0b a4 be
       0.16284513 -0.35142165 -0.19681622 -0.32040104
000030 e6 d1 37 be 6f 11 44 be 97 58 8d be 82 ed c3 bc
       -0.17951164 -0.19147275 -0.2760665 -0.023916963
000040 fe 9a 3b be f8 d1 0b be 72 4c 0f 3d c4 61 0b 3d
       -0.18320844 -0.13654315 0.034985013 0.034028783
000050 94 41 fc bd a6 49 80 be 0f 67 a3 3d ed f2 99 bd
       -0.123171955 -0.2505619 0.07978641 -0.075170375
000060 40 0c 68 3d b3 de c7 3d 2b 51 7b 3e dd 4a 5c bd
       0.056652308 0.097592734 0.24542682 -0.053782333
000070 22 6d ce 3b c0 21 a3 3d 5b 28 e2 3d 7b 72 47 3c
       0.0062996307 0.07965422 0.110428534 0.01217329
000080 f7 3e 04 3e 68 ad c3 3d 06 02 14 3c 97 d9 9a 3d
       0.12914644 0.09554559 0.009033686 0.07561033
000090 bc b2 e8 bd af 1a 63 bd d8 69 52 3e 3b 2f 34 3c
       -0.11362216 -0.05544537 0.20548189 0.010997589
0000a0 22 0b a6 3d e7 48 4f 3e 14 0b 94 3e de 21 9e 3e
       0.08107592 0.20242654 0.28914702 0.30885214
0000b0 de ea a2 3e fa 48 c4 3a bd 53 82 3d 20 d0 3e bd
       0.31819814 0.0014975362 0.06363628 -0.046585202
0000c0 6c 5e 49 3c c7 27 00 3c fd b4 00 be 50 42 9c 3e
       0.012290578 0.007821984 -0.12569042 0.30519342
0000d0 e0 a5 e8 3d 01 bd 26 3e 60 cc 92 be 20 7a d7 bd
       0.11359763 0.16283037 -0.2867155 -0.1052134
0000e0 71 1d e8 bd 60 f1 35 be d2 7b c0 bd 29 7a 93 3c
       -0.113337405 -0.17767859 -0.09398617 0.018002586
0000f0 9f 8e a3 bc d9 1c 87 3d a3 e2 0e bd 6f c7 4f 3e
       -0.019965468 0.06597299 -0.034884106 0.20290922
000100 f6 b0 c3 3e 0d 12 0f 3f d0 c1 48 3e 71 71 a9 3e
       0.38220948 0.5588692 0.19605184 0.3309436
000110 a8 d4 69 3e 10 1e 82 3d bc 38 a4 3d 84 11 28 be
       0.22835028 0.0635339 0.08018634 -0.16412932
000120 54 1e 82 be 0e ae 8e be f9 fe da bd 78 7d 6b be
       -0.25413764 -0.27867168 -0.106931634 -0.22997081
000130 98 bd 2f bd 6d 80 6b bd f0 12 73 bd 4d f9 82 ba
       -0.04290542 -0.057495523 -0.059344232 -0.000999251
000140 4d 00 14 3a bd 40 cc bd 7c 81 a1 bc db d5 d9 be
       0.0005645797 -0.09973285 -0.019715063 -0.4254597
000150 3f c8 59 3d fd af 94 3d e3 ec 17 be a3 9c 1d 3e
       0.053169485 0.072601296 -0.14836459 0.15391783
000160 57 d5 13 3e 15 23 da 3d 2c 52 94 3d 39 e9 5b 3e
       0.14436851 0.106512226 0.072422355 0.21475686
000170 29 6e 7d 3e 8e 5d 71 3d d1 ce 67 3d 83 7e 13 3c
       0.24749054 0.05892711 0.05659372 0.009002331
000180 2c fc a2 3d 49 0a 80 bd 4a 0b 18 bd 28 e7 61 3e
       0.07958254 -0.06251962 -0.03712014 0.22060835
000190 e4 e3 63 3e 2e c9 3f 3e 8f 05 f1 3d d2 c6 e1 3d
       0.22254902 0.18729088 0.11768638 0.1102425
0001a0 37 c7 8a 3e 96 d2 17 3d 9c 24 4c 3e ea f9 be 3e
       0.27105114 0.037066065 0.1993584 0.37300044
0001b0 6c f9 49 3d 59 99 0c 3e e5 43 26 3c 07 6e 02 bd
       0.049310133 0.13730372 0.010148023 -0.03184321
0001c0 25 b9 0e 3d df ab ec 39 71 d4 f0 bc 72 2d 54 bd
       0.034844536 0.00045141482 -0.029398175 -0.051801153
0001d0 a9 84 8c bd 4c a7 d2 3c 65 66 26 3d f6 88 4a 3d
       -0.068612404 0.025714539 0.040624995 0.049447022
0001e0 31 50 66 bc 8a 3b ab 3d 64 a5 02 bd 07 64 b1 3d
       -0.014057205 0.083609655 -0.03189601 0.08661657
0001f0 3d a3 52 3d 90 bc df 3d ce cb 69 be 67 12 60 be
       0.051425207 0.10924637 -0.22831652 -0.2188202
000200 58 53 99 be 16 80 30 be 01 0e 83 be fb 06 32 be
       -0.299464 -0.17236361 -0.25596622 -0.17385475
000210 b2 9a 82 be fe 6e 52 be 28 35 af be 2d f7 bc 3d
       -0.25508648 -0.20550153 -0.34220243 0.092268325
000220 c0 32 1c 3e d1 a3 b4 3d 82 4b 09 3d bb b1 64 3c
       0.15253735 0.08820308 0.033519275 0.01395839
000230 54 67 0e 3e 6f 03 81 3d 3e f6 2c 3e 88 77 c2 3d
       0.13906604 0.06299483 0.16890809 0.09495455
000240 c8 c6 89 bd 50 38 39 be b7 bf ee bd 5c 08 9d bd
       -0.06727368 -0.18087888 -0.116576605 -0.0766761
000250 14 3a 2a be 41 53 1c be 65 c8 28 be f7 ce 7c be
       -0.16623718 -0.15266134 -0.16482694 -0.24688326
000260 30 af 8d be e4 8a 83 bd 3d 7e 11 be 10 15 33 be
       -0.2767272 -0.06422976 -0.14208312 -0.17488503
000270 d2 f0 15 be 02 a4 2e be 48 e9 3a be f3 3f de bd
       -0.14642647 -0.17054752 -0.18253052 -0.10852041
000280 bd 3f 4f be b6 1e 30 be 4b ce 82 3d 0a 79 03 3e
       -0.20239158 -0.17199215 0.063870035 0.12839141
000290 47 e5 93 3d c6 de ec 3c 4e 76 d4 bb a0 75 c9 bb
       0.072214656 0.02891482 -0.0064838296 -0.006148055
0002a0 8b e1 77 3c 7d 23 3b 3d e5 1f 27 3d a3 81 0c 3e
       0.015129457 0.04568814 0.0408019 0.13721327
0002b0 05 a6 10 3e 6a 88 29 3e 82 28 52 3e c0 70 67 3e
       0.14125831 0.16555944 0.20523265 0.22601604
0002c0 f8 82 9a 3e 8b ae 10 3e 42 8f 4e 3e 1c 0d a7 3e
       0.30178046 0.14129083 0.20171836 0.3262719
0002d0 e1 22 b4 bc d9 2e 05 3e 9f 69 86 3e 4a 09 5d 3e
       -0.021989288 0.13006152 0.26252457 0.21585575
0002e0 de db 0d 3e 65 9a 60 3e 2c 3b 99 3e 77 e0 6f 3e
       0.13853404 0.21933897 0.29927957 0.2342547
0002f0 40 23 8a 3e 39 a3 cb 3e 30 a2 33 3e 3c 9c 8f bd
       0.2698002 0.39772967 0.17542338 -0.07012221
000300 dc e9 a3 3e b7 05 1b 3e 6a 5d ac bc 31 99 d3 3e
       0.32014358 0.15138899 -0.021040637 0.41327813
000310 33 f7 7a 3e 50 b7 b4 bc 03 f7 e3 3d ef 11 81 3d
       0.24508362 -0.022060066 0.11131098 0.06302249
000320 50 89 d4 bb 2b 18 a3 bd ff ed 5d be 74 37 93 be
       -0.0064860955 -0.07963594 -0.2167282 -0.28753245
000330 27 dc df 3d 82 4c 07 3c 99 31 e7 3b 0b 24 d3 be
       0.109306626 0.008257987 0.007055473 -0.41238436
000340 37 f7 88 be 11 fc fc bb 21 65 f4 bd 7b f5 17 be
       -0.2675111 -0.0077204783 -0.11933351 -0.14839737
000350 1b a1 a7 3c b8 bb c5 bd 1f 73 cd bb 6d 69 fc 3c
       0.020462563 -0.09654945 -0.006269827 0.03081199
000360 a7 a7 74 be d7 a5 c7 bc 73 0a a7 3d 73 3b 89 be
       -0.2389208 -0.02437107 0.0815629 -0.2680317
000370 a9 4a ec bd c9 aa d2 bd 32 1b 59 be 25 33 11 bd
       -0.11537678 -0.10286481 -0.2120178 -0.035449166
000380 c2 33 4a bd dc 46 6f be bb d0 36 be 0d 20 18 be
       -0.049365766 -0.23366874 -0.17853062 -0.14855976
000390 4c e1 8f be 98 ea 9e be b1 9d 67 be cf 18 11 bf
       -0.28101575 -0.31038356 -0.22618748 -0.5667848
0003a0 8c b1 17 bf 2d 9a ec be 53 6c 13 be 14 c2 d9 bd
       -0.5925529 -0.46211377 -0.14396791 -0.106327206
0003b0 fe 3a 8a 3d 97 65 7a bd 86 2b a1 3d 48 96 57 3e
       0.06749533 -0.06113204 0.078696296 0.21053421
0003c0 1a d1 90 3d 19 f8 a0 3d 77 af 69 3e 8b a4 23 bd
       0.07071133 0.07859821 0.22820841 -0.039951842
0003d0 cf a3 63 bc 7e c6 20 be a6 3c 12 3e 40 85 24 3e
       -0.0138940355 -0.15700719 0.14280948 0.16066456
0003e0 04 a4 31 bd 32 70 b5 bc 68 35 3d 3d 21 ca 20 be
       -0.043369308 -0.022148225 0.04619351 -0.15702106
0003f0 bd ce 9d be 5d ac 3c be da ab 57 bc 4f c8 f9 be
       -0.3082179 -0.18425126 -0.013163531 -0.48785636

cell_list.2.conv_can.weight f4 [10, 21, 3, 3]
000000 d9 fd 08 3e 01 50 a4 ba 50 95 a7 bd 04 15 80 3e
       0.13378085 -0.001253605 -0.08182776 0.25016034
000010 9a f9 d2 3c e4 05 4a bc 8f 82 14 3e b2 34 aa 3d
       0.025753785 -0.012330506 0.14502929 0.08310832
000020 50 61 78 bc 1b eb 93 bc bf 1a e7 3d eb 72 48 3d
       -0.01515992 -0.018056443 0.11284398 0.04893772
000030 48 4d 50 be ca be 23 3e db ce 70 bd 39 f4 9c bd
       -0.2034198 0.15990749 -0.058791023 -0.07663769
000040 a6 c6 fb 3d ed 8a 0c 3e 3f 07 82 3e 04 4e 2d 3b
       0.122937486 0.13724871 0.25396153 0.0026444206
000050 d6 30 34 bd 05 de b2 3e 33 08 ed 3d 44 3e 25 bd
       -0.043991886 0.34935012 0.115738295 -0.040342584
000060 22 94 86 3e 78 bd de 3c 8c 0d 39 bd ec 59 02 3e
       0.2628489 0.027189955 -0.045178935 0.12729615
000070 9d 48 cd 3d 93 ad ae 3d 22 0c 15 3e c3 77 bc bc
       0.100236155 0.085292004 0.1455541 -0.023006326
000080 77 4c 40 3d ec 9d 9b 3d d9 5f ad bd 18 ad c1 bd
       0.046947923 0.075984806 -0.08465547 -0.09456843
000090 03 8f b5 3d 84 b3 12 3e b5 ab f4 3d 64 e8 f4 3d
       0.08865168 0.14326292 0.11946813 0.119583875
0000a0 51 97 83 3e 06 85 3e 3e 5b 05 9d bd 8b e9 cb bd
       0.25701383 0.18605432 -0.07667037 -0.09956654
0000b0 77 57 a1 3c cc 50 92 be a6 03 43 be 14 ef 8c bd
       0.019695027 -0.28577268 -0.1904436 -0.06881538
0000c0 18 e7 7d bd 40 f1 f2 bd 70 ba 25 3d de 64 14 bd
       -0.061987966 -0.11862421 0.040461004 -0.036229007
0000d0 da 91 94 bd 9e 7c c2 3d f7 89 bf 3d 09 f9 0d 3e
       -0.072543815 0.09496425 0.093524866 0.1386453
0000e0 4d 06 07 3d d5 a5 83 3d 77 1d e0 3d ac 41 f0 bd
       0.032964993 0.06428114 0.1094312 -0.11731276
0000f0 29 34 d6 3d 92 ba df 3d 77 56 69 bd 05 3f 90 be
       0.104591675 0.10924257 -0.056967225 -0.2817308
000100 2e a2 57 3d 51 6f 0e bd 98 6c 9b be 97 9d 0a be
       0.0526449 -0.03477413 -0.30356288 -0.13536678
000110 86 a0 93 be 82 dd 9c be 18 3e 78 bd 2f 06 02 be
       -0.28833407 -0.30637747 -0.060606092 -0.12697671
000120 73 36 ec 3c 4a 60 b3 3d a1 65 36 3e 71 78 23 bc
       0.028834557 0.087586 0.17812206 -0.009977446
000130 99 b3 22 3e da fc 70 3e cf 76 af bd 10 d8 b7 3d
       0.15888824 0.23533955 -0.08567583 0.089767575
000140 eb 62 19 3e c8 ea b7 3e 6e f9 cc 3d 3e 98 5f 3e
       0.1497914 0.3592131 0.100085124 0.2183542
000150 ac 5d 2c 3e 78 9c eb bd 31 4e 12 3e 65 57 aa bd
       0.16832608 -0.115044534 0.1428764 -0.083174504
000160 ce 2f 51 be ef a5 ef 3c 86 ec 3a be e7 4c 0c be
       -0.20428392 0.029253928 -0.18254289 -0.13701211
000170 03 56 97 be 1a bd 37 3d a1 9c dc 3c 61 19 cd bc
       -0.2955781 0.044858076 0.026930155 -0.025036516
000180 f0 d5 a4 3c cd 12 7c 3e 69 80 63 3e 6b 1b f4 bd
       0.020121545 0.24616547 0.22216953 -0.11919292
000190 82 0b fa bc a9 9e 8c 3e bd 50 0e be eb 02 5c bc
       -0.030523065 0.27464798 -0.13897987 -0.01342843
0001a0 b5 be f0 3d 67 50 43 be d0 d2 eb bd 94 dc c3 3d
       0.117551245 -0.1907364 -0.11514819 0.09563556
0001b0 f0 e8 6c bd a6 39 3d be f4 cc 49 be 0e 71 cd bc
       -0.057839334 -0.18479022 -0.1970709 -0.025078323
0001c0 99 59 86 bd f2 c4 25 be 92 9c 07 3e bb 07 a2 3d
       -0.06560058 -0.1618841 0.1324332 0.07911631
0001d0 14 af 6e 3d 12 9d d1 3d f5 65 aa 3c 32 60 d2 3d
       0.058272436 0.10235037 0.02080057 0.10272254
0001e0 c8 69 03 bc 74 6b 22 bd de 51 5a 3c 47 f4 4d be
       -0.008020826 -0.039653257 0.013325183 -0.20112716
0001f0 9f fe 5a be e9 7d 84 be f2 01 27 3e c4 74 aa 3d
       -0.21386193 -0.25877312 0.16309336 0.083230525
000200 be 26 23 3e 26 8c 91 3c b5 c8 67 3d 3e d7 36 3e
       0.15932748 0.017767023 0.056587894 0.17855546
000210 e1 72 fb bd c7 ea 69 bd 9b bb 21 3e 35 d1 d7 3d
       -0.12277771 -0.057108667 0.15794222 0.1053795
000220 b9 41 60 3d d9 10 56 3e 32 79 ff 3d 84 a8 42 3e
       0.054750178 0.20904864 0.12474288 0.19009596
000230 e1 86 64 3e 76 db 79 3e 6f 04 cc 3e 41 1c cb 3e
       0.22317077 0.24400124 0.39847133 0.39669994
000240 2e 67 03 bc ef b2 80 3d 80 5c 25 be d2 9b 53 3e
       -0.008020205 0.06284129 -0.16148567 0.2066491
000250 e6 10 1b 3e 49 4b f6 3c 00 45 ba bc 8b 20 72 3d
       0.15143165 0.030065196 -0.02273798 0.059113067
000260 51 43 c0 3d 59 03 f6 bd d4 8b 2d be 6c 32 50 be
       0.093878396 -0.12012357 -0.16947871 -0.20331734
000270 fd ed 19 3e c8 2b d8 3c f8 4b 41 3d 87 cd 4c 3d
       0.15032192 0.026388064 0.04719159 0.050000694
000280 dd 4c f2 3d f4 a4 02 3c ad 75 91 3d 4c 54 56 3d
       0.11831067 0.007973898 0.07102523 0.052326486
000290 58 4a 0b 3e be 1a d6 bd 64 6f 4e bd b1 c7 c9 3c
       0.13602579 -0.104543194 -0.0503992 0.024631353
0002a0 b5 57 79 be 59 38 10 be dc cb 83 bc 67 21 49 3c
       -0.24349864 -0.14083995 -0.016088419 0.01227603
0002b0 7e 76 3a 3e c0 47 41 3e 79 1d 54 3d 2b ff da 3d
       0.18209264 0.18875027 0.05178592 0.10693201
0002c0 ce c3 bd 3d 34 e7 bd bd 26 90 96 bc fe 59 b2 3d
       0.092658624 -0.09272614 -0.018379282 0.08708571
0002d0 fb 9d 09 be 68 09 19 bd c3 7b a0 be fd 67 47 be
       -0.13439171 -0.037362486 -0.31344423 -0.19473262
0002e0 75 1b 58 3d 89 ab 6f be 3e ee 48 be 00 6f 55 be
       0.05276056 -0.23405279 -0.19622132 -0.20843124
0002f0 50 6d d7 be d1 79 32 be 94 69 f8 bd 2b b6 51 be
       -0.42075586 -0.17429282 -0.121295124 -0.20479648
000300 3f aa 8c bd 22 dd 38 3b 85 da 77 bd 4d d6 34 be
       -0.06868409 0.0028207977 -0.06051113 -0.17659874
000310 c0 07 9f bd 37 93 45 bd 68 05 a8 be 8a b3 7c be
       -0.0776515 -0.0482361 -0.32816625 -0.24677864
000320 a4 e9 89 be 12 e7 ad be d8 a5 a5 be 20 92 9f be
       -0.26936066 -0.33965355 -0.3235309 -0.31166172
000330 9d 78 e1 be cf 31 11 bf 3a 52 8e be 9a 94 6f 3e
       -0.44037333 -0.56716627 -0.2779711 0.23396531
000340 d7 bf b2 3d 56 34 3c be 12 ed 01 bc 29 72 12 be
       0.08727997 -0.1837934 -0.007930057 -0.14301361
000350 64 88 b2 be 5a 2c 28 be 9f fc 49 be be 71 3d be
       -0.34869683 -0.16423169 -0.19725274 -0.1850042
000360 d4 4c 2e 3d ff 02 cc bc 55 c2 00 be ce 15 eb 3d
       0.042553738 -0.024903772 -0.12574132 0.11478768
000370 f0 bd 4f 3d c0 dc 8f bd d9 c7 b9 3c 36 e9 af bd
       0.050718248 -0.070245266 0.022678303 -0.08589403
000380 30 66 0b be 91 be e1 3e a4 0e 36 3e 9f 15 9c 3e
       -0.136132 0.44090703 0.17779022 0.30485246
000390 4f d3 9d 3e 12 d2 70 bc e5 39 da 3d 97 cd 8c 3e
       0.30825278 -0.014698522 0.10655574 0.27500603
0003a0 27 c0 4b 3e 0b 89 c8 3e d8 b0 68 3c 2a 3b 26 bd
       0.19897519 0.39167055 0.014202319 -0.040583767
0003b0 ba 9e 72 3d f2 6a dc 3d f5 89 8f bd 59 3a 49 bd
       0.059233405 0.10762586 -0.07008735 -0.04912791
0003c0 00 ea a1 3e 4a 3c 26 3e b7 c1 91 3c 36 29 36 be
       0.3162384 0.16233936 0.017792566 -0.17789158
0003d0 08 75 68 3b ee dd 49 bd 58 5b 20 be a3 44 fb bc
       0.0035470147 -0.049283914 -0.15659845 -0.030672377
0003e0 44 e9 42 3d 00 01 c1 bd b8 2e 6b bc 7b 3d eb bc
       0.04758574 -0.09424019 -0.0143544 -0.02871584
0003f0 fc a0 89 be 13 ce 41 be 45 e6 af bd e3 48 3d be
       -0.26880634 -0.18926267 -0.08588842 -0.18484835

cell_list.3.conv_gates.weight f4 [20, 20, 1, 1]
000000 d8 17 a2 be 45 08 4a 3d ff 89 b0 be 4d 3b a4 3d
       -0.31658816 0.049324293 -0.34480283 0.08019123
000010 54 7a 5a be 73 03 4e be d0 16 6c be c4 49 79 3c
       -0.21335727 -0.20118503 -0.23055577 0.015215341
000020 8f 29 b7 3e e5 51 96 bb bc 17 ee bd 74 c8 89 be
       0.35773894 -0.0045873993 -0.11625621 -0.26910746
000030 77 12 7f 3e 02 e2 cb 3d 73 4b 8a 3c b1 f3 80 be
       0.24909388 0.09955217 0.01688168 -0.25185922
000040 e2 01 93 be ab fa 5f bc cb 1d d5 3e 3f e2 1a be
       -0.28712374 -0.013670604 0.41624293 -0.15125369
000050 05 ac 71 be 25 51 25 3e 84 aa 0c bd a0 ce 88 be
       -0.23600776 0.16144235 -0.034342304 -0.26720142
000060 8e c1 c7 be 0e dd 34 3d 24 d4 6b be 79 9f 88 3c
       -0.39014858 0.044156127 -0.23030144 0.016677605
000070 a7 2c 7c 3a 00 ec ef 3b 46 97 c4 3d 53 45 f5 bc
       0.0009619691 0.0073218346 0.095991656 -0.029940283
000080 90 68 c0 bd fc b6 97 be 5e 60 3e 3d c7 cd e4 bd
       -0.09394944 -0.29631793 0.04647862 -0.111720614
000090 c6 49 58 3e fb 23 16 be e9 1b 5f bd 96 8e 63 3c
       0.21121892 -0.14662163 -0.054469977 0.013888976
0000a0 27 da c2 be 1c 7f 81 3e a4 91 5b be 5e 4f c6 3d
       -0.38057062 0.2529229 -0.21442276 0.09683107
0000b0 66 eb 02 3f 2b 19 84 3e 79 d5 75 3e 2e 37 27 3e
       0.5114044 0.25800452 0.24007215 0.16329643
0000c0 2d 4a 00 3f a9 07 a8 3e 3a 0b 90 3e b5 ee 25 3a
       0.50113183 0.32818344 0.28133565 0.00063298206
0000d0 fc b2 ad 3e 9a 45 08 bf ee b4 06 bd c9 b3 d0 be
       0.33925617 -0.53231204 -0.03288739 -0.40762165
0000e0 14 24 67 bd 1f 69 4d 3e 2b ea 6a 3e d4 44 10 3e
       -0.05643089 0.20059632 0.2294089 0.14088756
0000f0 1a b3 49 be ce 72 05 be e5 58 27 be 41 60 fb 3d
       -0.19697228 -0.13032076 -0.16342504 0.12274218
000100 84 20 d7 3d 07 55 a3 be 37 42 23 be 8d 78 a5 be
       0.10504249 -0.31900808 -0.15943228 -0.32318535
000110 c4 93 8f bd 9b ba 4c 3e c4 4c d1 3d d8 c6 cf be
       -0.07010606 0.1999306 0.1021972 -0.40581393
000120 f7 3d 9c bd 5c f0 be be 57 32 03 3c ad 23 da be
       -0.07629006 -0.37292755 0.008007607 -0.42605343
000130 e3 af 40 3d de 79 16 bc fe 9c 84 3e 6b 92 5d bc
       0.04704274 -0.009184329 0.25901026 -0.013523678
000140 87 33 c1 bc a4 ee e0 3d 31 ec 80 be 1f 05 59 be
       -0.02358414 0.10983017 -0.251802 -0.2119336
000150 9d 44 9a 3d 4d ff 7b be 44 20 10 bc 03 a9 17 be
       0.07532618 -0.24609108 -0.008796755 -0.14810567
000160 62 e7 9d 3d e2 74 2e 3e 93 f4 b3 3e 54 6c c3 bd
       0.077101484 0.17036775 0.35147533 -0.09542146
000170 c5 a0 9c 3e 58 0c 0d be dd de 82 be 15 c4 a9 bb
       0.30591407 -0.1377424 -0.25560656 -0.0051808455
000180 a8 49 f3 bd 81 ac 10 3b 54 a7 aa 3e 56 33 c3 3e
       -0.11879283 0.0022075477 0.33330786 0.38125104
000190 56 9c 50 bd a1 8a 56 be cb 95 17 be 01 aa 96 be
       -0.050930344 -0.2095132 -0.14803235 -0.29426578
0001a0 82 6c 4b be 65 e7 76 bd 77 1e aa be e3 e8 19 be
       -0.19865611 -0.06027927 -0.33226368 -0.15030245
0001b0 ea 03 61 bd 35 95 9e 3d 49 ec b7 3d a9 c5 db 3d
       -0.054935373 0.07743303 0.08980615 0.1073106
0001c0 9f 54 ff 3d b9 2d 3b 3e bc 6e 46 bc 42 a2 4b be
       0.12467312 0.1827916 -0.012111362 -0.19886115
0001d0 c8 06 da 3c da 4d 56 be 1d 82 a5 3e c2 f6 08 3e
       0.026614562 -0.20928136 0.3232583 0.1337538
0001e0 ea c7 bd 3d 63 2e 5c be 07 cf a9 bd 54 04 74 bd
       0.09266646 -0.2150207 -0.082914405 -0.05957444
0001f0 99 71 57 3d 4a ed 30 3e 24 bf 27 be 11 fb 87 3d
       0.05259857 0.17278019 -0.16381508 0.06639684
000200 30 35 91 3d 31 0e 72 be 19 75 38 be 9b f7 6a bd
       0.07090223 -0.23638226 -0.18013419 -0.05736504
000210 d9 a3 0f 3e 54 a6 a2 3d 12 7f eb 3c 70 88 9a 3d
       0.14027347 0.07941881 0.028747115 0.07545555
000220 31 7d 55 be ec 3c 62 3d ae ea 61 be 29 7d e8 3d
       -0.20848538 0.05523388 -0.2206218 0.113519974
000230 39 ed ab 3e 0a a1 9c 3e 7f f9 17 3e 69 95 04 be
       0.33579424 0.30591613 0.14841269 -0.1294762
000240 c6 f4 45 3e cf 9f 6a bd 3d 52 67 3e 05 c4 85 be
       0.19331655 -0.05728131 0.22589965 -0.26126114
000250 b9 8c a1 be 02 c3 25 3e 28 c2 47 3e 8d 1c 81 3e
       -0.31552675 0.16187671 0.19507658 0.25217095
000260 04 c4 d0 bd 7d 10 ec bd 91 8f 0e 3f d0 15 41 bd
       -0.10193637 -0.115265824 0.55687815 -0.047139943
000270 95 b6 12 3e f2 b9 df bc 5f 06 4c be 95 1b 99 be
       0.14327462 -0.027310345 -0.19924305 -0.29903856
000280 c7 d3 1a be b9 58 95 be 36 4e 2c be b2 4b 33 be
       -0.15119849 -0.29169253 -0.1682671 -0.17509344
000290 d8 d3 2a be 3f 1e 18 3c 64 08 9e 3d 71 25 c1 bd
       -0.16682374 0.009284555 0.07716444 -0.094309695
0002a0 4d 80 7b bd 6c 85 1c 3c 79 fe ee bc ae 31 fb bd
       -0.061401654 0.009553295 -0.029174076 -0.12265335
0002b0 b9 ed 1b 3e 7e d3 41 3e c1 f8 1a 3d a5 bd 3d 3d
       0.15227403 0.18928334 0.037834886 0.046323437
0002c0 73 2f 89 3d dc 40 b8 be 56 c2 30 be 4b 2e d2 3d
       0.06698503 -0.35986984 -0.17261633 0.10262736
0002d0 f4 6a d8 3d ef 82 bf bd a3 b3 c7 3c 74 c8 81 ba
       0.10567275 -0.093511455 0.02437765 -0.0009901659
0002e0 da d7 ba be 82 ed 0c 3c b8 2f 0d be 3e ec 1c bd
       -0.36492807 0.008601548 -0.13787735 -0.038311236
0002f0 2c 6d 07 be ff b2 89 3e 5e 7c 98 bd b2 74 98 3e
       -0.1322524 0.26894376 -0.07445596 0.2977653
000300 a9 6d 1a be 14 ec 4d bd da 74 a7 bd f8 fc ab bd
       -0.15080895 -0.05027397 -0.081765845 -0.08397859
000310 a4 a7 e1 bd 14 da ce bd ee f3 5f be 84 2f 01 3e
       -0.11018303 -0.10100189 -0.21870396 0.12615782
000320 25 4a 9e bd 51 59 80 3e 98 33 53 3a 17 9a 26 be
       -0.07728986 0.25068143 0.00080566993 -0.16269718
000330 4e 18 d8 3d df e9 81 3c 5a 8a 9e bc 77 80 a8 bd
       0.10551511 0.015858589 -0.01935308 -0.08227628
000340 84 69 07 bd eb c8 3a bd 64 05 46 be 62 88 1d bc
       -0.033059612 -0.045601767 -0.19337994 -0.009615036
000350 be 74 49 3e b3 a3 25 3e 45 c3 9a 3d 96 42 64 be
       0.1967344 0.16175728 0.07556776 -0.22291026
000360 fa 5b 80 be cc 53 9d bd 1a 98 70 3e fe eb 90 be
       -0.25070173 -0.076819986 0.23495522 -0.28305048
000370 7f 26 25 bd 98 ab b6 be 9c 95 8c be c5 51 0b 3e
       -0.040319916 -0.3567779 -0.27457893 0.13605411
000380 06 b1 84 3e a8 62 75 3e 06 f8 b1 be 07 86 3a 3e
       0.25916308 0.23963416 -0.3475954 0.1821519
000390 64 02 8b bd 36 dd 50 3e cc ea a5 3b 48 52 d7 bd
       -0.06787565 0.20396885 0.0050633904 -0.10513741
0003a0 78 b5 d5 bd 4d d4 fa bd e5 14 49 be 78 71 4c 3e
       -0.10435003 -0.122475244 -0.19636877 0.1996516
0003b0 ee 40 4d bd 67 cf 89 3e aa 8b 39 be b2 5b 37 be
       -0.05011075 0.26916048 -0.18119684 -0.17906073
0003c0 59 ff ae 3e f5 33 be 3c a2 c7 58 3c 84 99 cc bd
       0.3417919 0.023218134 0.01323119 -0.09990218
0003d0 8d b2 ab be 37 6b 2a bd 38 d6 91 3e cc 5d 4e 3c
       -0.3353466 -0.041606154 0.28483748 0.012595605
0003e0 ee b0 ff bd 0e 7b 4c be 2d b5 28 3e 12 76 89 bc
       -0.124849185 -0.19968817 0.16475363 -0.016779933
0003f0 7e db 09 bc 8d 95 d6 3e 8f af 3b 3d 7b fb 00 3e
       -0.008414147 0.41910973 0.045821723 0.12595932
