saved_models/4task_composite/random1_2.pt (torch, 143182 bytes, 16 tensors)

cell_list.0.conv_gates.weight f4 [20, 11, 3, 3]
000000 34 d4 3f bf 87 01 4d bf 33 88 0e bf 17 2f f9 be
       -0.7493317 -0.80080456 -0.55676574 -0.4866874
000010 79 c7 b4 be 0a 42 43 be ae 76 84 be 0c d3 7f be
       -0.35308436 -0.1906816 -0.25871795 -0.24982852
000020 be 9e 1f 3d 49 af 00 bf ae 88 98 be fe 95 b7 be
       0.038969748 -0.50267464 -0.29791778 -0.35856622
000030 5a 00 c3 be 8c fc 79 be 01 a7 b2 be c2 20 0b be
       -0.38086206 -0.24412745 -0.3489304 -0.13586715
000040 ca 01 18 be 30 62 63 be e6 b4 85 bf 7d 4d 32 bf
       -0.14844432 -0.22205424 -1.0445831 -0.6964949
000050 db 2c 73 bf 1e a7 ec be 3c 7d 88 bd 1b 4e 11 3d
       -0.9499032 -0.4622125 -0.066645116 0.035474878
000060 9a 10 e1 be 1d f0 54 bd f1 3e 28 bd a3 6f 7b be
       -0.43957978 -0.051986802 -0.04107565 -0.24554305
000070 fb 1c f6 bd b4 eb f2 b9 b8 57 91 be f4 0b 93 bd
       -0.12017246 -0.0004633345 -0.28387237 -0.07180014
000080 70 79 75 3e 6b ae 4f bd ab 2e 3b 3e 02 ba 52 3e
       0.23972106 -0.050703447 0.18279521 0.20578769
000090 93 ff 32 bf cf c1 0c bf a3 70 17 bf bb 61 1c bf
       -0.69921225 -0.5498323 -0.59156245 -0.61086625
0000a0 cf 04 ae be d4 1f d5 be 50 a0 ef be f4 be 75 be
       -0.33988044 -0.41625845 -0.46801996 -0.23998624
0000b0 3f c0 bc be 06 1d 86 3e 21 2a 9f bc 8b 45 97 bd
       -0.36865422 0.26194018 -0.019429268 -0.07386311
0000c0 84 d6 59 3e 34 60 a3 3b 25 07 f3 bc 5e ee 75 3e
       0.21273237 0.0049858335 -0.029666493 0.24016711
0000d0 a8 f9 f4 bb 62 c7 52 be 56 f5 d2 be e0 d5 aa be
       -0.0074760504 -0.20583871 -0.412028 -0.333663
0000e0 4b d1 86 be 12 db 28 bd b0 a2 53 3e d7 7b 94 3e
       -0.26331553 -0.041224547 0.20667529 0.29000732
0000f0 fa c1 1d be af 31 e7 bc ae 79 a3 3d 1d 58 d8 bc
       -0.15406027 -0.028221933 0.07982193 -0.026409203
000100 7d bd cb bc 97 9d 4f be ad 9b 2d be 64 7f 2d be
       -0.024870628 -0.2027496 -0.16953917 -0.16943127
000110 90 8f 31 be 9e 19 7d be 85 f9 8a be 3d 0f 93 bd
       -0.17339921 -0.24716803 -0.27143493 -0.07180641
000120 d0 31 93 be 41 f0 6a be c2 67 a0 be e3 75 a5 be
       -0.2874894 -0.22943212 -0.3132916 -0.32316503
000130 9a 83 95 be 1e f5 06 bf 13 8b 0d bf ad aa 0e bf
       -0.29201967 -0.5271777 -0.55290335 -0.5572918
000140 31 63 f0 be 58 ed d9 3e 7e 5c f5 3e c7 bd 62 3f
       -0.46950677 0.4256389 0.47922128 0.8857083
000150 5f 26 f5 3e d6 4a d2 3e 5a 1c 19 3f 1f de 1c 3f
       0.47880837 0.4107272 0.59808886 0.6127643
000160 c9 20 10 3f 6b fe 32 3f 4d d4 8b 3d e1 c9 0c bd
       0.56300026 0.6991946 0.068276025 -0.034372214
000170 3c df 62 3e d3 8d b1 3e df bb d0 3e a3 5b d4 3e
       0.2215547 0.34678516 0.40768334 0.41476163
000180 5d 95 60 3e 36 b3 42 3e b4 57 8e 3e ae 5f 68 bc
       0.21931978 0.19013676 0.27801287 -0.014182968
000190 a1 f2 ac 3d 9b 9d 3a 3e 4c b1 9b be dd 17 47 bc
       0.08444715 0.18224184 -0.30408704 -0.012151686
0001a0 a0 6c 0b 3d 37 40 62 bf 70 8f 16 bf c4 5d 8c be
       0.03403914 -0.88379234 -0.5881262 -0.27415287
0001b0 6e aa 24 bf 6f cc dc be 4c d0 09 bf 8f aa fe be
       -0.64322555 -0.4312472 -0.5383346 -0.497395
0001c0 30 9b e8 be 93 55 dd be 61 c2 2f bf 0d 34 04 bf
       -0.454309 -0.4322935 -0.68655974 -0.51641923
0001d0 42 26 02 bf a2 0a bd 3e 58 9f 0b bd b1 c1 a9 bd
       -0.50839627 0.36922175 -0.03408751 -0.08288897
0001e0 be b1 2e bd 7e d5 47 be b7 fe e0 be 10 05 d9 bd
       -0.042649977 -0.19515035 -0.43944332 -0.10596669
0001f0 11 23 f0 be 87 74 67 bf 1d 02 97 bf 0d 45 8b bf
       -0.46901754 -0.9041218 -1.179752 -1.0880448
000200 4c 93 ae bf ce 18 5b bf 63 fa 37 bf f5 20 43 bf
       -1.3638701 -0.85584724 -0.71866435 -0.76222163
000210 d8 91 f2 be 58 63 1b bf 1e f7 29 bf f8 08 02 3f
       -0.47376895 -0.6069846 -0.66392696 0.50794935
000220 d0 a3 0a 3e c7 72 00 bc 83 76 bf 3d 04 14 9f be
       0.13539052 -0.007839865 0.09348776 -0.31069958
000230 05 69 e5 be bb b0 63 be 30 ad eb be 33 86 f5 be
       -0.44806686 -0.22235386 -0.4603057 -0.47953948
000240 6c c7 ac 3f 8f ec a2 3f 20 29 ba 3f 84 80 77 3f
       1.3498359 1.2728442 1.45438 0.96680474
000250 66 71 65 3f d0 13 75 3f bd 09 bb 3e b1 8f a1 3e
       0.8962616 0.95733356 0.36530867 0.3155494
000260 cb 27 ae 3e 68 e1 7a 3d 1a 57 ab bd b8 32 9c be
       0.34014735 0.06125012 -0.08366223 -0.30507445
000270 93 73 e9 bd 39 b9 0c be 6b 8b ca be 31 6e 6b be
       -0.11398997 -0.13742532 -0.39559492 -0.22991253
000280 96 0a f2 be e0 90 59 bf 10 19 49 bf 87 37 5e bf
       -0.472737 -0.84986687 -0.7855387 -0.8680348
000290 b2 64 3d bf cb e1 21 bf 98 82 1d bf ec cb 02 bf
       -0.73981774 -0.6323516 -0.61527395 -0.5109241
0002a0 d8 42 82 bf 59 06 69 bf 45 13 8f bf 48 95 7c bf
       -1.0176649 -0.9102531 -1.1177756 -0.98665285
0002b0 b7 f6 86 bf ea f4 8b bf 64 a8 82 bf 10 11 88 bf
       -1.0544041 -1.0934117 -1.0207639 -1.0630207
0002c0 17 58 b0 bf f4 a0 ab bf 02 ca c7 bf 46 fa da bf
       -1.3776883 -1.3408494 -1.5608523 -1.7107627
0002d0 47 cc 8b bd 37 4d 65 3d 3c 95 02 3e fe 15 3f 3e
       -0.06826072 0.05598184 0.12752241 0.18660733
0002e0 05 23 b4 3e bc 5f df 3e 1e c4 fb 3e f4 94 39 3f
       0.35182968 0.43627727 0.49173063 0.7249291
0002f0 fa ef 46 3f 94 5a c7 bd 9a 27 9e 3d 64 65 82 3a
       0.77709925 -0.09734073 0.07722397 0.000994843
000300 e1 60 f0 3d c6 0a a8 3e 42 d7 ca 3e 92 f9 b4 3e
       0.11737228 0.3282072 0.39617354 0.35346657
000310 30 84 10 3f f6 b1 f6 3e 98 d5 e5 be fc fd 7f be
       0.564517 0.48182648 -0.44889522 -0.24999231
000320 04 72 b5 be fb b4 ab be 18 dc b1 bd d1 35 fd bd
       -0.3543855 -0.33536515 -0.08684558 -0.1236378
000330 ed 5b 22 be 0e 0a f8 3c cf b7 09 bd 52 62 66 3e
       -0.1585538 0.030278232 -0.03362256 0.22498444
000340 79 d8 e3 3d 64 7c 25 bc 34 ee 1f 3e f7 53 f2 3c
       0.11125273 -0.010100458 0.15618211 0.029581053
000350 f6 e3 1f bd 6c 7b b2 3e 9c af d2 3d 7e 41 3b 3e
       -0.03903576 0.34859788 0.10287401 0.18286702
000360 53 07 13 be 80 67 c2 3e cc bf 90 3f 7e b7 74 be
       -0.14358263 0.3796959 1.1308532 -0.23898122
000370 d3 76 0f 3f 41 4e b0 3f 9f d3 81 3e 9d 73 8b 3f
       0.56040686 1.3773881 0.25356767 1.0894657
000380 0f a8 d9 3f c5 1f 5c be 0d 82 ae be 8d a6 64 bd
       1.7004412 -0.21496494 -0.34083596 -0.055822898
000390 3c 6f 34 be f7 a5 28 bf 0a 22 bd bd f3 ef 5c be
       -0.17620558 -0.6587824 -0.09235008 -0.21575908
0003a0 51 f4 5b be 5d dd 15 3e ad 29 be be a1 96 27 3d
       -0.21479918 0.14635225 -0.3714117 0.040915135
0003b0 0f 24 d7 3e 25 43 a4 be 32 e9 05 3e ef 99 09 3f
       0.42019698 -0.32082477 0.13077238 0.5375051
0003c0 d6 cc bc bd 4c f2 ef 3e f7 93 1b 3f a5 34 9c 3d
       -0.09218757 0.46864545 0.6077265 0.07627229
0003d0 32 b0 b0 3e 7d 1d 99 3c 5b 1b 80 3e d8 57 75 3e
       0.34509426 0.018690819 0.2502087 0.23959291
0003e0 bc d7 1e be e2 e7 83 3e 11 50 19 3e 4f 77 6a be
       -0.15511984 0.2576285 0.14971949 -0.22897075
0003f0 04 b4 16 bf b1 b2 68 be ed 6f 08 3f 02 0a ec be
       -0.5886843 -0.22724415 0.53295785 -0.46101385

cell_list.0.conv_can.weight f4 [10, 12, 3, 3]
000000 07 11 94 be e9 fe 28 be 6a da 89 bd fc af 97 3d
       -0.2891924 -0.1650349 -0.06731112 0.07406613
000010 8e 77 29 3e 9f 7a 6f 3e 90 67 e4 3c ba 35 3a 3e
       0.16549513 0.2338662 0.027881414 0.18184558
000020 18 aa 45 3e f9 98 4a 3e 89 4d 9f 3d 36 a8 d5 3d
       0.19303167 0.19784917 0.077784605 0.10432474
000030 47 4b 26 3e c2 ea fd bd c5 69 88 3e 3d 78 ff 3d
       0.16239654 -0.12398292 0.26643196 0.124741055
000040 bc df e9 3d 6f cb 69 3e a9 1d 41 be 2d c8 2f 3c
       0.11419627 0.2283151 -0.1885897 0.010728878
000050 b6 48 25 be 05 7f 24 be ab 84 73 be 8d 8d 70 be
       -0.16141018 -0.16064079 -0.23781078 -0.23491497
000060 48 fb f6 be f4 0b bc be 04 ef 23 bf 3d dd d4 3d
       -0.48238587 -0.3672787 -0.64036584 0.1039376
000070 07 1b 1d be 19 75 a8 be a1 8b 14 be 9d 4e 8f be
       -0.15342341 -0.32901838 -0.14506389 -0.27989665
000080 01 cc 90 be 54 6c bd be 78 ef e1 be b2 1d 05 bf
       -0.28280643 -0.3699671 -0.44128013 -0.51998436
000090 20 55 34 3e 4c 2e 56 3e a5 19 98 3e f8 ba c7 bd
       0.17610598 0.20916098 0.29707065 -0.09752458
0000a0 c9 28 23 be 8d e3 16 be cb 6d c4 bd 66 ff 2e be
       -0.15933527 -0.14735241 -0.09591254 -0.17089614
0000b0 df 0c d7 be fb 39 3b bc d8 22 2c 3e d8 2d 65 3e
       -0.42002007 -0.011427398 0.16810167 0.22380769
0000c0 63 f2 06 3d 34 47 da 3d cc 8c 9e 3d 71 80 b2 3e
       0.032946 0.10658112 0.077416986 0.34863618
0000d0 3a 08 02 3e 14 4f 43 3d 6a 01 4d be 88 1d 2f 3c
       0.1269845 0.047682837 -0.2002007 0.010688193
0000e0 bf ab a9 3d be c7 ef be f1 7b f9 bc 9f 4b 0c be
       0.08284711 -0.4683208 -0.030454608 -0.13700722
0000f0 00 ed 93 be 35 84 4a be 56 23 55 be 64 44 da be
       -0.28891754 -0.19776995 -0.20814261 -0.42630303
000100 8f f2 ac bd 25 01 b4 bd 41 52 f2 bc 42 3c 0d 3e
       -0.08444702 -0.08789281 -0.029580237 0.13792518
000110 a4 cb 2d 3e 77 6a 24 be 89 05 cf bb 17 fe d7 bb
       0.16972214 -0.16056238 -0.0063177985 -0.006591569
000120 03 3b a8 be 99 90 fd bd 33 7d 38 be fd ca 4d bd
       -0.32857522 -0.123810954 -0.1801651 -0.050242413
000130 1d f0 5e bd 9c f1 8e be 64 64 14 3e 6d 7b 04 bd
       -0.05442821 -0.27918708 0.14491421 -0.03234427
000140 24 40 a2 be 00 1a 07 3e 12 f3 2a be 10 40 31 3e
       -0.3168956 0.13193512 -0.16694286 0.17309594
000150 11 36 41 bc 6a 17 ae bd a4 5d 18 3e 27 10 a8 bd
       -0.011792676 -0.0850056 0.14879471 -0.08206206
000160 cf 3c d5 3a e6 2f 80 3e df 7d 63 3d 04 25 08 be
       0.0016268733 0.25036544 0.055539962 -0.1329537
000170 61 5e f4 bd 4a 7c e4 3a 2c 62 17 be ad 30 e3 3d
       -0.11932064 0.001743206 -0.14783543 0.110932685
000180 e4 d9 44 be 87 8b 87 bd 46 6f 86 3e af cb 7e 3e
       -0.19223744 -0.066184096 0.2625677 0.24882387
000190 19 f9 91 3e 04 3a 7f 3e e9 84 84 3e fe 73 c5 3d
       0.2851036 0.24924475 0.25882652 0.096412644
0001a0 34 8d 82 3e ad 0f e4 3d 6a 33 0f 3e 04 84 3b 3e
       0.25498354 0.111358024 0.13984457 0.18312079
0001b0 9b 56 03 bf 5a 84 cb be f0 7a 83 be d2 7d 2c be
       -0.51304024 -0.39749414 -0.2567973 -0.16844872
0001c0 9c a1 9d bd 6e af 70 3e b3 37 94 3e 87 29 a1 3e
       -0.0769684 0.23504421 0.28948745 0.31476995
0001d0 65 8c 0b 3f ae 4e 59 3d 61 55 17 3e ed c8 fe bc
       0.545111 0.05305355 0.14778663 -0.031101668
0001e0 64 28 9a 3e 43 ad f2 3e 57 bc aa 3e 99 86 53 3e
       0.3010894 0.47397813 0.33346817 0.20656814
0001f0 5a aa 6c 3e c6 e6 b2 3e d2 24 35 3f 14 eb 0a 3f
       0.23111859 0.3494169 0.7075931 0.5426495
000200 62 68 af 3e 10 7d 90 3f 93 9e 25 3f 7b e1 24 3f
       0.34259325 1.1288166 0.6469509 0.64406556
000210 28 b4 0b be 08 2e 8e bc bd 6b a3 be 19 5a c5 be
       -0.13642943 -0.017355934 -0.31918135 -0.38545302
000220 e0 a2 11 be 28 38 2a 3e 13 65 0a bd 0f 66 1b 3e
       -0.14222288 0.16622984 -0.033787798 0.15175651
000230 9d 15 d1 3e 02 4f 86 3d 55 d7 b7 3e ef 6f 03 3f
       0.40836802 0.06558038 0.35906473 0.5134267
000240 da e9 ab 3f a5 70 73 3f c9 a0 a4 3e 2b 4c 1d 3f
       1.3430741 0.95093757 0.3215392 0.6144435
000250 85 8f bc 3e 0a bf 45 3d e8 7d b7 bd 48 46 95 bd
       0.36828247 0.048277892 -0.089595616 -0.07288796
000260 a2 e2 00 bf 1e c1 2c 3e eb 79 4d bd 85 f2 e2 bd
       -0.50345814 0.16870543 -0.0501651 -0.11081413
000270 ad 91 70 3d 81 dc b3 3d 0e 38 32 be 01 0f 95 bc
       0.058732677 0.08782292 -0.17404196 -0.018195631
000280 5d 56 b2 bd a8 98 79 be d0 5a 12 3f 76 5f 16 3f
       -0.08707879 -0.2437464 0.5716982 0.5873941
000290 e6 a5 b0 3e b3 bf 29 3f a8 94 10 3f a7 16 d8 3e
       0.3450157 0.66308135 0.5647683 0.42204782
0002a0 3b 07 be bd 26 78 aa 3d bd 5a 7b bb 72 84 95 3c
       -0.09278723 0.08323698 -0.0038353645 0.018251631
0002b0 ed b0 05 bb 98 2e c7 3c 9b bc 27 bd 17 23 1c 3e
       -0.0020399645 0.02431421 -0.040951353 0.1524776
0002c0 fd 67 de 3d 63 c8 a5 bd 8a c4 b5 3d 8c 46 b7 3d
       0.10859678 -0.08094861 0.088753775 0.089490026
0002d0 9c 3e 4e bd a6 47 95 3c 42 29 e4 bc d6 3c fd 3d
       -0.050352678 0.018222641 -0.027851705 0.12365119
0002e0 4d 17 d7 3d 45 64 56 3e db a3 5b 3b 68 69 40 3e
       0.10502491 0.20936687 0.0033514414 0.1879021
0002f0 ab 0c dc 3c a3 86 b5 be 72 c0 3a be 86 da a7 bd
       0.02686151 -0.35454282 -0.18237475 -0.08195977
000300 c3 d0 eb bd af ec 23 be aa 10 a6 3d c6 be 99 3e
       -0.115144275 -0.16008256 0.08108647 0.3002836
000310 1f ed 64 3e 0c 03 10 3f 85 2b 55 bf 0c fb af be
       0.2235608 0.5625465 -0.8326953 -0.3437122
000320 bb cf 09 be 2a 59 33 be a7 16 c1 3d 25 79 2b 3e
       -0.13458149 -0.17514482 0.09428149 0.16745432
000330 7d 00 b9 3e b9 66 c9 3e 40 88 51 3f d5 4d d5 3d
       0.36133185 0.39336184 0.81848526 0.10415236
000340 c1 e1 6e 3e 5d 41 b6 3d c0 73 ce 3d 65 a5 51 3e
       0.23328306 0.08899186 0.10080671 0.2047325
000350 48 75 7e 3e 71 44 6a bc 8a 3a 6d 3e 29 8c cd 3d
       0.24849427 -0.014298544 0.23166862 0.10036499
000360 6b 0d c0 bd 3d 21 80 3d 42 27 9c bc cc 39 1f 3d
       -0.09377559 0.0625634 -0.019061688 0.03887348
000370 11 6b b2 3d 15 3e 0e 3e a9 bf b3 3b 1e 9a 09 3e
       0.087118275 0.1389087 0.005485494 0.13437697
000380 d4 d6 22 bc 63 47 59 bd 4c 40 1e 3d fc 60 b5 bb
       -0.009938914 -0.053046595 0.038635537 -0.005535243
000390 88 53 56 3d 6b 89 d6 3d dd 10 09 3e 5a 03 0e 3d
       0.052325755 0.10475429 0.13385339 0.034671165
0003a0 59 03 87 bd dd 5e 14 3e dd 28 96 3e 55 b6 a3 3e
       -0.065924354 0.14489312 0.2932805 0.31975046
0003b0 5f b4 e3 3d b0 37 4a be 34 10 cd be e5 dc 75 be
       0.111183874 -0.19747806 -0.40051425 -0.24010046
0003c0 2d 5e 2f bf 87 e7 4a bf 3d 10 5a bf 1a 5f 3d 3e
       -0.68503076 -0.7925953 -0.8518103 0.1849331
0003d0 cb 3a bf 3e 8e 46 a7 3e 87 1d 2e 3e 78 c0 1d 3e
       0.37349543 0.32671016 0.17003451 0.15405452
0003e0 d8 ba 3f 3e a6 ec e5 bd 8d 7a 62 3b 3f 23 d4 3d
       0.18723619 -0.11226778 0.003455791 0.10358285
0003f0 e4 82 04 3e 42 1f ef bd b6 eb 8d be 9e 2b df be
       0.12940556 -0.11675884 -0.27718896 -0.43587965

cell_list.1.conv_gates.weight f4 [20, 20, 3, 3]
000000 0c 2c 41 3f 79 29 63 3e 5b 7a 85 3d e9 cb 2c 3f
       0.75457835 0.2218379 0.06517478 0.6749864
000010 a7 0c 0d bd c2 03 80 3d f6 cc 70 3e 0b 18 24 be
       -0.034435894 0.06250717 0.23515686 -0.16024797
000020 be b0 14 3e 55 a4 98 be 6e 4b 64 be 57 10 c8 3d
       0.14520547 -0.29812875 -0.22294399 0.097687416
000030 81 f2 2b bf 77 3b 09 be 6c bf 54 bc 98 22 21 bd
       -0.67166907 -0.1340159 -0.012985092 -0.03933963
000040 15 d9 43 3e 2a 44 80 3e a3 04 b5 3e 6e 22 ba bd
       0.19125779 0.25052005 0.353551 -0.09088598
000050 95 8e 10 be 87 d2 5a be 0a 02 0a bd 56 f4 06 be
       -0.1411689 -0.21369372 -0.03369335 -0.13179144
000060 9a 6f 85 3e 28 b0 d2 3e 0c a8 d0 bb b6 bc 35 bd
       0.26061708 0.41150022 -0.006367689 -0.044369422
000070 c0 e4 03 3e b5 75 27 3e c6 1e 0a bf c7 49 47 be
       0.1288023 0.16353495 -0.53953207 -0.19461738
000080 f2 48 6b 3e 0b 5a 69 3e 60 1a 23 3f 61 df 2e 3f
       0.22977045 0.22788255 0.6371212 0.683096
000090 63 c5 10 3e 2e 7e cd bb 04 47 0b be bb f2 af 3e
       0.14137797 -0.0062711453 -0.13601309 0.34364876
0000a0 0f 00 fa be ce 19 08 bf 1b f8 23 3e 21 92 f8 be
       -0.4882817 -0.53164375 0.16012613 -0.48548988
0000b0 ff 0a a7 3d 57 8f 6d 3f 41 54 0d 3f ce 6a 03 3f
       0.08156394 0.92796844 0.55206686 0.51334846
0000c0 93 cc eb be 74 85 66 be 4d 41 9d 3e 4e 3b 35 3d
       -0.46054515 -0.22511846 0.30713883 0.04424601
0000d0 45 a7 86 3f d1 e5 a1 3f b0 59 33 be 51 1f bb be
       1.0519797 1.2648259 -0.17514682 -0.3654733
0000e0 60 c8 0f be b5 d0 cc 3d 04 87 b4 3c 24 3a fd bc
       -0.14041281 0.10000745 0.022037037 -0.030911513
0000f0 28 df b6 be 42 be c6 be 16 c3 14 be 6d f6 76 3e
       -0.3571713 -0.3881703 -0.14527544 0.24117441
000100 62 ad 8a be b6 bf aa be 1f c0 21 3e c2 f9 b2 bd
       -0.27085406 -0.3334939 0.15795945 -0.08739044
000110 53 37 a9 3e ed 07 7f 3d f2 9a 49 3e 39 9a ee 3e
       0.33050022 0.062263418 0.19688013 0.46602038
000120 e7 4f 06 bf b9 fd 19 be c5 da 2e bc 6e 3a 93 be
       -0.5246567 -0.15038194 -0.010672276 -0.28755516
000130 cd b3 aa bd cd bd e6 bd 3c 44 0a bc f6 7c 41 3e
       -0.083350755 -0.112666704 -0.00843912 0.18895325
000140 f3 3b 70 bc 4b 0e a1 3e a8 75 d1 3d d8 12 0a be
       -0.0146627305 0.31456217 0.10227519 -0.13483751
000150 89 61 cb bd ab f0 d4 be 0a bf 22 bf 9e 73 83 be
       -0.09930713 -0.41589865 -0.6357275 -0.25674146
000160 59 c3 e4 bd 55 29 e8 bd 57 59 b0 bc f8 1d 7d be
       -0.11170072 -0.113360085 -0.021526976 -0.24718463
000170 a3 0d b1 be 5b 78 6a be 21 5e 8a be c1 51 2a bf
       -0.34580716 -0.22897474 -0.2702494 -0.66530997
000180 ea 78 bd be 06 62 ba be 62 23 ee be 3a c3 b4 3e
       -0.37006313 -0.3640291 -0.4651137 0.35305196
000190 8c 71 8f 3e 8f b0 f6 3d a5 76 88 3e 14 d4 9a 3c
       0.28016317 0.12045395 0.2665302 0.018899955
0001a0 5f 5f 0b bd a8 06 09 be 74 52 4b be a6 46 c4 bd
       -0.0340265 -0.13381445 -0.19855672 -0.095837876
0001b0 8f e2 2b be 78 fd 33 be ff 85 b5 bd e5 c1 94 be
       -0.16785644 -0.1757716 -0.08863448 -0.2905418
0001c0 ac a3 08 be 53 c4 e0 3d 76 87 21 3e e1 8a 1e 3e
       -0.13343686 0.10974946 0.1577433 0.15482666
0001d0 dc 7e 04 3f 4c da 08 bf 46 a3 b6 be a7 5a 75 be
       0.5175607 -0.53458095 -0.35671443 -0.23960362
0001e0 31 b3 c1 be 09 5a 12 3c 59 fe 33 be 59 f6 9e 3c
       -0.37832025 0.008932599 -0.17577495 0.019404577
0001f0 72 66 a8 3d 35 24 48 be 23 1c b8 3e b8 1c 30 be
       0.08222665 -0.19545062 0.35958967 -0.17198455
000200 32 a4 3f be df b8 88 be 5e 4c ed be f1 17 ba be
       -0.1871498 -0.26703545 -0.46347326 -0.3634639
000210 56 03 13 bd 2d 45 90 be 18 cb 52 bd 3d 24 df be
       -0.035891853 -0.28177777 -0.051463217 -0.43582335
000220 58 10 84 3d e7 b1 10 3f 7b ef f2 3c 55 e9 47 3f
       0.0644843 0.5652146 0.029655209 0.7809041
000230 0c 50 26 3f 86 a9 bc 3e c8 7e 37 3f f0 9d 58 3f
       0.6496589 0.36848086 0.7167783 0.84615993
000240 3f 66 76 bd 5a 5f f9 bd 92 18 8f be 2f 1c a6 bc
       -0.060156103 -0.1217639 -0.27948433 -0.02027711
000250 ba 9f b8 bd e6 0d 90 be 0e ca d1 bc 56 31 dc bb
       -0.090148404 -0.28135604 -0.025609042 -0.0067197485
000260 9e a5 8f be e0 dd 22 3e 54 e5 88 3e 64 ce 86 3d
       -0.28056043 0.15904951 0.26737463 0.06582335
000270 e8 2f 21 3d 1e e5 b9 3d 64 6a 5d bc ea 0e 4b bc
       0.039352328 0.09076904 -0.013514135 -0.0123936925
000280 81 15 76 3b ea a3 01 bd 74 ea a2 be 94 f2 8e 3c
       0.0037549438 -0.03165046 -0.318195 0.017449655
000290 08 6c ba 3d a4 e0 6d be 5e 03 08 3d d3 83 81 bd
       0.091026366 -0.23230225 0.033206336 -0.063239716
0002a0 85 cf 19 be 67 6e d3 bd 98 1a 02 3e 32 8c 12 bf
       -0.15020569 -0.10323792 0.12705457 -0.5724517
0002b0 11 4a 41 bd 5e 7e b2 3e 02 3d b2 3d d6 fb 71 3e
       -0.047189776 0.34862036 0.087030426 0.23631224
0002c0 f8 8d 1c 3f 5b c9 f0 3e 24 be 8c 3e be 27 1b 3f
       0.6115413 0.47028622 0.27488816 0.60607517
0002d0 b0 8c 93 3f a2 94 48 3f 9c b9 f6 3e 32 81 4c 3f
       1.152731 0.78351796 0.48188484 0.79884636
0002e0 97 ec 02 3f 57 ad ed 3e 87 13 48 3f 2d 68 75 3e
       0.5114226 0.4642131 0.78154796 0.23965521
0002f0 e6 86 a7 3e ba b6 96 be b8 9b 00 bf f6 2a 25 bf
       0.32720107 -0.29436284 -0.5023761 -0.6451868
000300 18 f1 c3 be d9 7a b7 be 4e ee 17 bf ad 02 f1 3e
       -0.38269877 -0.35835913 -0.59348 0.47072354
000310 2a 22 95 3e 46 14 ad 3d fb 26 6e be bb 95 0c bf
       0.29127628 0.084511325 -0.23257057 -0.5491597
000320 9f 17 44 bf 4e 1f 39 3e 7a 79 8a 3e 41 11 ca 3e
       -0.7659854 0.18078348 0.27045804 0.3946629
000330 12 b9 39 3d 1a 49 01 3e 29 77 d1 3e 1b 31 61 be
       0.045342512 0.12625542 0.40911224 -0.21991388
000340 8d 8c 01 bf 41 88 3e bf 8d 0d 99 3e bb dd e5 3e
       -0.5060509 -0.74426657 0.2989315 0.4489573
000350 70 9e 11 3f 20 ec f4 3d 71 80 65 3e 9d b2 e1 3e
       0.5688238 0.119591 0.22412278 0.44081584
000360 94 94 b7 bd cb ff 11 be 46 b8 ad be 2b fe 4f bc
       -0.08963886 -0.14257734 -0.33929652 -0.012694876
000370 c9 8f 43 be 75 fe 19 bf 0b 3e 3a 3f 79 03 d2 3e
       -0.19097818 -0.60153896 0.7275092 0.41018274
000380 00 ed 4b 3e b5 27 18 3d 02 78 48 be d2 18 0f bf
       0.19914627 0.037147243 -0.1957703 -0.5589725
000390 cf 69 01 bf 62 52 d3 be 7c 50 d0 be cb 30 dc 3d
       -0.50552076 -0.4127379 -0.40686405 0.10751494
0003a0 5b e2 88 3d b8 6a 37 3e 5d 5c 20 3f 6f c5 1f 3f
       0.06683799 0.17911804 0.62640935 0.62410635
0003b0 92 03 29 3f 30 64 99 bd bc a3 f5 bd 79 b6 4f be
       0.6602107 -0.074898124 -0.119941205 -0.20284452
0003c0 b8 1a bd be c9 ae fe be 9d 1e 10 bf 94 51 fa 3d
       -0.36934447 -0.49742725 -0.5629671 0.12222591
0003d0 8f 59 55 bd 04 ac 2b be 20 67 77 3e d9 45 7c 3e
       -0.052087363 -0.16764838 0.24160433 0.2463602
0003e0 a2 54 d8 3e 3c 0e e5 be 97 35 b3 be 88 4a 12 3d
       0.4225207 -0.44737422 -0.35001823 0.03571561
0003f0 ad d9 a9 be 3a 85 f5 bd 02 cb 04 bd 6f 2a c2 bd
       -0.33173886 -0.119883016 -0.032420166 -0.0948075

cell_list.1.conv_can.weight f4 [10, 21, 3, 3]
000000 ff 75 0f 3e df a0 70 be 96 28 46 be 4d e4 6c be
       0.14009856 -0.23498867 -0.1935142 -0.23133965
000010 ac 05 84 be 9d 80 82 be 05 b4 53 3e cb 44 f1 3d
       -0.25785577 -0.2548875 0.20674141 0.11780699
000020 e7 fc 1e 3e d0 1d df be bc dd 24 be 90 87 4b be
       0.15526162 -0.43577433 -0.1610021 -0.19875932
000030 da 8d 9c be 23 fa ea bd bf 83 ab 3c 36 64 06 bc
       -0.30576974 -0.11473491 0.020936845 -0.008202603
000040 c7 c0 08 3c c7 d7 cb 3c 72 79 9a 3d f5 f5 d2 3d
       0.008346743 0.024883164 0.07542695 0.10300819
000050 de e5 99 3a 80 cf 45 be cd c2 c0 bd 3b 96 e5 bd
       0.0011741479 -0.19317436 -0.09412155 -0.11210295
000060 92 0a 34 3e 26 34 21 3e 9b 1d 3d 3e 4a a8 a6 3c
       0.17582157 0.1574255 0.18468325 0.020343918
000070 3f 76 88 3e 76 82 d4 3c 73 73 a4 3c 00 f4 04 3e
       0.26652715 0.025941115 0.020074582 0.12983704
000080 ea f2 86 3d d1 81 85 3e d3 1b c6 3e 9f 9a e6 3d
       0.06589301 0.26075605 0.38693103 0.112599604
000090 87 ef 85 3e 24 cf a6 3d ed aa 8f 3e b0 34 c9 3c
       0.26159307 0.08144978 0.28060094 0.024561256
0000a0 b4 dc 2e be 1b c4 05 3e 59 03 ab bd 68 5a 9e 3d
       -0.17076379 0.1306309 -0.08350248 0.077320874
0000b0 fd 86 7d 3e c3 ad db 3e 71 0e e5 3e 93 d8 fc 3c
       0.24758525 0.42906007 0.4473758 0.03086499
0000c0 e2 bd 27 bc c6 0b 95 3e 62 97 af bd e6 cf bb bc
       -0.010238143 0.29110545 -0.08573796 -0.022926282
0000d0 84 e7 2c 3e 90 dd a3 be 42 46 87 bc 06 96 24 3d
       0.16885191 -0.32004976 -0.016512994 0.040182136
0000e0 2d f9 d6 3e de 21 29 be 2d e3 f9 3c 69 17 0c bc
       0.4198698 -0.16516826 0.030503834 -0.008550503
0000f0 e8 e1 93 be 2d 35 61 be 96 25 76 be 8a a1 0b bf
       -0.2888329 -0.21992941 -0.24037775 -0.54543364
000100 6b a0 a5 be 4d 23 2c bd b5 5a 37 be 27 0f 83 3e
       -0.32348952 -0.042025853 -0.17905696 0.25597498
000110 e8 12 c2 3e 29 5a e2 bc d7 47 26 3e fa 78 dd ba
       0.3790505 -0.027630882 0.16238342 -0.0016897016
000120 72 c5 d4 be 37 37 5c be 2a ec 82 bd c3 c3 a8 bb
       -0.4155689 -0.21505438 -0.06392701 -0.0051502897
000130 16 af ab 3c d1 eb 80 3d aa cf ee 3d 4c 93 f5 bd
       0.02095751 0.062949784 0.116607025 -0.11990985
000140 26 92 43 be 10 6c 1f 3f 4c f3 90 3e 39 81 47 be
       -0.1909872 0.62274265 0.2831062 -0.19482888
000150 13 59 1c 3f cd e7 ec 3e 78 83 8f 3e 5b 16 ba 3d
       0.61073416 0.462706 0.2802999 0.09086295
000160 63 83 95 3c d0 4c 2a be 68 fb e0 3e ca da a1 3e
       0.018251127 -0.16630864 0.43941808 0.31612235
000170 73 ff 46 3d cf 63 42 3e a4 ab ce 3d d1 d9 5c 3d
       0.04858346 0.18983386 0.100913316 0.053918663
000180 eb a4 2b 3c 4b d5 14 3e 9e bb 74 3c f0 8e 4f be
       0.010476331 0.1453449 0.01493731 -0.2026937
000190 71 c4 a3 be 2d 1c e9 be 05 50 ce 3e 51 70 2a 3e
       -0.3198581 -0.4552931 0.40295425 0.16644408
0001a0 fb 21 40 3e 81 ba a5 3e 3a a0 aa 3d 47 c8 82 3e
       0.18762963 0.32368854 0.08331342 0.25543424
0001b0 04 80 75 3d e0 c8 89 3e 38 76 0a 3f 26 bc 15 be
       0.05993654 0.26911068 0.5408664 -0.14622554
0001c0 d2 b4 cc bd 81 23 8a 3c 8c 0c 86 be 6e 8d 19 bd
       -0.09995426 0.016862633 -0.26181448 -0.037488393
0001d0 8e fe 55 be 78 61 da be 94 bf 1a 3d ab 6a 54 bd
       -0.20897886 -0.42652488 0.03778036 -0.05185954
0001e0 cf af 22 be ff 89 c2 3d c9 49 a4 3d 73 cf 36 bd
       -0.15887378 0.09498977 0.08021886 -0.044631433
0001f0 25 6d 33 bd c8 03 a4 3d ce 54 cb bd eb cd 76 be
       -0.04380526 0.08008534 -0.099282846 -0.24101989
000200 38 a4 4f be 94 50 a2 3d b8 b7 89 3b b4 4f 35 3e
       -0.20277488 0.07925525 0.004202809 0.17706186
000210 0b 54 6e be 7b e3 0a be ba ac 3f 3e a0 aa f8 3c
       -0.23274247 -0.1356334 0.18718234 0.030354798
000220 dc e4 2b bd a6 4c 1b bd ad dd 6c 3d 46 ee 03 be
       -0.041966304 -0.037914895 0.057828594 -0.12883863
000230 32 e1 10 be d5 b6 83 3c 63 d8 bf bc 3a 30 63 be
       -0.14148405 0.016078392 -0.02341861 -0.22186366
000240 eb fb 21 3e 65 9f 14 3d 82 c9 fa 3c 52 53 70 3e
       0.15818755 0.036284823 0.030613665 0.23469284
000250 58 c8 55 3e 51 da 02 3e 0a 91 bb 3d 49 ca 6c bd
       0.20877206 0.12778594 0.091585234 -0.0578101
000260 93 70 58 3b 56 ed 68 3e cf d6 5f 3d 59 34 5a bd
       0.0033026084 0.22746786 0.054648217 -0.05327258
000270 a1 ba 0f 3e 4a e8 1d bd 4f 49 af bd 31 f8 45 3d
       0.14036037 -0.038551606 -0.085589044 0.048332397
000280 f3 77 a3 bd 8d 52 51 3b 8a 68 df 3d 03 13 20 3e
       -0.07981863 0.0031940073 0.10908611 0.15632252
000290 23 d2 38 3e 2c 81 01 3d a7 af d3 3d 9a 20 a0 3e
       0.18048911 0.03161733 0.103362374 0.31274873
0002a0 4d 2d e5 3d 78 bd fe 3d 54 ba 38 3e 74 fe 90 be
       0.11190281 0.12438482 0.18039829 -0.28319132
0002b0 36 58 eb 39 b6 0e 9c 3c 44 dc c3 3d 03 30 b9 3c
       0.00044888415 0.019049983 0.09563497 0.022605902
0002c0 0c a5 98 3c 9e 2f c4 3e 81 42 a7 3e 59 ad a0 3e
       0.018633388 0.3831758 0.32667926 0.31382254
0002d0 28 c9 65 be 64 8d 42 be 65 26 ac be 8d 9a ad bd
       -0.22440016 -0.18999249 -0.33623043 -0.08476744
0002e0 91 30 a6 3d ee 3d b8 bd c9 3b 44 3c c8 00 f4 3d
       0.08114732 -0.08996187 0.0119771445 0.119142115
0002f0 ea d2 98 bd db b2 81 39 bc 2a 11 bd fe b5 b5 bd
       -0.07462104 0.00024738055 -0.035441145 -0.08872603
000300 de d4 3d be de 46 21 bd 72 ba b9 bc e1 c4 43 be
       -0.18538234 -0.039374225 -0.022671912 -0.19118072
000310 97 2b 40 3c a9 c1 10 3e c7 69 cc be 74 0d fb bd
       0.011729143 0.14136375 -0.39924452 -0.12258425
000320 b7 d8 48 3d 9a 79 75 be 18 5e f3 3c 73 c5 ae 3d
       0.0490348 -0.23972169 0.029707953 0.08533754
000330 a4 15 64 3d 30 32 29 3a 8e 96 3c 3e 68 b0 3e 3e
       0.0556847 0.0006454317 0.18416807 0.18621981
000340 11 a1 7a 3c 82 c6 50 bc 2b bd ce 3c 74 ed 02 3c
       0.01529719 -0.01274264 0.025236687 0.007991184
000350 11 25 00 bd eb d2 17 3e 3c 3c dc 3d 3e 04 41 bd
       -0.03128535 0.14826553 0.10753676 -0.047123186
000360 02 cd b1 3d 7e 97 c8 3d b0 62 33 bd dc 0f bc bc
       0.0868168 0.0979452 -0.043795288 -0.022956781
000370 78 f9 57 3c cd a6 c5 3c 18 68 cd 3e 47 83 8d 3e
       0.013182037 0.024127388 0.4011848 0.2763922
000380 67 68 85 3e d3 a7 6d bd 76 87 94 be 56 ff 12 bd
       0.26056215 -0.058021378 -0.29009598 -0.03588804
000390 1e 4b 8b be cb 1a f0 bd f5 39 de 3c ba 73 0d be
       -0.27205747 -0.1172386 0.027127245 -0.13813677
0003a0 ef ee 23 3d f0 90 18 3e 76 00 99 3e a0 b5 81 3e
       0.040022787 0.1489904 0.29883164 0.2533388
0003b0 85 c2 12 3e da c2 ac 3c 8f ff 4a 3e c1 8b 68 3c
       0.14332016 0.021089006 0.1982405 0.014193476
0003c0 d6 1a 3e 3e 13 55 2a 3e ac fd 64 3d 3f ca 04 3d
       0.18564925 0.16634016 0.055905983 0.03241944
0003d0 a0 be 2b 3e 91 20 88 3e 26 e4 93 3d 75 52 ed 3d
       0.16771936 0.26587346 0.0722125 0.11587993
0003e0 3d b1 2a bd d2 4d 72 3b ef eb 5f 3d 74 3c 21 be
       -0.041672934 0.0036972654 0.054668363 -0.15745717
0003f0 c0 84 8b be 3d 48 60 be a8 33 fa bd 84 02 f6 bd
       -0.27249718 -0.21902557 -0.12216884 -0.120121986

cell_list.2.conv_gates.weight f4 [20, 20, 3, 3]
000000 81 16 8f bc 43 9a 8d 3d fb ab 29 be 22 af b1 bd
       -0.017466785 0.06914189 -0.16569512 -0.08675982
000010 1b c8 1e be ed 39 9d 3d 0d 44 31 be 11 db 77 3b
       -0.15506022 0.07677064 -0.17311116 0.0037819783
000020 df dc 66 3e bc ed 44 be bf 62 b9 be 74 e3 9b be
       0.22545193 -0.19231313 -0.3620815 -0.3044697
000030 04 6f 39 3e ce 98 3a 3e e3 08 76 3e fc 9d db be
       0.18108755 0.18222353 0.24026828 -0.4289397
000040 6a 0b 1f be 90 ef f7 bd fe d6 7d be e5 75 12 be
       -0.15531698 -0.1210624 -0.24789044 -0.14302786
000050 e9 38 60 bd bb 85 40 bc 01 7b 69 bc 9f 3c 12 3e
       -0.054741774 -0.011750634 -0.014250518 0.14280938
000060 d6 11 b9 3d 20 82 07 bd 87 eb 96 bd 8b 6c 1d 3f
       0.09036605 -0.03308308 -0.07369142 0.6149375
000070 3b 94 e8 3e c9 5f c2 3e bc 19 3c 3d b2 24 1b bd
       0.4542559 0.37963703 0.04592298 -0.037876792
000080 fc 95 19 3b b9 fa a3 bb 28 e1 ff 3d c5 b3 33 3e
       0.0023435345 -0.0050042537 0.12494117 0.17549045
000090 45 3b e9 3e 32 99 0b 3f 74 d4 2b 3f df 00 16 3e
       0.45553032 0.5453063 0.6712105 0.1464877
0000a0 60 9f 89 3e ce 18 12 3f 4c 4e 8d 3e 24 3c ab 3e
       0.26879406 0.570691 0.27598798 0.3344432
0000b0 10 1f e8 3e 2f 9b 9f bb 38 40 25 3d 44 38 6a bd
       0.453362 -0.0048707942 0.040344447 -0.057182565
0000c0 4d b3 d9 be 3d c1 e5 bd b7 94 94 bd 13 01 b0 3d
       -0.42519608 -0.11218498 -0.072549276 0.08593955
0000d0 01 36 cb 3d 5a b2 90 bd 49 75 52 be e4 f6 38 3d
       0.0992241 -0.07065268 -0.20552553 0.04515733
0000e0 91 0b 54 3e b3 93 04 be 5b f1 63 3e 23 cd 8b 3e
       0.20707537 -0.12946968 0.22260039 0.27304944
0000f0 46 99 38 3d a5 c9 f2 3e f1 e3 1b 3f f6 51 65 3e
       0.045068048 0.47419468 0.60894686 0.22394547
000100 62 21 c7 3d e8 91 31 3d 8d 60 08 bf 3f 0d c6 be
       0.09723164 0.043352038 -0.53272325 -0.3868198
000110 8b 87 aa bc ca 16 c3 3d 6a 9a 0c bd b9 3c 4e bd
       -0.020816585 0.09525831 -0.03432695 -0.05035088
000120 4d 49 d8 3e b0 f7 9e 3c 89 c2 c4 3c 76 8e ca 3e
       0.42243424 0.019405216 0.024018543 0.39561814
000130 d8 7f 3f bd 58 2e 9d be 20 ad b5 3e 4a 79 fa 3c
       -0.04675278 -0.3069942 0.35483646 0.030575413
000140 16 24 80 3e 12 a1 31 be c3 a7 df bd 9a cc 72 3c
       0.2502753 -0.173466 -0.1092067 0.014819289
000150 39 46 21 3e 2c ae bb 3d 1d dc 02 bb d0 13 a4 bd
       0.15749444 0.0916408 -0.0019967624 -0.080115914
000160 94 e1 87 be 0b 3a c9 bd 16 c0 27 3e 14 56 06 3e
       -0.2653929 -0.09825524 0.16381869 0.13118774
000170 08 b7 86 3e 61 cc 37 3d a2 cd ae 3c 92 3b 57 3d
       0.26311517 0.044872645 0.021338288 0.052547045
000180 4f a8 f7 3d 3f 83 32 3e 51 53 b7 3b ff 07 46 3e
       0.12092649 0.17432879 0.005594649 0.19338988
000190 c2 b6 69 3c 3f 4b c8 3d 4c 9f 31 bd cd 89 4a be
       0.014264764 0.09779977 -0.043364808 -0.1977913
0001a0 44 08 b0 bc b2 2f 74 bc 2a 19 9c 3d 22 5c 0c 3e
       -0.021488316 -0.01490395 0.07621987 0.13707021
0001b0 2f cb 2f 3c 7f fe bd 3d 8e 76 23 3e 21 01 01 3e
       0.010729595 0.09277057 0.15963194 0.12598087
0001c0 a0 77 02 bd e0 e2 10 bd 0c f5 fe 3b 31 64 a3 3c
       -0.031852365 -0.035372615 0.0077806767 0.019945236
0001d0 59 3c 27 3d be 3b 19 3d c1 29 33 bc 6c a5 9a bd
       0.040829036 0.03741049 -0.010935248 -0.07551083
0001e0 b8 82 81 3a 09 9a 1d be a3 48 cb 3b eb 80 1c be
       0.0009880876 -0.15390791 0.0062037273 -0.15283553
0001f0 a1 c4 25 be 15 74 56 be 65 35 9e be 7a 6e a1 bd
       -0.16188289 -0.2094272 -0.30900112 -0.078824
000200 78 2b 81 bd fb b1 4b bd 53 96 33 be ea 43 42 bc
       -0.06307119 -0.049730282 -0.17537813 -0.011857012
000210 6d 5d 3a bd 24 a9 ee bd d3 4d 4e bd 50 c2 7f be
       -0.045499254 -0.11653355 -0.050367188 -0.24976468
000220 f6 8d a2 be 1c fe 05 be de f3 97 bd bd 97 07 be
       -0.31748933 -0.13085216 -0.07419561 -0.13241477
000230 4d 8f 23 3d b5 2f dd bd 1f f2 12 be 19 6c 13 be
       0.039931584 -0.10800115 -0.14350174 -0.14396705
000240 f3 f6 b8 3e 27 b8 ed 3e c1 9e 8d 3e 7e eb 4a bd
       0.36125907 0.4642956 0.27660182 -0.04954099
000250 ed d1 1c be 06 b1 4f be 84 45 58 3e 2f 5c d8 3d
       -0.15314455 -0.20282373 0.21120268 0.105644576
000260 bb cd 00 be ca d8 37 3e 65 52 00 3f 06 26 d4 3e
       -0.1257848 0.17953792 0.50125724 0.4143526
000270 fd 93 3c 3e af 2d 5e 3e 5e fa 1a 3e c5 af b5 3b
       0.18415828 0.21697114 0.1513457 0.005544635
000280 e4 43 17 3e 51 b5 61 3d a1 98 f8 bd 8c 65 92 be
       0.14771992 0.055104557 -0.12138487 -0.285931
000290 d5 bf 10 be 85 c9 9a be 9f b4 48 be 53 c0 0b bd
       -0.14135678 -0.30231872 -0.19600151 -0.03411896
0002a0 29 72 b4 bd 36 3f f7 bc 4a 2b 85 3d 08 95 60 3e
       -0.08810837 -0.030181509 0.06502397 0.21931851
0002b0 30 45 50 3e 26 5c de 3d 38 7f 58 3d 93 56 58 3d
       0.20338893 0.1085742 0.0528557 0.05281694
0002c0 64 65 b2 3d 01 39 12 3e c6 f5 fb bc 6e 66 26 3d
       0.08710745 0.14279558 -0.030756842 0.04062503
0002d0 61 8a 91 bd 4a bf 89 bd e5 b4 24 be e7 6e 67 3c
       -0.07106472 -0.067259386 -0.16084631 0.014125562
0002e0 19 cc 0c 3d a5 ef 63 3d 13 a6 d0 3d d2 c0 b1 3e
       0.03437433 0.055648465 0.10187926 0.34717423
0002f0 70 c8 ff 3e 55 e8 2b be 57 35 43 be a7 be 47 3d
       0.4995761 -0.16787846 -0.19063316 0.048765805
000300 e4 42 1e bf cc a0 90 be c8 e7 70 be 36 f9 c3 be
       -0.61820817 -0.28247678 -0.23525918 -0.3827607
000310 25 44 5d be c0 3b 84 be 46 7f 0a 3e b6 6b 22 3d
       -0.21608026 -0.25826836 0.13525113 0.039653502
000320 d9 5f 61 3e 67 e1 ce 3e af 77 e8 3e e5 ac a0 3e
       0.22009219 0.40406343 0.4540381 0.31381908
000330 73 e5 0f 3f 65 8c c9 3e 60 16 c6 3e 24 07 90 3d
       0.56209487 0.39364925 0.38688946 0.07032612
000340 9e 75 fd 3d 63 2c 7e 3d 0c 41 08 3e d8 d9 c2 3e
       0.12375949 0.06205405 0.13306063 0.38056827
000350 57 51 b9 3e 45 51 df 3e 96 51 1e 3f c7 51 de 3e
       0.3619487 0.4361669 0.6184324 0.43421766
000360 97 3f 32 be c6 e4 ba 3d 8c ca 1f 3e da 34 5b be
       -0.1740707 0.09125666 0.15604609 -0.2140688
000370 82 01 91 bd aa dc 09 bc a9 e6 d1 be dc 30 17 be
       -0.07080366 -0.008414427 -0.40996292 -0.14764732
000380 6c 17 58 3d 5e bf 16 be fe 03 23 be 6f a2 c5 bc
       0.05275671 -0.14721438 -0.15919492 -0.024125306
000390 e3 0c 82 bc a1 4f f0 3d f8 cf 90 3d 62 5f bd 3d
       -0.015875285 0.11733938 0.07070917 0.092467085
0003a0 7a ba 85 bc 2d 3c f6 bc 20 ea 13 bc 72 a5 1b 3e
       -0.01632427 -0.03005799 -0.009027988 0.15199831
0003b0 24 65 3a bc 06 d8 d9 3d 13 d5 ae 3d 41 e6 dc 3d
       -0.011376653 0.10636906 0.085367344 0.10786105
0003c0 3b f9 8d 3e 55 bd 02 3e b8 67 be bd a2 d3 02 bf
       0.2772921 0.12767537 -0.092971265 -0.51104176
0003d0 84 71 6e be 72 31 f3 bd 7e 08 f0 be 2a f5 f4 bd
       -0.2328549 -0.11874665 -0.4688148 -0.11960824
0003e0 a0 6a 11 be 8e c1 cf be 3e 5a 1b be e6 59 0c 3e
       -0.1420083 -0.40577358 -0.15171143 0.13706169
0003f0 b4 8e 8d 3e 1b 30 fe bd 62 91 3e be 72 f1 a9 3e
       0.27647936 -0.12411519 -0.18610147 0.3319202

cell_list.2.conv_can.weight f4 [10, 21, 3, 3]
000000 ba 52 30 be e8 7b 91 3e a3 f9 1b 3e 81 e2 60 3c
       -0.17219058 0.28414845 0.15231948 0.013725878
000010 6a a4 ad bd 6c a2 bc be ef 81 81 3e 7e d1 7f 3e
       -0.08478625 -0.36842668 0.25294444 0.24982259
000020 67 85 9e bd c8 cf af 3e 82 af 83 3c ea a1 15 3e
       -0.07740288 0.34338212 0.0160749 0.14612547
000030 fa 9b 83 be 8c 72 11 bf 62 18 dc be 40 42 5c 3d
       -0.25704938 -0.5681541 -0.42987353 0.05377412
000040 60 ca e5 3d d1 ab a1 3e 3d f3 0c 3c d6 17 95 3c
       0.112202406 0.31576398 0.008602914 0.018199842
000050 ff 8c 0a be e5 32 8b 3c 53 a3 f8 3d 42 f2 34 3e
       -0.13530348 0.016992042 0.121405266 0.17670539
000060 f2 b2 9b bd ac d9 cf 3d 44 ca af 3d 58 df 2b 3d
       -0.076024905 0.101489395 0.08583501 0.041961044
000070 fb 96 b6 3c 23 29 56 be a5 49 63 3d 07 56 2a 3e
       0.02228879 -0.2091413 0.055490155 0.1663438
000080 44 3a 07 3f 28 8e c3 bd 07 0d 01 3e 39 58 8f 3e
       0.5282328 -0.095485985 0.12602626 0.27996996
000090 48 1e ee 3e a5 af bb 3e d5 6b 3c 3d ee 56 ed 3c
       0.46507478 0.36657444 0.046001274 0.028972115
0000a0 87 84 88 3c b8 6a 4b be e2 60 67 bd dc 52 21 3d
       0.016664756 -0.19864929 -0.05648888 0.03938566
0000b0 1b df d3 bd ec a6 5d bd 50 90 07 be 41 3b 12 be
       -0.10345288 -0.054114267 -0.13238645 -0.14280416
0000c0 bd 95 b0 bc 05 47 63 bd f8 66 82 3d 73 61 02 be
       -0.021555776 -0.05548765 0.06367296 -0.12732486
0000d0 6b 9b 80 be e1 c5 d9 be b5 c8 cc be d1 46 4e be
       -0.25118575 -0.42533782 -0.39996877 -0.20144202
0000e0 3c d1 32 be 83 4f 73 3e ac f0 d6 3e 72 71 03 3f
       -0.17462629 0.237608 0.41980493 0.5134498
0000f0 79 5a e4 bc 44 97 6f bd 74 4f 8c bd 4b 40 95 3e
       -0.027875172 -0.058493868 -0.06851092 0.29150614
000100 c6 2f 52 3e 9c d9 8c 3d 04 30 cf 3d 93 f2 f1 3d
       0.20526037 0.06877443 0.1011658 0.118138455
000110 a5 e3 45 3e 34 af 4e 3e 5a 1f 8d 3e 8b 3b 88 3d
       0.19325121 0.20184022 0.27562982 0.06651982
000120 64 96 38 be 04 ea 5d 3a e7 d6 41 3e 53 e5 9e 3d
       -0.1802612 0.0008465352 0.18929635 0.07758584
000130 9c c3 79 bd d6 4c 0b 3d ea b3 ba bb 24 d1 c3 bc
       -0.060977563 0.034008823 -0.005697717 -0.023903437
000140 ab e3 a1 bd 24 31 37 3d 86 09 7e 3c 3c b7 f7 3d
       -0.07904752 0.0447246 0.0155052 0.12095496
000150 b9 76 9c be 9c 41 b1 be 56 c8 5c be b4 ef 29 3e
       -0.30559328 -0.34620368 -0.21560797 0.16595346
000160 93 c6 c7 3d fd f8 af 3d f5 2d d9 be 99 36 c6 be
       0.09754672 0.085924126 -0.42417875 -0.3871353
000170 eb e0 a6 be 18 74 dc 3d 73 c9 c4 3d 0b 9c 99 3e
       -0.32593474 0.107643306 0.09608736 0.30001864
000180 28 50 8c be 6c 2f 4d be a1 84 1b be 80 1d 56 3d
       -0.27404904 -0.20037621 -0.15187313 0.052274227
000190 fc d4 ae bd b7 ee 83 be 6f c7 e6 3d ab 89 f3 bc
       -0.08536717 -0.25768062 0.11268508 -0.029728731
0001a0 f4 1e 8a bd 9f 57 88 bd 65 da 63 be 50 e9 45 be
       -0.06744185 -0.066573374 -0.2225128 -0.19327283
0001b0 29 e7 50 bc 28 96 56 bd ea d8 97 bb 69 25 07 be
       -0.012750425 -0.052389294 -0.0046340125 -0.13197865
0001c0 b8 a8 87 be 30 5e 3b be 4c 23 73 be ef d6 3c be
       -0.2649591 -0.18297648 -0.23743933 -0.18441366
0001d0 36 c9 dd be 1e 6c 2a 3e d3 ac 24 bd 42 31 64 3d
       -0.43317574 0.16642806 -0.04020388 0.05571104
0001e0 0a 4a f2 bd 77 91 01 be 9f e5 9a bd b6 e2 62 3d
       -0.11830528 -0.12653147 -0.07563328 0.05539199
0001f0 9f 8c a9 3c e2 2b 0b be 9e c1 f1 bb b5 50 c7 3c
       0.020696936 -0.13590959 -0.0073778173 0.024330476
000200 a4 67 ab 3d 79 6e 03 3e e9 8e bf 3d e6 51 7f 3d
       0.08369377 0.1283511 0.0935343 0.062333964
000210 e2 e3 36 bd cf 50 22 be 6b 15 99 be 19 0e ba 3d
       -0.04465092 -0.15851139 -0.29899153 0.0908472
000220 39 20 b0 3b de 32 ef 3c 9d 07 55 be a9 31 ae be
       0.005374935 0.02919906 -0.20803685 -0.34022263
000230 62 0a d4 be b4 f5 1a be fb 7c 0c be 5a ae a7 bd
       -0.4141417 -0.15132791 -0.13719551 -0.08187552
000240 f4 27 77 bb 49 28 33 bc 35 29 00 3e 75 4b 4a 3e
       -0.0037713023 -0.010934898 0.12515719 0.19755347
000250 ba 76 9e 3e ae 0e 8a 3e c7 0e e9 bc 86 bf 52 be
       0.30949956 0.26964325 -0.02844943 -0.20580873
000260 e9 9f 03 be eb a2 b0 be 70 b4 95 be ee 70 1a bd
       -0.1285397 -0.34499297 -0.29239225 -0.037705354
000270 3d 24 d7 3d 17 f3 95 3e 87 fa 75 3e ec cc a2 3d
       0.10504959 0.29287025 0.2402135 0.07949242
000280 d1 cb 30 3e b8 ff 1d 3e cb f9 14 3c ec 65 c7 bd
       0.1726525 0.1542958 0.009092758 -0.09736237
000290 fd bb 03 be 5f 13 2e 3d b9 e3 f1 3b a7 4f 77 bd
       -0.1286468 0.042498942 0.007381883 -0.060378697
0002a0 47 50 88 be a3 0c 51 be a8 21 af bd d6 d4 da bd
       -0.26623747 -0.20414977 -0.08551341 -0.106851265
0002b0 86 df a2 bc 50 5d e5 bc 26 a9 10 3e c3 79 1c 3e
       -0.019881975 -0.027998596 0.14127025 0.15280823
0002c0 4b e4 35 3e 8f 11 d6 3d ba d5 93 bc 09 af a2 3d
       0.17762868 0.10452568 -0.018046249 0.079435416
0002d0 ef 52 04 3e ec 14 91 3d fa 62 ae 3d eb a1 6e 3d
       0.12922262 0.07084069 0.08514972 0.058259886
0002e0 30 e4 8f bd ea 12 eb bd a8 77 8e 3d 7b e8 4f be
       -0.07025945 -0.11478217 0.06956416 -0.20303528
0002f0 8c bb 75 be 6e 48 3a be c9 21 f5 bc 1e 5d b9 bd
       -0.23997325 -0.18191692 -0.029923337 -0.09050964
000300 bb 2e c7 bd 83 cb f5 3d 80 09 96 3e 8e be 69 3c
       -0.0972571 0.120017074 0.29304123 0.014266623
000310 78 15 53 3c dd 23 18 3e 0f 68 37 3e 61 b5 26 3e
       0.0128835365 0.14857431 0.17910789 0.16280128
000320 7d 90 ca bb 3a 2e 1e 3e 86 a6 8f bc 2e 6c 12 be
       -0.006181775 0.15447322 -0.01753546 -0.1429908
000330 02 86 11 3f 7c 26 b6 3e 56 06 df 3d a7 db 5d 3e
       0.56845105 0.35576236 0.1088988 0.21665822
000340 bc f5 a7 3e a2 d9 8a 3e 1a fd 95 3e 22 1b b3 3e
       0.32804668 0.27119166 0.29294664 0.34981638
000350 42 00 d7 bc bc a4 95 bd e5 4e 84 bd 8d ae a1 bd
       -0.02624524 -0.07306811 -0.064603604 -0.07894621
000360 57 b1 38 be 5a cc 63 3e a2 44 51 3e 40 a7 9c 3d
       -0.180364 0.22245923 0.20436338 0.07649088
000370 03 e1 b9 3e 6e 01 6e 3e 23 fb dd 3e 82 65 9d 3e
       0.36304483 0.23242733 0.43355665 0.30741507
000380 a4 46 09 be 83 b4 1a bd b8 8a 21 3e a4 77 b6 3e
       -0.13405854 -0.037769806 0.15775573 0.35638154
000390 38 30 06 bd e5 b4 f4 3d 93 69 39 3d 9b d2 42 3e
       -0.03276083 0.119485654 0.0452667 0.19025652
0003a0 07 ef 3a 3e 13 54 1c 3e a9 bb a7 3e 0a 9b 9a 3e
       0.18255244 0.15266447 0.3276036 0.3019641
0003b0 da 08 1e bd b0 07 02 3f f1 7a 8b 3e 8f 9f 5b 3e
       -0.03858266 0.5079298 0.27242234 0.21447586
0003c0 58 b2 80 3d c4 a0 1b 3d 41 73 ae bd 2d f1 ec 3e
       0.06284016 0.037995115 -0.08518077 0.46277753
0003d0 b4 75 af bd 43 66 44 be e4 0e 33 3e bd 05 c0 3b
       -0.08567372 -0.19179635 0.17486149 0.005860059
0003e0 19 c9 5a be dd cf 4b be 8e d4 44 be b3 c9 27 bd
       -0.21365775 -0.19903512 -0.19221708 -0.04096384
0003f0 94 ac 15 be 3c af 78 3d f2 e2 6e 3e d0 4a 56 3e
       -0.14616615 0.06071399 0.2332876 0.20926976

cell_list.3.conv_gates.weight f4 [20, 20, 1, 1]
000000 19 2a 51 bc d3 f9 69 be 7c 15 d1 3d c7 b3 76 3c
       -0.0127663845 -0.22849207 0.10209176 0.015057511
000010 c4 6e 81 3e 02 80 3c be 4e 64 66 be 36 91 6c be
       0.2527982 -0.18408206 -0.224992 -0.23102269
000020 6a c4 5d 3d bd 67 72 3b 6b bd a4 3e 5d 19 fc 3d
       0.054142393 0.0036988102 0.32175764 0.12309525
000030 5a 4c b9 3e 66 70 8c 3d 39 bd 9b be d9 24 e6 3d
       0.36191064 0.06857376 -0.30417803 0.11237497
000040 13 2d 5b 3e a9 91 56 3e 7f 43 c4 3d 53 b4 61 be
       0.21403913 0.20954002 0.09583186 -0.22041444
000050 0e f5 a0 3e 14 6f 89 3e e5 07 27 be d7 c3 6c 3e
       0.31436962 0.26842558 -0.16311605 0.23121582
000060 68 85 f4 3c bd 45 26 be f4 5c a5 3e 1e 37 d1 3c
       0.02984877 -0.1623754 0.3229748 0.025538977
000070 ca 11 4f be f4 a4 66 3e f2 0d 18 3e d6 c9 c3 3d
       -0.2022163 0.22523862 0.1484907 0.095599815
000080 67 53 ba be a4 c6 68 bd c5 ae 27 be 31 2e 53 be
       -0.36391756 -0.056830063 -0.16375263 -0.2062309
000090 fd d2 81 be 6b e0 5f 3d 5e a8 95 be d8 ba 90 be
       -0.25356284 0.05465738 -0.29230016 -0.2826755
0000a0 ac c3 ef 3d 2d e7 7b 3e 66 4a 58 3e 09 2f 99 3e
       0.11707243 0.24599905 0.21122131 0.29918697
0000b0 6c e8 85 be 81 d3 aa 3e 1b fe 23 be d5 b4 9b be
       -0.26153886 0.3336449 -0.16014902 -0.304114
0000c0 11 27 93 be 9c ac 76 be dd 63 74 3e bc be a4 3e
       -0.28740743 -0.24089283 0.2386622 0.3217677
0000d0 1e 71 80 be 66 f0 76 bd ef a8 38 bc 93 43 f8 bd
       -0.25086302 -0.060287856 -0.011270746 -0.12122264
0000e0 86 6b 36 3e a7 05 9c be 82 07 1a be c2 61 71 be
       0.17814454 -0.30473062 -0.15041927 -0.23572448
0000f0 cd 4f e3 3c 4c 7c 97 3e f9 17 6f bd bc cb 98 3e
       0.027748013 0.29587018 -0.05837247 0.29842937
000100 1e 02 a6 be 1b 19 8c 3e db 76 4b be 7b 6c 6f 3e
       -0.3242349 0.27362904 -0.19869559 0.23381226
000110 9a 8a 45 3e 52 fa 68 3e 84 02 79 be 82 a7 0c 3e
       0.19291154 0.2275174 -0.24317366 0.13735774
000120 db 90 51 be 90 70 81 3e df d5 fb 3e b5 5b b1 bc
       -0.20465414 0.2528119 0.49186608 -0.021650175
000130 63 e7 25 3e 8c 19 56 be e5 f1 32 be cb 51 d0 3e
       0.16201548 -0.20908183 -0.17475088 0.40687403
000140 96 ce e0 3e 39 07 ac 3e 7e 1c 18 bf 16 8d 6b bd
       0.43907613 0.3359926 -0.59418476 -0.057507597
000150 0b 9e 52 bb 17 43 c9 3e 9c ae af be 5c 66 b8 3e
       -0.0032137658 0.39308998 -0.34312904 0.36015594
000160 92 3b 64 bf c4 1a 5f 3e b6 cf 43 bf 31 f3 de 3e
       -0.891534 0.21787554 -0.76488817 0.43544915
000170 ee a7 02 be 7e dc 5b 3f c8 1e a1 3e b0 8c 2b 3f
       -0.12759373 0.8588332 0.31468797 0.6701155
000180 ee d3 12 bf 84 23 99 3c c6 c8 ad 3d b1 b4 0b 3f
       -0.5735463 0.018693693 0.0848556 0.5457259
000190 a4 d6 3a bd f5 35 ba be 9b 4b 5e be 35 ef 8b bd
       -0.045614854 -0.3636929 -0.21708529 -0.068327345
0001a0 59 f5 58 be 74 e3 04 3d 1a 4a 30 3e 9e 68 89 3e
       -0.21187343 0.03244348 0.17215768 0.2683763
0001b0 1f d2 1e bd 36 f0 f5 3d d3 9c c9 3d cd 04 7d bc
       -0.038774606 0.12008707 0.09844365 -0.015443039
0001c0 2d 38 37 be c4 3c 49 3d 29 07 6b be 0f be a0 be
       -0.17892523 0.049130216 -0.2295195 -0.31395003
0001d0 d7 6d 0c 3e 69 50 a9 3d b5 37 05 be c4 ed d3 be
       0.13713776 0.0826729 -0.13009532 -0.41392338
0001e0 5b ae 00 3f 7a 57 93 3e 55 26 b6 bd 6b de 99 be
       0.50266045 0.28777677 -0.0889403 -0.30052504
0001f0 88 3b 96 be 9f ff d9 3e ab f1 e5 be 24 e1 82 3e
       -0.29342294 0.42577836 -0.4491094 0.25562394
000200 83 05 4c bd ef a6 eb 3d 1f cd 18 be 76 db 66 3e
       -0.049809944 0.115064494 -0.14921997 0.22544655
000210 da b6 13 bf 1c 2a f4 3e b7 a2 a4 3e 7c a1 48 bd
       -0.57700884 0.47688377 0.32155392 -0.04898213
000220 4c 39 a4 be 64 e1 80 3e 37 71 be bd 6c c7 73 3d
       -0.32074964 0.2517196 -0.09298938 0.059516355
000230 88 4f bd 3e 32 e5 fa 3d b2 44 b4 bd ba ca da 3e
       0.3697474 0.12250747 -0.08802165 0.42732793
000240 65 86 7f 3e 6c 58 8d 3e de 4a 0b be af e4 91 3d
       0.24953611 0.27606523 -0.13602778 0.07123696
000250 06 a4 b0 be 2c 25 ee 3d 15 ef b5 be c0 c5 8c bd
       -0.3450014 0.11628184 -0.35533968 -0.06873655
000260 51 af ce 3d ce 26 7b 3d 93 98 92 3e 1e f4 43 be
       0.10092033 0.061316304 0.2863203 -0.19136092
000270 58 af 50 3e c7 7d 26 be e9 56 ef 3e 28 b6 38 be
       0.20379388 -0.16258918 0.46745995 -0.18038237
000280 f2 f6 03 3b db 53 4c 3d 00 fd 78 bd 76 25 bb be
       0.0020136205 0.04988466 -0.060788155 -0.36552018
000290 bb f9 5b 3e 19 3b 5c 3d 0f 87 d3 be 41 c1 92 bd
       0.21481983 0.053767297 -0.4131398 -0.071657665
0002a0 79 37 2b bc ef 42 8f bd 07 ab 89 be 4f d7 af 3d
       -0.010450237 -0.069951884 -0.26888296 0.08585989
0002b0 2c 4d ab 3c 59 bc 21 3e 74 ce ea 3c c3 1b c7 3e
       0.020910822 0.15794505 0.028662898 0.38888368
0002c0 87 b3 e0 bc d1 bf 96 3e 71 5b c0 3e 4c e6 51 3e
       -0.027429355 0.2944322 0.37569764 0.20498008
0002d0 23 47 81 be 3d c6 b0 be 54 a5 10 3f 9b a1 c0 bd
       -0.25249586 -0.34526244 0.5650227 -0.09405824
0002e0 38 ce 7d 3d d5 2e f5 be 2d 43 0d 3f ac d7 ab be
       0.061964244 -0.47887293 0.5518063 -0.33562982
0002f0 8c 63 cd 3e a2 05 7d be eb 79 b2 3e 07 b6 44 be
       0.4011501 -0.2470918 0.3485864 -0.19210063
000300 69 37 9c 3d 3f 54 16 bf 07 e8 e4 be 68 f4 88 be
       0.07627756 -0.587223 -0.44708273 -0.26748967
000310 21 eb df 3e cc a7 64 be c6 95 fa 3c 41 90 b1 bd
       0.43734077 -0.22329634 0.030588996 -0.086700924
000320 29 fb 87 be 4d 1f c7 be fe ba 55 3e a1 39 48 3c
       -0.26558807 -0.38891068 0.20872113 0.012220771
000330 58 72 bd bb bf 69 88 3e e0 8e e2 ba eb 23 d9 3e
       -0.005781453 0.26643178 -0.0017285012 0.42410216
000340 8b 30 bc be 3f cd 13 bd 98 44 34 bd 25 a5 b6 be
       -0.36755785 -0.03608441 -0.04401073 -0.3567287
000350 63 56 e2 3d a6 20 a4 bd 9f 78 fd be 24 6e 9a 3e
       0.11051633 -0.0801404 -0.4950609 0.30162156
000360 ee 4d cc 3d ef 2c 7f be d0 f9 cd 3e 0f 61 a3 bc
       0.099758014 -0.24919485 0.40229654 -0.019943742
000370 b8 cf dc bc 6a 50 a0 3e 34 87 57 3e bf 10 60 3e
       -0.026954517 0.3131135 0.2104767 0.21881388
000380 86 da 2e 3e b5 b2 af be 01 33 8e be 5e 36 11 be
       0.17075548 -0.3431603 -0.27773288 -0.14180896
000390 e4 59 23 be b8 e8 aa be a5 c3 c7 3e 03 3f 1b be
       -0.1595226 -0.33380675 0.39016452 -0.15160756
0003a0 dd d7 c1 bd 47 8e 8b bd 03 81 90 3b 41 ff ac be
       -0.09465001 -0.068142466 0.0044099106 -0.33788493
0003b0 46 61 9a 3d 53 b5 1a be 4d f5 0c 3e 46 b7 f6 bd
       0.07538085 -0.15108232 0.1376545 -0.120466754
0003c0 25 63 52 be aa 5b 00 be fa c9 1e bd 89 85 29 be
       -0.20545633 -0.12534967 -0.03876684 -0.16554846
0003d0 e6 42 8b be fd 39 09 bd 19 e3 90 bd 23 27 17 be
       -0.27199477 -0.033502568 -0.070745654 -0.14761023
0003e0 e4 80 cd 3e 0b 51 b8 3d 92 02 7a be 79 d5 7a 3e
       0.40137398 0.08999833 -0.24415043 0.24495496
0003f0 ec 89 94 3b 1d 66 02 be 8d 83 1c bd 76 5d 70 be
       0.004533043 -0.12734266 -0.038211394 -0.23473153
