saved_models/ambimg_mel/brainlike_MPC_2.pt (torch, 118396 bytes, 14 tensors)

cell_list.0.conv_gates.weight f4 [20, 11, 3, 3]
0	0x3e2f7b8b	0.17136972
1	0x3e117af7	0.14207064
2	0x3e20c3ca	0.15699688
3	0x3e95b481	0.29239276
4	0x3ebb5155	0.3658549
5	0x3ea6d4c0	0.3258419
6	0x3edd4267	0.43214723
7	0x3ec9e2a3	0.39430723
8	0x3ee3c8b6	0.44489068
9	0xbecc3f3f	-0.39892003
10	0xbea95012	-0.330689
11	0xbea3c4f0	-0.3198619
12	0xbed43476	-0.41446275
13	0xbeaeff67	-0.34179232
14	0xbec9e735	-0.3943421
15	0xbec29a17	-0.38008186
16	0xbed25785	-0.41082397
17	0xbef7a3f2	-0.48367268
18	0xbeb31a39	-0.34980944
19	0xbe712e91	-0.2355292
20	0xbed0a539	-0.40751055
21	0xbed6f7d6	-0.4198596
22	0xbeed862a	-0.46391422
23	0xbebbf520	-0.36710453
24	0xbf021ded	-0.50826913
25	0xbeff4169	-0.4985459
26	0xbef8b706	-0.48577136
27	0x3e8cb353	0.27480564
28	0x3e8979ff	0.26850888
29	0x3e7b4650	0.24538541
30	0x3eb12369	0.34597328
31	0x3ec1d303	0.37856302
32	0x3edd63e8	0.43240285
33	0x3f1133c9	0.5671964
34	0x3f0795ba	0.5296284
35	0x3eedbb43	0.46431932
36	0x3ec96f2f	0.3934264
37	0x3eac594b	0.33661875
38	0x3e9b26ab	0.3030294
39	0x3eb00854	0.34381354
40	0x3ec06ace	0.37581486
41	0x3e98a6d4	0.2981478
42	0x3eee47d9	0.4653919
43	0x3ef92dd9	0.4866779
44	0x3ee472dc	0.4461888
45	0xbe812cba	-0.25229436
46	0xbe8ece94	-0.27891982
47	0xbe965c5a	-0.29367334
48	0xbec043aa	-0.37551624
49	0xbebebad0	-0.37251902
50	0xbeb1e00a	-0.3474124
51	0xbeb90946	-0.36139888
52	0xbec271bf	-0.37977406
53	0xbec05195	-0.37562242
54	0xbe8cda63	-0.27510366
55	0xbe876f2f	-0.26452014
56	0xbe739c27	-0.23790036
57	0xbe96df38	-0.29467177
58	0xbea578e4	-0.32318795
59	0xbe697a79	-0.22800626
60	0xbebd93c7	-0.37026808
61	0xbf01379f	-0.50475496
62	0xbeb06a99	-0.34456328
63	0xbe4955f6	-0.19661698
64	0xbe71be5a	-0.2360777
65	0xbe9c5bf7	-0.30538914
66	0xbeafbd5d	-0.3432416
67	0xbefaf5ba	-0.490156
68	0xbed3f9ab	-0.4140142
69	0xbecf8c87	-0.405369
70	0xbf0e9879	-0.55701405
71	0xbeb8c84b	-0.3609031
72	0xbec7db49	-0.3903449
73	0xbea46855	-0.3211085
74	0xbead252b	-0.3381742
75	0xbeb3c377	-0.35110065
76	0xbec7947d	-0.38980475
77	0xbef3ba88	-0.4760325
78	0xbee69e25	-0.4504253
79	0xbf04a3a2	-0.51812184
80	0xbeb0e9f0	-0.3455348
81	0xbec7ae14	-0.39
82	0xbef5cb7c	-0.4800681
83	0xbea3b954	-0.31977332
84	0xbed3aea7	-0.41344187
85	0xbf07499d	-0.528467
86	0xbee41fa1	-0.4455538
87	0xbee93e87	-0.45555517
88	0xbf14d46e	-0.5813664
89	0xbf0a7473	-0.5408394
90	0x3eb499db	0.35273632
91	0x3ea036a9	0.31291702
92	0x3ed2a579	0.4114187
93	0x3ee88dc2	0.45420653
94	0x3f03ad0b	0.5143592
95	0x3ef3bde9	0.47605827
96	0x3ed83bf0	0.4223323
97	0x3ee9e101	0.45679477
98	0x3ed60161	0.41797927
99	0x3ecf294b	0.40461192
100	0x3ee1a246	0.44069117
101	0x3ee8dd6b	0.45481429
102	0x3f046ebb	0.5173146
103	0x3f3c7efe	0.73631275
104	0x3f2b8ea4	0.6701453
105	0x3f286fc4	0.6579554
106	0x3f3eda09	0.74551445
107	0x3f399474	0.72492146
108	0xbf1ec9e6	-0.6202682
109	0xbf0b06a9	-0.5430704
110	0xbef8a641	-0.48564342
111	0xbf11c34b	-0.5693862
112	0xbf1a609c	-0.60303664
113	0xbf0bdec5	-0.54636794
114	0xbf15660e	-0.5835885
115	0xbf09c6e9	-0.5381914
116	0xbf0b9eea	-0.5453936
117	0xbec0611c	-0.3757409
118	0xbf047644	-0.5174296
119	0xbefb7131	-0.49109796
120	0xbee4022e	-0.44532913
121	0xbf175601	-0.59115607
122	0xbf19e928	-0.60121393
123	0xbf077c4a	-0.52924025
124	0xbf06b95a	-0.52626574
125	0xbf2a8f8a	-0.66625273
126	0x3f03f094	0.5153897
127	0x3f23639e	0.6382388
128	0x3efb6174	0.49097788
129	0x3efb0c93	0.4903303
130	0x3f0ec443	0.5576822
131	0x3f25f83a	0.6483189
132	0x3f156c4e	0.58368385
133	0x3f0eb157	0.5573935
134	0x3f364909	0.7120519
135	0x3f0e943f	0.55694956
136	0x3f0d24bb	0.5513417
137	0x3ede0a66	0.43367308
138	0x3f15f190	0.5857172
139	0x3f063322	0.5242177
140	0x3eeb4125	0.4594814
141	0x3ef92127	0.48658106
142	0x3f181ac3	0.59415835
143	0x3f10b706	0.5652927
144	0xbf0dcbdd	-0.55389196
145	0xbefe58ff	-0.49677274
146	0xbf28648f	-0.6577844
147	0xbee36b21	-0.4441767
148	0xbeef8ed6	-0.46788663
149	0xbf1b1d35	-0.6059144
150	0xbf0c57d6	-0.54821527
151	0xbf123c01	-0.5712281
152	0xbf229b78	-0.63518476
153	0xbf1d362f	-0.614108
154	0xbf30e178	-0.6909404
155	0xbf467699	-0.77524716
156	0xbf375e21	-0.71628004
157	0xbf356e00	-0.7087097
158	0xbf1119fe	-0.56680286
159	0xbf1fb19d	-0.6238039
160	0xbf4e359e	-0.80550563
161	0xbf260741	-0.6485482
162	0xbf14459c	-0.57918715
163	0xbf38cf23	-0.72191066
164	0xbf23fcc8	-0.6405759
165	0xbf072629	-0.527926
166	0xbf39fc82	-0.7265092
167	0xbf251c67	-0.64496464
168	0xbf22df5d	-0.63622075
169	0xbf38f652	-0.72250855
170	0xbf310445	-0.6914714
171	0xbef0dbeb	-0.47042784
172	0xbee2f156	-0.4432475
173	0xbf0389a7	-0.51381916
174	0xbf14e7f7	-0.5816645
175	0xbf09dc99	-0.5385223
176	0xbf23acc4	-0.63935494
177	0xbf04c9fe	-0.51870716
178	0xbf012e60	-0.5046139
179	0xbef6b4ab	-0.48184714
180	0xbf2d065d	-0.67587835
181	0xbf39652b	-0.72419995
182	0xbf1fcaa5	-0.62418586
183	0xbf1e8e42	-0.6193582
184	0xbf4c583b	-0.7982213
185	0xbf2fbad0	-0.6864443
186	0xbf24779f	-0.6424503
187	0xbf0ef3bb	-0.55840653
188	0xbf0927cb	-0.53576344
189	0x3f2131b9	0.62966496
190	0x3f2ba5fe	0.6705016
191	0x3f09fbc9	0.5389982
192	0x3f2be301	0.67143255
193	0x3f2e2adb	0.6803414
194	0x3f184b4c	0.59489894
195	0x3f0f5f46	0.5600475
196	0x3f2e6f41	0.6813851
197	0x3f156fbc	0.5837362
198	0x3ec90787	0.39263555
199	0x3ee2f34f	0.44326255
200	0x3e99b640	0.30021858
201	0x3ef41abc	0.47676647
202	0x3f035ea0	0.5131626
203	0x3edc4d86	0.43027896
204	0x3f162dae	0.5866345
205	0x3f3294c1	0.6975823
206	0x3f26b465	0.6511901
207	0xbef6041f	-0.4805002
208	0xbef77125	-0.4832851
209	0xbefbeb9d	-0.49203196
210	0xbf10dbeb	-0.5658557
211	0xbf0641bc	-0.5244405
212	0xbefb3b7e	-0.49068826
213	0xbf1372b0	-0.57596874
214	0xbf1c6ba5	-0.6110175
215	0xbf064683	-0.5245134
216	0xbf08635e	-0.5327662
217	0xbf10ef5e	-0.56615245
218	0xbf015dc7	-0.5053372
219	0xbf06759b	-0.525232
220	0xbf23035a	-0.6367699
221	0xbf2726b2	-0.6529342
222	0xbf1f61f1	-0.6225882
223	0xbf1c673b	-0.6109502
224	0xbf353408	-0.7078252
225	0x3ee9b29c	0.4564408
226	0x3eeeb048	0.46618867
227	0x3f10c6b7	0.56553215
228	0x3f20c120	0.62794685
229	0x3f0f0a05	0.55874664
230	0x3f0fe388	0.5620656
231	0x3f2c4a11	0.67300516
232	0x3f30f1f0	0.6911917
233	0x3f239e82	0.6391374
234	0x3ed58cc2	0.41708952
235	0x3eeea06b	0.46606764
236	0x3ee15d8f	0.44016692
237	0x3eedde50	0.46458673
238	0x3eecefce	0.46276706
239	0x3ef497b1	0.4777198
240	0x3efc899f	0.49323747
241	0x3f16dea0	0.5893345
242	0x3ee52e2a	0.44761783
243	0xbf0ad4e9	-0.54231125
244	0xbebd2bf2	-0.3694759
245	0xbedbf918	-0.4296348
246	0xbed972f7	-0.42470524
247	0xbef39c46	-0.47580165
248	0xbf02f26f	-0.51151174
249	0xbf251c30	-0.64496136
250	0xbf232318	-0.63725424
251	0xbf12319f	-0.57106966
252	0xbf0d04df	-0.5508556
253	0xbf36a921	-0.7135182
254	0xbf277d16	-0.6542524
255	0xbf1e3597	-0.6180052

cell_list.0.conv_can.weight f4 [10, 11, 3, 3]
0	0xbf1248d1	-0.5714236
1	0xbf0cd69e	-0.5501498
2	0xbee083e3	-0.43850622
3	0xbf1659dc	-0.58730865
4	0xbf0ebfc8	-0.55761385
5	0xbeec4f03	-0.4615403
6	0xbf2b74a8	-0.6697488
7	0xbf11c498	-0.56940603
8	0xbf08bfbc	-0.53417563
9	0x3f2bac27	0.6705956
10	0x3e98eacb	0.29866633
11	0x3ec7ce9a	0.39024812
12	0x3f221fc1	0.633297
13	0x3ed494f5	0.41519895
14	0x3e9eef40	0.31041908
15	0x3ebcf354	0.36904395
16	0x3e67f869	0.22653355
17	0x3e01c3de	0.12672374
18	0x3f2435e2	0.6414472
19	0x3efedf2d	0.49779645
20	0x3ea34019	0.3188484
21	0x3f24a504	0.64314294
22	0x3f11a7a7	0.5689644
23	0x3ed51d6d	0.41624013
24	0x3ed3f800	0.41400146
25	0x3ea6cc26	0.32577628
26	0x3e5d3f1d	0.21606107
27	0xbf289cb2	-0.658641
28	0xbee9856a	-0.456096
29	0xbecb9482	-0.3976174
30	0xbf3ebb8a	-0.7450491
31	0xbf1cb557	-0.612142
32	0xbedf6d0f	-0.43637893
33	0xbf07d743	-0.5306284
34	0xbf124ab3	-0.5714523
35	0xbf013385	-0.5046924
36	0xbed9f263	-0.4256774
37	0xbee1734e	-0.44033283
38	0xbec99045	-0.3936788
39	0xbe5d12cb	-0.215892
40	0xbea606cc	-0.3242706
41	0xbe582c26	-0.21110591
42	0xbdc0d580	-0.09415722
43	0x3c63b9b9	0.01389926
44	0xbd0d7dc5	-0.03454377
45	0x3ef7c46d	0.48392048
46	0x3ebb119a	0.36536866
47	0x3ebb3582	0.3656426
48	0x3ee5b0e6	0.44861525
49	0x3ec25099	0.37952116
50	0x3e4cf5d5	0.20015652
51	0x3e95820a	0.29200774
52	0x3dc37584	0.09543899
53	0x3e1cf790	0.15328813
54	0x3f384426	0.71978986
55	0x3f12ba23	0.5731527
56	0x3f0dd973	0.55409926
57	0x3f33b2d9	0.70194775
58	0x3f23fd32	0.6405822
59	0x3f197dc8	0.5995755
60	0x3f203ef7	0.62596077
61	0x3f187bda	0.5956398
62	0x3eb2fb9a	0.34957582
63	0x3f08516b	0.53249234
64	0x3f2f217c	0.6841047
65	0x3ec927ec	0.3928827
66	0x3f3a8f18	0.72874594
67	0x3f115d8e	0.5678338
68	0x3f03d9ed	0.51504403
69	0x3ef2664b	0.47343668
70	0x3ed1c97a	0.40974027
71	0x3e993358	0.29921985
72	0x3ee3c80a	0.44488555
73	0x3f069a1d	0.5257891
74	0x3ee8be6b	0.45457777
75	0x3f082dd2	0.53194916
76	0x3ea8c259	0.32960775
77	0x3eae2070	0.34009123
78	0x3eb56375	0.35427442
79	0x3e95a587	0.2922785
80	0x3defc222	0.1170695
81	0x3f3c6e80	0.7360611
82	0x3f0ad6a4	0.54233766
83	0x3f1d997e	0.61562335
84	0x3f287ef9	0.65818745
85	0x3efb95dc	0.4913777
86	0x3eecad9e	0.4622621
87	0x3eec7c62	0.46188647
88	0x3eb346ec	0.35015047
89	0x3ebd7992	0.37006813
90	0xbeee886f	-0.46588466
91	0xbeaa0549	-0.33207157
92	0xbee9faa4	-0.45699036
93	0xbed6433e	-0.41848177
94	0xbeaf14ff	-0.34195706
95	0xbe994c23	-0.299409
96	0xbed8d772	-0.42351872
97	0xbe8e49ce	-0.27790684
98	0xbdffb6e3	-0.12486055
99	0xbef24b14	-0.47322905
100	0xbee632b2	-0.44960552
101	0xbf090e0f	-0.53537077
102	0xbef65ce5	-0.48117748
103	0xbf368392	-0.7129451
104	0xbf17f82a	-0.59363043
105	0xbf1d5c67	-0.6146912
106	0xbf1d3edd	-0.61424047
107	0xbf047f7e	-0.5175704
108	0x3db8fb4b	0.09032305
109	0x3cc2f86f	0.023800103
110	0xbd58e1b9	-0.05294964
111	0xbb391871	-0.0028243328
112	0xbe86d297	-0.26332542
113	0xbd23acf9	-0.03995988
114	0x3b95f0bf	0.0045758183
115	0xbe28fd9c	-0.16502994
116	0xbda9f1f8	-0.08298105
117	0x3f009901	0.50233465
118	0x3ea533d1	0.32266095
119	0x3e5b4927	0.21414624
120	0x3eb85327	0.3600094
121	0x3eb71619	0.35759047
122	0x3e26a38c	0.16273326
123	0x3e3dd316	0.18537554
124	0x3db749cf	0.08949625
125	0x3d237d49	0.039914403
126	0xbe705724	-0.23470742
127	0xbe86f043	-0.2635518
128	0xbe5fac75	-0.21843131
129	0xbe2f4213	-0.17115049
130	0xbe8ab7ac	-0.27093256
131	0xbdcadbf0	-0.09905231
132	0xbe4c55c9	-0.199546
133	0xbe0c1f79	-0.13683881
134	0xbe257726	-0.16158733
135	0xbe0553f8	-0.13020313
136	0xbd4a4985	-0.04938652
137	0x3e0030b0	0.12518573
138	0x3d82a3b8	0.06378883
139	0x3e13f48c	0.14448756
140	0x3dd1bd46	0.10241179
141	0x3b8db7e9	0.0043249023
142	0x3b913601	0.0044314866
143	0x3df7daba	0.12102266
144	0x3d4b26d5	0.04959758
145	0x3e5b465c	0.21413559
146	0x3b80fd4a	0.0039364444
147	0xbe593a21	-0.2121358
148	0xbda91b52	-0.08257164
149	0xbe342c50	-0.17595029
150	0xbde31256	-0.11087482
151	0x3d1d283e	0.038368456
152	0xbe7fb5e8	-0.24971735
153	0x3f10cc4f	0.5656175
154	0x3f2ffb1f	0.68742555
155	0x3efc1a1a	0.49238664
156	0x3ee652eb	0.44985136
157	0x3f21f66c	0.63266635
158	0x3eab79f4	0.3349148
159	0x3f041312	0.515916
160	0x3eec104f	0.46106192
161	0x3efbb2f6	0.49159974
162	0x3e963bb2	0.2934242
163	0x3e7dd318	0.24787557
164	0x3e4ab8a9	0.19797005
165	0x3e252001	0.1612549
166	0x3e9f15b3	0.31071243
167	0x3daea357	0.08527248
168	0x3d6583e5	0.056033988
169	0x3e10d88c	0.14145106
170	0xbae1ef5c	-0.0017237472
171	0x3d4aded9	0.04952893
172	0xbb2b4e02	-0.0026139026
173	0x3d4aae38	0.049482554
174	0xbdc8425c	-0.09778282
175	0x3c132136	0.008980086
176	0xbcce403b	-0.025177112
177	0xbe5cecde	-0.21574733
178	0xbe100b2f	-0.14066766
179	0xbe7729bd	-0.24137016
180	0x3dc7e5f9	0.09760661
181	0x3ca4c0bb	0.020111432
182	0x3ac42ee4	0.0014967588
183	0x3ce19b68	0.027539924
184	0x3d5a22c7	0.053255823
185	0xbcb27c62	-0.021787826
186	0x3d2b9077	0.04188582
187	0xbd4958f0	-0.049157083
188	0xbe3acd91	-0.1824248
189	0xbd1533cd	-0.036426354
190	0xbcc851ee	-0.02445313
191	0xbced11b7	-0.028939111
192	0xbd0dcc0d	-0.034618426
193	0xbc5ea690	-0.013589516
194	0x3d1e37f5	0.038627584
195	0x3dbc1674	0.0918397
196	0xbb8cf0cc	-0.004301166
197	0x3e3ebb96	0.18626246
198	0x3ed0a16e	0.4074816
199	0x3f01a76c	0.5064609
200	0x3ef7f209	0.48426846
201	0x3e7921cf	0.24329303
202	0x3ec3a0e3	0.38208684
203	0x3eae3067	0.34021303
204	0x3e39fe0d	0.18163319
205	0x3e10ed99	0.14153136
206	0x3ebe8576	0.37211198
207	0x3e1a3118	0.1505779
208	0x3e2ff232	0.17182234
209	0xbca4fa49	-0.020138877
210	0x3e0268c4	0.12735277
211	0x3e304880	0.17215157
212	0x3e4595a6	0.19295368
213	0x3e3583cd	0.1772606
214	0x3e7b73b0	0.2455585
215	0x3e165228	0.14679778
216	0xbe4de828	-0.20108092
217	0xbe261975	-0.16220649
218	0xbe812f6d	-0.25231495
219	0xbcf27bca	-0.029600043
220	0xbc6cc673	-0.014451611
221	0xb82c0126	-4.1009065e-05
222	0x3c740180	0.014892936
223	0x3e155d07	0.14586268
224	0xbc94a40c	-0.01814463
225	0x3d24ca05	0.040231723
226	0x3ceb0490	0.028688699
227	0x3de39b37	0.11113589
228	0xbe50afa3	-0.203795
229	0xbdb2fab5	-0.08739225
230	0xbdb864f6	-0.09003632
231	0xbdf8410a	-0.1212178
232	0xbeac2f40	-0.336298
233	0xbdf4c6c2	-0.119519725
234	0xbe077e39	-0.13231744
235	0x3d3f585c	0.046715125
236	0x3d3b6401	0.045749668
237	0xbe42bbc6	-0.19016942
238	0xbc5495dc	-0.012975182
239	0xbd4d485e	-0.050117843
240	0xbe23b82b	-0.15988223
241	0xbceb40f6	-0.0287175
242	0xbd8f2517	-0.06989496
243	0x3c5fa5fb	0.013650413
244	0x3db64691	0.08900178
245	0x3d9bd814	0.07609573
246	0x3de1c41b	0.11023732
247	0x3cc8c1fe	0.024506565
248	0x3d2e2713	0.042517733
249	0x3e9dc7c9	0.30816486
250	0x3e9a4f0f	0.30138442
251	0x3dffc267	0.12488251
252	0x3ca17b69	0.019712167
253	0xbd8c71b8	-0.06857628
254	0xbdfffb7f	-0.12499141
255	0x3c8d3d35	0.0172411

cell_list.1.conv_gates.weight f4 [20, 20, 3, 3]
0	0x3de69215	0.11258332
1	0x3e31ff3a	0.17382517
2	0x3e5ab9e1	0.2135997
3	0xbdad0368	-0.08447915
4	0x3cceb264	0.025231548
5	0x3da8de49	0.082455225
6	0x3ec1e41f	0.37869355
7	0x3ea8e32f	0.32985827
8	0x3e171860	0.14755392
9	0x3bde9350	0.0067924634
10	0x3db2f061	0.08737255
11	0xbd1440b7	-0.03619453
12	0x3c007857	0.007841191
13	0x3e11fbf9	0.14256276
14	0x3d49cdc7	0.04926851
15	0x3d21f08e	0.03953605
16	0xbd4799f3	-0.0487308
17	0xbd872d23	-0.06600406
18	0x3de97a1d	0.114002444
19	0x3c44a560	0.012002319
20	0xbd5c1f77	-0.053740945
21	0x3e5b5cbc	0.21422094
22	0x3e1114ce	0.14168093
23	0xbdab8d3f	-0.0837655
24	0x3e8dc444	0.276888
25	0x3dc8a792	0.097975865
26	0xbd327f35	-0.043578345
27	0x3c920e36	0.017829042
28	0xbba40fe0	-0.0050067753
29	0x3da9cdb7	0.0829119
30	0xbe1b8bc1	-0.1519003
31	0xbda8f2df	-0.08249449
32	0x3d9c6f25	0.07638387
33	0x3e0754cb	0.1321594
34	0x3ec5ea25	0.386552
35	0x3eebe60f	0.46073958
36	0x3d912f86	0.070891425
37	0x3c7ac24a	0.015305111
38	0x3c1150ed	0.008869392
39	0xbdbdaca9	-0.09261448
40	0xbda30e09	-0.07961661
41	0xbe5d52d5	-0.21613629
42	0xbdfd4134	-0.12365952
43	0xbdc82214	-0.09772125
44	0xbd24f07d	-0.04026841
45	0x3e404f7b	0.1878032
46	0x3cd8a067	0.026443673
47	0xbe54f560	-0.20796728
48	0x3e50fa50	0.20407987
49	0xbde93345	-0.11386732
50	0xbe2e6152	-0.17029312
51	0x3e44481c	0.19168133
52	0x3da50f44	0.08059552
53	0xbd72452c	-0.059148
54	0xbe1dcb0a	-0.15409485
55	0x3ca85478	0.02054809
56	0x3e18773b	0.14889233
57	0xbdc5d512	-0.096597806
58	0xbc8b056c	-0.016970359
59	0x3e3efa6f	0.1865022
60	0xbcebd330	-0.028787225
61	0x3dd3e667	0.1034668
62	0x3e53e157	0.20691429
63	0x3d97ec95	0.07418171
64	0x3d80b5e9	0.062846966
65	0xbdc372ed	-0.09543405
66	0x3e0d03b5	0.13770945
67	0x3bd6dfdb	0.0065574474
68	0xbda55b90	-0.08074105
69	0x3da285b8	0.07935661
70	0xbd72b33f	-0.059252974
71	0xbe2b65e9	-0.16738094
72	0x3dccf03b	0.10006758
73	0x3caf6453	0.021410143
74	0x3d8ae1bb	0.06781336
75	0x3ead6b53	0.33870944
76	0x3e5e5808	0.21713269
77	0x3e4d9664	0.200769
78	0x3e6b85e7	0.23000298
79	0x3d7c5c12	0.061611243
80	0x3e1ffb06	0.15623102
81	0xbe60cceb	-0.2195317
82	0xbe81dba6	-0.2536289
83	0xbe9c047f	-0.3047218
84	0xbecb2e81	-0.39683917
85	0xbeca62af	-0.39528415
86	0xbeaf3246	-0.34218043
87	0xbe30d483	-0.17268567
88	0xbda17b68	-0.07884866
89	0xbdc39900	-0.09550667
90	0x3db47430	0.088112235
91	0x3c39116f	0.01129566
92	0xbcbae80c	-0.022815727
93	0xbde9385f	-0.11387705
94	0xbd289a13	-0.04116256
95	0xbe491b24	-0.1963926
96	0xbd90eb1b	-0.07076093
97	0xbd3f0202	-0.046632774
98	0xbe26b8dc	-0.16281456
99	0x3d6b2cbd	0.057415713
100	0xbdb7c122	-0.08972384
101	0xbd944006	-0.07238774
102	0x3c0b58fb	0.008505101
103	0xbb9a084e	-0.004700697
104	0xbe320172	-0.17383364
105	0xbd9d6394	-0.07685009
106	0xbe0f54bd	-0.13997169
107	0xbe20cdff	-0.15703581
108	0xbc0925e2	-0.008370848
109	0xbc863874	-0.01638434
110	0x3deea920	0.11653352
111	0x3cdb2150	0.026749283
112	0x3da2493a	0.07924123
113	0x3e42a73d	0.19009109
114	0x3e25a0d6	0.16174635
115	0x3e5670ba	0.2094144
116	0x3e900e19	0.28135756
117	0x3e6268fe	0.22110364
118	0x3e0a9637	0.13533865
119	0x3d03a550	0.032140076
120	0x3dad506c	0.08462605
121	0xbdd2d4ea	-0.102945164
122	0xbdd57e7e	-0.10424517
123	0xbcf5924f	-0.029976992
124	0xbd82fd3e	-0.06395958
125	0xbd8320d3	-0.06402745
126	0xbde1cce2	-0.110254064
127	0x3c12227d	0.008919355
128	0x3e326242	0.17420295
129	0x3d1e4e1b	0.038648706
130	0x3cdff9f2	0.027340863
131	0x3dbef0fa	0.093233064
132	0x3db90cd7	0.09035652
133	0x3db3057d	0.08741281
134	0x3e636962	0.22208169
135	0xbd011f0c	-0.03152375
136	0x3bb021e5	0.0053751343
137	0xbd2885e7	-0.041143324
138	0x3d831b42	0.064016834
139	0x3d411a31	0.04714412
140	0x3c705fa2	0.014671238
141	0x3dbd8b8f	0.09255134
142	0x3e176dbc	0.14787954
143	0x3dd4c8bb	0.10389849
144	0xbd6aecb0	-0.05735463
145	0x3bf4a0a1	0.0074654375
146	0x3de6ef75	0.112761416
147	0x3ccfabb0	0.025350422
148	0x3e59c061	0.21264793
149	0x3e333a45	0.17502697
150	0xbcfc13f5	-0.030771235
151	0x3de87dd3	0.11352124
152	0x3e30f543	0.1728106
153	0x3dd1d172	0.10245027
154	0x3cecf605	0.028925905
155	0xbe16de94	-0.14733344
156	0x3d8824c1	0.06647635
157	0xbdd0699e	-0.10176395
158	0xbd2d5458	-0.042316765
159	0x3d1eafcd	0.038741875
160	0xbb6f075a	-0.0036472888
161	0xbd988f30	-0.07449186
162	0xbe384f0b	-0.17998902
163	0xbd19cf3a	-0.037551142
164	0x3d8f32ad	0.069920875
165	0xbe2fa39a	-0.17152253
166	0xbdcfd447	-0.101479106
167	0x3bf802f8	0.0075687133
168	0xbd8f125a	-0.06985922
169	0x3d8e77d6	0.06956451
170	0x3db70c2a	0.08937867
171	0xbc379e2e	-0.011207147
172	0x3c9d1a66	0.019177627
173	0x3d9d885c	0.07692024
174	0x3d4b926e	0.049700193
175	0x3c6acd77	0.014331213
176	0x3e137ea4	0.14403778
177	0x3dcdaafd	0.10042379
178	0x3e751203	0.23932652
179	0x3e330ff3	0.17486553
180	0x3db8d407	0.09024816
181	0x3e17e593	0.1483367
182	0x3e5e8e52	0.21733978
183	0x3dff8fff	0.12478637
184	0x3e05c928	0.13065016
185	0x3e622120	0.22082949
186	0x3ee8b996	0.4545409
187	0x3ef3ea18	0.47639537
188	0x3e355b35	0.17710574
189	0x3d2035db	0.03911386
190	0x3e35668b	0.17714898
191	0xbcc07fd8	-0.02349846
192	0x3dfadf07	0.1224957
193	0x3dce86c5	0.10084299
194	0x3d9b954f	0.07596838
195	0xbbf4c569	-0.007469822
196	0x3d0ba459	0.03409228
197	0x3ce9cd15	0.028540174
198	0x3e996b21	0.29964545
199	0x3e43232a	0.19056383
200	0xbdb5cdee	-0.088771686
201	0x3ea5529c	0.32289588
202	0x3e5a921d	0.213448
203	0x3d60c810	0.054878294
204	0x3e0f9bc9	0.14024271
205	0xbd15f035	-0.036606032
206	0xbe8a8221	-0.27052405
207	0xbd178e2d	-0.037000824
208	0xbbc6958c	-0.006060308
209	0x3c9d5a6e	0.01920816
210	0xbdda60bf	-0.10662984
211	0x3d152b7b	0.03641842
212	0x3d55bc74	0.052181676
213	0x3de939de	0.113879904
214	0x3ebc41df	0.36769006
215	0x3e9076d8	0.2821567
216	0x3e1700d2	0.14746407
217	0x3d16e123	0.0368358
218	0x3e205d29	0.15660538
219	0xbdfc147f	-0.12308597
220	0xbe60d377	-0.21955667
221	0xbe03df02	-0.1287804
222	0xbe29b9e2	-0.16574815
223	0xbdf80d08	-0.121118605
224	0xbc0be850	-0.008539274
225	0x3e911c87	0.28342077
226	0x3de25dbf	0.11053037
227	0xbbd46347	-0.0064815613
228	0x3dfd665d	0.1237304
229	0x3d15888d	0.036507178
230	0xbbda42b9	-0.006660786
231	0x3db666c7	0.08906322
232	0x3d14f6ea	0.036368288
233	0x3b853760	0.004065439
234	0xbe50cd4f	-0.20390819
235	0xbde8231b	-0.11334821
236	0x3c99b228	0.01876171
237	0x3caae8a1	0.02086288
238	0x3d0bc5ef	0.03412431
239	0x3e5cad7c	0.21550554
240	0xbcdff35b	-0.02733772
241	0xbc0cf522	-0.008603366
242	0x3d66b246	0.05632236
243	0x3e3d1915	0.184666
244	0x3d17d55f	0.03706872
245	0xbe16a796	-0.14712366
246	0x3e72726c	0.23676461
247	0x3d7066d5	0.05869182
248	0xbd8f2948	-0.06990296
249	0x3e37cfa6	0.17950305
250	0x3dd90544	0.105967075
251	0xbdfa19f9	-0.12211985
252	0x3d58ae7a	0.05290077
253	0x3d28a7a2	0.041175492
254	0x3d85bf17	0.06530588
255	0x3ed5e650	0.41777277

cell_list.1.conv_can.weight f4 [10, 20, 3, 3]
0	0x3ce88f32	0.028388593
1	0xbc00fd48	-0.007872887
2	0x3c958a45	0.018254409
3	0x3e2a6f4a	0.16644016
4	0x3d88cf43	0.06680157
5	0xbe2e65eb	-0.17031066
6	0x3e219e08	0.1578294
7	0x3d9738c1	0.07383872
8	0xbe44771c	-0.19186062
9	0x3e129a11	0.14316584
10	0xbac89e06	-0.0015305884
11	0x3e128f2b	0.14312427
12	0xbdcfd69a	-0.10148354
13	0x3de3e841	0.11128283
14	0x3e682027	0.22668515
15	0xbc308676	-0.0107742455
16	0x3dc0f518	0.09421748
17	0x3e2e0ccc	0.16997069
18	0x3b8746e8	0.0041283257
19	0xbddb211e	-0.10699676
20	0xbd13408a	-0.03595022
21	0xbd63b598	-0.055593103
22	0xbe6268ed	-0.22110339
23	0xbe50af05	-0.20379265
24	0xbe872e97	-0.26402733
25	0xbe939a9a	-0.2882889
26	0xbe825253	-0.25453433
27	0x3b331a58	0.0027328935
28	0x3d54a72e	0.051917247
29	0x3cc83494	0.024439134
30	0x3da6330c	0.08115205
31	0xbdf4e355	-0.11957423
32	0x3c2e4a3e	0.010637818
33	0x3d993d94	0.07482448
34	0xbe176313	-0.14783888
35	0xbe3183b5	-0.17335398
36	0xbe596975	-0.21231635
37	0xbe155fff	-0.14587401
38	0xbda0c18e	-0.078494176
39	0xbd23e42c	-0.040012524
40	0xbe2fba34	-0.17160875
41	0xbda226a4	-0.07917526
42	0x3cf7b0fc	0.03023576
43	0x3c84fd83	0.016234165
44	0xbda63c95	-0.08117024
45	0x3d948b4e	0.07253133
46	0xbd7630b9	-0.06010506
47	0xbd6ed627	-0.0583097
48	0x3e1aad68	0.15105212
49	0xbde61c4e	-0.112358674
50	0xbe71c319	-0.2360958
51	0xbe084554	-0.13307697
52	0xbed84cf3	-0.42246208
53	0xbee01b3f	-0.43770787
54	0x3d3152d4	0.04329188
55	0xbbb404c1	-0.005493731
56	0xbc804fe0	-0.015663087
57	0x3dfd8fa8	0.12380916
58	0x3d8d3291	0.068944104
59	0xbc82baf7	-0.015958292
60	0x3d222c99	0.039593313
61	0xbd864bca	-0.06557424
62	0xbe1622bf	-0.14661692
63	0x3d6d8fe3	0.05799855
64	0xbdb2f627	-0.08738356
65	0x3c92aaa1	0.017903628
66	0xbc13e04a	-0.009025643
67	0x3d0f98e4	0.035057917
68	0x3c0cd367	0.008595324
69	0x3ddc8c73	0.10768976
70	0x3d3accbb	0.045605402
71	0x3dd8de08	0.10589224
72	0x3dea6e09	0.11446769
73	0x3e4a7fb1	0.19775273
74	0x3dcb3157	0.0992152
75	0xbd38a8f4	-0.045083
76	0xbe2194bb	-0.15779392
77	0xbe2b2cbf	-0.16716288
78	0xbda34abe	-0.0797324
79	0xbe81e98a	-0.2537349
80	0xbe8f69a0	-0.28010273
81	0xbdb10e78	-0.08645338
82	0xbd587660	-0.052847266
83	0x3d1c4b4e	0.038157754
84	0xbd9db0bb	-0.07699724
85	0x3d95d5f1	0.07316197
86	0x3e3a7709	0.18209471
87	0x3c61d22a	0.013783017
88	0x3d449129	0.047989998
89	0x3dbfab4c	0.09358844
90	0xbe25b87c	-0.16183656
91	0xbe3b78d9	-0.18307818
92	0xbdd01789	-0.10160739
93	0xbe05b43c	-0.13057035
94	0x3d387e80	0.045042515
95	0x3d33778b	0.043815177
96	0x3c80e46a	0.015733916
97	0xbcb289c8	-0.021794215
98	0x3e423454	0.18965274
99	0xbe365356	-0.17805228
100	0x3b14508b	0.0022631015
101	0xbc92aaed	-0.01790377
102	0xbdbe96df	-0.0930612
103	0xbdac9e21	-0.08428598
104	0x3d85496b	0.06508144
105	0xbd79047c	-0.060795292
106	0x3d2e4c6e	0.042553358
107	0x3d9bac7e	0.0760126
108	0x3e57285a	0.21011487
109	0x3dd66dda	0.10470171
110	0x3dc457b1	0.09587038
111	0x3dc7445c	0.097298354
112	0x3de68254	0.11255327
113	0xbc568bea	-0.013094882
114	0x3df684d8	0.12037057
115	0x3d2544e9	0.04034892
116	0xbd2286c8	-0.03967932
117	0xbdf0004f	-0.11718809
118	0xbcd6e678	-0.026232943
119	0xbdb4fa63	-0.0883682
120	0xbd625a9b	-0.05526219
121	0xbd668f2b	-0.05628888
122	0x3d911fd7	0.07086151
123	0xbded6a0a	-0.11592491
124	0x3dae6c58	0.08516759
125	0x3c9fa64c	0.019488476
126	0x3e0a194a	0.1348621
127	0x3dbac3aa	0.09119351
128	0x3d75dd93	0.060025763
129	0x3db18fc3	0.086699985
130	0x3b52cf06	0.0032166853
131	0x3d1ab4d7	0.03777012
132	0x3d02588d	0.03182273
133	0xbd62a84b	-0.055336278
134	0xbd3e13fa	-0.04640577
135	0x3e3c65fa	0.18398276
136	0x3dd92cc2	0.1060424
137	0xbaf789bb	-0.0018885651
138	0x3e5a146c	0.21296853
139	0x3db53827	0.08848601
140	0xbc491422	-0.012272866
141	0x3dfaff7d	0.12255762
142	0x3d04143c	0.03224586
143	0xbc405082	-0.011737945
144	0x3eaf1fa7	0.34203836
145	0x3e4862ed	0.19568987
146	0x3e642825	0.22280939
147	0x3d6726ab	0.05643336
148	0x3da53a45	0.08067755
149	0xbdea94ce	-0.114541635
150	0xbd03efb3	-0.032211017
151	0xbd6e7737	-0.05821916
152	0xbdbdd233	-0.09268608
153	0xbe738610	-0.2378161
154	0xbd9d60e4	-0.07684496
155	0xbda59242	-0.08084537
156	0xbd16e308	-0.036837608
157	0x3d2ff41f	0.04295742
158	0x3cb9e2a7	0.022691084
159	0xbd9f253e	-0.07770775
160	0x3da7f0de	0.08200239
161	0x3dd9883d	0.106216885
162	0x3e814d10	0.25254107
163	0x3e64910f	0.2232096
164	0x3e24ad01	0.16081621
165	0x3db1c303	0.08679774
166	0x3d4fdf2f	0.050749954
167	0x3e17fd78	0.14842784
168	0x3d5f10c0	0.054459333
169	0x3ac924dc	0.0015346068
170	0xbdda29fc	-0.10652539
171	0x3da78158	0.08178967
172	0x3d3e4e8c	0.046461627
173	0x3da670b9	0.08126969
174	0x3de835bc	0.11338374
175	0x3b0a49cc	0.0021101115
176	0x3d2c1ce4	0.04201974
177	0x3d8a9c7d	0.06768129
178	0xbd11b6c9	-0.035574708
179	0xbe061217	-0.13092838
180	0x3e848744	0.2588445
181	0x3e31213a	0.17297831
182	0x3dbc4066	0.091919705
183	0x3df219eb	0.1182135
184	0xbca23967	-0.019802762
185	0xbd9d054f	-0.07667028
186	0xbc1cea89	-0.009577402
187	0xbcb9e0a6	-0.022690129
188	0x3d1a46ad	0.037665058
189	0xbd0f2757	-0.034949627
190	0xbd269faa	-0.04067961
191	0xbd1d019c	-0.038331613
192	0xbd32ba37	-0.04363462
193	0x3dbf8ab8	0.093526304
194	0x3e68f87b	0.22751038
195	0x3d20c7b2	0.039252944
196	0xbc012207	-0.007881648
197	0x3e2b1993	0.16708975
198	0xbec82855	-0.3909327
199	0xbee03780	-0.43792343
200	0xbeb3c5a9	-0.3511174
201	0xbe84a17a	-0.25904447
202	0xbed45b5b	-0.4147595
203	0xbe7963d3	-0.24354486
204	0xbea44e48	-0.32090974
205	0xbe4de534	-0.20106965
206	0xbe9724af	-0.29520175
207	0x3e851fc2	0.26000792
208	0x3e7c2455	0.24623235
209	0x3dcbb9d2	0.09947552
210	0x3d38fb9b	0.045161825
211	0xbd8c4f9b	-0.06851121
212	0xbd090bcb	-0.033458512
213	0x3d520931	0.051278297
214	0xbe2ac203	-0.16675572
215	0xbdf3de2e	-0.11907612
216	0x3e3ed63b	0.1863641
217	0x3d36df0a	0.0446463
218	0x3cca9aa1	0.024731936
219	0x3e65dc18	0.2244724
220	0x3d66df7d	0.05636548
221	0xbd939dfa	-0.07207866
222	0x3f09ca48	0.5382428
223	0x3e816b17	0.25277016
224	0x3e2011e6	0.15631828
225	0xbe996929	-0.29963043
226	0xbe7a6096	-0.24450907
227	0x3df1bcf7	0.1180362
228	0xbeb989aa	-0.36237842
229	0xbec53c5c	-0.38522613
230	0xbe39ddca	-0.18151012
231	0xbe9b0ecb	-0.30284724
232	0xbe664d45	-0.22490413
233	0xbe228f13	-0.15874891
234	0x3e3cce6b	0.18438117
235	0x3be9c1a2	0.0071336785
236	0xbe10772a	-0.14107957
237	0x3e6556d5	0.22396405
238	0xbcaaf824	-0.020870276
239	0xbe0fe5a9	-0.14052452
240	0x3d2b01ba	0.041749693
241	0xbdf1ef0d	-0.118131734
242	0xbe6a871d	-0.22903104
243	0xbcd6f1f5	-0.026238421
244	0x3cfdc892	0.030979428
245	0x3dfcc98d	0.1234313
246	0x3bce32cc	0.0062926766
247	0x3dc1d111	0.094637044
248	0x3e7a6ba0	0.24455118
249	0xbd4e73dc	-0.05040346
250	0x3d92e14d	0.07171879
251	0x3e7cdb17	0.24692951
252	0xbe956550	-0.29178858
253	0xbe9c6a27	-0.30549738
254	0xbe90266b	-0.2815431
255	0xbe5fbef6	-0.2185019

cell_list.2.conv_gates.weight f4 [20, 20, 3, 3]
0	0x3ca7f5e1	0.020502986
1	0x3cae647a	0.021288145
2	0x3d872906	0.065996215
3	0xbd165bc4	-0.03670861
4	0xbde242c3	-0.1104789
5	0xbd0cdeb8	-0.03439209
6	0xbe6e8f75	-0.23296912
7	0xbdd06856	-0.101761505
8	0xbd6e6571	-0.05820221
9	0x3d793dd5	0.060849983
10	0x3b400b45	0.0029303592
11	0xbdb90ee7	-0.090360455
12	0xbcf9d1e9	-0.0304956
13	0xbd6ec22d	-0.05829065
14	0xbde1b0e0	-0.11020064
15	0x3d83769a	0.06419106
16	0xbd23122c	-0.039812252
17	0x3d26ad5c	0.040692672
18	0x3e92ab11	0.28646138
19	0x3e46088c	0.19339198
20	0x3d340ef8	0.043959588
21	0x3e324e79	0.17412747
22	0x3da1bdcc	0.07897529
23	0xbd2987ee	-0.0413894
24	0x3d054ca6	0.0325438
25	0x3ccb62c7	0.024827374
26	0xbc0fb3cf	-0.008770897
27	0xbe416369	-0.18885578
28	0xbd523e7b	-0.051329117
29	0xbd7bc70a	-0.061469115
30	0xbddd9092	-0.1081859
31	0xbdd2f400	-0.103004456
32	0x3a7feb0e	0.0009762504
33	0xbdf25653	-0.11832871
34	0xbdf5b392	-0.11997141
35	0xbe1b959d	-0.15193792
36	0x3d886f35	0.06661836
37	0xbd663e56	-0.056211792
38	0x3ce11875	0.027477482
39	0xbc7020e1	-0.014656276
40	0xbdb0c3b8	-0.086310804
41	0x3da6bf3c	0.08141944
42	0xbb86659b	-0.004101468
43	0x3d4a0020	0.049316525
44	0x3d596bda	0.05308137
45	0x3db9d60f	0.090740316
46	0xbc0493c7	-0.0080918735
47	0x3d1c3880	0.03813982
48	0xbdd4ee26	-0.10396986
49	0xbd868028	-0.065674126
50	0xbe119040	-0.14215183
51	0xbe6a7ed5	-0.22899945
52	0xbd323736	-0.043509685
53	0xbe125b56	-0.14292654
54	0xbe58454b	-0.21120183
55	0xbddae0d4	-0.10687414
56	0xbdcdf5b0	-0.10056627
57	0xbe3ebfe3	-0.18627886
58	0xbe55f580	-0.20894432
59	0xbe2a9373	-0.1665781
60	0xbe9f618d	-0.31129113
61	0xbea3ed13	-0.3201681
62	0xbeb988df	-0.36237237
63	0xbd690282	-0.056887157
64	0x3e97753f	0.2958164
65	0x3e7ab5dc	0.24483436
66	0xbea01824	-0.31268418
67	0xbda9a48a	-0.082833365
68	0x3d859876	0.0652322
69	0xbe5bc307	-0.21461116
70	0xbe7ec212	-0.2487872
71	0xbd9f77d6	-0.07786529
72	0x3ce633f7	0.02810095
73	0xbc1eb618	-0.009686969
74	0xbe048d6c	-0.12944573
75	0x3d0496f2	0.032370515
76	0xbc3c59e3	-0.01149604
77	0xbda4356c	-0.08018002
78	0x3c31b51c	0.0108464025
79	0x3cfee138	0.031113252
80	0xbbcf9f1c	-0.006336106
81	0xbe1ec815	-0.15506013
82	0xbe20e3a3	-0.15711837
83	0xbea66df5	-0.32505766
84	0xbdd92692	-0.1060306
85	0xbe3b8d12	-0.18315533
86	0xbe8a29b3	-0.2698494
87	0x3de18684	0.11011985
88	0xbd12e907	-0.035866763
89	0xbe061e43	-0.13097481
90	0x3df1e70a	0.11811645
91	0x3e8c0368	0.2734635
92	0x3e96dd52	0.2946573
93	0x3e3b70e8	0.18304789
94	0x3e4d1a2a	0.20029512
95	0x3e421fe5	0.1895748
96	0x3e08b182	0.13348964
97	0x3d9a62fd	0.07538412
98	0x3e457c46	0.19285688
99	0xbd2e8508	-0.042607337
100	0xbdcef0ad	-0.10104499
101	0xbde13b8a	-0.10997684
102	0xbdb521f9	-0.088443704
103	0xbe026ca7	-0.1273676
104	0xbda33976	-0.07969944
105	0xbdd0549d	-0.10172389
106	0xbe15819f	-0.14600228
107	0xbe6162f1	-0.220104
108	0xbd168c42	-0.036754854
109	0xbdc02243	-0.09381535
110	0xbde0d869	-0.10978777
111	0xbe1e7e65	-0.15477903
112	0xbdfd162d	-0.12357745
113	0xbd9dfe3d	-0.07714508
114	0xbe1d49c3	-0.15360169
115	0xbe6d67cc	-0.23184127
116	0xbdfbc274	-0.12292948
117	0xbd2e3ab4	-0.042536452
118	0xbe3c9cf8	-0.18419254
119	0xbe44970c	-0.19198245
120	0xbd8ec934	-0.0697197
121	0xbdcf8e27	-0.10134535
122	0xbe2cc4d7	-0.16871963
123	0xbe035eba	-0.12829104
124	0xbe12ea1c	-0.14347118
125	0xbe579bb5	-0.21055491
126	0x3e4873c1	0.19575407
127	0x3e60caeb	0.21952407
128	0x3dfa9ec9	0.12237317
129	0x3e2ab35d	0.16669984
130	0x3ddc7e73	0.10766306
131	0x3dfa3b22	0.1221831
132	0x3e19a6e3	0.15005068
133	0x3e302df3	0.17205028
134	0x3df55c49	0.119804926
135	0x3e21422a	0.15747896
136	0x3d411dbb	0.047147494
137	0x3e81ce14	0.25352538
138	0x3e0fe3f1	0.14051796
139	0x3e0a6e5e	0.13518664
140	0x3e90fdaf	0.28318545
141	0x3e3018ee	0.1719701
142	0x3e2a0186	0.16602144
143	0x3e25838a	0.1616346
144	0x3daa3e2d	0.0831264
145	0x3dd66354	0.10468164
146	0x3e2b9ad8	0.16758287
147	0x3d80b228	0.062839806
148	0x3e38edd8	0.1805948
149	0x3de71f7f	0.11285304
150	0x3d5d29d6	0.053994976
151	0x3e61ecc8	0.22062981
152	0x3e59309d	0.21209951
153	0x3e16d88a	0.1473104
154	0x3e0fd87f	0.1404743
155	0x3e5bdc18	0.21470678
156	0x3d7e505b	0.06208835
157	0x3df3b545	0.11899809
158	0x3e984840	0.29742622
159	0x3e5686ea	0.20949903
160	0x3e18fd6c	0.14940423
161	0x3e83f7c7	0.25774977
162	0x3e0227d8	0.12710512
163	0x3e831d4d	0.25608292
164	0x3e2fab12	0.17155102
165	0x3def96bf	0.116986744
166	0x3e500d9d	0.20317693
167	0x3eb56e90	0.35435915
168	0x3e785cfe	0.24254224
169	0x3e8e349f	0.27774522
170	0x3e8f5aff	0.27999112
171	0x3df0aab9	0.11751313
172	0x3e07d539	0.13264932
173	0x3e3cd0b0	0.18438983
174	0x3d9d9100	0.07693672
175	0x3d6e4844	0.058174387
176	0x3e536e8e	0.20647642
177	0x3e318e95	0.17339547
178	0x3e021fc7	0.12707435
179	0x3e73320c	0.2374956
180	0x3d19cd6c	0.03754942
181	0x3cfedd32	0.031111334
182	0xbcbed6b1	-0.023295732
183	0xbd141a8a	-0.036158122
184	0xbd92428d	-0.071416
185	0xbd2e1e43	-0.04250933
186	0xbcc6ac12	-0.024251971
187	0x3bbdd7a9	0.005793531
188	0x3d4e7445	0.050403852
189	0x3d44c5a1	0.048040036
190	0xbd93d586	-0.07218461
191	0xbe00bab6	-0.12571225
192	0x3df7962a	0.120891884
193	0x3c270c32	0.010195779
194	0xbd7abb19	-0.061213586
195	0x3e177121	0.14789249
196	0x3e3b8853	0.18313722
197	0x3d924797	0.07142561
198	0x3e6b6c73	0.22990589
199	0x3e3bb775	0.18331702
200	0x3d848b0a	0.06471832
201	0x3e12f91d	0.14352842
202	0x3e06a0a3	0.13147216
203	0x3d57da35	0.052698333
204	0x3c10ea5c	0.008844938
205	0xbc90d9a0	-0.017681897
206	0xbd3cd57e	-0.04610204
207	0xbe8fb5bc	-0.2806834
208	0xbe29a605	-0.16567238
209	0xbd995440	-0.074867725
210	0xbe15ed97	-0.14641415
211	0xbe5136b5	-0.20431025
212	0xbe2623d1	-0.162246
213	0xbe660055	-0.22461064
214	0xbe8daab0	-0.27669287
215	0xbe9d4a18	-0.30720592
216	0xbc410625	-0.01178125
217	0x3cfcfb14	0.030881442
218	0xbd2d0b14	-0.042246893
219	0x3d94d1f9	0.072666116
220	0x3dd22ca6	0.10262422
221	0x3d00caf1	0.03144354
222	0x3b285eea	0.0025691339
223	0x3d2799cb	0.040918153
224	0x3dbcfb50	0.092276216
225	0x3dd7aded	0.105312206
226	0x3d2a0f0d	0.04151826
227	0xbdccf048	-0.100067675
228	0xbe05c7b1	-0.13064457
229	0xbdd52bae	-0.10408722
230	0xbda0ed42	-0.07857753
231	0xbda36416	-0.07978074
232	0xbd2eb73b	-0.04265521
233	0xbdaa6915	-0.08320824
234	0xbe8a0373	-0.26955757
235	0xbe31f5d7	-0.17378937
236	0xbe530ba4	-0.2060991
237	0xbeb15df9	-0.34642008
238	0xbeb7701c	-0.3582772
239	0xbebd161e	-0.36930937
240	0xbeacd584	-0.3375665
241	0xbeb95d25	-0.36203876
242	0xbec876e4	-0.39153206
243	0x3debeb52	0.11519493
244	0x3de52f07	0.111906104
245	0x3e294394	0.16529685
246	0xbe542e69	-0.20720829
247	0xbd2e58d8	-0.042565197
248	0x3e067b99	0.13133086
249	0xbe070f4f	-0.13189434
250	0xbe3a0362	-0.18165353
251	0xbe08f07d	-0.13372989
252	0x3d06ce9f	0.032911893
253	0x3d086ba6	0.033305787
254	0xbe18061b	-0.14846079
255	0xbcab37a9	-0.020900564

cell_list.2.conv_can.weight f4 [10, 20, 3, 3]
0	0x3c7a3908	0.015272386
1	0xbdee70af	-0.116425864
2	0xbe3787b2	-0.17922857
3	0xbd867e5e	-0.065670714
4	0xbe2f8590	-0.17140794
5	0xbe78c9e7	-0.2429577
6	0xbe08f987	-0.13376437
7	0xbe032c20	-0.12809801
8	0xbe8a8952	-0.27057892
9	0xbdccea81	-0.100056656
10	0x3b666a31	0.003515851
11	0xbe24819d	-0.16065069
12	0xbbe02838	-0.006840732
13	0xbe2f060d	-0.17092152
14	0xbe3e6b99	-0.18595733
15	0x3d860db7	0.06545585
16	0xbdb84b18	-0.08998698
17	0xbe14bc9f	-0.14525078
18	0x3daba566	0.083811566
19	0x3e125fcb	0.14294355
20	0xbcb7b8b7	-0.022426946
21	0x3d8f94ea	0.07010825
22	0xbcbb5b9f	-0.022870837
23	0x3c5bbec2	0.013412179
24	0x3c85d155	0.016335169
25	0xbd388728	-0.04505077
26	0xbd1400be	-0.03613352
27	0xbd7c1cf2	-0.061551042
28	0xbdbe98e0	-0.09306502
29	0xbe30b357	-0.17255913
30	0xbe3cf5b1	-0.18453099
31	0xbe95bb6f	-0.29244563
32	0xbe944ea2	-0.28966242
33	0xbe54d209	-0.20783247
34	0xbe9b4ecf	-0.30333564
35	0xbedc2bb0	-0.4300208
36	0xbe4bd077	-0.19903742
37	0xbd9a7109	-0.07541091
38	0xbd83a658	-0.06428212
39	0xbdb5820b	-0.08862694
40	0xbe4eb9e3	-0.20188098
41	0xbe13c437	-0.14430319
42	0xbe6b89ef	-0.23001836
43	0xbe4e6fe6	-0.20159873
44	0xbe06a989	-0.1315061
45	0xbe4554bb	-0.19270603
46	0xbe6b4657	-0.22976051
47	0xbe741a57	-0.23838173
48	0xbeb006dc	-0.34380233
49	0xbe9e016c	-0.3086046
50	0xbe990788	-0.29888558
51	0xbe4c23c4	-0.19935519
52	0xbec5be4a	-0.38621742
53	0xbe777c17	-0.2416843
54	0xbe4308df	-0.19046353
55	0xbe915a09	-0.28389004
56	0xbe64d3f9	-0.22346486
57	0xbe510b74	-0.20414525
58	0xbec9cd59	-0.3941448
59	0xbed1e354	-0.4099375
60	0xbef343c4	-0.4751264
61	0xbf0110d5	-0.5041631
62	0xbf0e57b1	-0.55602556
63	0x3d8ab8fa	0.06773563
64	0xbdf65eae	-0.120297775
65	0xbe58aec7	-0.21160422
66	0xbe2d81c8	-0.16944039
67	0xbe5d8338	-0.21632087
68	0xbea19f6d	-0.31566945
69	0xbd64e05a	-0.05587802
70	0xbdc264a4	-0.09491852
71	0xbe34bec8	-0.17650902
72	0xbe81187b	-0.2521399
73	0xbd4b6285	-0.049654502
74	0xbd31eeac	-0.043440506
75	0xbe466e99	-0.19378127
76	0xbd9c3b3e	-0.07628487
77	0xbd398517	-0.04529294
78	0xbe0b41bf	-0.13599299
79	0xbe3b4ea2	-0.18291715
80	0xbe10cf68	-0.14141619
81	0xbe338337	-0.17530523
82	0xbe236d2b	-0.15959613
83	0xbda217c7	-0.079146914
84	0xba17a2f3	-0.0005784474
85	0xbd84d341	-0.06485606
86	0xbbf3960f	-0.00743366
87	0xbe0d40f5	-0.1379431
88	0xbd15d6b6	-0.036581717
89	0xbd1474ee	-0.036244325
90	0x3d3831cb	0.04496936
91	0x3eadf3c0	0.3397503
92	0x3eb53539	0.35392168
93	0x3d470108	0.048584968
94	0x3e0a798f	0.13522933
95	0x3ec83791	0.39104894
96	0x3d4a68fd	0.04941653
97	0x3e43f20f	0.19135307
98	0x3eba9e8d	0.3644909
99	0xbc54e930	-0.012995049
100	0xbe8fc191	-0.28077367
101	0xbe7b837c	-0.24561876
102	0xbdbd211e	-0.09234832
103	0xbeab3eda	-0.3344639
104	0xbeba32be	-0.36366838
105	0xbe4510e3	-0.19244723
106	0xbe58fc94	-0.21190101
107	0xbe2b1ee3	-0.16711001
108	0xbe1b2d50	-0.15154004
109	0xbe1c273b	-0.1524934
110	0xbd942132	-0.07232894
111	0xbe5d9bb5	-0.21641429
112	0xbe7ad03f	-0.24493502
113	0xbe66d3a8	-0.22541678
114	0xbe8773a9	-0.2645543
115	0xbe16d949	-0.14731325
116	0xbea86155	-0.32886758
117	0xbd84834d	-0.06470356
118	0xbe9dc8a1	-0.3081713
119	0xbea2fbd6	-0.3183276
120	0xbe06f57f	-0.13179587
121	0xbea3556e	-0.31901115
122	0xbec3d709	-0.38249996
123	0xbe01860f	-0.12648796
124	0xbe1d29c0	-0.15347958
125	0xbeb2ecff	-0.3494644
126	0x3ccd5801	0.025066378
127	0x3e6bff2f	0.23046564
128	0x3e5b796e	0.2143304
129	0x3e2961cc	0.16541213
130	0x3e43fa90	0.19138551
131	0x3e5caad8	0.21549547
132	0x3c680b49	0.014162847
133	0x3e4c58e0	0.19955778
134	0x3ea3c7e3	0.3198844
135	0x3dade0b0	0.08490121
136	0x3e6a58ce	0.22885439
137	0x3ef1d158	0.4723003
138	0x3e05dc43	0.13072304
139	0x3e5e5579	0.21712293
140	0x3eabdda0	0.33567524
141	0x3dc9c8e3	0.09852769
142	0x3ea2e3d2	0.31814438
143	0x3e809c58	0.2511928
144	0x3e43b347	0.19111358
145	0x3e5d0b40	0.21586323
146	0x3e83de74	0.25755656
147	0x3e2ed6ed	0.17074175
148	0x3e963c95	0.29343095
149	0x3e9d9883	0.3078042
150	0x3d3c7d24	0.04601778
151	0x3e1c28cb	0.15249936
152	0x3e18ba89	0.14914908
153	0x3d9aad47	0.07552581
154	0x3e167ad1	0.14695288
155	0x3e2975b5	0.16548808
156	0x3e282a8f	0.16422485
157	0x3e967f90	0.29394197
158	0x3ebe3063	0.3714629
159	0x3e3e8fac	0.18609494
160	0x3e5c41dd	0.215095
161	0x3ecbdbc0	0.39816093
162	0x3c8596cb	0.016307255
163	0x3e3c484f	0.18386959
164	0x3e9bdd74	0.30442393
165	0x3dc67e86	0.09692101
166	0x3eb34e87	0.3502085
167	0x3e89ba88	0.26900125
168	0x3e3654bd	0.17805763
169	0x3ea5b4f7	0.32364628
170	0x3ec17225	0.37782398
171	0xbc1f52d1	-0.009724335
172	0x3dbd19ce	0.092334375
173	0x3e67a229	0.22620453
174	0x3e1afe64	0.15136105
175	0x3dd898af	0.10575997
176	0x3dd80993	0.10548701
177	0x3d8e61bd	0.06952236
178	0x3e1764ee	0.14784595
179	0x3e915cb3	0.28391036
180	0x3d6fe866	0.05857124
181	0x3e26eed0	0.16302037
182	0x3e68d8f1	0.22739007
183	0x3dc724e6	0.09723835
184	0x3e406928	0.18790114
185	0x3e9d0316	0.30666417
186	0x3dd2b337	0.10288089
187	0x3e181f3a	0.14855662
188	0x3e4739e3	0.19455676
189	0x3deb6b68	0.114950955
190	0xbc8cd92c	-0.0171934
191	0x3e2b029a	0.16700211
192	0x3d99a709	0.075025626
193	0x3d202f56	0.039107643
194	0x3e749964	0.23886639
195	0x3ce1c543	0.027559882
196	0x3caef6bd	0.021357888
197	0x3d68ba36	0.05681821
198	0xbe021ea6	-0.12707004
199	0xbe07ee30	-0.13274455
200	0xbda713b5	-0.08158056
201	0xbe153eab	-0.14574687
202	0xbdca1e10	-0.09869015
203	0xbd225a77	-0.039637055
204	0xbdef3d88	-0.11681658
205	0x3d184371	0.037173692
206	0x3e2175fb	0.15767662
207	0x3e8389f8	0.256912
208	0x3eaebee0	0.3413
209	0x3e9aa859	0.30206564
210	0x3eb56f6b	0.35436568
211	0x3e8974fc	0.26847064
212	0x3ed38f5b	0.4132031
213	0x3e6397ea	0.2222592
214	0x3e76cf69	0.24102558
215	0x3eb8ed0d	0.36118355
216	0x3e6d94db	0.23201315
217	0x3dd312dd	0.10306332
218	0x3e66d23e	0.22541139
219	0x3eb53ee0	0.35399532
220	0x3e994ff3	0.2994381
221	0x3e3a8884	0.18216139
222	0x3e09c5ba	0.13454333
223	0x3d8a59eb	0.06755432
224	0xbb8dc2eb	-0.0043262145
225	0x3eae785b	0.340762
226	0x3e9b08c5	0.30280128
227	0x3e3affe6	0.1826168
228	0x3e95ed4e	0.29282612
229	0x3e71507a	0.23565856
230	0x3e2e2d43	0.17009453
231	0x3e84cef3	0.2593914
232	0x3e858b8d	0.2608303
233	0x3e0c9a53	0.13730745
234	0x3e863c14	0.2621771
235	0x3e62fdcf	0.22167133
236	0x3e88ee65	0.2674438
237	0x3e11ca56	0.14237341
238	0x3e383381	0.17988397
239	0x3e9feec3	0.31236848
240	0x3e6d1776	0.23153481
241	0x3e318c31	0.17338635
242	0x3eacc9d1	0.33747724
243	0x3e00b0fa	0.12567511
244	0x3e8cddf4	0.27513087
245	0x3ea8c046	0.32959193
246	0x3dc78e4d	0.097439386
247	0x3c2d49d1	0.010576681
248	0x3de9b8d8	0.11412209
249	0x3d62160a	0.0551968
250	0x3df22d0f	0.118250005
251	0x3e28795a	0.16452542
252	0x3d0a3a38	0.033746928
253	0x3d53fc7d	0.051754463
254	0x3cdf0fab	0.02722915
255	0x3e2e77a6	0.1703783

cell_list.3.conv_gates.weight f4 [20, 20, 1, 1]
0	0x3e8c1839	0.2736223
1	0xbe8484d9	-0.25882605
2	0x3d57135a	0.05250869
3	0x3f197e7c	0.59958625
4	0xbda56692	-0.08076204
5	0x3eb19fe0	0.34692287
6	0xbe5caf89	-0.21551336
7	0x3e948a85	0.29011932
8	0xbedd49eb	-0.43220457
9	0xbe157004	-0.14593512
10	0x3ef83ee0	0.4848547
11	0xbeb7290d	-0.35773507
12	0x3e8cf1d9	0.27528265
13	0x3ee17e86	0.44041842
14	0xbe19d044	-0.15020853
15	0xbf04455a	-0.5166832
16	0x3e74143c	0.23835844
17	0xbb594ff8	-0.0033159237
18	0x3e123dea	0.14281431
19	0x3f099c4d	0.5375412
20	0x3e6d60d3	0.23181467
21	0xbe739853	-0.23788576
22	0x3ea931e2	0.3304587
23	0x3e4aa4e6	0.19789466
24	0x3ce5db47	0.028058661
25	0x3e3258dc	0.1741671
26	0xbe295933	-0.16537933
27	0x3d848912	0.064714566
28	0x3c994dce	0.018713858
29	0x3e7f5947	0.249364
30	0x3e9ee7d4	0.31036246
31	0xbefbaf37	-0.49157116
32	0xbd4a9726	-0.049460553
33	0x3eb99207	0.36244223
34	0xbde5f9ce	-0.11229287
35	0xbe6971c7	-0.22797309
36	0x3e2babd6	0.16764769
37	0xbd8ba2ee	-0.06818186
38	0xbd1bbbfc	-0.038021073
39	0x3e972a9f	0.29524705
40	0x3e5aa5df	0.21352337
41	0xbe8fb4fd	-0.2806777
42	0x3e10eae8	0.1415211
43	0xbaf366c3	-0.0018570054
44	0x3ded9106	0.11599927
45	0x3e7ee1aa	0.24890772
46	0xbee355f7	-0.44401523
47	0x3de38098	0.11108512
48	0xbe306254	-0.17225009
49	0xbbe69611	-0.0070369323
50	0x3dc6593d	0.096849896
51	0xbebf7e29	-0.3740094
52	0x3e549cba	0.20762911
53	0xbd8d70f3	-0.06906309
54	0xbe0fde39	-0.14049615
55	0xbe7db65f	-0.247766
56	0x3d9fccdc	0.07802746
57	0x3d5d24ea	0.053990282
58	0x3d1db907	0.038506534
59	0x3e83350e	0.25626415
60	0x3d88a20d	0.06671534
61	0xbd5e857f	-0.05432653
62	0x3e975845	0.29559532
63	0x3ecfb03f	0.40564153
64	0xbd670ef2	-0.056410737
65	0x3e3d1582	0.18465236
66	0xbe5d7a08	-0.21628582
67	0x3c203e1e	0.009780435
68	0xbeaacdf3	-0.33360252
69	0x3d16be6a	0.036802687
70	0x3e66306d	0.2247941
71	0xbea6e4a9	-0.3259633
72	0x3d8f6a42	0.07002689
73	0x3e71997e	0.23593709
74	0xbec0a862	-0.37628466
75	0xbe1a3b26	-0.15061626
76	0x3e5d090a	0.2158548
77	0xbd24456b	-0.040105265
78	0x3e845da2	0.25852686
79	0x3e848f63	0.25890645
80	0x3e10671f	0.14101838
81	0x3c32fa95	0.010924001
82	0x3dd08ad4	0.10182729
83	0x3d058c5f	0.03260457
84	0xbe621b56	-0.2208074
85	0x3e736afd	0.23771282
86	0xbe7d0398	-0.24708402
87	0xbe26606a	-0.16247717
88	0x3dd88da2	0.10573889
89	0xbc9e2618	-0.019305274
90	0xbe3cd4b2	-0.18440512
91	0xbe66c0d5	-0.22534497
92	0x3e2fcf17	0.17168842
93	0xbe1cb2b2	-0.15302542
94	0xbd893461	-0.066994436
95	0xbe1bcf86	-0.15215883
96	0x3e13ca7a	0.14432707
97	0x3e27368d	0.16329403
98	0xbd40b12d	-0.047043968
99	0xbd321ea6	-0.04348626
100	0xbd6a2267	-0.057161715
101	0xbca134bd	-0.019678468
102	0x3dc5cd51	0.096583016
103	0x3ea89e40	0.32933235
104	0x3d28dc35	0.04122563
105	0x3df2f6ba	0.118634656
106	0xbe827336	-0.25478524
107	0xbe0f618d	-0.14002056
108	0x3d66b9c0	0.05632949
109	0x3e386bea	0.18009916
110	0x3eb401b8	0.3515756
111	0xbe9d7f90	-0.30761385
112	0x3e253750	0.16134381
113	0x3e01c62f	0.12673257
114	0xbe0e0cce	-0.13872072
115	0x3d626100	0.055268288
116	0x3e569f78	0.2095927
117	0x3d3a74e1	0.04552162
118	0xbe2adaec	-0.16685075
119	0xbd46f0db	-0.04856954
120	0x3e2515d7	0.16121612
121	0xbd132c65	-0.03593101
122	0x3e5ffc49	0.21873583
123	0xbd917d9a	-0.07104035
124	0xbcc1ba1f	-0.02364832
125	0xbeaba978	-0.33527732
126	0xbe4c7c6a	-0.19969335
127	0x3d883a29	0.06651718
128	0xbd85d84a	-0.065353945
129	0x3d8cadc0	0.06869078
130	0xbe207554	-0.15669757
131	0x3e7fcf71	0.24981476
132	0xbdc6942f	-0.096962325
133	0x3d6c1423	0.05763639
134	0xbe205098	-0.15655744
135	0xbc0c475f	-0.008561938
136	0x3d9c41f8	0.0762977
137	0xbe29374f	-0.16525005
138	0xbd5ba430	-0.05362338
139	0x3cfe460a	0.031039257
140	0x3e1fc7bf	0.15603541
141	0xbc015c19	-0.007895493
142	0xbc3d689f	-0.011560588
143	0x3e9b563d	0.30339232
144	0x3cfdc647	0.030978335
145	0x3cf04759	0.029330896
146	0xbe6f6ffb	-0.23382561
147	0xbe1fb592	-0.15596607
148	0xbe3d3a5e	-0.18479297
149	0xbd1fc7aa	-0.039008774
150	0x3e1244e4	0.14284092
151	0xbe360cde	-0.17778346
152	0xbe555215	-0.20832093
153	0x3e656e5c	0.2240538
154	0x3ce2367b	0.027613869
155	0xbeaa0b87	-0.3321192
156	0x3e51084f	0.20413326
157	0x3e854927	0.26032373
158	0xbdf86c87	-0.12130075
159	0x3d83310e	0.06405841
160	0xbdd84621	-0.10560251
161	0x3dcdd364	0.10050085
162	0xbe01bb31	-0.12669064
163	0x3e84dabb	0.25948128
164	0x3e07f720	0.13277864
165	0x3d1949f3	0.03742404
166	0xbc21d374	-0.0098770745
167	0x3da925e2	0.08259179
168	0xbd6ceaaa	-0.05784098
169	0x3e583f89	0.21117987
170	0x3d87e101	0.06634713
171	0xbe75f0b0	-0.24017596
172	0xbe2d945d	-0.16951127
173	0xbe00c1ea	-0.12573972
174	0xbe29dfdc	-0.16589302
175	0x3e883545	0.2660314
176	0x3e564841	0.20926
177	0x3e53149b	0.20613329
178	0x3e2a160b	0.16609971
179	0xbd837d91	-0.06420434
180	0xbb1a7552	-0.0023568464
181	0x3e4ab612	0.19796017
182	0x3b8fd56e	0.0043894565
183	0x3eb38a1d	0.3506631
184	0x3e348ae5	0.17631109
185	0x3d58fb72	0.052974172
186	0xbd908c44	-0.070580035
187	0x3d7cbbf3	0.06170268
188	0xbdaf52ea	-0.085607365
189	0x3bde361b	0.006781352
190	0x3e35ab21	0.17741062
191	0xbe18de4e	-0.14928553
192	0x3e7ec006	0.24877939
193	0xbd1fc6ce	-0.039007954
194	0xbdba316b	-0.09091457
195	0xbe6c900a	-0.23101822
196	0x3e32975e	0.17440554
197	0x3de04837	0.10951274
198	0x3e0193c5	0.12654026
199	0x3e9d8b36	0.30770272
200	0x3e8081bf	0.25098988
201	0xbcae7012	-0.021293674
202	0xbd59d571	-0.05318207
203	0x3ed9baf4	0.42525446
204	0x3d1fabf9	0.038982365
205	0x3e5db853	0.21652345
206	0xbefbce49	-0.4918082
207	0x3d5c1aab	0.05373637
208	0xbd08983b	-0.033348303
209	0x3e0baf70	0.13641143
210	0x3f2a0526	0.66414106
211	0xbf09a7e7	-0.53771824
212	0x3dc2d444	0.09513143
213	0x3e1bdeac	0.15221661
214	0xbe6eb3c3	-0.23310761
215	0xbe405be2	-0.1878505
216	0xbe6ca50f	-0.2310984
217	0xbdcfe0f4	-0.10150328
218	0x3e04a82b	0.12954776
219	0x3ed4d548	0.4156897
220	0x3da526b4	0.08064023
221	0xbe85483d	-0.26031676
222	0x3e2244ae	0.15846512
223	0x3e9065e5	0.2820274
224	0xbb4a3452	-0.003085394
225	0x3d735934	0.059411243
226	0xbe96f31c	-0.29482353
227	0x3e59dec4	0.21276385
228	0xbdeba218	-0.11505526
229	0xbe498e6c	-0.19683236
230	0xbcb6d432	-0.02231798
231	0x3e3348a0	0.17508173
232	0x3dc919e2	0.0981939
233	0x3e682b2e	0.22672722
234	0x3dab9f9e	0.08380054
235	0xbe0fea73	-0.14054279
236	0xbcd12c24	-0.025533743
237	0x3c7b3395	0.015332122
238	0x3e100ac5	0.14066608
239	0xbdef4556	-0.11683147
240	0x3e5b8198	0.21436155
241	0x3db554f2	0.08854093
242	0x3e80c088	0.2514689
243	0x3d2fa82c	0.04288499
244	0xbde69146	-0.112581775
245	0x3e094af1	0.13407494
246	0x3e9b17bc	0.30291545
247	0x3d1858ca	0.03719405
248	0x3e5c37f4	0.2150572
249	0x3ccfb57b	0.025355091
250	0xbe0b3fdb	-0.13598578
251	0xbd5377d0	-0.051627934
252	0xbe105692	-0.14095524
253	0xbe7ecb1b	-0.24882166
254	0x3ec9596d	0.3932604
255	0x3db0bc0e	0.086296186
