saved_models/ambaudio_brainlike/brainlike_MPC_9.pt (torch, 118396 bytes, 14 tensors)

cell_list.0.conv_gates.weight f4 [20, 11, 3, 3]
000000 ff 11 5c 3f c5 ed 73 3f 5f 0d 8a 3f 32 d0 4f 3f
       0.8596496 0.9528468 1.078533 0.81177056
000010 0a d0 78 3f bb 1e 87 3f 0a 72 e1 3e 3f a2 34 3f
       0.9719244 1.0556253 0.44032317 0.7056007
000020 35 c4 23 3f 72 13 02 3f 8b 83 00 3f 1c bf 89 3e
       0.63971263 0.5081092 0.5020072 0.26903617
000030 32 08 88 3e c6 e4 15 bf 07 e7 12 3e 91 1e 50 3e
       0.26568753 -0.58552206 0.14345942 0.2032416
000040 b6 88 2f 3e 3d 14 0d 3d 22 09 e9 3e 7e d2 95 3e
       0.17141995 0.03444313 0.4551478 0.29262155
000050 01 ed 3f 3e 25 11 c7 3d 61 94 cc bc 0a f0 23 be
       0.18742754 0.09720067 -0.024973096 -0.16009536
000060 51 33 9a be fe 16 f3 be 65 28 db be 96 68 df 3e
       -0.30117276 -0.4747848 -0.42804256 0.4363448
000070 cb e2 a3 3e 3d 0c f5 3d d3 1e 0b 3c 07 c5 a9 bd
       0.32008967 0.11965225 0.008491236 -0.08289533
000080 34 71 35 be d9 73 7e be 50 7b 95 be c5 a5 f4 be
       -0.17718965 -0.2484888 -0.29195642 -0.47782722
000090 03 7c d8 bf ad 7e b2 bf 35 96 82 bf 27 c1 74 bf
       -1.6912845 -1.3944908 -1.020209 -0.9560723
0000a0 ca ca 21 bf a4 a7 fa be 21 3b ce bb 0e 63 2a 3e
       -0.63200057 -0.48956025 -0.00629367 0.16639349
0000b0 84 6a 7f 3e 2c 5f e8 3e 52 14 8b 3e e8 59 86 3e
       0.24942976 0.4538511 0.2716394 0.26240468
0000c0 26 c2 3a 3e 86 c6 0f bd 98 dd 9f 3a 79 50 31 bd
       0.18238124 -0.035101436 0.0012196777 -0.043289635
0000d0 be 39 d3 bd 24 ec 3f be 18 61 9c bf 6e 48 82 bf
       -0.10313748 -0.18742424 -1.2217131 -1.0178354
0000e0 c4 45 3c bf 13 81 1f bf 62 ab db be 93 32 07 bd
       -0.73543954 -0.62306327 -0.42904192 -0.033007216
0000f0 77 c5 30 3e fb 82 d1 3e a9 0b 13 3f 15 43 11 3f
       0.17262827 0.40920243 0.57439667 0.56742984
000100 27 10 d3 3e f4 19 59 3e ae 5d a2 3e 18 32 96 3e
       0.4122326 0.21201307 0.31712097 0.29335093
000110 80 8c a8 3d fc 8d 73 3e 91 f1 97 3d 6a ac ed bd
       0.08229923 0.23784631 0.07419122 -0.11605151
000120 da 30 c9 be bd 69 36 bd f2 e7 20 be c7 8e 54 3d
       -0.39295083 -0.044534434 -0.1571348 0.051893976
000130 4f 44 51 3e 7e 79 e5 3d 7f 79 93 3e ae d8 f4 3e
       0.20436214 0.112048134 0.28803632 0.47821563
000140 43 1d de 3e 5f 5c c8 3e c5 0e 87 3e 40 b9 0e 3e
       0.433817 0.39132974 0.26378456 0.13937855
000150 d8 5d c3 3d 7c 6f f5 3d 31 a8 24 bd 24 8a 20 be
       0.09539384 0.119841546 -0.040199462 -0.15677696
000160 54 4a f4 bd f6 18 89 be f0 22 a3 be e5 70 99 be
       -0.119282395 -0.26776856 -0.31862593 -0.29968944
000170 54 c5 59 be 06 33 0a bd 97 61 30 3c 2b ba cf 3d
       -0.21266681 -0.033740066 0.010765455 0.101429306
000180 95 a5 82 3e 98 79 83 3e 57 3a cf 3e f3 08 7e bf
       0.25516954 0.25678706 0.40474197 -0.99232405
000190 d1 a3 85 bf 95 8e 6d bf 97 9b a6 bf df 8c b2 bf
       -1.0440618 -0.9279569 -1.3016232 -1.394924
0001a0 bf 1d c8 bf 8e b5 8f bf e2 88 95 bf ea c0 ac bf
       -1.5634078 -1.1227281 -1.1682398 -1.3496373
0001b0 ce 6b a9 be 24 33 93 be 18 11 3b be cd b2 69 bb
       -0.3309006 -0.28749955 -0.1826824 -0.0035659552
0001c0 30 cd 7d 3d 43 36 74 3e ae 86 99 3e 05 d9 bd 3e
       0.06196326 0.23848824 0.29985565 0.37079635
0001d0 3c f2 e9 3e c5 68 20 bf 7d 9f 15 bf 7a f9 ba be
       0.45692623 -0.62659866 -0.58446485 -0.3651846
0001e0 e8 5d 8c be 5f c8 1f bf eb 10 94 3d 52 8c ac 3d
       -0.27415395 -0.6241512 0.07229789 0.084252015
0001f0 77 a5 90 3d 68 12 cb 3e 7e e8 3a bf e2 79 00 bf
       0.0706281 0.3966248 -0.73011005 -0.5018598
000200 e2 50 94 be da 0c 85 be ab 56 08 3e cd 69 2e 3d
       -0.2896796 -0.25986367 0.13314311 0.04258137
000210 98 cf b4 3d 1d 37 98 3e 95 c0 a7 3e f0 9b b5 3f
       0.08828658 0.29729548 0.32764116 1.4188213
000220 4e ad 95 3f 22 6a 57 3f 75 e9 60 3f b2 23 0a 3f
       1.1693513 0.8414632 0.8785623 0.53960717
000230 20 80 d5 3e 78 b0 79 3e 93 48 5f bd e7 1a fd bd
       0.41699314 0.24383724 -0.05451257 -0.12358647
000240 80 e8 f2 be 70 05 a9 be 56 ae 8b be 8d c2 2d bd
       -0.47443008 -0.3301196 -0.27281445 -0.042421866
000250 8e 51 9b 3d 62 c9 bd 3d af f0 79 3e 14 80 9c 3e
       0.07583915 0.09266926 0.2440822 0.30566466
000260 60 d9 dd 3e 1f 2a d9 3f c7 df b0 3f 8a cf 88 3f
       0.43329906 1.6965979 1.3818291 1.0688336
000270 62 00 8d 3f c8 20 2f 3f 86 6b ef 3e 8a cc a8 3e
       1.1015742 0.68409395 0.4676172 0.3296855
000280 2b 4d c1 3d fb e0 28 be 6b 0a d2 be 26 8b 37 be
       0.09438547 -0.16492073 -0.41023573 -0.17924175
000290 24 c6 ff bd ea f3 c8 3a 6c 8f 03 3e 04 c2 92 3e
       -0.12488964 0.0015331481 0.1284768 0.28663647
0002a0 56 47 8a 3e a9 6a 94 3e 78 c5 ca 3e 3e 36 1e 3f
       0.2700755 0.28987625 0.39603782 0.61801517
0002b0 a1 d5 c8 3e 6c 8b 8d 3e 7e 30 28 3e 32 a3 e2 bd
       0.39225486 0.27645433 0.16424748 -0.11066283
0002c0 23 f9 d7 bd 8e 20 43 be 64 fe 73 be 82 52 88 be
       -0.10545566 -0.19055387 -0.23827511 -0.26625448
0002d0 17 14 07 bf c0 11 c3 be 7d 6d 99 be 48 e3 29 be
       -0.5276503 -0.3809948 -0.29966345 -0.16590607
0002e0 aa 07 55 3d dd 0e 28 3d d6 36 1d 3e 5b ff 0e 3e
       0.052009262 0.0410298 0.1535295 0.13964598
0002f0 6a 9a b8 3e ec 93 3d 3f e3 0d c8 3e c8 74 80 3e
       0.3605531 0.74053836 0.39073095 0.25089097
000300 42 6e 74 bc d7 c1 4c be 9b 7b 67 be 39 df 3c be
       -0.014918866 -0.19995819 -0.22605745 -0.18444528
000310 25 69 bf be 8d 65 e9 be 24 af 3a bf 2d d2 34 bf
       -0.37384906 -0.4558529 -0.72923493 -0.706332
000320 8d f9 5c bf f7 fb 90 bf 44 1f 9a bf 53 1d bb bf
       -0.86318284 -1.1326894 -1.2040792 -1.4618324
000330 07 d8 62 bf 67 34 84 bf 67 76 ad bf 51 ac ef be
       -0.8861088 -1.0328492 -1.3551759 -0.46811154
000340 b4 00 8e be c4 5d 9a bd 0b 51 f5 3d 7f 6b 2f 3e
       -0.2773491 -0.075374156 0.11978348 0.1713085
000350 99 47 95 3e 0a a7 b9 3e e1 ff f4 3e 3c 62 19 3f
       0.29156187 0.36260253 0.4785147 0.5991552
000360 ff 2a 2d bf b5 03 f4 be be 31 d2 be 39 b3 51 be
       -0.6764373 -0.47659078 -0.41053575 -0.20478524
000370 e5 92 0b bd 24 1d 56 bd e0 d9 f1 3d 5e fc 31 3e
       -0.034075636 -0.052273884 0.118091345 0.17381427
000380 b1 a4 8b 3e da ed 44 bf e8 80 1b bf 4b bd c8 be
       0.27274087 -0.7692543 -0.6074357 -0.3920692
000390 ee d5 5e be 8b 25 0a bf f4 86 38 3d c2 5d 83 3e
       -0.21761295 -0.53963536 0.045050576 0.2565747
0003a0 fa 3f b5 3e 69 0e b2 3e 6f 5b c6 3f 49 3b ac 3f
       0.35400373 0.3477662 1.5496653 1.3455592
0003b0 87 11 8d 3f c1 09 76 3f 2b b8 2e 3f 58 6d fb 3e
       1.1020974 0.96108633 0.6824977 0.4910686
0003c0 50 44 a9 3e 53 f2 a0 3d 3f 94 48 be 0e c8 14 bf
       0.3305993 0.0785872 -0.19587801 -0.5811776
0003d0 e8 54 78 be 12 f1 3c be 1c 6b e9 bd 5e 0e 1d 3e
       -0.24251139 -0.18451336 -0.113973826 0.15337512
0003e0 e1 b6 da 3d b8 82 8c 3e c3 02 95 3e 0d 5a e9 3e
       0.10679413 0.2744348 0.2910367 0.45576516
0003f0 63 a0 ce 3f de 72 b2 3f 31 89 8a 3f b3 40 72 3f
       1.6142696 1.3941305 1.0823117 0.94629973

cell_list.0.conv_can.weight f4 [10, 11, 3, 3]
000000 73 aa b2 3e ad 29 e9 3d 4f 8f 1e 3e 9b bc 59 be
       0.34895667 0.11384902 0.15484355 -0.21263354
000010 7a 9f e8 be 81 82 0a bf 54 07 14 bf 28 83 3a bf
       -0.4543417 -0.54105383 -0.5782368 -0.7285638
000020 62 95 3b bf ee cd 22 be 9e 51 49 be 36 98 fb bc
       -0.73274815 -0.15898868 -0.1966004 -0.030712228
000030 b6 7d 55 be 7e 40 3e be 00 ab 04 bd ea 2b 9b be
       -0.20848736 -0.1857929 -0.03238964 -0.3030694
000040 6c ae 63 be 76 1e 8a bd 0a 94 1b bf 95 30 a9 be
       -0.22234505 -0.06744091 -0.60772765 -0.33044878
000050 4e 81 f8 bd 4a e9 21 bf 32 5a 02 bf b3 d8 87 be
       -0.12134038 -0.63246596 -0.5091888 -0.26532516
000060 90 bd 0a bf 2d f5 a8 be ea a6 b5 be b9 d8 00 bf
       -0.541955 -0.32999554 -0.35478908 -0.5033069
000070 c6 66 ed be ca 2a f4 bd 8b 4e fa be 8a 24 00 bf
       -0.46367472 -0.11922224 -0.4888805 -0.50055754
000080 36 98 ab be 48 fd 09 bf 0e 2d 14 bf 6c 88 84 be
       -0.33514565 -0.539021 -0.5788125 -0.25885332
000090 cb 36 50 be 91 47 45 3e ef 4b 1e 3f 12 8f 31 3e
       -0.20333402 0.19265582 0.61834615 0.17339733
0000a0 3f 03 11 3e e4 5d a1 3e 9a 34 d5 3e 77 fb 03 3f
       0.14161395 0.31516945 0.41641694 0.5155558
0000b0 bd 01 19 3f 42 da 3f bf 08 62 ba be 5d be 03 be
       0.5976828 -0.7494241 -0.36402917 -0.12865587
0000c0 ae 1a 04 bf c0 25 01 bf 56 fb 6c be 4b 4a b4 be
       -0.5160321 -0.50448227 -0.23142752 -0.3521293
0000d0 85 c1 ca be 0b aa 3f be 0f 7d 60 3e 51 e2 ad 3e
       -0.3960077 -0.1871721 0.21922706 0.33961728
0000e0 7d 00 05 3f fa 72 b9 3e 71 1e dc 3e 24 2b 4c 3f
       0.5195387 0.36220533 0.42991975 0.7975333
0000f0 b6 62 2c 3f 91 7d 53 3f f9 67 8f 3f 12 e4 2e bf
       0.6733812 0.82613474 1.1203605 -0.6831676
000100 2a 58 0f bf 72 c7 41 bf fe e5 38 bf cb 17 39 bf
       -0.559939 -0.75694954 -0.7222594 -0.7230193
000110 2b ff 19 bf d0 82 66 bf 27 72 62 bf 3a 8a 73 bf
       -0.6015498 -0.90043354 -0.8845543 -0.9513279
000120 77 65 18 be c4 67 40 be e8 54 99 bd 60 e5 19 3e
       -0.14882456 -0.18789583 -0.07486898 0.15028906
000130 81 76 ef 3d 2c 1f 84 3e 99 3b 49 3e 2d c6 c8 3e
       0.11692525 0.25805032 0.19651641 0.39213696
000140 ab 34 88 3e 61 b9 01 3f ac 10 db 3e 42 f9 0d 3e
       0.26602682 0.5067349 0.42786157 0.13864616
000150 d1 d6 46 3e 38 c4 4c 3d fe f9 1f be 7c 28 05 3e
       0.19417883 0.049991816 -0.15622708 0.13003725
000160 55 c6 3e bd c9 8f c7 be 24 fe b9 be f6 59 23 be
       -0.046575863 -0.38976887 -0.36326706 -0.15952286
000170 b7 1a 23 3e 88 bd 45 be 01 0d 66 bc 2e 94 6a 3e
       0.1592816 -0.19310582 -0.014041186 0.22908089
000180 13 bf d1 3e 3f 41 01 3f 60 3f 59 3f d3 20 77 bf
       0.4096609 0.5049018 0.8486233 -0.9653446
000190 b8 51 69 bf 3a d3 2b bf fb 19 03 bf d2 ca 6f be
       -0.9114032 -0.6711918 -0.5121152 -0.23417214
0001a0 f5 51 d3 bd d7 a6 23 3f dc 10 4f 3f 35 12 95 3f
       -0.103183664 0.6392645 0.808851 1.1646181
0001b0 cf bd 0c 3f b4 eb f6 3e a5 16 e9 3e 10 df 26 3f
       0.54977125 0.48226702 0.4552509 0.65184116
0001c0 71 9d 0f 3f cc 95 2b 3f f5 c8 46 3f 8d 90 6b 3f
       0.5609961 0.67025447 0.77650386 0.9201744
0001d0 32 7a 65 3f e4 16 8a bf 34 0d 28 bf 4d 04 18 bf
       0.8963958 -1.0788236 -0.65645146 -0.5938156
0001e0 76 94 c1 be 97 d1 1c be 91 22 af bc 32 89 be bd
       -0.3780858 -0.15314327 -0.021378787 -0.09303512
0001f0 97 63 ed 3d cd b4 05 3e fe c2 8a bf 3d 63 3b bf
       0.11591261 0.13057251 -1.0840757 -0.731983
000200 42 c8 02 bf b1 ab f1 be dc 1e 29 be 6f 8c 26 be
       -0.5108682 -0.47201303 -0.16515678 -0.16264509
000210 11 55 25 be 49 bd 77 3c 79 46 cd 3a 22 0c e6 3f
       -0.16145732 0.015120813 0.0015661261 1.7972453
000220 b2 5f b4 3f 3e 24 77 3f 56 be 7d 3f 98 00 19 3f
       1.4091704 0.96539676 0.99118555 0.5976653
000230 93 ef 84 3e a1 d3 26 be 07 2d b5 be af 51 1d bf
       0.2596403 -0.16291668 -0.35385916 -0.61452764
000240 20 23 09 3e 00 bf 3b 3e 5c e0 14 3e a0 98 40 3e
       0.13392305 0.1833458 0.14538711 0.18808222
000250 f7 2c 96 3e 15 c5 ab 3e 93 85 e7 3e 9a 43 12 3f
       0.2933118 0.335488 0.45219097 0.571344
000260 a9 99 f6 3e c0 0f a6 3f 14 c2 65 3f 40 07 35 3f
       0.48164108 1.2973557 0.89749265 0.7071419
000270 0d a9 18 3f 2a 4f 2f 3e be 98 08 3d c6 d1 0e be
       0.5963295 0.17120042 0.03334879 -0.1394721
000280 eb 3e df be 36 23 0c bf 9c 64 19 3f d7 5e 04 3f
       -0.4360269 -0.5474123 0.5991914 0.51707214
000290 80 47 bb 3e 76 dd 35 3f f5 b5 17 3f 75 6d 00 3f
       0.36577988 0.7104105 0.5926202 0.5016702
0002a0 0b 54 4c 3f 45 83 3d 3f b5 ab 3c 3f d2 a3 8d 3f
       0.7981574 0.74028426 0.73699504 1.1065619
0002b0 c7 20 3b 3f f3 4c 13 3f 52 a7 0b 3f b6 b4 6c 3e
       0.7309689 0.5753929 0.54552186 0.23115811
0002c0 fd 5d 65 3e ea 89 54 3e 63 22 f5 3d 91 a6 f6 3d
       0.22399135 0.20755735 0.11969449 0.12043489
0002d0 66 8d 24 3e 7c e5 62 3e cb d3 65 3e 17 82 dd 3e
       0.16069564 0.22157854 0.22444074 0.43263313
0002e0 ad fa be 3e 47 c4 e3 3e c2 d5 06 3f 22 c3 1e 3f
       0.37300625 0.44485685 0.5266992 0.620165
0002f0 02 f2 34 3f 37 1a 8a 3f ee 4a 2e 3f a6 e1 16 3f
       0.70681775 1.078925 0.68083084 0.5893806
000300 25 5b ed 3e 79 d6 90 3d cf 94 5a 3d 67 e0 a7 3d
       0.463586 0.070721574 0.05336457 0.08197098
000310 64 1f f2 bd cb 33 f6 bd e1 81 83 bf c5 e0 5d bf
       -0.118223935 -0.120215975 -1.0274011 -0.86671096
000320 ce 59 0f bf fb 1a 01 bf 43 3e 9a be 8c 6b b4 bd
       -0.55996406 -0.50431794 -0.30125627 -0.088095754
000330 08 40 06 3f 14 30 49 3f c6 ea 64 3f e7 a5 e5 3e
       0.52441454 0.78588986 0.89420736 0.44853136
000340 ee 50 e8 3e e7 91 cd 3e fc dc 27 3f fc ac 14 3f
       0.45374244 0.40150377 0.6557157 0.58076453
000350 46 b5 16 3f ae d3 4a 3f a7 de 70 3f 73 b2 81 3f
       0.5887035 0.7922925 0.9408974 1.0132583
000360 2c 07 87 bf 8b d0 30 bf 8a b3 24 bf 6a 68 8e be
       -1.0549064 -0.6906821 -0.64336455 -0.27814037
000370 d2 ff ba bd a4 22 3c 3c 57 26 b2 3d 1e 8c f5 3d
       -0.09130825 0.011482868 0.08698719 0.11989616
000380 b8 d8 53 3e d3 14 8d bf f3 bb 52 bf 8c af 0a bf
       0.2068814 -1.102198 -0.8231804 -0.54174113
000390 47 2a b0 be 60 0f d0 bd 8c fd 00 3c 8a 01 36 3d
       -0.34407255 -0.101591825 0.00787295 0.04443506
0003a0 88 86 32 3e 2c b4 37 3e 5e 84 e0 3f 4c 4d a0 3f
       0.17434132 0.17939824 1.7540395 1.2523589
0003b0 b6 01 61 3f db d5 0c 3f cb f2 97 3e f7 07 75 3d
       0.87893236 0.5501382 0.29677424 0.05982205
0003c0 4b 6d 97 be 82 09 d7 be 49 2e 06 bf 9b 71 8a 3d
       -0.2957557 -0.4199944 -0.52414376 0.0675995
0003d0 4f 8f 81 bc 69 a1 29 3e 80 d1 9d 3e 43 62 85 3e
       -0.015815405 0.1656548 0.30823898 0.2605153
0003e0 c6 e9 ce 3e 51 57 00 3f 38 17 18 3f d1 e7 27 3f
       0.4041273 0.50133234 0.5941043 0.655881
0003f0 6b 83 99 3f 0e 13 3e 3f c6 97 05 3f f1 be a8 3e
       1.199323 0.74247825 0.5218471 0.32958177

cell_list.1.conv_gates.weight f4 [20, 20, 3, 3]
000000 e3 cf 2f be c6 ca 95 bd ed a0 03 bf c3 0e 68 be
       -0.17169146 -0.073140666 -0.5141743 -0.22661881
000010 a4 f2 54 be 1b 72 e5 be 6f f4 90 be dd 8b 8e be
       -0.20795685 -0.44813618 -0.28311488 -0.27841082
000020 f4 f2 d3 be 35 05 79 bd 3f 41 6e 3e 37 14 c2 bd
       -0.41396296 -0.06079598 0.23267077 -0.09476512
000030 87 56 b3 3d ff 97 82 3e 86 97 b1 3d 63 9b 59 bd
       0.08756738 0.2550659 0.08671479 -0.053126704
000040 3e 5b 68 3d 65 ed 68 3c b2 e2 b9 3e 02 c6 e9 3e
       0.05672764 0.0142167555 0.36305767 0.4565888
000050 44 85 00 3f da 64 93 3e 9d f9 00 3f 49 6b d4 3e
       0.5020335 0.2878788 0.5038088 0.41488102
000060 fb 07 88 3d af 8d c2 3d 91 10 a0 3d ac 33 c6 bd
       0.06642147 0.0949968 0.0781566 -0.096778244
000070 52 6b 5b bd f9 be 95 3e f1 c2 2f bd 26 96 3b 3d
       -0.053569146 0.29247263 -0.04291052 0.04579749
000080 f2 f8 d0 3e 9e 2f 32 3e bf 33 8a 3e 25 bc df 3e
       0.4081493 0.17400977 0.26992604 0.4369823
000090 68 53 38 bd 53 db 0b 3e 6f 60 b5 3c 9f c1 04 3e
       -0.045001417 0.13657884 0.02214071 0.12964486
0000a0 28 53 d5 3d 11 3f 95 3d d1 e2 ae bc 1e 62 79 bd
       0.104162514 0.072874196 -0.021348389 -0.060884587
0000b0 58 ed 5e be 5f 6a c9 be 7d 97 92 be 43 17 c0 be
       -0.21770227 -0.39338967 -0.286312 -0.37517747
0000c0 3e 2b 35 be d1 f5 8a be 3d 54 a8 be b9 dc 5e 3d
       -0.17692277 -0.27140668 -0.3287677 0.054409716
0000d0 8e 34 92 bd 21 7d 02 be 97 02 5e 3e e7 0f d3 bc
       -0.0713893 -0.12743045 0.21680675 -0.025764419
0000e0 ef ff 53 3e ef 4c 2b 3e 40 2d 15 3e 63 2b 06 3e
       0.207031 0.16728567 0.14568043 0.13102488
0000f0 17 4b cf be 61 f0 f4 be dd 2e 42 be 94 0f d8 3e
       -0.40486977 -0.47839645 -0.1896319 0.42199385
000100 6f aa 36 3e ad 88 ce 3e ef cf f3 3e eb 29 c8 3d
       0.17838453 0.4033865 0.47619578 0.0977362
000110 5f 38 33 3e a5 0b 8f 3e 6d 03 7c 3d 02 4c 9a 3e
       0.17501973 0.27938572 0.061526705 0.30136114
000120 95 f7 54 3d 8f dc 8c 3e 1b ee 1f 3f 76 b8 ad 3c
       0.051993925 0.27512023 0.62472695 0.021206122
000130 b1 ac 87 3e 20 db c2 3e 4a ed 04 3d a8 f7 57 3e
       0.2649894 0.38057804 0.03245286 0.21090567
000140 c6 1a 80 3e 40 23 7c bd b8 cd f8 be 1c 5d 0c bf
       0.25020427 -0.061557055 -0.4859445 -0.54829574
000150 7b 32 90 be 0e 3b f0 be 26 b9 02 bf 95 ef 6b be
       -0.28163514 -0.46920055 -0.51063764 -0.23040612
000160 77 a1 13 bf a8 34 46 bf b2 60 4b 3e 14 b3 6f 3e
       -0.5766825 -0.774241 0.19861105 0.23408157
000170 68 49 b5 3e 97 7f 73 3e 11 07 c9 3e 17 f8 ef 3e
       0.35407567 0.2377914 0.39263204 0.46868965
000180 da fe 34 3e f7 54 80 3e c9 12 47 3e 90 43 2c bd
       0.17675343 0.25064823 0.1944076 -0.04205662
000190 be fb 4a be 3a 7a e7 be 7d f0 64 bc 4f 31 fe bd
       -0.19822595 -0.4521044 -0.0139733525 -0.124117486
0001a0 58 ed b4 be 3a 68 3f 3d c5 d3 85 bd bb 17 aa bd
       -0.3533733 0.046730258 -0.065345325 -0.083053075
0001b0 62 d4 40 bd c5 2b f2 bd ab e6 71 3e 8c db 23 be
       -0.047077544 -0.118247546 0.23623149 -0.16001719
0001c0 e5 6f 21 be c0 ca c1 bd 8f 14 39 be 58 68 9d be
       -0.1576534 -0.094624996 -0.18074249 -0.3074367
0001d0 ef 7b 8e be a3 c8 f1 3e 1e 17 47 3e 89 00 72 3e
       -0.2782893 0.47223386 0.19442412 0.23633017
0001e0 6a 17 85 3e b6 75 a7 3d b2 9a e7 3d fe ba 6a bd
       0.25994426 0.081767485 0.11308803 -0.057307236
0001f0 2f 9e 44 bd 1a 28 94 3c af f6 bd 3c a0 17 d3 3d
       -0.048002418 0.018085528 0.023188917 0.103072405
000200 66 4f 97 3e 86 cd 0b be c6 d7 72 bd ef 2b 11 3e
       0.29552764 -0.1365262 -0.05928781 0.14176916
000210 f0 9d a7 be 0d 6e 91 be 0a e1 8d bd b3 b8 40 be
       -0.32737684 -0.28404275 -0.069276884 -0.18820457
000220 9e 49 60 be d5 91 ab be 5a da 6c be 67 51 88 be
       -0.21903083 -0.335097 -0.2313017 -0.26624605
000230 e2 49 f3 be 93 2c 5a be ed 4b 2c be 05 92 a1 be
       -0.47517306 -0.21306066 -0.16825838 -0.31556717
000240 50 8f 21 bd 51 c9 37 3e d1 61 dd 3e bc 40 41 3c
       -0.039443314 0.1794789 0.4323869 0.011795219
000250 0b ec 31 3e fc 95 a2 3e dd 84 22 be b9 bf b2 bd
       0.173752 0.31755054 -0.15870996 -0.087279744
000260 a8 65 10 3d d2 54 78 3d c6 41 56 3d 8d 2a e8 be
       0.035253197 0.060627766 0.05230882 -0.45344964
000270 1f d9 31 3e 96 5a 08 3e b3 1a d9 bd cd 4c 70 3e
       0.17367981 0.13315806 -0.106007956 0.23466797
000280 6b 7b 49 3e c0 a1 e1 bd 7a 14 9b 3e 70 97 83 3e
       0.19675986 -0.110171795 0.3028906 0.25701475
000290 2b a9 6e 3c bf ab 42 3e 1d 42 37 3d b7 a2 69 bd
       0.0145667 0.19010828 0.044740785 -0.057039943
0002a0 cf c1 80 3d 2d 37 3f bd 9a c3 87 bd 51 fe 5b be
       0.06286966 -0.04668348 -0.06629105 -0.21483733
0002b0 9f 39 7f be 21 ca ce be 22 26 d8 bd 12 78 3b be
       -0.24924324 -0.40388587 -0.10554148 -0.18307522
0002c0 3b 08 b7 be c2 09 49 be a3 92 76 be 8b 35 eb be
       -0.35748467 -0.19632629 -0.24079375 -0.45939288
0002d0 dc d5 2d 3f 99 21 28 3f 01 22 1a 3e 9d 52 94 3e
       0.6790445 0.65676266 0.15052034 0.2896928
0002e0 6a 0e 9c 3d 19 8e cd be 90 05 a0 be 7d 85 17 bf
       0.07619937 -0.40147474 -0.31254244 -0.5918806
0002f0 7f 3c 43 bf 18 30 3a 3f 29 68 40 3f a9 59 24 3f
       -0.76264185 0.72729635 0.75158936 0.6419931
000300 13 e3 0c bf b1 fd b9 be 57 ec 03 bf bc 8a 82 bf
       -0.5503399 -0.36326364 -0.515325 -1.0198588
000310 5a cf 59 bf a8 e2 71 bf cc 07 80 3e 3c d7 d2 3d
       -0.8508202 -0.94486475 0.2500595 0.10294959
000320 71 fa 9c bd e6 90 20 be 9a 7b a4 be 89 3c 89 be
       -0.076649554 -0.15680274 -0.3212555 -0.26803997
000330 78 0b ec be 48 be 06 bf 54 b0 de be 91 0d ca 3d
       -0.461025 -0.52634096 -0.43493903 0.09865869
000340 b3 71 0e 3f 41 c5 51 3f fb 89 2a 3f 6e 51 75 3f
       0.5564224 0.8194161 0.6661679 0.95827377
000350 26 79 8e 3f a0 ce 6c 3f a9 27 96 3f 43 ee 61 3f
       1.1130722 0.92502785 1.1730853 0.88254184
000360 1d 8a b0 3f bd ce 9f 3f 7e 70 ce 3e ed d6 9f 3f
       1.3792149 1.2484967 0.403202 1.2487465
000370 0e eb 25 3f e1 f5 a7 bd 19 eb 98 3e c3 6f 7c be
       0.6481179 -0.082011946 0.29866865 -0.24652009
000380 b4 c9 4a bf 61 af 07 3f ce 14 18 3f 26 5a bc 3e
       -0.79214025 0.5300198 0.59406745 0.36787528
000390 07 17 f4 3e 80 ae 15 3f c2 2b ec 3d be 6d cc 3e
       0.47673818 0.5846939 0.11531784 0.39927477
0003a0 d0 7d 81 3e b6 64 57 bd 0f 5e af be 00 ba 2b bf
       0.252913 -0.05258628 -0.3425145 -0.6708069
0003b0 f7 38 6c bf 85 7b a9 bf c5 08 b8 bf 2d 18 d5 bf
       -0.9227442 -1.324082 -1.4377676 -1.6648003
0003c0 48 a9 af bf 9d 4f 9f bf a4 f2 9e bf 19 a4 15 3e
       -1.3723536 -1.2446171 -1.2417798 0.1461338
0003d0 9e fc ed be bc b9 f7 be 8e d1 84 be aa 5a 2b bf
       -0.46481794 -0.48383892 -0.25941128 -0.6693522
0003e0 9f 09 31 bf b1 e3 cd bf 08 27 c5 bf 99 20 ae bf
       -0.69155306 -1.6085111 -1.5402536 -1.3603698
0003f0 ba 35 80 bf 1c ed 1d bf 34 cb 99 be 91 59 83 3c
       -1.0016396 -0.61689925 -0.30037844 0.01603392

cell_list.1.conv_can.weight f4 [10, 20, 3, 3]
000000 38 7d 03 bf a3 e3 04 be 6a 60 94 3c 94 c3 ee 3e
       -0.51362944 -0.12977462 0.01811238 0.4663359
000010 4e 5f 18 3f 0e 07 ae 3e 73 f3 8c bd 35 32 69 3c
       0.59520423 0.33989757 -0.06882372 0.014233162
000020 cc 0f 39 be 3b 5c 33 3e 4c 0b 13 3f c7 83 31 3f
       -0.18072432 0.17515652 0.5743911 0.693417
000030 32 d0 23 3f 4f 8d 14 3f c9 12 1c 3f 31 e7 1f 3f
       0.63989556 0.5802812 0.60966164 0.62462145
000040 3b 35 1b 3f 6e 65 0b 3f df 0b d2 3e 70 f0 d5 3e
       0.606281 0.54451644 0.41024682 0.41785002
000050 19 f9 d9 3e c7 56 0a 3f 62 fa 0d 3f ba de 18 3f
       0.4257286 0.5403866 0.5546018 0.59714854
000060 3e 1f c0 3e d7 6c 9b 3e 65 7e 03 3e 38 fd 18 bf
       0.37523836 0.30356476 0.12841184 -0.5976138
000070 db 63 2d bf 03 4a 82 be 72 a5 2a bf cb 5a de be
       -0.6773049 -0.2544709 -0.666587 -0.43428645
000080 f8 2d 30 3e 4e 3e 96 be ab 8d 7d 3d ef b6 e0 3e
       0.17205036 -0.2934441 0.061902683 0.43889567
000090 9e 3d 12 bf 4b b3 bf bd 8d 29 d2 3d 67 c8 f8 bd
       -0.5712527 -0.09360369 0.102618314 -0.12147599
0000a0 71 f9 9a 3e 9d ae 88 3e 15 c1 d4 3e d3 9f 0d 3f
       0.30268434 0.2669572 0.4155356 0.55322
0000b0 bf 13 70 3e 64 ea 3e bf 32 f9 cd be 95 be 8a be
       0.23445033 -0.745764 -0.40229183 -0.27098528
0000c0 b6 20 d8 be ae 26 45 be 28 19 0c be 86 02 4a bd
       -0.42212456 -0.19253036 -0.13681471 -0.049318813
0000d0 97 8f b3 3d df 0a ae bd c9 f7 4f 3f 1f ef 23 3f
       0.08767622 -0.08498167 0.81237465 0.64036745
0000e0 e4 c4 40 3f 9f 66 f5 3e fc 90 d2 3e df f5 2a 3e
       0.7530043 0.47929856 0.4112624 0.16695355
0000f0 52 32 76 3e 69 d1 30 3e b4 cb 80 bd ee ae b9 3e
       0.24042633 0.17267384 -0.06288853 0.36266273
000100 33 9d 3e 3e 8c 40 6c 3e a6 0d b9 3e aa c8 34 3e
       0.18614654 0.23071498 0.36143225 0.17654672
000110 bf 0a d3 bd 42 99 13 3f 43 af 7a 3e 2b e5 4f be
       -0.10304784 0.5765573 0.2448092 -0.20302264
000120 9b 97 40 3e 2a 8d 84 3e 26 f5 dd 3e 71 47 94 be
       0.18807833 0.2588895 0.43351096 -0.28960755
000130 47 77 97 3e 22 38 ab 3e 62 db 09 be c7 f6 97 3e
       0.2958319 0.33441263 -0.13462594 0.29680464
000140 de 4d d1 3e 5e 3c 49 bf dd bf 57 bf cb 94 46 bf
       0.4087972 -0.7860774 -0.84277135 -0.7757079
000150 2b 9a c3 be 28 b6 fd be 8b e9 84 be c3 d8 98 be
       -0.38203558 -0.49553037 -0.2595943 -0.29852876
000160 fa 45 b3 be b5 f0 e4 bd 74 fc 20 bd 68 50 24 3d
       -0.35014325 -0.11178724 -0.039303258 0.040115744
000170 53 d1 45 bd 3a 38 5c bc c4 f4 91 3c 1b a2 9c 3c
       -0.04829533 -0.01344114 0.017816909 0.019120267
000180 40 a3 cc bc e1 e2 d3 3d ee 6a 25 3e a7 49 40 3f
       -0.024980187 0.10346008 0.16154072 0.75112385
000190 c7 b6 09 3f e6 7b 36 3e 1d 30 10 3f ba c6 9a 3e
       0.5379452 0.17820701 0.56323415 0.3022974
0001a0 e2 d6 2d 3d 84 7b 62 3e f6 d1 25 be 74 47 af be
       0.042441256 0.2211743 -0.16193375 -0.34234202
0001b0 52 a5 25 3f 49 ee a1 3e 54 4b 8e bc 9e d8 39 3e
       0.64705384 0.3162711 -0.017369904 0.18149039
0001c0 7e 67 fa bd fe 1c a5 be 6b 5d 2f bd 0c 0d 8f be
       -0.12226771 -0.32248682 -0.0428137 -0.2793964
0001d0 1e 84 b8 be eb d8 d7 3e 83 b8 88 3e 4a 9f 04 3d
       -0.36038297 0.42157683 0.2670327 0.032378472
0001e0 ce 49 ef 3e 66 32 9a 3e 9d eb 57 3d 9a ff 87 3e
       0.46735996 0.30116576 0.052714933 0.26562196
0001f0 2f f8 f8 3d 24 76 03 bd d5 0f 2f 3e 04 89 d8 3d
       0.12156712 -0.03209509 0.17095883 0.10573009
000200 a9 b3 85 bc 9c d8 1a 3e a6 0d 77 3c ce 23 9d bd
       -0.01632102 0.15121692 0.015078938 -0.07672845
000210 ad b5 29 be 92 34 a3 be 92 fe b7 be 19 29 de 3b
       -0.1657321 -0.31876045 -0.3593641 0.0067798016
000220 df 97 0d 3e af bf cc 3d 2c 09 5a 3c b3 1c 3a 3d
       0.13827465 0.09997498 0.013307851 0.045437526
000230 58 ef 0c 3d d0 30 bd 3d 9e 79 94 3d 99 21 78 3d
       0.034407943 0.09237826 0.07249759 0.060578916
000240 89 c0 50 bf 27 b6 17 bf 33 69 4a be a0 26 01 bf
       -0.81543785 -0.5926232 -0.19766693 -0.5044956
000250 f2 13 1f be af 85 67 3d 70 82 cd bd f0 ab c9 3d
       -0.15534952 0.056523975 -0.100346446 0.098472476
000260 29 f4 95 3e 2d 33 2e be 85 4f 3e be a0 86 85 3c
       0.29287842 -0.1701171 -0.18585022 0.016299546
000270 b0 9e 55 bd 87 69 5e 3d 4e 24 46 3e da fd a4 3d
       -0.05215329 0.054299857 0.19349787 0.08056231
000280 7b cf 99 3e 83 f2 6e 3e 71 cf 85 3e 9d 0a b1 3d
       0.30041108 0.23334698 0.26134828 0.086446024
000290 36 54 f4 3b 79 44 67 3e 4d 92 ec 3d 35 61 93 bc
       0.007456328 0.22584714 0.11551342 -0.017990688
0002a0 b7 0e f5 3d 82 2c 63 3c 4c 8b cd bd ec d9 9e 3e
       0.11965697 0.013865592 -0.100363344 0.31025636
0002b0 b2 61 d2 3d 27 b2 a0 bd 12 36 32 3e d3 87 08 be
       0.1027254 -0.0784648 0.17403439 -0.13333063
0002c0 1b 2d 98 be 19 79 7f be fa da b8 be 24 9a dd be
       -0.29721913 -0.24948539 -0.36104566 -0.43281662
0002d0 45 37 8d bb 97 ea bc 3d e7 54 1e bd 4f f3 de be
       -0.004309567 0.09224432 -0.038655188 -0.43545005
0002e0 91 b0 e5 be b2 63 c7 be d0 7c c5 3e ba 9f 91 3e
       -0.44861272 -0.3894325 0.38571787 0.28442174
0002f0 19 c0 b0 3e 2a e1 32 be 5f 6b 02 be 34 32 80 be
       0.3452156 -0.17468706 -0.12736271 -0.25038302
000300 2d 9c 1a bf 03 85 e1 be 30 71 03 bf 5b e4 19 bf
       -0.60394555 -0.44046792 -0.51344585 -0.6011407
000310 d7 10 e8 be 7e 67 32 bf e4 06 6a bd 33 b6 2f bc
       -0.45325348 -0.69689167 -0.057135478 -0.010724592
000320 ef 0f 9b bd 73 14 a2 be ef ec 7a be af 5e f6 be
       -0.075713985 -0.31656227 -0.24504445 -0.48119113
000330 18 a8 cf be 0e c6 1d bf 0d 31 1f bf d0 b3 87 be
       -0.40557933 -0.6163033 -0.6218422 -0.26504374
000340 b1 2b c5 be b6 8f f9 bb c9 81 0c bc 20 c6 8b bd
       -0.38509896 -0.0076160086 -0.008575865 -0.06824899
000350 51 4b 9f 3e 6e 96 c7 be ce 41 a1 be a0 b3 1e be
       0.3111215 -0.38981956 -0.31495517 -0.15498209
000360 66 33 b1 be 6a e5 bf 3e a4 ba e7 3e 74 c5 a9 bd
       -0.34609526 0.37479717 0.45259583 -0.08289614
000370 2b 80 cb 3e 07 1d 88 3e 06 6a 01 be 0e 57 8f 3d
       0.39746222 0.26584646 -0.12638101 0.06999026
000380 4f 12 76 be d9 d2 84 3e 72 55 87 3e 08 f9 d9 3e
       -0.24030422 0.25942114 0.26432377 0.42572808
000390 97 ad 59 3e e5 3d 95 3e 20 8e 16 3f 6c 4f c5 3e
       0.21257626 0.29148784 0.58810616 0.38537157
0003a0 81 9d ed 3e 23 ed c9 3e e4 21 6c be 8d 01 c4 be
       0.46409228 0.39438733 -0.23059803 -0.38282433
0003b0 da 3e 30 bf a4 ac 11 bf 13 e3 59 bf ef da 80 bf
       -0.68845904 -0.56904054 -0.8511211 -1.0066813
0003c0 e6 54 53 be 30 64 01 be d5 53 d4 bd 38 29 89 3f
       -0.20637855 -0.12635875 -0.10367552 1.0715704
0003d0 6c 9c 88 3f 0f ee 3c 3f 25 c2 71 3f 6f c1 04 3f
       1.0672736 0.7380075 0.94436866 0.51857656
0003e0 29 cb 14 3d 83 c9 cf 3d 60 44 b4 be db 3e 04 bf
       0.03632656 0.10145857 -0.35208416 -0.5165841
0003f0 b6 4a af bd 3c d2 07 be 73 8c 02 be f5 4d a0 bc
       -0.08559172 -0.13263792 -0.1274889 -0.019568423

cell_list.2.conv_gates.weight f4 [20, 20, 3, 3]
000000 8c 7f 62 bf fc ee 7f bf d9 68 12 bf 67 6c 94 3e
       -0.8847587 -0.99974036 -0.57191235 0.28988954
000010 c7 f6 e8 3e 9d a3 14 3f 69 dd 39 be a2 07 b1 bd
       0.45500776 0.58062154 -0.18150868 -0.08644034
000020 68 4a c6 3c e7 54 ee 3e e8 56 47 3f 0e db 78 3e
       0.024205402 0.4654915 0.77866983 0.24302313
000030 d6 24 94 3e 50 b3 28 3e 95 21 34 be bc 9f 09 be
       0.28934354 0.16474652 -0.17590936 -0.1343984
000040 5c 64 bb be ff ce c6 be 28 6a cd 3e 84 60 5b 3f
       -0.36600006 -0.388298 0.40120053 0.85694146
000050 22 eb 0b 3f d1 9f ff 3d 48 f0 ed 3d 85 d0 03 bf
       0.5465566 0.124816544 0.11618096 -0.5149005
000060 6b 7a 2a 3e b6 7e da bc 3d 14 4e bd 3f d0 73 bf
       0.16648261 -0.026671749 -0.05031227 -0.95239633
000070 61 1e 78 bf 8e 37 a7 bb 7f f1 13 be 58 e0 ad 3e
       -0.96921355 -0.005103058 -0.14447592 0.33960223
000080 fa f2 df 3e e2 3e 56 3e c5 77 f2 3e 7b 06 77 3d
       0.43740064 0.20922425 0.47357002 0.060308915
000090 36 b2 15 3f cf 27 38 3f 60 75 eb 3e e2 bc 06 bf
       0.58475053 0.71935743 0.45987988 -0.5263196
0000a0 ed 20 ad be d2 71 59 be 95 9d 9f 3e d2 cc 27 3e
       -0.33814183 -0.21234825 0.31174913 0.16386726
0000b0 05 14 c7 3e 2c 6d 03 bf a2 0a 07 be 57 c4 5f bf
       0.3888246 -0.5133846 -0.1318765 -0.87408966
0000c0 43 71 54 3e 9b 7e 1f be e2 92 c8 be 5c e0 e3 3e
       0.20746331 -0.1557564 -0.39174563 0.4450711
0000d0 e2 a5 c6 bd 15 bc 91 bc e7 d0 b9 bd 7a 59 45 3e
       -0.096996084 -0.01778988 -0.09073048 0.19272414
0000e0 7c 95 d6 3c 5d 26 ad be 81 81 1f be 8c d2 63 be
       0.026194327 -0.3381833 -0.15576746 -0.22248286
0000f0 1c 7e bf bd 0a 38 03 bb 70 93 a1 be fd 6a 86 bf
       -0.09350225 -0.0020022416 -0.31557798 -1.05014
000100 bf c4 20 3d 3f 82 8d 3e 0b 1b e1 3e 06 97 75 3f
       0.03925013 0.27638432 0.43965945 0.9593357
000110 b7 db 0f 3e 91 a6 ca 3e 9b 27 75 3e ea 5b d5 be
       0.14048658 0.39580205 0.2394089 -0.41671687
000120 25 63 ae 3e 24 cc 2d bf 07 4f af be a7 c9 31 be
       0.34060016 -0.6788962 -0.3423998 -0.1736208
000130 c5 d9 c5 be 8e 3c ee 3e a1 f8 94 3e 24 e8 96 3e
       -0.38642707 0.46530575 0.2909594 0.29473984
000140 b2 a7 39 3f 21 f7 4d be 58 5d 0b 3f 66 a7 f6 3e
       0.7252151 -0.20113803 0.54439306 0.4817459
000150 33 45 e5 3e 11 e4 f0 3e 29 6b 2e 3e 08 36 0f 3e
       0.44779357 0.47049 0.17033066 0.13985455
000160 3e 94 58 3d 1b a7 fc bb 14 f7 09 be 43 95 46 be
       0.05287575 -0.00771035 -0.13473159 -0.19392876
000170 d4 8d 9f 3d c6 1d e6 bb 3b 80 73 3d 0c cb 80 3e
       0.077907234 -0.0070225922 0.059448462 0.25154912
000180 6f 32 7e bd 45 f4 bd 3d c2 58 12 bc 4f 03 66 be
       -0.062059816 0.09275106 -0.008932294 -0.224622
000190 ff a1 09 be 69 cf 46 be 73 ab a3 3d c8 87 80 3e
       -0.13440703 -0.19415058 0.07991686 0.25103593
0001a0 22 a2 8a bc 01 64 cc b9 d5 31 ee 3d cf bb f2 3c
       -0.016923014 -0.0003898442 0.116305985 0.02963057
0001b0 aa a8 08 3e 48 75 e8 3d dd 7b d6 3b a1 6a 19 be
       0.1334559 0.113504946 0.0065455274 -0.14982082
0001c0 ee f6 82 be 0c c8 55 be 34 ba 2c 3d f8 c5 3e be
       -0.25579017 -0.20877093 0.042169765 -0.18630207
0001d0 51 4f 15 be cd 84 8a be 57 51 83 bd 8e b4 de 3d
       -0.14581038 -0.27054444 -0.06411999 0.10874282
0001e0 90 15 6c 3d 9a 74 94 3e 47 80 49 3e 1f 4f b1 bc
       0.05763775 0.2899521 0.1967784 -0.021644173
0001f0 16 90 89 3e ce 0f ba 3d bc a7 18 be f8 06 73 3d
       0.2686774 0.09085046 -0.14907736 0.059332818
000200 e6 d5 0f be c9 83 9d 3d 98 c4 19 3e 82 9b 8e 3d
       -0.1404644 0.07691152 0.15016401 0.069632545
000210 7b a9 11 3d 9b c6 11 3e 6d 50 b6 bc dd 5c 18 be
       0.03556202 0.14235918 -0.022255147 -0.14879175
000220 e9 dd 70 3d 59 50 21 bd 65 86 12 3d 72 9b 42 3e
       0.05880538 -0.039383266 0.0357727 0.1900461
000230 ce 94 72 3e a4 20 d4 bd c1 d8 5b 3e ca 85 a7 3e
       0.23689577 -0.10357788 0.21469404 0.3271926
000240 f4 8a 3a bd 9a d8 bd 3a e0 9b 52 bd 83 0d 18 bd
       -0.045542672 0.0014484108 -0.051418185 -0.03712226
000250 ba 27 5b 3d bc cc 41 3e 6a 8a 82 3d 60 ca 06 3e
       0.053504683 0.18925756 0.06374057 0.13163137
000260 66 19 42 3e ea 19 8a bb 23 58 92 3e ed 3d a1 3e
       0.18955001 -0.004214515 0.28582868 0.31492558
000270 56 55 33 3d ff 67 56 3e 52 89 9a 3d 06 fc e5 bc
       0.043782555 0.20938109 0.07545723 -0.028074276
000280 cc 47 1e 3c 83 d0 bf bd e7 55 2d be 98 8d cf 3b
       0.009660672 -0.09365942 -0.169273 0.006334018
000290 5b e5 b9 bc 4d 56 ef bd 57 6c 25 3e eb 23 40 3e
       -0.022692373 -0.116863824 0.1615461 0.18763702
0002a0 50 8a 88 3d b8 ae 0a 3e c5 98 f5 3d 19 4f 91 bb
       0.06667006 0.13543212 0.11992029 -0.004434478
0002b0 63 08 cb be 47 af a4 be 9b df aa be 32 b6 3f be
       -0.39654836 -0.32164976 -0.33373722 -0.18721846
0002c0 58 0b 41 3c a8 80 5b be 8a a7 81 3d ae d5 1b 3e
       0.01178249 -0.21435797 0.06330784 0.15218231
0002d0 d3 e4 8a be 18 32 8f be 31 f3 05 be fc db 27 3c
       -0.27127704 -0.27967906 -0.13081051 0.010245319
0002e0 be 8e 21 3e 49 46 d2 3e 6f 5b 3a 3e 6a 9a a5 bd
       0.15777108 0.41069248 0.18198942 -0.08086093
0002f0 ba ef 13 bc 3b 5c 37 bd 0f ec 93 3e 17 b3 93 3e
       -0.009029323 -0.044765692 0.28891036 0.28847572
000300 77 8c e0 3d f3 0c 9d 3d 09 ea 3c bd 03 65 75 bd
       0.109642915 0.076684855 -0.04612163 -0.059910785
000310 99 d3 92 be a9 66 2d be ca 1c 74 3e 8e ac a4 3e
       -0.2867706 -0.16933693 0.23839107 0.321629
000320 18 dc 04 3e a3 29 ac 3c 16 59 b0 bd 6c 28 ad be
       0.12974584 0.021015948 -0.08610742 -0.33819902
000330 a4 01 10 3e 72 d2 6c 3b c7 b9 38 be 00 6e e2 be
       0.14063126 0.0036136177 -0.18039618 -0.44224548
000340 92 7f 89 be 06 16 31 3e 7b 14 ae 3d 2d 63 54 3e
       -0.2685514 0.17293558 0.085 0.20740958
000350 9c e3 05 3f e1 85 92 3e 7d a5 63 3e e9 90 70 3e
       0.5230043 0.28617766 0.22231098 0.23492779
000360 98 c4 a9 bd ed 7b b1 3d 6a f5 5c 3e 78 b2 67 be
       -0.082894504 0.08666215 0.21577993 -0.22626674
000370 13 a0 a0 be 97 59 c5 3d dd 7b 85 3e 2a fa 28 3e
       -0.31372127 0.096362285 0.26071063 0.1650168
000380 43 0e 36 3d 5f d1 80 be 3f 9a 02 be 22 a5 85 be
       0.044447195 -0.25159737 -0.12754153 -0.2610255
000390 3d bc 83 be 7c 5b 44 be e2 5b 86 be 15 3d af be
       -0.25729552 -0.19175524 -0.26241976 -0.3422629
0003a0 97 e6 ca be 5e bf ca be a0 4b e6 bd d2 8b 69 3c
       -0.3962905 -0.39599127 -0.11244893 0.014254527
0003b0 98 df 1d be d8 1e d5 be 5f d1 41 be dc ff 80 be
       -0.15417325 -0.41625094 -0.18927525 -0.25195205
0003c0 94 fb 75 be 08 86 58 3e f9 2c b5 bd 2b e1 da be
       -0.2402175 0.21144879 -0.088464685 -0.42749915
0003d0 01 bc 44 3d 6c 41 4d 3d 4b cd 28 bd da aa 05 3e
       0.048030857 0.05011122 -0.041211408 0.13053456
0003e0 77 84 a7 be 2d 72 a0 bd 8f 90 a5 3c 0d d4 c6 be
       -0.3271825 -0.07834277 0.020210532 -0.38833657
0003f0 28 6d b2 3c 38 cf 1f be 82 25 1f 3d c5 16 12 be
       0.021780565 -0.15606391 0.03885413 -0.14266498

cell_list.2.conv_can.weight f4 [10, 20, 3, 3]
000000 14 e2 e5 be 4a 54 c4 be 0a ad cc be 38 95 a8 be
       -0.44899046 -0.38345557 -0.39975768 -0.32926345
000010 af be d4 be e6 cd 4b bf a4 47 00 bf 3c 75 92 be
       -0.4155173 -0.7961105 -0.50109315 -0.28605068
000020 52 4c 3e bf 5b 2d 08 3e 43 ba 82 3e 0a bd 4b 3d
       -0.74335206 0.13298552 0.2553273 0.04974083
000030 ce f8 28 3f 5a bb cc 3e 82 f2 c2 3e d7 69 b4 bb
       0.66004646 0.39986688 0.38075644 -0.005505781
000040 42 f6 f9 bd 30 67 08 3d cb a6 9a 3e 07 19 35 3f
       -0.12205173 0.033301532 0.30205378 0.70741314
000050 2a c3 39 3f a2 5d 12 3f 06 6f f8 3e ae 09 70 3f
       0.7256342 0.5717412 0.48522204 0.9376477
000060 c3 15 bf bd 13 1a 81 3e e3 9c 5d 3f 22 fb d5 be
       -0.093303226 0.25215206 0.86567515 -0.41793162
000070 fa 6a 17 bf 1d 2d 3a bf 00 2c a5 be 26 14 ba be
       -0.5914761 -0.7272509 -0.32260132 -0.36343497
000080 21 3a 7c bf d2 21 d7 be 15 c4 5d bf 32 d6 83 bf
       -0.985262 -0.4201799 -0.8662732 -1.0299742
000090 c8 e9 4d be 93 9d 00 be 87 ca 88 be 92 ff d5 3c
       -0.20108712 -0.1256011 -0.26717016 0.026122842
0000a0 5d 0d f9 3c b9 e8 63 3e ba 0c 6b be 3b 5f 6b 3e
       0.03040188 0.22256745 -0.22954074 0.22985546
0000b0 e1 b1 17 3e 68 96 f0 3e c3 01 b1 3e 89 52 45 3f
       0.14813949 0.4698975 0.34571657 0.77079064
0000c0 fd ac ee 3e c9 f9 bc 3e 59 db 3b 3f 83 88 4d 3f
       0.46616355 0.3690932 0.7338157 0.80286425
0000d0 cd 27 4d 3f 99 f8 95 3f d1 e0 97 bd 70 09 9c bd
       0.80138856 1.1716491 -0.07415927 -0.076189876
0000e0 45 95 af be ce 12 6c 3e 35 9d 89 3e 09 19 92 3e
       -0.3429357 0.23054048 0.26877752 0.28534725
0000f0 c4 af 38 3f 07 e1 42 3f ec da 11 3f 93 7a 53 3e
       0.721432 0.76124614 0.56974673 0.20652227
000100 5a 77 e0 3e 31 48 08 3f 3c fa 0d 3f 96 56 34 3e
       0.43841058 0.53235155 0.5545995 0.17611155
000110 4f a0 02 3f a5 d3 2f 3e 87 c5 77 3e 85 bf 42 3f
       0.5102586 0.1717058 0.24196444 0.76073486
000120 21 f5 8a bd 3e 86 bd be 9e e4 f7 3e b7 f5 dc 3d
       -0.06785036 -0.3701648 0.4841661 0.10789054
000130 b9 04 2a 3f c7 ce 48 3f fe 44 f5 3e 86 48 0e 3f
       0.66413456 0.7844052 0.479042 0.5557941
000140 4a 14 3e 3f 6e 66 2d 3e 4c be 13 3e 05 16 16 3f
       0.7424971 0.16933605 0.14428061 0.5862735
000150 54 c0 6d 3d 20 26 aa 3e bc b5 2c 3f e6 d9 eb 3d
       0.058044747 0.33232212 0.67464805 0.1151617
000160 ca 96 13 3f ea 61 71 3f 74 7e 03 3d a8 98 97 3c
       0.5765196 0.9429003 0.032103017 0.01850541
000170 d1 ea ac 3e d9 54 ca bd 7f 08 7c 3d b6 de 22 3f
       0.337729 -0.09879465 0.06153154 0.6362108
000180 8d 93 76 be 59 95 06 be 0d 57 c0 3e ea d8 15 3d
       -0.24079724 -0.13142909 0.37566414 0.03658382
000190 cc 48 4c be e9 3f d6 3e 82 fe 72 be fd 53 dd bd
       -0.19949645 0.41845635 -0.237299 -0.10807035
0001a0 ed b5 05 3f 32 19 71 be 9c 81 82 be 59 4c 4e 3e
       0.5223072 -0.23544767 -0.2548951 0.20146312
0001b0 5c 20 a1 3e ea ef 67 3e 6c d0 5b 3d 31 e4 1b 3e
       0.3147 0.22650114 0.053665563 0.15223767
0001c0 19 7c 94 bd f4 16 8d be 57 94 17 3e 56 0d 90 be
       -0.07250232 -0.27556574 0.14802681 -0.28135175
0001d0 e8 71 2d bf 30 88 ca be e3 65 35 be 15 b3 f4 3d
       -0.6775193 -0.39557028 -0.17714648 0.1194822
0001e0 8a 0c 45 be d7 78 9f be a4 06 05 3e 71 8a 14 be
       -0.19243065 -0.3114688 0.12990814 -0.14505936
0001f0 55 be 8d 3d f0 53 85 3e b8 5a c2 be 70 ae 8a be
       0.069210686 0.26040602 -0.37959838 -0.2708621
000200 21 01 11 be 49 e7 1b be cf 85 d1 3d cb e8 96 bd
       -0.14160587 -0.15224947 0.102306 -0.073686205
000210 79 ef 75 3d 5f b2 0f 3e d7 0b 92 bc 06 5f 03 be
       0.060042832 0.14032887 -0.017827911 -0.12829217
000220 cf 2c f4 bd 2d 22 bd 3e f9 cb 3b be c0 56 89 bd
       -0.11922609 0.36940137 -0.18339528 -0.067059994
000230 33 ca f2 3e c8 6a 14 be a1 0d 15 be 4d 34 07 3e
       0.4741989 -0.14493859 -0.1455598 0.13203545
000240 41 7f 5a 3c 94 15 0f 3d 1c 75 b4 3e 8f ab 08 be
       0.013336004 0.034932688 0.35245597 -0.13346694
000250 37 dc 92 bd c8 43 eb 3e 78 4f a3 bd 04 d1 28 3d
       -0.07170909 0.4595015 -0.07974142 0.041214958
000260 e3 14 ee 3e 49 b8 66 3d df e3 8a bc 49 67 a5 3e
       0.4650031 0.05632809 -0.01695436 0.32305363
000270 e5 7f 61 bc d9 e4 df 3d 5a aa 4d bd 51 be 0a bd
       -0.013763403 0.10932321 -0.050211288 -0.033872906
000280 53 75 8f bd 81 69 d1 3d e5 2d 1f be bf 77 2e be
       -0.070048 0.102252014 -0.15544851 -0.17037867
000290 f2 8e c7 3e bd 25 01 3c 25 8d bc 3c 38 e2 03 3f
       0.38976246 0.007882533 0.023016522 0.5151706
0002a0 ba 53 d2 bd 25 85 a8 bd 69 c1 af 3e 26 68 8c bd
       -0.10269876 -0.0822852 0.34327248 -0.06855802
0002b0 2f 0b 36 bd 66 f4 f4 bd 3e 2d 50 3d 1c d5 9f bd
       -0.04444426 -0.11960678 0.050824396 -0.07804319
0002c0 41 83 0f 3f c8 de 9a bc bb 7e c2 3d 10 d9 dc 3e
       0.5605965 -0.018905059 0.09496828 0.43134356
0002d0 76 3b 2f be 03 d5 da bd f1 b3 c4 bd af 1c fd 3c
       -0.17112526 -0.1068516 -0.096046336 0.030897466
0002e0 c6 c2 a3 3d c2 4d 25 3e f2 ed 05 bf df 94 18 be
       0.079961345 0.16142944 -0.523162 -0.1490054
0002f0 ee cd 9a be 15 dd ce be de 06 de be bb 4c 61 be
       -0.30235237 -0.40403047 -0.43364614 -0.22001927
000300 45 94 45 be 91 1f 81 be 01 7d ac bd 73 24 80 3e
       -0.19294842 -0.25219396 -0.0842228 0.2502781
000310 7a b5 5a bd 2d 04 03 3d ea 06 a4 3e 67 4b 10 3e
       -0.053395726 0.031986404 0.32036525 0.14091264
000320 63 37 27 3b 1f 8c ea 3e e6 6b a9 3e bc c4 8c 3e
       0.002551519 0.4581003 0.33090132 0.27493846
000330 e5 4b 13 3f 53 5d ac 3e f1 be 8d 3e 87 91 e2 bd
       0.5753768 0.3366495 0.2768474 -0.110629134
000340 66 9c 68 3e 42 e1 29 3e 0d 12 00 bf 39 06 64 be
       0.22715911 0.16589835 -0.50027543 -0.22267999
000350 8e 22 38 3d e6 68 65 bf cb 66 11 bf 8f 14 ef be
       0.04495483 -0.8961319 -0.56797475 -0.46695372
000360 fd de 08 3c f9 f4 a2 3e be 40 05 3f 82 ef af be
       0.008353946 0.31827524 0.52051914 -0.34362417
000370 d3 bb 46 be e1 df 3f be f5 f7 d1 bd dd 84 0a be
       -0.19407587 -0.18737747 -0.10252372 -0.13527246
000380 55 45 f7 3c 82 3d 86 3e 69 ae 60 bd 7c 08 03 be
       0.030184427 0.26218802 -0.05485383 -0.12796205
000390 b0 b5 51 3f ac 03 ed 3e 42 81 b6 3e 1c 12 2b 3f
       0.8191786 0.46291864 0.3564549 0.6682451
0003a0 bf 79 eb 3e ae 99 bc 3e ed 7a c1 3d bc 7b ae 3e
       0.45991322 0.36835998 0.09447274 0.34078777
0003b0 01 b8 ce 3e c0 87 0f be 94 59 16 3d 75 82 b7 bd
       0.4037476 -0.14016628 0.036706522 -0.089604296
0003c0 97 d8 81 3e e1 3e 3e 3e 95 a2 54 3d e5 7e 70 3d
       0.25360557 0.18578674 0.051912863 0.058714766
0003d0 66 9c 8d bc cd 8f 36 be 60 0a 32 3f 83 f6 c8 3e
       -0.01728649 -0.17828293 0.6954708 0.39250574
0003e0 81 55 8c 3e 8a c9 f7 3e 45 63 1e 3f 24 8e 23 3e
       0.27408984 0.4839595 0.61870223 0.15972191
0003f0 31 69 98 3d 1d 4d 32 be b6 81 90 be ec 57 38 be
       0.07441939 -0.17412229 -0.28223962 -0.1800229

cell_list.3.conv_gates.weight f4 [20, 20, 1, 1]
000000 00 8c 8c bd 3a 67 1a bf 19 b0 23 3f d5 b6 e2 3e
       -0.068626404 -0.6031376 0.6394058 0.44280115
000010 a4 e8 0c bf 04 5f 13 3e a8 db 19 bf 50 20 10 3f
       -0.5504248 0.14391714 -0.60100794 0.56299305
000020 6d 86 26 3f a7 ef 62 bf 93 c0 04 3f e6 0a 3e 3f
       0.6504887 -0.8864693 0.51856345 0.7423538
000030 15 0e 4d be 64 7a 0a bf bf 3e 59 bf 90 40 59 3f
       -0.20024903 -0.54093003 -0.8486137 0.8486414
000040 91 ad 37 3f 9a 4f ab 3e 5a b1 09 bf b4 69 de be
       0.71749216 0.3345917 -0.5378624 -0.4344002
000050 85 e4 17 bf a0 02 6f bf 87 32 02 3f 97 43 32 3f
       -0.5933307 -0.9336338 0.5085835 0.69634384
000060 79 7c d7 be 94 eb 62 3e bd 80 90 bf 43 c0 32 3f
       -0.42087153 0.22160178 -1.1289288 0.6982462
000070 57 48 0d 3f 80 89 5d bf bc e7 1b 3f 9b 44 5d 3f
       0.55188507 -0.86537933 0.60900474 0.8643281
000080 04 57 0f bf f3 a6 47 bf a4 2e 55 bf 29 de 97 3f
       -0.5599215 -0.7798912 -0.8327429 1.1864673
000090 87 c0 65 3f 16 b4 48 3f f1 1c 42 bf fa 93 00 bf
       0.897469 0.7839979 -0.7582541 -0.50225794
0000a0 75 cf 0c 3e 7e 26 fa be 72 eb 33 3f d1 a5 ed 3e
       0.13751014 -0.48857492 0.70281136 0.4641557
0000b0 85 dd 7c be a1 94 d8 3d 7f 87 39 bf 49 27 59 3f
       -0.24693878 0.10575224 -0.72472376 0.8482557
0000c0 73 0c b5 3e 88 65 80 bf 9f 3e 56 3f 8d cf 59 3f
       0.3536106 -1.0030985 0.836893 0.8508232
0000d0 42 37 3a bf c1 4b c0 be e6 1e 97 bf b7 20 14 3f
       -0.72740567 -0.37557796 -1.1806304 0.5786242
0000e0 22 40 4a 3f 70 b5 d9 3e ed b3 f0 be 30 bb 1c bd
       0.7900411 0.42521238 -0.47012272 -0.038264453
0000f0 40 a3 8c 3e a8 59 88 bf 6e 6a 38 3f 90 35 49 3f
       0.274683 -1.0652361 0.720374 0.78597355
000100 c8 fc 38 bf 28 4d ad 3e 3e 90 27 bf d0 fb 0f 3f
       -0.72260714 0.33847928 -0.6545447 0.5624361
000110 71 d1 e8 3e 87 60 6a bf c0 72 3e 3f bf 07 36 3f
       0.4547229 -0.9155354 0.74393845 0.7110557
000120 ea e7 29 bf f4 b9 71 bf 62 13 92 bf ed 99 22 3f
       -0.663695 -0.94424367 -1.1412165 0.6351612
000130 75 11 d4 3e 06 ef a1 3e 91 7d 82 bf e3 20 29 be
       0.4141957 0.31627673 -1.019457 -0.16516452
000140 b0 8f 11 bf b9 5d 87 bf 17 f7 2f 3f 71 ea 66 3f
       -0.56859875 -1.0575477 0.68736404 0.9020148
000150 cd c7 c0 be 0b 88 24 3f 9e 33 a7 bf 49 19 a8 3f
       -0.37652436 0.64270085 -1.3062627 1.3132716
000160 ac 3c 0a 3f f2 cc 89 bf cc 39 a3 3f 8f aa 5a 3f
       0.5399883 -1.0765669 1.2752013 0.854165
000170 cd 9c 95 bf 11 c0 49 bf 52 dd 7f bf 47 36 93 3f
       -1.1688477 -0.78808695 -0.99947083 1.1500939
000180 72 80 8c 3f 92 6a 7c 3f 4e 24 67 bf 95 37 2d 3d
       1.0976698 0.98600113 -0.9028977 0.042289335
000190 04 8c c5 be 85 3f 5b bf 37 90 30 3f 44 db 23 3f
       -0.38583386 -0.856438 0.68970054 0.6400645
0001a0 09 1a 09 bf a6 f7 47 3e e7 73 76 bf 10 03 88 3f
       -0.5355535 0.19528064 -0.962706 1.0625935
0001b0 43 b5 8c 3e b1 e5 81 bf 51 d3 19 3f a2 27 39 3f
       0.27482042 -1.0148221 0.6008807 0.723261
0001c0 d2 a1 65 bf cb e9 2a bf 7d 53 83 bf a6 e3 5c 3f
       -0.89700043 -0.6676299 -1.0259854 0.86284864
0001d0 d0 14 17 3f 79 4c 40 3f d7 1e 36 bf c2 cc 5d bd
       0.5901613 0.7511669 -0.7114081 -0.05415035
0001e0 ff 3d 2c 3e 29 82 28 bf eb 90 17 3f d6 0b 36 3f
       0.16820525 -0.6582361 0.592055 0.7111181
0001f0 cd d7 04 bf d2 1c 20 be 60 1e 91 bf 84 3e 5e 3f
       -0.51891786 -0.15635994 -1.1337395 0.8681414
000200 c0 ea 20 3f ab d7 54 bf 34 0a 57 3f 60 58 64 3f
       0.628582 -0.83141583 0.83999944 0.8919735
000210 59 7a e1 be 48 dc b3 be 99 d5 a3 bf ae 5d 33 3f
       -0.44038656 -0.35129 -1.279956 0.7006482
000220 aa 79 4b 3f 54 c4 a8 3e f7 e0 0b bf 89 1f 8b be
       0.7948252 0.32962286 -0.54640144 -0.27172497
000230 0c 75 00 3e 35 74 bf be 47 4d 63 3e bf 3f 34 3f
       0.1254465 -0.37393346 0.22197448 0.7040977
000240 db 78 eb be 72 b5 b2 3e 51 23 23 bf 2d 47 57 3f
       -0.45990643 0.34904057 -0.63725764 0.8409298
000250 bb ce 26 3e 35 d5 47 bf 89 f0 13 3f e7 26 bb 3e
       0.16289799 -0.78059703 0.577889 0.36553118
000260 b3 f5 57 be 64 5d a0 be 23 52 ab be 1d db 06 3f
       -0.2108982 -0.3132125 -0.33461103 0.5267809
000270 08 2c d3 3e 0f aa ed 3e 24 f6 be be ba a6 b1 3d
       0.4124453 0.46418807 -0.37297165 0.08674379
000280 ae 1e c7 be c6 54 ed be 7a d2 ff 3e 32 8d 1f 3f
       -0.38890594 -0.4635374 0.49965268 0.6232482
000290 1c fd 2e bf 6e 6d 4c 3e f7 e7 4d bf b7 a1 79 3f
       -0.68354964 0.19963619 -0.80432075 0.9751238
0002a0 a3 a6 37 3f 2e a6 40 bf cb 6f 69 3f ae 82 68 3f
       0.7173864 -0.7525357 0.9118621 0.908244
0002b0 c4 8c da be ef 00 4d bf b1 78 4b bf 17 4d 44 3f
       -0.4268552 -0.8007955 -0.79481035 0.7668013
0002c0 a8 de 69 3f 11 b6 c7 3e 49 05 56 bf 49 06 12 be
       0.9135537 0.39006093 -0.83601815 -0.1426021
0002d0 62 3d 7b 3c ed d1 81 be 5f 75 bd 3e 88 27 d8 3e
       0.015334459 -0.25355473 0.3700361 0.4221766
0002e0 b5 29 8e 39 3d b4 1f be c3 6d 03 bf 58 c0 cf 3e
       0.00027115425 -0.15596099 -0.5133936 0.40576434
0002f0 ad 0e 0d 3f 12 31 bb be 82 b5 88 3e b0 e9 ef 3e
       0.5510052 -0.36560875 0.2670098 0.46857977
000300 bd 0f 57 be d8 a5 7d be a6 d3 ae be 3c 19 57 3e
       -0.21002097 -0.24770296 -0.3414585 0.2100572
000310 23 36 ff 3e 90 14 bc 3e 6e 80 b4 bd ad b8 9f bd
       0.4984599 0.36734438 -0.088135585 -0.07798896
000320 8f 11 d1 bd 72 5b cb 3d 1b a4 0d 3f f7 9e ef 3c
       -0.10208427 0.09929551 0.5532853 0.029250605
000330 66 f3 92 bd 50 9b d9 be 91 c9 a3 be 02 7d 87 bd
       -0.07175331 -0.42501307 -0.3198972 -0.0661564
000340 cd 4f 8f 3e 1b 1d a2 be be 6a c5 bd bc 50 6d be
       0.2799057 -0.3166283 -0.096395 -0.23175329
000350 d0 42 1c 3f db e0 33 3e 3a ad b2 3e 6d 93 f9 bd
       0.6103945 0.17566244 0.34897786 -0.12186322
000360 5c dc fb 3a 1c 3c d4 bd bb cf 00 3f 39 39 d3 bd
       0.0019215452 -0.103630275 0.5031697 -0.10313649
000370 39 a5 37 bf 6f 36 1a bf 84 db 3f 3f 9a 40 80 3f
       -0.71736485 -0.6023931 0.7494433 1.0019715
000380 05 ba 62 bf e4 48 03 3e aa 9f 8e bf 95 72 4c 3f
       -0.88565093 0.12820774 -1.1142476 0.7986234
000390 e0 94 4e 3f 25 4e 71 bf 08 59 53 3f d3 31 2a 3f
       0.80695915 -0.94259864 0.82557726 0.66482276
0003a0 cc de 42 bf bc 19 90 bf 7e 34 89 bf d8 7b 50 3f
       -0.7612121 -1.1257854 -1.0719144 0.8143897
0003b0 ee 7a 8b 3f 31 46 39 3f 24 b5 70 bf 2a a4 06 be
       1.089689 0.7237273 -0.940264 -0.13148561
0003c0 c2 3b 8b be 67 b9 46 be 93 9d 95 3e 88 93 37 3e
       -0.2719403 -0.19406663 0.29221782 0.17927372
0003d0 7a ee 49 bd 52 03 e1 3e 6d 81 bb be f8 18 c1 3e
       -0.049299695 0.43947846 -0.36622182 0.37714362
0003e0 88 22 12 3f 31 3e 16 bf 00 7d 32 3f ae db 49 3f
       0.5708394 -0.58688647 0.69721985 0.7885083
0003f0 db 06 17 bf 79 69 25 bf f5 d2 20 bf 62 4f 68 3f
       -0.58994836 -0.64614064 -0.62821895 0.9074613
