saved_models/ambaudio_brainlike/brainlike_thickness_5.pt (torch, 118504 bytes, 14 tensors)

cell_list.0.conv_gates.weight f4 [20, 11, 3, 3]
00000000: e0f3 873d 9fea 99bd 8abd a73d c9b3 833d
00000010: f5f0 ac3d 2cd0 9dbd 6328 8abd ade2 433d
00000020: 4e23 c0bd 1470 cb3d 4240 af3c 2ea7 543c
00000030: b505 b0bd 2430 033d 2105 313d 05a0 823c
00000040: e5fa c53d 6342 f73c 8484 b6bd d5f1 ac3d
00000050: 9fc5 0b3d b862 44bd 1e12 bdbd 7bad 6a3d
00000060: 489b c33d eca3 a8bd 41fb b33b 89b1 133d
00000070: 4667 42bd 6c26 b4bc a470 89bd 119f 42bd
00000080: 6aa6 bbbd afa6 18bb fd15 743d d738 483d
00000090: 2e5c c13d b5c5 b4bd 8a9b 4abc 6b67 c83d
000000a0: c0d1 863c 1b2d e8bc c35f b9bd b590 3f3d
000000b0: 0443 9c3d 150d a53d 5950 ac3d 4a30 a13c
000000c0: 41b4 923d 563e cfbc ed28 a73d 7ce2 0cbc
000000d0: f8c8 a9bc 13a2 4cbd b22e 5b3d ac8f 263d
000000e0: 00ed 823d 628a 83bd 9fe1 5abd 96c8 c23d
000000f0: 7d7d 64bd 6fc7 6abd 344a dcbc b60d 05bd
00000100: ebfa 8bbd fb56 a63d e18b 373c e3ae 3b3d
00000110: 97ac 983d df60 85bd 0421 9d3d 7439 4ebd
00000120: bb14 83bc 8dc4 9b3d 89c5 bd3d a3b0 b43d
00000130: 39c2 6c3d 3d50 bf3d 1853 14bd 7b9d d1bb
00000140: 4ecd 0cbd 810d f2bb 1439 48bc 0bf1 5b3d
00000150: 1a7a 8d3d df38 94bd 0352 63bd bb37 fdbc
00000160: 2a1f 5c3c e2cc 1fbd 8304 80bd 3060 96bc
00000170: e1e4 48bd b256 353b 6e5e 98bd 4fd1 cdbc
00000180: 73e4 17bd 6175 63bc 36ba a13d f6f7 863d
00000190: 92d8 04bd 13b6 bcbd 973a 93bd 2ae9 9dbd
000001a0: e33c 1cbc 9ad0 36bd 62d8 8fbd 268c b63c
000001b0: f3ed d33b 87dc 76bc 843a 15bd 036f af3d
000001c0: aa4a c6bd 2aec 1cbb 061a 3f3d ee53 913d
000001d0: bd11 b3bd e3ec 80bc 0ca9 ab3d ea87 873c
000001e0: 43f4 f83c 1de6 35bd 46da 8e3d 245f 1abd
000001f0: 16ae 5dbd cfb3 ba3d 391a da3c 96e0 35ba
00000200: 7172 8fbd a13d b6bc c41e 9ebd 637d 8abd
00000210: 8ed1 6bbc 192b 9f3c 3ea7 a8bd 790c c83d
00000220: 7162 973d 0e8e bfbd 0ca9 803d fa06 77bd
00000230: a8ba a7bd 8ad5 c03d f289 25bd cc8e 08bd
00000240: 4433 4d3c 07ae 683d ca56 fd3b 5942 ddbc
00000250: 279d 0b3c 4b49 55bd 69b8 95bd 3760 d63c
00000260: 4183 2d3c d28c 4c3d 0eee 18bd f270 cbbd
00000270: 414b ccbc 442a c7bd 43a5 01bc 2d19 493d
00000280: db5a 183c bf33 6c3d 5691 993c df86 303d
00000290: 1247 b93d 4103 753c 1e03 893c 8408 27bd
000002a0: 6b59 803d 98aa ac3d 65f6 8ebd 7dc8 c73d
000002b0: 4d5c f83c c8cc 65bc 8a61 bcbd 10b3 cdbd
000002c0: 4eb0 a1bd cd2c acbd e642 89bd 71c3 efbc
000002d0: d9da aabd 9e12 acbd 1244 37bc 022d adbd
000002e0: 56df 14bc 3542 8c3c 603f 9c3c c12b 813d
000002f0: a4b3 603d 98e6 66bd 2ca5 0abd c6d9 163b
00000300: f2b4 ad3d 1fca 473d 5e5f 66bd fa34 41bc
00000310: c3d0 943c fff9 0e3d 04f8 18bd 6aa1 b4bd
00000320: 5019 7bbd cc75 623b 8d76 8cbd cf28 e53c
00000330: 7662 813d d0dd 8fba 82f7 573d 4a2f 903d
00000340: b369 833d b907 c4bd ca8d ba3d 36b4 d93c
00000350: 070d ccbd 20e0 cc3c 82bc 8dbd b085 be3d
00000360: b735 a33d 45c3 87bd f98e 98bd 5fa9 e73b
00000370: 801a dabc 6a44 303d 1dbf bfbd 579a 983d
00000380: 91a6 133c 015e 013b 794a 83bd eba7 cc3b
00000390: 1ad7 8b3d ed86 c83d d04f 85bd 9e8c 2cbd
000003a0: e937 ab3c ed7a 673d 0cc3 acbd 6ca0 19bd
000003b0: 0487 a3bd 3424 bd3d 417b 0cbd 7498 773d
000003c0: ce66 603d eefb 173c e596 a03c f7e5 853d
000003d0: 7f07 50bc f5a5 583d c61d 5bbc 5e44 cf3a
000003e0: 33b8 0c3d 83b4 b9bd f400 44bd 9b48 a4bd
000003f0: 6d5e fabc e21f cfbb 3a53 243d 61bb a4bd
0.06638312 -0.075154535 0.081904486 0.06430776 0.084443964 -0.07705721 -0.067459844 0.047823597
-0.09381734 0.099334866 0.021392945 0.012979312 -0.085948385 0.032028332 0.043217782 0.015945444
0.09666995 0.030183023 -0.08911994 0.08444563 0.034124013 -0.047945708 -0.09231971 0.05729435
0.09551102 -0.082343906 0.0054925983 0.036057983 -0.04746177 -0.021990977 -0.067109376 -0.04751498
-0.091626 -0.002329271 0.059591282 0.04888233 0.0944141 -0.08826772 -0.012366185 0.097853504
0.016457438 -0.02834182 -0.09051468 0.046768863 0.0762997 0.08059136 0.084137626 0.019676346
0.07163287 -0.025298279 0.08162103 -0.00859892 -0.020725712 -0.049959254 0.05351133 0.04066436
0.063928604 -0.06422879 -0.053437825 0.09510915 -0.055783737 -0.0573191 -0.026890852 -0.03248378
-0.06834968 0.08122059 0.011202783 0.04582108 0.07454794 -0.06512617 0.07672313 -0.05034776
-0.016001096 0.076058485 0.092661925 0.08822753 0.057802413 0.09341476 -0.036212057 -0.006396947
-0.03437548 -0.0073868637 -0.01222064 0.053696673 0.06908055 -0.0723741 -0.055498134 -0.030910363
0.0134351645 -0.03901375 -0.062508605 -0.018356413 -0.0490464 0.0027670083 -0.07439886 -0.02512422
-0.0370831 -0.013882966 0.07896845 0.065902635 -0.0324331 -0.092144154 -0.071889095 -0.07710488
-0.009536001 -0.04463253 -0.070236936 0.022283625 0.0064675747 -0.015067226 -0.036432758 0.08566096
-0.0968221 -0.0023944476 0.046655677 0.070960864 -0.08743618 -0.015737956 0.083818525 0.016544301
0.03038991 -0.044408906 0.06975226 -0.03768839 -0.0541211 0.09116327 0.026623832 -0.0006938068
-0.0700425 -0.022246184 -0.07720712 -0.06762197 -0.014393223 0.01942973 -0.08235024 0.09768004
0.07391823 -0.09353267 0.06282243 -0.060309388 -0.08189899 0.09415729 -0.040414758 -0.033339307
0.01252443 0.05680659 0.0077312933 -0.027009176 0.008521355 -0.05207185 -0.07310564 0.026168926
0.010590375 0.049938984 -0.0373364 -0.09933652 -0.024938228 -0.097248584 -0.007912937 0.049096275
0.009299005 0.057666536 0.01874606 0.043097373 0.09046759 0.014954389 0.01672512 -0.040779606
0.06267055 0.08430976 -0.0698059 0.09755037 0.03031745 -0.014025874 -0.091982916 -0.10043919
-0.078949556 -0.084069826 -0.06702213 -0.029267998 -0.08342523 -0.084019884 -0.011185663 -0.0845585
-0.009086451 0.017121414 0.019073188 0.063071735 0.05485882 -0.056372255 -0.033848926 0.0023017987
0.08481778 0.048776742 -0.056243293 -0.011792416 0.018165952 0.034906384 -0.0373459 -0.0881985
-0.061303437 0.0034555076 -0.06858549 0.02797356 0.06317608 -0.001097614 0.052726276 0.0704027
0.06416645 -0.095717855 0.09109075 0.02657519 -0.09963422 0.025009215 -0.06920721 0.093028426
0.0796923 -0.066290416 -0.07449145 0.007069751 -0.026623964 0.043033995 -0.09362624 0.07451313
0.0090118805 0.0019739869 -0.06410689 0.0062456033 0.06828137 0.0979136 -0.06509364 -0.04212629
0.020900683 0.056513716 -0.0843564 -0.037506506 -0.079847366 0.09235421 -0.03429723 0.060448125
0.054785542 0.009276373 0.019603202 0.06538003 -0.0126971 0.052892644 -0.013373798 0.0015813222
0.034355354 -0.09067633 -0.04785247 -0.08021661 -0.030562604 -0.0063209394 0.040118434 -0.08043552

cell_list.0.conv_can.weight f4 [10, 11, 3, 3]
00000000: f9d3 a93e a9eb 963e eb9e 9a3e 369c 893c
00000010: 0ca9 38be 4e9c 14be 448b 09bf 358b 07bf
00000020: c234 afbe 962e 433d 85c3 aebd 8fa0 b1bc
00000030: e398 76bc d477 b7bb d6ef c13c 5447 7cbb
00000040: 2e1d 01bc db6a c2bc a31d b2bc 2165 f339
00000050: fb27 e8bc 00a6 48bd 25ce 813d 1f46 79bc
00000060: 3ff0 1cbd 3dc1 af3d 352f 333d 0a07 313d
00000070: a734 6fbd 79d2 82bc ede7 803d 1a25 083a
00000080: 0375 80bc 4c4d 5b3d 04c2 833d 401d 8dbd
00000090: 799f 813d eb3d a6bd 164f ba3d 7f04 5e3c
000000a0: f68b 47bc f90a 893d 1980 f43c 32a4 b7bd
000000b0: daf7 943d c3a7 a6bd 0808 8dbd b8f9 143c
000000c0: 7e4a 823d a75a 1ebc 34d8 733d 1b65 b1bd
000000d0: 6528 5a3c cef9 b4bd d8a0 6c3d c6ba bb3c
000000e0: 364a ddbc 7b97 c73d 976d e33c ebca 17bd
000000f0: 52e2 4c3d bab9 9e3d f63f 913d 1ca9 75bd
00000100: 0d69 41bd 04c0 87bd 0b67 96bd f206 fb3c
00000110: d12b f3bc 1917 b23d 6602 99bd 1599 29bc
00000120: 9279 3b3b 2398 153d d889 8d3d 585f 8bbb
00000130: c6fd b43d a578 8ebd 572c 08ba cdfc 943d
00000140: 4a65 c93d 62c2 963c 1e40 2dbb c023 703d
00000150: 9d6a 92bd cc36 073d 612b 583d 77b0 ccbd
00000160: d13a 53bd 8ac7 e33c 849f 0e3d 29fa 88bd
00000170: cdd9 44bb b1b7 a63d 5f73 02bd 5ba3 f8bc
00000180: e5d8 5fbc 72f2 a2bc cf0a 853d c5ad 4b3e
00000190: 7528 613e eb6b 393e 9d56 f33d c08b 4c3e
000001a0: 3e5f 8a3e 95b2 82bd 7499 91bc 7cf0 a33d
000001b0: 9353 83bd b56b 823c 1ab8 45bd 1aaf 5b3d
000001c0: 9f1d 58bd cb75 7a3c 091a 8cbd ca56 4b3d
000001d0: f0f4 6abd 3e9f 10bd c4f1 7dbc 91ac 8abd
000001e0: a759 b7bc 887f d1bb ad1c 103c ebfa 6d3d
000001f0: a6e7 58bd f1ff 933d 9b22 2abd 66df aebc
00000200: eec0 b5bb a1be d23c 0b48 c23d 6286 953d
00000210: 001f 2a3c 4342 b2bd 607e cbbc 44ea 973d
00000220: 69fa 89bd 48ca 39bd 2ee0 22bd 9806 3bbd
00000230: 7a32 4f3b 6e67 92bd 1050 b4bd 8066 fe3c
00000240: 777e 7c3d d809 33bc 86e2 69ba f44e c23d
00000250: 8e6a 73bd 0545 183d c7d8 25bd 8b4b 8e3d
00000260: dded ffbc 672c f7bc 43f5 b73d 3433 b6bb
00000270: 1b9b c8bd bdc8 e8bc b78d e83c 51fb af3d
00000280: 2ac3 8f3d 8c3f 74bd c210 8bbd a76b b2bc
00000290: 263a 8d3c e8a1 bdbd 7f36 92bc 17c3 f5bc
000002a0: 3364 0a3d 9f36 ad3c 7415 a7bc fa23 733d
000002b0: 6de0 c33d 2431 bf3c 4e25 0e3c f4fa ca3d
000002c0: fd1a 803b 0c1f 173d 681b 9dbd 8655 2d3d
000002d0: c535 b23d c957 9abd 8372 c2bd bace 8e3d
000002e0: 002e c2bd eac9 173d 9628 043b 4b6e cebb
000002f0: 4bce 87bd 896f aa3d 8a34 aa3d 6feb a23c
00000300: 6853 b23c c417 873d b39a 8f3d 05cc 073d
00000310: 9418 993d 9772 a03b 1ce2 1e3f ab83 323f
00000320: 5a20 1c3f 5d75 683e d04d b23e f8ea cb3e
00000330: f354 ddbe 25f4 8ebe a3d6 d1be 4eac c0bd
00000340: 5b19 313c 7091 393d 0ceb 59bd 8d21 a33d
00000350: ec90 01bd bca8 e33c 4ce3 90bd bd64 10bc
00000360: 8f4e 113d e3f0 ab3d ee4f a5bb 485e 703d
00000370: 9706 80bd 7bfd 15bd 45b3 b6bd 911b 77bd
00000380: 0409 963d 1376 903c ba6a 4ebd 1807 7f3d
00000390: b97d cbbb c377 29bc 413c 86bc 9c1d c2bd
000003a0: 660a 1e3b 5c11 aa3c 746f 82bc 0027 eebb
000003b0: 34fc 9c3d 71c5 893d 3ea7 2ebd 831d 8c3d
000003c0: cffe d93c 7e8a a4bd 9e9b 783b 01ab a3bd
000003d0: 412f 5fbd ce97 99bd 7d6f 453d 9bf3 a83d
000003e0: 1678 3ebd 9058 803d 6211 84bd 04a8 c8bd
000003f0: d3df bdbc f39f 853d 7750 b53d 43dc 933c
0.33169535 0.2947667 0.3019937 0.01679812 -0.18033236 -0.1451275 -0.5372813 -0.5294679
-0.3421994 0.04765185 -0.08533386 -0.021683006 -0.0150510995 -0.0055990014 0.023673933 -0.0038494663
-0.007880492 -0.023732593 -0.021742648 0.0004642392 -0.028339377 -0.048986435 0.06338147 -0.015214472
-0.038315054 0.08581779 0.043746192 0.043219604 -0.058399823 -0.015969502 0.06294236 0.0005193517
-0.015680796 0.053540513 0.0643349 -0.068903446 0.06329245 -0.08117279 0.09097116 0.013550877
-0.012179365 0.06691546 0.029846238 -0.08966865 0.072738364 -0.08137467 -0.068862975 0.009092741
0.063618645 -0.009665168 0.05953236 -0.086618625 0.013315295 -0.08836709 0.05777058 0.022916209
-0.027012926 0.097456895 0.027762217 -0.037058752 0.050020523 0.07750268 0.07092278 -0.05997573
-0.047219325 -0.06628421 -0.07343873 0.03064296 -0.02968398 0.08695812 -0.074711606 -0.010351439
0.0028606397 0.036522042 0.06911057 -0.004253309 0.08837466 -0.06956605 -0.00051945954 0.072747804
0.098337725 0.018403236 -0.0026435922 0.058627844 -0.07149241 0.033011243 0.052775744 -0.099945955
-0.051569764 0.027805109 0.034820095 -0.06688339 -0.0030037046 0.08140505 -0.031848308 -0.030351331
-0.0136625515 -0.019890998 0.06496202 0.19890507 0.2198809 0.18107574 0.118817545 0.19975185
0.2702579 -0.06381718 -0.017773367 0.08004853 -0.06412425 0.0159205 -0.048271276 0.053633787
-0.052762624 0.015286873 -0.06840903 0.049643315 -0.057362497 -0.035308115 -0.015499536 -0.06771196
-0.022381617 -0.0063933767 0.008795899 0.058100622 -0.052955292 0.07226551 -0.04153691 -0.021346759
-0.0055466807 0.025725665 0.09486397 0.07301022 0.010383368 -0.08704045 -0.024840534 0.074177295
-0.06737215 -0.045358926 -0.039764576 -0.045660585 0.003161578 -0.07148634 -0.08804333 0.031054735
0.061644044 -0.01092764 -0.0008921999 0.09487715 -0.05942779 0.037175197 -0.040489938 0.069480024
-0.031241352 -0.03017254 0.08982327 -0.005560303 -0.09795209 -0.028416032 0.028387887 0.08592857
0.070196465 -0.059630916 -0.06790306 -0.021779848 0.017239641 -0.09259397 -0.017848251 -0.030000253
0.033786964 0.02114421 -0.020395972 0.05936048 0.0956429 0.023338862 0.008675886 0.09911147
0.0039094673 0.036894843 -0.07671243 0.04231789 0.08701662 -0.07536275 -0.094944976 0.06973024
-0.0948143 0.037057795 0.0020165793 -0.006299769 -0.06631144 0.08322055 0.08310802 0.019887654
0.021768287 0.0659633 0.070119284 0.033153553 0.07475391 0.0048964727 0.62063766 0.6973216
0.60986865 0.2270102 0.3482499 0.39827704 -0.43228874 -0.27920642 -0.40984067 -0.094078645
0.010809268 0.045304716 -0.053202674 0.07965384 -0.03163235 0.02779042 -0.070746034 -0.00881308
0.03547531 0.08395555 -0.0050449288 0.058683664 -0.06251257 -0.03661869 -0.08920912 -0.060329024
0.07325938 0.017634427 -0.05039475 0.062262625 -0.0062100557 -0.010343495 -0.016386153 -0.09478304
0.0024115085 0.02076023 -0.015922286 -0.0072678328 0.076652914 0.06727112 -0.042639963 0.068415664
0.02661076 -0.08034228 0.0037934552 -0.07991601 -0.054488424 -0.074996576 0.048202027 0.08249589
-0.04650124 0.06266892 -0.06448628 -0.097976714 -0.023178017 0.065246485 0.08853238 0.018049365

cell_list.1.conv_gates.weight f4 [20, 20, 3, 3]
00000000: c38c 883d 19c3 1dbd 37e6 f03c 370a 3dbd
00000010: 61f2 173c 94c9 5ebd 70de 62bb 0d3f 66bb
00000020: 742f 47bd 944e 35bd c1db 493d 51cb 193d
00000030: 7938 2ebd 2654 77bd 4f2b f13c 4e41 b7bb
00000040: 2446 01bc 97d5 6e3c 99f2 cc3c e943 bfbc
00000050: 0eb7 073d bda6 09bd a487 5dbd b81c 71bb
00000060: 66f4 9b3b dfcc 8abc 73eb 85bd af03 983d
00000070: a3ce a13c 9db7 62bd c0c7 be3c 65dc 7a3d
00000080: b5c9 76bd 0ae6 25bd bb6a a03b a408 433c
00000090: 2a6b 09bc aec3 3ebd 65a2 09bc 9225 06bc
000000a0: cb70 db3c 0242 a1bc e531 873d 64a8 1b3d
000000b0: 6216 7f3d 15a4 75bd 11d2 4e3d 5ea4 2c3c
000000c0: 22b4 e8ba 5ad6 c9bc e85b 903d 9f06 3f3c
000000d0: 40f9 813d c23f 8a3c bbb7 6e3d 9e3a 663c
000000e0: 85a2 973d 010f e03c 66bf 6a3d 3116 87bd
000000f0: 9a21 ecbc 5234 25bc cb34 0abd 0715 173d
00000100: fd41 58bd 4310 993b b8d7 2f3d bdb7 353d
00000110: f7a5 8a3c 7144 21bd 8a20 90bc c9e7 7cbd
00000120: f348 963d 5a23 4c3d 7a39 b23c ed64 753d
00000130: 23ca 9bbc 2701 8abd 4567 f43a c3f7 6d3d
00000140: 3863 903d 2129 763c e4e2 343d 12f8 40bd
00000150: b6c7 5cbc 8272 4d3d 729b e53b 9ad0 5dbd
00000160: ddb8 d9bc 93df 623d 766b d4bc 6928 863d
00000170: 18c1 84bd b13e 9cbc 1ada e9bc ca8a 343d
00000180: 152c 853c f456 b5bc 38cb 20bc 56c3 7c3c
00000190: cc1d ef3c c483 3a3d 6eb8 5a3d b80e 07bc
000001a0: 6f83 dabc 154b 623c d333 d13c 31bc 1c3c
000001b0: 1f52 32bd 6bb8 73bd da70 8dbd 19a8 233d
000001c0: e76f 0d3c 0e8a 8c3d ca8d 8b3c bdff 023d
000001d0: 80cb 45bd 64ab 533d bf01 1b3d cfb1 8e3d
000001e0: 8734 a7bc a9d0 1cbd 7a54 86bd 8d95 66bc
000001f0: 5d33 273d f79f 8c3d 2a4a 4bbd ce5c 2cbd
00000200: 0926 81bd a9e5 88bd 9e1a daba bcf4 8f3d
00000210: 1ae3 4b3d 1d6a 6abd d807 b13c db15 d93c
00000220: 1e52 443d e26a f23c fd05 123c 28bb 4abd
00000230: 6376 62bd 610c 12bd 6fd2 933d 8f7d 42bc
00000240: e984 f53c 7ed9 91bb f748 97bd 0358 f1bc
00000250: de75 5f3d 57a2 4cbc 0509 80bd 7e50 863d
00000260: 0645 423c e25b b1bc 9041 50bd 3234 ea3c
00000270: 7348 4c3d 0780 853c 9d0f 49bd 1811 80bd
00000280: e2b0 6f3d 117d 163c 16fc 97bd e331 8dbd
00000290: 424f abba d7e9 823d 6d3c 63bd 4482 773c
000002a0: 07a3 45bc 7857 913d 1cf7 1b3d bd83 fc3c
000002b0: 6f63 2e3d 5f05 15bd 30db 68bd 6e22 cd3b
000002c0: 1e09 1b3d 0cd9 4abd 9090 73bd 78fa 5fbd
000002d0: 6ab2 b4bc c847 65bc 23bc b7bb d740 883d
000002e0: c7e4 973b 0b66 063c be24 393b a267 8b3d
000002f0: 840c 343b a482 c03b bf98 57bd bb53 8e3d
00000300: c358 7ebd 8afa 083c 199e b03c 809a 39bd
00000310: 93c8 593d 1bff 953d e455 d83c f4b3 5ebd
00000320: 5131 373c 6c56 83bd e5d8 8cbd 2bdb 66bd
00000330: 1e46 453c 7f9b 953d ac71 903d 8337 1d3d
00000340: 9ef5 86bc 1610 fb3c 9019 623d d375 db3c
00000350: c732 4a3d d4fd aabc 67e6 86bd 5cd2 fe3c
00000360: 7ffc 20bd 24b9 203c 4d72 1e3d 7c79 0e3d
00000370: 85f3 9ebb 05c9 0d3d 960a febc 8442 96bd
00000380: 9cb7 84bd 6f59 28bd 85a8 6cbd d8f5 2abd
00000390: fc25 c1bc 187f b2ba 1658 253d 8e6b 96bd
000003a0: 8499 7d3c dbd0 ecbc f9c7 483d 53fb d5bc
000003b0: 636e 793c 9a66 513b 28e6 1c3d 034a c03c
000003c0: ed3e 37bd c3bd 923d 75a6 273c 41d0 473d
000003d0: a05c 7c3b 1c60 823d 767f 34bd 9cb4 64bc
000003e0: e25d 903d 6efe 79bd 5edb 92bc ab01 0dbd
000003f0: e16b 7d3d 69b1 a5bc 275a d1bb 1004 50bd
0.06667473 -0.038516138 0.02940665 -0.04615232 0.009274096 -0.05439146 -0.0034617446 -0.0035132796
-0.04862924 -0.04426439 0.04928184 0.037547413 -0.042534325 -0.060382985 0.029439596 -0.0055925017
-0.007890258 0.014577291 0.025018023 -0.023347812 0.03313356 -0.03360628 -0.054084435 -0.00367908
0.004759359 -0.016943393 -0.06539049 0.074225776 0.019751852 -0.05535089 0.023288608 0.06124534
-0.060250957 -0.040502585 0.0048955358 0.011903916 -0.008387366 -0.046573333 -0.008400534 -0.008187668
0.026787182 -0.019684795 0.066013135 0.038002387 0.062277205 -0.059970934 0.050493304 0.010537235
-0.0017753879 -0.024638344 0.0704878 0.011659293 0.06346369 0.016876105 0.058280688 0.014052061
0.07404045 0.027350904 0.057311438 -0.065960295 -0.028824616 -0.010083275 -0.033741754 0.036885288
-0.052797306 0.004671128 0.042930335 0.04436468 0.016924841 -0.03937191 -0.01759364 -0.061744485
0.07338133 0.0498384 0.021755923 0.059910703 -0.019017285 -0.06738501 0.0018646499 0.058097612
0.070501745 0.015024454 0.044161692 -0.04711158 -0.013475349 0.05015803 0.007007056 -0.054154016
-0.026577407 0.055389 -0.025930148 0.065506764 -0.06482142 -0.019072862 -0.028546382 0.044077672
0.016256372 -0.022136189 -0.009814076 0.015427431 0.029189013 0.045535818 0.053398542 -0.008243255
-0.026674 0.013811846 0.025537407 0.009566353 -0.043535348 -0.059502047 -0.0690629 0.039955232
0.008632637 0.06862269 0.017035384 0.031982172 -0.048289776 0.051677123 0.037843462 0.06967508
-0.02041079 -0.03828493 -0.065590814 -0.014073742 0.04082047 0.068664484 -0.049631275 -0.042080693
-0.06306083 -0.06684429 -0.0016640013 0.07029101 0.049777128 -0.057230104 0.021610186 0.02649968
0.047929876 0.029591981 0.0089125605 -0.049494892 -0.055288684 -0.035656337 0.072178714 -0.011870756
0.029970603 -0.004450976 -0.07386964 -0.029460913 0.054555766 -0.012489877 -0.0625172 0.065583214
0.011857277 -0.021650258 -0.050843775 0.028589342 0.04987378 0.0162964 -0.049087156 -0.062532604
0.058518298 0.009185092 -0.074211285 -0.06894281 -0.0013069885 0.06392258 -0.05547755 0.015106741
-0.0120627945 0.070967615 0.03807746 0.030824536 0.042575296 -0.036382075 -0.05684966 0.006260208
0.03785049 -0.0495234 -0.059464037 -0.054682225 -0.02205773 -0.013994165 -0.0056071444 0.06652992
0.0046354267 0.00820304 0.002825066 0.06806876 0.002747328 0.0058749486 -0.052635904 0.06949564
-0.06209637 0.008360514 0.021559762 -0.04531336 0.053169798 0.07324048 0.026408143 -0.054370835
0.011181192 -0.06412968 -0.06877307 -0.05636136 0.012040643 0.07305049 0.07052931 0.03838302
-0.016474541 0.030647319 0.05520016 0.026789581 0.04936483 -0.020872988 -0.065869145 0.031106167
-0.0393033 0.009809766 0.038683224 0.034783825 -0.004850807 0.034615535 -0.031010907 -0.073369056
-0.06480333 -0.041100916 -0.0577779 -0.04173836 -0.023577683 -0.0013618199 0.04036721 -0.07344733
0.0154784955 -0.028908184 0.049018834 -0.026120817 0.015224072 0.0031952024 0.03830543 0.023472792
-0.044737745 0.071651004 0.010232558 0.04878259 0.0038507357 0.06365988 -0.04406687 -0.013959076
0.07049157 -0.06103366 -0.017926868 -0.03442542 0.06187046 -0.020226197 -0.006388921 -0.050785124

cell_list.1.conv_can.weight f4 [10, 20, 3, 3]
00000000: eced a73e f3ed 403e 258e ad3e eba5 863e
00000010: 8cb5 9a3e 4d49 bd3e efd1 113d 0831 26bc
00000020: b89b a93d 44bc 973d 7157 d53d 4fea a23d
00000030: a109 83bd 72ca 1ebe 82d5 3bbd fba5 0fbd
00000040: 7a84 8fbd fff7 7cbd f415 1abc 5a9c 03bb
00000050: 3172 bdbd 5f41 f93d 9375 883e 5218 893e
00000060: fd1d a4bc e4e8 463d 530c 983d 8539 4f3e
00000070: 6e9f 083e 37d4 223e 3ce4 f73c 0af5 a13d
00000080: 395d ed3c fc47 11be 7003 cdbd 1b77 debd
00000090: 55ba 173d 46ba fb3d 0aa3 0e3e e732 003d
000000a0: dfd8 96bb 49be 1a3d 6dd3 33be 08b7 58bd
000000b0: 3d4c 6cbd de4f 1d3f ae70 023f 945e 293e
000000c0: 5b8f b1bd feaa 76bd 4682 d8bd 6d1f c4bc
000000d0: 70a6 a3bc 636a 163d a19b d13d ee4f 233e
000000e0: c1e9 163e b49f 97bd f348 c5bd 556a b3bd
000000f0: 202d 57bd 615b 80ba ba5c 053d 656c af3e
00000100: b621 4c3e 54e8 24bd 2bf3 633e c5ef ad3e
00000110: a92c 8b3e 616e b93e fad7 bc3e c546 a53e
00000120: 5767 223e dbd2 2d3e 49e9 513e f0c4 293d
00000130: e143 073e fa8c b53d 7a73 0abe e5e6 09be
00000140: cdbb 0cbe 271f 75be 9d28 40bd 27f6 583b
00000150: 2224 55bd 7500 123c cb6a babd e59d c1bd
00000160: 383e 6dbd 267f f6bd d56f 65bd a182 803d
00000170: 6b98 8fbc 12c7 d8bc 45f8 1d3d dbfb 8dbd
00000180: 5411 80bd 4b6c 0ebd 850f 593c b4c0 95bd
00000190: 120b 003d 2ffa 5d3d 43b9 d6bb 8e51 b93c
000001a0: 9f67 b1bc 2443 33bd a1e5 9a3c 3eed 103d
000001b0: 95d9 803b f673 243d e0b2 08bc ab71 2cbd
000001c0: ffde 493c e58e 133d fea9 8e3d b404 623d
000001d0: 2581 d2bc 499c 85bd 71d0 f4bb 709d 793d
000001e0: 4cfd a63b 4826 0c3d 1330 69bd de60 303d
000001f0: df36 163d 3fa1 163d 5081 e63b 72bd 0a3d
00000200: d770 4c3d 78fe 243d 6d09 2f3d f501 19bd
00000210: f9db 5a3d b931 0dbd 91f0 0bbc 1249 2c3d
00000220: dc5e 003c 4df5 913d 8721 3f3d ab25 dabc
00000230: 1a45 1c3d de93 babc 9b37 293d 02c5 463d
00000240: 29d0 f4bc 55b6 b13c ced5 6dbd afdc 04ba
00000250: 6a87 3dbd 35e6 66bd 931a d1bb 77e4 0a3d
00000260: 98a7 8ebd 2736 4c3c c828 99bb fa01 a43c
00000270: e895 85bd a297 17bc f020 6b3c 89c9 2cbd
00000280: 9d12 f7bb fac4 84bd ddd1 893d cf61 ac3c
00000290: 0eb7 833d e89e 85bd bade 81bd 4230 21bd
000002a0: 743e 933d 3e97 0e3d 9596 00bd 6c48 6a3d
000002b0: 6f6f 98bd 2aaf c4bc b715 c43b 2c57 3d3d
000002c0: 8452 d8bc 63b2 4dbd cd7d 75bd 65f8 33bd
000002d0: 2e32 d33d 3dc3 8bbd c355 35be 7602 cd3d
000002e0: 4b25 edbb bfb8 bcbb 76fd 583c 0a71 ae3c
000002f0: dc96 c13d 4780 c03d 75ef 4d3d e2d8 2ebd
00000300: c54f 1abd f58b 83bd 7c05 a3bd 9753 efbb
00000310: 3a2f f1bd 2d2c 81bd 85aa c3bd cb99 e6bd
00000320: bd62 22be 21de ed3d 5791 913d 4962 7a3d
00000330: a9b6 da3d f77e c33d c7b9 063e b185 893e
00000340: 5764 a13e 1d83 883e 628c 29ba e4eb bcbb
00000350: 6958 b03d 14b6 3ebd cedb 66bd ec45 97bd
00000360: 4cac 5dbd 44bd cc3c e83d 64bc 9be7 133d
00000370: b711 693d 992a 933d ad38 0fbe 77bd 01bd
00000380: cb65 07bd 2a0b 873e c979 853d 6862 91be
00000390: eda2 193f 0098 df3e cfa8 323e 5d2b 493e
000003a0: a90d 483e ce13 843e 411a dc3d fa49 bf3d
000003b0: 3168 103e b7f3 e9bd 2978 11be 222d 8fbd
000003c0: 29e0 6ebb 99a4 483c 5732 1f3c f6c1 3a3e
000003d0: f302 bb3d a5f1 15bd 7d61 653d 17a9 72bc
000003e0: 19a6 0d3d f3ec 8b3d 0013 ce3d d3aa cd3d
000003f0: 8765 593c 0567 083d 3bc5 01be 4467 163d
0.32798707 0.1884077 0.3389751 0.2629846 0.30216634 0.36969987 0.0356006 -0.010143526
0.08281654 0.07408956 0.10417069 0.07954847 -0.06398321 -0.15506914 -0.045857914 -0.0350704
-0.0700769 -0.061759945 -0.009404648 -0.0020082206 -0.09250296 0.12170672 0.26652202 0.26776367
-0.02003383 0.048561946 0.07424226 0.20236786 0.13342068 0.15901266 0.030260198 0.079080656
0.028975116 -0.14187616 -0.10010421 -0.10862561 0.037042934 0.12291388 0.13929382 0.031298544
-0.00460349 0.037779126 -0.17561121 -0.052908927 -0.057689894 0.6144999 0.50953186 0.16539985
-0.08669921 -0.060221665 -0.10571723 -0.023940766 -0.019976825 0.036722552 0.10234762 0.1594846
0.14737608 -0.07403508 -0.096330546 -0.087605156 -0.05253327 -0.0009792858 0.032559134 0.34262386
0.19934735 -0.040260628 0.2226073 0.33971992 0.2718251 0.36217025 0.36883527 0.32280555
0.15859734 0.16974966 0.20499147 0.04144758 0.13209487 0.0886478 -0.13520613 -0.13466986
-0.13743515 -0.23937665 -0.04691373 0.0033105703 -0.052036412 0.008911242 -0.091024004 -0.09453944
-0.057920665 -0.120359704 -0.056014854 0.062749155 -0.017528733 -0.026462112 0.038566846 -0.06932803
-0.06253305 -0.034771245 0.013248329 -0.07312146 0.031260557 0.05419367 -0.0065528466 0.022621896
-0.021655856 -0.043765202 0.018908324 0.0353825 0.003932188 0.04014965 -0.008343428 -0.04210059
0.012321233 0.036024947 0.06966017 0.055180266 -0.025696347 -0.0652395 -0.007471137 0.06094116
0.0050961133 0.034216195 -0.056930613 0.04306113 0.036673423 0.03677487 0.007034458 0.033872075
0.0499123 0.040281743 0.0427336 -0.037355382 0.05343244 -0.034471247 -0.008541242 0.042061873
0.007835116 0.071268655 0.046662834 -0.02662929 0.038151838 -0.022775587 0.041312795 0.048527725
-0.029884415 0.021693388 -0.05806523 -0.0005068285 -0.04627172 -0.056371886 -0.0063813417 0.033909287
-0.0696556 0.012464083 -0.004674051 0.020020474 -0.06522733 -0.009252461 0.014351115 -0.042184386
-0.0075400607 -0.06482883 0.06729481 0.021042733 0.06431399 -0.065244496 -0.0634131 -0.039352663
0.07189646 0.034812205 -0.031393606 0.057197973 -0.07443129 -0.024009306 0.005984034 0.04622571
-0.026406534 -0.05021895 -0.059934426 -0.04393806 0.103123054 -0.06824348 -0.17708497 0.10010235
-0.0072371117 -0.005759328 0.013244024 0.021294136 0.09452602 0.09399467 0.050277192 -0.042687304
-0.03767373 -0.06423179 -0.079600304 -0.007303666 -0.11776586 -0.06307254 -0.095540084 -0.112598024
-0.15857978 0.11614633 0.071077995 0.06112889 0.10679371 0.09545701 0.13156806 0.2685981
0.31521866 0.26662531 -0.0006467757 -0.005765425 0.08610613 -0.046560362 -0.056361966 -0.073863834
-0.054119393 0.024992593 -0.013930775 0.036109548 0.05690166 0.07185859 -0.13986464 -0.03167483
-0.03305606 0.26375705 0.06517369 -0.2839539 0.6001423 0.43670654 0.17447208 0.19645448
0.19536461 0.2579636 0.10747195 0.09340282 0.14102246 -0.11423438 -0.14205994 -0.0699103
-0.0036449528 0.012246274 0.009716592 0.18238053 0.09131422 -0.036607403 0.056001175 -0.014810822
0.03458223 0.06832304 0.10062218 0.10042348 0.013268835 0.033301372 -0.12672894 0.036719576

cell_list.2.conv_gates.weight f4 [20, 20, 3, 3]
00000000: 3faa f33d 01d8 803d 4053 433e 42ee c63d
00000010: d1ae de3d 41d1 243d 168c 5b3d fce4 403c
00000020: 87b4 9fbc 2581 0e3e ba69 3a3e 5fb0 db3d
00000030: 5024 c63d 50d0 9b3d 9428 293c f2c0 e6bc
00000040: ae70 9ebd 1969 0dbd 4362 113e 266c e23d
00000050: 46a3 bf3d fc86 e83d 29ce c53d ad1e d53d
00000060: c267 283d 3575 a43d 9de0 b63d f85d 3f3e
00000070: a312 4f3e 65bd 473e c912 4d3e 1a6d 1c3e
00000080: 0221 b53d ff34 5b3e 9691 233e 6957 453d
00000090: d20d 1ebc 0701 be3d bb9f 503e 975d 9c3c
000000a0: d1bc 9e3c c040 d73d 6ed9 683e f916 163e
000000b0: 3453 f33d 07ec b63e d73b a73e fd95 8e3e
000000c0: ed2d 8d3e 6509 963e 42d0 8b3e 96a5 843e
000000d0: 6120 5d3e 7b63 3e3e 44ed 25be 8863 dbbd
000000e0: bcc7 52be a34d 70be c4d7 36be d941 b4bd
000000f0: 8297 0dbe 6a5a f4bc 7883 ecbc 1b96 4bbe
00000100: f698 7cbe c1bb 83bc 81ec 9cbd 695f 3abe
00000110: 4972 91bd 2a56 54be 8991 9dbe 90ac 60be
00000120: 5890 4a3e aa1b 3a3e cf0b 423e a982 8c3e
00000130: c022 633e 0a37 693e 6d08 153e 96c9 373e
00000140: 3886 db3d 72ee f6bd 681e c4bd f79f 98bd
00000150: 6ba1 23be 47d2 d63b 2d78 63bb ad11 7dbe
00000160: a1a4 24bd c6c4 00be 0637 db3d 2067 363e
00000170: eb4a 203e d5e6 9a3e 95f7 4a3e 3ab8 fe3d
00000180: 6a6f 823e 181e ca3d 49ec 993d df1d 21be
00000190: 76d1 40be 8a0a 2fbe b201 70be fb74 f5bd
000001a0: 5f40 f5bd 04a6 03be da92 32bd 71b3 b2bd
000001b0: 0bb4 99be 0be9 80be c574 64be 741c 91be
000001c0: 31e5 70be 175b 75be 0a97 15be 6fc3 d6bd
000001d0: ca19 80bd 3bc6 ef3c 61fb 4fbc d1ef 783c
000001e0: dd7e 843d a958 f6bb 1af9 5a3d 3c18 c13d
000001f0: 20ed 4a3d fe84 db3d 4dd1 f83d 3190 0d3e
00000200: 6b3d 48bd 3787 8d3d 8605 573d 663a a2bd
00000210: a372 ecbc 0ce1 513c cb4b 8dbd 553c 633c
00000220: 40e1 7c3c e806 a1bc aa3e 9f3d 3036 70bd
00000230: dba7 efbd 148d d93d 9d50 613d 7b7a da3c
00000240: 58d5 3c3e 88df 633e f6a8 8c3e 0557 603e
00000250: 0b90 393e 6016 143e 3b25 f03d 18c1 6a3e
00000260: 38a6 663e aa73 bcbe 8133 94be 4af6 5fbe
00000270: 067e 73be 1f25 85be 8d58 1fbe 22f9 54be
00000280: 9fc4 ddbd 60ba 40be 29c6 acbd 42b6 47be
00000290: 42b1 2dbe fc22 59be 7607 11be 4f40 21be
000002a0: 0d34 a6bd a20d a7bc 6a64 933b 9734 633e
000002b0: b935 4d3e ff38 483e f22d 1c3e bb5e f83d
000002c0: da8b 283e b276 603e 5f20 0f3e df20 a43d
000002d0: ceda 313e 4279 253e 3b8f e33d 4f49 e93d
000002e0: 88e4 ab3c d0d0 32bd a40d 923b 119b bc3d
000002f0: f6e6 e0bc 8775 2b3e 5733 1b3e d5a7 b33d
00000300: 4055 2dbc 613c 90bc 4c2e 38bd f92d 94bd
00000310: 284c c8bd 54cc a6bd b356 1c3c 6d52 ab3d
00000320: fdae ce3d 4c83 9a3d e3d3 76bd cbcd 293d
00000330: cf09 9f3c f854 d5bc fe95 a0bd 4ebd 4b3e
00000340: 6e43 353e c123 313d 134d eb3d 2220 f23d
00000350: 3e91 7c3d 3f9d 273e 4ea4 2f3e 160a f33d
00000360: 9a3b 11bc 2ec4 10bd cb2f b93c dbfb 6b3d
00000370: 1668 e53b 2983 6f3b 4e8a 483e ee0d 413e
00000380: 2437 5a3e 126d 613d 0304 053e 5b07 de3d
00000390: 6e22 3d3e 0837 593e e966 413d 1600 123e
000003a0: 7a4e 573d 2d32 0f3e 9c89 52be d1de 16be
000003b0: 0feb 1cbe 416d 01be 1611 61bd 050c 57bc
000003c0: 13b2 e7bc 9fbf 313b a24e bcbc 1a68 b2bd
000003d0: 077c 01be 5b62 dfbd 2626 a7be e692 8fbe
000003e0: 08bc 4cbe 8231 5cbe a92d 20be e16e 48be
000003f0: 0f5f 333e d129 b53d 7703 313e 12b9 323e
0.11897706 0.062911995 0.19074726 0.09713413 0.10873187 0.040238623 0.053600393 0.011773344
-0.019495262 0.13916452 0.18204394 0.107269995 0.09674895 0.07608092 0.010324616 -0.028168175
-0.07736336 -0.034524057 0.1419764 0.11055784 0.09357314 0.11353871 0.096584626 0.104062416
0.041114576 0.08030168 0.0892956 0.1868819 0.20221953 0.19505842 0.20026697 0.15275994
0.08844186 0.21406935 0.15973505 0.048179064 -0.00964685 0.0927754 0.20373432 0.019087596
0.019377144 0.10510397 0.22739193 0.14657201 0.11881104 0.3572695 0.32662842 0.27848807
0.275741 0.29304042 0.27307326 0.25907582 0.21594383 0.18592636 -0.16203791 -0.107123435
-0.20584005 -0.23467116 -0.17855746 -0.08801622 -0.13827327 -0.029828269 -0.028871283 -0.1988148
-0.24667725 -0.016080739 -0.07662297 -0.18200459 -0.07101876 -0.20735994 -0.30775097 -0.21940827
0.19781625 0.18174616 0.18949817 0.27443436 0.22181225 0.22774902 0.14553995 0.17947993
0.107189596 -0.120571986 -0.09576112 -0.07452386 -0.15979545 0.0065558287 -0.0034709082 -0.24713774
-0.040196065 -0.12575063 0.10703854 0.17812777 0.15653579 0.30254236 0.19821008 0.12437482
0.25475627 0.09869021 0.07515771 -0.15734051 -0.18829903 -0.17093864 -0.23438147 -0.11985203
-0.119751684 -0.12856299 -0.04359708 -0.08725632 -0.30020174 -0.25177798 -0.22310169 -0.2834202
-0.2352493 -0.2396053 -0.14608398 -0.10486495 -0.06254919 0.029269328 -0.012694211 0.015193895
0.0646951 -0.0075178933 0.053460218 0.094284505 0.049542546 0.107187256 0.12149296 0.13824536
-0.048886698 0.06910556 0.052495502 -0.07921295 -0.028863257 0.012810003 -0.06899222 0.013869365
0.015434563 -0.019656613 0.07775624 -0.058645427 -0.11701938 0.10622612 0.05500852 0.026669731
0.18440759 0.22253239 0.27472657 0.21908195 0.18121354 0.1446166 0.11725851 0.22925222
0.22524345 -0.36806995 -0.28945544 -0.21871296 -0.23778543 -0.26004884 -0.15561123 -0.20798162
-0.10828518 -0.18821096 -0.084362336 -0.1950312 -0.1696215 -0.21204752 -0.14163002 -0.15747188
-0.08115397 -0.020392243 0.0044980543 0.2218803 0.20040025 0.19552992 0.15251902 0.121274434
0.16459599 0.21920279 0.13977192 0.08014082 0.17368624 0.16159537 0.111113034 0.11390936
0.020982996 -0.04365617 0.0044571925 0.09209264 -0.02745388 0.16744052 0.15156303 0.08772246
-0.010579407 -0.017606916 -0.044966027 -0.07235331 -0.09780151 -0.08144441 0.009542155 0.08365331
0.1009197 0.07544574 -0.060260665 0.041456025 0.019413857 -0.026041493 -0.07841109 0.19896433
0.17701504 0.04324699 0.1148931 0.11822535 0.06166195 0.16368578 0.17152521 0.11867158
-0.008864308 -0.03534334 0.022605797 0.057613235 0.0070009334 0.0036546683 0.19584009 0.1885297
0.21310097 0.05503566 0.12989812 0.10841247 0.18470165 0.21212399 0.047217283 0.14257845
0.052565075 0.13983984 -0.20560306 -0.14733435 -0.15324043 -0.12639333 -0.054947935 -0.013125424
-0.028283155 0.0027122272 -0.022986714 -0.08711262 -0.12644969 -0.10907432 -0.32646292 -0.28041762
-0.19993603 -0.2150326 -0.15642418 -0.19573547 0.1751673 0.088458665 0.17286478 0.17453411

cell_list.2.conv_can.weight f4 [10, 20, 3, 3]
00000000: 91e0 36bd 3e6d 5d3d d265 df3b 5c97 153d
00000010: 15d4 61bc 954b af3d fd2c 99bd fd11 8b3b
00000020: d15e a53d 327c dbbb 5e62 b83d a63c be3d
00000030: 9ab3 983d 4221 063d 8dd1 1a3e d688 0a3d
00000040: 07c0 f5bc 0ae8 41bd 6ffa 493e 8a89 013e
00000050: 7d35 273e 3b69 0d3e e966 403e f75e 4d3e
00000060: 9ea2 da3c ad25 9d3c c0ae 283a 4de4 6f3c
00000070: 994b 9e3d 56e1 2e3c face 493d 1631 993d
00000080: 5271 e93d 6fa2 ebbc 9fa1 d93c cf19 b33c
00000090: 77a5 4c3e adc1 833d c3fb 3a3e f3e4 ff3d
000000a0: 6187 e53d 8348 5c3e daf2 d2bd 1bb7 04bc
000000b0: dba2 5ebd ee71 0dbe 2746 93be c436 21be
000000c0: de31 e93d 9477 82bd 3b0f fb3d b7cc 89bd
000000d0: 5f73 edbd 1f8c 47bd d257 25be 8239 90bd
000000e0: 9e4d 20be 9725 523d 4a64 afbd da2c e9bd
000000f0: 0e9e 8cbd 3840 88bd bd3c fdbd 99ad 79bb
00000100: 8ca1 8dbd c959 46bd 776d 08bd 679d 42bd
00000110: 56a9 16bd f19e 9abd 7394 62bd d56f 38bc
00000120: d1d9 1d3d 9fa4 083d 6c22 713e 4c6c 703c
00000130: cad9 e43d 170d ee3d fe30 a93c a4a2 68bd
00000140: 8cad a83d 5e4b 0e3e 03db c43d 6278 0fbd
00000150: 899e ec3d ebcd e23d 4da2 2cbd e689 17bd
00000160: ff8a 51be cb99 08be 4ea9 163e 6b19 5d3e
00000170: 5063 813e fb55 d1bd f7df acbd 2837 84bc
00000180: 1c56 4bbb cfaf d83d adb0 c33d 2e17 67be
00000190: 55e0 23be a508 83be 8ea5 0fbd e6e9 c9bd
000001a0: 6b1a cdbb 73c5 6bbd 9adf 37bd b2d3 d9bd
000001b0: 3c1b 00be b61b 7fbd 4800 15be 4b9f f1bd
000001c0: 8fb8 d33c 9f60 a0bc 0a1d 12bc 8f70 31bb
000001d0: b6cb d73c e47b c7bc 618c fc3c 5c80 243e
000001e0: 4cb1 ac3c f79d e8bd 11ce e43c f4b0 fbbc
000001f0: 7694 8e3d bd47 34bc ba44 d53d 83f5 3f3d
00000200: f04e 45bc 8c40 e3bd c1b5 8abd db9f 5cbe
00000210: 530f a4be 469d 8cbe 0e0a 70be 9084 3cbd
00000220: 9a69 0fbd 82a8 2bbc 112d 6b3c bcde d1bd
00000230: efc1 88be d047 6dbe 2854 1bbe d481 98bd
00000240: aa6c 09bc b7df 143e 71e0 083d 2c34 283e
00000250: 573d 423e 9c06 8f3e efe1 7b3e 441c 303e
00000260: b8ec 5f3e ed91 e8bd 327e b6bd 1154 e3bd
00000270: 5682 37be cde0 57bd d8e9 aebd a85d 8fbd
00000280: 487a 10be f3cd c4bd cfcd 9e3c 06e7 fbbd
00000290: 347b 4bbe 14e6 16be fe3b 06be 6095 2cbe
000002a0: a440 24be 2b7c babb b266 5ebd c7cb c9bc
000002b0: 60f0 f53d fe27 8e3d a6ac ae3d 450c 1e3d
000002c0: 8a42 ac3c 4633 253e 797e 3a3e 9467 f03d
000002d0: 6558 723d 853e dc3d 10e9 dd3c 3aa3 babc
000002e0: 3d3d afbd 0b85 27bd 74fa 15bd fb0e febd
000002f0: e6fd 3bbe 3025 053e 32d4 4c3e 8160 1e3e
00000300: 6cc9 423d b79c 493d 67bc 6dbc 0fcf 2bbe
00000310: 27f7 59be ae6b 2fbe d069 b5bc 5ea8 5c3d
00000320: 47ac a03d 6b8e debd a34f 11be 78fa e6bd
00000330: 996a 3bbe 8151 15be 5875 02be 675a cb3d
00000340: 48b4 8f3d 8819 3f3e 58a2 263d 7a43 66bd
00000350: 47cf 253d 1a76 4dbe 0b29 6fbe 7f52 83be
00000360: 989f 443e e259 743e 99fd 453e c519 343e
00000370: f842 ad3d a089 153e 90a2 5a3d e7cc e63d
00000380: 762b bf3d 7e28 813e 5576 6e3e 8d46 4f3e
00000390: 9f6c 503e 64f4 d83d fe54 b93d a57a f23d
000003a0: 39fc 513d 927e b8bd a5ca 953d 7bbb fa3c
000003b0: b3a3 813c e06a 5d3e 836f 1e3e 8762 353e
000003c0: a6b6 f43d b81c 4a3e 5c3d 493e e90c c2bd
000003d0: 90c4 33be c2bd 2cbe 5208 85bd c72b b8bd
000003e0: becb a83c e9c8 ec3c 9a38 c5bc c95d 4dbe
000003f0: 2344 15be 9896 9cbd 5618 21be 4c41 b43b
-0.044647757 0.05405926 0.006817558 0.0365213 -0.013783474 0.08559338 -0.07479284 0.0042440877
0.080747254 -0.006698155 0.09003137 0.092889115 0.07456131 0.03274656 0.15119 0.033821903
-0.029998792 -0.04734043 0.19724439 0.12650123 0.16328998 0.13809673 0.18789257 0.20055757
0.02668887 0.019183004 0.0006434731 0.0146418335 0.07729263 0.010673841 0.049269654 0.074800655
0.11398567 -0.028763978 0.026566325 0.021862892 0.19984995 0.06433425 0.18260102 0.124948405
0.11207462 0.21512036 -0.103002265 -0.008100296 -0.05435453 -0.13812992 -0.2876446 -0.15743548
0.113864645 -0.06370464 0.12258764 -0.067284994 -0.11594271 -0.048717614 -0.16146782 -0.07042219
-0.15654609 0.05130538 -0.085640505 -0.11385508 -0.06866084 -0.06652874 -0.123651005 -0.0038097857
-0.06915578 -0.04842547 -0.03330752 -0.04751339 -0.036782585 -0.07549847 -0.055317353 -0.011257132
0.038537804 0.03336012 0.23548287 0.0146742575 0.111743525 0.116235904 0.020653244 -0.05679573
0.082362264 0.13895938 0.09612086 -0.035026915 0.11553676 0.11074432 -0.04214697 -0.036996745
-0.20463179 -0.13339917 0.14713022 0.21591727 0.25271082 -0.102214776 -0.084411554 -0.016139582
-0.0031026667 0.10580408 0.095551826 -0.22567436 -0.16003545 -0.25592533 -0.035069995 -0.09859066
-0.006259253 -0.05756135 -0.044890977 -0.10636081 -0.12510389 -0.062282287 -0.14550889 -0.11797961
0.02584484 -0.019577323 -0.008918056 -0.0027075147 0.026342254 -0.024351068 0.030828657 0.1606459
0.021080635 -0.113582544 0.027930291 -0.030724026 0.069619104 -0.011003432 0.10413499 0.046864998
-0.012042746 -0.11096296 -0.06772948 -0.21545355 -0.3204294 -0.2746374 -0.23441336 -0.04602486
-0.03501282 -0.010477187 0.014354006 -0.10247561 -0.2671046 -0.23171926 -0.15168822 -0.07446638
-0.008387724 0.14538465 0.03341717 0.16426152 0.18968712 0.2793473 0.24597906 0.17198282
0.21867645 -0.11355958 -0.089107886 -0.11100019 -0.17920813 -0.05270462 -0.08540696 -0.070002854
-0.14109147 -0.09609594 0.019385247 -0.122999236 -0.19871217 -0.14736205 -0.13108823 -0.16853857
-0.16040283 -0.0056910715 -0.054297157 -0.024633301 0.120087385 0.06941222 0.08529024 0.03858592
0.021027822 0.1613284 0.18212308 0.11738506 0.05916633 0.10754112 0.027088672 -0.02278291
-0.08556602 -0.040898364 -0.036615804 -0.12405201 -0.18358573 0.13002467 0.20002821 0.15466501
0.047555372 0.04922172 -0.014510251 -0.16778205 -0.21285687 -0.1713092 -0.022145182 0.053871505
0.07845359 -0.10867008 -0.14190535 -0.11278242 -0.18302383 -0.14581873 -0.12740076 0.09929352
0.07016808 0.18662083 0.040682167 -0.056216694 0.04048088 -0.20064583 -0.233555 -0.25648877
0.19201505 0.23862413 0.19335021 0.17587955 0.08460039 0.14603281 0.053377688 0.11269551
0.093344614 0.25226206 0.23287328 0.20241757 0.20353936 0.10593489 0.09049414 0.11839799
0.05126593 -0.09008516 0.07314042 0.030606976 0.015825128 0.21622801 0.15472226 0.17713366
0.119489 0.19737518 0.19652313 -0.09475119 -0.17555451 -0.16869262 -0.064957276 -0.08992725
0.020604964 0.028904395 -0.024074841 -0.20055307 -0.14576773 -0.07645911 -0.1573194 0.005500948

cell_list.3.conv_gates.weight f4 [20, 20, 1, 1]
00000000: 6811 cabd 78c3 2fbe 41bb 443b 81fd 973d
00000010: ac0d 063e 1cd5 96bd e358 64be 1016 a33c
00000020: 855f 3c3e 909d 513e be0c 71be b006 933d
00000030: 4267 89be 1741 163e 0d97 82bd f8bc 243d
00000040: aa1f b43d efc8 b43d bc55 233d 80dc e03d
00000050: aabe 4ebe c6cf f0bd 61ff dc3d eb29 4c3e
00000060: fb1b e13d 8a16 313e c398 9f3e 6ed4 98bc
00000070: 55ba ab3e f5fb 893d 4f78 6cbe ec5b 44be
00000080: 8e02 273d 404e 45be 8599 663e 90d2 81be
00000090: 0a09 bd3d 7b6d ee3d 20bb 4e3e ecde e33d
000000a0: 42cc 563d c6b9 223e bd47 10be 0e5a 9fbd
000000b0: b6ef 5e3d 4684 60bd 1a97 50bd 2cd7 09bc
000000c0: 4969 e93d 5f8d 5a3e db16 403d 9985 d8be
000000d0: 5438 da3d 4e91 5d3e 97b4 233d e43c 413d
000000e0: 899e cebd 116d 723d e658 91bd dab3 79bd
000000f0: b2e0 c0bd c86d 1f3e 24d3 1d3e 4be9 20be
00000100: 5ceb 18be aea7 903e b802 f4bd 6513 473e
00000110: 3d0e 3abe 762a 0cbe 0647 41bd c717 65be
00000120: 1c6f f23d 4275 14bd f67d e0be 3479 8fbd
00000130: 248a 19be ba84 8dbd 7fdf 33be b492 ecbd
00000140: f372 a9be 4dc9 93be 36f6 f53d 54f0 ca3e
00000150: f117 6e3e 2f88 96be 0668 e73c 97d1 6fbd
00000160: 8a1c 9f3e 1a53 ef3e e24d 3cbe 07f2 84bc
00000170: 33e6 3bbc 3267 85be 9426 2a3e 31a5 34be
00000180: 0c1f 55be cf70 ab3e f99b 483e 13c1 063e
00000190: f7ba a5bd 1c44 93bc b7ee 28be 5e1d 81be
000001a0: d3ff 2fbe 817c db3b 53a0 c8be 94ea f53d
000001b0: dcbf 83be eefc 253e 7da7 9abc a500 313e
000001c0: cf08 edbd 0161 013e ec7a 0abd f96b 92bb
000001d0: 85aa 10be 0369 5cbe bd42 8abe bcb4 07be
000001e0: 7bf1 52be 2308 6a3d bec0 a4bd 5b8f 5dbc
000001f0: 6f3e 573e 7ff2 e7bd 4c7b 1cbd fcce 2abe
00000200: 3a3f 5b3d abae 62bd 58d4 1b3e 9e93 0e3e
00000210: 4b58 9c3c 4a13 033e 0a16 383d 6e0a ee3d
00000220: 4186 92be 41a8 d0be 3963 093e ca3c 423d
00000230: 87de c23d 8c3c 0bbb 1327 823c aea6 34be
00000240: b6ab 8dbb a343 66bc e1be 13be 630f 9e3e
00000250: 92de 3bbe f179 b9be ea9b 373e 10da 58be
00000260: 4efb a63d 7905 80bd 267d 19be 6bb1 eebd
00000270: 0fa7 c63d 9c69 ffbd 779f 433c 88e3 c6bd
00000280: a2a0 933e af0c 533e f55c a2be b789 123d
00000290: d878 fa3d f87f 953d a89d f2bd 3509 9cbd
000002a0: 26dd 0b3e 560d 103e 4ae6 1c3e 289f 123e
000002b0: 16a5 573c ac8e a6bd a77e 5cbd 6fea 7d3e
000002c0: 7901 ab3e b32d 9cbd 6ecf 9fbe c4b0 bd3d
000002d0: 6217 50be d83b 88be 1e3c e33d 43aa b5bd
000002e0: dcc0 a1bc 3ca1 f13d f773 24bd 0308 7dbe
000002f0: e7ac 483d 7047 203e 26e1 e23d 321f 52be
00000300: dde5 973e cd06 b6bd e74a e5bd ee21 c2be
00000310: b0e1 57bd f9f2 f53a 3963 5b3e ac6f 01be
00000320: 54aa 5a3c bfac e5bd 5321 a7bd c24f b63d
00000330: 6b50 483e ccca a63d 0ab5 103e 1888 75be
00000340: 4c0c 7cbd 86b3 813e 537a 78be a9e2 6dbd
00000350: 5766 fb3d 75e9 b1be 9c53 91bd db54 36be
00000360: 995b 873e 3b5f 47be 4085 243e b6a7 44bd
00000370: 51bb 2d3e ad8c cd3e e561 0ebf b100 f6bd
00000380: fee9 71be aefb 843d 1764 c6be e161 813e
00000390: 5549 2dbe ed28 cabe 5f5a 933e 2fcc 43be
000003a0: 7319 253e 7df1 513e d7bd a0bd 07ba c7bc
000003b0: 5046 523c 1184 efbd c662 06be 3c4f 50be
000003c0: 54a6 b33d a5be b13e 76ea 13be 4704 e63c
000003d0: c9e0 60be 61c2 603e f96d 1dbd 1755 b53c
000003e0: 59a6 983c 8300 ab3d 4492 553e abc3 25be
000003f0: e6c5 653e 6016 06bd 51fa 76bd 347b 3bbb
-0.09866601 -0.17164409 0.0030018839 0.07421399 0.13091153 -0.07364866 -0.22299533 0.019907981
0.18395813 0.20470262 -0.23540017 0.0717901 -0.26836592 0.14673267 -0.06376467 0.040219277
0.08795102 0.088273875 0.039876685 0.10979557 -0.2018992 -0.1175838 0.10790897 0.19937865
0.10991665 0.17293754 0.31171235 -0.018655982 0.33540598 0.0673751 -0.23092769 -0.1917569
0.04077392 -0.19268131 0.225195 -0.2535596 0.0923024 0.116419755 0.2018857 0.11126503
0.05244089 0.1589118 -0.14089866 -0.077808484 0.054427825 -0.054813646 -0.05092535 -0.008413117
0.11397035 0.21342991 0.046896797 -0.42289427 0.10655275 0.2163746 0.039967146 0.04717721
-0.10088832 0.059186045 -0.07097034 -0.060962535 -0.09417857 0.15569222 0.15412575 -0.15713994
-0.14933532 0.2825293 -0.11914581 0.19440992 -0.18169494 -0.13688073 -0.047186874 -0.22372352
0.11837599 -0.03624464 -0.438461 -0.070055395 -0.14994103 -0.06910081 -0.17565726 -0.11551419
-0.33095512 -0.28864518 0.12009852 0.3963648 0.2325132 -0.29400775 0.028247844 -0.05854949
0.3107646 0.4674309 -0.18389085 -0.016228689 -0.011468458 -0.26055294 0.16616279 -0.1764114
-0.20812625 0.33484504 0.19590749 0.1315959 -0.08092301 -0.017976813 -0.16497312 -0.25217718
-0.17187433 0.0066981916 -0.39184818 0.12007633 -0.25732315 0.16209766 -0.018878693 0.17285402
-0.11573946 0.1263466 -0.033808634 -0.0044684377 -0.14127548 -0.21524434 -0.27004042 -0.13252538
-0.2059993 0.057136666 -0.08044575 -0.013522948 0.2101991 -0.11325549 -0.038203523 -0.16680521
0.053527094 -0.055342358 0.15217721 0.13923499 0.01908507 0.12800327 0.044942893 0.11623083
-0.28618053 -0.40753368 0.13416757 0.047421254 0.095151 -0.0021245806 0.015887773 -0.17641708
-0.004323448 -0.014054212 -0.14428283 0.30871114 -0.18346623 -0.36225846 0.1793057 -0.21176934
0.08153401 -0.06251044 -0.14989147 -0.116549335 0.09699833 -0.12471315 0.011939875 -0.09711367
0.2883349 0.20610307 -0.31711546 0.035775866 0.1223008 0.07299799 -0.11846477 -0.076189436
0.1365858 0.14067587 0.15322223 0.14318526 0.013161918 -0.08132681 -0.053831723 0.2479646
0.3339956 -0.07625904 -0.31212944 0.09262231 -0.2032142 -0.26608157 0.11095451 -0.088703655
-0.019745283 0.11798331 -0.040149655 -0.24710087 0.048993018 0.15652251 0.110781 -0.20519713
0.2966756 -0.08888016 -0.11195927 -0.3791651 -0.052705467 0.0018764428 0.21424569 -0.12640256
0.013346273 -0.11214589 -0.08160653 0.08901931 0.19561927 0.08144149 0.14131561 -0.23977697
-0.061535165 0.25332278 -0.24265413 -0.058077488 0.12275379 -0.34748426 -0.07096025 -0.17805807
0.2643707 -0.19469921 0.16066456 -0.048011504 0.16965987 0.4014639 -0.55618125 -0.120118506
-0.23624417 0.064933166 -0.38748237 0.25269988 -0.16922505 -0.3948435 0.28779885 -0.19120859
0.1612299 0.20502277 -0.07848709 -0.024380697 0.012834147 -0.116951115 -0.13123617 -0.20342726
0.08771959 0.34715763 -0.14444908 0.028078211 -0.21960749 0.2194915 -0.038434956 0.0221353
0.018634008 0.08349707 0.20856577 -0.16187923 0.22438774 -0.032736182 -0.060297314 -0.002860737

cell_list.3.conv_can.weight f4 [10, 20, 1, 1]
00000000: af60 213d fb92 d8bb a5ff a6be 2333 37be
00000010: 229d adbd d7d8 793c 0685 33bd dea6 0e3e
00000020: be5c a9be e74d 1abe a7dd 9c3e 15bc 56be
00000030: 49b2 cf3d 0a9d d1bc 5488 3dbe 4f18 143d
00000040: f556 9ebd 5f89 223e e0db c2bd 8c6e 073e
00000050: fe79 cf3c f984 10be 3334 56be 9886 62bd
00000060: 5073 2e3e b56f ad3b d8da 2bbe bcb7 e83a
00000070: f35c 47be d8fc ce3d c96e 7dbe 860c abbe
00000080: aee3 8bbd edaa 6e3d 88da 933d 4130 68bd
00000090: a7d5 bcbb c84f cfbd 3c3e 883d 92d2 0b3d
000000a0: 7d94 b1bd fd81 c33c f84d 813d 0fb4 9d3e
000000b0: c9ed 2fbc f39e 1e3e 90da a3bd b46f a6bd
000000c0: 87c4 e8bd 9fdc 4c3e 5412 353d 6222 203e
000000d0: 0410 21bc 3fbf 47be 44ff 013e 0ff0 a9bd
000000e0: c540 10be dcce 2f3e dd54 7e3e e221 213e
000000f0: 2509 81be 68ff f73c 9810 c8bd 58d7 133e
00000100: bec5 dcbc bb8b 0c3e 48b1 9e3e f47d 41be
00000110: d295 043e 318f 2abe a248 603c 5141 d53a
00000120: 13ae d1bd dd05 1bbe e948 8f3e 4d82 7abc
00000130: 7e31 eabe b9fa 9b3d fcb2 833d 1ce7 ebbc
00000140: 27a4 8cbd 1f7e b8bd e805 043e 93cb 06be
00000150: 303e efbd 4ec2 0dbe 3ea8 95be a894 403d
00000160: 18a2 fe3d 4748 73be ada1 213d a93c 02be
00000170: e795 063d 6a6e af3b 65f3 d5be dc6c 303e
00000180: 8706 353c 62cd ef3d 7e26 803c a813 393d
00000190: d499 42bd 21e1 533e 3ca9 c7bd 6c36 bd3b
000001a0: 8d1c 913d 2753 323e a917 1dbe b604 f83d
000001b0: 10e5 aebd 7deb 14be df5c 703d cf45 f1bd
000001c0: dbfd 1dbe 590b 523d ad2f 6cbd 98ab 3abd
000001d0: 0e6c a63d 2b6f 5f3d f51d 883d a598 1f3e
000001e0: 4dd3 563e fd5b fc3d 57ad b43d c6ca ac3d
000001f0: add3 7cbe ee17 c4bc e834 6f3d 0405 47bd
00000200: 21cc 213e ef63 7ebc d438 ad3d 8267 77be
00000210: 7e9b ed3d 1530 713d 0e89 bfbe fb02 3c3e
00000220: 3d40 f73d d373 a6bd 024b 90bd 5f4d 2ebe
00000230: c5aa 323e e0aa 263e 0a95 993d f635 1bbe
00000240: ca90 f93d 3d60 0e3d dbee aabd 7c17 cebd
00000250: c55c 963d ca97 69bd 31b5 1abe 4055 243d
00000260: ff3e a73c 7871 193e 64bf 82be 9043 5d3c
00000270: 7ea9 40be 5027 72bd 1877 cdbd 108f 1fbe
00000280: e807 a7be 50b9 75be 015a 14bd 71af 713c
00000290: 9ba0 cabd ef63 95bc ddb7 4abd 0208 00be
000002a0: e37b 193e 3f6d 533d c512 5ebe 105a 223e
000002b0: e3d7 f73d 1b1f 03be ca07 103e a582 dabc
000002c0: 024d 26bd d3f0 553e e429 a7be b352 a1bd
000002d0: 3463 803c 5901 753c 9347 43be de18 10bc
000002e0: 4b68 7c3d 0407 f6bd 1080 833c 8b2f 713e
000002f0: 3055 f23c 9686 0bbd 77ab 3a3e 1cda 05be
00000300: 6407 8b3e 1e5b 233e e6a1 86be 47b4 883e
00000310: 7567 cb3d e7db 933e eef2 4bbe f9f9 d8be
0.039398845 -0.0066093183 -0.32616916 -0.17890601 -0.08477236 0.015249453 -0.043828033 0.13930842
-0.3307857 -0.1506878 0.30637857 -0.20970185 0.10141427 -0.025587577 -0.18509036 0.036155995
-0.077314295 0.15872715 -0.09514594 0.13225764 0.025326725 -0.14113225 -0.2091835 -0.05530414
0.17036176 0.0052928575 -0.16782701 0.0017754952 -0.19469051 0.1010682 -0.24749292 -0.33407992
-0.06830536 0.058268476 0.07219416 -0.056686644 -0.005762774 -0.10122639 0.06652495 0.034136362
-0.086709 0.023865694 0.063136995 0.30801436 -0.010737845 0.15490322 -0.08000672 -0.081267744
-0.113656096 0.20006035 0.044206932 0.15638116 -0.009830479 -0.19506548 0.12695032 -0.08297741
-0.14087208 0.17168754 0.2483706 0.15735582 -0.2520229 0.030273154 -0.0976879 0.14437616
-0.02694976 0.13725178 0.3099463 -0.18895704 0.12947777 -0.16656186 0.013689192 0.0016270076
-0.1023828 -0.15138955 0.27985314 -0.015289855 -0.45740885 0.07616181 0.06430623 -0.028796725
-0.06867247 -0.09008431 0.12892878 -0.13163595 -0.11681783 -0.13843653 -0.2922992 0.04701677
0.12433261 -0.2375804 0.039460827 -0.12718453 0.0328578 0.0053537386 -0.41787258 0.17229027
0.0110489195 0.117090955 0.015643355 0.04518476 -0.047509983 0.20691349 -0.09749076 0.00577431
0.07085524 0.17414533 -0.15341057 0.121102735 -0.08539784 -0.14542957 0.05868232 -0.11780893
-0.1542887 0.051280353 -0.057662655 -0.0455738 0.081260785 0.054549377 0.06646339 0.15585573
0.20979042 0.12322233 0.088221245 0.084371135 -0.24690123 -0.023937192 0.058400065 -0.048588768
0.15800525 -0.015526756 0.08458105 -0.24160579 0.116019234 0.058883745 -0.37409252 0.18360512
0.12072799 -0.081275605 -0.070455566 -0.17021702 0.17447956 0.16276121 0.0749913 -0.15157303
0.121858194 0.03475975 -0.08346339 -0.10063073 0.07341913 -0.057029523 -0.15108182 0.040120363
0.020415781 0.14984691 -0.25536644 0.013504878 -0.18814656 -0.059119523 -0.10032481 -0.15581918
-0.3262322 -0.23996472 -0.036218647 0.014751301 -0.09893914 -0.018236129 -0.049491752 -0.12503055
0.14988665 0.051617857 -0.21686848 0.15854669 0.12101724 -0.12804835 0.14065471 -0.026673624
-0.040600784 0.20892648 -0.32649148 -0.07877102 0.015672304 0.014953935 -0.19070272 -0.008794991
0.0616229 -0.12013057 0.016052276 0.23553292 0.029581636 -0.034063898 0.18229471 -0.13071483
0.27154076 0.15952727 -0.26295394 0.2670004 0.09931842 0.2887871 -0.19916889 -0.42378214
