saved_models/ambaudio_brainlike/random3_3.pt (torch, 118160 bytes, 14 tensors)

cell_list.0.conv_gates.weight f4 [20, 11, 3, 3]
00000000: e470 ebbd 5f0e c1bd c31d f3bc d3e4 e5bd
00000010: 03e4 c8bc 3050 b4bd 7931 693d 766a 3b3d
00000020: 5b06 373d 8fc5 b83c 2cb8 8dbd 5430 90bb
00000030: ddcf e4bd 224f 0bbd 9e4b 06be bcab 29bd
00000040: 58c8 d0bd 86e8 583d d614 243e 3415 0e3e
00000050: 2b27 243d 1215 293d 5434 ea3d 48c7 88bd
00000060: 0757 143d 0306 763d cc9c 9d3c 10ee 72bd
00000070: fe96 1dbe 95d0 14be d0a6 e2bd 2ba2 c23b
00000080: 210f 07be 5150 02be 64c2 03be c924 b6bd
00000090: 53ec 943d 9694 c8bb a8f5 703d 76cd b23d
000000a0: 195c c43d fd92 803d 2a9f 7a3d 29ba 743c
000000b0: d016 f33d 9472 a9bd fb1e edbd 3050 97bd
000000c0: b044 7cbd de36 6e3d 9e82 1d3b 5854 85bd
000000d0: 7ab5 03bd e9cd 483d d137 cb3d 81fb 7d3d
000000e0: 23b5 723c 0c9b ef3d 1067 7b3d 4583 93bc
000000f0: a607 b13d 75d9 073d 18be 84bd 3022 b2bd
00000100: 526a e7bd 9cce 0bbe af3e f9bc f206 c8bd
00000110: c0a3 9abb f349 d53b 624b 0fbd 4154 963c
00000120: 0915 963c c953 8b3d 9e3d 023e 206c b23d
00000130: 2aab 383d 5ffe 053e cc5f 7d3d e108 d43d
00000140: 7000 2dbd 7885 32be 62e4 2abe b255 bcbd
00000150: 7d64 953b f243 1ebe fe02 1abd 3d2f 15be
00000160: 05ba f6bd 02e2 e1bd e03b 02be b317 3dbd
00000170: 4e85 30be e795 003d 1242 23bd 107e 03bd
00000180: 4d64 09be e2ad 1bbc a281 c4bd 1d5f 7ebc
00000190: 79a6 7f3d 7b4c a43d 5958 bf3c 4fdd 623c
000001a0: 3b79 833d f987 febc 2c4e e83a 9f09 093c
000001b0: 14a4 5b3e 7801 173d 8207 223e 93ac 773e
000001c0: 9007 c33d 6781 533d 2534 2e3e 9bda c73d
000001d0: 2941 853e 73d1 18be ed0c 7ebe bc87 cfbd
000001e0: e458 76be a878 b8be cb4f a4be ed8b a2be
000001f0: 9201 bebe 9565 8abe 11b2 553e 7daf 1a3e
00000200: 2915 f83d 0b33 6a3e 4bc3 943e 2c80 223e
00000210: 87cf 923e 287d 313e 68f7 c53d 03fa 25be
00000220: e0e7 f9bd 7a5c abbd bb1c 9ebe 9916 61be
00000230: c830 81be 0bfe 7abe e9e1 5ebe e865 1fbe
00000240: 2546 1c3e 4b2c 1a3e f018 2f3e 0390 fd3d
00000250: 2130 843e d3fe 833e 8e2d 363e b925 a63e
00000260: 63ad 4a3e 6ae9 95bd 55c2 4ebd ca6c 5bbe
00000270: e899 e8bd 2eaa 29be e2d6 01be 0692 81be
00000280: eec9 85be d038 28be b1c5 d2bd 2864 7ebd
00000290: 9698 31be 0dce 78be e153 70bd a4c2 f1bd
000002a0: ea36 03be 28b9 00be dc5c a6bd 7a8a 42be
000002b0: a7d2 91be c90d 16be c2c2 6fbe e8db 3abe
000002c0: e7bb 89be 100c 55be 8c72 39be 2a23 99be
000002d0: dd05 783e 7002 fd3d 92eb 513e 5927 823e
000002e0: 3958 273e 1eef 183e ef0a 6f3e 2cef 723e
000002f0: c05a 933d d6ba 0d3e 16c5 453e 85ac 2c3d
00000300: 794d fb3d f05f 123e 2428 203e ac2e 6b3e
00000310: 7279 173e 20f3 3c3e 7325 aebd d5ea 673d
00000320: 6009 7bbd 3e11 853c 1668 633c 118a d23d
00000330: 0997 1a3d cbab 95bd 8b38 b83d 9e79 91bd
00000340: 9436 5b3d c4cb b1bd f367 22bd 4bfe 23bd
00000350: 17c6 eb3d b5ee 943d b106 fcbc cbc9 7fbd
00000360: 1eef f3bc c826 04be ec2c 83bd 1d22 e1bc
00000370: ec44 46be 9c87 57be 9324 babd 5c6d 65bc
00000380: 2e97 d1bc 9d15 ca3c 5822 acbc 7b8d b53c
00000390: 29e8 013e 88e6 34bd 1de6 ba3b 4495 183e
000003a0: b021 f33d 402e f83d 24d1 7e3d a641 083e
000003b0: ec79 50bd 9fd6 0e3d 86a3 073d 8a71 c13d
000003c0: 8096 f93c 4515 513d 0c86 85bd 5186 93ba
000003d0: a7d4 0a3d 5bfa 1e3d de9a 833d 279c c73d
000003e0: fdd6 13bd 66f1 2f3d ba12 0e3e f817 a23d
000003f0: 1ac9 573d 8188 d2bd 55bc a7bb ff2e 15be
-0.114961416 -0.09426569 -0.029677277 -0.112252854 -0.024522787 -0.08804357 0.056931946 0.045755826
0.044683795 0.02255514 -0.069198936 -0.0044002924 -0.11172459 -0.034011014 -0.13114783 -0.041423544
-0.101944625 0.052956127 0.16023573 0.13875276 0.040076416 0.04127986 0.11435762 -0.06678635
0.03621581 0.060064327 0.019239806 -0.059309065 -0.1538963 -0.14532693 -0.11066973 0.005939742
-0.13189365 -0.12725951 -0.12867123 -0.08893735 0.07271638 -0.0061212284 0.058828026 0.08730595
0.09587879 0.06278036 0.061186947 0.014936962 0.118695855 -0.08273807 -0.11578175 -0.073883414
-0.061588943 0.058157794 0.0024034153 -0.06510228 -0.03215549 0.049024496 0.099227555 0.06200743
0.014813694 0.11699495 0.061377585 -0.01800693 0.08644037 0.033166368 -0.0648157 -0.08697927
-0.11299576 -0.13653034 -0.030425398 -0.0976695 -0.0047192276 0.0065090596 -0.034984 0.018350722
0.018320577 0.0680309 0.12718818 0.087120295 0.04508511 0.13085316 0.061858937 0.10353256
-0.042236745 -0.17433727 -0.16688684 -0.091960326 0.0045590983 -0.15455607 -0.03760051 -0.14568801
-0.12047199 -0.11029436 -0.12718153 -0.04616518 -0.17238352 0.031392958 -0.03985793 -0.032102644
-0.13417168 -0.009501906 -0.09595038 -0.015525606 0.06241462 0.080224 0.023357557 0.013846709
0.06419607 -0.031070696 0.0017723492 0.00836411 0.2144931 0.036866635 0.15823177 0.24186926
0.09522927 0.05163708 0.17012079 0.097584926 0.26026276 -0.14923649 -0.24809618 -0.10133311
-0.24057347 -0.36029553 -0.32092127 -0.3174738 -0.37110573 -0.27030626 0.20868708 0.15106006
0.12113411 0.22871034 0.29055247 0.15869206 0.28673956 0.173329 0.096663296 -0.16208653
-0.1220243 -0.08367248 -0.30881295 -0.21981277 -0.2523253 -0.24510972 -0.21765865 -0.15566218
0.15261133 0.15055959 0.17099357 0.12380984 0.2581797 0.25780353 0.17790815 0.32450655
0.19792704 -0.07319911 -0.0504783 -0.21428218 -0.1135748 -0.16568825 -0.12679628 -0.2530672
-0.26130623 -0.16427922 -0.10291613 -0.062107235 -0.17343363 -0.24297352 -0.058673743 -0.11804703
-0.12813917 -0.12570632 -0.0812318 -0.18998137 -0.28481027 -0.14653696 -0.23414138 -0.1824795
-0.2690117 -0.20805383 -0.18110102 -0.2990964 0.24220987 0.123539805 0.20500019 0.25420645
0.16342248 0.14934966 0.23344015 0.2372405 0.071950436 0.13840804 0.19313464 0.042156715
0.12270636 0.1429441 0.15640312 0.22967023 0.14792421 0.1845212 -0.085032366 0.056620438
-0.061288238 0.016243573 0.0138797965 0.1028024 0.037741695 -0.073081575 0.0899516 -0.07103275
0.053518847 -0.08681443 -0.039649915 -0.040037435 0.11512392 0.07272092 -0.03076491 -0.062448304
-0.029777106 -0.12905419 -0.064050525 -0.027482087 -0.19362229 -0.21047825 -0.09089007 -0.014003124
-0.025584783 0.02466851 -0.02101247 0.02216219 0.12686218 -0.044165164 0.005703701 0.1490069
0.1187166 0.121181965 0.06221117 0.13306293 -0.050897524 0.034872647 0.033114932 0.09445484
0.030467272 0.051045675 -0.06519708 -0.0011255239 0.033894207 0.038812976 0.06426023 0.097465806
-0.0360937 0.042954825 0.13874331 0.07914728 0.05268202 -0.10279942 -0.0051188865 -0.14568709

cell_list.0.conv_can.weight f4 [10, 11, 3, 3]
00000000: 73f3 09be 6fca fbbd d7ac 3fbe 4c08 28be
00000010: 4585 e5bd 176f 0fbe 24a3 5cbd 22e2 59be
00000020: b9e5 37be 1fc5 89bd b41a 723d a0d1 183d
00000030: 5a99 553d 62a2 bf3d c250 0d3e 0f8a 1cbd
00000040: 5b7d 20bd 0afa 52b9 8a0a ba3d e449 e9bd
00000050: 44ea a03d d68b 13be f460 38bd f158 14be
00000060: c19b 03be 975f 0dbd e7f9 8cbd 1942 173e
00000070: e9c0 f53d 41af aa3d fbd8 4f3d 5cd9 ee3d
00000080: a238 1b3d 63e3 fd3d dc11 0a3d b481 f43c
00000090: 2e1f 57bd 9d6e ae3a 0bdd b6bd 5871 2abe
000000a0: e91f 42be 063f efbd 52b4 79bd 5788 1fbe
000000b0: 6fe4 82bc f28a 023e b0fe 8fbc f1b0 69bd
000000c0: f44e d73d 4997 1c3c a968 a8bc 9d4f da3d
000000d0: 3978 2e3e f6f3 263e fb1f 33bd d8aa dfbd
000000e0: 32e0 ccbd 2dad 1e3d a9ea 47bd 9f9b efbd
000000f0: c9b9 aabd dbe3 abbc 7838 14be e9bb f53d
00000100: 165a dfbc 8081 853d 4b13 553d 6e63 543d
00000110: b317 c73a 48a6 9b3d b7c2 853d c3fc 903d
00000120: d52d 97bd 5d77 6a3c 2d13 4cbd 7f4c 19bd
00000130: 0de7 23bd 9b7f f23c ff23 10be 19aa fe3b
00000140: 7f92 a0bd 1dac 093d 80db 083e 0aed e03d
00000150: c703 5e3e a6dd d83d a549 0d3e 702c e23d
00000160: e1b3 5c3e afc4 783d fe19 8dbc 74e3 d4b9
00000170: 2914 a43d 78b5 1fbd f10c 1f3e 6827 76bc
00000180: 025b 173e eb21 3f3d 6f04 363d ab59 51bd
00000190: c5c3 81be 97c9 11be 1062 5bbd 7737 68bd
000001a0: bd57 5cbe c835 a63c 93e2 6dbd 0825 7fbe
000001b0: 8fab 66bd b3e5 11bc 24a5 e5ba 7f5e 1ebe
000001c0: accd 1abe 3206 ccbd ade3 c6bd 66a3 9ebd
000001d0: 87f0 b2bd a399 b1bd 8868 293c 2e5a 883d
000001e0: c0a3 d43d eff7 bd3d bec4 8ebd 120f d0bc
000001f0: f52a c63d 4241 adbd 9bd5 58be 5be5 9dbd
00000200: 2f82 e3bb cded 55be 1007 44bd f624 b6bc
00000210: 57df d9bd 6a70 bebd 3ec7 e6bd 1cff 4e3d
00000220: 466b f73d 0bb2 ccbd c482 093d 99c0 6c3d
00000230: a2e4 eb3d b936 8e3d a58d 183e a525 0b3d
00000240: 7dfc d9bd 56e4 88bd 919a a8bd f51a 60be
00000250: aacf 5ebd 6257 c6bc 15ee 6ebd 0c58 afbd
00000260: a83d a23c 9dba 523e eb2a 043e b4c5 3c3d
00000270: b666 603e d967 993d a952 1b3e d5ff c73d
00000280: 7632 983d bb21 bb3c 762f 8a3c 4e14 67bd
00000290: e0ce 513e 0b2e 17be 399d 02be f1fc d2bc
000002a0: 62d6 1ebe c0bc f9bd ea6c 8abd b773 843e
000002b0: 041f f43d 39d2 67bc 18d0 4a3e a4a7 8f3d
000002c0: a61a 133e a478 343e 5886 383e eddc b53d
000002d0: 709c 8abd dfc0 713d 2241 a53d cc10 0fbe
000002e0: 1a89 5abd 93dd 8c3d 1138 c9bd d387 8dbc
000002f0: ebcf 3fbd c5bb 2bbe 67c4 e2bd 864a 5ebc
00000300: 9155 a5bd 7fab 9fbd 10e6 74bc 7b9b 2ebe
00000310: 4eef ffbd 0e24 11bd aa28 123c df8a 96bb
00000320: 9356 2bbd 3ad6 7bbd a6da 22be 1b66 49bd
00000330: 0760 1d3c 620d 52bd 08d5 e6bd 908f 8b3c
00000340: 6829 ee3d 764a 1a3d 2307 3d3d 2457 cdbc
00000350: c746 f03a 7b52 0e3e ab62 4b3d 13c3 e13d
00000360: 8710 3dbe 106a 96bd ee85 dbbd 4a33 06be
00000370: 3cbe 30be 2d53 44be 9ba4 a2bd d160 5dbd
00000380: 6342 17be ec07 e43d 60b0 0f3c e285 483d
00000390: abef 4e3e 7503 253e b4e1 ef3d 3a28 a73d
000003a0: 0e38 113e 3f9b 45bd d1e7 b0bd 2f0e b2bc
000003b0: 4166 213d d318 26be f80e 03be 079f 1dbe
000003c0: 5212 d2bd cd54 a4bc c3c1 6dbd 4578 e13c
000003d0: b15c 9e39 cde0 ab3d 9dca 063e 0292 203e
000003e0: 7448 c03d c5cb d33d 7fd0 c23c def2 1f3d
000003f0: e523 b4bc 0712 b2bc df47 6f3d a295 b93c
-0.13471775 -0.122944705 -0.18718277 -0.16409415 -0.1120706 -0.14007221 -0.05386652 -0.21277669
-0.17958726 -0.06727051 0.059107497 0.03730929 0.0521482 0.09357144 0.13800338 -0.0382176
-0.03918205 -0.00020120307 0.090840414 -0.11391047 0.078571826 -0.14408812 -0.045014337 -0.14487053
-0.12852384 -0.03451499 -0.068836026 0.14771308 0.11999685 0.08334208 0.050744038 0.11662552
0.037895806 0.12396886 0.03370844 0.029847004 -0.05251997 0.0013308112 -0.08928879 -0.166448
-0.18957485 -0.11681943 -0.060962982 -0.15579353 -0.015978066 0.12748316 -0.0175775 -0.05705351
0.10513106 0.009557554 -0.020557718 0.10659716 0.17038049 0.16304001 -0.04373167 -0.10921258
-0.10003699 0.038739372 -0.048807774 -0.11699604 -0.08336217 -0.020982673 -0.14474666 0.11998732
-0.027264636 0.06518841 0.052020352 0.051852636 0.0015189558 0.07600075 0.065312795 0.070794605
-0.07381789 0.014310685 -0.049822975 -0.037426468 -0.04001527 0.029601863 -0.14076231 0.007771742
-0.07840442 0.033611406 0.13364983 0.109827116 0.21681128 0.10589151 0.13797624 0.11043632
0.21552993 0.060734447 -0.017224308 -0.00040605257 0.08011658 -0.03899142 0.1553228 -0.015024044
0.1478081 0.046663206 0.044437822 -0.051110905 -0.25344673 -0.14237057 -0.053560317 -0.05669352
-0.21517844 0.020289317 -0.058077406 -0.2491647 -0.056315955 -0.008904862 -0.0017520529 -0.15465735
-0.1511752 -0.09962119 -0.097113945 -0.077460095 -0.08737283 -0.08671882 0.010339864 0.066578254
0.10382795 0.09275805 -0.06971119 -0.025397811 0.09676162 -0.084597126 -0.21175234 -0.07709762
-0.0069430093 -0.20891495 -0.047858298 -0.022234421 -0.10638302 -0.09298785 -0.11268471 0.05053626
0.12081008 -0.099948965 0.033571973 0.057800863 0.115182176 0.06944031 0.14897783 0.033971447
-0.106438614 -0.066841766 -0.08232606 -0.21885283 -0.054397263 -0.02421159 -0.05833252 -0.085617155
0.01980479 0.20579 0.12906997 0.046086982 0.21914181 0.074905105 0.15168251 0.09765593
0.074315 0.022843232 0.016868334 -0.05641585 0.20489073 -0.14763658 -0.12755288 -0.025755377
-0.15511468 -0.12194204 -0.06759055 0.25869533 0.11919978 -0.014149242 0.19805944 0.07014397
0.14365634 0.17624146 0.18019998 0.08880029 -0.06768119 0.059021827 0.08069064 -0.13971251
-0.053353406 0.068781994 -0.09825147 -0.01727668 -0.046829145 -0.16770847 -0.11072617 -0.013567572
-0.08072961 -0.07796382 -0.014947429 -0.17051499 -0.124968156 -0.035434775 0.008920828 -0.0045941914
-0.04183061 -0.0614836 -0.1590372 -0.04916964 0.009605414 -0.051282294 -0.11271101 0.01703623
0.11628991 0.037668668 0.046149384 -0.025065966 0.001833164 0.13898651 0.049654644 0.110235356
-0.18463336 -0.073444486 -0.107189044 -0.13105503 -0.17260069 -0.19172354 -0.07941552 -0.05404741
-0.14771418 0.111343235 0.008770078 0.048955806 0.20208614 0.161146 0.11712971 0.081619695
0.1418154 -0.048243757 -0.086379655 -0.021735279 0.039404158 -0.16220407 -0.12798679 -0.15392695
-0.102574006 -0.020059967 -0.058046114 0.02752317 0.0003020517 0.08392487 0.13163228 0.15680698
0.09388819 0.103416 0.02378106 0.039049976 -0.021989772 -0.021737112 0.05841815 0.022654358

cell_list.1.conv_gates.weight f4 [20, 20, 3, 3]
00000000: c5d1 71bd 8b97 cbbc 2866 893d 851a 4abb
00000010: e203 ae3b f806 f13d 1ed6 5a3d dfde e63d
00000020: 686f d23b 5645 563c 04c8 b43b 2d75 923b
00000030: 738c 31be b7dd 0abe ffee ddbd 5d88 fa3d
00000040: cd90 083e b4a3 fb3d 6ee9 653c 4a4d 41bd
00000050: 085e 14be 3928 12be 9646 99bd bb92 23bc
00000060: 28b5 623e 64e7 7d3e ca4b b33d 63f8 1bbe
00000070: 1ba9 80be 3f1f 23be df93 94be 1fd8 66be
00000080: b5b4 d4bd 196a 713c 4192 873d 6ef6 973d
00000090: b1b5 68be ca1d 5abe 4847 1abe 89d4 febd
000000a0: 292c aebd ff5b 05bd 6448 48bd e427 7d3d
000000b0: 7a6d 3a3e 1be6 1a3d e9be 483c db46 84bd
000000c0: 4c73 42bd 2a09 34bc 1953 8abd 45bb 893d
000000d0: a8d9 e83d 81c0 5d3b 45f2 b13d c70a 833d
000000e0: af28 ea3c e801 a6bc 946f acbc 9840 c43d
000000f0: 7314 943c 719a e53c e6ee 6b3d abb7 50bc
00000100: cd66 243e 5810 a93c f26f eb3d 6abe 393e
00000110: 2759 383e 9c29 2e3d 9030 f93b c231 a43c
00000120: 1d03 e03b b91e 033e 4d11 dc3d 4da9 d3bd
00000130: 5855 d1bb 2b03 5ebc 9854 b33d dce3 0b3e
00000140: de69 233e c9df a0bd 1dd4 06bd 90c9 983d
00000150: a28e bbbc 2737 c23c 46af b9bd de5f 703e
00000160: c564 423e bbf4 7b3e 0331 33be b020 0cbe
00000170: 7358 eabd a743 973d 41de 403d 64da 013e
00000180: d31d c23d 98a0 933d 8e20 6cbb cb66 5cbc
00000190: d2a9 ecbd 3c08 0d3e bfec 18be cb04 2e3d
000001a0: 7a16 583d d86b c7bd aa23 0d3a a8d8 5dba
000001b0: ec39 afbb 38c8 7cbd 5a02 c1bd c534 e93d
000001c0: d9f0 ca3d a00e b8bc 28cc a9bd c12e dbbd
000001d0: 2902 56be 1d2d c93c a480 a53d e5ce 803d
000001e0: 4b9b 223e aee4 ce3d 8633 9ebd b790 203e
000001f0: 5a34 32bd 9fac 2bbd 5e1d 73bd e126 c33d
00000200: 9c72 7c3d e224 8dbd ad72 8bbd 88df b5bd
00000210: 8a45 87bb 6dee 8ebd 0d8c a93b 842e af3d
00000220: 3733 4bbd cc61 683d 7023 f8bd 9ce7 bebd
00000230: 765e 7bbb 4f42 94bd b783 293d 17ef cf3d
00000240: 5976 12bd 722d d1bd f584 c23d 7b0a 82bd
00000250: ef1d 26bd 2fa0 80bd 0cb2 efbd 2467 4a3d
00000260: 0137 0fbd 31e2 fc3d 9910 923c 4b71 dfbc
00000270: 6f49 4c3e 4142 6e3d fe92 853c 929b 353d
00000280: 733a 87bd 1da5 e3bd 7175 a1bc 824e 8bbc
00000290: 8e27 b33c e33d f7bb 4915 b03c 0543 a5bd
000002a0: 63a4 353e 3144 e5bc c1c2 c6ba 12c4 cdbd
000002b0: b029 28be 8d47 50be ba1c f13d a395 4a3e
000002c0: 04c7 7e3d 90e0 63bc 7742 eebb a795 9c3d
000002d0: b0d9 e63b cf2f 9d3d a971 dc3d 52f0 2ebd
000002e0: 8912 373d fb9b 9a3d fb62 be3d d2cb 153e
000002f0: 4a66 903e b40a c2be de97 c9be 078a eabe
00000300: e742 73be 44db 88be a753 47be 53d2 d0be
00000310: 0da8 c0be f8c0 87be 01ed 4fbc 739c e4bd
00000320: f4ee 94bd e063 163e fa9f df3d bdae 4c3e
00000330: 4175 f13c ffd7 353d 1852 083e 0797 01bf
00000340: d1eb 1cbf ee28 25bf 9127 4c3e 154f c63d
00000350: 6f01 513e b797 61be b218 90be 304e 94be
00000360: b751 d53d 216d 1c3c 720a 123e ff26 6abe
00000370: 6331 62bd 7245 ca3d 5dc6 83be efad d9be
00000380: 6fa2 88be fd90 d23c 5c21 243e 8371 4d3e
00000390: a2c6 eb3d 511d 633e ef8e 223e 4e36 933e
000003a0: d495 333e a652 493e c2db 68bd cbfb 0f3d
000003b0: a5d6 cb3d c01a 903e 4d1d 7d3e ae94 1e3e
000003c0: e5db 4f3e 8a88 ea3d 3fd9 66bd 8b8e 383d
000003d0: ba92 1c3e 5948 1a3e 7306 cfbd 4791 d83c
000003e0: 9a82 083e 925c 183e 555d c13e 35e0 d83e
000003f0: 1c47 4ebe b06f 9dbe c8d8 4ebe 7952 c83d
-0.059037942 -0.024852535 0.06708938 -0.003083856 0.0053105215 0.11768907 0.053426854 0.11272978
0.006421972 0.013078054 0.005517008 0.004469535 -0.17338733 -0.1356114 -0.108366005 0.122330405
0.13336487 0.12287083 0.014032705 -0.04719285 -0.14488995 -0.14273156 -0.07484166 -0.009983714
0.22139418 0.247953 0.0875469 -0.15231471 -0.25129017 -0.15929888 -0.29019067 -0.22543381
-0.1038603 0.014734768 0.066196926 0.074200496 -0.2272556 -0.21300426 -0.15066254 -0.124428816
-0.08504517 -0.032558437 -0.048897162 0.06180562 0.18205824 0.037817102 0.012252548 -0.06458827
-0.047473237 -0.010988513 -0.06754131 0.06725172 0.1136964 0.0033836665 0.08688787 0.0639854
0.028583853 -0.02026458 -0.021049298 0.09582633 0.018076157 0.028027745 0.05760088 -0.012739102
0.1605484 0.020637676 0.11495961 0.18139043 0.18002759 0.04252015 0.007604666 0.020043258
0.0068363086 0.12804689 0.10745487 -0.10335026 -0.0063883476 -0.01355056 0.08756369 0.1366114
0.15958354 -0.07855184 -0.03291713 0.0746032 -0.022895161 0.02370794 -0.09066634 0.2347407
0.18983753 0.24605076 -0.17499165 -0.13684344 -0.114426516 0.073859505 0.047086958 0.12680966
0.09478345 0.07208365 -0.0036030146 -0.013452242 -0.11555828 0.13772672 -0.14934061 0.04248504
0.05275581 -0.097373664 0.00053840375 -0.0008462765 -0.005347481 -0.06171438 -0.09424277 0.11387018
0.09909219 -0.022467911 -0.08290893 -0.10702277 -0.20899262 0.024557645 0.08081177 0.06289462
0.15879552 0.10102211 -0.07724671 0.15680204 -0.043506958 -0.04191267 -0.05935418 0.095289
0.061632738 -0.068918005 -0.06808982 -0.08880526 -0.0041281627 -0.0697907 0.005174166 0.08553794
-0.04960939 0.05673389 -0.12116134 -0.0932152 -0.0038355864 -0.0723921 0.04138538 0.10153025
-0.035757396 -0.10213746 0.09498016 -0.06349655 -0.04055589 -0.062805526 -0.117038816 0.04941477
-0.034964565 0.1234783 0.01783018 -0.027275702 0.19949888 0.058168653 0.016305443 0.044337817
-0.06602945 -0.11115477 -0.01970932 -0.017005209 0.021869447 -0.0075452193 0.021494525 -0.080694236
0.1773849 -0.027986618 -0.0015164242 -0.10047163 -0.16422153 -0.20339794 0.11773057 0.19783644
0.062201515 -0.01390852 -0.007271107 0.076457314 0.0070449933 0.076751344 0.107638665 -0.042709656
0.04469541 0.07549282 0.09296223 0.14628533 0.2820304 -0.3789879 -0.39373678 -0.45808432
-0.2375599 -0.26729786 -0.19465505 -0.40785465 -0.37628213 -0.2651441 -0.0126907835 -0.11162653
-0.07272139 0.14686537 0.10919185 0.19988532 0.029474856 0.044395443 0.13312566 -0.50621074
-0.6129733 -0.6451558 0.19936968 0.096830525 0.20410703 -0.22030531 -0.2814384 -0.28965902
0.104159765 0.009547503 0.14261797 -0.22866438 -0.05522288 0.09876527 -0.25737277 -0.42515513
-0.26686427 0.025703901 0.1602835 0.20062833 0.115124956 0.22179152 0.15874837 0.2875237
0.17537624 0.19660434 -0.056850202 0.035152238 0.099530496 0.2814541 0.24718209 0.15486404
0.20298727 0.11451824 -0.056359526 0.045057815 0.15290347 0.15066661 -0.10108652 0.026436461
0.1333107 0.14879063 0.3776652 0.42358556 -0.20144314 -0.30749273 -0.20199883 0.097813554

cell_list.1.conv_can.weight f4 [10, 20, 3, 3]
00000000: 1cb5 f63c ceec 09bc 57c5 e5bc ab43 20bd
00000010: cf0e 52bb e1a3 5ebc 80bc dfbd ddac 30bd
00000020: 4229 443e d57e 9f3e b433 863e 8292 7b3d
00000030: 755b 60bc 2b7d c9bd e62a 02be 5890 b4bc
00000040: a9bb d3bc a0d9 213d 3d42 543e 283e 353d
00000050: e13a 223e 7c0b 18be 1176 593c d8bc b53d
00000060: ce58 17bd e989 343e c72e f13d 073e 753d
00000070: 48f8 99bc b8a7 093e 0f52 84bd 80b3 83bd
00000080: b6cd c0bc 1344 50bc 4162 ed3c 3ea5 123d
00000090: 9d50 93bd 8541 ccbc cb1b bb3c d8f8 0fbe
000000a0: 5c60 08be 49b6 11be 5b9d 8bbd 1f02 ffbd
000000b0: 734e 0bbe 585b 443d 02a0 b43d 0c4a 643d
000000c0: 7f5b 63be c01c 0ebe 32b8 f3bc 1103 14be
000000d0: 2ad8 2d3d 75b6 1d3e 2231 29be aa9d 46be
000000e0: a509 10be 323f 8bbd a7bb 2bbd aced 193e
000000f0: 5b33 29bd 73a8 33bd a10c 183e ec89 863e
00000100: 64ba 063d 2784 0cbe 02e9 373e 421d 263e
00000110: 1eb9 a1bb 8fac 41bd 3b26 f3bd 2b89 3cbe
00000120: 3c42 963a b0c1 47bd a6ec 16bd 3b98 b7bd
00000130: 6d9e 12be 7474 57bd fc0c d73b a8dd a43d
00000140: ec59 563e 4a31 023e 988f 223e fa02 273e
00000150: 246a 90be 5c57 debd 9bd4 cd3d 13a9 64bd
00000160: c0c3 bf3d f266 b13e 7e0e 5e3d 7db0 5f3d
00000170: 62ad 633d 3df1 033e b86a 2a3e e5d7 5c3d
00000180: c5fe 9fbd f6fd 6bbd e7de 6bbd 6c62 e1bd
00000190: bada 90bd 30b6 5b3c ed26 5c3d 2c97 e93d
000001a0: d2c3 1d3a 73d7 b53d 1670 803d bc59 453e
000001b0: dc38 363d 50b6 463e f28d 483e b4f3 033e
000001c0: eb62 d93d 6133 1fbd c5a5 d03d 774a 02bd
000001d0: be1f 2bbe 78a3 333e aed7 673e 1761 683e
000001e0: b926 74bc efc1 b7bd 6472 c0bc e99d debd
000001f0: a378 1cbe 22e9 02be 382c 963d 99cd 8d3d
00000200: e0ef 90bc 9372 abbd a520 82bd ec57 7abd
00000210: 3ca3 e3bc 3e83 093e 6783 363e 939b 28be
00000220: d1f8 50be 793c 22bd 1d3e 08bd 5d26 8fbd
00000230: 47f4 c43c c208 e23b a1be 833d cad6 2b3d
00000240: 8bbf 5fbe f383 04bc f780 80bb d8de c73c
00000250: 7d11 f03b 7cd6 b13d 7935 0f3e 427e 973d
00000260: 9d7b acbc 960e 9d3e 9fa7 683e 867c 453d
00000270: 4992 de3d 8df1 b63d e27b 7d3d 76b2 873c
00000280: bc50 a1bc 8fc9 ac3d 31f5 143e ddfc 323e
00000290: 3fc6 4b3e 5af6 533d b89e 393d 165d 3f3d
000002a0: b33e 133d 92af 48bd 5e5f 88bd e047 36be
000002b0: f4eb cabd 7778 b93d c237 da3d 148d 61bc
000002c0: 55ec 1abc dd31 893d 1ddb 80bd 07c9 36be
000002d0: 6f96 cdbe c8d9 72be dd33 edbd 6982 2abe
000002e0: 66f0 603c d3ef 183d 90f1 d3bc 08db 18bd
000002f0: a3cc 4d3d f694 66bd aa78 13bd ff37 f8bc
00000300: 84c3 a4be 73ed 88be 67d6 663d 68d0 87be
00000310: c11d 33be 429a 34b9 7dd0 01bf 167e 48be
00000320: 436c 613c c948 c9bc 1630 0c3d d015 2f3d
00000330: c4cf 233e 354f 013e 24f8 1dbd 66e8 68be
00000340: 2da1 9dbd 8877 113a 6460 4dbe 66a2 bbbd
00000350: 51cd 00bd e1aa dd3d 7f48 213e 0692 0d3e
00000360: 3b32 aebd 6c9f 2a3c 6f16 3e3d 3a4b 4ebd
00000370: 0022 913d 21ed 083d 823d fc3d c1cf 453e
00000380: 9f96 ef3d d5bc dfbd f048 63bd 34fd cabd
00000390: db06 08be 40b0 e0bd f321 9d3b 256e 01be
000003a0: cfbe 1abe 573b 17be ad5c 46be 2308 953c
000003b0: 5395 2a3e ea9c e1bd 7238 ab3a a984 903d
000003c0: c530 933d 3d31 ed3d ad2f ea3d 6e0c 123c
000003d0: 1f30 d9bd d7fa f5bd 17bc 3d3d 581a 14bd
000003e0: 71ec a4bc 7629 f1bd b64f 88bd 491c bd3d
000003f0: d03f ebbc 22a9 a43c f395 b33d 2385 f9bd
0.030115657 -0.008418275 -0.0280482 -0.039127033 -0.0032052284 -0.013588876 -0.109246254 -0.043133605
0.19156364 0.31151453 0.2621132 0.061419018 -0.01369368 -0.09838327 -0.12711677 -0.022041485
-0.02584632 0.039514184 0.20728393 0.04424873 0.15842773 -0.14848131 0.013272778 0.0887391
-0.036949925 0.17630734 0.117765 0.059873607 -0.018795148 0.13442886 -0.06460964 -0.06430721
-0.02353559 -0.012711543 0.028977515 0.03580212 -0.0719311 -0.024933586 0.022840401 -0.1405977
-0.13318008 -0.14229693 -0.068171225 -0.124515764 -0.13604145 0.047938675 0.088195816 0.05573468
-0.22202872 -0.13878155 -0.029750917 -0.14454295 0.04244248 0.15401633 -0.16522649 -0.19396082
-0.14066179 -0.06799163 -0.041927006 0.15032071 -0.041308742 -0.043861818 0.14848568 0.262771
0.0328926 -0.13722287 0.17959979 0.16222098 -0.0049353978 -0.047283705 -0.11872526 -0.184117
0.0011463831 -0.0487687 -0.03684678 -0.089645825 -0.14318247 -0.052601293 0.006562827 0.0805009
0.2093274 0.12714115 0.15875089 0.16309729 -0.2820598 -0.10856506 0.10050317 -0.055825304
0.09363508 0.34648854 0.05421304 0.05461167 0.055585273 0.12884994 0.16642272 0.05391683
-0.07812265 -0.057615243 -0.057585623 -0.110051006 -0.07072969 0.013410136 0.05374806 0.11405787
0.0006018254 0.08878984 0.06271379 0.19272512 0.04448782 0.19405484 0.19585398 0.12885934
0.1061457 -0.038867358 0.10187868 -0.031809296 -0.16711327 0.17542827 0.22640869 0.22693287
-0.01490181 -0.08972537 -0.023492046 -0.10869963 -0.15280394 -0.12784246 0.07332653 0.0692398
-0.017692506 -0.08371463 -0.06353883 -0.061119005 -0.027787797 0.13428971 0.17823564 -0.16465597
-0.20407416 -0.039608452 -0.03326236 -0.06989739 0.024042262 0.0068980167 0.06432844 0.041952886
-0.21850412 -0.0080881 -0.003921624 0.024398252 0.0073263035 0.08683488 0.13985242 0.07397129
-0.021055037 0.3067519 0.22720192 0.048214458 0.108677454 0.08932791 0.061885722 0.016564589
-0.019691817 0.08436882 0.14546658 0.17479272 0.19899844 0.05174861 0.04531738 0.046719633
0.035948467 -0.048995562 -0.06658815 -0.17800856 -0.09908286 0.0905618 0.10655166 -0.013766546
-0.00945576 0.06698964 -0.062917925 -0.17850123 -0.40153834 -0.2371589 -0.11582158 -0.1665131
0.01372919 0.03733809 -0.025872022 -0.03731826 0.050243985 -0.056294404 -0.036003746 -0.030300139
-0.32180417 -0.2674366 0.056356814 -0.2652619 -0.17491819 -0.00017223603 -0.5070875 -0.19579348
0.013758722 -0.02457084 0.034225546 0.04274541 0.15997225 0.12627871 -0.038566723 -0.22744903
-0.076967575 0.00055491226 -0.20056301 -0.091618344 -0.031445805 0.10823608 0.15750311 0.13825235
-0.085056745 0.010413986 0.046408113 -0.05036471 0.07086563 0.03342927 0.12316419 0.19317533
0.116986506 -0.10924689 -0.05548948 -0.09911576 -0.13283865 -0.10971117 0.004795307 -0.12639673
-0.1511185 -0.1476873 -0.1937129 0.018192356 0.16658525 -0.11016257 0.0013063087 0.07056553
0.071870364 0.11581657 0.11434875 0.008914096 -0.106048815 -0.120107345 0.046321955 -0.036157936
-0.020132275 -0.11775486 -0.06655829 0.092339106 -0.028716952 0.02010018 0.08768835 -0.12183597

cell_list.2.conv_gates.weight f4 [20, 20, 3, 3]
00000000: a9f2 e13d c70c 3a3e f8b3 e23d 1af3 85be
00000010: b80c 57be eca6 21be 5a00 15be d1fc 1dbe
00000020: f800 a0bd aab1 b9bc 940f dcbd bc97 0cbe
00000030: 3fb8 813e dd22 733e f817 bb3d 0e1d bbbd
00000040: 0520 54be 36bd aabd 0ea3 093d 05ac a13a
00000050: a56a 0ebd 0b1a 183d ed20 03bd d00b aebd
00000060: b222 2b3c f38e 61bd 0af7 bfbd b9f3 f53d
00000070: 5ea0 243e 332d c33d b961 53bd 8001 26bd
00000080: e712 c0bd f44a 973d 2311 9839 f0e9 febd
00000090: 6367 573e a2e3 d43d 12f7 033e ff07 be3d
000000a0: cd20 fe3d 2419 dd3d 6d5a 153e 7933 f03d
000000b0: 5ec5 3ebd 3ff9 f43d 5df4 fe3d 6379 423e
000000c0: d431 d0bd 5fef dabd 7470 aebd 7afc dd3d
000000d0: d0d9 8d3e 454d 0abc dfdc ec3c 2465 b73d
000000e0: 1934 843e 2fb0 483c c1b5 b63d f2b7 d03d
000000f0: 2f1c 1b3e 4154 943d 94c1 0c3e d4fe 87bc
00000100: 9791 b2bc 5fda b93c 24a7 92bc d780 cfbb
00000110: bac9 91bd 0993 9dbd 2220 223e e0f6 663d
00000120: c9d0 1e3d ef5b e73d 5aa1 1e3d 4b7c 10be
00000130: 4720 1fbe 3c84 3e3d fa56 34bd 3e63 c4bd
00000140: 31be 9b3c 2675 ae3c dbbe a63d b42f 0a3d
00000150: 499d 58be 8955 b8bc 0271 8fbd f2a8 1cbd
00000160: 7c0e 523d 4561 4a3e 33d7 533d 5ec3 36bd
00000170: 12da 283d 00ab 3d3e 5aaa 163e 666f 863c
00000180: e2f0 9d3d 8299 98bd 99d5 98bd 3452 503d
00000190: ca96 843d a794 393d b7a5 2b3b 1518 cfbd
000001a0: c1ee 8fbd 9355 d3bd 0f33 8fbe 566e 5cbe
000001b0: de3a e1bb 2c57 b53c 337a c43d 50fa f73d
000001c0: f083 0e3e c190 083e 1171 d93d 0ec6 9abd
000001d0: c8b2 2b39 81f3 b53d 0673 0e3e 53f4 053e
000001e0: 1a07 653e 9783 133e f9a7 3a3e 332a db3d
000001f0: e456 be3d 9bc5 123d fab7 ebbd 2d03 38be
00000200: b734 3cbe 3028 803d 322f ca3c 9439 46bc
00000210: 9c93 68be 21cf 70be ff47 3abe b3b1 003d
00000220: 35f8 da3c c926 043d ec23 36bd 0a66 aa3b
00000230: 4567 e33d 3d3a 02be 985e 603d bc0f 48bd
00000240: 7b9a 083e f411 2d3d 808a 033d 9928 a6bd
00000250: 8dd6 a1bd b8fd efbb 73c5 f13b b868 803d
00000260: 265c 933d 4da0 423d a06c 593d 3334 3ebd
00000270: 4b9a 32be b085 12be 309a 65be 53b8 a9be
00000280: 2aea 6ebe e670 5abe 6af6 05be 2297 45bd
00000290: ecd6 7abd 3cc1 123d 09b2 6dba e54e 283d
000002a0: 35c6 4f3e c49f 4b3d caaa bb3d 5032 94ba
000002b0: 986f 793c 8c2d bebc 824c d13d 712d a23a
000002c0: e998 3bbd 2346 43be 39c0 07be 4e56 9ebd
000002d0: 52cb b9bd 1405 f9bc e07f 883d bb89 023d
000002e0: df55 033e 8c51 f9ba 7713 033e 24be 25bc
000002f0: 6047 30be 22e2 233e b639 273e ae71 473e
00000300: 930f 153e 25b7 cf3d 813e 84bc a556 283e
00000310: e8a4 993d 8d53 0f3e 90d7 e6bd bc69 59bc
00000320: e678 0b3a a639 063e ba82 a33d 0f6c 413e
00000330: 1dbe 873e 5293 693e 5af3 1e3e 1982 b2be
00000340: bc47 6bbe 603f 21be 1a55 85bd 97ff c5bd
00000350: a362 6a3c 7793 18bd c3dd 24bc a309 2abc
00000360: 1b7d 1d3e 9c8e 66bd d2fd aabd 96f8 7a3d
00000370: bb9d 4dbd 5d62 803d b877 6fbc edc8 03bd
00000380: ff75 253e 8488 58be 50a3 99bd 6a68 e43b
00000390: faf0 4dbd 6943 443d 0eaa 613e c939 593d
000003a0: 8b56 c93a ae50 073d a657 843e f859 a83d
000003b0: 5f70 193e ba3f 293e 01d9 103d 1c7a 1e3d
000003c0: 665b 02bd f5b7 b7bd 8072 d6bd a8f1 023e
000003d0: 4e24 7fbb e450 6dbb 8ec9 e43c 635e dc3d
000003e0: 2514 193d 1e51 ca3d 6734 5cbd b836 2d3d
000003f0: 1801 f9bb 25af b33d 7904 bf3d 036e 823e
0.11032612 0.18168937 0.110694826 -0.26162034 -0.21000946 -0.15786332 -0.14550915 -0.15428473
-0.07812685 -0.022667725 -0.10745159 -0.13729757 0.2533588 0.23743768 0.09135431 -0.09136401
-0.2071534 -0.0833687 0.033602767 0.0012334591 -0.034769673 0.03713421 -0.032013822 -0.08498347
0.010445284 -0.055067968 -0.09373291 0.12009377 0.160768 0.095301054 -0.051606867 -0.040528774
-0.09378605 0.07387343 0.00029004467 -0.12446964 0.21035533 0.1039498 0.12887219 0.09278869
0.124086 0.10795811 0.14585276 0.11728568 -0.046574943 0.119616024 0.12448952 0.18991618
-0.10165754 -0.10690188 -0.085175425 0.10839172 0.2770524 -0.008441274 0.028913913 0.08954838
0.25820997 0.012249037 0.089213856 0.10191335 0.1514747 0.07242633 0.13745719 -0.016601004
-0.021797938 0.022687135 -0.017901964 -0.0063324976 -0.071185544 -0.0769406 0.1583257 0.056387782
0.03877333 0.11296832 0.038728096 -0.14109914 -0.15539657 0.046512827 -0.04402826 -0.095892414
0.019011589 0.021296095 0.081418715 0.0337369 -0.2115375 -0.022501724 -0.070039764 -0.038247056
0.051283345 0.19763668 0.0517189 -0.04461991 0.041223593 0.18522263 0.14713421 0.01641054
0.077119604 -0.07451154 -0.074626155 0.050859645 0.06474073 0.04530778 0.0026191303 -0.10112015
-0.070279606 -0.10319056 -0.27968642 -0.21526465 -0.0068734726 0.022136293 0.0959362 0.1210829
0.13917518 0.13336469 0.10617269 -0.07557307 0.00016374432 0.08884335 0.13911065 0.13081484
0.2236599 0.14405666 0.18228139 0.10701408 0.09293917 0.035832983 -0.115097 -0.17969961
-0.18379484 0.06257665 0.024680708 -0.012098689 -0.22712559 -0.23516513 -0.18191527 0.031419467
0.026729682 0.03226355 -0.04446785 0.0052001523 0.111036815 -0.12717529 0.05477771 -0.04884313
0.1334018 0.04225345 0.032114506 -0.08113212 -0.079022504 -0.007323947 0.007378274 0.062699735
0.0719531 0.047516156 0.05308211 -0.0464365 -0.1744167 -0.1430881 -0.22422099 -0.3314844
-0.23331514 -0.2133213 -0.13082281 -0.048239835 -0.06124012 0.035828814 -0.0009067362 0.041090865
0.20290454 0.04971291 0.09163435 -0.0011306498 0.01522436 -0.023215078 0.10219671 0.0012373162
-0.045800123 -0.19069724 -0.13256921 -0.07731305 -0.090719834 -0.03039793 0.06665015 0.03186963
0.12825726 -0.0019021495 0.12800394 -0.010116134 -0.17214727 0.16004232 0.16330609 0.19476959
0.14556722 0.10142354 -0.016143085 0.16439302 0.075021565 0.13996716 -0.11271584 -0.013269838
0.00053204445 0.13107929 0.079839185 0.18888877 0.26512232 0.22810104 0.15522519 -0.34864882
-0.22976583 -0.15746832 -0.065103725 -0.096678905 0.014305743 -0.03725001 -0.010062638 -0.010378274
0.15379755 -0.056288347 -0.08349194 0.061272226 -0.05019925 0.06268761 -0.0146159455 -0.03217404
0.16158293 -0.21145827 -0.075018525 0.006970455 -0.05027864 0.04791585 0.22037527 0.053033624
0.0015360875 0.033035927 0.2584812 0.08220285 0.14984272 0.16528216 0.0353632 0.03869067
-0.031825446 -0.08970634 -0.10471058 0.12787497 -0.0038931551 -0.0036211545 0.02792814 0.1076019
0.037372727 0.09878753 -0.053760912 0.042288512 -0.0075990073 0.087736405 0.09327025 0.25474557

cell_list.2.conv_can.weight f4 [10, 20, 3, 3]
00000000: 2cb0 a63d 0ee6 893d 69c9 d43c a006 d5bd
00000010: e0c2 a6bd f7b1 4fbe 30df 363e 2505 033e
00000020: 634e c23d e4fb 69be 463c 2ebe 4f98 1ebe
00000030: 037a d6bd 946e 8cbd 6f8f 023d ec31 d2bc
00000040: 4965 d0bd da11 73bc 4507 e5bc 4da1 92bd
00000050: 8b64 81bd f17b 58bd 4962 fbbd 1fb2 54be
00000060: d4c0 233b bea3 4f3d 5444 2cbc 1da1 613d
00000070: e4a8 18bc 01a0 983d d117 aa3c 419b 083d
00000080: dae9 673d be4b 0b3e 0db1 9c3d 3e3a 26bd
00000090: 66c6 39bc 2aa0 20bd 6fe9 b3bd b4d7 d1bb
000000a0: 1e9c bd3d cb72 153d 6986 003d 8de3 f43d
000000b0: a201 603d 47ed b03d 1cb7 5ebd f7cd 52bc
000000c0: 113e 3bbe 070a 31be f7fa 7abe 759e 79bd
000000d0: f916 643d 1ad5 bbbc 0919 99bd 47d9 96bd
000000e0: c5fc 10be 9c84 91bd 9a27 47be b465 e7bd
000000f0: 5a6a 1e3c dc3e b63d b3a6 a43d 462d 12be
00000100: fd78 87bd b57d c2bd 3a07 0a3d b8b6 b8bd
00000110: ca3c e73c 4775 883a f56c e13c 5be6 6f3d
00000120: adbd 1fbe fbe0 a7be f787 90be f8c8 92bd
00000130: f850 7ebd 6126 13be fd69 ffbc ff5f 683c
00000140: 5fee dc3a f24f 863d 573d d03d 1419 ad3d
00000150: a35b f5bd dfb2 48be 9de6 54be 55ca e93c
00000160: 20a4 8bbd bc0b 68bd e6c1 4dbe c607 3ebe
00000170: e68f dcbd c59e 7ebd 2f84 4d3d a423 123e
00000180: 1c12 a8bd 1aab 14be 0d43 49bd b2d7 463e
00000190: 6ecc 453e bcf2 2d3e bad9 553d 5624 ee3c
000001a0: 825c 24bc 3b1c d53d c41e 32bd b065 013a
000001b0: 6a43 803d 641c 453d 590e ff3d e34f 4c3c
000001c0: 2286 c03c 989a 293e 2e65 273d 91dc 54bd
000001d0: 63d5 5b3d ef5c b7bc ec48 7cbd 2f01 e83c
000001e0: dd45 f53c 48fd 1d3d 004d dc3c 2b10 05be
000001f0: 44c0 4ebd 1425 aabb fafc 003e de4e 043e
00000200: 6952 f03d 9f60 143d de9c 3b3c 8876 173d
00000210: 591e 68bd e0c1 c1bc 32c5 21be 8819 debc
00000220: d0eb 833d 9a20 553d 299d 023d 33d3 883c
00000230: 1de9 98bd 7f05 9ebd 3c23 bb3b 9e8f 3dbd
00000240: ffdc aa3c 7663 a53d ddf0 053d ac10 97bd
00000250: e795 c1bd aaa9 3a3d 4634 7d3d 6ca2 25bd
00000260: 84ff be3d 2f76 653d 7649 0c3e 0d43 173e
00000270: fd48 32bc 5b6c c6bd a828 5ebd 7dc7 373d
00000280: 0eff 75bd d8bf 5e3c 3da2 85bd 9ed5 4e3c
00000290: cf61 adbd b61c 3fbd b4c1 163d 6972 333d
000002a0: 1f5f ba3c 257b c03d 6ceb 013e 3b96 e43b
000002b0: 376b 463c 9792 e33c a1a1 98bd 6872 e7bd
000002c0: 5f4d 46bd 4c30 13bd 90c9 673d 80c1 10be
000002d0: ca27 113d 8e4b 67bd 8fb6 353c b79b 4ebd
000002e0: 7c48 17be 9c8e 743b f0c6 f3bd 126c 9bbd
000002f0: f78b e6bd 1d6d 9f3d 6cfb e83d a0b1 523e
00000300: 47ee 663d 4974 18bd eb7c 57bd 78a9 14be
00000310: d7f2 2e3c 491e ad3c 09a0 3c3d dc20 083e
00000320: 267e b03d 3d28 283d 0869 3f3d cbfe 4ebd
00000330: 8093 69bd 0299 843c a62e 72bd 46e1 563e
00000340: 9922 453e 55a4 113e e2f9 5e3e affd 403e
00000350: 3499 913e 406a a53d 5b3a b23d 50ad a53d
00000360: c96e 043d e90f 8fbd d30a 9ebc 8e74 a8bd
00000370: 1e64 89bd b058 c6bd d531 89b9 d5b0 ad3a
00000380: b459 55be 0ced 883e 42b2 743e f083 263e
00000390: 895f 743e 4997 403e bb78 7e3e cba5 463d
000003a0: fa79 083e d5b3 9b3d 00a3 56bd d292 a0bd
000003b0: 71af fcbd ce5f d5bd cfb9 65be 81bb 0fbe
000003c0: 4aec 89be 1660 63be 8ac9 a0be d8f7 063d
000003d0: 6562 04bd 249f 85bd 48e8 1abe 1f01 38bd
000003e0: d658 94bd ff04 b3bd 3768 aabd b1d0 03be
000003f0: 5c05 333e 86b3 8a3d 0c0c 573d c2b8 3abd
0.08139071 0.067333326 0.025974946 -0.10401654 -0.08142638 -0.20282732 0.17858577 0.12794931
0.09487607 -0.22849995 -0.1701518 -0.15487789 -0.10472491 -0.068570286 0.03187507 -0.02565857
-0.101755686 -0.014835799 -0.027957568 -0.07159672 -0.06318005 -0.052852575 -0.12274606 -0.20771073
0.002498676 0.050693266 -0.010514338 0.05508529 -0.00931761 0.07452393 0.02076331 0.033351187
0.056619503 0.13603112 0.07650957 -0.040582888 -0.011338806 -0.039215244 -0.08784758 -0.0064038876
0.092582926 0.03648643 0.031378184 0.11957464 0.054689057 0.08639007 -0.054373845 -0.012866489
-0.18285395 -0.17288981 -0.24509798 -0.060942132 0.05568597 -0.022928763 -0.07475478 -0.07365661
-0.14158924 -0.07105371 -0.194487 -0.11298695 0.009668911 0.08898708 0.08039608 -0.14275083
-0.066148736 -0.09496633 0.033698298 -0.09019226 0.028227229 0.0010410928 0.027517775 0.058569293
-0.155997 -0.32788834 -0.28228733 -0.07167238 -0.062088937 -0.14370109 -0.031178469 0.0141830435
0.0016855708 0.06558217 0.1016795 0.08452049 -0.11980369 -0.19599484 -0.20791097 0.028538862
-0.06818414 -0.056651816 -0.20093498 -0.18557653 -0.10769634 -0.062163133 0.05017489 0.14271408
-0.08206579 -0.14518395 -0.04913621 0.19418219 0.19316265 0.16987127 0.052209593 0.02907006
-0.010031821 0.10405775 -0.04348637 0.0004936112 0.06262858 0.04812278 0.124539085 0.012470218
0.02350146 0.16562879 0.040867977 -0.05196816 0.0536703 -0.022383181 -0.06159298 0.028320877
0.02994054 0.038571626 0.026892185 -0.12994449 -0.050476328 -0.0051924083 0.12596503 0.1292071
0.117344685 0.036224958 0.011450974 0.036978275 -0.056669567 -0.023652017 -0.1579788 -0.027111784
0.06441462 0.052033044 0.03188816 0.01670227 -0.07466338 -0.07715892 0.0057109874 -0.046279542
0.020857332 0.08075611 0.03270041 -0.07376227 -0.0945242 0.04557196 0.06181743 -0.0404381
0.093260795 0.05602091 0.13699898 0.14771672 -0.01088166 -0.09688636 -0.05423799 0.04486798
-0.060057692 0.013595544 -0.06525085 0.0126241725 -0.08465921 -0.04665824 0.036805823 0.043810282
0.022750435 0.09398488 0.12687463 0.0069759167 0.012110523 0.02777986 -0.07452703 -0.11301118
-0.04841363 -0.03593473 0.05658871 -0.14136314 0.035438336 -0.05646854 0.011090889 -0.05044147
-0.14773744 0.0037316447 -0.11903179 -0.07588972 -0.11257165 0.077844836 0.1137608 0.20575571
0.056379583 -0.037220273 -0.052609365 -0.14517772 0.010678015 0.021132605 0.04605106 0.13293785
0.08617811 0.041054 0.046731025 -0.05053596 -0.057025433 0.016186241 -0.05912652 0.20984372
0.19251479 0.14222844 0.2177501 0.18846773 0.28437197 0.08076906 0.08702537 0.08089697
0.032332215 -0.069854565 -0.01929227 -0.08225356 -0.06708549 -0.096848845 -0.00026167804 0.0013251553
-0.20835 0.26743352 0.23896125 0.16261268 0.23864569 0.1880771 0.24850743 0.048497956
0.1332778 0.076026596 -0.052401543 -0.07840504 -0.1233815 -0.10418664 -0.22434162 -0.14036371
-0.26938087 -0.22204623 -0.31403762 0.032951206 -0.0323204 -0.06524494 -0.15127671 -0.044922944
-0.072435066 -0.08741187 -0.08320659 -0.12872578 0.17482513 0.06772523 0.052501723 -0.045586355

cell_list.3.conv_gates.weight f4 [20, 20, 1, 1]
00000000: 5689 91be 476e 1c3e eebd d2be 5540 91bc
00000010: d307 8f3d 5f7c 843d f663 12be a6bc b73c
00000020: 7fec a03e d85e 36bd d866 e93c 1482 4c3c
00000030: cb1c f3ba a4f6 70be 4847 e3bc ba0f 04be
00000040: 71e3 9dbe d30a bbbe 5d98 6cbe 2356 efba
00000050: 104e 9a3e 055e 61be 691b 493e 92e1 0e3e
00000060: 309d 063e 0b5e dbbd 69c9 903e 86ab b8bc
00000070: 8f5b 43be 8254 493e a405 f93d cddd 783e
00000080: 0dc6 fcbd 57c0 2f3e 77ff bcbd 55e5 623e
00000090: d0ac 043d 6d74 063e 6ddf 74bd ad98 2dbe
000000a0: 901b 13be 9512 9abd cb78 e2bd 3462 b63c
000000b0: 9fee d33c 57eb a0be 6f3c 9fbb 7076 d4bc
000000c0: 1274 6c3e cfda 703d d94e 483d 97c8 5abe
000000d0: a90c cebc 6698 6c3b b1d5 25be 1fd1 da3d
000000e0: d922 133d 807f 3bbe 57f7 563e 3dc0 dabd
000000f0: 1009 113d cf05 a5be 8ef5 493e 9be5 01be
00000100: fefb 19be 6fb7 e33c 0219 3bbe b7a7 abbc
00000110: c405 49be eec7 383e d8f5 c9be 4fa0 353e
00000120: 8aec 8c3d 7678 803e 560e eebd 839f 1e3e
00000130: 2f4f 0cbe ee40 29be 9c51 ffbd 8f46 893e
00000140: c1c9 0e3e 1472 36be 7931 efbb e5c4 33be
00000150: 1979 6fbe 4741 b93d fdcd 97be 5880 ba3b
00000160: 69ad 91bd f725 a3bd 1c9d c13c 7489 263e
00000170: e9a3 bcbc 0eea 213e 3c6d 97be 2be4 a9bd
00000180: 070b 2f3e d1c8 b0bd 08cf 0c3d 6b67 f53d
00000190: 964a 903e 21ce 17be b17b 7f3e c415 a3be
000001a0: 5f59 08be 5b01 d93d 7e84 9ebe 0c7c 273e
000001b0: 771f 7bbd c450 223e d7d8 d6be 6b43 943e
000001c0: 0003 febc c98a 893e 02ac 06be 22fc f93d
000001d0: 169f 9b3e a280 acbb c731 a43d 041a 503e
000001e0: 6e2a 5a3c bbdd b7bd 645e c23d b716 693c
000001f0: ae75 cebd 1206 a1be c1de 683d b250 e53d
00000200: 678c 41bd 0b10 f53c 5e19 50be 578c e7bd
00000210: 2891 efbd c74a d23d c2b6 83bd 2e19 8a3d
00000220: f92e 1a3e 47e0 953e 87f9 7bbd c987 103e
00000230: f6ff 433d 77ab e83d 3697 79ba a09e 2bbe
00000240: 976b bebd c15c c1bd f491 503c 1f6d babd
00000250: b90f 05be f3ff 473e b7c5 fabd 62e7 e93b
00000260: a145 28be 22c6 0bbe 40f1 22be 8b32 e0bd
00000270: 520c 413e d618 793d eefe 0abe 6c27 6cbe
00000280: 2062 023d 279c 8cbe d9ff 0f3d a0ad b4bd
00000290: b0c9 443e 0467 eebc b331 9ebe 1311 b4bd
000002a0: cfd5 51be 6a68 f23d 3317 31bd 902d 4fbb
000002b0: 499c 3cbe cc97 033e a4fc 44bd 874e 0c3e
000002c0: 19a2 ddbd 2461 bdbd 3fe7 04be 04c2 5ebe
000002d0: 4776 3cbe 691f 93be dee7 bfbc b37e 503e
000002e0: cdf5 37be 5cba a5bc 89bc 353d 7ffa 99bd
000002f0: 2841 2fbd 482e 1cbe f632 8fbe 8ed4 3ebd
00000300: 8a99 fcbd 1313 8b3c a179 153c cc30 243e
00000310: 9378 573e 9a6c 17bd 7b9f 04be f969 363e
00000320: daa0 efbc 377d 4ebe 869c f03d 1554 903d
00000330: 0767 f33d 88b3 3fbd b410 40be 3968 8cbe
00000340: ee69 bf3e bdc8 e5bd a217 393e 5fee 393e
00000350: 8504 babd 4d62 593e 1368 87bd eabc 11be
00000360: 2620 2b3e 6860 173e 87e3 913c aebe bdbd
00000370: aeaa adbe f1cc debd ac01 b6bd be77 953e
00000380: 60f0 afbc 599a 493e ca23 a13d b8da 6cbe
00000390: 5485 163e 153a 91bd 2b18 b83e 7ae9 0dbe
000003a0: fdea eebe a05e 82bc a54a 92bd 06a3 63bd
000003b0: d3df edbd 462c dcbd 46c6 b53d b793 46be
000003c0: a213 2d3e 57d7 213e 61d5 923e 822d 0f3e
000003d0: 919e 0a3e b5ab 32be 4ca7 c5bc f118 0ebd
000003e0: 6a5a 9e3e 3851 4b3e 017a 1c3e 1e32 ffbd
000003f0: fcc0 cfbd bcef a93d 920f 6bbc 8849 d93d
-0.28425092 0.15276442 -0.4116053 -0.017730871 0.06983914 0.064690344 -0.14295945 0.022428822
0.31430432 -0.044524044 0.028491423 0.012482185 -0.001854801 -0.23531586 -0.02774395 -0.12896624
-0.30837587 -0.36531696 -0.23104997 -0.0018259924 0.30137682 -0.22008522 0.19639362 0.13953236
0.131459 -0.10711297 0.28278664 -0.022542726 -0.19077896 0.19661143 0.12159279 0.2430336
-0.12342463 0.17163216 -0.092284136 0.22157796 0.03239137 0.1313035 -0.059783388 -0.16952772
-0.14365983 -0.075230755 -0.11058196 0.022263624 0.02587062 -0.3142955 -0.004859499 -0.025935382
0.23091152 0.058802422 0.04890332 -0.21365581 -0.025152521 0.0036101579 -0.16194798 0.10684418
0.035921905 -0.18310356 0.2099279 -0.10681198 0.035409033 -0.32230994 0.19722578 -0.12685244
-0.15037534 0.027797429 -0.18271258 -0.020953996 -0.19631106 0.18045017 -0.39445376 0.17736934
0.06881054 0.25091904 -0.11623828 0.15490536 -0.13702081 -0.16528675 -0.12466738 0.26811644
0.1394415 -0.17816955 -0.007299599 -0.17555578 -0.23386039 0.09045654 -0.29649344 0.0056915693
-0.071131535 -0.079662256 0.023634486 0.16263372 -0.023027377 0.15811941 -0.29575527 -0.08295473
0.1709405 -0.08632053 0.034377128 0.11982616 0.28181905 -0.14824726 0.24949528 -0.31852543
-0.13315342 0.10595962 -0.3096046 0.16355914 -0.061309304 0.15851122 -0.4196231 0.28957686
-0.03100729 0.26863697 -0.13151553 0.12206294 0.3039481 -0.0052643577 0.08017307 0.20322424
0.01331578 -0.089778386 0.0949066 0.014226607 -0.10081039 -0.31449944 0.05685306 0.11197032
-0.04725304 0.029914876 -0.20322177 -0.113060646 -0.11697608 0.10268169 -0.06431343 0.06743084
0.15056981 0.29272673 -0.061517265 0.14114298 0.047851525 0.11360829 -0.00095211284 -0.1675973
-0.09297865 -0.094415195 0.01273011 -0.091028444 -0.12994279 0.1953123 -0.12244742 0.0071381787
-0.16432811 -0.136498 -0.15912342 -0.1094714 0.18852356 0.0608147 -0.1357381 -0.23061913
0.03183186 -0.27462885 0.035156105 -0.08822179 0.19217563 -0.029101856 -0.30897292 -0.08792319
-0.20491718 0.11836322 -0.043235015 -0.003161285 -0.18418993 0.12850875 -0.0480925 0.13701831
-0.10821933 -0.09247044 -0.12978838 -0.21753699 -0.18404494 -0.28734902 -0.023425993 0.20360832
-0.1796486 -0.020230465 0.044369254 -0.075184815 -0.042786747 -0.1525203 -0.27968568 -0.046589427
-0.12333973 0.016976869 0.009123237 0.1603424 0.21042089 -0.036968805 -0.12951462 0.17813863
-0.029251505 -0.20164953 0.117486045 0.070472874 0.11884885 -0.046802074 -0.18756372 -0.27423266
0.37385505 -0.112199284 0.18075421 0.18157338 -0.09082893 0.21228905 -0.066116475 -0.14232221
0.16711482 0.1478287 0.017808689 -0.09264885 -0.3391928 -0.10878933 -0.08887038 0.2919292
-0.021476924 0.19687785 0.07868154 -0.2313031 0.14699298 -0.070911564 0.3595594 -0.13858595
-0.46663657 -0.015914261 -0.071431436 -0.055575393 -0.11614957 -0.10750632 0.08875708 -0.19392286
0.1690202 0.15804802 0.2867842 0.13982204 0.13537051 -0.17448314 -0.024127625 -0.034691755
0.30928355 0.19855201 0.15280916 -0.12460731 -0.10144231 0.08297679 -0.014346974 0.10609728

cell_list.3.conv_can.weight f4 [10, 20, 1, 1]
00000000: f7e9 c8be 6f77 1dbe 79c5 1bbe 48d9 2b3d
00000010: c9c2 a33e 23e0 a73d 887d 423d b8e1 1abe
00000020: f2e0 993e 51b3 84bd 2d7a 083e 62f3 2e3d
00000030: 906d 60be 9902 1abe 3979 1d3e 215c 21be
00000040: cb54 28be cda0 9bbe 67ee 16be dd42 cbbd
00000050: c7cf 843e 6ccd 643e 0a00 393e 52f4 65be
00000060: 5524 04bd 0558 a6bd 24c9 83be e102 9e3e
00000070: dc25 90bd 2d2e 9d3e ca43 6b3b d0b9 273e
00000080: cccd 9f3d ecd7 7a3e 27b7 8cbe 5a8c 9cbd
00000090: 6a34 9fbd 2d2b 423e 29fd 3ebe 2894 913e
000000a0: ba07 153e fe7a 873e bf2b a8be ed3e 5dbe
000000b0: ea40 33be ddd7 4b3e 6bb1 85be 10c5 2bbe
000000c0: 640b 953d 68f8 133d fbfc 75bd 186e 143e
000000d0: 67c5 7a3c c8e2 37bd 2694 f6bd f752 53be
000000e0: ddca 183e 1017 12be a748 6fbe 4c56 9d3d
000000f0: fc85 1f3d e7b7 143d 09ac 043e 554f 4cbe
00000100: 7075 80be b013 52be 64eb 663e 09e0 9f3e
00000110: 9877 723b 6f60 a23a b7c6 f13d 8ee5 153d
00000120: 6a02 8d3d a7fc 0b3e 19a5 dc3d 46c4 bdbc
00000130: 6293 b23e 8d50 4a3b 71d5 85be 617d c53c
00000140: d8e0 653e 7bc6 653e 82ef 6a3e 6294 8b3e
00000150: c9e0 9fbd 93ea 1a3c 9bdc c33d 7fc5 94be
00000160: 1f9d a6bc 2f82 d73b 28a0 e1bd d7c1 38bd
00000170: 3c32 863d ea76 97bb 0f5f 62bd 1596 8ebc
00000180: ce6a 913d c18b 2bbd dcfb 0b3e 5dc1 463e
00000190: 1b56 0dbd ef5a 113e 8385 0b3c 0b40 30be
000001a0: d426 5cbe 3bf5 8d3e 8eaa 41bb 055f 923d
000001b0: 6c2b 29be ba23 dc3c 5be6 8d3e 97ff 1e3c
000001c0: 798f 2e3e a2e9 8dbc 658b 103d a3a4 b73c
000001d0: 6ad0 26bc 4489 1e3e 9201 4fbb 7026 613d
000001e0: 211f 1d3e 3ce2 a7bd 1e1b bd3e 9f43 ccbd
000001f0: 0446 ca3d d455 eebd a89f 663e 35e0 94bd
00000200: c477 12be 41d5 9f3c e45a a5bc ceaf 60be
00000210: 1f60 70be c293 3f3d 0828 3ebd 61f9 f8bc
00000220: bce0 7abd d331 af3d 2856 7e3e 2a0b 71be
00000230: ad9e 4f3e 1540 b33e 5860 22be f282 d9bd
00000240: 22d2 2ebe ad12 303e 6c8a 923e c7cf f43d
00000250: 4a1e 5d3e e560 8cbc 8091 e33e 1f70 a3bd
00000260: 0584 113e 3621 d43d 21b8 63bd 83a0 c03d
00000270: ec18 ecbd 7a43 c33d 908b 9e3d c826 a1bd
00000280: b528 1cbd 7ba1 0fbe 0acc b4be 7773 a93d
00000290: ef36 c13d 02fb 1d3e 5c2b 82bd 5905 823e
000002a0: 9af3 a8be 82b4 613e 007a 5ebd 58f0 073c
000002b0: 80ee 143e 27d3 85be 3e45 97bd 97e1 663d
000002c0: cd27 6f3e 695d 803e 96b4 ec3d 6ab7 713e
000002d0: 8259 173e 4522 b53c dea5 43be 5de8 6cbd
000002e0: b03c b6bc a764 05be 70d1 833c f955 453e
000002f0: 99ee e03c b5c5 d53d c79c 7f3e 500f 46be
00000300: 655c 143e 4f1d dc3c b2f9 273d c580 7d3e
00000310: aa24 f5bd cf2e 87bc 6564 bdbe 754a 2cbd
-0.39241 -0.15377592 -0.15212049 0.041955262 0.31984547 0.081970476 0.047482997 -0.15125167
0.30054432 -0.064795144 0.13327856 0.042712577 -0.21916795 -0.15040053 0.15378274 -0.157578
-0.16438596 -0.3039612 -0.14739381 -0.099248625 0.25939772 0.22343987 0.18066421 -0.22456482
-0.03226121 -0.08122257 -0.25739396 0.3086157 -0.07038471 0.30699292 0.003589856 0.16379476
0.078029245 0.2449643 -0.27483484 -0.076439574 -0.07773669 0.18961783 -0.1865126 0.28433347
0.14553729 0.26461023 -0.32845876 -0.21606036 -0.17505231 0.19906564 -0.26111922 -0.16774392
0.07277563 0.03612557 -0.060055714 0.14495122 0.015305853 -0.04489401 -0.12039976 -0.20637117
0.14921136 -0.1426661 -0.23367558 0.076824754 0.038946137 0.036308195 0.12956251 -0.19952138
-0.25089598 -0.20515323 0.22550732 0.31225613 0.0036997553 0.0012388359 0.1180548 0.036595874
0.06885226 0.13670598 0.107736774 -0.02316488 0.3487807 0.0030870766 -0.26139405 0.024107637
0.22449052 0.22438996 0.22942927 0.27261645 -0.07806546 0.009455341 0.095635615 -0.29056928
-0.020338593 0.0065767984 -0.110168755 -0.045106735 0.0655255 -0.00462233 -0.055266436 -0.017405549
0.071004495 -0.041881327 0.13670295 0.194097 -0.034505945 0.14194845 0.008515718 -0.1721193
-0.21499187 0.27726158 -0.0029551121 0.0714703 -0.1652047 0.026872505 0.2771481 0.009704492
0.17046918 -0.017323319 0.035289187 0.022417372 -0.010181526 0.1548205 -0.003158663 0.054968297
0.15343906 -0.08197448 0.3693475 -0.09973835 0.09876636 -0.11637464 0.22521842 -0.072693266
-0.143035 0.019510867 -0.020184942 -0.21942064 -0.23474167 0.046771772 -0.046424896 -0.03039235
-0.06124948 0.08554425 0.24837554 -0.23539415 0.20275374 0.35009828 -0.15857065 -0.10620679
-0.17072347 0.17194624 0.28621233 0.11953693 0.21593586 -0.017136047 0.44446945 -0.0798037
0.14210518 0.10357897 -0.05559552 0.09405615 -0.11528191 0.095343545 0.07741463 -0.07868725
-0.03812476 -0.14026444 -0.3531192 0.08273976 0.09434306 0.15427783 -0.063559264 0.25394705
-0.32998353 0.22041515 -0.054315567 0.0082970485 0.14544106 -0.2613766 -0.07386254 0.056367483
0.23355027 0.25071266 0.115578815 0.23605123 0.14780238 0.022111068 -0.19106242 -0.057838786
-0.022245735 -0.13026677 0.016091079 0.19271077 0.027457522 0.104381 0.2496215 -0.19341779
0.1448837 0.026869444 0.041009612 0.24756153 -0.11969884 -0.016501812 -0.36990657 -0.042063195
