saved_models/ambaudio_brainlike/random3_4.pt (torch, 118160 bytes, 14 tensors)

cell_list.0.conv_gates.weight f4 [20, 11, 3, 3]
00000000: 0d4d cf3d 7b9a cf3d 854c 2bba 32c8 e43c
00000010: e8a0 6cbc b43b 33bc 89b6 3c3e da89 2c3e
00000020: 18ce d63d 673b 7c3e ca7a f63d 77fc c93d
00000030: babb 823e 8275 353e d24e 493e dcee 743e
00000040: e99f 743e 538c fb3d 4fa3 4cbe 1795 7fbe
00000050: 22d1 1bbe ede9 54be ee30 1cbe f513 31be
00000060: a20c c7bd 9f4e 30be b87f 05be 5b7e 303e
00000070: 95ab 793e 6111 db3d e3cc 7c3e 2b10 7c3e
00000080: 7d2b 073e 7d50 663e 90bb 883e ae4c ec3d
00000090: 2dba 5abe 46cd ebbd 09c5 c7bd 0483 32be
000000a0: 62c9 2ebe b452 08be 759c edbd 631a 8dbe
000000b0: ba67 80be 9b71 893e 90f8 7c3e 3005 153e
000000c0: 57f3 373e 5b36 a23e 648a 1e3e 3b81 943e
000000d0: 5d3f 953e a96a 073e 5681 8cbe 2d1f 15be
000000e0: 74e9 04be c38a e0bd 54ae 42be 9b2c 0bbe
000000f0: 2803 8ebe 4378 1fbe 842b 9abe 4b87 8cbd
00000100: fd47 09be 7a58 abbd 2995 dcbd 34c9 6bbe
00000110: 6434 1cbe 741b 07be 8753 13be a901 78be
00000120: 381b 56be 022e 5ebe 5053 6bbe dcd4 bdbd
00000130: 649e 0bbe b04a 1ebe d43c 5dbe 7a9d 8fbe
00000140: a051 30be 5fc5 79bd a227 ebbd 9542 79be
00000150: 4278 3abe 9a00 3abe 14a3 01be 68e2 08be
00000160: 7320 84be 766c 94be 095c 563e 93dc 6b3e
00000170: 7b6d 733e ce31 883e dcee 953e 0b1f 283e
00000180: 3b39 df3d 5aa3 833e 4024 9e3e 2303 2bbd
00000190: 1516 3dbc 6cbf ed3d 5990 d03d a1a4 ac3c
000001a0: 96ee 1dbd 8b08 3a3d 5d41 82bd 5f84 81bc
000001b0: 0b82 b03d 36a3 aa3d 8967 1c3e caf6 013e
000001c0: 681b 5f3d 303d f33d b19a 113e 0b61 4e3e
000001d0: 4312 183e 3a18 0dbe f5da 9fbd 0d6c 83bd
000001e0: 2085 eabd e035 42be db3c e4bd c075 fdbd
000001f0: d5a1 aebd 3639 2bbe 4539 b33d 357d 2c3e
00000200: ed2c dc3d 602d 3b3e 2114 003e 45e7 603e
00000210: 7808 013e fb3c e73d 1bd6 293e 070a 03be
00000220: efbe 6ebd 490b 13be 7350 a7bd 37b0 31be
00000230: 2db5 1abe e278 f9bd 3472 82be f733 0fbe
00000240: 2268 393e 3af9 263e cb78 0a3e ed46 0f3e
00000250: 25f4 3d3e b771 403e e855 e33d dbd4 4e3e
00000260: ff74 9b3d 3d46 07be cf6e 37be 10eb 3bbe
00000270: d56e 76be d2aa acbd 9867 1abe 282d 1bbe
00000280: 19e5 3cbe 9e41 55be 7af4 26be 7bec b2bd
00000290: 0681 38be 6d39 12be fa37 6fbd a7fb 9dbc
000002a0: c614 0fbe dbd6 5abe a46b 6ebc bfb4 16bd
000002b0: 77c2 d5bc 7b9a febd fda5 07be 97df e8bd
000002c0: b671 bebd 2020 d9bd 86ed 36be 6a58 e7bc
000002d0: fafb 95bd 5420 0dbe 1899 5abe 338e 3dbe
000002e0: 331b 36be a30a 30be c9d7 eebd e7c6 26be
000002f0: 1da9 f8bd 5b5c 7a3d f120 e83d f068 3c3e
00000300: 8f53 873e c5ac b13d 650a 323e c06b 603e
00000310: eac2 1c3e 873b 493e fc1b c13d bf86 95bd
00000320: 10ca a43d 989c 83bd 0a6b 743d 0d0a b43d
00000330: 8195 ecbb ca85 473d 1917 9dbd 2d08 f73d
00000340: aab9 373e 4072 2b3e abee 4f3e 8754 343e
00000350: e1bc ef3d 4687 8e3e a72f 663e b2b1 663e
00000360: ecb2 e6bd df8d 54be a206 32be d827 edbd
00000370: 02b5 0ebe 6dec 9abe e528 9cbe 1a3b 8cbe
00000380: a81c 4bbe c089 6c3d ffb9 283e c4a2 093d
00000390: 01c3 153e 1326 573e 815e 0a3e 558e 063e
000003a0: 26e5 353e 7501 813e 69f5 d2bd 708a 10be
000003b0: fa0a fdbd f962 87be 9b0f 67be f58d a6bd
000003c0: cbca 86be 584c 20be cbae 70be e979 213e
000003d0: 1fc2 353e 8425 343e 1d5c dc3d 5ff8 2d3e
000003e0: 4040 d33d 0eb7 593e 3b66 153e 4a2b 4e3e
000003f0: 0288 44be 2031 19be 867b 4ebe a6f7 84be
0.10122118 0.10136887 -0.00065345346 0.027927492 -0.01444266 -0.010939527 0.18429007 0.16849461
0.10488528 0.24632035 0.12035139 0.09862607 0.2553385 0.17720607 0.19658974 0.23919243
0.23889126 0.12282624 -0.19984172 -0.24959217 -0.15216497 -0.2079236 -0.1525304 -0.17292769
-0.097192064 -0.17217492 -0.13037002 0.17235701 0.2438186 0.10696674 0.24687533 0.24615543
0.13200183 0.22491641 0.267056 0.11538063 -0.21360083 -0.11513762 -0.09754378 -0.17432791
-0.17069009 -0.13312799 -0.116021074 -0.27559194 -0.25079137 0.26844487 0.24704194 0.1455276
0.1796392 0.31682095 0.1548248 0.29004845 0.29149905 0.13224281 -0.27442425 -0.14562674
-0.1297968 -0.10963967 -0.19011813 -0.13591234 -0.27736783 -0.1557322 -0.30111325 -0.068617426
-0.13406368 -0.08366485 -0.107706375 -0.23025972 -0.1525436 -0.13194066 -0.14387332 -0.24219383
-0.2090882 -0.21697238 -0.22981 -0.09269115 -0.1363464 -0.15458179 -0.21605235 -0.28049833
-0.17218637 -0.060979243 -0.11482169 -0.24341805 -0.18209937 -0.18164292 -0.12659866 -0.13367617
-0.25806007 -0.28989 0.20933546 0.23033361 0.23772232 0.26600498 0.29283798 0.16418092
0.10899588 0.25710565 0.30887032 -0.04175104 -0.011540909 0.116087765 0.10183782 0.021074595
-0.03855761 0.045418303 -0.06360123 -0.01581019 0.08618554 0.08331911 0.1527387 0.12691799
0.054469496 0.11876905 0.14219166 0.20154206 0.14850716 -0.13778773 -0.078054346 -0.064170934
-0.11451173 -0.18965864 -0.1114442 -0.12375975 -0.08526961 -0.16721043 0.08751158 0.16844638
0.107507564 0.18279028 0.12507679 0.21963222 0.12600887 0.11290928 0.16585581 -0.12796794
-0.058287557 -0.14359774 -0.08169641 -0.17352377 -0.15108176 -0.1218126 -0.25477755 -0.13984667
0.1810613 0.1630601 0.13522641 0.139919 0.18550165 0.18793379 0.1110037 0.20198385
0.075906746 -0.13210388 -0.17913364 -0.18351388 -0.24065717 -0.08431019 -0.1507858 -0.15153944
-0.18446769 -0.20825812 -0.16304198 -0.08736511 -0.18017969 -0.14279719 -0.058402993 -0.019285036
-0.13972768 -0.21371023 -0.014552031 -0.036793467 -0.026093705 -0.124318086 -0.13246913 -0.113707714
-0.092990324 -0.106018305 -0.17864046 -0.028240401 -0.07323451 -0.13781863 -0.21347463 -0.18511276
-0.17783813 -0.17191558 -0.116622515 -0.16286813 -0.12141631 0.061123233 0.11334408 0.18399405
0.26430938 0.08675531 0.17386778 0.21916103 0.15308729 0.19651614 0.09429166 -0.073010914
0.08046353 -0.06426352 0.059672393 0.087909795 -0.0072199707 0.048711576 -0.07670421 0.12062106
0.17941919 0.16742802 0.20305888 0.1761037 0.11705948 0.2783758 0.22479115 0.22528723
-0.112645954 -0.20757245 -0.17385343 -0.11579865 -0.13936237 -0.30258504 -0.3049995 -0.2738884
-0.1983515 0.057748556 0.16477202 0.03360249 0.1462517 0.21010618 0.13512613 0.13140233
0.17763194 0.25196424 -0.103007145 -0.1411531 -0.12355609 -0.26442698 -0.22564547 -0.08132545
-0.26326594 -0.15654123 -0.23504178 0.15769161 0.17749833 0.17592436 0.10759757 0.16989277
0.10314989 0.21261236 0.14589779 0.20133701 -0.19192508 -0.14960146 -0.20164308 -0.2597019

cell_list.0.conv_can.weight f4 [10, 11, 3, 3]
00000000: 3b3e 553e 804a 793e ec14 c23d 1551 dd3d
00000010: 28cb 5b3e c83c 463e b08a 8a3d 7aff 5e3e
00000020: d66f 553e dbf5 383e 3456 a73d 05b6 d33d
00000030: 1452 0f3d b797 d13d 3ac3 0c3e 6c2a 293e
00000040: b856 833d b7dd 1d3e 1c57 1cbe 4a5a 0dbd
00000050: dbce 9dbd d96b 26bd 274f 51be c311 03be
00000060: 01c0 8bbe 7f9d 2fbe 7f5d 0ebe 173f b73d
00000070: 9652 c73d 82bd 343d b21a 913d 9277 193e
00000080: 512e 293d eec8 543e a699 303e f420 ad3d
00000090: 9884 f5bd 63ad c7bd bc71 31be 4ecb debd
000000a0: fe54 12be 072f 40be 49c2 75be b6c0 68be
000000b0: ff25 86be 62ce 9c3d a373 a33d 1eae 3b3e
000000c0: 3ae6 593e 25e1 8f3d 95d9 343e ef79 ac3d
000000d0: 1320 653e 7aca d73d 2e60 60bd 723d 63be
000000e0: fbb8 08be 890a 37be e9b7 cfbd 18b5 0abe
000000f0: 6af0 4dbe 55f8 2bbe 7923 dcbd d044 dcbd
00000100: cfab 14bd 528e 51be 0f47 26be ad4b 05be
00000110: 2410 06be 921a 6fbe f359 5dbd cc39 30be
00000120: 5867 08be a209 13be 4a54 bbbd a3f0 24be
00000130: 5574 3bbe d153 1bbe 1f50 1dbd 697e 0cbe
00000140: f5cb 3dbe 24a4 2bbe 144e 18be 6e9b 23be
00000150: e7a8 03bd f02e d8bd 16dc 83bd 1d4b 0abd
00000160: b6f5 84bd 400a 89be 3bd4 b13d 754e 283e
00000170: 60ec 993d fa6f e23d 1668 073e f8af 773e
00000180: 1726 323e 4cac c93d bc02 693e 8b64 00be
00000190: 87f8 18be 1f28 81be ffeb 8fbe 2e5e 68be
000001a0: 3634 93be ea9d 81be 24a6 3ebe 4f39 91be
000001b0: 76f5 6abe a683 d9bd 0efe 73be 329e 10be
000001c0: 68c4 45be 968a 9dbe fb2e 1dbe 7a2d 81be
000001d0: a94e 7abe fbae 7a3e a24d 163e c06b 0c3e
000001e0: b876 0e3e ad3f 8e3e 6d70 803e e7eb 263e
000001f0: 9af3 ed3d d5ca 8b3e 4abf eabd 5b72 7bbe
00000200: b30c 17be 0b1e 28be fa32 6fbe 280d 24be
00000210: a809 afbd 55a3 72be 9a94 4fbe 93bc cd3d
00000220: e498 803e 988c 903e 96b5 5a3e 7800 e03d
00000230: 7b7e 243e 5273 443e ac19 243e 013f 8d3e
00000240: b49c 3abe 73f4 2bbe a358 53be 0bff a3be
00000250: e659 86be 1054 5abe 4080 84be 1431 9fbe
00000260: 625d 84be 7992 fb3d a19c 623e 9a7b 6b3e
00000270: 4f03 2f3e eaba 743e a8b7 513e 9612 983e
00000280: 66eb 783e 6289 583e edf2 6a3e 1a80 203e
00000290: cdf5 5c3e fb5a 0b3e 62d7 203e 9e03 1d3e
000002a0: 3b92 203e c3e8 8d3e fc8c 2b3e f194 6f3e
000002b0: 0105 9e3e be53 823e 9691 723e 3e12 6b3e
000002c0: 408d 973e 18d9 993e d6f8 773e 224e 503e
000002d0: 4714 c03d 651c 3c3e bbd5 6d3e 4870 363e
000002e0: 2936 ba3d a71c 4a3e 9278 cf3d 6821 d73d
000002f0: 9ba5 3d3e 41a9 ecbd dcd0 92bd 9d1f fbbd
00000300: d69f fbbd bf21 93be ec33 7bbe 3271 cabd
00000310: 57c4 91be 0420 30be b950 e53d ec3f 4c3e
00000320: 7471 6f3e ecb2 363e f742 233e 3a21 053e
00000330: aa62 543e f323 793e eb6b 0e3e b090 d03b
00000340: b700 b13d 5c6d f83b a3b5 5f3d dd2c b13d
00000350: 7d70 be3d 0977 5b3d 2fb1 453d 3fd0 8a3d
00000360: 2db1 2abd 433b 35bd 946e 07be 3e19 6cbd
00000370: 6afa 9fbd 45f3 c2bd 170a b9bc df18 89bc
00000380: 5358 29be cc66 2cbe 7088 c2bd 5bf9 15bd
00000390: 7151 5fbd 2a05 813d c4ec 923c e4d3 b3bd
000003a0: 6bb8 873c 20fd b7bd ac2d ff3c 05ff 0f3d
000003b0: 7d54 5c3d 1371 02be 57cd fbbd 6247 1dbe
000003c0: aad4 2cbd 7dcd ddbd 75ac 90ba 7b51 b2bd
000003d0: 2b7c 27bd e90f 9cbd 938e 7dbb 1725 ad3b
000003e0: 69e2 c23d a436 d03d f948 aa3c bb62 2fbc
000003f0: 41c1 913c cad2 b83d 1494 263d 2e61 873d
0.2082452 0.24344826 0.09476647 0.10806481 0.21464217 0.19359124 0.06764734 0.21777144
0.20843443 0.18062536 0.08170739 0.10337452 0.034990385 0.102340154 0.13746348 0.16520089
0.06413025 0.15416609 -0.15267605 -0.034509934 -0.0770547 -0.040630195 -0.2044035 -0.12799744
-0.27294925 -0.17149924 -0.13902853 0.0894758 0.09732549 0.04412604 0.0708517 0.14987019
0.041303936 0.20779774 0.17246112 0.08453551 -0.11988181 -0.09749868 -0.17328542 -0.10878621
-0.14290234 -0.1876794 -0.23999895 -0.22729763 -0.26200864 0.07656552 0.0798104 0.18328139
0.2127923 0.07025365 0.17661126 0.084216945 0.22375517 0.10536666 -0.054779224 -0.22191408
-0.13351814 -0.17875113 -0.101425 -0.13545644 -0.20111242 -0.1679395 -0.10748953 -0.107553124
-0.036296662 -0.20464447 -0.16238044 -0.1301715 -0.13092095 -0.2334998 -0.05404086 -0.17209548
-0.13320673 -0.14359143 -0.09146936 -0.1610742 -0.18306096 -0.15168692 -0.038406488 -0.13720097
-0.18534835 -0.16761833 -0.14873534 -0.1597726 -0.0321435 -0.105558276 -0.064384624 -0.03376304
-0.06492178 -0.26765633 0.08683058 0.16436179 0.07515788 0.11056514 0.132233 0.2418822
0.17397343 0.09847316 0.2275495 -0.12538354 -0.14938556 -0.25225922 -0.28109738 -0.22692177
-0.2875077 -0.2531579 -0.18618065 -0.28364035 -0.22945198 -0.10620813 -0.23827383 -0.14122847
-0.19313204 -0.30769795 -0.15349953 -0.25230008 -0.24444069 0.24480812 0.14678052 0.13712978
0.13912475 0.27782956 0.25085774 0.16300927 0.11618729 0.27303186 -0.11462267 -0.24555342
-0.14750938 -0.1641771 -0.2335929 -0.16020644 -0.08546764 -0.23695119 -0.20271531 0.10045733
0.25116646 0.28232265 0.21358332 0.109375894 0.16063873 0.19184616 0.16025418 0.2758713
-0.1822384 -0.16792469 -0.20639281 -0.3203052 -0.26240462 -0.2132113 -0.25879097 -0.3109213
-0.25852495 0.12283797 0.22130062 0.22996369 0.17091106 0.23899427 0.20480216 0.2970168
0.24308547 0.21146157 0.22944231 0.15673867 0.2157814 0.13608925 0.15707162 0.15333411
0.15680782 0.27716646 0.16753 0.2339666 0.30863193 0.25454515 0.23688349 0.22956178
0.29599953 0.30048442 0.24216017 0.20342305 0.093788676 0.18370207 0.23226063 0.1781627
0.090923615 0.19737493 0.10130419 0.105044186 0.18520205 -0.1155572 -0.07168743 -0.12261889
-0.12286346 -0.28736684 -0.24531525 -0.098848715 -0.28470108 -0.17199713 0.11197037 0.1994626
0.23383123 0.17841691 0.15943514 0.13000956 0.20740762 0.2433012 0.13908355 0.0063649043
0.086427145 0.007581396 0.05461658 0.08651135 0.09298799 0.053580318 0.04826468 0.06778001
-0.041672874 -0.04424597 -0.13225776 -0.05764126 -0.078114346 -0.09519056 -0.022587819 -0.016735492
-0.165376 -0.16836089 -0.0949868 -0.036614757 -0.054521028 0.06299813 0.017935164 -0.08780649
0.01656743 -0.08983827 0.031149708 0.035155315 0.05379151 -0.12738447 -0.12295025 -0.15359262
-0.042195 -0.108302094 -0.0011037724 -0.087069474 -0.0408899 -0.07620222 -0.0038689717 0.0052839625
0.095158406 0.10166672 0.02078675 -0.0107046915 0.017792346 0.0902458 0.040668562 0.066103324

cell_list.1.conv_gates.weight f4 [20, 20, 3, 3]
00000000: 07ba 2a3e 6be9 2f3e 725f 243e 348b 28bd
00000010: a139 173e 6bc9 1c3e 7695 053f 40e2 2d3f
00000020: dfa6 2a3f 8d3f b03e d2d4 4c3e e315 213e
00000030: d965 d83e 2335 b63e a04d 0e3e 8bca 093e
00000040: bc2d 283e 5b6e 5e3e bf6b 4d3e 836c 0b3e
00000050: 13f0 d33d 3169 87bd 63b2 85bd efd6 abbb
00000060: 3f85 563c c784 eb3d 5052 193e 4d32 dd3c
00000070: b210 efbc 5c46 8dba 6338 e7bc d847 f1bc
00000080: 9478 08bc 02f1 4dbd 7c00 3ebe d781 5dbe
00000090: d1d8 8b3e e1fb 8e3e 75cb ca3c 8be8 163f
000000a0: ba95 053f 1e09 e83e 5443 003f 76f6 e33e
000000b0: 5c4f aa3e ec9a 2d3e 0711 8b3c 360a 303e
000000c0: da7a 70bd 527b 0fbe e6cc a7bd 6ba1 883e
000000d0: 2f6d b53e ea5e e43e 7d3e 2c3e 3973 2b3e
000000e0: b2ce 473e e2b5 f53d 4ae3 093e 75ea 733e
000000f0: cdb5 6e3e b1e0 c33d 2fc8 353d baf7 973b
00000100: b312 ff3c 79c2 a93b 3e92 0d3e 7a3a 5b3e
00000110: a978 8b3c b2c0 ff3e 575c dc3e fe52 cb3e
00000120: 7d01 863d 2f77 2a3e b0fc a33d 38aa 383e
00000130: 755b 7d3e 559a 743e ac25 8cbe e716 31be
00000140: 1545 85bc cd47 8c3e 4548 723e 6dce 933e
00000150: 5baf e63e 3fbb 6c3e e49d 293e 908d 1fbd
00000160: 0381 34be 87a8 4cbe 470b 413e 9575 f83d
00000170: 0b30 923d 1aec 3a3e bf6d 133e 32ef f23d
00000180: 15d9 773e 2f1a 3b3e 7e9e 133e f774 4bbe
00000190: 556f 56be 7da2 163d e691 733d 5139 7dbd
000001a0: b22d 2abd 5e0b 9a3d 7019 113e 58fb 833e
000001b0: 1641 9f3d 442b c63d 573f c43d 1e78 b1bd
000001c0: 6efd 42be 6529 dfbd 0a32 a3be ccb2 1abe
000001d0: 728b efbd f489 1b3e 1720 303e 0d75 153e
000001e0: 753d 58be b4d1 d8bb 1a22 d73d 6f12 38be
000001f0: 826c 8fbc 99ef 99bd 3654 50be ed10 efbd
00000200: e5a9 02be f478 9dbe c379 43be 3af9 4abe
00000210: ee24 38bc b38c 1c3e a812 283e 1556 573e
00000220: c60a 3d3e f33c c43d ea5f 963e 71f7 8a3e
00000230: c24b 743e 2d7f b23e f712 613e 23cd 853e
00000240: c953 813e e6b0 fa3d bcfa 11be 20b6 de3e
00000250: 99b8 3f3e 9a63 f63d 3917 b93e a707 cc3d
00000260: 99e6 4fbd d198 3bbd 0d59 1fbe 0627 e7bd
00000270: 012c 36be e0c8 9d3c 0715 2fbd cd42 0a3e
00000280: 523b 833e 675e ba3e 946e 7fbe d57a 33be
00000290: 7ff3 afbd 7965 91be b9d1 b3be 0f74 9dbe
000002a0: 69cf febe 669f b3be ffc8 8dbe ca50 9b3d
000002b0: e3af 393d 89b3 e33d e621 2a3c 00c4 243d
000002c0: 5b5a ad3c dd20 9f3d 7a3d 943e 8a65 813e
000002d0: cb64 5b3d 64c1 663e 6d20 593e 4457 ee3d
000002e0: 6280 b03c 5752 08be 367b e63c ff76 8abd
000002f0: e941 4dbe 03da ff3e 1c59 fb3e e870 ed3e
00000300: a1dc b93d 343b cc3b 9d9e 95bc 5a25 193d
00000310: 137f a8bb 384c 0ebe eae5 7e3c 446b ca3d
00000320: 907a cf3d e81a 1c3e b93f 4f3d 85e6 88bd
00000330: 6d38 323e 86b0 59bc 9b64 d7bd 0a41 91be
00000340: cc41 e8be 0b19 ccbe 761e 9dbe 2dff 5abe
00000350: 9a13 40be 75e4 75be 5f0f 92be 8e80 7dbe
00000360: d807 cb3e 7243 153f 2b8a ec3e 2fe7 903d
00000370: 8bc0 0f3e 64c7 bf3c 6ac5 debd 04d1 4fbe
00000380: 91e8 27be fa7e 18bd 9c4a 9e3d 1a40 cb3c
00000390: c993 913e d073 ab3e 2c36 803d 6eed 633e
000003a0: 0448 e23d 4e14 79bc 88ec 3c3e 3c57 733c
000003b0: 2b45 57bd 6a34 5e3d 1713 99bd e2a3 69be
000003c0: 5e77 1ebe a3e4 43be 7546 0ebe adc7 b2bd
000003d0: ac36 2f3e 6317 743e 99b8 be3d b2de 17bd
000003e0: 0235 35bd 0489 59be a944 6ebe 7c1d 13be
000003f0: 7e9c 923e 6c90 923e 5c40 3c3e e898 cc3d
0.16672526 0.17178886 0.16052034 -0.04114838 0.14768077 0.1531121 0.52181184 0.67923355
0.66660875 0.34423485 0.2000306 0.15731005 0.42265204 0.35587415 0.13896799 0.1345617
0.16423696 0.21721785 0.20060633 0.13615613 0.10348525 -0.066118605 -0.06528165 -0.005244128
0.013093292 0.11499935 0.14972806 0.027001524 -0.029182766 -0.0010778415 -0.02822513 -0.029453203
-0.008329529 -0.05027867 -0.18554872 -0.21631561 0.27313855 0.27926543 0.024755219 0.5894858
0.5218159 0.45319456 0.50102735 0.44523972 0.3326367 0.1695363 0.016975893 0.17191395
-0.05871091 -0.14011887 -0.08193378 0.26685652 0.35434863 0.44603664 0.16820712 0.16743173
0.19512442 0.11997582 0.1346561 0.23819907 0.23311539 0.09564341 0.044380363 0.0046376856
0.031136846 0.0051806537 0.13825318 0.21409026 0.017025309 0.49951702 0.430392 0.39711756
0.065432526 0.16647027 0.08007181 0.18033683 0.2474192 0.23886998 -0.2737249 -0.17293893
-0.016268292 0.2739853 0.23660381 0.28868428 0.4505566 0.23118304 0.16564137 -0.038953364
-0.17627339 -0.19986163 0.18851958 0.12131802 0.0713807 0.18254128 0.14397334 0.11862029
0.24203904 0.18271707 0.14415929 -0.19868837 -0.20940907 0.036776055 0.05946531 -0.06182224
-0.041547485 0.07521699 0.1416986 0.25777698 0.07776086 0.09676221 0.095823936 -0.08665489
-0.19041988 -0.10896567 -0.31874114 -0.15107268 -0.11696519 0.15189344 0.17199741 0.14595433
-0.21117194 -0.0066167954 0.10504551 -0.17975782 -0.017507795 -0.07516403 -0.20344624 -0.1167315
-0.12760122 -0.30756342 -0.19089417 -0.19821635 -0.0112392735 0.15288047 0.16413367 0.21028931
0.18461141 0.09581938 0.29370052 0.27141908 0.23857024 0.34862652 0.21979891 0.2613307
0.25259236 0.12240772 -0.14255804 0.43498325 0.18722762 0.12030716 0.3615053 0.09962397
-0.050757024 -0.045800034 -0.15561314 -0.1128674 -0.17790224 0.019260824 -0.042744663 0.13502045
0.25631195 0.36400148 -0.24944526 -0.17527325 -0.08591365 -0.2839773 -0.35120943 -0.30752608
-0.49767616 -0.3508255 -0.2769241 0.07583769 0.045333754 0.11118228 0.010384059 0.040225983
0.021161249 0.0776994 0.28953153 0.2527278 0.05356292 0.2253471 0.21203776 0.11637738
0.021545593 -0.1331266 0.028134923 -0.06760978 -0.20044674 0.49971017 0.49091423 0.46375203
0.09075285 0.0062326435 -0.01826411 0.037389137 -0.0051421016 -0.13896263 0.0155577455 0.098837405
0.10130799 0.15244639 0.05059788 -0.06684593 0.17404337 -0.013286715 -0.10517236 -0.28369933
-0.453627 -0.39862856 -0.30687302 -0.21386404 -0.18757477 -0.2401293 -0.28527352 -0.24756071
0.39654422 0.5830604 0.46199164 0.07075345 0.14038293 0.023410507 -0.108774975 -0.20294577
-0.16397311 -0.03723047 0.07729074 0.02481084 0.28433064 0.33486795 0.062603325 0.22258541
0.11048892 -0.015202595 0.18449605 0.014852341 -0.052556198 0.054249205 -0.07474344 -0.22816423
-0.15475222 -0.19130187 -0.13894065 -0.087294914 0.171107 0.23837046 0.09312553 -0.037077613
-0.044240005 -0.21243674 -0.2326838 -0.14366716 0.2863502 0.2862581 0.18383926 0.09990102

cell_list.1.conv_can.weight f4 [10, 20, 3, 3]
00000000: a047 16be 1dd8 4ebc 7c9a d93d d087 04bd
00000010: 1c16 ff3c 3c9a 463e 2efa 943e 0f66 7f3e
00000020: c5ac 303e 4951 10be 861a 94bd 4632 7fbd
00000030: 7133 20be d50d 02be 636c 84bd fa3f c0bd
00000040: 9b2d dfbd df91 99bd 3125 02be a4c3 44be
00000050: 8e07 5cbd 043f 89be dd20 91be c7b9 80be
00000060: d009 2f3d 5351 343d 4854 013d bf07 113d
00000070: ad03 4cbc e19b 8d3d 2587 59bd 4e11 fdbd
00000080: a825 1cbd 40f8 d2bd 6d3b 5cbc 66b4 43bd
00000090: 493d 0abe 22b8 59bd 7acf 923c dec5 9abd
000000a0: d555 7d3c 13b6 2abd ecdf b9bd f297 2d3d
000000b0: 75d1 8dbc bd15 d8bd 777a 28be 23b6 bdbd
000000c0: d2d6 d4bd d563 c8bd 71f7 bdbd 6226 943e
000000d0: 575f 593e 4da2 e43d 429e 3b3e 390f 0b3d
000000e0: 9477 50bd a07d 593e f94e 0e3e 7f61 07be
000000f0: b3d9 46bd e641 b6bd 43da 51be de56 d03d
00000100: f39a 1f3e 5c77 1b3e 4be2 5b3e 40f4 713e
00000110: 5d29 5a3e 1f50 86bd 0058 be3b f941 873d
00000120: 2711 af3d 6810 473d f59d 613e dfeb 4cbd
00000130: 323e 24bc 756e 8c3d 752e 3dbe ed81 2ebe
00000140: 3b1a 58be ce72 a43c c271 d4bc 258c 08be
00000150: cae4 bb3c 74e4 44bb 0480 d6bc c084 56bc
00000160: f96f a3bd 23f4 a2bd dc17 ff3d 47c0 3a3c
00000170: 7a06 c5bc c5b4 313d 4261 593d 893d f73c
00000180: e1fe cb3d 204b a5bc 1b07 b5bc df09 4c3d
00000190: 5011 343e 52e4 bc3d 5208 cfbd 16c7 f43b
000001a0: 15f8 073e 9409 a6bc 6d4f 4ebc fb1a e6bd
000001b0: ffe2 4cbe d22a b9bd 2ab1 833d fa08 b6bd
000001c0: a901 24be cb9e 50be c6a0 9f3d afe3 9d3c
000001d0: 0ffc 12bc 01d8 d63d 4a99 323c c038 5f3e
000001e0: 54a2 0ebe 55e9 69bd a590 b63d 3cd6 3a3d
000001f0: 2964 b1bd d70c 0dbe da63 52be 00af 64be
00000200: b569 04be af7c 5a3d 5c58 ab3d 26e6 03bd
00000210: 019b fd3d 3064 003e 962b 333e eea0 113d
00000220: 3f46 07be 74fb 55be c25c e93d 7cdd 3ebd
00000230: 846e 34be ab8a 5f3d d82e 623c b6c3 b43c
00000240: 602e 42ba d24a 40bd 966e a8bd 67ac e0bc
00000250: 3a5a 14bd c975 8d3b 5be7 1fbe 5e30 d3bd
00000260: 5de9 efbd ab58 39bd 0207 dabc f9be 9dbd
00000270: 4844 123e 60f2 083d 4459 66bc e7f1 4a3e
00000280: 3471 883d 0324 103d 7bda 21be 9fc8 ac3c
00000290: 97a3 8b3d 5d30 9fbe 7097 05be 5dc0 6cbd
000002a0: fea7 5ebe b0da 2fbe a9ac 1cbd d923 17bd
000002b0: 2dc3 babc fd2d 33be efc6 133e 4508 7b3d
000002c0: e004 0cbe c8ec 893d 3b22 a83d af27 8d3c
000002d0: de89 50be 79b0 68be e495 d6bd 130d 023e
000002e0: 2028 883e 97cb 653e d9b9 64be c437 88be
000002f0: a3f9 97be d7a9 af3d 90a6 ca3c 85c1 733d
00000300: 7b55 a4bd 897c d83c 8ac8 c73d d4e9 ad3b
00000310: 279a 9dbc e70a 19be 9d9f d03d bf15 a83d
00000320: 3fa3 ac3d e13e 21be e188 b3bd e3b4 313c
00000330: ebcb 9cbe bc79 eebd 878f dfbc 6417 2a3d
00000340: f1f4 d53d 891b eb3d db3b 67bc 66f8 43bd
00000350: be70 71bd a076 da3d c254 083e 6767 273e
00000360: 3e86 053e e039 1d3e 3b07 4c3e 4ad5 afbd
00000370: d8cc 17bd 19d9 2ebd 6534 94bd 204f cfbc
00000380: 2c22 8dbd 3833 80bc 239a 23be d3d0 743d
00000390: 775d b33d a63b 983d 9106 663e 3f75 35be
000003a0: 7470 d8bd 1605 bf3d baed 01be a732 a83c
000003b0: 797b 253e 6c1a b1bc d4e9 d83c e558 d83d
000003c0: 2646 493e 2e95 603e ff91 803e 3da9 93bd
000003d0: 1659 2bbe 53ed 99be 686a 823e 9399 1c3e
000003e0: b93d 0b3e 0d93 05bd 575c 5dbc 9d16 3e3b
000003f0: 9019 483e e097 f13d d1fd 973e b84a 3b3d
-0.1467576 -0.012624768 0.10625169 -0.032356083 0.031138472 0.19394773 0.29097122 0.24941276
0.17253406 -0.14093508 -0.072316214 -0.062303804 -0.15644623 -0.12700589 -0.064659856 -0.093872026
-0.108973704 -0.07498526 -0.127095 -0.19215256 -0.053718142 -0.2680589 -0.28345385 -0.25141737
0.042733967 0.04402287 0.031574517 0.035407778 -0.012452048 0.06914497 -0.0531074 -0.12356816
-0.03812185 -0.10301256 -0.013441903 -0.047779463 -0.13499941 -0.05315412 0.017921198 -0.075572714
0.0154623585 -0.041677546 -0.09075913 0.042381234 -0.017311791 -0.10551021 -0.16452967 -0.092632554
-0.10392536 -0.097846664 -0.09275711 0.28935534 0.21227776 0.11163769 0.1832209 0.033950064
-0.05089529 0.21239328 0.13897313 -0.13220786 -0.048547458 -0.08899288 -0.20493416 0.101728186
0.15586452 0.1518225 0.21473043 0.2362833 0.21304841 -0.06558251 0.0058088303 0.0660438
0.085481934 0.04859963 0.22032912 -0.05002963 -0.010024594 0.068570055 -0.18474753 -0.1704175
-0.21103756 0.020074274 -0.02593315 -0.13334711 0.022936244 -0.0030043395 -0.02618409 -0.0130931735
-0.079803415 -0.07956722 0.12455723 0.011398382 -0.02405094 0.043385286 0.053071268 0.03018071
0.09960724 -0.020177424 -0.022098115 0.0498141 0.17584729 0.09223236 -0.10109009 0.007470022
0.1327823 -0.02026824 -0.012592179 -0.11235615 -0.20008467 -0.090413705 0.06430276 -0.08888431
-0.16016258 -0.20373075 0.07794337 0.019273607 -0.008971228 0.10490418 0.010900805 0.21798992
-0.13929111 -0.05710729 0.089143075 0.045614466 -0.08661682 -0.1377443 -0.20545903 -0.22332382
-0.12930949 0.053341564 0.083664626 -0.03220191 0.1238308 0.12538218 0.17497095 0.035553865
-0.1321039 -0.20896703 0.11394645 -0.046597943 -0.17620283 0.054575603 0.013805114 0.022065978
-0.0007407423 -0.046946354 -0.082242176 -0.027425958 -0.03621886 0.0043170196 -0.15615599 -0.1031196
-0.117144324 -0.045250576 -0.02661467 -0.07702441 0.1428386 0.03343427 -0.0140593685 0.19818841
0.06662217 0.035190593 -0.15806 0.021091757 0.06818312 -0.31091586 -0.1304605 -0.05780064
-0.21743771 -0.17173266 -0.0382506 -0.03689942 -0.022798145 -0.17498012 0.14431356 0.061287183
-0.13673735 0.067346156 0.08209654 0.017230837 -0.20365092 -0.22723569 -0.10477808 0.127003
0.26593113 0.22440945 -0.2233652 -0.26605046 -0.29682645 0.08577316 0.024737626 0.059510726
-0.080241166 0.02642657 0.09755047 0.0053074155 -0.019238545 -0.14945565 0.10186694 0.08207273
0.08429574 -0.15746643 -0.08766342 0.010846349 -0.30624327 -0.11644313 -0.027290119 0.041526213
0.104471095 0.11479861 -0.014113392 -0.047844313 -0.05894541 0.10667157 0.13313583 0.16348039
0.1303949 0.15354109 0.19924633 -0.085856035 -0.03706059 -0.04268751 -0.07236556 -0.025306284
-0.068912834 -0.015649423 -0.15976767 0.059769463 0.087580614 0.07433252 0.22463442 -0.17720507
-0.10568324 0.09327142 -0.12688342 0.020531965 0.16160382 -0.021619044 0.026478685 0.1056383
0.19655666 0.21931908 0.25111386 -0.07210014 -0.16733202 -0.30063877 0.25471807 0.15292959
0.13597764 -0.03261094 -0.013510785 0.0029005178 0.19541001 0.11796546 0.29685834 0.045725554

cell_list.2.conv_gates.weight f4 [20, 20, 3, 3]
00000000: 5340 4bbe 76b8 22bc 7e1b ee3d 209e 1bbe
00000010: ae8f b1bc 75b2 0d3d 12ee 2f3d e962 c73d
00000020: 54bb 2a3e f9ef 083d 4563 db3c 11d1 bb3d
00000030: 6467 a0bc 6c8d 963d 9707 90bc b89e dc3b
00000040: 8cab cabd 2b7f 02be 761f bb3c 0342 d43a
00000050: 023c cbbc ab48 9fbd cd97 b6bc 569f c23d
00000060: 4587 943d 78a4 ef3d 2e9e 6b3e fe9d 073d
00000070: d164 583d 5fc8 b9b9 60ff b73d a8d1 f63d
00000080: 1eda c43d f79d 11bd 2103 753d c614 893c
00000090: 86dc d83d f708 9c3d e672 133e 6eaa ed3d
000000a0: a975 db3d d8bc dd3d bfa2 863d 7e18 463c
000000b0: 1138 87bd 5e73 f4bd 30bc b4bd 0830 38be
000000c0: 6e89 e53c 6b40 bb3c 0aa8 22be 6300 ca3c
000000d0: a486 07bd a379 96bd 1f60 59be 37be 8fbd
000000e0: 27e2 84b8 88bc 58bb 1067 dbbd 654e 2b3c
000000f0: 72f0 3fbd 9aaa a13d 2c65 403c 4935 0a3c
00000100: 57c5 2f3c 91ef a03d 1ca5 973d af22 ce3d
00000110: 2f29 ce3d ea28 c73c c42b c6bc 90e9 2d3d
00000120: 5b49 ff3c 8f2c c13a 9261 b03d 0821 923d
00000130: 442d 8c3d 4c3d ccbc 4650 083d f445 903d
00000140: 27dd d23d d74b 86bc e254 e43c 15bc 65bb
00000150: b452 c23c 3ae8 adbb f9a2 03bc a484 9e3d
00000160: 64c3 65bd 6bdb 08be 7229 7c3c fbfe f4bc
00000170: cc60 32bd 84db 9abd 92de 1cbd 1466 efbc
00000180: be4d 03be a1a7 d4bc aa78 6d3b e34a 433e
00000190: 3c68 073e 152d be3d 54d9 b13d 06e4 953d
000001a0: ef44 8b3c 4817 203e 7c7d 013e bf1c 5f3c
000001b0: ceaa 2c3e 510a b23d 607a 0f3d b99d 593e
000001c0: bad0 e63d f3b4 da3d 4251 823e 4eb0 233e
000001d0: a595 b53d 4b43 a83d b6a8 993d e101 f33d
000001e0: a147 f33c ce11 7237 2873 25bd 2d1d 623d
000001f0: 54d5 4a3b 4967 7c3d 3e25 8abd eee0 bf3c
00000200: 1728 5ebd bc34 b1bd 5a06 e4bd 54a7 f23c
00000210: e90a 8cbd 703e 1fbd 4293 613c 00a9 97bc
00000220: 69b6 74bd 20e9 0cbe bfb6 29bd 710e 1d3d
00000230: 5986 ecbc f058 673c f1a9 9abb 1a6b b8bd
00000240: 3966 44be 4ad6 2bbe c51f 93bd 2bbd 19be
00000250: b2ff 27bd c1fe 18be 966c f6bd 9503 63bc
00000260: 93f0 d5bd da24 bcbd c5b4 543d 4c87 2ebd
00000270: b235 80bd 3542 85bc 9725 283c 7fb0 9c3c
00000280: 63f4 3c3d 9c3f 883d 2335 2a3d 164b e83d
00000290: 59de c73c 4d16 083e 7eea 1a3d c7b6 063d
000002a0: 3e42 853d d8f3 973d 646b 013e 48c5 013e
000002b0: d3c9 b93d ab85 c83d 4ea3 f13d 74fb 2cba
000002c0: bb3c 44bd b490 533c 13f4 1a3c fc1c ab3c
000002d0: 3a89 61bd 5fc3 b13d 46b4 553d 5783 44be
000002e0: c2fd fa3d 8f61 5e3e da81 683b 0fd2 303d
000002f0: 0cb1 3d3e 08cd 873d 4c58 5d3c da4d fdbd
00000300: 8053 b33d 7ba0 5cbc f0ab e9bd e9f7 1c3e
00000310: 118f 283d e515 a5bd dedd 0e3e 58d7 063e
00000320: 41cb fd3d f926 253e c757 a43d 78f8 03bc
00000330: 09c5 3cbe 06d2 63bb 0826 da3c 3c1c d13b
00000340: 9c26 65bc a835 a7bd 08f6 19be 18a8 ebbd
00000350: 6416 d2bc 0b0b 7cbc ddb9 aabd 57f3 a1bb
00000360: a9c5 a03b 63ea ebbc 1bbe 9c3b f48e 6a3d
00000370: ab3b 08bd 9122 8c3d 3c5d a8bc 7596 90bd
00000380: f4c2 153c 45f3 903c 340f c5bb aa3f 693d
00000390: 20cd 9cbd 7f06 4c3c ccb0 b63a 8972 5f3b
000003a0: d89b f6bd d6a2 6f3d c4a5 e2bd 94c3 a53d
000003b0: bd1a aa3d d0c9 2ebd da1f e13d 64e4 3f3e
000003c0: 657d 43bd 42c3 f33c fc85 6f3d e96b 1d3d
000003d0: 5b24 90bd 8ae1 b3bd cab8 953d fbbd 8f3d
000003e0: 4f04 0ebd 6e6f 893d f031 a53c 445a b1bd
000003f0: cbee c0bc 46a7 413e ad28 f13c b201 893e
-0.19848756 -0.009931674 0.116263375 -0.15197039 -0.021674957 0.034594018 0.04295165 0.097356625
0.16673023 0.03343198 0.026780734 0.091707356 -0.01958055 0.07351193 -0.017581744 0.006732788
-0.09896001 -0.12743823 0.02284215 0.001619399 -0.024808887 -0.07777532 -0.022289181 0.09503047
0.07252363 0.11701292 0.2300956 0.033109657 0.05283052 -0.00035435238 0.08984256 0.120517075
0.09611915 -0.035551038 0.059817437 0.016733538 0.105889365 0.076188974 0.14399299 0.116047725
0.10715801 0.10827035 0.0657401 0.0120908 -0.06602491 -0.11936067 -0.088249564 -0.17987072
0.028019633 0.022857865 -0.15884414 0.024658388 -0.033087388 -0.07347419 -0.21228074 -0.070187025
-6.336375e-05 -0.0033071358 -0.10713017 0.010455702 -0.046860166 0.07893868 0.011742871 0.008435556
0.010728202 0.07858194 0.07404539 0.10065209 0.10066449 0.024311502 -0.024190791 0.04245907
0.031162908 0.0014738011 0.0861236 0.071352065 0.06844571 -0.024931572 0.03327968 0.070445925
0.10296088 -0.016393585 0.027872507 -0.0035054733 0.023721077 -0.0053072246 -0.008034461 0.07740143
-0.056094542 -0.13364951 0.015390741 -0.02990674 -0.043549344 -0.075614005 -0.038298197 -0.02922348
-0.12822625 -0.025958838 0.0036235251 0.19071536 0.13223356 0.092859425 0.0868403 0.07318883
0.017000644 0.15633881 0.12645525 0.013617693 0.16862032 0.08693374 0.035028815 0.21251573
0.1127028 0.106790446 0.2545262 0.15985224 0.08866433 0.0821596 0.07502882 0.11865593
0.029697241 1.44284695e-05 -0.040393025 0.055203605 0.0030949907 0.061621938 -0.06745385 0.023422685
-0.05423745 -0.086526364 -0.11134024 0.029620804 -0.068380184 -0.038877904 0.013768019 -0.018513203
-0.059744272 -0.13760805 -0.041434046 0.03834385 -0.028872656 0.014120325 -0.0047199656 -0.09004803
-0.1917962 -0.16780964 -0.07183794 -0.15013568 -0.041015334 -0.14940931 -0.1203243 -0.0138558345
-0.104462765 -0.091867164 0.051930208 -0.042609498 -0.062602416 -0.016266922 0.010262868 0.019127129
0.046131503 0.066527575 0.04155458 0.113424465 0.024398016 0.13289757 0.037821285 0.032889154
0.06506775 0.074195564 0.12638623 0.12672913 0.09071698 0.0979112 0.11798726 -0.0006598749
-0.04790948 0.012912918 0.009457606 0.020887844 -0.05506251 0.08679842 0.052173875 -0.19190727
0.12255432 0.21716903 0.0035477788 0.043169077 0.1852457 0.066309035 0.013509821 -0.12368365
0.08756161 -0.013465996 -0.114097476 0.15328945 0.041152064 -0.08060817 0.13951823 0.13168085
0.12392283 0.16128148 0.08024555 -0.008054845 -0.18434538 -0.0034762635 0.026629463 0.0063815396
-0.013986256 -0.08164531 -0.1503526 -0.11506671 -0.025645442 -0.015383492 -0.08336232 -0.0049423384
0.0049063754 -0.028798288 0.0047834045 0.057265237 -0.03326003 0.068425305 -0.02055227 -0.070599474
0.009140719 0.017694125 -0.0060137752 0.05694548 -0.07656312 0.012452721 0.0013938188 0.0034095368
-0.120414436 0.0585049 -0.110667735 0.08093944 0.08305881 -0.042672932 0.10992403 0.18739468
-0.047727007 0.029756192 0.058477387 0.03843299 -0.07038184 -0.087832525 0.07310636 0.07018658
-0.034672078 0.06710707 0.020165414 -0.08659795 -0.023551365 0.18911466 0.029438341 0.26759106

cell_list.2.conv_can.weight f4 [10, 20, 3, 3]
00000000: 67df 53bd 2ca8 8cbd f747 d23d 7160 83bc
00000010: eb5f 573d 9313 573e c28f 003e b844 b23d
00000020: 8097 363e f864 8cbc fdfe de3c e91b 3b3e
00000030: 8ae1 0dbe d9ba 84bd 9262 253b 812d 36be
00000040: 596c 56be 57d0 50be a411 10be 4904 8ebd
00000050: d203 e1bc 0968 963d 4e7a 173d 56b9 97bd
00000060: b209 303a b7dc a73c 6332 2e3e f215 42be
00000070: 386b afbe a46d 42be d0a2 5dbd 2c91 06be
00000080: b509 85be 6d8e 943c d22d 11be d3de 4ebb
00000090: e7df 243e 5bd5 463e 4c59 bf3d 4172 27bd
000000a0: b211 793c 0860 493e 9999 94bc c8c9 3cba
000000b0: 11b5 d6bd a160 ed3d e6ca 5e3c 9e3c 1e3e
000000c0: 18ae 8fbc c6c3 23bd b925 073c 16d6 413d
000000d0: 2f1a abbc e7db acbb bd24 153e 138d af3d
000000e0: a3e1 563e 40ee c13d f83c ad3d 5360 9b3d
000000f0: 6ad9 4d3d 2c51 0b3e 272f 80bd 64a6 03be
00000100: 943a 32bd 054d 26be dbb4 febd 4cc6 6dbd
00000110: 0bc6 e5bd 48b2 14bd 95d4 f7bd def8 9ebd
00000120: fcbf 0cbc b5fb d63d d9aa 5c3c 9d0d 82bd
00000130: 49a9 e6bc baef f53c 29d6 55bd 2208 2a3d
00000140: 2163 b83d 02d5 a73d 6706 873e a8de 683e
00000150: 82b8 ddbb 3443 f63c 7fb0 d9bb 2353 0fbe
00000160: c94b 0bbe cbdd bebd ffa7 6a3d b8b4 b73d
00000170: ce14 983d 5efc d6bd 4536 1b3c e69c 463d
00000180: 5b38 51bd 5afa b93a 0237 cebd eecf f8bd
00000190: 85b3 1bbe b45b 4ebe fc16 32bd dff1 6f3c
000001a0: ec1d dfbd c9e1 a53d 115c 7abd 610a 80bc
000001b0: e8f1 603d fb0b 5c3d 8045 f23c 7ec8 c1bc
000001c0: 5f94 c03d fb58 f13c 27e5 b6bb eaf7 523c
000001d0: 1b84 5bbd b3fd 6abd e65d 93bd 2b70 e3bd
000001e0: e933 573d 65f5 643d e39b c33d 07c1 f43c
000001f0: 19fd c73d 4da1 7e3d dcf0 e6bc fa15 f73d
00000200: 00be c53d daac 2d3c c0c0 90bd dd42 313d
00000210: 527d c5bc 6f7c 093d 26e1 aa3c 1437 1d3e
00000220: 9118 473d 33bc ee3d 6741 843d 927a ef3c
00000230: 6d7e 8abd 369c 0ebd 2a5b 0fbd 100e 53bd
00000240: d5ff cabd 0748 c9bd 76fd 29bd 1a2e 12be
00000250: 18c7 2abe 35ca 97bc 2b0d eebd 3931 66be
00000260: 0f96 32be 566a 643d 7fcb 113e 63d4 653d
00000270: 1f4c 133d f945 4f3c 23e5 98bd dd26 de3d
00000280: 0856 a13d 1d50 0e3d 66e2 fcbd 778a 6dbe
00000290: 1d48 83be bbd3 c8bd aa01 933b 81a2 9bbd
000002a0: b5ce 0ebd 763e 733d 00ce 82bd c7f1 a83d
000002b0: aedb a13d 6572 e63c b4bd 3d3d 7af5 b83d
000002c0: a9a5 553d ba1d 05be 9e01 3abe af80 2abe
000002d0: fff1 373d 773e 1abe 8556 7cbe 3267 dfbc
000002e0: dafe f9bd 3257 82be 748a c13d 8d41 2e3d
000002f0: 75f0 3cbc ce1e 78bd 524a ab3c 440a dc3d
00000300: 0764 e1bc 2a97 823c 8ccd 1d3e ef6a d93d
00000310: e232 c53d 8dba 263e 04d5 383e f270 8f3e
00000320: df92 0e3e 971e 113e 3e35 b5bb a36d 0dbe
00000330: 8a6d dcbd 6d95 c3bd 650a eebd b456 dabc
00000340: 8b63 92bd ea86 c0bd d79e 08be efa6 d2bd
00000350: a6ce 49be e126 bbbd 8523 f2bd 37d0 863d
00000360: 3e7c fa3c 4710 99bd 9aaf 06bd 9227 0cbe
00000370: a8e5 b8bc 7767 eb3d a99d ac3d 58dc 0a3d
00000380: 785b b0bc dc38 803d c746 853d 5a51 8fbb
00000390: df53 c13c 24a1 123d b58f 24bc 9d3c 613d
000003a0: 8378 da3c da1f 8f3d 8bf1 113e 5914 003e
000003b0: 5e65 693d 39c0 1e3e f243 483e 97d0 a43d
000003c0: b95c 353d a9bf 503d cf83 57be b9aa 33bd
000003d0: d5aa 9d3d d701 ef3d 51ad dfbd 0c59 0bbc
000003e0: 52d5 6cbc c030 01be bf0b 57bd ad5f b8bc
000003f0: 625b 58be a17b 04be dc5b 29ba b5e5 23bd
-0.051726725 -0.06868014 0.102676325 -0.016037198 0.05258171 0.2100356 0.12554839 0.08704513
0.1783123 -0.01713799 0.027221197 0.18272366 -0.13855568 -0.06480951 0.0025235754 -0.17790796
-0.20939769 -0.20391975 -0.1406923 -0.06934411 -0.027467642 0.07344062 0.036981873 -0.07408397
0.0006715312 0.020490987 0.17011409 -0.18953684 -0.3426149 -0.18987137 -0.05411035 -0.13141316
-0.25983968 0.01813432 -0.14177635 -0.003156592 0.16101037 0.19417326 0.09343204 -0.040880445
0.015201973 0.1966554 -0.018139647 -0.00072016986 -0.104837544 0.11590696 0.013598179 0.15452811
-0.017539069 -0.039981626 0.00824874 0.04732331 -0.020886509 -0.005275238 0.14564796 0.0857183
0.20984511 0.09469271 0.084588945 0.07586732 0.05025617 0.13605183 -0.062589936 -0.12856442
-0.043512896 -0.16240318 -0.12436839 -0.05805044 -0.11219414 -0.036302835 -0.12101094 -0.077623114
-0.0085906945 0.10497228 0.013468468 -0.06350253 -0.028156893 0.030021537 -0.052206192 0.041511662
0.09003282 0.08194925 0.26372072 0.22741187 -0.00676638 0.030061342 -0.0066433544 -0.13996558
-0.13603128 -0.093196474 0.05728912 0.08970016 0.07425843 -0.10497354 0.009473388 0.048489474
-0.051079135 0.001418899 -0.10069086 -0.121490344 -0.152052 -0.2015217 -0.04347895 0.014645069
-0.10894379 0.08099706 -0.061122958 -0.015629949 0.0549182 0.053722363 0.029574156 -0.023655172
0.094032995 0.029461375 -0.0055815163 0.01287649 -0.053592782 -0.057370853 -0.07195644 -0.11105379
0.05253974 0.05589809 0.095512174 0.029877199 0.097650714 0.062165547 -0.028191023 0.120647386
0.0965538 0.010600293 -0.07068014 0.043276656 -0.024107609 0.033565935 0.020859312 0.15353042
0.048607413 0.1165699 0.06457787 0.02923325 -0.06762395 -0.034816943 -0.03499905 -0.051527083
-0.09912077 -0.09828191 -0.041501485 -0.14275399 -0.1667751 -0.018529037 -0.11623605 -0.22479714
-0.17440055 0.055765472 0.14237784 0.05611075 0.035961267 0.01265096 -0.07465579 0.10847256
0.07877737 0.03474437 -0.123478696 -0.23197351 -0.25640956 -0.098060094 0.0044862824 -0.075993545
-0.0348651 0.05938574 -0.06386948 0.0824924 0.07903229 0.02813072 0.046323493 0.09031196
0.05215994 -0.12999621 -0.1816468 -0.16650651 0.04490852 -0.15062891 -0.2464238 -0.027270887
-0.12206812 -0.2545715 0.09450236 0.042542983 -0.011531939 -0.060576253 0.020909462 0.107441455
-0.027513517 0.015941221 0.15410441 0.10616099 0.09628846 0.16282101 0.18050009 0.28015858
0.13923214 0.14171825 -0.0055300286 -0.13811354 -0.107630804 -0.09549985 -0.11623076 -0.026652671
-0.071478926 -0.09400733 -0.13341843 -0.10285746 -0.19707736 -0.09138275 -0.11823181 0.065826826
0.030576821 -0.07473808 -0.03288231 -0.1368697 -0.022570446 0.11494344 0.08428509 0.033901542
-0.02152799 0.06260845 0.0650764 -0.0043737115 0.023599563 0.035798207 -0.010044028 0.054989446
0.026668793 0.06988497 0.14252298 0.12507762 0.056981437 0.15503015 0.19557169 0.08047598
0.04427788 0.05096403 -0.21046375 -0.043863986 0.07698599 0.11670273 -0.10921729 -0.008505117
-0.014455156 -0.12616253 -0.052501436 -0.02250656 -0.2112861 -0.12937786 -0.00064605265 -0.040013988

cell_list.3.conv_gates.weight f4 [20, 20, 1, 1]
00000000: 0073 90be 1473 ebbb 4941 37be 55a3 033e
00000010: d438 40be b376 9f3d 1250 2a3e c3bf 8cbe
00000020: ceba 853d 1a03 9ebd ea20 a43c 9bc7 203d
00000030: da72 46be f222 16bd cb6b 2c3e b2fa 03be
00000040: 1ee5 7dbd 16b8 6bbe 7f19 38be a004 3f3e
00000050: f856 b9bd d7c9 513d 7c6d 42be de5a 30be
00000060: 7383 c43e 5491 2fbe 682e 923e bc70 99be
00000070: 3d78 cf3e f618 c3be 1f5b fa3c d313 3ebe
00000080: 6794 dabe c8c7 963e f27e bb3e 9b92 773e
00000090: 7128 34bc fc34 babd d7f5 123e fe8d f43d
000000a0: 9f6b 94be cda4 2ebe 2d74 98bd 9e20 73be
000000b0: 1daa ea3d 10f8 b2bd 5195 0abe 3264 fabd
000000c0: 7eea 63bd ee5b af3d fb1f 063e 59d7 d5bd
000000d0: c192 d93d a6ce 6ebe 63b7 023d 045c da3d
000000e0: a7b8 1abe c133 ef3d b931 2c3e c0d2 d23d
000000f0: 92dd 3e3e 6e4b 03be 5d92 8c3e a427 5c3e
00000100: 319c 9b3d bfb0 9d3e 3622 17bd a79a 83be
00000110: dd6e cabd 22b4 1bbe 6b0f 19be 2ddc a7be
00000120: 9d9f ae3d 9a53 ea3d 2758 593d 8308 a7bc
00000130: 6416 24be d15f a5be 1ca1 d9bc 8611 a2be
00000140: d23d fc3d 27ea 943d 7b54 b9bd 3e31 2b3e
00000150: 54be 813e df5a a0bd 4a2c e1bd c7ad e8bc
00000160: 1ead 22be 26d0 ef3d 5700 1b3c df0a 773e
00000170: 7221 b03d c65a 6c3d 63c7 823d 2097 a23d
00000180: cf78 0a3e 7cd8 1d3e bf88 16be be12 8a3e
00000190: aa09 a8ba 26da c53a 3b55 93be 1ee2 afbe
000001a0: b6ef 8f3e 7f0c 5ebd bb4a 953e 9fa7 0d3d
000001b0: 7232 bb3e 01e0 7bbd 057d 8b3e 076a 01be
000001c0: c480 59bd 7fe6 893e 0b2f 993e 1224 803e
000001d0: d963 d03e 016f 04be 6a8c 60be 9825 c53d
000001e0: 200b 923d 8a41 abbd 10c6 fb3d 0d0f 84bd
000001f0: aef0 44bd de27 3a3e 5603 b73d ec8a 90be
00000200: e3f9 b93d f53d 3b3d dddb 86be a4d4 eebd
00000210: 357e f8bc c028 113d a96a 5c3e 5a23 003e
00000220: 7444 48be 49a9 723c d021 51be d3c2 0ebe
00000230: c324 663e d86b 6dbe c77e 9d3d 7cd0 e03d
00000240: 85a9 65bd 82cb 733d 8914 8fbd af43 8bbd
00000250: fc0c 8dbe 44d3 a0bd 3b3a 9dbd 2d02 ab3b
00000260: 61d4 7cbd a04c 6dbe ee2c 043b f538 f1bc
00000270: e486 373d 19a9 3dbe 86e4 7d3c 9a51 e93c
00000280: 900f 243d d571 943d 8481 073e 2896 c0bd
00000290: 68eb 7bbe d36a 68be 7ba0 a0bd f2b5 12be
000002a0: 00f3 4bba cb34 cc3d 598f 003c b306 abbe
000002b0: 6310 c93c ff44 7d3e c131 45bd 1f90 88be
000002c0: 3e5b e43c a0bf 803e b410 b23d ff4c babe
000002d0: 335c 9d3d 84ab 85bd 6455 933e 55cd 123e
000002e0: 6936 dabe aab8 48be 8cd0 11bd 3ab7 633d
000002f0: 3040 55be fbb6 363e 7f30 c9bd 6632 01be
00000300: a1bd 243a b37d 35be 2d30 56be 064f 89bb
00000310: a55d 1ebe 2cdd 1a3c 96d8 ea3d d79b 293d
00000320: efd9 213c 2651 173e 82eb 9f3d 7e68 cdbc
00000330: eb8a a43d 0b6e b5bd 3e00 1c3e cd65 b7be
00000340: b157 903c aec0 97bd 8bad 873d f032 3d3d
00000350: f560 6fbe ea65 c23c cd11 9d3e b686 babd
00000360: 322a 77be 5d46 4e3e 2064 ae3d af29 0e3e
00000370: a053 733e 876e 5abe 633d 5d3d 0438 543d
00000380: 6f7a 35bb f9c2 bc3c b90d c43c 1021 0dbe
00000390: f8f3 e5bd 9ef5 32be acc9 273e 3e63 99be
000003a0: 057b b53d 291c 843d 5c25 05be 5022 8f3e
000003b0: 0301 9bbd 747a 03be 8921 e8bd 3d8e 5cbe
000003c0: db36 f13d e409 a2bd f1e0 363d fee3 1fbe
000003d0: 05a6 8e3e 7fb3 47be d790 953d 6dc6 77bc
000003e0: ccb8 5b3d e7b8 08be 9733 cc3d c532 60be
000003f0: 1ad5 5a3e 4d03 f93d ca04 b83e ee9d d53d
-0.28212738 -0.0071853492 -0.17895998 0.12855275 -0.18771678 0.07786312 0.16632107 -0.27490053
0.06529771 -0.07715435 0.020035226 0.03925286 -0.1937975 -0.03665442 0.16837995 -0.12888601
-0.06198608 -0.23019442 -0.17978476 0.18654108 -0.09049791 0.05121788 -0.18987077 -0.17222163
0.38381538 -0.17145282 0.2855103 -0.29968822 0.40521422 -0.3810498 0.030561028 -0.1856225
-0.42691347 0.29449296 0.3662029 0.2417702 -0.01099597 -0.09092137 0.14351593 0.11941145
-0.28988358 -0.17055054 -0.07444034 -0.23742911 0.11458228 -0.087387204 -0.13533522 -0.12226142
-0.05564355 0.08562456 0.13098137 -0.10441465 0.10623694 -0.23321018 0.031913172 0.10662082
-0.15109502 0.11679793 0.16815843 0.102941036 0.1863921 -0.12821743 0.27455416 0.21499497
0.075981505 0.3079891 -0.03689786 -0.25703928 -0.09884427 -0.15205434 -0.14947288 -0.32785168
0.085265376 0.11441727 0.053062584 -0.0203898 -0.16024166 -0.32299665 -0.02656608 -0.31653994
0.12316479 0.072712235 -0.090493165 0.16718003 0.2534052 -0.07829832 -0.109947756 -0.028403176
-0.15886351 0.11709623 0.00946053 0.2412524 0.08600129 0.057703756 0.06385686 0.07938981
0.13522647 0.15414613 -0.14700602 0.26967424 -0.0012820263 0.001509492 -0.28775963 -0.343522
0.28112572 -0.054211136 0.29158577 0.034583684 0.36561924 -0.061492924 0.2724382 -0.12638102
-0.053101316 0.26933667 0.29918703 0.2502752 0.40701178 -0.1293297 -0.21928564 0.09626311
0.07131028 -0.0836211 0.12293637 -0.06448183 -0.048081093 0.1817927 0.08936183 -0.2823099
0.09080865 0.045713384 -0.26339617 -0.11661652 -0.030333618 0.035439253 0.21525063 0.12513486
-0.19557363 0.014810869 -0.20423055 -0.13941507 0.22474961 -0.2318567 0.076901965 0.10977265
-0.05606987 0.059520252 -0.06986339 -0.06800019 -0.2754897 -0.07852796 -0.07677122 0.005218765
-0.061725978 -0.23173761 0.0020168382 -0.029446105 0.044806376 -0.18521537 0.015496379 0.028481293
0.040053904 0.07248274 0.13233 -0.0940364 -0.24601519 -0.22697 -0.07843109 -0.14327219
-0.0007780045 0.09971007 0.007846677 -0.3340355 0.024543947 0.24733351 -0.048143152 -0.26672456
0.027875539 0.25146198 0.08694592 -0.36386868 0.07683601 -0.06526855 0.28776085 0.1433614
-0.42619637 -0.19601694 -0.035599276 0.05559466 -0.20825267 0.17843239 -0.09823703 -0.12616882
0.00062843604 -0.17723732 -0.20916815 -0.0041903285 -0.1546541 0.009452146 0.11467092 0.041408386
0.00987862 0.1477705 0.078085914 -0.02507424 0.08034309 -0.0885888 0.15234467 -0.35819855
0.01761994 -0.074097976 0.066248976 0.046191156 -0.2337683 0.023730237 0.30677643 -0.09107725
-0.2413719 0.20144029 0.08515191 0.13883089 0.23762369 -0.21331225 0.05401362 0.051811233
-0.0027691384 0.023042189 0.023932325 -0.13782144 -0.11228174 -0.17476508 0.16385525 -0.29958528
0.08861355 0.064506836 -0.13002533 0.27955866 -0.07568552 -0.12839681 -0.11334521 -0.21538635
0.11778041 -0.07912043 0.044648115 -0.15614316 0.27861038 -0.19502066 0.07303017 -0.015122992
0.053643033 -0.13351785 0.099707775 -0.21894367 0.21370354 0.12158833 0.35941154 0.10430513

cell_list.3.conv_can.weight f4 [10, 20, 1, 1]
00000000: d20c 9fbe e4cc b93c 29a2 2cbd da59 83bd
00000010: e594 eb3e 5877 1bbe 6320 bb3d 879f 3e3d
00000020: e7ec 2b3e 7e2e 893c 22fc 8d3c 9fa7 8e3d
00000030: 8977 21be cd8e b73d 941a 1f3d f565 b1bd
00000040: 7728 403e 791d ef3d bfaf 07bc 812c 733e
00000050: fac1 14be e96a 0f3d 1053 91be 8935 47be
00000060: c02e 343c 4b12 163e 553e 283c a4f9 af3d
00000070: 02a5 81bd 1145 953e 128c 37be 3bbb e53d
00000080: 22f5 11bd 5bd0 223e 3364 773d d0ce c93d
00000090: a22d ceba 700e d53b a90e 0c3e e906 323d
000000a0: 9030 913d d8ae 23be eb82 903e 86bb 5a3d
000000b0: 645e 123d 20ae 5f3d 82d4 34bc c78c 073e
000000c0: 0f07 c5bb c932 13be e123 283e 192a d9bd
000000d0: 1872 373d c87f 613e 89de 45be e352 983d
000000e0: 71f8 193e 7009 873e 1701 02bd 836d 0dbe
000000f0: 0b9d 163e 0af7 ccbc 354e 3c3e 6c37 12be
00000100: 2a86 f3bd 9a78 a7be dac2 5d3e 92f1 25bc
00000110: 26c8 233e 4600 943e f944 d7bc 9aa0 53bd
00000120: b14b 29be a566 4b3e 5318 a5bd 6ec4 af3d
00000130: 8d7e 403e c522 af3e 4ad1 463e a0d6 043c
00000140: c2f8 f53d 16e2 0ebe 1b66 ad3e 2466 3b3d
00000150: b61a 75bd 971b cb3d de88 ca3d 7f84 00be
00000160: 32ed b4bc 0420 8cbe 0e8e 133e 32c5 ab3d
00000170: 926c 113e f968 843d 2411 4bbe 4511 ba3d
00000180: 6f98 54bd 8afb 17be bc13 87be 6ee9 8a3e
00000190: 0db3 f03d 6940 233d e76a 64bc 0db5 153e
000001a0: a7dd cd3d 9707 eb3d ad5b bc3c fb1f 24be
000001b0: 8a07 673e de07 373c e947 d03c ca9b f6bd
000001c0: 3a4c cf3d 3163 20be ae4e 603e d610 aebd
000001d0: 9d15 8fbe 8d58 a63e 8b19 753d 9618 47bd
000001e0: 530d 933c f00c 48bd 18a9 32be 4733 21be
000001f0: 5581 87bd 9627 713e 19b4 043e 769b 873e
00000200: 5bf6 48be 8449 72be bfb9 a1be b1b5 fdbd
00000210: 4e29 fa3d b75c aebe a082 383e 9e7b 123e
00000220: 98dc 9bbe a7e8 453d 5a91 b6b9 e820 c4bd
00000230: 56ec b23e 16ac cabe 2a78 eb3c 8e39 143d
00000240: bc34 a5be 20e8 aebe 2a98 75bb 864b b03d
00000250: 8fe4 d33d 0235 2c3d 2b61 a9bc 502d 24be
00000260: 2946 9e3e bb9f aebe e26b 6bbe 85fe d63c
00000270: 29cd 01be c9ae 113d f496 123e dff0 bcbe
00000280: ac06 a0be 25e1 4a3d d24c 043e 1a37 3dbd
00000290: e3b7 8c3d 17eb 07be ffbb 3ebe bc96 723e
000002a0: 87c7 d8bd 765f f13e 9c49 033e 01b1 0f3c
000002b0: 5990 103e e256 6fbd 3ee3 7c3d d448 863d
000002c0: 7100 1fbe ad5c ad3d 3f39 063e 1362 aebe
000002d0: 5ed8 96bd 88f3 ed3d 8ae5 bebd 7672 19be
000002e0: 09cf 543e 1183 3cbd e705 b63d af9d 8a3d
000002f0: 91ee bfbd be6f 34be 3120 3bbe da30 813d
00000300: 380b e8bc 0b10 06be 86cf a4bc d2ea 47be
00000310: 68d5 913e 473c cbbc 0031 3bbe dcef 30be
-0.3106447 0.022680707 -0.042146835 -0.06413622 0.46012035 -0.15182245 0.09137037 0.046538856
0.1678959 0.016745802 0.01733214 0.06965565 -0.15768255 0.08962784 0.038843706 -0.08662025
0.18765436 0.11675543 -0.008281647 0.23747446 -0.14527121 0.035014067 -0.28383684 -0.19454016
0.010997474 0.14655416 0.010268767 0.08592537 -0.06330301 0.29154256 -0.17924526 0.11217352
-0.035634167 0.15899794 0.06039829 0.098538995 -0.0015730152 0.006501965 0.13677467 0.04346362
0.07089341 -0.15984666 0.28224882 0.053401493 0.03573455 0.054609418 -0.011036994 0.13237296
-0.0060128043 -0.14374842 0.16419937 -0.106037326 0.044786543 0.22021401 -0.19323172 0.074376844
0.15036179 0.26374388 -0.03173932 -0.13811307 0.14708345 -0.025020141 0.18389209 -0.14278954
-0.11890824 -0.327092 0.21656361 -0.010128396 0.1599432 0.2890646 -0.026278006 -0.051666833
-0.1653278 0.19863375 -0.0806128 0.08582388 0.18798275 0.34206215 0.19415775 0.008107811
0.120103374 -0.13953432 0.33866963 0.045751706 -0.059839927 0.09917372 0.098893866 -0.12550543
-0.02208576 -0.27368176 0.14409658 0.083872214 0.14201573 0.064653344 -0.19830757 0.09085325
-0.051903185 -0.14842048 -0.26382244 0.27131218 0.11752901 0.03985635 -0.013941503 0.14619847
0.100520425 0.11476057 0.022992933 -0.16027825 0.2256147 0.011171309 0.025424914 -0.12041433
0.10121961 -0.15662839 0.21905014 -0.08499305 -0.27946177 0.32489434 0.059838813 -0.04860743
0.01795069 -0.048840463 -0.17447317 -0.15742217 -0.06616465 0.23550257 0.12959327 0.26485795
-0.19625227 -0.23660856 -0.31587026 -0.123881705 0.122149095 -0.3405511 0.1801858 0.14304969
-0.30441737 0.048317578 -0.0003482204 -0.09576589 0.34945935 -0.39584416 0.028743822 0.0361877
-0.32266796 -0.34161472 -0.003747473 0.08608155 0.103463285 0.04204274 -0.020676216 -0.1603291
0.30912903 -0.3410624 -0.22990373 0.026244411 -0.12675919 0.03556708 0.14315397 -0.3690252
-0.3125509 0.04953112 0.1291993 -0.046195127 0.06871011 -0.13273273 -0.18626402 0.23690313
-0.10584932 0.47143143 0.12821048 0.008770228 0.14117564 -0.058432467 0.061740153 0.065568596
-0.15527512 0.08464942 0.13107775 -0.340592 -0.073654875 0.116187155 -0.09321125 -0.1498507
0.20782103 -0.046023432 0.088878445 0.06768357 -0.09371675 -0.17620751 -0.18273999 0.06308146
-0.028325662 -0.13092057 -0.020118486 -0.1952317 0.2848313 -0.024809016 -0.18280411 -0.17278999
