saved_models/ambaudio_brainlike_extra/brainlike_thickness_7.pt (torch, 118504 bytes, 14 tensors)

cell_list.0.conv_gates.weight f4 [20, 11, 3, 3]
0	0x3be60577	0.0070196944
1	0xbd77fbc4	-0.060542837
2	0x3d031552	0.032002755
3	0x3d012c08	0.031536132
4	0xbd5c064d	-0.053716946
5	0xbc76cbbe	-0.015063224
6	0xbd7129fa	-0.058877923
7	0x3cd5a182	0.02607799
8	0xbcddc716	-0.02707247
9	0x3d909ab7	0.070607595
10	0x3d921dfd	0.07134626
11	0x3c27bece	0.0102383625
12	0xbd2f804e	-0.04284697
13	0xbd71cb90	-0.059032023
14	0xbc34d5c0	-0.01103729
15	0xbce7b514	-0.028284587
16	0x3d3571f5	0.04429813
17	0xbdafc249	-0.08581979
18	0x3dc172e1	0.094457395
19	0xbda175c0	-0.07883787
20	0x3d9d9de1	0.07696129
21	0xbc8ef977	-0.017452938
22	0x3d53c150	0.05169803
23	0x3d206c58	0.039165825
24	0x3b89dbb4	0.004207099
25	0x3c998500	0.018740177
26	0x3d9c4f73	0.07632341
27	0x3cd3bde2	0.02584738
28	0x3d5a6830	0.053322017
29	0xbd9f3914	-0.07774559
30	0x3d928759	0.07154722
31	0x3d0dae8f	0.0345903
32	0x3cd08cb7	0.025457723
33	0x3c637a40	0.013884127
34	0x3d48abf8	0.048992127
35	0x3dbd0aef	0.09230601
36	0xbcb73417	-0.022363706
37	0xbd655735	-0.05599137
38	0xbccf2549	-0.025286334
39	0xbd7ae6f6	-0.061255418
40	0x3d4607a7	0.04834714
41	0xbd4b75ec	-0.049673006
42	0xbd5bb454	-0.05363877
43	0x3db198e8	0.08671743
44	0x3dbc5a0c	0.091968626
45	0x3c3d637a	0.011559362
46	0xbc8e91cc	-0.017403506
47	0xbc548edb	-0.0129735125
48	0x3d4303e5	0.047611136
49	0xbdc0338c	-0.09384832
50	0xbda83700	-0.082136154
51	0x3da46b88	0.080283225
52	0x3dcb3493	0.09922137
53	0xbbc3b46e	-0.0059724366
54	0xbda2a373	-0.07941332
55	0x3b33f789	0.0027460775
56	0xbd3f838e	-0.04675632
57	0xb94a9a62	-0.00019321733
58	0x3d497e8f	0.04919296
59	0x3d363ba5	0.044490475
60	0xbc411848	-0.011785574
61	0x3c354a2f	0.01106505
62	0x3ce00ea3	0.02735073
63	0xbda155f4	-0.078777224
64	0xbd0b91f3	-0.034074735
65	0x3b80f1dd	0.0039350823
66	0xbd6ae623	-0.05734838
67	0xbd33c99e	-0.04389345
68	0x3d0a44c1	0.033756975
69	0x3d6cec89	0.057842765
70	0x3ab89475	0.001408233
71	0xbd20217b	-0.03909443
72	0x3d616531	0.055028144
73	0xbd61a97c	-0.055093274
74	0xbcc14103	-0.02359057
75	0x3dc22cf2	0.09481229
76	0x3c97a25b	0.018510034
77	0x3be80cf8	0.007081624
78	0x3d0ac725	0.033881325
79	0xbcc8c588	-0.024508253
80	0x3db01b00	0.085989
81	0xbda7e138	-0.08197254
82	0xbce27a8c	-0.027646326
83	0xbc8e538f	-0.017373828
84	0xbd29636c	-0.04135458
85	0xbccbc643	-0.024874812
86	0x3d7f2139	0.062287543
87	0x3d61e096	0.055145822
88	0x3bb71e95	0.0055883625
89	0x3db3516c	0.08755764
90	0xbd9153e1	-0.07096077
91	0xbd757975	-0.059930284
92	0x3d39ff0c	0.045409247
93	0xbbb103d9	-0.00540207
94	0xbdbb9277	-0.09158795
95	0xbd8e77f6	-0.069564745
96	0xbd7a9b9f	-0.061183568
97	0x3d9ef211	0.07761014
98	0x3d3a6d9d	0.04551469
99	0x3d9f3bb9	0.07775063
100	0xbd993d6d	-0.07482419
101	0xbdc8adcb	-0.097987734
102	0xbd86fa7e	-0.06590746
103	0x3c30295a	0.0107520465
104	0xbca29cf1	-0.019850226
105	0xbd81b5b4	-0.06333485
106	0x3d95d718	0.073164165
107	0xbd04c16a	-0.032411017
108	0xbd6e18ce	-0.058129124
109	0x3d3e27cc	0.046424672
110	0xbcddd5dd	-0.027079517
111	0x3d833875	0.06407253
112	0x3cc437b7	0.023952348
113	0x3b227f85	0.0024795246
114	0x3cacd6d0	0.021098524
115	0xbd9aaa6a	-0.07552035
116	0xbd5c434b	-0.053775113
117	0xbd417aa3	-0.047236096
118	0xbd68efef	-0.056869444
119	0x3c91fee5	0.017821738
120	0x3ca47c92	0.020078931
121	0xbd2b0b3c	-0.04175876
122	0x3d862e1d	0.06551764
123	0xbd650c5e	-0.055919997
124	0x3ca638e0	0.020290792
125	0xbceb1901	-0.028698446
126	0xbdb28b4b	-0.08717974
127	0xbd8606e3	-0.06544282
128	0x3d2827d4	0.041053608
129	0x3d22e7fb	0.039772015
130	0xbd7e8dbf	-0.0621469
131	0xbd005ecd	-0.03134041
132	0xbdc06bc1	-0.093955524
133	0x3d5d496f	0.05402511
134	0x3db1fb0e	0.08690463
135	0x3d069fbd	0.032867182
136	0xbd7eb75e	-0.06218659
137	0x3d5922cb	0.053011697
138	0x3daad11b	0.08340665
139	0xbca870c5	-0.020561585
140	0xbc86f6b6	-0.016475063
141	0x3d0e7c00	0.034786224
142	0x3c53d6d6	0.012929639
143	0xbd080f3e	-0.03321766
144	0xbdbf1650	-0.09330428
145	0xbd905439	-0.07047314
146	0x3bb258db	0.0054427213
147	0xbbb0aa19	-0.005391371
148	0x3da9f7f1	0.08299244
149	0x3b616bdd	0.0034396567
150	0xbcd3fe48	-0.025878087
151	0xbdc91df2	-0.09820165
152	0xbdbd3f5f	-0.09240603
153	0x3d2b0160	0.04174936
154	0x3db755b3	0.08951893
155	0xbac7e015	-0.0015249277
156	0xbdb7f903	-0.08983042
157	0x3d122823	0.03568281
158	0x3da7a528	0.08185798
159	0xbd883afd	-0.06651876
160	0xbcd8c4dc	-0.026461057
161	0x3c0a7d5d	0.0084527405
162	0xbd6ac4bf	-0.057316538
163	0xbdbedb21	-0.09319139
164	0x3d343795	0.04399832
165	0xbda8e6bc	-0.08247134
166	0xbccea94a	-0.025227208
167	0xbd5a961e	-0.05336582
168	0x3d9acb2c	0.07558283
169	0x3c9ef80a	0.019405384
170	0x3d3ee853	0.04660828
171	0xbd8b6205	-0.06805805
172	0x3dad74d5	0.084695496
173	0x3c12b792	0.008954899
174	0xbd6452a6	-0.055742882
175	0xbbd77041	-0.006574661
176	0xbd91bd87	-0.071162276
177	0xbb980445	-0.004639181
178	0x3d65e065	0.056122202
179	0xbd390f82	-0.045180805
180	0x3dadfbe5	0.08495311
181	0x3cfb6207	0.030686392
182	0xbc90120c	-0.01758673
183	0x3d009847	0.031395223
184	0xbc97ad76	-0.01851533
185	0xbcbf5ab9	-0.02335869
186	0xbd870a8d	-0.06593809
187	0x3d6fde5a	0.05856166
188	0x3d771e6b	0.060331743
189	0x3d0cf493	0.03441293
190	0x3d7377f9	0.059440587
191	0x3dcda29c	0.10040781
192	0x3dc1d033	0.09463539
193	0xbdc6a2a9	-0.09698994
194	0x3cbbbc54	0.02291695
195	0xbc0cfd5f	-0.00860533
196	0x3d0bc86f	0.034126695
197	0xbc9faccc	-0.019491576
198	0x3ce5cc5b	0.028051546
199	0xbdbd628c	-0.09247312
200	0x3d3c278e	0.04593616
201	0x3dc5bfd3	0.09655728
202	0xbc94110d	-0.018074537
203	0xbda3b958	-0.07994336
204	0xbdab1a27	-0.083545975
205	0xbc9df227	-0.019280506
206	0xbac7441a	-0.0015202791
207	0x3c37a6c4	0.011209194
208	0x3c4e9b45	0.012610261
209	0x3d9b09ec	0.07570252
210	0xbc955e45	-0.018233428
211	0x3ceaf52d	0.028681362
212	0xbd5ac8dc	-0.05341421
213	0x3dca71b9	0.09884972
214	0x3d1df906	0.038567565
215	0xbc645e0b	-0.013938437
216	0x3d874e1a	0.066066936
217	0x3d11b928	0.03557697
218	0x3c8d32e3	0.017236179
219	0xbcf30c82	-0.02966905
220	0x3c4f0df2	0.012637602
221	0x3beb73f0	0.0071854517
222	0xbd70841f	-0.05871975
223	0x3abc8117	0.0014381733
224	0x3cb3ca49	0.021947043
225	0xbd73d527	-0.05952945
226	0x3c931165	0.01795263
227	0xbd08a4b8	-0.033360213
228	0xbdab3e8d	-0.0836154
229	0xbd768a6a	-0.060190596
230	0xbda35bed	-0.07976518
231	0x3cbe8b08	0.023259655
232	0x3d7bd05e	0.06147801
233	0x3dbb209b	0.091370784
234	0x3dc9d193	0.09854426
235	0x3d2224ba	0.039585806
236	0x3d495841	0.04915643
237	0xbc8c6832	-0.017139528
238	0x3daa2827	0.0830844
239	0xbd1d62ff	-0.03842449
240	0xbcdfbae5	-0.027310798
241	0xbd09018f	-0.033448752
242	0xbd89fae4	-0.06737307
243	0xbd9ea2ad	-0.07745872
244	0xbca7d63f	-0.020487903
245	0x3da65aed	0.081228115
246	0xbd4d136e	-0.050067358
247	0xbdbadd97	-0.09124296
248	0xbcbc1d57	-0.02296321
249	0x3dba8321	0.09107042
250	0x3cc694d2	0.024240885
251	0xbbd02c07	-0.0063529047
252	0xbceb5b77	-0.028730137
253	0x3db4ba6d	0.088246204
254	0xbdc5c8f2	-0.09657468
255	0x3d69443e	0.056949846

cell_list.0.conv_can.weight f4 [10, 11, 3, 3]
0	0x3ee1e26c	0.4411806
1	0x3f403319	0.7507797
2	0x3f8b5177	1.0884236
3	0x3e9e5bb8	0.3092935
4	0x3f05797c	0.52138495
5	0x3f2df746	0.67955434
6	0x3f0d8f9d	0.5529726
7	0x3f3b23ef	0.73101705
8	0x3f6be9f4	0.9215386
9	0x3d9de600	0.07709885
10	0xbd0e86fb	-0.034796696
11	0x3d2d44c1	0.042301897
12	0x3d9683e8	0.07349378
13	0x3d5c6e4c	0.053816125
14	0x3d4e6d67	0.050397303
15	0x3d922d77	0.07137578
16	0xbb005e53	-0.0019587472
17	0xbda7ba86	-0.081898734
18	0xbd6e0a08	-0.058115035
19	0x3b0166a6	0.001974502
20	0xbc275b8e	-0.010214699
21	0x3cb2ce0b	0.021826765
22	0x3d20aad5	0.039225418
23	0xbc795b07	-0.0152194565
24	0x3d387955	0.045037586
25	0xbdc26e4c	-0.09493694
26	0xbb577c50	-0.0032880493
27	0xbdaf4fd0	-0.08560145
28	0x3d221290	0.039568484
29	0x3d8f3ff8	0.06994623
30	0xbd18cc73	-0.037304353
31	0xbc9c4561	-0.019076051
32	0x3d34ddd1	0.044156853
33	0xbd37a28e	-0.04483276
34	0x3d417242	0.047228105
35	0xbd8c389c	-0.06846735
36	0xbb3eb686	-0.0029100492
37	0xbb80057b	-0.0039069033
38	0xbdb12e24	-0.08651379
39	0xbc2fcf67	-0.010730601
40	0xbc1b2002	-0.0094680805
41	0xba50c3e4	-0.000796376
42	0x3dc29ebd	0.09502933
43	0xbc7edfe9	-0.015556314
44	0x3d6fb68a	0.058523692
45	0xbcefc209	-0.029267328
46	0xbd5aed54	-0.05344899
47	0xbc30cfa3	-0.010791692
48	0xbd7152ff	-0.058917042
49	0xbd33dc70	-0.043911397
50	0xbcd581f3	-0.026062941
51	0x3be0018c	0.006836122
52	0xbd64b8fd	-0.05584048
53	0xbd59472a	-0.053046383
54	0xbd95fc60	-0.07323527
55	0xbd75eeaf	-0.06004208
56	0xbdb5c243	-0.08874943
57	0xbd8e0621	-0.06934763
58	0xbcee07c5	-0.02905644
59	0xbc62856d	-0.0138257565
60	0x3d868866	0.06568985
61	0xbb877b8e	-0.004134602
62	0xbd5fbd38	-0.054623812
63	0xbda75271	-0.08170021
64	0xbd19a458	-0.037510246
65	0x3b28aea8	0.002573887
66	0xbda2ea83	-0.07954886
67	0xbd22b81e	-0.03972637
68	0x3bfdf562	0.007750199
69	0x3dbba57a	0.091624215
70	0x397f7163	0.00024360935
71	0xbdc40c6c	-0.09572682
72	0xbd9492ca	-0.0725456
73	0xbd9a790d	-0.0754262
74	0x3d895b2b	0.06706842
75	0x3d7d5098	0.06184444
76	0x3b17de7b	0.002317338
77	0xbd77a22e	-0.0604574
78	0xbd2e6d87	-0.042584922
79	0xbd6bd3f8	-0.057575196
80	0x3dbe9fd5	0.09307829
81	0xbda20866	-0.07911758
82	0x3c93391e	0.017971572
83	0x3d34f57f	0.044179436
84	0xbdb09baa	-0.086234406
85	0x3d2db2c4	0.042406812
86	0x3d4cd1a0	0.0500046
87	0x3cd2e65b	0.025744608
88	0x3dbf5895	0.093430676
89	0xbd3e0590	-0.046392024
90	0xbdbe5afc	-0.09294698
91	0xbd7474cd	-0.059681702
92	0xbdbc4e46	-0.09194617
93	0x3d0598f9	0.03261659
94	0x3cc90986	0.024540674
95	0xbd3c4c10	-0.045970976
96	0xbd0db321	-0.03459466
97	0x3d6e74ba	0.058216788
98	0x39581548	0.00020607293
99	0xbf016838	-0.5054965
100	0xbf8688b2	-1.0510466
101	0xbf883cf3	-1.06436
102	0xbf29e188	-0.6635976
103	0xbfad19ed	-1.3523537
104	0xbfa566ff	-1.2922057
105	0xbf19111a	-0.5979172
106	0xbf852d26	-1.0404403
107	0xbfa1b886	-1.2634437
108	0x3ccc4e4b	0.024939677
109	0x3d8e53e5	0.06949595
110	0xbdc1ae2f	-0.09457051
111	0x3dcd8fd8	0.10037202
112	0x3bf7118b	0.007539933
113	0x3dc6adaf	0.09701096
114	0x3d853958	0.06505078
115	0x3d60e499	0.054905508
116	0xbba3c1d6	-0.0049974723
117	0x3d0c48e1	0.03424919
118	0x3d0694bf	0.0328567
119	0xbd8ba587	-0.06818681
120	0x3d456141	0.04818845
121	0x3db40754	0.0879046
122	0xbd0030b2	-0.03129644
123	0xbd871203	-0.06595232
124	0x3dae6a45	0.08516363
125	0x3dbd9418	0.09256762
126	0x3c5512c5	0.013004963
127	0xbd979af6	-0.07402603
128	0xbb8b20ee	-0.004245869
129	0xba36d69f	-0.000697473
130	0x3d8f7f5a	0.07006712
131	0xbdbcf36c	-0.092261165
132	0xbd88ca7a	-0.06679244
133	0xbc1fe5fc	-0.009759422
134	0xbc7a64c2	-0.015282812
135	0x3be6fbb3	0.007049048
136	0x3dc7783d	0.097397305
137	0x3d9ca809	0.07649238
138	0x3dc8265e	0.09772943
139	0xbdc3d650	-0.09562361
140	0x3db7716d	0.08957181
141	0xbd9fd198	-0.07803649
142	0xbcf330b7	-0.029686315
143	0x3d70b12f	0.058762725
144	0xbcc6d072	-0.024269316
145	0xbd369d9c	-0.0445839
146	0x3ba3a57e	0.0049940934
147	0x3dc3dfb6	0.09564154
148	0xbc060a5a	-0.008181179
149	0xbdc80f8f	-0.097685926
150	0xbcc345cd	-0.023836995
151	0xbdab6661	-0.083691366
152	0x3b4dcce3	0.003140264
153	0x3d98833b	0.07446905
154	0x3da93036	0.08261149
155	0x3c924829	0.017856674
156	0xbd881759	-0.06645078
157	0xbd693298	-0.056933016
158	0x3d5e9cac	0.054348633
159	0x3d2a5a79	0.041590188
160	0xbd6222c5	-0.05520894
161	0x3cd2e29c	0.025742821
162	0xbd123898	-0.035698503
163	0xbd95f8d7	-0.07322853
164	0x3dc6ccee	0.09707056
165	0x3d405463	0.046955477
166	0xbd165b8a	-0.036708392
167	0x3d6acbff	0.057323452
168	0xbd90f777	-0.0707845
169	0x3d5c77f5	0.053825337
170	0x3d15acb7	0.036541667
171	0xbceee53a	-0.029162038
172	0xbd51ba77	-0.051203217
173	0x3bf174bd	0.0073686526
174	0x3d82e4b8	0.06391281
175	0x3beb39a5	0.0071785026
176	0xbd98a564	-0.07453421
177	0xbd73fbf5	-0.059566457
178	0xbc30b217	-0.010784647
179	0x3d29173e	0.04128193
180	0x3d733c79	0.059383843
181	0x3d9bd850	0.07609618
182	0x3da12461	0.07868267
183	0xbc1193db	-0.008885349
184	0xbd6816a2	-0.05666221
185	0xbd9b8340	-0.07593393
186	0xbb030182	-0.0019989912
187	0x3db0fbbd	0.08641765
188	0x3d24c1eb	0.040223997
189	0x3d15df3b	0.036589842
190	0x3cab2b4c	0.020894669
191	0xbdb1fa2a	-0.08690293
192	0xbcd02f52	-0.02541319
193	0xbd4d9a1b	-0.050195795
194	0xbda985c9	-0.082774706
195	0x3d932a3e	0.071857914
196	0x3d8530f2	0.06503476
197	0xb9d16317	-0.00039937414
198	0xbeeae720	-0.4587946
199	0xbf28772e	-0.65806854
200	0xbf7ddc05	-0.9916385
201	0xbefbd6c6	-0.49187297
202	0xbf2e6ac1	-0.68131644
203	0xbf5e9032	-0.86938775
204	0xbe703aa0	-0.23459864
205	0xbeafa47b	-0.34305176
206	0xbf04219c	-0.51613784
207	0xbcf04450	-0.029329449
208	0x3d7f0b47	0.062266614
209	0xbdb34f50	-0.08755362
210	0x3d84ddda	0.06487627
211	0xbdba3b52	-0.09093346
212	0xbd071f31	-0.03298873
213	0x3d83caf3	0.06435194
214	0xbc1ca14a	-0.009559939
215	0xbd961786	-0.073287055
216	0x3d0fa2b4	0.035067275
217	0x3d96dff1	0.07366932
218	0x3d0c4b10	0.034251273
219	0x3d81f72b	0.06345972
220	0xbd1a0c37	-0.037609305
221	0x3d073a4a	0.033014573
222	0xbd826117	-0.06366175
223	0xbb39ecc8	-0.0028369892
224	0x3ba3c743	0.004998119
225	0xbd8cd32f	-0.068762176
226	0x3c6b090d	0.01434542
227	0xbd397765	-0.04527988
228	0xbd3d9759	-0.046286914
229	0xbdc7f879	-0.09764189
230	0x3d111b61	0.0354265
231	0x3d8c33c7	0.06845813
232	0x3dcd4afa	0.10024066
233	0x3db07fb7	0.0861811
234	0xbdb1ae3c	-0.08675811
235	0x3d959630	0.073040366
236	0x3db90024	0.0903323
237	0x3d546232	0.05185146
238	0x3d824742	0.063612476
239	0x3d910e28	0.07082778
240	0x3d82582e	0.06364475
241	0x3c318937	0.010835937
242	0xbd9393b7	-0.07205909
243	0x3c395b27	0.011313236
244	0xbdae62b4	-0.0851492
245	0x3db30a62	0.08742215
246	0x3dbc0a40	0.091816425
247	0xbd14cc17	-0.036327448
248	0x3dcc2f42	0.09969951
249	0xbc9b4f65	-0.018958757
250	0xbd9f9014	-0.077911526
251	0x3d635a2b	0.055505913
252	0x3da7a47f	0.08185672
253	0x3db81a16	0.089893505
254	0x3d4a2cef	0.04935926
255	0x3d8c98c9	0.06865079

cell_list.1.conv_gates.weight f4 [20, 20, 3, 3]
0	0xbc8befb6	-0.017082077
1	0xba843e12	-0.0010089299
2	0xbd80f7ae	-0.06297241
3	0x3d947fd1	0.072509415
4	0x3d21687d	0.03940629
5	0xbd81935e	-0.06326936
6	0x3cdd450b	0.027010461
7	0xbc9ced62	-0.019156162
8	0x3d426515	0.04745968
9	0x3bbfb6ef	0.005850665
10	0xbc998493	-0.018739974
11	0xbc217604	-0.009854797
12	0xbc5be5e8	-0.013421513
13	0xbce6751c	-0.028132014
14	0xbd478356	-0.048709236
15	0xbcc29489	-0.023752468
16	0x3c2d42cb	0.010575007
17	0xbd87dfb6	-0.06634466
18	0x3d7621d3	0.06009085
19	0xbb50b286	-0.003184469
20	0x3d5fc0c9	0.054627214
21	0xbd2b605a	-0.041839935
22	0x3d16d2a0	0.03682196
23	0x3cb5ccbd	0.022192353
24	0xbc9709ae	-0.018437233
25	0xbcfafaad	-0.03063711
26	0x3cc2002c	0.023681723
27	0xbd23e4e9	-0.040013228
28	0xbd97612c	-0.07391581
29	0x3d21bba9	0.039485607
30	0x3d6af256	0.057360016
31	0x3d09d3b8	0.033649176
32	0xbd7659ff	-0.06014442
33	0xba6b048a	-0.0008965215
34	0x3bff304b	0.0077877394
35	0x3d8a505e	0.0675361
36	0xbd4a391d	-0.049370874
37	0x3c06c1d5	0.008224924
38	0xbb9210df	-0.0044575776
39	0x3d49f45d	0.04930531
40	0xbd86fd4e	-0.06591283
41	0x3d154582	0.03644324
42	0x3d2b5700	0.041831017
43	0x3d8655d4	0.06559339
44	0x3d53b1a7	0.051683094
45	0xbd1d4262	-0.038393386
46	0xbd00cc09	-0.031444583
47	0xbd084bb8	-0.033275336
48	0x3c986cbf	0.018606542
49	0xb9c90e1d	-0.00038348223
50	0xbd6a6d0a	-0.057232894
51	0xbd94f757	-0.07273739
52	0xbbe4d7dd	-0.0069837407
53	0xbd947e01	-0.07250596
54	0xbc8bf9cf	-0.017086891
55	0xbb9c1400	-0.0047631264
56	0xba534ef5	-0.0008060777
57	0xbd8e78a2	-0.06956603
58	0x3d0ee60c	0.03488736
59	0x3c7b5ba1	0.01534167
60	0x3c465154	0.012104351
61	0xbc238e13	-0.009982604
62	0x3d6f6971	0.058450166
63	0x3d736643	0.059423696
64	0xbd39a076	-0.045319043
65	0x3ca20123	0.019775933
66	0xbd5a220b	-0.053255122
67	0xbd405e12	-0.046964712
68	0xbcfef89d	-0.031124407
69	0xbcd039cb	-0.025418183
70	0x3d919fd3	0.07110562
71	0x3d8c9758	0.06864804
72	0xbcdbafde	-0.026817258
73	0x3d2b6e33	0.04185314
74	0x3d953b16	0.072866604
75	0x3d19afd7	0.03752121
76	0x3d44a459	0.048008297
77	0x3d5b8cab	0.05360095
78	0x3d75a261	0.05996931
79	0x3b6c79aa	0.003608326
80	0x3d4a6e73	0.04942174
81	0x3d600f0a	0.054701842
82	0xbcd837ed	-0.026393855
83	0xbd30e11f	-0.043183442
84	0x3c4a275f	0.012338488
85	0xbd424464	-0.047428504
86	0x3c82421c	0.015900664
87	0xbced57ea	-0.028972585
88	0xbd50030a	-0.05078415
89	0x3d80bb7f	0.06285762
90	0x3d905e42	0.07049228
91	0x3d345472	0.044025846
92	0x3d8c7550	0.06858313
93	0x3bbc84fb	0.005753157
94	0x3cb13b84	0.021634825
95	0xbd592643	-0.053015005
96	0xbbf8b738	-0.0075902008
97	0xbd9783a3	-0.073981546
98	0x3d0271f4	0.031846955
99	0xbd005c55	-0.031338055
100	0xbd064bda	-0.03278718
101	0x3d6296db	0.05531965
102	0x3d87e08b	0.06634625
103	0x3d1f6333	0.038912963
104	0x3bd0dcb6	0.006373967
105	0x3d3fe12b	0.046845596
106	0x3d470437	0.048588004
107	0x3cc0765d	0.02349394
108	0x3c9eec2d	0.019399727
109	0x3c34de69	0.011039355
110	0x3d362dcd	0.044477273
111	0xbd735cce	-0.059414677
112	0x3ce47c21	0.02789122
113	0x3c7fae85	0.015605574
114	0x3d94d04d	0.07266293
115	0xbd0e8bd7	-0.03480133
116	0xbc7e9ae3	-0.015539858
117	0x3d7b5ed0	0.061369717
118	0x3d0e1c9f	0.034695264
119	0xbd03b3d3	-0.032153916
120	0xbd88f803	-0.066879295
121	0xbd0f2495	-0.034946997
122	0x3cf4c023	0.029876774
123	0x3d945f64	0.07244757
124	0x3d93ae2d	0.07210956
125	0xbd1dba14	-0.038507536
126	0xbd4b28dd	-0.049599517
127	0x3d3ab504	0.045582786
128	0xbbf92bde	-0.0076041063
129	0x3d546de4	0.051862612
130	0xbd6b243f	-0.057407614
131	0x3cd1ae6a	0.025595862
132	0xbcb1404e	-0.021637108
133	0xbc27d1d6	-0.0102429
134	0xbd278fe9	-0.040908728
135	0xbd9756e4	-0.0738962
136	0xbd46c665	-0.048529048
137	0xbb9c5630	-0.0047710165
138	0xbd794114	-0.06085308
139	0xbc891d7b	-0.01673769
140	0xbcb59409	-0.022165315
141	0x3ba6e408	0.0050931014
142	0x3d803c00	0.06261444
143	0xbbe97f18	-0.0071257465
144	0x3bc003ee	0.0058598435
145	0xbd9697b3	-0.07353153
146	0x3c3d0a83	0.011538151
147	0xbd894c21	-0.067039736
148	0x3c9ab7d8	0.018886492
149	0xbd6cf2df	-0.057848807
150	0xbd8d114f	-0.06888067
151	0xbd0d5407	-0.034503963
152	0x3d5480d3	0.05188067
153	0x3d157959	0.03649268
154	0x3d870d3c	0.06594321
155	0xbb19ff5f	-0.002349816
156	0xbcf655df	-0.030070243
157	0x3c855a6c	0.016278468
158	0xbd3feb39	-0.046855185
159	0x3d3e9431	0.046528045
160	0x3d8cb663	0.06870725
161	0xbd2cafee	-0.042159967
162	0x3d8d1d2f	0.06890332
163	0xbcf0fb33	-0.029416656
164	0x3d1930d7	0.037400093
165	0xbcd3d3b5	-0.025857786
166	0xbd04e52e	-0.032445125
167	0x3c9153de	0.017740186
168	0x3cbdc666	0.023165893
169	0x3c8e5173	0.017372822
170	0xbc58afc7	-0.013225502
171	0x3d827b33	0.06371155
172	0xbd0c13ef	-0.034198698
173	0x3c1e9f08	0.009681471
174	0x3cf7a784	0.030231245
175	0xbd95a736	-0.073072836
176	0x3cfc2f11	0.030784162
177	0xbd39f5af	-0.045400318
178	0x3d04b2e0	0.03239715
179	0xbd4e6d10	-0.05039698
180	0xbbe94055	-0.0071182647
181	0xbd7b7754	-0.061393097
182	0x3c81e825	0.015857765
183	0x3d8aee10	0.06783688
184	0x3d449e2c	0.048002407
185	0xbd29ec9e	-0.04148542
186	0x3d648991	0.055795256
187	0x3c7bb220	0.0153622925
188	0x39981e2b	0.00029014176
189	0xbca3ad28	-0.019980028
190	0x3d925dfc	0.07146832
191	0xbd65d810	-0.056114256
192	0x3d6e5a56	0.05819162
193	0x3d67a2fd	0.056551922
194	0x3c7b9e14	0.015357513
195	0x3cc15d84	0.023604162
196	0xbd2267fc	-0.03964995
197	0x3d07f29c	0.033190355
198	0x3b4611d3	0.0030223026
199	0xbd0ea554	-0.034825638
200	0x3ca82fc5	0.02053059
201	0x3d8f821b	0.070072375
202	0x3cacd9b3	0.0210999
203	0xbd552ea6	-0.05204644
204	0x3d23b299	0.039965246
205	0x3ccabcc3	0.024748212
206	0xbcaceb62	-0.021108333
207	0xbcd8f895	-0.02648572
208	0x3d1ec8ba	0.038765647
209	0x3d794b9c	0.060863122
210	0xbcf1e660	-0.029528797
211	0xbd47811e	-0.04870712
212	0x3d8e010a	0.06933792
213	0xbd687c28	-0.05675903
214	0x3b018a15	0.0019766141
215	0xbd06ccdd	-0.032910217
216	0x3c53eb4c	0.012934517
217	0xbd415347	-0.04719856
218	0x3d3cbbbf	0.046077486
219	0x3d59dd47	0.053189542
220	0xbd5cb300	-0.053881645
221	0x3cc92e84	0.024558313
222	0x3c24d097	0.010059497
223	0x3d916df0	0.07101047
224	0xbd6955ae	-0.056966476
225	0xbd40fa83	-0.047113907
226	0xbc86dfe9	-0.01646419
227	0xbd61c06b	-0.055115145
228	0xbcd0676e	-0.025439944
229	0xbd2a3da1	-0.04156268
230	0x3c03a271	0.0080343345
231	0x3cdcf782	0.02697349
232	0xbc357ae6	-0.011076665
233	0x3ce8f6fd	0.028438086
234	0x3d41116c	0.047135755
235	0xbd860558	-0.06543988
236	0xbd1939f2	-0.037408777
237	0x3d946847	0.07246452
238	0x3d4a855a	0.04944358
239	0xbd908eff	-0.07058524
240	0x3d321237	0.043474402
241	0xbd8cce78	-0.06875318
242	0x3d594310	0.05304247
243	0x3d2a8f18	0.04164037
244	0x3c7b1ca5	0.015326654
245	0xbd8cd93f	-0.06877374
246	0xbd3af5f5	-0.04564472
247	0x3d960c13	0.07326522
248	0xbd5996ba	-0.05312226
249	0xbd878605	-0.06617359
250	0xbd872951	-0.06599677
251	0xbaf40496	-0.0018617089
252	0x3d13fabd	0.036127795
253	0xbd2fbc05	-0.04290392
254	0x3d59adbe	0.05314421
255	0x3d6091e3	0.05482663

cell_list.1.conv_can.weight f4 [10, 20, 3, 3]
0	0xbe368d44	-0.17827326
1	0xbd40ff30	-0.047118366
2	0x3d0a9317	0.033831682
3	0xbdd43e29	-0.103634186
4	0x3aa88d6d	0.0012859531
5	0xbd90a12c	-0.07061991
6	0x3b1236fb	0.0022310603
7	0x3cee25bd	0.02907073
8	0xbd52a2c3	-0.051424753
9	0x3df39b42	0.118948475
10	0x3bc7b236	0.0060942424
11	0x3c8c8e2f	0.017157642
12	0x3d4e9966	0.05043926
13	0x3b73f800	0.0037226677
14	0x3a2852ef	0.00064210495
15	0xba475446	-0.0007603805
16	0xbd223c3c	-0.039608225
17	0xbc0a4f87	-0.008441812
18	0xbc895d1b	-0.016768029
19	0xbdcb8fbf	-0.09939527
20	0xbd19d1f8	-0.037553757
21	0x3d2cedd1	0.042218987
22	0xbd6d5bc0	-0.057948828
23	0xbdcdb5b7	-0.10044425
24	0x3e06798c	0.13132304
25	0x3d52dc81	0.05147982
26	0xbba059c5	-0.004893514
27	0x3ddc4c91	0.107567914
28	0x3b99954e	0.004686988
29	0x3d81607c	0.06317231
30	0x3d75c548	0.060002595
31	0x3c5c7e53	0.013457852
32	0xbcf85f53	-0.030318892
33	0x3dc7374a	0.097273424
34	0x3cc364bc	0.023851745
35	0xbb5dc820	-0.0033841208
36	0xbddc5cdc	-0.10759899
37	0xbdf6178c	-0.1201621
38	0xbe04a9a4	-0.12955338
39	0xbd79472c	-0.06085889
40	0x38ac4d94	8.216049e-05
41	0xbddb5f95	-0.1071159
42	0x3cdfe5f8	0.027331337
43	0x3d1d0259	0.038332317
44	0x3bd75dff	0.0065724845
45	0x3dd09524	0.10184696
46	0x3cef5c3d	0.029218787
47	0x3df3c1b4	0.1190218
48	0x3e02bbde	0.12766978
49	0x3d89f7a5	0.067366876
50	0x3dcb7bb0	0.09935701
51	0x3c559fed	0.013038618
52	0x3da06c67	0.07833176
53	0x3d4377b8	0.047721595
54	0x3e3979fd	0.18112941
55	0x3e00fe37	0.12596975
56	0x3e26a880	0.16275215
57	0x3d7e9dcd	0.06216221
58	0x3e15c7c6	0.14626989
59	0xba818616	-0.000988188
60	0xbd2366aa	-0.03989283
61	0xbd4734b1	-0.048634235
62	0xbc68e9ba	-0.014215881
63	0x3df66d3d	0.12032554
64	0xbcf491c2	-0.029854659
65	0x3daefd0b	0.08544358
66	0x3dc2cf3d	0.09512184
67	0x3d798432	0.060917087
68	0x3de687e9	0.112563916
69	0x3cc262f0	0.023728818
70	0x3aac2c1d	0.0013135705
71	0x3c764de1	0.015033216
72	0x3c49de04	0.012320999
73	0xbdb08660	-0.0861938
74	0xbd2562e4	-0.040377513
75	0xbcf520b1	-0.029922815
76	0x3a4d1b54	0.00078242016
77	0x3d008af5	0.03138252
78	0x3e02999b	0.12753908
79	0x3c652224	0.013985191
80	0x3cdd5585	0.027018318
81	0x3e07748a	0.1322805
82	0x3df73408	0.12070471
83	0x3e0749d2	0.13211754
84	0x3dbf991f	0.093553774
85	0x3d1b4ec7	0.037916925
86	0x3d038d03	0.0321169
87	0x3d9abdb5	0.07555715
88	0x3cfa1091	0.030525478
89	0x3d13060c	0.03589444
90	0x3b177c47	0.0023114847
91	0xbcd70773	-0.02624867
92	0xbd8f7218	-0.070041835
93	0xbd115dca	-0.035489835
94	0x3b3f671c	0.0029205745
95	0xbd544720	-0.051825643
96	0xbc285be0	-0.010275811
97	0x3d6f0ec5	0.058363695
98	0x3c1c362d	0.009534401
99	0xbcc6bcc1	-0.024259927
100	0xbd8f2809	-0.06990058
101	0xbd908c1e	-0.07057975
102	0xbd082b2a	-0.03324429
103	0x39b4c347	0.00034477768
104	0x3c39585b	0.0113125695
105	0x3c4d4e72	0.01253091
106	0xbd9602ad	-0.07324729
107	0xbd24224d	-0.040071774
108	0xbd8502c9	-0.06494672
109	0xbcf1ca5a	-0.029515434
110	0x3c463b74	0.012099136
111	0xbd5cda43	-0.053919088
112	0x3d43be4e	0.04778891
113	0x3d537998	0.051629633
114	0xbd401ba7	-0.04690137
115	0xbd13a2d3	-0.036043953
116	0x3b1cb35c	0.0023910617
117	0x3c9bf399	0.019037055
118	0x3d9861fc	0.07440564
119	0xbc062f13	-0.008189934
120	0xbd8590f3	-0.065217875
121	0x3d93c1c1	0.0721469
122	0x3ce16fe4	0.027519174
123	0xba8ca8bf	-0.0010731443
124	0xbcea02ab	-0.028565725
125	0xbd109ce7	-0.035305884
126	0x3d572cb3	0.052532863
127	0x3d25e3d8	0.04050049
128	0x3d863b71	0.06554306
129	0xbd84b414	-0.0647966
130	0xbd37d110	-0.044877112
131	0xba15b930	-0.0005711494
132	0x3c34d1c7	0.011036343
133	0x3d80a844	0.06282094
134	0xbd1833e8	-0.037158877
135	0x3d8cb6e3	0.068708204
136	0xbd44f59c	-0.048085794
137	0xbd81cda6	-0.063380525
138	0xb9aae439	-0.00032594966
139	0xbd42a2f2	-0.047518678
140	0xbca0de26	-0.019637179
141	0x3d7bb1b3	0.061448764
142	0xbd54ee69	-0.05198518
143	0xbd43f2ac	-0.04783885
144	0x3b1e4f8a	0.0024156296
145	0xbd669d6f	-0.056302484
146	0xbd17f32c	-0.03709714
147	0xbc6b1326	-0.014347827
148	0xbd11096d	-0.03540938
149	0xbbd1fdd5	-0.006408433
150	0x3d270037	0.04077169
151	0x3d9763ed	0.07392106
152	0x3d66a788	0.056312114
153	0xbd87bfd8	-0.06628388
154	0x3ceafb35	0.028684238
155	0x3d655f66	0.055999182
156	0xbd47f368	-0.048816115
157	0xbd76da0a	-0.060266532
158	0xbd523c61	-0.051327113
159	0x3d032af3	0.03202338
160	0xbd11d599	-0.035604093
161	0xbc64f85d	-0.01397523
162	0x3ced215a	0.028946567
163	0x3d7ba0c0	0.0614326
164	0x3d85a127	0.06524878
165	0xbc70fe7f	-0.014709114
166	0x3c311a11	0.010809437
167	0x3d853950	0.06505072
168	0x3d40b437	0.047046866
169	0xbd853c6a	-0.06505664
170	0x3d0c7bca	0.034297742
171	0x3d184a5e	0.037180297
172	0xbae4f765	-0.0017468749
173	0x3d89ecae	0.06734596
174	0xbd296f7b	-0.04136608
175	0x3d8ccd6f	0.06875121
176	0xbc29298f	-0.01032485
177	0xbd142186	-0.036164783
178	0x3c06f56a	0.008237222
179	0xbd072b5e	-0.033000343
180	0x3c4b9071	0.012424574
181	0xbc3fd4cf	-0.011708452
182	0xbcddcf08	-0.02707626
183	0xbb4db748	-0.0031389762
184	0xbce76f5d	-0.028251344
185	0xbd8df839	-0.0693211
186	0xbc0034e6	-0.007825112
187	0xbb6a0d57	-0.0035713518
188	0xbd063977	-0.032769646
189	0xbd6db991	-0.058038298
190	0xbceaa08c	-0.028641008
191	0xbceb2a70	-0.02870676
192	0x3db9b09f	0.09066891
193	0x3d73a383	0.05948211
194	0x3d908cf0	0.07058132
195	0x3df9f797	0.12205427
196	0x3d5deb99	0.05417976
197	0x3d268865	0.04065742
198	0x3cec69dc	0.028859071
199	0x3c09390b	0.0083754165
200	0x3e3ddff1	0.18542458
201	0xbd48d665	-0.049032588
202	0xbd553e61	-0.052061442
203	0x3d31f3cf	0.043445405
204	0xbe494d03	-0.19658284
205	0xbe717e46	-0.23583326
206	0xbe7c356e	-0.24629757
207	0xbd972ef1	-0.07382
208	0x3da8b3c3	0.08237412
209	0x3d3c91ff	0.04603767
210	0xbdd456ee	-0.10368143
211	0xbddf026d	-0.108891346
212	0xbd913ee1	-0.07092071
213	0xba98bfe3	-0.0011653866
214	0x3cbb59ec	0.022870027
215	0xbd16ba87	-0.03679898
216	0xbdb290e6	-0.087190434
217	0xbddf7ff4	-0.10913077
218	0xbcd20f1b	-0.025641968
219	0x3d93e702	0.072217956
220	0x3cefa26e	0.029252257
221	0x3cdf8ed8	0.027289793
222	0x3d8a191a	0.06743069
223	0x3ddd3d96	0.10802762
224	0x3c20f545	0.009824102
225	0xbdcc971d	-0.0998976
226	0x3d2a7077	0.04161116
227	0xbd1fc22c	-0.039003536
228	0xbddd90d1	-0.10818637
229	0xbd654daf	-0.055982288
230	0xbdcf5f4a	-0.10125597
231	0xbcac70ed	-0.021049941
232	0x3d8f319a	0.069918826
233	0x3ce75b52	0.028241787
234	0x3cb34511	0.02188352
235	0xbc774a44	-0.01509339
236	0x3e024ffb	0.12725823
237	0xbdca6299	-0.09882087
238	0xbd5e4720	-0.05426705
239	0x3dc8e3b4	0.09809056
240	0xbe0626c2	-0.13100722
241	0xbd5bf684	-0.053701892
242	0x3d1d93ba	0.03847096
243	0xbd3d5873	-0.04622693
244	0xbca223f0	-0.019792527
245	0xbd95efbd	-0.07321117
246	0xbdb5085e	-0.088394865
247	0xbe0f23a4	-0.1397844
248	0xbe01495a	-0.12625638
249	0xbb86f4c0	-0.004118532
250	0xbd4fa07d	-0.050690163
251	0xbdacd500	-0.08439064
252	0xbd106ff7	-0.035263028
253	0xbd5c33b1	-0.053760234
254	0xbca57f04	-0.020202167
255	0xbdfa4b8f	-0.12221443

cell_list.2.conv_gates.weight f4 [20, 20, 3, 3]
0	0xbd1288fa	-0.035775162
1	0x3bb70d3e	0.0055862954
2	0xbd86bc70	-0.0657891
3	0xbdd052b3	-0.101720236
4	0xbccdce82	-0.025122885
5	0xbdb18758	-0.08668393
6	0x3d7ee81b	0.06223307
7	0x3d998210	0.074955106
8	0x3d3a92df	0.045550223
9	0x3d62e3ef	0.055393156
10	0xbd084186	-0.033265613
11	0x3df74fee	0.12075792
12	0x3c992f6e	0.018699374
13	0x3d5a5251	0.05330116
14	0x3df14a95	0.117818035
15	0x3c96a57f	0.018389462
16	0xbb4733da	-0.0030395896
17	0x3e2ba202	0.1676102
18	0xbcf3e787	-0.029773487
19	0xbd4fa925	-0.05069842
20	0xbda83e32	-0.08214988
21	0xbb3aa781	-0.0028481188
22	0x3c8bdc58	0.017072842
23	0x3c3c7c4a	0.011504242
24	0x3d9bc062	0.076050535
25	0x3ce4daea	0.027936418
26	0x3c8c8981	0.01715541
27	0xbd7992fe	-0.0609312
28	0xbd961345	-0.07327894
29	0xbde1f429	-0.11032898
30	0x3dc76890	0.097367406
31	0x3d833c09	0.06407935
32	0xbd5babbe	-0.053630583
33	0xbdb45fa4	-0.088073045
34	0xbdc2e87a	-0.09516998
35	0xbdf2dfeb	-0.11859115
36	0xbd4054d6	-0.046955906
37	0xbb6feedd	-0.003661088
38	0xbdae0d91	-0.08498681
39	0xbbdd4775	-0.006752903
40	0xbdbd4c29	-0.09243042
41	0xbdb7f4e1	-0.08982254
42	0xbd91a61e	-0.071117625
43	0xbe7f8f1e	-0.24956939
44	0xbdf9f909	-0.12205703
45	0x3cf13e24	0.029448576
46	0x3d38a28c	0.04507689
47	0x3d823e35	0.06359521
48	0xbd254e3c	-0.040357813
49	0xbe06c420	-0.13160753
50	0xbdff29db	-0.12459155
51	0xbdc8224b	-0.09772166
52	0xbd8b594b	-0.06804141
53	0xbd2c8244	-0.04211642
54	0xbdba4494	-0.090951115
55	0xbd4a2a6c	-0.049356863
56	0xbcb84376	-0.022493105
57	0x3d85cdde	0.06533407
58	0x3d8b7fed	0.06811509
59	0x3d92b431	0.07163275
60	0xbd5a471e	-0.05329048
61	0x3c530b5c	0.012881126
62	0xbcdf11bc	-0.027230136
63	0xbe040d0d	-0.12895603
64	0xbd034166	-0.03204479
65	0xbdd9f9c2	-0.10643341
66	0xbca27b77	-0.019834263
67	0x3c059637	0.00815349
68	0xbd08dd24	-0.03341402
69	0x3db6f5d8	0.0893361
70	0x3c140065	0.009033297
71	0x3d7c123d	0.06154083
72	0xbd9524bb	-0.072823964
73	0xbd8a88e6	-0.067643926
74	0xbdc3e9b9	-0.095660634
75	0x3dda7f37	0.106687956
76	0x3b01de32	0.0019816277
77	0x3d7a9dd1	0.06118566
78	0x3d0db092	0.03459222
79	0x3d8d30be	0.068940625
80	0xbc58c38c	-0.013230216
81	0x3e0d8bb7	0.13822828
82	0x3e07ed27	0.1327406
83	0x3cdb6eef	0.026786296
84	0x3e12245a	0.1427168
85	0x3beb3cec	0.0071788933
86	0x3d4b53bf	0.049640413
87	0xbc0f25f8	-0.00873708
88	0xbd19d7fb	-0.03755949
89	0xbd4249f3	-0.047433805
90	0xbd6b2a0f	-0.057413157
91	0xbd6debdc	-0.05808626
92	0x3cbec39d	0.023286635
93	0x3e0606c0	0.13088512
94	0xbc86258c	-0.016375326
95	0x3d129fdc	0.035796985
96	0x3d06a323	0.032870423
97	0x3c51cbdd	0.012804952
98	0xbc139f4d	-0.009010148
99	0x3da6be60	0.0814178
100	0x3de11832	0.10990943
101	0x3e5da747	0.21645842
102	0x3d75d237	0.06001493
103	0x3dd6d5dd	0.1049001
104	0x3dfa4a1b	0.12221166
105	0x3d925078	0.071442544
106	0x3dfc4c50	0.12319243
107	0x3d5b3175	0.053513963
108	0x3d8139e8	0.06309873
109	0x3ce825da	0.028338362
110	0x3e0f3a00	0.13986969
111	0x3db9e1b2	0.09076251
112	0x3d1f7326	0.038928173
113	0xbd1ab82f	-0.037773307
114	0x3d90c196	0.070681736
115	0xbd02d24f	-0.031938847
116	0x3d6a1c7e	0.05715608
117	0x3dfffffe	0.124999985
118	0x3de0c8be	0.109757885
119	0x3df73a1a	0.12071629
120	0xbbe7ec67	-0.007077742
121	0xbd2ca9f9	-0.042154286
122	0xbd32b8fa	-0.04363344
123	0xbc72a9e0	-0.014811009
124	0x3ce33e3f	0.027739642
125	0x39053d19	0.00012706629
126	0x3e3baa2f	0.18326639
127	0x3ddde6bd	0.108350255
128	0x3d99550a	0.07486923
129	0xbc989054	-0.018623509
130	0x3c389e33	0.011268186
131	0x3d165b4d	0.036708165
132	0xbda79840	-0.08183336
133	0x3d11a9c4	0.03556229
134	0x3d24de75	0.040251214
135	0xbd8c4e9d	-0.06850932
136	0xbdaaa3d5	-0.0833203
137	0xbdef6334	-0.11688843
138	0xbd93e5d3	-0.0722157
139	0xbd038adc	-0.03211485
140	0xbe0a8b7e	-0.13529775
141	0x3dac5be0	0.08415961
142	0x3dc73464	0.097267896
143	0xbc397b49	-0.011320897
144	0xbd926bc8	-0.07149464
145	0xbe09e80e	-0.13467428
146	0xbca0a2d2	-0.019608889
147	0xbe8312d5	-0.25600305
148	0xbe51f999	-0.2050537
149	0xbe2d7dd5	-0.16942532
150	0xbd9ec85a	-0.07753058
151	0xbd97b625	-0.07407788
152	0xbdcb8e71	-0.09939278
153	0xbe06baf8	-0.1315726
154	0xbe4e9dc1	-0.20177366
155	0xbe2f7341	-0.1713381
156	0xbd66de8d	-0.056364585
157	0xbdf02f88	-0.11727816
158	0xbda354a6	-0.0797513
159	0xba406365	-0.00073390297
160	0xbdb19b02	-0.086721435
161	0x3daa6137	0.083193235
162	0xbc0e7ef3	-0.008697259
163	0x3cff5b52	0.031171475
164	0x3d9bc25e	0.07605432
165	0x3d45b28a	0.04826597
166	0x3d872d18	0.06600398
167	0xbcd4c4a2	-0.025972668
168	0x3c626ee5	0.013820385
169	0x3d287aee	0.04113286
170	0xbcbbea24	-0.022938795
171	0xbe0d9315	-0.13825639
172	0xbdab170f	-0.083540075
173	0xbe542ba3	-0.20719771
174	0xbe08fe43	-0.13378243
175	0xbdf5b75e	-0.11997865
176	0xbdff387e	-0.12461947
177	0xbcc5edd5	-0.024161259
178	0xbdbc130e	-0.09183322
179	0xbd8d8706	-0.06910519
180	0xbda9abff	-0.08284759
181	0xbe134d25	-0.14384897
182	0xbe4107ba	-0.18850604
183	0xbdd92d91	-0.10604394
184	0xbe35393c	-0.17697614
185	0xbe3bf1bb	-0.18353932
186	0x3da7775f	0.08177065
187	0x3dfd7391	0.12375558
188	0x3dff8226	0.12475996
189	0x3d991749	0.074751444
190	0x3e2b67f2	0.1673887
191	0x3e28ba0e	0.16477224
192	0x3e67aab4	0.22623712
193	0x3e054b88	0.13017094
194	0x3e4080e0	0.18799162
195	0x3e83f878	0.25775504
196	0x3e7b94c7	0.24568473
197	0x3e15bf89	0.14623846
198	0xbdf1f00f	-0.11813366
199	0xbdaa9723	-0.08329608
200	0xbdd8e493	-0.10590472
201	0xbde7b8a8	-0.11314517
202	0xbe0551ae	-0.1301944
203	0xbcdd90e2	-0.027046625
204	0xbaa113ce	-0.0012289227
205	0xbd2e5059	-0.042557094
206	0xbdf6fa69	-0.12059481
207	0x3e00ae5f	0.12566517
208	0x3ded9f57	0.11602657
209	0x3c83eed5	0.016105095
210	0xbd2bd37d	-0.041949738
211	0x3ded13b0	0.11576021
212	0x3d992360	0.0747745
213	0xbd5021d3	-0.050813507
214	0xbde82606	-0.113353774
215	0x3c085dd8	0.008323155
216	0x3cc4fcfe	0.024046417
217	0x3e1b6401	0.15174867
218	0x3de9195e	0.113817915
219	0x3e486e50	0.19573331
220	0x3e18c623	0.14919333
221	0x3d0bc83e	0.034126513
222	0x3de93b15	0.11388222
223	0x3e0703bd	0.1318502
224	0x3d5e37d0	0.054252446
225	0x3dbe902a	0.09304841
226	0x3e37d2cc	0.17951506
227	0x3e124e67	0.1428772
228	0x3d59942f	0.053119835
229	0x3b15b367	0.0022842528
230	0x3dd5a0b4	0.10431042
231	0x3e13a3f1	0.14418007
232	0x3d719b5b	0.05898605
233	0xbc0c3ac0	-0.008558929
234	0xbda2a0d7	-0.07940834
235	0xbbcb85ad	-0.0062110038
236	0x3d852a49	0.06502206
237	0xbd496428	-0.049167782
238	0xbc319090	-0.010837689
239	0xbbca888e	-0.0061808294
240	0xbdbe0b22	-0.09279467
241	0xbdbef2ea	-0.09323676
242	0xbd5565db	-0.05209909
243	0xbd8164ec	-0.063180774
244	0xbd7058bb	-0.05867837
245	0xbdc8e9da	-0.09810229
246	0xbe111bd7	-0.14170776
247	0xbdf6ec62	-0.12056805
248	0xbceacd13	-0.02866224
249	0xbd65a0ea	-0.056061663
250	0xbda8cd97	-0.08242338
251	0xbd078e22	-0.033094533
252	0xbdb1dd5b	-0.08684798
253	0xbd3bf369	-0.04588643
254	0xbe25b9ca	-0.16184154
255	0xbd907aeb	-0.07054695

cell_list.2.conv_can.weight f4 [10, 20, 3, 3]
0	0xbde6d926	-0.112718865
1	0xbddec3e4	-0.10877207
2	0xbe514c82	-0.20439342
3	0xbed77eaa	-0.42088825
4	0xbf05172b	-0.51988477
5	0xbeb24196	-0.34815663
6	0xbe4ac38a	-0.19801155
7	0xbe9dfd40	-0.30857277
8	0xbd92f7a3	-0.07176139
9	0x3c703010	0.0146598965
10	0x3d658338	0.056033343
11	0x3d94a7a1	0.07258535
12	0x3c164703	0.009172204
13	0x3d4a8e26	0.04945197
14	0x3d1787eb	0.036994856
15	0x3d9e7d53	0.077387474
16	0x3e03eac9	0.12882532
17	0x3dd4d3f3	0.103919886
18	0xbdf3216b	-0.11871608
19	0xbdb76706	-0.08955197
20	0x3cbe18d1	0.023205193
21	0x3e25481e	0.16140792
22	0x3e4e162a	0.20125642
23	0x3e2c9d18	0.16856802
24	0x3d13a642	0.036047228
25	0x3dee1139	0.11624379
26	0x3bbdfb95	0.005797813
27	0x3bcc915c	0.006242914
28	0x3ddc6f56	0.10763423
29	0x3e00a159	0.12561549
30	0x3e335786	0.17513856
31	0x3ec40750	0.3828683
32	0x3ec51c0d	0.38497964
33	0xbdc80ca8	-0.09768039
34	0xbcc845a3	-0.024447268
35	0x3dc3b260	0.09555507
36	0x3a14b72e	0.0005673048
37	0x3dc603b8	0.09668678
38	0x3d93efed	0.072234966
39	0x3dce2736	0.10066073
40	0x3d31b0b5	0.04338141
41	0x3cb23e03	0.021758085
42	0x3e6f43bb	0.23365681
43	0x3e064edf	0.13116024
44	0x3de5e7f6	0.11225884
45	0x3e788dda	0.24272862
46	0x3e1af94d	0.15134163
47	0x3e599d10	0.21251321
48	0xbd261227	-0.040544655
49	0xbe45910a	-0.1929361
50	0xbe14ced5	-0.14532025
51	0xbd21ef81	-0.03953505
52	0xbde5312f	-0.11191022
53	0xbe0d9b5c	-0.13828796
54	0xbb3ec51d	-0.0029109188
55	0xbd1318b7	-0.03591224
56	0x3d3f25b6	0.046666823
57	0x3e52ca72	0.2058504
58	0x3e8b7ee4	0.27245247
59	0x3e8c5234	0.27406466
60	0xbc794ba9	-0.015215793
61	0xbd179a9f	-0.037012693
62	0x3d139a75	0.036035974
63	0xbe3e1542	-0.18562797
64	0xbdf78d3c	-0.12087485
65	0xbdcd9de4	-0.10039881
66	0xbdb04a14	-0.08607879
67	0xbd90dd05	-0.07073406
68	0xbd5419e9	-0.051782522
69	0xbd188472	-0.037235685
70	0x3db9b914	0.09068504
71	0x3de3ffed	0.11132798
72	0xbdf499ef	-0.11943423
73	0xbe134b08	-0.14384091
74	0xbd8deed5	-0.06930319
75	0x3e4f1559	0.20222987
76	0x3def52da	0.116857246
77	0x3e3f77b1	0.18698002
78	0x390782cb	0.00012923327
79	0x3d8d50e7	0.069001965
80	0x3d193614	0.03740509
81	0x3dccc230	0.09997976
82	0x3e2fb569	0.17159046
83	0x3dceb806	0.100936934
84	0x3e37b2d1	0.17939307
85	0x3e1e8bfc	0.15483087
86	0xbd85f84f	-0.06541502
87	0xbdfe1ad1	-0.124074586
88	0xbde16685	-0.11005882
89	0xbe805695	-0.25066057
90	0xbd7040e5	-0.05865564
91	0xbdc30671	-0.09522713
92	0x3cd27a03	0.025692945
93	0x3ddd1cb4	0.1079649
94	0x3e63aa6c	0.2223298
95	0x3e97e3c5	0.29665962
96	0xbd15ec30	-0.0366022
97	0xbb4b5f0c	-0.0031031994
98	0xbca56eb2	-0.020194385
99	0x3cc850c1	0.024452569
100	0xbd0dfbee	-0.034664087
101	0x3d1d89a0	0.038461328
102	0xbda15a71	-0.078785785
103	0xbe167039	-0.14691247
104	0xbe273ac8	-0.16331017
105	0xbd19f315	-0.037585337
106	0xbe3ea3d1	-0.18617178
107	0xbe29d238	-0.16584098
108	0x3de714f7	0.112832956
109	0x3d5d5999	0.054040525
110	0x3bed25b0	0.0072371587
111	0xbe774a8c	-0.24149531
112	0xbe7800af	-0.24219011
113	0xbe682155	-0.22668965
114	0xbdac188d	-0.0840312
115	0xbe7d9658	-0.24764383
116	0xbe15d38a	-0.14631477
117	0x3d21f082	0.039536007
118	0x3dae2719	0.08503551
119	0x3dbe3e0e	0.0928918
120	0xbde22783	-0.110426925
121	0xbdc974ef	-0.098367564
122	0xbded6cee	-0.11593042
123	0xbda9bc9d	-0.08287928
124	0x3c754819	0.014970803
125	0xbd7a326a	-0.061083235
126	0x3cf7dce0	0.030256689
127	0xbd9d2699	-0.076733775
128	0xbd06d404	-0.032917038
129	0x3ac9ef33	0.001540637
130	0xbd888fd8	-0.06668061
131	0xbdc34e1e	-0.09536384
132	0x3d5dd02c	0.054153606
133	0x3d3fbb91	0.046809737
134	0xbd00ad07	-0.03141501
135	0xbdcad3fb	-0.09903713
136	0xbcd1d95e	-0.025616344
137	0xbd328301	-0.043581966
138	0xbc3e37d3	-0.011609989
139	0x3da0dd7e	0.07854746
140	0x3e14269f	0.14467858
141	0x3dd7c842	0.10536243
142	0x3e92a34c	0.2864021
143	0x3eaa7bc7	0.3329756
144	0x3d88d35e	0.0668094
145	0xbcd47f53	-0.02593962
146	0x3df31cf1	0.118707545
147	0xbd84c533	-0.06482925
148	0xbdbab550	-0.09116614
149	0xbe1882e8	-0.14893687
150	0x3dd71645	0.105022945
151	0xbc3e7095	-0.011623521
152	0xbdd6f891	-0.10496629
153	0x3d22a102	0.03970433
154	0xbd9588b5	-0.073014654
155	0xbe32901d	-0.17437787
156	0x3b660748	0.0035099555
157	0x3cf995ba	0.030466903
158	0x3cdd6bf6	0.027029019
159	0x3e4acbd8	0.19804323
160	0x3e8f6acc	0.28011167
161	0x3ea398d5	0.3195254
162	0x3d5f0523	0.054448258
163	0xbd0189d0	-0.03162557
164	0xbd0e0f69	-0.034682665
165	0xbe6616b5	-0.224696
166	0xbe2c7e66	-0.16845092
167	0xbe1b696e	-0.15176937
168	0xbd78a8be	-0.0607078
169	0xbe222a60	-0.15836477
170	0xbdfc4f12	-0.12319769
171	0x3cee54bd	0.02909314
172	0xbd524b94	-0.05134161
173	0xbdab6a21	-0.08369852
174	0x3d5c7f87	0.053832557
175	0x3b8acbd7	0.0042357254
176	0x3d74bad9	0.059748504
177	0x3e334303	0.17506032
178	0x3e08a105	0.13342674
179	0x3dd8f730	0.10594022
180	0xbdc6196f	-0.0967282
181	0xbd66bd57	-0.056332912
182	0xbe0f0e7c	-0.13970369
183	0x3d840813	0.064468525
184	0x3bc9d6c0	0.0061596334
185	0x3b3eac8b	0.0029094543
186	0x3d9f283b	0.07771345
187	0xbe2e6855	-0.17031987
188	0xbd93bbd5	-0.072135605
189	0x3d108629	0.035284195
190	0x3defa56a	0.11701472
191	0x3dc6b6a8	0.09702808
192	0xbd0acdd7	-0.03388771
193	0x3d54cffa	0.051956154
194	0x3e144bd4	0.14482051
195	0x3da2add4	0.07943311
196	0x3e4fed71	0.2030542
197	0x3e376359	0.17908992
198	0x3c8cac2b	0.01717194
199	0xbd542338	-0.0517914
200	0xbd87b3b3	-0.06626072
201	0xbd2aadbb	-0.04166959
202	0xbc13e06d	-0.009025675
203	0xbcd3766e	-0.025813308
204	0xbcd7480f	-0.026279477
205	0x3c97066a	0.018435676
206	0xba8eb39e	-0.001088727
207	0x3ce33cfd	0.027739042
208	0x3db572f9	0.0885982
209	0x3d203c09	0.039119754
210	0x3d38a9d7	0.045083847
211	0x3b8cf771	0.0043019583
212	0xbacd2198	-0.001565027
213	0xbc703048	-0.014659949
214	0x3ca71259	0.020394491
215	0xbbac94ec	-0.0052667763
216	0x3e503c32	0.20335463
217	0x3c352bdf	0.011057823
218	0x3da8d6e2	0.08244111
219	0x3dc5d957	0.09660595
220	0x3dec5418	0.11539477
221	0xbaa6cd69	-0.0012726012
222	0x3dba625c	0.09100792
223	0x3c388d55	0.011264165
224	0x3e25414a	0.16138187
225	0x3d0dd2da	0.03462491
226	0x3d9fc0f2	0.07800473
227	0x3e0c8ea8	0.13726294
228	0x3df4c507	0.119516425
229	0x3ca1b5ad	0.01973995
230	0x3c789239	0.015171581
231	0x3e01ea9f	0.12687157
232	0x3de130eb	0.109956585
233	0x3e1d2bc9	0.15348734
234	0x3ccd735c	0.025079422
235	0x3d218d20	0.039441228
236	0x3d036be6	0.03208532
237	0xbd67ca6e	-0.056589536
238	0xbd1767e1	-0.0369643
239	0xbdd6514e	-0.104647264
240	0xbc541228	-0.012943782
241	0xbcf30a1e	-0.02966791
242	0x3c8bc56a	0.017061908
243	0x3c4c69e5	0.012476419
244	0x3ca3d3d2	0.019998465
245	0xbdb33e2c	-0.08752093
246	0xbd8aad41	-0.06771327
247	0xbd672010	-0.05642706
248	0xbdd95aae	-0.10612999
249	0xb78f3bd7	-1.7074794e-05
250	0xbc18f1c7	-0.009334988
251	0xbdd64d68	-0.10463983
252	0x3be661fa	0.0070307227
253	0x3ade8a83	0.0016978536
254	0xbdd21361	-0.102576025
255	0xbdab5ab1	-0.083669074

cell_list.3.conv_gates.weight f4 [20, 20, 1, 1]
0	0xbe432aaa	-0.19059244
1	0x3e1cbbec	0.15306062
2	0xbdb7e86b	-0.08979877
3	0xbecbcf17	-0.39806435
4	0xbdf052fa	-0.117345765
5	0xbc078873	-0.008272278
6	0xbeb80f29	-0.35949066
7	0x3ea13f3c	0.31493556
8	0xbc8faafd	-0.017537588
9	0xbeba3624	-0.3636943
10	0xbe2e57a6	-0.17025623
11	0xbeb7e472	-0.35916477
12	0xbdcf1794	-0.10111919
13	0x3efb5179	0.49085596
14	0xbed04e14	-0.4068457
15	0x3e09c112	0.13452557
16	0x3cc3e715	0.0239139
17	0xbe51386b	-0.20431678
18	0x3e966c14	0.29379332
19	0xbce13ac0	-0.027493834
20	0xbe0d5f8c	-0.1380598
21	0xbd0706b3	-0.032965373
22	0xbe3e12b5	-0.18561824
23	0xbe9e4bdc	-0.3091725
24	0x3d766c7e	0.06016206
25	0xbaaacc1d	-0.0013030801
26	0xbdd28a7d	-0.10280321
27	0x3c586f3d	0.013210115
28	0xbe839927	-0.25702783
29	0x3d50c09d	0.05096494
30	0x3e1df74d	0.15426369
31	0xbdbbf56f	-0.09177672
32	0x3da9b34f	0.082861535
33	0x3ec2ba1a	0.3803261
34	0xbe6fc451	-0.23414733
35	0x3e7ef870	0.24899459
36	0x3d6a511c	0.05720626
37	0xbc90392f	-0.017605392
38	0xbe23c31c	-0.15992397
39	0x3dbc5ba0	0.091971636
40	0x3db94ee8	0.09048253
41	0x3e003acc	0.12522429
42	0x3d1b2f4e	0.03788691
43	0x3c2f87b3	0.010713506
44	0xbe024502	-0.12721637
45	0x3da8d576	0.082438394
46	0x3cd4c53d	0.025972957
47	0x3e28ef4f	0.16497539
48	0xbbde4b7e	-0.0067839017
49	0x3e1f23c0	0.15540981
50	0xbd17af06	-0.03703215
51	0x3e8c291f	0.27375123
52	0xbe44c93d	-0.19217391
53	0x3d4cc5ee	0.049993448
54	0x3e56874a	0.20950046
55	0x3e185c3d	0.14878936
56	0xbcc5db4e	-0.024152424
57	0xbdc39d92	-0.095515385
58	0xbe086449	-0.13319506
59	0x3e77fee4	0.24218327
60	0xbd289fd2	-0.04116804
61	0x3e88adf8	0.26695228
62	0x3d2c9415	0.04213341
63	0xbdde0284	-0.108403236
64	0x3c2b1688	0.010442384
65	0xbc72e97a	-0.014826173
66	0xbd232b9e	-0.03983652
67	0x3e7940f7	0.24341188
68	0x3aa36726	0.0012466654
69	0x3bb0d819	0.0053968546
70	0xbee4d631	-0.44694665
71	0xbe56995b	-0.20956938
72	0x3d48372a	0.048880734
73	0x3eadf2f3	0.33974418
74	0xbeb32d42	-0.34995466
75	0xbe187633	-0.1488884
76	0x3b8bef3a	0.0042704614
77	0x3d8a9b14	0.0676786
78	0x3e2ec9d7	0.17069183
79	0xbdb47525	-0.08811406
80	0xbd89a17e	-0.06720255
81	0xbd9bad7a	-0.076014474
82	0x3e2bb1be	0.16767022
83	0xbd09d9bf	-0.033654924
84	0x3dfc3056	0.12313907
85	0xbddfb2d1	-0.109227784
86	0xbd922e78	-0.071377695
87	0x3d792c6e	0.060833387
88	0xbdfa07bb	-0.12208506
89	0xbc5dacaf	-0.0135299405
90	0xbe833610	-0.25627184
91	0x3d50db85	0.0509906
92	0xbe8361cb	-0.25660548
93	0x3df837d6	0.12120025
94	0xbdbe6704	-0.092969924
95	0x3dedd474	0.11612788
96	0xbca611d6	-0.020272177
97	0x3d9d053c	0.07667014
98	0x3e4bfa7b	0.1991977
99	0x3d1b8fa7	0.037978794
100	0xbd3d6076	-0.04623457
101	0x3e5ba399	0.21449126
102	0xbd9f3d45	-0.07775358
103	0x3dd67272	0.104710475
104	0xbd87ac7d	-0.066246964
105	0xbdd63d67	-0.1046093
106	0x3e050ce8	0.12993205
107	0xbddc2639	-0.10749478
108	0xbe0ad2f4	-0.13557035
109	0x3cc9f740	0.02465403
110	0xbe0d166b	-0.13778083
111	0x3ec11b5d	0.3771619
112	0x3d53266f	0.051550325
113	0xbd98b924	-0.07457188
114	0x3d849f94	0.064757496
115	0xbcfdedc6	-0.030997168
116	0x3d061ffe	0.032745354
117	0x3dc514bf	0.09623098
118	0xbdcde7ec	-0.10054001
119	0xbd69dbe9	-0.05709449
120	0x3ea7f901	0.32807162
121	0xbc53e999	-0.012934112
122	0xbca767d2	-0.020435248
123	0x3debee4a	0.115200594
124	0x3e6ff69b	0.23433916
125	0x3e309c73	0.1724718
126	0x3dd166d1	0.10224689
127	0xbc4fbd99	-0.012679481
128	0x3d8a80d3	0.067628525
129	0xbd4ee3e7	-0.050510313
130	0x3e4a5f11	0.19762827
131	0x3d02e837	0.03195974
132	0xbddee283	-0.108830474
133	0xbe89b2a0	-0.26894093
134	0x3e83a0a8	0.25708508
135	0xbdeebcca	-0.116571024
136	0xbcd591f0	-0.026070565
137	0xbdba9061	-0.09109569
138	0xbe6105ca	-0.21974865
139	0xbe3becf0	-0.18352103
140	0xbdf8d997	-0.12150877
141	0x3e0c0d9d	0.13677068
142	0xbd57c170	-0.05267471
143	0xbe81a78d	-0.25323144
144	0x3e42e733	0.19033508
145	0x3e087b4b	0.13328283
146	0xbe412b55	-0.18864186
147	0xbbbb124a	-0.0057089673
148	0xbe48b96c	-0.19601983
149	0xbd710582	-0.058843143
150	0xbce15f68	-0.027511314
151	0xbe8dd2b2	-0.2769981
152	0x3e21b85d	0.15792985
153	0x3e11c608	0.14235699
154	0x3e10ccbf	0.14140604
155	0xbe5df554	-0.21675617
156	0x3be24b91	0.006905981
157	0x3e87df6d	0.26537648
158	0xbd7e74c7	-0.062123086
159	0xbd4d13d1	-0.050067727
160	0x3d9d50ca	0.07681425
161	0xbd26b223	-0.04069723
162	0xbe1d51e4	-0.1536327
163	0xbd995d7a	-0.07488532
164	0x3c52824f	0.012848451
165	0xbe92e8c7	-0.2869322
166	0xbcef2641	-0.029193046
167	0x3d7e9ebe	0.062163107
168	0xbe94d273	-0.2906681
169	0x3c929604	0.017893799
170	0xbe3494d5	-0.176349
171	0xbef3c332	-0.4760986
172	0xbc929932	-0.017895315
173	0x3d71aab2	0.05900068
174	0xbe3370a1	-0.17523433
175	0x3e6e19ef	0.2325208
176	0xbe994a30	-0.29939413
177	0xbe81d2ba	-0.25356084
178	0x3ecab231	0.39589074
179	0x3e496b9e	0.19669959
180	0x3dfcb845	0.12339834
181	0x3dc608ba	0.09669633
182	0x3dfab7c2	0.1224208
183	0x3e04d880	0.12973213
184	0x3e0ed64c	0.13948935
185	0x3e850d10	0.25986528
186	0xbd9a1e46	-0.075253054
187	0xbe2b3ae4	-0.16721684
188	0x3e449b7f	0.19199942
189	0x3d52b5da	0.05144296
190	0xbe8772bd	-0.26454726
191	0xbe3b4d8a	-0.18291298
192	0xbdc59ed8	-0.09649438
193	0xbdbbfae6	-0.091787145
194	0x3d08bb4f	0.033381756
195	0xbeae0d7a	-0.33994657
196	0xbd20c9a0	-0.039254785
197	0x3e63b375	0.22236426
198	0xbd7cbd29	-0.061703835
199	0xbe43c109	-0.19116606
200	0x3e76396e	0.24045345
201	0xbe9c9320	-0.30580997
202	0x3e601d59	0.21886195
203	0x3e460add	0.19340082
204	0x3d4a2dea	0.049360193
205	0x3e617500	0.22017288
206	0x3e894242	0.26808363
207	0xbe0a84c6	-0.13527212
208	0x3e2b9aed	0.16758318
209	0x3d3fe6ad	0.04685085
210	0x3daacd27	0.08339911
211	0x3de30b1c	0.11086103
212	0xbc560e6a	-0.01306496
213	0xbde06214	-0.10956207
214	0x3ec4efea	0.3846429
215	0xbea57d69	-0.32322243
216	0x3d312f7f	0.043258186
217	0x3dcbac8e	0.099450216
218	0xbdd1124b	-0.10208567
219	0xbd910e92	-0.07082857
220	0x3e89d31f	0.26918885
221	0xbecdfc2a	-0.40231448
222	0x3e81b5eb	0.25334105
223	0x3e8f2f4b	0.2796577
224	0x3c4b85fc	0.012422081
225	0x3eec28d7	0.46124908
226	0x3e16670e	0.1468775
227	0xbe983140	-0.29725075
228	0x3e53ce06	0.2068406
229	0x3e8877f4	0.26654017
230	0x3d0a76e8	0.033804804
231	0x3e1d0212	0.15332821
232	0x3d59e3f4	0.05319591
233	0xbe409c93	-0.18809728
234	0x3e4eb466	0.20186004
235	0x3da6df28	0.081480324
236	0xbda77c31	-0.081779845
237	0x3ea883dc	0.329131
238	0xbe7c6d18	-0.24650991
239	0xbe0ac38f	-0.13551162
240	0x3e8b4927	0.27204248
241	0xbe21d676	-0.15804467
242	0xbd0dfb95	-0.034663755
243	0x3d0fed96	0.03513869
244	0x3e2f0d00	0.17094803
245	0x3ead1a9a	0.33809358
246	0x3db29cb1	0.08721293
247	0xbd9baa64	-0.07600859
248	0x3e9616ed	0.29314366
249	0x3e939d8e	0.28831142
250	0x3e8990bd	0.2686824
251	0x3e923091	0.28552678
252	0xbdd9b091	-0.106293805
253	0xbdeadd24	-0.114679605
254	0xbcfdf724	-0.031001635
255	0xbe982ebc	-0.29723155
