saved_models/ambaudio_brainlike_extra/random2_1.pt (torch, 118160 bytes, 14 tensors)

cell_list.0.conv_gates.weight f4 [20, 11, 3, 3]
-0.22605777 -0.3123528 -0.27822533 -0.18570995 -0.31241181 -0.16406232 -0.22057517 -0.1165813
-0.1647585 0.13120182 0.18709365 0.18303002 0.22691266 0.2301081 0.21850717 0.20588608
0.23816568 0.24557771 -0.0040541887 -0.0880846 -0.16191179 -0.24782734 -0.22827356 -0.27311274
-0.2454225 -0.24545512 -0.1900046 0.05420903 -0.15110357 0.024121711 0.034893837 0.05416895
0.022625804 -0.05138287 -0.12854484 -0.10164374 0.1259604 0.044189308 0.12864503 0.046977267
0.19036657 0.10490272 0.19873409 0.14953028 0.12010895 0.13114032 0.056111947 0.102026574
0.086794555 0.11788794 0.047012374 0.098744 0.22256292 0.14280628 -0.047800478 -0.047966145
-0.13452727 -0.20011503 -0.07603019 -0.16263357 -0.2588521 -0.12249528 -0.122628294 0.16681528
0.011360894 0.0823182 0.07681664 0.11695363 -0.0013948985 0.048202798 0.16740571 0.10953928
-0.0056778784 -0.055003572 -0.057049356 -0.088060364 -0.07998765 -0.08025639 -0.24786006 -0.10813151
-0.23978531 -0.06907562 -0.025763439 -0.038015585 0.0232675 -0.11229628 -0.1593507 -0.03673216
-0.13403003 -0.11294601 -0.084645234 -0.18987277 -0.124700844 -0.13798888 -0.2472948 -0.25133395
-0.16284047 -0.20131344 -0.27165818 -0.23984419 -0.09400188 -0.21085173 -0.1334949 -0.11788931
-0.23795117 -0.29887217 -0.091719225 -0.18685849 -0.0018369899 -0.025052136 -0.040793173 0.007521777
0.05989915 -0.10837743 -0.02851284 0.043113258 0.042506903 0.03242648 -0.11261344 -0.11211068
-0.10262148 -0.040017445 -0.0028352693 -0.10262607 -0.018099679 -0.12943543 -0.08829421 -0.090866506
0.027248925 0.13237338 -0.08918635 0.0035896911 0.117424026 0.08779181 0.09871817 0.0054675415
0.013935506 0.0005288835 -0.10009019 -0.11356657 -0.045357846 -0.037460446 -0.07659697 0.010816084
-0.0038360527 -0.054993235 0.058565497 0.01967551 0.087324 0.07813681 -0.013413117 0.0998859
-0.005202535 0.18373145 0.06258213 0.07710191 0.106222786 0.10942315 0.19269094 0.07941456
0.0107404655 0.08916746 0.05609208 0.15624487 0.00031930354 0.004686605 -0.032615684 -0.003967755
-0.11159974 -0.06852813 -0.018996313 0.16448398 0.14063773 0.11598055 0.20901957 0.19318949
0.13598832 0.072892465 -0.017747011 0.108800806 0.17577145 0.12538388 0.03686481 0.14619517
0.054316588 0.21658526 0.037100896 0.045326393 0.079962164 0.013326134 0.10942102 -0.02615736
0.00315483 0.0185942 0.09187924 -0.032476615 0.046506397 0.05909729 0.045201644 -0.108826086
-0.035753027 -0.12820402 0.03159518 -0.0897894 -0.0005776196 -0.064298324 -0.092716455 -0.11092743
-0.13665906 -0.13298611 -0.15217906 -0.098444454 -0.224395 -0.12774014 -0.07591615 -0.06794352
0.12398898 -0.033819936 0.0010883356 0.14860171 -0.03843549 0.1271764 -0.039836172 -0.02586978
0.09083125 -0.14831926 -0.12660646 -0.063956015 -0.057669874 -0.06977788 -0.1863592 -0.23195457
-0.087552786 -0.22663623 -0.093292825 -0.048120264 -0.12280902 0.014988208 0.009007955 -0.1177772
-0.15902191 -0.05080887 -0.0003620847 0.08521228 0.048987668 0.13461451 0.0522002 0.11301611
0.14187393 0.29948398 0.32378402 0.23567392 0.057483595 0.087506674 0.071432315 0.03796305
00000000: b07b 67be b5ec 9fbe 8d73 8ebe c02a 3ebe
00000010: 71f4 9fbe f4ff 27be 75de 61be 2dc2 eebd
00000020: 74b6 28be c559 063e 7a95 3f3e 396c 3b3e
00000030: cb5b 683e 75a1 6b3e 58c0 5f3e cdd3 523e
00000040: b4e1 733e b978 7b3e 00d9 84bb b365 b4bd
00000050: 34cc 25be 73c6 7dbe 8bc0 69be 6fd5 8bbe
00000060: 0950 7bbe 9658 7bbe 9190 42be 4a0a 5e3d
00000070: e5ba 1abe e59a c53c d7ec 0e3d 43e0 5d3d
00000080: c059 b93c d876 52bd 42a1 03be 982a d0bd
00000090: c3fb 003e d9ff 343d 86bb 033e 3c6b 403d
000000a0: 74ef 423e 3dd7 d63d f380 4b3e 771e 193e
000000b0: aefb f53d a649 063e a4d5 653d 4ff3 d03d
000000c0: 58c1 b13d 3b6f f13d 0c90 403d 4b3a ca3d
000000d0: 89e7 633e cf3b 123e 6fca 43bd 2678 44bd
000000e0: 84c1 09be f4ea 4cbe b7b5 9bbd 6a89 26be
000000f0: 4388 84be cede fabd 8b24 fbbd a0d1 2a3e
00000100: 0b23 3a3c 7296 a83d 0b52 9d3d 6285 ef3d
00000110: 07d5 b6ba 4c70 453d 676c 2b3e 2156 e03d
00000120: 7f0d babb 6d4b 61bd 96ac 69bd fe58 b4bd
00000130: 91d0 a3bd 765d a4bd 07cf 7dbe 0e74 ddbd
00000140: 488a 75be 8577 8dbd d90d d3bc 3bb6 1bbd
00000150: 7c9b be3c 98fb e5bd d42c 23be 7674 16bd
00000160: 2b3f 09be 3d50 e7bd 7b5a adbd 026e 42be
00000170: 2863 ffbd f54c 0dbe d93a 7dbe d8ae 80be
00000180: a7bf 26be 1c25 4ebe c816 8bbe b799 75be
00000190: 0f84 c0bd 84e9 57be e3b2 08be f36f f1bd
000001a0: 79a9 73be c605 99be 4ad7 bbbd d557 3fbe
000001b0: 27c7 f0ba 233a cdbc be16 27bd 3d79 f63b
000001c0: d058 753d fcf4 ddbd c293 e9bc 8797 303d
000001d0: b81b 2e3d a1d1 043d e0a1 e6bd 499a e5bd
000001e0: 362b d2bd 55e9 23bd edcf 39bb 9e2d d2bd
000001f0: c745 94bc b98a 04be 98d3 b4bd 3818 babd
00000200: 2339 df3c e38c 073e 55a7 b6bd 0641 6b3b
00000210: 027c f03d 31cc b33d c02c ca3d 1029 b33b
00000220: c051 643c c5a4 0a3a 16fc ccbd 9795 e8bd
00000230: 26c9 39bd 2070 19bd dfde 9cbd f235 313c
00000240: 4966 7bbb 9640 61bd 60e2 6f3d 892e a13c
00000250: edd6 b23d 3106 a03d b1c2 5bbc fb90 cc3d
00000260: 077a aabb 1924 3c3e 0f2b 803d 9be7 9d3d
00000270: 558b d93d 3f19 e03d c650 453e 1aa4 a23d
00000280: c7f8 2f3c 6e9d b63d cfc0 653d a8fe 1f3e
00000290: 3268 a739 1892 993b 0698 05bd f103 82bb
000002a0: 688e e4bd 7a58 8cbd 289e 9bbc 7d6e 283e
000002b0: 5603 103e 3687 ed3d 3a09 563e 77d3 453e
000002c0: 8640 0b3e a548 953d 2e62 91bc f5d2 de3d
000002d0: 6efd 333e a264 003e 8eff 163d 30b4 153e
000002e0: 127b 5e3d 87c8 5d3e 1cf7 173d 2ba8 393d
000002f0: 34c3 a33d db55 5a3c 2118 e03d f647 d6bc
00000300: 44c1 4e3b dd52 983c 2f2b bc3d 3306 05bd
00000310: 7e7d 3e3d 0010 723d 5c25 393d 36e0 debd
00000320: c471 12bd ea47 03be f369 013d 81e3 b7bd
00000330: 656b 17ba d7ae 83bd 20e2 bdbd ec2d e3bd
00000340: 5af0 0bbe 832d 08be d4d4 1bbe 3f9d c9bd
00000350: cec7 65be 50ce 02be ed79 9bbd f925 8bbd
00000360: efed fd3d c686 0abd 7ca6 8e3a 0c2b 183e
00000370: 886e 1dbd 883a 023e 412b 23bd dcec d3bc
00000380: bc05 ba3d 01e1 17be 20a5 01be 5ffb 82bd
00000390: 3f37 6cbd b5e7 8ebd f2d4 3ebe 8085 6dbe
000003a0: e04e b3bd 5413 68be 4f10 bfbd c119 45bd
000003b0: 4c83 fbbd 1a91 753c 1a96 133c 2c35 f1bd
000003c0: a4d6 22be f61c 50bd 30d6 bdb9 c783 ae3d
000003d0: 4ba7 483d 63d8 093e e0cf 553d fe74 e73d
000003e0: 6647 113e f755 993e 05c7 a53e 8154 713e
000003f0: eb73 6b3d b336 b33d 1b4b 923d 257f 1b3d

cell_list.0.conv_can.weight f4 [10, 11, 3, 3]
-0.09506759 0.04739299 0.07978384 0.022713851 0.056890935 0.044376355 0.23727202 0.28821364
0.30484238 0.021968773 -0.059291836 0.0012081836 0.09187247 -0.02960429 -0.0028133711 0.12932308
0.0013908985 0.079513535 0.17127015 0.13304347 0.1776424 0.14269887 0.17931397 0.13557942
0.07942888 0.16635862 -0.0147292325 -0.052470226 -0.1215857 -0.05509029 0.034540437 -0.14267054
-0.04820165 -0.16147923 -0.051973894 -0.09578614 -0.08683888 -0.13384342 -0.0656329 -0.13596265
0.0016076565 -0.0050728335 -0.06385789 0.13052087 0.027696298 -0.06033464 -0.060129967 0.0013161399
-0.011218722 0.057324477 0.06875662 0.1741617 0.10273819 0.12297188 0.036155764 -0.05731257
-0.13630377 -0.08775845 -0.06074387 -0.25373042 -0.25360903 -0.25414404 -0.34379792 -0.04363572
0.1340023 -0.08356717 -0.060422868 -0.08956191 -0.054048065 0.035191134 0.0886942 0.09674895
0.08029575 -0.053179536 0.09266749 -0.08141952 0.024424128 0.008813857 -0.049742527 -0.050376605
-0.1734884 -0.061887555 -0.12639776 -0.0051593226 -0.20404872 -0.14294018 -0.044890318 -0.12016799
-0.23948058 -0.28739437 0.24887511 0.16433327 0.066630356 0.21270818 0.052210685 0.20931293
0.18949474 0.17625324 0.062147673 -0.098948814 -0.20701016 -0.050766114 -0.14004682 -0.0808449
-0.18977833 -0.061441675 -0.09944796 -0.18762356 -0.07510412 -0.17761698 -0.16450933 -0.16539387
-0.14428675 -0.08419564 -0.11810673 -0.1325777 0.01287633 -0.12868504 -0.23277518 -0.17129986
-0.11392678 -0.093298495 0.007492727 -0.007031929 -0.121239744 -0.0398684 0.01653746 -0.049607117
0.09628091 0.051215585 0.024387747 -0.0107173575 0.13809097 0.03210346 0.04725524 -0.022790758
0.17042203 0.06677471 0.0629804 0.00025711794 0.012836245 0.07229712 0.051967792 0.09550758
-0.1574503 -0.09653115 -0.101877384 -0.17322403 -0.20146886 -0.255528 -0.2201848 -0.22816536
-0.20149541 0.090792164 0.0943559 0.13655719 0.043215726 0.026213586 0.14545605 0.0056524076
0.078593455 0.19156094 -0.044947635 -0.12053352 -0.14728312 0.022088492 0.002606093 -0.035191063
0.025451003 -0.030524213 -0.008818602 0.024279252 -0.008054181 0.026218338 0.16318595 0.061240308
0.14440747 0.12643148 0.1481549 -0.005227675 0.02318044 0.04523006 -0.002505285 0.054043826
0.051372487 0.25691807 0.072146766 0.2786034 0.056671534 -0.26744267 -0.09813093 -0.11617945
-0.16510879 -0.15369482 -0.061593615 -0.08163042 -0.062971614 -0.008774576 0.024287798 0.12792462
-0.023991864 -0.020183519 0.04283421 0.07903873 0.023315798 -0.06274246 0.019723281 0.06499976
0.012155879 0.08991596 0.17137451 0.14843018 0.0013011311 0.09115583 0.006655407 -0.02956662
-0.0125139505 -0.050311197 -0.008582054 -0.13168219 -0.118596256 -0.11484125 -0.042914107 -0.13660048
0.08028954 -0.21312697 -0.18910913 -0.19379221 -0.064862296 -0.092443414 -0.09864951 -0.15723644
-0.047467064 -0.1162438 0.1500691 0.028343711 0.05334198 0.23361374 -0.025617393 0.19492626
0.06542055 0.02597045 0.02028468 0.117083184 0.11925355 -0.04973217 0.011276175 -0.0378723
-0.027737016 -0.18629521 0.13622616 -0.14840464 -0.08747769 0.09346792 -0.04213897 -0.0056387885
00000000: ccb2 c2bd 271f 423d b665 a33d 6612 ba3c
00000010: 7806 693d fbc3 353d 70f7 723e bd90 933e
00000020: 4d14 9c3e dbf7 b33c ffdb 72bd ea5b 9e3a
00000030: a227 bc3d b284 f2bc 8960 38bb 456d 043e
00000040: cf4e b63a fed7 a23d 7161 2f3e 8c3c 083e
00000050: e4e7 353e a71f 123e 159e 373e 55d5 0a3e
00000060: 9cab a23d ea59 2a3e e152 71bc 05eb 56bd
00000070: ec01 f9bd 5ba6 61bd 467a 0d3d 3a18 12be
00000080: 186f 45bd d05a 25be 94e2 54bd 862b c4bd
00000090: 95d8 b1bd 400e 09be 8b6a 86bd cb39 0bbe
000000a0: 00b8 d23a 033a a6bb edc7 82bd 43a7 053e
000000b0: 59e3 e23c 7521 77bd d74a 76bd 5482 ac3a
000000c0: bbce 37bc 12cd 6a3d 45d0 8c3d 7257 323e
000000d0: 6668 d23d aed8 fb3d 1118 143d 96c0 6abd
000000e0: 3793 0bbe b4ba b3bd 90ce 78bd f4e8 81be
000000f0: 0bd9 81be 2b1f 82be 4806 b0be 5ebb 32bd
00000100: e637 093e 4425 abbd f87d 77bd 3c6c b7bd
00000110: 8161 5dbd 9424 103d 4ea5 b53d 5024 c63d
00000120: 1972 a43d c9d2 59bd 74c8 bd3d 47bf a6bd
00000130: 1c15 c83c ff67 103c d2be 4bbd b357 4ebd
00000140: f1a6 31be ce7d 7dbd 6a6e 01be 890f a9bb
00000150: 26f2 50be e95e 12be e9de 37bd a31a f6bd
00000160: 663a 75be 5b25 93be 1ed9 7e3e fb46 283e
00000170: 7f75 883d 2cd0 593e dfda 553d 2156 563e
00000180: e90a 423e bb7b 343e 8f8e 7e3d ada5 cabd
00000190: 79fa 53be 21f0 4fbd 6f68 0fbe 0392 a5bd
000001a0: 4055 42be 44aa 7bbd 5fab cbbd 6420 40be
000001b0: 30d0 99bd 3ae1 35be 2275 28be 035d 29be
000001c0: e8bf 13be c46e acbd f1e1 f1bd 73c2 07be
000001d0: 3ef7 523c 03c6 03be 9e5c 6ebe 3b69 2fbe
000001e0: 7252 e9bd 4813 bfbd 8d85 f53b 196c e6bb
000001f0: 8b4c f8bd 0c4d 23bd 9179 873c d530 4bbd
00000200: ed2e c53d 6fc7 513d d0c8 c73c db97 2fbc
00000210: b867 0d3e eb7e 033d b68e 413d afb3 babc
00000220: 1d83 2e3e 2ec1 883d defb 803d c9cd 8639
00000230: 1d4f 523c 8310 943d 2edc 543d 7a99 c33d
00000240: a73a 21be 20b2 c5bd 17a5 d0bd a461 31be
00000250: da4d 4ebe 91d4 82be 2078 61be 2ea4 69be
00000260: d054 4ebe 3ef1 b93d ab3d c13d a6d5 0b3e
00000270: f902 313d e0bd d63c 6ef2 143e d537 b93b
00000280: 9bf5 a03d 8d28 443e 031b 38bd 47da f6bd
00000290: 63d1 16be edf2 b43c fcca 2a3b 8124 10bd
000002a0: 9f7e d03c ea0d fabc e67b 10bc 48e5 c63c
000002b0: aff5 03bc d7c7 d63c 381a 273e 1ed7 7a3d
000002c0: 8ddf 133e 4177 013e ebb5 173e eb4c abbb
000002d0: e8e4 bd3c 2843 393d b52f 24bb 0f5d 5d3d
000002e0: f56b 523d c48a 833e afc1 933d 1ba5 8e3e
000002f0: 6920 683d 3fee 88be def8 c8bd 7eef edbd
00000300: 4712 29be 2d62 1dbe 9649 7cbd da2d a7bd
00000310: 43f7 80bd 3dc3 0fbc 34f7 c63c acfe 023e
00000320: 968a c4bc e857 a5bc ed72 2f3d 0fdf a13d
00000330: c600 bf3c 1e7f 80bd b892 a13c 981e 853d
00000340: 7429 473c dc25 b83d cd7c 2f3e 15fe 173e
00000350: b78a aa3a e8af ba3d 9a15 da3b b235 f2bc
00000360: 5007 4dbc 1d13 4ebd be9b 0cbc b2d7 06be
00000370: 98e2 f2bd e431 ebbd b4c6 2fbd ffe0 0bbe
00000380: d86e a43d f53d 5abe d3a5 41be 7771 46be
00000390: 86d6 84bd f952 bdbd c108 cabd 9702 21be
000003a0: d36c 42bd 3b11 eebd b7ab 193e 1231 e83c
000003b0: 1f7d 5a3d 7138 6f3e 91db d1bc c09a 473e
000003c0: 36fb 853d fbbf d43c 0f2c a63c 4fc9 ef3d
000003d0: 353b f43d f6b3 4bbd b5bf 383c fc1f 1bbd
000003e0: bd38 e3bc 2cc4 3ebe df7e 0b3e 63f7 17be
000003f0: 8127 b3bd 1c6c bf3d ea99 2cbd 96c5 b8bb

cell_list.1.conv_gates.weight f4 [20, 20, 3, 3]
-0.21543075 -0.0967183 -0.022048818 -0.27615547 -0.09481571 -0.09975099 -0.4478234 -0.40367755
-0.24460241 0.36369404 0.27964917 0.31997803 0.12178952 0.16638212 0.2849804 0.072985776
0.045875642 0.025858153 0.13256776 0.046427514 0.1689266 0.039668284 0.12818164 0.17026949
0.1518742 0.08373335 0.1764236 0.07178979 0.0032454669 -0.06528868 0.16327015 0.12804806
0.14942436 0.18581094 0.08888599 0.08194344 -0.30214065 -0.1679196 -0.09390015 -0.16748975
-0.20394823 -0.039137274 -0.34557363 -0.32038566 -0.24816982 -0.18606888 -0.07931209 -0.058395874
-0.10043236 -0.038020637 0.07200975 -0.00651581 0.10523701 0.19869024 -0.16152954 -0.051163364
0.07966607 -0.05603356 -0.13022855 -0.15609914 -0.15374881 -0.09522897 -0.110550486 0.026427971
-0.06270563 -0.14496371 0.035848346 -0.15106021 -0.1480578 -0.040348936 -0.17082483 -0.10058489
0.006594256 0.04488767 -0.030487388 -0.026706027 -0.05416386 0.02389389 -0.0046471357 -0.05165553
-0.076407135 -0.095544115 -0.15441813 -0.23435923 -0.10910621 -0.06238429 -0.075497724 -0.24050255
-0.28074238 -0.42745817 -0.027094755 0.024842564 -0.0293196 -0.02349734 -0.059455305 -0.076655336
0.04382035 -0.047613434 -0.060918722 0.008609616 0.10990871 0.10386482 0.042696588 -0.009351569
0.046856135 -0.028121296 -0.020257682 0.020157676 -0.13367029 -0.122767456 -0.07268697 -0.12711929
-0.2335107 -0.16206744 -0.13404976 -0.17811333 -0.06962253 -0.11198516 0.022884844 0.10331781
-0.33354357 -0.16308959 -0.04146853 -0.27180988 -0.2819877 -0.20360963 0.28681353 0.05035674
-0.07163211 0.24391204 0.10173453 -0.087936886 0.24739408 0.26827133 0.06370899 -0.09276544
-0.08311264 -0.05291164 0.091767095 -0.078257084 -0.19541736 0.1947168 0.03927117 -0.09381954
-0.110184275 0.071827374 0.111133896 -0.33513278 0.015089598 0.11011545 -0.40302324 -0.19443724
-0.09647487 -0.03376862 0.11561784 0.1118553 -0.19233555 -0.06007637 0.04356721 -0.21689846
-0.13632761 -0.04032516 -0.19052622 -0.009914829 0.033275787 -0.23043448 -0.1219264 -0.10583976
-0.20865561 -0.2897599 -0.20379509 -0.091461055 0.1117986 0.28538558 -0.24774417 -0.13596265
0.049329534 -0.23134694 -0.1703945 -0.18859094 0.63390654 0.67123765 0.5210913 -0.0882588
-0.06404855 0.10072917 0.6554896 0.62236243 0.40928748 -0.34088752 -0.33639073 -0.34689978
-0.31742498 -0.42354307 -0.5034846 -0.06655611 0.25169075 0.20281051 -0.4167984 -0.47162738
-0.35277358 -0.041468985 -0.1823278 -0.16089873 -0.0631258 0.06388221 -0.0024244946 -0.21955355
-0.09542915 0.090846986 -0.596455 -0.46711496 -0.23954473 -0.15647449 -0.08877118 -0.20077848
0.3327746 0.4033374 0.26798075 -0.081484735 -0.089727744 0.0042928183 0.3610418 0.2265802
0.2864291 0.2612783 0.02190836 0.022842165 0.2413354 0.19027467 0.1239651 -0.004089981
0.041938458 0.08146366 -0.033056397 -0.11269616 -0.058748253 -0.14529404 -0.21633463 0.052177005
0.08519529 0.1412243 0.10577087 -0.14471592 -0.13343577 -0.121644475 -0.23447657 -0.24882185
-0.071969785 -0.015905187 -0.049497098 0.040585462 0.41758102 0.4817789 0.48594555 0.0939646
00000000: e199 5cbe 3e14 c6bd b99f b4bc 4064 8dbe
00000010: bd2e c2bd 3f4a ccbd 1c49 e5be d3ae cebe
00000020: 0e79 7abe 1b36 ba3e 2d2e 8f3e 29d4 a33e
00000030: c96c f93d 1360 2a3e f3e8 913e 9179 953d
00000040: 19e8 3b3d 7ad4 d33c d8bf 073e c72a 3e3d
00000050: 18fb 2c3e 367b 223d 0c42 033e 205b 2e3e
00000060: e984 1b3e 647c ab3d 63a8 343e 8706 933d
00000070: e6b1 543b 12b6 85bd 4a30 273e 081f 033e
00000080: b302 193e 3945 3e3e dc09 b63d f6d1 a73d
00000090: 2eb2 9abe 1ef3 2bbe b94e c0bd 6f82 2bbe
000000a0: ced7 50be 684e 20bd 07ef b0be 9709 a4be
000000b0: 3b20 7ebe d788 3ebe 616e a2bd 8330 6fbd
000000c0: 7baf cdbd 87bb 1bbd d979 933d 9382 d5bb
000000d0: 8086 d73d 7475 4b3e 0068 25be ad90 51bd
000000e0: f727 a33d 7283 65bd a25a 05be 74d8 1fbe
000000f0: 5470 1dbe 6807 c3bd 4b68 e2bd 797f d83c
00000100: cf6b 80bd 5e71 14be b7d5 123d 87af 1abe
00000110: 779c 17be ed44 25bd b4ec 2ebe 73ff cdbd
00000120: a114 d83b 22dc 373d b0c0 f9bc 99c6 dabc
00000130: ecda 5dbd 1fbd c33c 0047 98bb c094 53bd
00000140: 587b 9cbd a2ac c3bd c91f 1ebe defb 6fbe
00000150: 1473 dfbd ab86 7fbd 8d9e 9abd 4d46 76be
00000160: 77bd 8fbe ccdb dabe d2f5 ddbc a282 cb3c
00000170: a82f f0bc 7e7d c0bc 6887 73bd 79fd 9cbd
00000180: f87c 333d 4e06 43bd e985 79bd 590f 0d3c
00000190: d117 e13d 14b7 d43d 9ee2 2e3d 5337 19bc
000001a0: 38ec 3f3d a25e e6bc 70f3 a5bc b621 a53c
000001b0: dde0 08be 816d fbbd e8dc 94bd 8f2b 02be
000001c0: 6e1d 6fbe 02f5 25be 5744 09be 5763 36be
000001d0: 4296 8ebd 7a58 e5bd ff78 bb3c 4a98 d33d
000001e0: 39c6 aabe f500 27be e8da 29bd aa2a 8bbe
000001f0: b160 90be 0b7f 50be 39d9 923e de42 4e3d
00000200: dbb3 92bd 14c4 793e 315a d03d 4118 b4bd
00000210: e054 7d3e dc5a 893e dc79 823d cffb bdbd
00000220: f636 aabd e0b9 58bd 63f0 bb3d 4045 a0bd
00000230: 7d1b 48be d763 473e ceda 203d 7624 c0bd
00000240: 4ba8 e1bd 3b1a 933d 2b9a e33d 8696 abbe
00000250: 5c3a 773c 3684 e13d 1059 cebe 8e1a 47be
00000260: 9e94 c5bd f750 0abd 0cc9 ec3d 6414 e53d
00000270: 9cf3 44be a412 76bd 8873 323d a11a 5ebe
00000280: 7799 0bbe ff2b 25bd 4e19 43be cf71 22bc
00000290: 314c 083d 04f7 6bbe 8cb4 f9bd 84c2 d8bd
000002a0: d1a9 55be 695b 94be a9af 50be ef4f bbbd
000002b0: aaf6 e43d 0f1e 923e a6b0 7dbe cb39 0bbe
000002c0: c40d 4a3d 36e6 6cbe e57b 2ebe fc1d 41be
000002d0: b347 223f 3bd6 2b3f 3d66 053f 08c1 b4bd
000002e0: e32b 83bd 184b ce3d 2bce 273f 2553 1f3f
000002f0: 218e d13e cf88 aebe 683b acbe d99c b1be
00000300: 8785 a2be a3da d8be 5ee4 00bf 924e 88bd
00000310: 9cdd 803e 8fad 4f3e 9a66 d5be 2579 f1be
00000320: bd9e b4be 62db 29bd 24b4 3abe a3c2 24be
00000330: 1948 81bd add4 823d 45e4 1ebb a5d2 60be
00000340: 5c70 c3bd fc0d ba3d 46b1 18bf b129 efbe
00000350: 374b 75be d93a 20be aacd b5bd e098 4dbe
00000360: 6f61 aa3e 3d82 ce3e c634 893e 78e1 a6bd
00000370: 2ec3 b7bd c5aa 8c3b 79da b83e a404 683e
00000380: d6a6 923e 45c6 853e 2979 b33c 7e1f bb3c
00000390: a120 773e 5dd7 423e 6ae1 fd3d 3f05 86bb
000003a0: a9c7 2b3d 6bd6 a63d 2566 07bd 3fcd e6bd
000003b0: 02a2 70bd f6c7 14be d386 5dbe 8eb7 553d
000003c0: de7a ae3d 1a9d 103e 669e d83d 6930 14be
000003d0: 63a3 08be bd20 f9bd a01a 70be 28cb 7ebe
000003e0: e564 93bd 984b 82bc 78bd 4abd f13c 263d
000003f0: 2ecd d53e b9ab f63e dbcd f83e 8370 c03d

cell_list.1.conv_can.weight f4 [10, 20, 3, 3]
-0.30499968 -0.429037 -0.48303312 -0.43136206 -0.355724 -0.23912634 -0.048841346 -0.012935056
-0.02278609 -0.06355257 -0.053414732 -0.037003342 -0.06274632 -0.20805614 -0.15133484 0.4547038
0.28446054 0.04644703 0.103465185 0.116320364 0.024723418 0.29761696 0.37555102 0.20756312
0.23146488 0.26046208 0.24659452 0.3817384 0.37394345 0.21021216 0.4075692 0.35826793
0.2080817 0.23727424 0.014182246 0.07668903 -0.012621353 -0.017055854 -0.07164155 -0.014465196
-0.04571238 -0.014769354 0.08986506 0.110917985 -0.17769663 -0.15545069 -0.089660235 -0.1155466
-0.033336286 -0.05653763 0.08558756 -0.08717414 -0.009487999 -0.052754242 0.20167224 0.12131604
0.101063184 -0.02420266 0.0766076 -0.0938042 -0.005923578 0.11657532 0.090163395 0.12284111
0.17751811 0.2496623 -0.022008283 0.04324767 0.08859585 0.07731002 0.032235723 -0.08361051
-0.11146929 -0.23358488 -0.40784863 -0.024468077 0.012590248 -0.21399993 0.06123565 0.112542115
-0.0010409129 0.0787935 0.13968804 0.07881908 -0.053981077 -0.09543987 0.06519356 -0.014128606
-0.044239145 -0.044449154 0.18142028 0.15701652 0.023933621 0.13400646 0.18329525 0.06535749
0.124147534 0.025433544 -0.033464823 -0.079981774 -0.040866155 0.09164319 -0.06572394 0.07167577
-0.018088972 0.33085027 0.15132701 0.16629039 0.13336895 0.06790951 -0.054591563 0.014057135
0.002386622 0.09450429 -0.034261152 0.037700772 -0.044707514 0.11547926 0.020242015 0.078101724
0.01643599 -0.086257674 -0.047739092 0.10408493 0.14732696 0.018886529 0.24243852 0.058721684
0.08501845 0.19123764 -0.1509304 -0.08951352 0.22669901 -0.08111896 -0.09591315 0.026213203
0.11581762 0.18571132 0.2110215 0.16550475 0.10974869 0.025899524 0.09273152 0.20221952
0.20127833 0.10298469 -0.24330544 0.052717306 -0.062333692 -0.09608386 0.14241287 0.16648975
-0.13556966 -0.04324547 -0.03085628 -0.0680258 0.04404173 0.13231115 0.021134596 -0.024260078
0.041007187 -0.043469217 0.06481433 0.13510936 0.16000028 -0.092989944 0.030653363 0.050754305
0.15370847 0.15251271 0.16618776 0.14782514 0.1273803 -0.036873173 0.081047095 0.115019955
-0.054109614 0.20171526 0.13137884 -0.08575084 -0.28573734 -0.14723712 -0.114772834 0.34899592
0.3309207 0.22897334 0.33118474 0.35642427 0.27306035 -0.3052346 -0.37103143 -0.32802483
0.27151045 0.3428167 0.22674324 -0.3354535 -0.26030627 -0.3024059 0.2812519 0.27598992
0.19177537 0.094852746 0.03917089 0.024677627 -0.25666794 -0.34390047 -0.2938189 0.36547512
0.25202805 -0.060112733 0.01984464 0.010614724 -0.13593617 -0.1737393 -0.31996432 -0.19351128
-0.16472316 -0.15747386 -0.14141162 0.08189916 -0.018671637 -0.060763888 0.091813914 0.10997278
0.15841745 0.1844881 0.2311859 0.18129914 -0.056038614 -0.08843102 -0.072246075 0.19267467
0.10392215 -0.006522089 -0.044046525 -0.13796884 -0.219344 0.1101772 0.16119537 0.13732788
0.14305227 0.18973765 0.2347507 -0.35150445 -0.25126594 0.04142528 -0.060405165 -0.09322182
0.008461536 -0.27235904 -0.2293757 -0.23202434 -0.0021922102 -0.23467952 -0.037585557 -0.1202133
00000000: eb28 9cbe bdaa dbbe 1e50 f7be 7ddb dcbe
00000010: 7521 b6be 89dd 74be dd0d 48bd 8fed 53bc
00000020: e5a9 babc da27 82bd 68c9 5abd d190 17bd
00000030: 2581 80bd ab0c 55be 85f7 1abe f0ce e83e
00000040: d0a4 913e 3e3f 3e3d 8ee5 d33d 5f39 ee3d
00000050: c488 ca3c 4061 983e 3948 c03e 6d8b 543e
00000060: 2105 6d3e 495b 853e 4683 7c3e 3773 c33e
00000070: 8475 bf3e db41 573e e9ac d03e e56e b73e
00000080: 5f13 553e 05f8 723e a75c 683c 230f 9d3d
00000090: cbc9 4ebc b8b8 8bbc ceb8 92bd 6eff 6cbc
000000a0: e83c 3bbd 29fb 71bc 2c0b b83d f828 e33d
000000b0: 1bf6 35be 772e 1fbe c99f b7bd b2a3 ecbd
000000c0: a18b 08bd 0094 67bd 8848 af3d 5b88 b2bd
000000d0: 8d73 1bbc d514 58bd 2b83 4e3e 8b74 f83d
000000e0: 37fa ce3d a844 c6bc 72e4 9c3d 6b1c c0bd
000000f0: 931a c2bb 0bbf ee3d 96a7 b83d 1f94 fb3d
00000100: 4fc7 353e 79a7 7f3e b74a b4bc 7824 313d
00000110: be71 b53d b754 9e3d 9b09 043d fd3b abbd
00000120: 034a e4bd e030 6fbe 89d1 d0be 4771 c8bc
00000130: 5447 4e3c cc22 5bbe 3cd2 7a3d 7b7c e63d
00000140: 3e6f 88ba 7d5e a13d 620a 0f3e e66b a13d
00000150: 431b 5dbd fb75 c3bd 3484 853d ab7b 67bc
00000160: 1b34 35bd 5110 36bd 3dc6 393e f0c8 203e
00000170: 7110 c43c fd38 093e c0b1 3b3e 26da 853d
00000180: 1041 fe3d 025a d03c 6912 09bd 7ccd a3bd
00000190: 4563 27bd 6daf bb3d 469a 86bd bfca 923d
000001a0: 532f 94bc 3565 a93e 78f5 1a3e 0748 2a3e
000001b0: df91 083e 2414 8b3d 679b 5fbd e64f 663c
000001c0: df68 1c3b 778b c13d 6c55 0cbd 206c 1a3d
000001d0: 3a1f 37bd 6480 ec3d 95d2 a53c ccf3 9f3d
000001e0: c5a4 863c dda7 b0bd 118a 43bd 7b2a d53d
000001f0: e1dc 163e ecb7 9a3c ce41 783e 2686 703d
00000200: 271e ae3d cdd3 433e 808d 1abe dd52 b7bd
00000210: c923 683e b321 a6bd 1d6e c4bd 12bd d63c
00000220: ca31 ed3d 1c2b 3e3e 0516 583e 147a 293e
00000230: ecc3 e03d 3d2b d43c 06ea bd3d a212 4f3e
00000240: e81b 4e3e a3e9 d23d 1025 79be 1aee 573d
00000250: 9d51 7fbd 9dc7 c4bd aed4 113e 4a7c 2a3e
00000260: c6d2 0abe 2922 31bd 4fc6 fcbc 1c51 8bbd
00000270: 1a65 343d 937c 073e 7622 ad3c 12bd c6bc
00000280: 27f7 273d c70c 32bd 60bd 843d 1c5a 0a3e
00000290: 1dd7 233e 8371 bebd c31c fb3c bfe3 4f3d
000002a0: c165 1d3e 4b2c 1c3e 202d 2a3e 795f 173e
000002b0: fb6f 023e 5308 17bd 05fc a53d 958f eb3d
000002c0: 0ba2 5dbd 728e 4e3e 2d88 063e 239e afbd
000002d0: 2a4c 92be 54c5 16be 050e ebbd 98af b23e
000002e0: 706e a93e fd77 6a3e 0c91 a93e 3e7d b63e
000002f0: 91ce 8b3e b647 9cbe d5f7 bdbe dff2 a7be
00000300: 6b03 8b3e ac85 af3e 612f 683e 90c0 abbe
00000310: dd46 85be f2d4 9abe 4000 903e 8d4e 8d3e
00000320: c360 443e 2842 c23d a871 203d bc28 ca3c
00000330: fb69 83be b913 b0be 6e6f 96be 8e1f bb3e
00000340: d209 813e c538 76bd 3a91 a23c 61e9 2d3c
00000350: da32 0bbe b7e8 31be 5dd2 a3be d227 46be
00000360: 30ad 28be d440 21be 35ce 10be bfba a73d
00000370: 43f5 98bc 8ee3 78bd ef08 bc3d 6939 e13d
00000380: 2f38 223e 73ea 3c3e ffbb 6c3e 7ba6 393e
00000390: bf88 65bd 531b b5bd c0f5 93bd 824c 453e
000003a0: 23d5 d43d 3fb7 d5bb 216a 34bd b447 0dbe
000003b0: b79b 60be 95a4 e13d 6610 253e ae9f 0c3e
000003c0: 4b7c 123e 964a 423e 7d62 703e 64f8 b3be
000003d0: eea5 80be 8ead 293d 686b 77bd 15eb bebd
000003e0: 41a2 0a3c a572 8bbe 77e1 6abe ca97 6dbe
000003f0: 2fab 0fbb d44f 70be 50f3 19bd 6432 f6bd

cell_list.2.conv_gates.weight f4 [20, 20, 3, 3]
0.1633991 0.07860008 0.15852663 0.027447354 0.057801474 0.14373174 -0.09111003 -0.11349964
-0.05661624 -0.18032886 -0.24728832 -0.25258118 -0.24003749 -0.15948568 -0.28461653 -0.05240332
-0.08758032 -0.1317643 -0.0616164 0.008585181 0.113592334 -0.26443508 -0.15123552 -0.108374424
-0.18359041 -0.07260764 -0.06404914 0.12354065 0.12449537 -0.06221357 -4.4047945e-05 -0.08213527
-0.2553811 0.06717116 -0.22630054 -0.25792775 -0.21760523 -0.056947824 0.13971633 -0.10800202
-0.055965587 0.16451879 -0.12774305 -0.019202964 0.08349133 -0.33559638 -0.21505296 -0.20297915
0.0072311223 -0.00022393455 0.059119094 -0.07125365 0.17025456 0.15110464 0.051669195 0.14489059
0.2517106 0.23678915 0.12705074 0.20908085 0.050607976 0.20322767 0.31783268 -0.09812855
-0.17344548 -0.1163103 -0.07524427 -0.06974038 -0.1196386 0.007276105 -0.0074733966 0.0066167014
0.09361032 0.040526975 0.03609391 0.040856697 0.108886935 0.05997109 -0.08601378 0.043120682
0.065979145 -0.27897963 -0.2132876 -0.012552598 -0.18761566 -0.07724492 -0.13037643 -0.48032966
-0.26419565 -0.12931596 0.07960723 0.03337765 0.04260799 0.044403527 -0.05615705 -0.08548491
-0.021179492 0.011905001 -0.016996782 0.03334128 -0.021731963 0.07055998 0.0028875316 0.16795695
-0.017591583 -0.098892376 0.01712545 -0.067860454 0.05883749 0.036927298 -0.0024667734 0.102936536
0.053293142 -0.067847386 0.10808612 0.08991387 -0.067003325 0.03203601 -0.05131739 -0.072293684
-0.028979778 -0.12593922 -0.09165884 -0.15515633 -0.14057468 -0.14312911 0.09730586 0.11092831
0.0049370853 0.0902579 0.021840282 0.04041424 0.020277299 -0.026675837 -0.0075645815 -0.04371631
0.013245291 -0.06158609 -0.049868345 0.07881246 -0.10973803 0.07527892 0.12183699 -0.025333617
-0.1086869 -0.017868055 -0.08182624 0.072767414 -0.010214658 -0.0419845 0.14826488 0.009202519
0.0784834 0.07995931 0.030941732 0.06588006 -0.011637039 0.096851185 -0.062093213 0.0572494
0.033740897 0.020373093 -0.02491627 -0.007016037 0.054812428 -0.01567665 -0.106667675 -0.06806199
0.03675349 0.0429076 0.007260595 0.04550812 -0.044314176 -0.028313665 0.064023204 0.24522348
0.12633981 0.12267361 0.2824966 0.15567699 0.15239431 0.052194152 0.13900758 0.14549123
-0.00092426187 0.033689607 0.1703971 -0.031067774 0.008191751 0.01772312 0.13581407 0.026046587
0.04505953 0.059795562 0.065970965 0.11232196 0.08680634 0.20590155 0.2962494 0.27556613
0.1282721 0.4158758 0.4916208 0.06131739 0.27307734 0.15705432 0.17950505 -0.32887796
-0.24117558 -0.03961608 -0.09849249 0.018290231 0.049389087 -0.29526815 -0.45994538 -0.06290002
0.24473456 0.005524817 0.029174777 0.26216304 0.061212808 0.10443912 0.10043181 -0.020291777
0.08758507 -0.020997556 -0.09662561 0.1034562 0.020547941 -0.011463726 0.0154576795 0.030965827
0.094679505 0.025391523 -0.05194505 -0.079213865 0.016625347 -0.028165335 -0.0824003 -0.20444635
-0.16484731 -0.13835646 -0.0007753785 -0.36503243 -0.3381822 -0.27506888 -0.29882377 -0.1768069
-0.30988157 -0.2872998 -0.17461666 -0.26732254 -0.17420186 -0.055876724 0.08234321 -0.16125341
00000000: 1852 273e 14f9 a03d ce54 223e 46d9 e03c
00000010: 3dc1 6c3d 6a2e 133e e597 babd 8072 e8bd
00000020: 6ee6 67bd 21a8 38be 2639 7dbe 5252 81be
00000030: 63cc 75be 3750 23be 42b9 91be dda4 56bd
00000040: 505d b3bd 38ed 06be 7a61 7cbd dca8 0c3c
00000050: 19a3 e83d 0964 87be 7cdd 1abe 69f3 ddbd
00000060: 20ff 3bbe 50b3 94bd 322c 83bd e102 fd3d
00000070: 6ef7 fe3d a8d3 7ebd 1fc0 38b8 8936 a8bd
00000080: 50c1 82be 0891 893d 54bb 67be 1b0f 84be
00000090: e8d3 5ebe 1f42 69bd cc11 0f3e 2a30 ddbd
000000a0: 2c3c 65bd 9d77 283e 13cf 02be 894f 9dbc
000000b0: 81fd aa3d 4ad3 abbe d836 5cbe c4d9 4fbe
000000c0: 0df3 ec3b f9cf 6ab9 dd26 723d 6fed 91bd
000000d0: 3657 2e3e 2dbb 1a3e 14a3 533d 335e 143e
000000e0: 36e0 803e db78 723e 9719 023e 4a19 563e
000000f0: 4f4a 4f3d ea1a 503e f7ba a23e 9ff7 c8bd
00000100: b19b 31be 1834 eebd ab19 9abd 0bd4 8ebd
00000110: 1505 f5bd 656c ee3b 65e3 f4bb ead0 d83b
00000120: c4b6 bf3d 9dff 253d 35d7 133d 5a59 273d
00000130: 1d00 df3d 3fa4 753d fe27 b0bd 509f 303d
00000140: 1320 873d 6bd6 8ebe 1168 5abe 69a9 4dbc
00000150: 521e 40be 9632 9ebd 6681 05be c5ed f5be
00000160: a744 87be 676b 04be 1e09 a33d 01b7 083d
00000170: b785 2e3d 79e0 353d ef04 66bd b612 afbd
00000180: 9d80 adbc 310d 433c d63c 8bbc de90 083d
00000190: 3b07 b2bc c081 903d be3c 3d3b e8fc 2b3e
000001a0: 391c 90bc 1688 cabd ac4a 8c3c 6cfa 8abd
000001b0: 94ff 703d 1441 173d 97a9 21bb 64d0 d23d
000001c0: e949 5a3d 92f3 8abd 415c dd3d c324 b83d
000001d0: 0a39 89bd 3138 033d 2f32 52bd b60e 94bd
000001e0: 0067 edbc 36f6 00be a1b7 bbbd 4de1 1ebe
000001f0: cff2 0fbe 7090 12be 4b48 c73d 622e e33d
00000200: 46c7 a13b 22d9 b83d 64ea b23c 6789 253d
00000210: 941c a63c 4987 dabc 4fe0 f7bb e00f 33bd
00000220: c702 593c b241 7cbd c042 4cbd 6d68 a13d
00000230: 55be e0bd d62b 9a3d ac85 f93d 7288 cfbc
00000240: 3d97 debd 0760 92bc 8494 a7bd 1507 953d
00000250: 625b 27bc f0f7 2bbd c0d2 173e 2ac6 163c
00000260: e8bb a03d b5c1 a33d 8479 fd3c 20ec 863d
00000270: 47a9 3ebc ea59 c63d 7455 7ebd 597e 6a3d
00000280: e533 0a3d 79e5 a63c 351d ccbc c9e6 e5bb
00000290: ff82 603d 516c 80bc 9574 dabd 1664 8bbd
000002a0: d48a 163d e1bf 2f3d 49ea ed3b b966 3a3d
000002b0: c882 35bd 0ff2 e7bc 991e 833d dd1b 7b3e
000002c0: 395f 013e 4d3c fb3d 65a3 903e ca69 1f3e
000002d0: 410d 1c3e 89c9 553d 0158 0e3e a7fb 143e
000002e0: 2a4a 72ba 1dfe 093d 947c 2e3e d881 febc
000002f0: b236 063c 1430 913c d812 0b3e a75f d53c
00000300: 5790 383d 31ec 743d c91b 873d 0e09 e63d
00000310: 86c7 b13d dbd7 523e 00ae 973e 0117 8d3e
00000320: c359 033e aced d43e b9b5 fb3e f227 7b3d
00000330: cbd0 8b3e d9d2 203e 2cd0 373e b162 a8be
00000340: bbf6 76be 7844 22bd 6eb6 c9bd 65d5 953c
00000350: 364c 4a3d 632d 97be f67d ebbe bad1 80bd
00000360: b29b 7a3e 8609 b53b f1ff ee3c 3c3a 863e
00000370: 48ba 7a3d 2de4 d53d 31af cd3d f13a a6bc
00000380: cd5f b33d 1103 acbc a6e3 c5bd d8e0 d33d
00000390: 2854 a83c 5ad2 3bbc 3542 7d3c 0cac fd3c
000003a0: 54e7 c13d e201 d03c 55c4 54bd e13a a2bd
000003b0: e131 883c fdba e6bc 7dc1 a8bd 625a 51be
000003c0: bccd 28be 51ad 0dbe c542 4bba 88e5 babe
000003d0: 3826 adbe d4d5 8cbe 6eff 98be de0c 35be
000003e0: cca8 9ebe f618 93be b6ce 32be 80de 88be
000003f0: f961 32be fede 64bd 8fa3 a83d 9d1f 25be

cell_list.2.conv_can.weight f4 [10, 20, 3, 3]
-0.1351225 -0.1516694 -0.2492785 -0.069212124 -0.025518775 0.087277055 -0.021282982 -0.04873989
0.06087035 0.057384208 0.07255045 0.057863627 -0.084583946 -0.09659217 -0.12826025 -0.13436586
-0.1301956 -0.026926337 -0.021524657 -0.0679299 -0.15633784 0.062343575 0.06326623 0.073282756
-0.01456182 -0.07334905 0.027878964 -0.09970541 0.0023287674 0.036078785 0.078660876 0.042391613
0.07430935 0.05244807 0.0513243 -0.032053422 -0.2667349 -0.10882792 -0.14753379 0.008651133
0.06656752 0.19891408 -0.030474696 -0.052205596 0.05637154 0.119648136 -0.0008490168 -0.011457673
-0.25387302 -0.23005158 -0.2681181 0.08298675 0.03700952 -0.00024703413 0.03163879 -0.10988312
-0.0864119 0.036495514 -0.06273652 -0.09997887 -0.04414231 -0.017640594 -0.053881805 0.043718573
0.0650178 0.056691796 0.03241181 0.04673946 0.043151937 -0.10059143 -0.05569807 -0.097351365
0.010451721 0.04010961 0.11627374 0.13625138 0.000972226 -0.011202024 0.10751741 0.048818387
0.07745342 -0.046986308 -0.05297675 -0.018517597 0.040556487 -0.002557638 0.011931462 0.020489044
0.07026781 0.13762674 -0.016984755 -0.07781998 0.17398575 -0.04245292 -0.079687744 -0.08562767
-0.14907146 -0.20204788 -0.16850367 0.06037934 -0.049683128 -0.005642064 0.036557686 0.0017734604
0.025886992 -0.087578796 -0.025015129 -0.049733635 -0.051486123 0.02000827 -0.03260122 -0.016698075
-0.031033253 -0.023956727 0.005030264 -0.053427983 -0.1799584 0.0657828 0.09669551 0.06724538
-0.08087642 -0.026413301 0.08750002 -0.10074885 -0.12377054 0.036680438 -0.083576575 -0.04038286
0.074503794 -0.017478622 0.02225566 0.029143939 -0.054049846 -0.0823788 -0.06324298 0.0224904
0.08038979 0.080096826 -0.012925089 -0.07646166 -0.029483354 -0.008765262 -0.029743928 -0.032320414
0.10603042 0.22114532 0.19769485 -0.003073852 -0.018725889 0.08661574 0.19581944 0.18221852
0.15618995 -0.17412674 -0.13886817 -0.056066856 0.0326736 0.036794443 0.11293268 -0.15528624
-0.21059386 -0.1917383 0.013618875 -0.011675601 0.029901618 0.051652513 0.017759932 0.025330355
-0.11675078 -0.22029158 -0.19861917 0.09557123 0.03676465 0.054909635 -0.07853439 -0.09890279
-0.15910424 -0.12952223 -0.08442619 -0.13901347 -0.16454834 -0.026252406 0.052194875 -0.057644796
-0.1188984 -0.032397047 0.042467713 -0.12715255 -0.1241132 0.0027885572 -0.092215486 -0.07570671
-0.16976704 -0.117258474 -0.042860575 -0.08583569 -0.0076728743 0.0077696377 -0.02753815 0.060963888
0.020384347 -0.0301427 0.12810825 -0.063233525 -0.024893483 0.08381329 -0.075117424 0.027581591
-0.0033877855 0.05082567 -0.010886966 0.080358565 -0.008215637 0.008912879 0.17570534 0.0941041
0.06897057 0.14672576 0.1410999 0.10591 0.13479125 0.09745615 0.010431875 0.046726894
0.0486143 -0.047230426 0.01063688 -0.0915535 -0.17332722 0.06207753 -0.043539017 0.012139229
0.07657042 0.007116236 0.12603146 0.018318169 -0.019310532 -0.023466934 0.007354741 0.06645481
0.109376885 -0.053031817 0.075057305 -0.008812603 0.016862955 -0.12017853 -0.10441916 -0.061331604
-0.034055047 -0.013611917 0.1389575 0.1071616 0.078536645 -0.051215436 0.039333332 0.041131582
00000000: 8d5d 0abe 394f 1bbe dd42 7fbe 16bf 8dbd
00000010: c00c d1bc 50be b23d a659 aebc 7ba3 47bd
00000020: 3053 793d b40b 6b3d 5595 943d 6902 6d3d
00000030: 593a adbd 1ed2 c5bd a856 03be 3497 09be
00000040: ff51 05be 9f94 dcbc 7a54 b0bc d51e 8bbd
00000050: 0717 20be fa5b 7f3d ba91 813d 4515 963d
00000060: b394 6ebc 0738 96bd 6d62 e43c 5a32 ccbd
00000070: 3c9e 183b 59c7 133d f418 a13d d4a2 2d3d
00000080: 802f 983d cad3 563d 6e39 523d 734a 03bd
00000090: 7a91 88be 2ce1 debd 1913 17be 7bbd 0d3c
000000a0: 8d54 883d 22b0 4b3e 12a6 f9bc 89d5 55bd
000000b0: d8e5 663d 150a f53d 8e90 5eba f7b8 3bbc
000000c0: a5fb 81be a492 6bbe c746 89be f5f4 a93d
000000d0: 4b97 173d 5c84 81b9 ad97 013d 670a e1bd
000000e0: b9f8 b0bd 527c 153d 017c 80bd b9c1 ccbd
000000f0: 91ce 34bd 0283 90bc 2bb3 5cbd 3f12 333d
00000100: 0d28 853d a835 683d 3fc2 043d e071 3f3d
00000110: 16c0 303d e102 cebd a923 64bd 2760 c7bd
00000120: b23d 2b3c f949 243d ed20 ee3d 7b85 0b3e
00000130: fbdc 7e3a b288 37bc 1632 dc3d caf5 473d
00000140: e69f 9e3d b774 40bd 26fe 58bd 37b2 97bc
00000150: 8f1e 263d 0c9e 27bb 2e7c 433c a4d8 a73c
00000160: 92e8 8f3d 06ee 0c3e 9d23 8bbc 1560 9fbd
00000170: 5229 323e 1de3 2dbd 5433 a3bd 8f5d afbd
00000180: 30a6 18be a4e5 4ebe 3a8c 2cbe 5450 773d
00000190: 8980 4bbd 10e1 b8bb 83bd 153d 7573 e83a
000001a0: f510 d43c 835c b3bd 87ec ccbc 7fb5 4bbd
000001b0: 1de3 52bd 62e8 a33c db88 05bd 67ca 88bc
000001c0: 7339 febc e640 c4bc ead4 a43b 4dd7 5abd
000001d0: 0447 38be 22b9 863d 4c08 c63d f2b7 893d
000001e0: 89a2 a5bd b560 d8bc 3633 b33d 6a55 cebd
000001f0: 697b fdbd 3a3e 163d 322a abbd 7f68 25bd
00000200: 7295 983d 542f 8fbc 8051 b63c 45bf ee3c
00000210: 5f63 5dbd 37b6 a8bd 8985 81bd ca3d b83c
00000220: 67a3 a43d ce09 a43d c1c3 53bc ee97 9cbd
00000230: 1387 f1bc 2c9c 0fbc 8aa9 f3bc 6962 04bd
00000240: 7a26 d93d eb73 623e 8570 4a3e ae72 49bb
00000250: 0967 99bc 9863 b13d e484 483e 7e97 3a3e
00000260: 42f0 1f3e 484e 32be 7533 0ebe 5ca6 65bd
00000270: c1d4 053d c5b5 163d 4049 e73d 5b03 1fbe
00000280: eba5 57be 0b57 44be b421 5f3c 054b 3fbc
00000290: 3df4 f43c 9691 533d 477d 913c 9b81 cf3c
000002a0: 081b efbd 1e94 61be d362 4bbe d9ba c33d
000002b0: 8896 163d ede8 603d a3d6 a0bd 8c8d cabd
000002c0: 39ec 22be 7aa1 04be a3e7 acbd 8c59 0ebe
000002d0: 5c7f 28be 490f d7bc 4bca 553d f31c 6cbd
000002e0: 0181 f3bd c4b2 04bd a0f2 2d3d 4734 02be
000002f0: 102f febd 3ac0 363b 79db bcbd 1f0c 9bbd
00000300: 69d7 2dbe 3625 f0bd 928e 2fbd 9fca afbd
00000310: bc6c fbbb 7298 fe3b b097 e1bc 45b5 793d
00000320: 13fd a63c d3ed f6bc cf2e 033e 9480 81bd
00000330: 6bed cbbc 4da6 ab3d 2ad7 99bd caf2 e13c
00000340: 9c05 5ebb 942e 503d 3f5f 32bc 0893 a43d
00000350: e19a 06bc 5307 123c 1aec 333e a6b9 c03d
00000360: 7140 8d3d 473f 163e 7e7c 103e 58e7 d83d
00000370: b806 0a3e 1797 c73d 74ea 2a3c b364 3f3d
00000380: ca1f 473d b174 41bd 4f46 2e3c 6780 bbbd
00000390: b17c 31be 0245 7e3d f855 32bd 9ee3 463c
000003a0: f4d0 9c3d 502f e93b 640e 013e fc0f 963c
000003b0: 1f31 9ebc ba3d c0bc 0a00 f13b 7619 883d
000003c0: fd00 e03d e437 59bd a5b7 993d bc62 10bc
000003d0: 2e24 8a3c 2920 f6bd b6d9 d5bd d936 7bbd
000003e0: 4e7d 0bbd 8504 5fbc e04a 0e3e 8a77 db3d
000003f0: d2d7 a03d 47c7 51bd fd1b 213d 9779 283d

cell_list.3.conv_gates.weight f4 [20, 20, 1, 1]
0.13318878 -0.068782024 -0.2686073 -0.15342812 -0.20470741 -0.2595953 -0.24181344 -0.21643627
0.36359695 -0.17024116 -0.0064569735 -0.03904624 -0.30785912 -0.089112 -0.18293442 0.18312962
-0.10374144 0.1477689 -0.21471898 -0.24516794 0.0046128687 -0.08283626 0.410733 -0.4174231
-0.45012078 -0.33724093 0.24839722 0.0045522107 0.035757735 -0.09156126 0.3838619 -0.051617738
-0.33052665 -0.1244676 -0.064162634 -0.068222694 -0.020357924 0.15954353 -0.40622672 -0.4180081
0.16031036 0.19891924 0.03691302 0.01051809 0.24999295 0.066496104 0.16231386 0.09089059
-0.3515901 0.24928494 -0.121705495 0.0793103 0.18146355 0.15581091 -0.07270743 0.13127773
0.19703028 -0.13289735 0.21263306 0.0018343743 0.03280007 -0.14585817 0.16770333 -0.2825273
-0.10008754 -0.036959987 -0.045411814 -0.12520912 0.075598024 0.12625915 0.2608754 -0.12658766
0.06584168 0.20192151 -0.38083217 0.17930833 -0.24935901 -0.08785772 0.039833367 -0.13600373
0.13911618 -0.14069965 -0.109090455 -0.099866636 0.2178201 -0.017499218 -0.029358618 -0.08698841
-0.039925594 0.0383492 0.17628443 0.24821247 -0.122649126 -0.10856817 0.021664012 -0.13935892
0.2267957 0.0366451 0.033047084 0.1573149 0.00606143 0.105119936 -0.06431851 -0.13965572
-0.17069459 -0.14832313 0.21350196 0.17762503 0.041751746 0.039617192 0.25264898 -0.18404827
0.054887082 0.316276 -0.16174883 -0.19434915 -0.15761177 0.038547654 0.024342224 -0.023257462
0.00039433414 0.17730741 -0.08594452 0.007969524 0.031797156 0.2921539 -0.066220365 -0.10740671
0.032869954 0.10467432 -0.29562074 0.05965115 0.16278632 0.030555785 0.29521024 0.0930917
-0.052461483 -0.3299076 0.09723051 0.060217816 -0.23190072 0.03194798 -0.021922054 0.12268632
0.24128453 0.13482052 -0.090823345 0.22905827 -0.026261704 0.38604262 -0.24436952 0.033634245
0.0116856815 0.074282005 0.11926518 0.31452918 0.18911327 -0.1163443 0.3307225 -0.027932579
-0.26119 0.19947407 0.07105673 0.16803925 -0.17168647 -0.24828775 0.05718293 -0.0559177
-0.06501242 0.09721957 0.17384548 -0.39864802 -0.23272051 -0.17220895 -0.23784763 0.07116116
-0.13398652 -0.10180567 0.15567626 0.15775222 -0.019437224 0.06288573 0.043951795 -0.10864243
-0.23034021 0.24192065 -0.08640598 -0.266842 -0.077926405 0.18730678 -0.0035200748 0.17974393
0.06898261 -0.13750914 -0.25922018 0.15280688 0.016463358 -0.29227033 0.013562147 0.000794487
0.0072676553 0.23603919 -0.026132315 0.17362517 0.16306894 0.32507515 -0.012247665 0.10714763
-0.21824823 -0.088884905 -0.047496747 0.43834892 -0.0870047 -0.1670709 0.1760967 0.0226764
0.22281222 -0.11808343 0.07377196 0.23405385 0.1395725 0.14738157 -0.28947636 0.18421085
-0.051499095 -0.05080703 -0.28796217 -0.30387348 0.041759323 -0.11481725 -0.18285677 -0.09790888
0.15990695 -0.093783036 0.22136231 -0.059148498 0.12261923 0.10090006 0.023984972 -0.00041657133
0.17167883 -0.08773062 0.038712204 0.16054365 0.32077703 -0.0064854873 0.11140553 0.08992597
-0.20484827 -0.025386628 0.059151705 0.32317334 0.27776065 0.075226426 0.15942699 -0.09221828
00000000: a462 083e 97dd 8cbd e586 89be 431c 1dbe
00000010: d29e 51be ade9 84be f19d 77be 78a1 5dbe
00000020: 6129 ba3e b353 2ebe 0595 d3bb f3ee 1fbd
00000030: b69f 9dbe 5a80 b6bd 2953 3bbe 5586 3b3e
00000040: 6476 d4bd bb50 173e 4bdf 5bbe 4e0d 7bbe
00000050: 8c27 973b 0fa6 a9bd 994b d23e 7bb8 d5be
00000060: 3b76 e6be d8aa acbe d75b 7e3e b62a 953b
00000070: b476 123d 7884 bbbd 8c89 c43e 1f6d 53bd
00000080: ca3a a9be dee8 febd b367 83bd 57b8 8bbd
00000090: a9c5 a6bc 615f 233e f3fc cfbe 2805 d6be
000000a0: 6628 243e 7cb1 4b3e 1b32 173d 1154 2c3c
000000b0: 27fe 7f3e 1c2f 883d 9b35 263e d824 ba3d
000000c0: 9e03 b4be 8d44 7f3e bb40 f9bd 706d a23d
000000d0: 95d1 393e e58c 1f3e a2e7 94bd ab6d 063e
000000e0: 4ec2 493e 3e16 08be 7bbc 593e 636f f03a
000000f0: 5e59 063d d85b 15be 6cba 2b3e 6ba7 90be
00000100: b2fa ccbd 5b63 17bd bd01 3abd d236 00be
00000110: 23d3 9a3d 144a 013e 7691 853e 32a0 01be
00000120: 01d8 863d 83c4 4e3e 6ffc c2be 9a9c 373e
00000130: f857 7fbe c0ee b3bd 5028 233d 9044 0bbe
00000140: 7974 0e3e 9213 10be d16a dfbd e186 ccbd
00000150: 3b0c 5f3e 855a 8fbc 7c81 f0bc fb26 b2bd
00000160: 0589 23bd 0d14 1d3d e883 343e 692b 7e3e
00000170: 772f fbbd fd58 debd ba78 b13c 1bb4 0ebe
00000180: 223d 683e 2c19 163d 615c 073d 2817 213e
00000190: f69e c63b 1f49 d73d 6cb9 83bd e901 0fbe
000001a0: 90ca 2ebe 05e2 17be 42a0 5a3e 56e3 353e
000001b0: e103 2b3d a345 223d 355b 813e 2677 3cbe
000001c0: 47d1 603d eeee a13e 7ca1 25be 7703 47be
000001d0: fb64 21be 25e4 1d3d 5869 c73c 6f86 bebc
000001e0: a2be ce39 1390 353e ae03 b0bd 9b92 023c
000001f0: bc3d 023d 3295 953e 8b9e 87bd 0df8 dbbd
00000200: a5a2 063d 7d5f d63d 9a5b 97be c454 743d
00000210: 75b1 263e 2050 fa3c cc25 973e dca6 be3d
00000220: dae1 56bd a6e9 a8be ca20 c73d f5a6 763d
00000230: 6277 6dbe e3db 023d e195 b3bc f742 fb3d
00000240: 4b13 773e 640e 0a3e 9701 babd 408e 6a3e
00000250: c922 d7bc 61a7 c53e 013c 7abe 10c4 093d
00000260: 4d75 3f3c 2a21 983d 4d41 f43d f809 a13e
00000270: e9a6 413e ec45 eebd 7654 a93e ddd2 e4bc
00000280: b2ba 85be ee42 4c3e 3186 913d 7b12 2c3e
00000290: 94ce 2fbe 253f 7ebe a638 6a3d f509 65bd
000002a0: 3b25 85bd 0e1b c73d 8d04 323e 981b ccbe
000002b0: 494e 6ebe 8b57 30be 548e 73be f1bc 913d
000002c0: c333 09be 7e7f d0bd 9969 1f3e cc89 213e
000002d0: d03a 9fbc 3cca 803d cc06 343d ec7f debd
000002e0: 4ede 6bbe 0cba 773e 9ef5 b0bd 849f 88be
000002f0: e197 9fbd 59cd 3f3e 0eb1 66bb cb0e 383e
00000300: c146 8d3d 32cf 0cbe 82b8 84be 6879 1c3e
00000310: 2ade 863c 75a4 95be c433 5e3c 1f45 503a
00000320: 8325 ee3b 42b4 713e 7013 d6bc ccca 313e
00000330: 8bfb 263e 4070 a63e 6eaa 48bc 3770 db3d
00000340: 777c 5fbe 4a09 b6bd f38b 42bd 456f e03e
00000350: 852f b2bd a214 2bbe b152 343e dcc3 b93c
00000360: e328 643e bad5 f1bd c115 973d d0ab 6f3e
00000370: 18ec 0e3e 32eb 163e 3f36 94be c5a1 3c3e
00000380: b7f0 52bd 081b 50bd c76f 93be 4e95 9bbe
00000390: d30b 2b3d 4e25 ebbd ce3e 3bbe 7384 c8bd
000003a0: a6be 233e 5211 c0bd cdac 623e b245 72bd
000003b0: ca1f fb3d b1a4 ce3d 227c c43c 4267 dab9
000003c0: 93cc 2f3e 1cac b3bd b090 1e3d 8e65 243e
000003d0: e33c a43e 3684 d4bb 9528 e43d 1b2b b83d
000003e0: bfc3 51be 9ef7 cfbc 0f49 723d fa76 a53e
000003f0: a536 8e3e 5010 9a3d d440 233e f0dc bcbd

cell_list.3.conv_can.weight f4 [10, 20, 1, 1]
-0.12720603 0.12907422 0.020571925 -0.18213913 -0.26123133 -0.3158531 0.02643645 0.0032475034
0.48080048 0.026223801 0.07623347 0.036638025 -0.08367366 -0.09085834 -0.25844893 0.06781102
-0.01911943 -0.109618574 0.013953245 -0.043837644 0.120244466 0.01579973 -0.25754112 -0.03063578
0.18278033 0.21461114 -0.26866373 -0.0056357495 0.2182611 0.0042412854 -0.31923294 0.12721567
0.33566004 0.02866193 0.28402922 0.14838596 0.17458321 0.016020253 0.041234706 0.03891683
-0.09870834 0.120262735 -0.11764752 0.012706159 0.28216344 -0.018540332 0.40319365 0.26910678
-0.48812428 0.094860464 0.14581913 0.007764723 -0.090141214 0.038491666 0.020478511 -0.17039275
0.10843154 -0.22826798 -0.00045492768 0.14837344 0.021612452 -0.11320033 0.09617804 0.17875747
0.006340245 0.05331155 0.18300913 0.26906255 -0.032666523 0.19542693 0.19288798 0.1864728
-0.079805076 -0.17572694 0.063182905 0.014933013 -0.19745599 0.33154407 0.09197555 -0.17685364
0.5427794 0.11060025 -0.54026526 0.09332612 0.38296437 0.24961205 -0.72187185 -0.05245155
0.17858168 0.25052705 -0.2020113 0.14356926 0.3699257 -0.103682704 0.2395188 0.034862276
0.37055686 -0.2596032 0.042614494 0.020250427 -0.06876442 -0.18391806 0.078051575 -0.03313028
-0.13170525 0.07012126 -0.014407823 0.24144217 -0.2930419 0.12305724 0.23993254 0.12715788
-0.17810385 -0.11000485 -0.00428681 -0.21052736 0.0798368 0.04145894 -0.29410458 -0.17391545
0.16416974 0.23554054 -0.2344959 0.15002145 0.2270563 0.15843795 -0.24242711 -0.0105130905
0.016016118 0.013489174 0.049364895 -0.017864492 0.12461579 0.18443285 0.007445225 0.03478417
0.27290383 -0.20312355 0.01735631 0.040115263 0.12230366 -0.024061378 0.17405604 -0.07081892
0.05523061 -0.15736662 -0.23427469 -0.23359078 0.17324279 -0.18773083 -0.0048402282 0.2288263
0.23704518 -0.16189532 0.18053876 -0.016013222 0.3286895 -0.3376259 0.031861298 0.30420202
0.06831409 0.07996694 -0.1055242 -0.018244144 0.38528845 0.43947372 -0.19630119 -0.02278393
-0.04718464 0.11902495 0.21112135 0.13637944 0.37913445 -0.0635509 0.12057446 0.19988093
0.10693201 -0.22227938 0.0034986336 0.066173315 0.037368875 0.14602125 -0.14145605 0.30509454
0.35376316 0.35737127 0.18010534 0.43936762 -0.109786525 -0.0026445074 0.06656115 -0.055128906
0.03420858 0.20199615 0.0383847 -0.22000942 0.2943629 -0.14292873 0.36713487 0.08318921
00000000: 4c42 02be 082c 043e 7486 a83c ae82 3abe
00000010: 1dc0 85be 7fb7 a1be 4191 d83c 11d4 543b
00000020: 7b2b f63e 4cd3 d63c 4b20 9c3d c111 163d
00000030: 195d abbd f013 babd 6b53 84be 81e0 8a3d
00000040: 5aa0 9cbc b47f e0bd 279c 643c 1a8f 33bd
00000050: bb42 f63d 6f6e 813c 6edc 83be e3f7 fabc
00000060: c42a 3b3e 06c3 5b3e 4b8e 89be 18ac b8bb
00000070: d67f 5f3e 7bfa 8a3b 8072 a3be d344 023e
00000080: a2db ab3e 6ccc ea3c 476c 913e 7df2 173e
00000090: f1c5 323e e83c 833c b9e5 283d 4167 1f3d
000000a0: 9927 cabd 4f4c f63d 2ff1 f0bd 7e2d 503c
000000b0: ba77 903e e5e1 97bc 666f ce3e 5dc8 893e
000000c0: 6deb f9be 3446 c23d 9c51 153e 386f fe3b
000000d0: f59b b8bd 70a9 1d3d 8dc2 a73c 707b 2ebe
000000e0: 5b11 de3d 15bf 69be 5c83 eeb9 35ef 173e
000000f0: 990c b13c 93d5 e7bd fef8 c43d 330c 373e
00000100: d4c1 cf3b 365d 5a3d bf66 3b3e 91c2 893e
00000110: 55cd 05bd ff1d 483e 6d84 453e baf2 3e3e
00000120: d870 a3bd c3f1 33be 0a66 813d 99a9 743c
00000130: e731 4abe 25c0 a93e ad5d bc3d 1f19 35be
00000140: 97f3 0a3f 6282 e23d d34e 0abf c421 bf3d
00000150: e813 c43e 4d9a 7f3e 98cc 38bf 70d7 56bd
00000160: 1ede 363e 1545 803e 0ddc 4ebe d203 133e
00000170: e766 bd3e 9957 d4bd 6b44 753e bfcb 0e3d
00000180: a1b9 bd3e b6ea 84be 898c 2e3d 39e4 a53c
00000190: 5cd4 8cbd 0455 3cbe 81d9 9f3d 9eb3 07bd
000001a0: bedd 06be bc9b 8f3d ca0e 6cbc 9e3c 773e
000001b0: 9709 96be 6f05 fc3d e0b0 753e ad35 023e
000001c0: db60 36be 394a e1bd 5e78 8cbb 7c94 57be
000001d0: 7a81 a33d d9d0 293d e094 96be e416 32be
000001e0: 1d1c 283e 8a31 713e b11f 70be 399f 193e
000001f0: 7281 683e 8f3d 223e d03e 78be 193f 2cbc
00000200: 3c34 833c b201 5d3c d832 4a3d 8e58 92bc
00000210: 9036 ff3d f7db 3c3e 13f7 f33b d979 0e3d
00000220: 0dba 8b3e 9fff 4fbe d22e 8e3c e74f 243d
00000230: 577a fa3d 5e1c c5bc bf3b 323e 8309 91bd
00000240: 7e39 623d b724 21be b4e5 6fbe 6c32 6fbe
00000250: 8f66 313e 833c 40be c79a 9ebb 7151 6a3e
00000260: f9bb 723e e3c7 25be 27df 383e 292e 83bc
00000270: fd49 a83e 4ddd acbe fe80 023d 5ec0 9b3e
00000280: 42e8 8b3d b5c5 a33d 121d d8bd be74 95bc
00000290: 8744 c53e b302 e13e 2e03 49be 5da5 babc
000002a0: ae44 41bd 5ac3 f33d 3230 583e 0da7 0b3e
000002b0: e91d c23e f926 82bd beef f63d 96ad 4c3e
000002c0: 2bff da3d 359d 63be 5549 653b e085 873d
000002d0: 1b10 193d 9886 153e dbd9 10be 5a35 9c3e
000002e0: 7220 b53e 5ef9 b63e 896d 383e cbf4 e03e
000002f0: c2d7 e0bd 794f 2dbb 3651 883d d9ce 61bd
00000300: 4c1e 0c3d 14d8 4e3e 4639 1d3d 264a 61be
00000310: bcb6 963e e95b 12be 1af9 bb3e 1b5f aa3d
