saved_models/ambimg_brainlike/big_rnn_2.pt (torch, 118160 bytes, 14 tensors)

cell_list.0.conv_gates.weight f4 [20, 11, 3, 3]
1.1405902 1.2845275 1.3796748 1.3121592 1.4136218 1.6039728 1.4008805 1.3468441
1.5617732 0.2008013 -0.20377664 -0.042721424 -0.0875398 0.089030385 -0.3364262 0.11755867
-0.32247892 0.3741565 -0.24502341 -0.31323114 -0.37722558 -0.10479651 -0.14125793 -0.5010643
0.047894865 -0.40701973 -1.2353196 -0.49850023 -0.4901621 -0.3055129 -0.46829054 -0.17818864
0.04751222 -0.48452428 -0.4605841 0.2412208 -0.12533611 -0.22433181 0.7070186 0.021768885
-0.08329764 0.18242362 -0.0183932 -0.030739231 0.30120736 -0.058652736 -0.09920852 -0.12367962
-0.124620594 0.12888958 -0.42265686 -0.41040462 -0.11179384 -0.48843402 -0.50094676 -0.32860094
-0.588229 0.32598868 0.5875605 -0.13973397 -0.10835342 0.057484366 -0.8370993 0.5978786
0.613195 0.6194136 0.90270805 0.38435176 0.29441223 -0.052797545 -0.24846445 0.11802093
-0.5263556 -0.3417324 -0.34092003 -0.048130613 -0.018457228 -0.053928696 0.30682465 -0.19844386
-0.4080504 0.7617431 0.38197643 0.5185813 0.23398377 0.5594494 0.5327019 -0.18957812
0.2515568 0.79951394 0.12184767 -0.08690469 -0.1612315 0.32294235 0.34220788 0.19614281
0.66832143 0.28680092 0.21721856 1.309844 1.5259333 1.5823419 1.2759181 1.4573199
1.8479987 1.6831024 1.3350605 1.3175018 0.14726193 0.13481596 0.118792415 0.07926453
0.22898111 0.26859632 -0.22873752 0.1682177 0.059070375 -0.7144894 -0.31711698 -0.033038545
-0.56413686 -0.96972346 -0.38200527 -0.26446927 0.2548682 0.043963585 -0.08357553 -0.0882623
0.2597094 -0.12398033 -0.18047231 0.05063753 0.05022741 -0.2872594 -0.58560103 0.40801486
0.066833094 0.014777672 0.18383905 -0.11855527 0.013670344 -0.014181705 -0.19760668 0.17222571
-0.68460757 0.028140038 -0.12699357 -0.22692864 0.11051784 -0.30681807 -0.24863061 0.017016845
0.03645259 -0.25521004 0.13745259 -0.46517995 0.15773219 0.20719357 -0.26298147 0.6714464
0.19396177 -0.1848768 0.053789392 0.23523083 0.50641716 -0.21540046 0.14677125 0.24517035
-0.03990085 0.27020878 0.65347296 0.83517355 -0.098971635 -0.31103376 -0.015443749 -0.53876054
-0.457064 -0.09882982 -0.48693824 -0.25568292 -0.32737732 0.35084122 0.4392188 0.058086403
0.62660885 0.53348553 0.00958118 0.6316673 0.42159083 0.20027675 0.029107355 0.017304573
0.7725407 0.5270065 -0.03411364 0.38174608 0.33167374 -0.2454087 0.8221664 1.2065159
1.1992114 0.43738973 0.55395895 0.93513614 -0.042045705 0.12010722 0.71374714 -0.30285126
-0.24126707 0.073379554 0.004966241 0.18800518 0.43957216 0.21981753 0.49012023 0.40186659
-1.3742478 -0.96387786 -0.6731584 -0.48282003 -0.32966885 -0.5200893 -0.07436396 -0.08686865
-0.4550335 -0.58689404 -0.74033564 -0.50777906 -1.0933712 -2.3022456 -0.59157246 -0.8617146
-0.71673673 -0.28927973 -0.30807313 -0.38268903 0.0018393296 -0.31008038 0.29467756 0.7203922
-0.045007758 0.4787502 1.1394296 -0.72524714 -0.24957597 -0.10232702 -0.30051446 -0.20700642
-0.5282163 0.07558176 -0.1510586 -0.48231384 0.62112623 0.64177567 0.32350275 0.40236792
00000000: dcfe 913f 666b a43f 2f99 b03f d5f4 a73f
00000010: 8ff1 b43f fb4e cd3f 0d50 b33f 6365 ac3f
00000020: 2fe8 c73f db9e 4d3e d3aa 50be a9fc 2ebd
00000030: 1148 b3bd 9055 b63d 0e40 acbe 9ac2 f03d
00000040: f51b a5be 7191 bf3e 6be7 7abe d55f a0be
00000050: b623 c1be 8d9f d6bd eba5 10be c045 00bf
00000060: 682d 443d e464 d0be f41e 9ebf 6c3b ffbe
00000070: 87f6 fabe 306c 9cbe c7c3 efbe 1577 36be
00000080: 2c9c 423d 9113 f8be aed1 ebbe 9602 773e
00000090: 1c58 00be 3db7 65be 2cff 343f a954 b23c
000000a0: f497 aabd 42cd 3a3e 56ad 96bc d7d0 fbbc
000000b0: da37 9a3e da3d 70bd d62d cbbd be4b fdbd
000000c0: 1539 ffbd a1fb 033e 7b66 d8be 8e20 d2be
000000d0: 2bf4 e4bd 0614 fabe 0c3e 00bf 623e a8be
000000e0: 2d96 16bf fde7 a63e 5d6a 163f 6c16 0fbe
000000f0: 66e8 ddbd ba74 6b3d 244c 56bf 920e 193f
00000100: 59fa 1c3f e491 1e3f e017 673f c1c9 c43e
00000110: 33bd 963e 3d42 58bd 776d 7ebe f5b4 f13d
00000120: 3ebf 06bf 8df7 aebe 128d aebe 9b24 45bd
00000130: 9d33 97bc 56e4 5cbd 1f18 9d3e de34 4bbe
00000140: fbeb d0be 9901 433f 6a92 c33e bec1 043f
00000150: 7199 6f3e 1338 0f3f 275f 083f c420 42be
00000160: 0ecc 803e f2ac 4c3f 458b f93d 16fb b1bd
00000170: df19 25be b358 a53e df35 af3e a9d9 483e
00000180: 1d17 2b3f 92d7 923e 8b6e 5e3e f8a8 a73f
00000190: c851 c33f 2e8a ca3f 4951 a33f 7589 ba3f
000001a0: 398b ec3f e66f d73f 43e3 aa3f e6a3 a83f
000001b0: d5cb 163e 320d 0a3e 7049 f33d 7155 a23d
000001c0: 067a 6a3e 7585 893e 2b3a 6abe 4341 2c3e
000001d0: c7f3 713d c7e8 36bf 285d a2be 6d53 07bd
000001e0: 466b 10bf cc3f 78bf 3296 c3be 8468 87be
000001f0: 167e 823e 2913 343d a629 abbd ddc2 b4bd
00000200: a1f8 843e 66e9 fdbd bccd 38be 4c69 4f3d
00000210: 42bb 4d3d aa13 93be f3e9 15bf 53e7 d03e
00000220: cadf 883d 0c1e 723c 4e40 3c3e 1bcd f2bd
00000230: 94f9 5f3c 625a 68bc 6859 4abe f05b 303e
00000240: 7142 2fbf f085 e63c 9a0a 02be fb5f 68be
00000250: 2d57 e23d 4217 9dbe 0699 7ebe e966 8b3c
00000260: 504f 153d e4aa 82be 5fc0 0c3e 112c eebe
00000270: 8c84 213e 8d2a 543e 82a5 86be e9e3 2b3f
00000280: ea9d 463e 5850 3dbe 4452 5c3d 5ae0 703e
00000290: 8ea4 013f f091 5cbe 344b 163e f00d 7b3e
000002a0: 136f 23bd ce58 8a3e 014a 273f efcd 553f
000002b0: a4b1 cabd d13f 9fbe c707 7dbc 36ec 09bf
000002c0: 4b04 eabe 4a67 cabd f84f f9be dfe8 82be
000002d0: 009e a7be 76a1 b33e 49e1 e03e 02ec 6d3d
000002e0: 7069 203f 8292 083f 62fa 1c3c f3b4 213f
000002f0: c1da d73e 5915 4d3e 8c72 ee3c 52c2 8d3c
00000300: 3ac5 453f e6e9 063f bfba 0bbd 3974 c33e
00000310: 24d1 a93e 6b4c 7bbe 7f79 523f 1d6f 9a3f
00000320: c27f 993f 8cf1 df3e 41d0 0d3f 1565 6f3f
00000330: 1e38 2cbd c6fa f53d 22b8 363f 520f 9bbe
00000340: b70e 77be 0548 963d d9bb a23b 6e84 403e
00000350: 9a0f e13e d917 613e 0af1 fa3e 75c1 cd3e
00000360: 5ae7 afbf b3c0 76bf 1c54 2cbf 3034 f7be
00000370: 5bca a8be 9324 05bf 224c 98bd 31e8 b1bd
00000380: 27fa e8be b03e 16bf a386 3dbf cffd 01bf
00000390: 96f3 8bbf fe57 13c0 4b71 17bf 5499 5cbf
000003a0: 0f7c 37bf 791c 94be c3bb 9dbe d1ef c3be
000003b0: a915 f13a dbc2 9ebe fadf 963e a06b 383f
000003c0: 0e5a 38bd bf1e f53e d4d8 913f cca9 39bf
000003d0: d890 7fbe d490 d1bd 08dd 99be 7ef9 53be
000003e0: 2f39 07bf 9cca 9a3d 1baf 1abe d7f1 f6be
000003f0: 2102 1f3f 694b 243f 27a2 a53e 2b03 ce3e

cell_list.0.conv_can.weight f4 [10, 11, 3, 3]
1.1978364 -0.041042365 0.3155577 0.11365172 -0.8825628 -0.4296201 -0.32479945 -1.3497417
-0.80471486 0.33179346 1.0409355 0.9458463 0.04505671 -0.7209176 0.62261033 0.09004961
0.2252526 0.2470507 0.53741485 1.0566396 1.2325513 0.29842904 0.51502186 0.45796582
-0.17164557 0.35695058 0.6348329 0.028732385 -0.3280817 -0.034870964 -0.087342456 -0.0019244917
-0.08118236 0.21973051 -0.08219598 0.0781074 -0.40559137 0.06704651 0.19677487 0.32064974
0.38874045 0.28799352 0.81482595 0.76809454 0.7925716 0.2680795 0.3174696 0.27637416
0.25014845 -0.07019372 -0.16777189 -0.22149618 -0.7050234 -0.44862866 0.5615053 0.28379986
-0.19182335 -0.19225922 -0.32982162 -0.47916335 -0.8171795 -1.1758914 -0.95762926 0.51290876
0.6838756 0.80207586 0.1985789 0.08178998 -0.11645409 -0.013569977 -0.014185959 0.16756852
-0.19974753 0.03860275 -0.13712661 -0.24874981 0.093473084 0.22391146 0.1440298 0.42091876
0.63422364 0.8935633 0.93433195 0.015862094 0.31306455 0.51526314 -0.102848075 -0.113831855
-0.19343174 -0.46702614 -0.80900294 -0.31802472 -0.45406836 -0.3424386 0.1571561 0.46604905
-0.19262838 0.31278872 0.57550657 -0.27190202 0.04377542 -0.08119159 0.13590093 0.35642865
0.3076627 0.013326255 0.355318 0.1609051 -0.37738252 -1.0769286 -1.022933 -0.011063077
-0.5606587 -0.3397734 0.9319016 0.18465701 0.19774134 0.71614426 1.1311508 1.3717403
0.3409525 0.08065361 0.6657513 0.04956563 -0.025325699 -0.1081837 0.41654256 1.3340287
1.2956412 -0.020114783 0.70083725 0.7640091 -0.36564776 -0.03041735 -0.33364707 -0.29004365
-0.27917755 -0.43448824 0.0061283857 0.008565662 0.14376041 0.25699508 0.099203214 0.3365647
0.6223803 1.0318309 1.1733648 0.062609866 0.37476918 0.46084175 -0.3375692 -5.6087272e-05
-0.2931383 0.5872227 0.75044626 0.9104858 0.0812893 0.44202173 0.24861304 -0.7527172
-0.55962676 -0.5403533 0.260467 -0.28635117 -0.07210838 0.47463945 -0.45000494 -0.23639338
0.6966201 -0.030895852 -0.08809627 -0.07792495 -0.097963564 -0.16238794 -0.17613842 0.022363652
0.17421347 0.16209288 0.4929667 0.60149914 0.14820196 -0.721982 -0.74044496 0.18362305
-0.25585926 -0.41284767 -0.024911985 -0.19807422 -0.17443532 -0.58196235 -1.4421206 -1.8587946
-0.35998785 -1.2889038 -1.4304059 0.15569308 -0.06987177 -0.22515437 -0.7229969 0.080625914
-0.064682715 -0.14327605 0.50854886 0.09099889 0.36103427 0.8379426 0.7258351 0.22659875
1.1131955 1.7041123 0.27120408 1.2468567 0.995048 -0.18181643 0.12581162 0.26323414
-0.12428016 -0.48989964 -1.0164162 -0.8680552 -1.4059905 -1.6837114 -0.2289231 -0.8265571
-1.0964916 -0.4229099 -0.39898118 -0.23535256 -0.051668055 -0.93286115 0.17010315 -0.30804995
-0.18725131 -0.06692505 0.089523196 0.15990642 0.48830304 0.03703103 0.14624576 0.2287112
-0.525254 -0.35367626 -0.0695342 0.29627404 -0.32541224 -0.8438525 0.110030726 -0.502342
-0.7548923 0.2527321 -0.21633214 -0.5088437 0.102987565 -0.46523893 -1.0209199 0.07046078
00000000: b452 993f 0a1c 28bd c790 a13e 3cc2 e83d
00000010: a3ef 61bf 2af7 dbbe 1d4c a6be 56c4 acbf
00000020: cb01 4ebf d5e0 a93e 603d 853f fc22 723f
00000030: 628d 383d 0e8e 38bf 6463 1f3f ee6b b83d
00000040: 9ea8 663e dcfa 7c3e 0594 093f f73f 873f
00000050: 3ec4 9d3f b1cb 983e 79d8 033f 7f7a ea3e
00000060: dbc3 2fbe 3ac2 b63e 6984 223f 2e60 eb3c
00000070: 53fa a7be dbd4 0ebd 9ae0 b2bd 3a3f fcba
00000080: f042 a6bd 0901 613e 5e56 a8bd c6f6 9f3d
00000090: aca9 cfbe ae4f 893d 5a7f 493e 342c a43e
000000a0: fd08 c73e e373 933e 6f98 503f d8a1 443f
000000b0: f9e5 4a3f b741 893e 608b a23e ea80 8d3e
000000c0: 7513 803e bac1 8fbd 65cc 2bbe e5cf 62be
000000d0: 6a7c 34bf a8b2 e5be d0be 0f3f 374e 913e
000000e0: 576d 44be 9adf 44be 61de a8be e654 f5be
000000f0: ad32 51bf 9c83 96bf 3127 75bf fd4d 033f
00000100: 7912 2f3f d854 4d3f 4458 4b3e 8181 a73d
00000110: 7b7f eebd 9c54 5ebc 396c 68bc 1597 2b3e
00000120: 9e8a 4cbe eb1d 1e3d eb6a 0cbe 45b8 7ebe
00000130: d16e bf3d 0c49 653e 8c7c 133e aa82 d73e
00000140: 7b5c 223f 90c0 643f 6130 6f3f 39f1 813c
00000150: ff49 a03e 49e8 033f 03a2 d2bd ad20 e9bd
00000160: f812 46be 0d1e efbe d11a 4fbf 23d4 a2be
00000170: a67b e8be 1d54 afbe 87ed 203e fb9d ee3e
00000180: 6040 45be d825 a03e 6654 133f be36 8bbe
00000190: db4d 333d c747 a6bd 9d29 0b3e d17d b63e
000001a0: f785 9d3e 5d56 5a3c 3eec b53e 4ec4 243e
000001b0: 4838 c1be ccd8 89bf 78ef 82bf e841 35bc
000001c0: 5487 0fbf c7f6 adbe 1a91 6e3f ba16 3d3e
000001d0: b57c 4a3e 3b55 373f 8dc9 903f 3095 af3f
000001e0: 5391 ae3e b82d a53d ad6e 2a3f 5405 4b3d
000001f0: d777 cfbc 6a8f ddbd 1145 d53e 74c1 aa3f
00000200: 92d7 a53f c2c7 a4bc 126a 333f 1a96 433f
00000210: 2f36 bbbe ce2d f9bc cad3 aabe 9a80 94be
00000220: 5cf0 8ebe 3e75 debe a0d0 c83b fe56 0c3c
00000230: ee35 133e dc94 833e 0e2b cb3d 3552 ac3e
00000240: 5154 1f3f 0913 843f d130 963f 9a39 803d
00000250: bfe1 bf3e 73f3 eb3e dfd5 acbe 403f 6bb8
00000260: 3916 96be 3a54 163f 3f1d 403f 9915 693f
00000270: 017b a63d ac50 e23e 6b94 7e3e 13b2 40bf
00000280: b343 0fbf 9854 0abf ee5b 853e 9f9c 92be
00000290: 8fad 93bd f103 f33e 0c67 e6be 1b11 72be
000002a0: b255 323f 4c19 fdbc d16b b4bd 1e97 9fbd
000002b0: 1fa1 c8bd 0649 26be a15d 34be fa33 b73c
000002c0: 0465 323e adfb 253e 2266 fc3e d9fb 193f
000002d0: 41c2 173e d0d3 38bf cd8d 3dbf ae07 3c3e
000002e0: fcff 82be c560 d3be 3814 ccbc f8d3 4abe
000002f0: 2c9f 32be 7cfb 14bf 6897 b8bf fbec edbf
00000300: 5450 b8be cdfa a4bf 8a17 b7bf 026e 1f3e
00000310: ee18 8fbd de8e 66be 5316 39bf 331f a53d
00000320: 5f78 84bd f5b6 12be 4230 023f a05d ba3d
00000330: 7cd9 b83e 6883 563f 54d0 393f 8109 683e
00000340: 317d 8e3f 5a20 da3f 43db 8a3e 0099 9f3f
00000350: 77bb 7e3f 162e 3abe c3d4 003e a0c6 863e
00000360: 9986 febd 20d4 fabe ed19 82bf de38 5ebf
00000370: 7ff7 b3bf db83 d7bf d16a 6abe 3f99 53bf
00000380: d659 8cbf a587 d8be 4347 ccbe 4300 71be
00000390: e2a1 53bd fdcf 6ebf 852f 2e3e b9b8 9dbe
000003a0: cfbe 3fbe 0010 89bd f057 b73d 82be 233e
000003b0: db02 fa3e d9ad 173d 73c1 153e 4533 6a3e
000003c0: 0c77 06bf 0e15 b5be f267 8ebd 3bb1 973e
000003d0: 6f9c a6be b806 58bf ca57 e13d 7c99 00bf
000003e0: 9f40 41bf 1a66 813e 2c86 5dbe 9543 02bf
000003f0: 25eb d23d cc33 eebe 81ad 82bf be4d 903d

cell_list.1.conv_gates.weight f4 [20, 20, 3, 3]
-0.08488418 0.2817848 0.44872025 -0.18709753 -0.099662356 -0.8035954 -0.54468495 -0.5406852
-1.3317661 0.4644708 0.81354415 1.523211 -0.38380632 -0.11895712 0.3990818 0.3433305
0.061021257 -0.61213 1.1192158 0.735886 1.0026529 -0.6428404 -0.40002647 -0.7990588
1.0941374 1.237079 0.71109027 0.3906105 0.5578152 0.4826319 0.121835254 -0.4882738
-0.81737 1.3806885 1.0215278 0.88691926 0.6786005 0.92818666 1.6226273 -1.4536157
-0.27478433 -0.18220074 -1.0188934 -0.78849214 -0.9604416 -1.3824577 -1.0659934 -0.98382455
-2.4455135 -2.3581681 -2.2028403 -1.0772842 -0.9857062 -2.1969655 1.6862707 1.3050503
1.6625904 1.143136 0.24564505 0.8872703 1.1538309 0.75706464 0.1691024 -0.42685172
-0.24567005 -0.23670807 -0.63523567 -0.55334824 -0.80318695 -0.9693342 -0.58288354 -0.30294874
0.9698245 1.0275328 0.7355529 0.68222624 0.34101447 0.5879616 0.21150386 -0.0062364987
0.24416599 0.5706859 0.4800755 1.0016583 0.124828346 -0.48191354 -0.012209065 -1.598869
-0.12230893 0.91463375 -0.13743775 -0.19267416 0.15013914 -0.30124477 -0.04549895 -0.5376374
-0.12170635 -0.275263 -0.51238585 -0.040368102 0.82860553 1.0196391 -0.13372229 0.5542709
0.14090669 -0.005222839 -0.1061839 -0.17513625 0.17905346 0.48042327 0.42716384 0.087757654
0.0035933075 0.062442057 -0.18305954 -0.62013936 -0.8001155 0.25353166 0.18363473 -0.123519264
-0.36629394 -0.018576128 0.32963896 -0.32556745 -0.03635578 0.84903324 -0.11209363 -0.31940377
-0.19308384 -0.07973681 -0.30234733 0.004235365 -0.16375479 -0.3309641 -0.15601227 0.45514074
0.08339004 -0.33637473 0.3331161 0.21364631 0.69897455 0.13250855 0.32596818 1.1010065
0.17763923 -0.12140387 0.28218538 -0.46580505 -0.4254682 0.7214105 -0.8739514 -0.502816
0.35951862 0.7605835 0.45921567 0.9463377 -0.5971869 0.088150084 0.92998064 -1.0102614
-0.31569308 -0.31741297 0.15431261 0.50516486 1.2206117 -0.6472377 -0.54201114 -0.1350695
-0.12779051 -0.37062442 -0.27498367 -0.45611483 -0.39106554 -0.18783884 -0.07948573 -0.20096913
-0.27564144 -0.729996 -0.5487212 -0.48004845 0.3573345 0.69915295 0.9003962 -0.6633841
-0.11844483 0.48761326 -0.45184764 -0.05593455 0.02675697 -1.4259397 -0.3673683 -0.7561974
-1.6053724 -0.6157251 0.08483239 -1.1489607 -0.4214179 0.31699908 -1.832372 -0.24530868
0.12514013 -1.1598065 0.16324694 0.84856033 -0.2065926 -0.17998604 0.36397964 -1.3426006
-0.31838515 -0.1842207 0.19229463 1.3698938 1.6042619 0.7353605 0.681795 1.1987116
1.1132418 1.3652848 1.7188523 0.10325671 0.6224779 0.7035411 -0.44523856 -0.89890593
0.11980424 -0.9328989 -0.04534646 -0.4410065 -0.15068257 0.68903935 0.66380465 -0.9548481
-0.49692 0.05252235 -1.2859802 -0.5394371 -0.8749915 -1.1240313 -0.57986236 -0.2870141
-0.7155637 -0.9262991 -0.49595565 -0.7268366 -0.17288178 0.044670157 -1.1933622 -0.8911258
-1.0806079 -0.5719215 -0.48473975 -1.0555131 0.52450985 0.085032016 -1.2362154 1.116798
00000000: c2d7 adbd 1946 903e a9be e53e 7f96 3fbe
00000010: c71b ccbd 6eb8 4dbf 7970 0bbf 586a 0abf
00000020: 5077 aabf 1ecf ed3e 6e44 503f 94f8 c23f
00000030: 4382 c4be ca9f f3bd 7354 cc3e 04c9 af3e
00000040: 6df1 793d 8db4 1cbf 7742 8f3f 0663 3c3f
00000050: ee56 803f 3091 24bf 45d0 ccbe 1e8f 4cbf
00000060: b20c 8c3f 9b58 9e3f 030a 363f 19fe c73e
00000070: facc 0e3f 871b f73e c384 f93d 06ff f9be
00000080: 293f 51bf 67ba b03f 6cc1 823f 240d 633f
00000090: c3b8 2d3f a49d 6d3f 40b2 cf3f 1410 babf
000000a0: 88b0 8cbe d592 3abe 196b 82bf 9fda 49bf
000000b0: 80df 75bf 60f4 b0bf 7972 88bf eddb 7bbf
000000c0: 4b83 1cc0 3aec 16c0 56fb 0cc0 73e4 89bf
000000d0: 3e57 7cbf 159b 0cc0 b8d7 d73f e30b a73f
000000e0: c3cf d43f 4852 923f 608a 7b3e 2524 633f
000000f0: bbb0 933f fdce 413f 2e29 2d3e 4f8c dabe
00000100: ee90 7bbe 9a63 72be ce9e 22bf 3ba8 0dbf
00000110: a99d 4dbf 4926 78bf db37 15bf 191c 9bbe
00000120: 6b46 783f 3286 833f 324d 3c3f 61a6 2e3f
00000130: 7399 ae3e a784 163f 7894 583e 8b5b ccbb
00000140: a606 7a3e 7918 123f 75cc f53e 5736 803f
00000150: 01a6 ff3d 5fbd f6be 8808 48bc bda7 ccbf
00000160: 1b7d fabd 7025 6a3f 7bbc 0cbe 604c 45be
00000170: 13be 193e c13c 9abe 1b5d 3abd 9ba2 09bf
00000180: 2e41 f9bd 46ef 8cbe b82b 03bf 0659 25bd
00000190: 7e1f 543f 8983 823f 7fee 08be b3e4 0d3f
000001a0: d849 103e 5924 abbb f276 d9bd eb56 33be
000001b0: ca59 373e 0afa f53e 38b5 da3e 49ba b33d
000001c0: b27d 6b3b 3ec3 7f3d f673 3bbe 74c1 1ebf
000001d0: 5fd4 4cbf e7ce 813e be0a 3c3e abf7 fcbd
000001e0: e18a bbbe f72c 98bc 70c6 a83e c7b0 a6be
000001f0: cce9 14bd 3e5a 593f 5891 e5bd e488 a3be
00000200: c5b7 45be 0d4d a3bd 45cd 9abe d1c8 8a3b
00000210: 56af 27be 2074 a9be aec1 1fbe 3508 e93e
00000220: 66c8 aa3d 4f39 acbe 328e aa3e 19c6 5a3e
00000230: ffef 323f 52b0 073e 4de5 a63e c8ed 8c3f
00000240: 0fe7 353e 98a2 f8bd 9a7a 903e 007e eebe
00000250: f8d6 d9be 5cae 383f 47bb 5fbf 8db8 00bf
00000260: d312 b83e 9ab5 423f 511e eb3e 3043 723f
00000270: 3ee1 18bf 0888 b43d 3613 6e3f 3f50 81bf
00000280: 86a2 a1be f483 a2be 2004 1e3e 7c52 013f
00000290: 013d 9c3f 5fb1 25bf 3ec1 0abf a94f 0abe
000002a0: 84db 02be 7cc2 bdbe a9ca 8cbe e287 e9be
000002b0: be39 c8be d358 40be 6ac9 a2bd daca 4dbe
000002c0: e020 8dbe 05e1 3abf fe78 0cbf e9c8 f5be
000002d0: 8cf4 b63e b0fb 323f 5e80 663f 8ad3 29bf
000002e0: 3493 f2bd 72a8 f93e 9358 e7be a01b 65bd
000002f0: 6f31 db3c 3185 b6bf b317 bcbe 2796 41bf
00000300: d87c cdbf 29a0 1dbf 9bbc ad3d 2511 93bf
00000310: 16c4 d7be b44d a23e 2a8b eabf 3332 7bbe
00000320: bc24 003e 8a74 94bf 352a 273e 403b 593f
00000330: 038d 53be 434e 38be 8a5b ba3e 56da abbf
00000340: 6103 a3be 5aa4 3cbe e2e8 443e ae58 af3f
00000350: 7458 cd3f 9640 3c3f 1e8a 2e3f 626f 993f
00000360: b57e 8e3f a7c1 ae3f 5a03 dc3f 4178 d33d
00000370: b65a 1f3f 451b 343f 4ff6 e3be b31e 66bf
00000380: ed5b f53d 76d2 6ebf 36bd 39bd 9bcb e1be
00000390: 884c 1abe e264 303f 1aef 293f ed70 74bf
000003a0: 4c6c febe ad21 573d 009b a4bf 8d18 0abf
000003b0: 71ff 5fbf 42e0 8fbf dc71 14bf 83f3 92be
000003c0: 2f2f 37bf f021 6dbf e6ed fdbe f711 3abf
000003d0: ec07 31be 0ef8 363d 18c0 98bf d220 64bf
000003e0: 5c51 8abf 7369 12bf cf2f f8be 0e1b 87bf
000003f0: 4746 063f 4425 ae3d 4e3c 9ebf 3df3 8e3f

cell_list.1.conv_can.weight f4 [10, 20, 3, 3]
0.20081095 0.1642576 0.2096078 -0.06227601 -0.021365162 -0.33651993 0.06954725 -0.22702399
0.06046855 0.17964421 0.2119533 0.5785855 -0.31038237 0.11918304 -0.32408988 -0.09615598
0.15118918 0.2529133 -0.106632605 -0.21797255 -0.25921044 0.064019784 -0.07600612 0.27906117
-0.4171603 -0.045830783 -0.48253754 0.062573366 0.20274898 0.20624422 -0.1590345 0.1596592
0.25098547 0.45883408 0.16351062 -0.22765549 0.043097746 0.26340103 0.2644263 0.019686697
-0.06969876 -0.04799187 0.042173695 -0.15875553 -0.08660911 -0.2426437 -0.03660644 -0.43222934
0.14668147 0.21581383 -0.42344958 0.15025856 0.16462503 0.7011208 0.109752476 0.11517659
0.18746431 0.020396248 0.011006537 0.2501516 -0.3182582 0.17262402 0.39032933 0.099590845
0.26296258 0.6318345 -0.3652262 -0.046310976 -0.015161538 -0.546871 -0.14101419 -0.13643095
-0.40452045 -0.20056285 -0.038222797 0.16319254 -0.015125231 0.48681954 0.17765027 -0.3394316
-0.16926657 0.28616762 0.056901414 -0.058245454 0.266789 0.050220653 -0.0137074925 -0.43698785
-0.21766412 -0.08426621 -0.32991466 -0.29939398 -0.43846154 0.9234488 0.027882563 0.83969456
-0.28216112 -0.09067459 -0.44029582 -0.33376092 -0.29116455 -0.19441988 0.6050793 -0.021817317
0.5815089 0.5417955 0.5161625 0.52459294 -0.11539378 -0.0008141521 -0.2809087 0.21431662
0.25614303 0.15865736 0.3523583 0.49754286 0.5468021 -0.14991266 -0.18383172 -0.10429903
-0.19750515 0.074635364 0.23881687 0.16568573 0.26715162 0.22624438 0.03994254 -0.20579264
-0.14254558 -0.008260679 0.2802844 0.40780315 0.16034055 0.5463436 0.07314148 -0.06561298
0.024408467 -0.2151987 0.5876884 0.090322986 -0.2138368 0.6052328 0.4728194 0.4452495
-0.36530513 -0.07511407 -0.011309158 -0.12938921 0.0835245 0.17100807 0.20526046 0.1100175
-0.12848638 -0.44398648 -0.22048041 0.21169169 0.15249375 0.13944405 0.6906328 0.092235334
0.0785482 0.47993276 -0.07865469 -0.023762554 -0.19147661 0.022223432 0.14829898 -0.07178641
0.6935317 0.0073079593 -0.031698525 0.16603027 0.034880888 -0.124068044 0.08626261 -0.11020166
0.34594473 -0.31316254 -0.07495109 0.4655779 -0.29202086 0.04610237 -0.0029978545 0.21493849
0.049170855 -0.41205186 0.13161999 0.333099 0.16193575 -0.10953206 -0.29609188 -0.023958214
-0.12234214 0.1964167 0.4275724 -0.28391904 -0.10509904 0.07451389 -0.24855891 -0.18675503
-0.2815034 -0.28018385 -0.1372661 -0.122540645 -0.5000669 -0.46782857 -0.14369737 -0.07602977
-0.21082437 0.026837204 -0.25571996 -0.15017946 0.40193847 -0.27673104 -0.119453296 0.054233596
-0.33497497 -0.19413948 -0.053487964 -0.13798407 0.2029906 0.16813028 0.1071023 0.24905263
0.31759956 -0.03652193 0.02372006 0.49736655 0.20344378 -0.051941816 0.2737712 -0.13722146
-0.08119053 0.04831735 -0.0011485246 0.25590762 0.1414287 -0.046357866 -0.20206764 -0.14748527
0.2577973 -0.15637709 -0.1163738 -0.16119456 0.26274744 0.060089692 0.21165296 -0.042379964
0.16813244 0.49298987 0.07755929 0.27437776 0.5965703 0.23124327 -0.0799565 0.9547947
00000000: 63a1 4d3e 2533 283e 6da3 563e 2115 7fbd
00000010: fe05 afbc 574c acbe ca6e 8e3d fa78 68be
00000020: dfad 773d a7f4 373e 490a 593e 2e1e 143f
00000030: 70ea 9ebe 3d16 f43d 1cef a5be 6ded c4bd
00000040: 56d1 1a3e da7d 813e 3262 dabd 3234 5fbe
00000050: 3bb7 84be ce1c 833d 19a9 9bbd 1be1 8e3e
00000060: 0996 d5be 0fb9 3bbd 290f f7be 7726 803d
00000070: 6e9d 4f3e af31 533e f1d9 22be b47d 233e
00000080: 2b81 803e 4dec ea3e 546f 273e 851e 69be
00000090: 4387 303d 80dc 863e e262 873e ff45 a13c
000000a0: 39be 8ebd 2093 44bd 53be 2c3d cf90 22be
000000b0: 1e60 b1bd 9777 78be a2f0 15bd 2a4d ddbe
000000c0: ab33 163e 4dfe 5c3e 62ce d8be 61dd 193e
000000d0: 7793 283e a77c 333f e8c5 e03d b4e1 eb3d
000000e0: a5f6 3f3e 0816 a73c c354 343c df13 803e
000000f0: bdf2 a2be 5ac4 303e 3fd9 c73e 49f6 cb3d
00000100: 08a3 863e e8bf 213f eefe babe 94b0 3dbd
00000110: 1968 78bc bdff 0bbf 0666 10be 8eb4 0bbe
00000120: 4e1d cfbe 5960 4dbe 828f 1cbd f21b 273e
00000130: d1cf 77bc 6940 f93e f4e9 353e fbc9 adbe
00000140: 3754 2dbe 9084 923e 7511 693d c992 6ebd
00000150: 9198 883e 2cb4 4d3d 6495 60bc dfbc dfbe
00000160: 58e3 5ebe c393 acbd 93ea a8be 2b4a 99be
00000170: 087e e0be 2467 6c3f f969 e43c 39f6 563f
00000180: 6c77 90be 99b3 b9bd 746e e1be b6e2 aabe
00000190: 8513 95be 0116 47be 7ae6 1a3f 3bba b2bc
000001a0: c4dd 143f 1cb3 0a3f 3a23 043f b94b 063f
000001b0: 9353 ecbd d36c 55ba 44d3 8fbe d175 5b3e
000001c0: 2e25 833e 1377 223e 4f68 b43e f0bd fe3e
000001d0: 39fb 0b3f b482 19be 623e 3cbe bb9a d5bd
000001e0: ca3e 4abe 6dda 983d 698c 743e 85a9 293e
000001f0: 19c8 883e 9bac 673e ca9a 233d 4ebb 52be
00000200: 78f7 11be cd57 07bc 7081 8f3e 93cb d03e
00000210: 5030 243e 2ddd 0b3f 33cb 953d 1960 86bd
00000220: 44f4 c73c 0c5d 5cbe bf72 163f 42fb b83d
00000230: 09f8 5abe 89f0 1a3f 6215 f23e bef7 e33e
00000240: 4609 bbbe 68d5 99bd 0c4a 39bc 9b7e 04be
00000250: e50e ab3d bd1c 2f3e cc2f 523e db50 e13d
00000260: ef91 03be 3252 e3be 9ec5 61be b5c5 583e
00000270: 5227 1c3e 6cca 0e3e 50cd 303f e1e5 bc3d
00000280: e1dd a03d bfb9 f53e b615 a1bd b0a9 c2bc
00000290: 7212 44be ea0d b63c b0db 173e c104 93bd
000002a0: 4b8b 313f 9b77 ef3b 50d6 01bd d703 2a3e
000002b0: 43df 0e3d 6317 febd 74aa b03d 68b1 e1bd
000002c0: ab1f b13e d756 a0be f57f 99bd 3a60 ee3e
000002d0: c283 95be d7d5 3c3d a777 44bb d618 5c3e
000002e0: 6167 493d 76f8 d2be 64c7 063e f48b aa3e
000002f0: 7cd2 253e 5852 e0bd 5b99 97be 0444 c4bc
00000300: 848e fabd 7621 493e c5ea da3e d65d 91be
00000310: 2a3e d7bd bd9a 983d 3a86 7ebe b63c 3fbe
00000320: 3721 90be 4274 8fbe 7c8f 0cbe 97f6 fabd
00000330: 6204 00bf 3a87 efbe 6725 13be 7fb5 9bbd
00000340: 58e2 57be b2d9 db3c baed 82be a5c8 19be
00000350: e1ca cd3e b1af 8dbe eea3 f4bd 0c24 5e3d
00000360: d781 abbe 80cc 46be 3216 5bbd b24b 0dbe
00000370: c5dc 4f3e 582a 2c3e 7358 db3d a707 7f3e
00000380: 699c a23e 0598 15bd 9250 c23c d4a6 fe3e
00000390: 9153 503e f1c0 54bd bd2b 8c3e c883 0cbe
000003a0: 3847 a6bd 6ae8 453d 178a 96ba 5306 833e
000003b0: afd2 103e bfe1 3dbd d2ea 4ebe 6106 17be
000003c0: 02fe 833e 5121 20be 6355 eebd 3010 25be
000003d0: d586 863e 9c20 763d 8ebb 583e 9d96 2dbd
000003e0: e92a 2c3e 2b69 fc3e 68d7 9e3d 3e7b 8c3e
000003f0: d5b8 183f 09cb 6c3e 3cc0 a3bd 6d6d 743f

cell_list.2.conv_gates.weight f4 [20, 20, 3, 3]
0.4510616 -0.41000652 0.32903188 -0.6717171 -0.37403017 0.7894582 -0.16404055 -0.6841692
-0.7387796 -0.6469523 0.42751068 0.3388716 -0.34821838 0.027699638 0.03171897 -1.2724552
-1.5627315 -0.8598286 1.5536373 -0.26751477 -0.81925964 1.2275914 0.6379494 0.71527195
0.093507394 -0.06176333 0.7302705 0.73385715 0.8464755 0.08039451 -0.009291957 0.36813325
-0.22165498 -1.1071502 -1.2707332 0.004699232 0.32193956 0.4795999 -0.05458451 0.31093696
-0.16048792 -0.33935755 -0.27238253 0.074648984 -0.13078085 -0.51971304 -0.8163661 -0.1747384
0.70916027 0.15572263 1.5233502 -1.1791275 -1.1317128 -0.36074823 -0.12371789 -0.7526701
-0.74475867 0.40879595 -0.4729131 -1.0743327 -0.16744278 0.086821616 -0.39962342 0.33083013
-1.2193005 -1.1991161 -0.08986614 0.021081256 1.4893098 -0.8845269 -0.72378635 -1.0265467
0.0020138335 0.08735836 1.5811378 -1.5555663 -0.55858105 -0.42610928 -0.28321126 -0.1662785
0.59423435 -0.6348572 0.0012575843 0.123799086 -0.2576126 -0.73470455 -2.136215 -0.7593603
-1.2707134 -1.5303209 -0.18843529 -0.16688593 0.28042114 -0.21630166 -0.62477875 -0.434595
0.27978805 -0.5115186 -0.17887941 -0.32251984 0.1027995 -0.07469481 0.043842494 -0.0032749418
0.20622225 0.28120393 -0.18718734 0.17544027 -0.45296884 0.3173315 -0.072760455 -0.21124226
-0.11331134 -0.01709673 -0.28010622 -0.4273277 -0.20624484 -0.043151338 -0.12766816 0.5908137
0.080764614 0.23293921 0.6766529 -0.3822264 0.099076316 0.08505219 0.19139673 0.008352664
0.35998568 -0.39698336 -0.31054226 -0.15091087 -0.1410654 0.26694977 0.17194048 -0.30353007
-0.39453065 -0.25207084 -0.011742017 -0.02970367 -0.023035623 -0.10143039 0.12560712 0.30821815
0.2695454 0.04236578 0.04337464 0.6505171 0.559249 0.34937805 -0.084746815 0.40539503
0.44995293 -0.16036926 0.22715144 0.2912201 -0.721912 -0.12110869 0.17219076 0.3765047
0.12759192 0.062116466 0.024069045 -0.04836168 -0.1821467 -0.01832505 -0.3834718 -0.3765741
-0.32792336 0.20999932 0.06615332 -0.361295 -0.06214857 -0.25655746 0.020485237 0.11514236
-0.0708032 0.1878977 -0.026907915 0.10996515 0.45321578 -0.09972528 1.312921 1.3224248
0.7946489 1.8637472 -0.36209026 -0.45788395 1.1231383 0.4473644 1.0982906 -0.32077968
0.07137625 -0.5596529 -1.1806976 0.94097257 0.12949014 0.5633509 1.0763756 1.1683549
0.81300545 0.85060966 0.6125106 0.41353476 0.42440858 0.8253237 1.4087337 -0.7499848
0.05389604 1.2914978 -0.33249876 0.75809145 2.1670256 1.0106884 1.064523 0.021130277
1.5765228 0.4229504 -1.2113619 1.0462502 1.0592779 0.037475668 -0.6396606 -0.6786013
-0.9672231 -0.22465684 0.2119548 0.4665729 -1.2208763 -0.27604932 -0.37460443 -1.1955442
0.110060975 1.2142197 -0.022505999 0.14113688 -1.10274 -0.3947771 -0.44113556 -0.573614
1.0493953 0.09418873 -0.5392944 -0.74912375 -1.0677814 -0.3436401 -0.14208932 -1.0368004
-0.6272814 -0.8190199 -0.62842125 -0.8131236 -0.31660146 0.31709686 1.7634176 -0.72952706
00000000: 8cf1 e63e 60ec d1be de76 a83e a7f5 2bbf
00000010: e280 bfbe ef19 4a3f 3ffa 27be b625 2fbf
00000020: a920 3dbf aa9e 25bf aee2 da3e 9480 ad3e
00000030: ae49 b2be 5aea e23c c0eb 013d d0df a2bf
00000040: 9607 c8bf ba1d 5cbf 96dd c63f b2f7 88be
00000050: 00bb 51bf b721 9d3f a750 233f 101c 373f
00000060: ce80 bf3d 8cfb 7cbd 02f3 3a3f 10de 3b3f
00000070: 9eb2 583f e0a5 a43d 4b3d 18bc f67b bc3e
00000080: 86f9 62be 19b7 8dbf 63a7 a2bf 04fc 993b
00000090: 43d5 a43e 1e8e f53e 0294 5fbd 2133 9f3e
000000a0: f256 24be 46c0 adbe b975 8bbe 91e1 983d
000000b0: 6aeb 05be ea0b 05bf 5efd 50bf a0ee 32be
000000c0: 878b 353f c175 1f3e 24fd c23f a6ed 96bf
000000d0: f7db 90bf feb3 b8be ce5f fdbd fdae 40bf
000000e0: 81a8 3ebf b44d d13e aa21 f2be bc83 89bf
000000f0: 1f76 2bbe 88cf b13d 719b ccbe 9162 a93e
00000100: 0a12 9cbf a37c 99bf bd0b b8bd 99b2 ac3c
00000110: b4a1 be3f 5b70 62bf 104a 39bf e265 83bf
00000120: 85fa 033b f1e8 b23d b962 ca3f cc1c c7bf
00000130: 2bff 0ebf ff2a dabe 1101 91be e944 2abe
00000140: be1f 183f 0086 22bf 87d5 a43a 608a fd3d
00000150: cce5 83be 9915 3cbf bfb7 08c0 7065 42bf
00000160: bda6 a2bf 8ee1 c3bf 2ef5 40be 25e4 2abe
00000170: 5c93 8f3e 2f7e 5dbe 80f1 1fbf 3c83 debe
00000180: 6140 8f3e e2f2 02bf 2a2c 37be 5221 a5be
00000190: 8b88 d23d 98f9 98bd 3094 333d 68a0 56bb
000001a0: ed2b 533e f6f9 8f3e 0aae 3fbe 9da6 333e
000001b0: 88eb e7be 4679 a23e 6f03 95bd e44f 58be
000001c0: c70f e8bd 710e 8cbc 156a 8fbe b2ca dabe
000001d0: d931 53be 75bf 30bd 71bb 02be 913f 173f
000001e0: eb67 a53d 9e87 6e3e 2039 2d3f 2eb3 c3be
000001f0: 86e8 ca3d d82f ae3d 81fd 433e 9dd9 083c
00000200: 0b50 b83e 6741 cbbe 65ff 9ebe 6188 1abe
00000210: 7373 10be a4ad 883e 2a11 303e 4b68 9bbe
00000220: ecff c9be 6e0f 81be 9761 40bc 1c55 f3bc
00000230: 34b5 bcbc bcba cfbd 279f 003e c5ce 9d3e
00000240: db01 8a3e bd87 2d3d 9ba9 313d 4a88 263f
00000250: f12a 0f3f aee1 b23e bd8f adbd f08f cf3e
00000260: 3b60 e63e d737 24be 639a 683e cd1a 953e
00000270: 3acf 38bf d507 f8bd c652 303e 39c5 c03e
00000280: 75a7 023e d66d 7e3d 722c c53c e616 46bd
00000290: aa84 3abe 6a1e 96bc 6a56 c4be 52ce c0be
000002a0: 92e5 a7be 100a 573e 647b 873d a9fb b8be
000002b0: 808f 7ebd 805b 83be a8d0 a73c c2cf eb3d
000002c0: 4501 91bd 4168 403e fd6d dcbc 6935 e13d
000002d0: e60b e83e c53c ccbd cc0d a83f 3745 a93f
000002e0: 1c6e 4b3f 458f ee3f e563 b9be c46f eabe
000002f0: ffc2 8f3f f20c e53e c994 8c3f 3c3d a4be
00000300: b62d 923d 6a45 0fbf 1921 97bf 94e3 703f
00000310: 1099 043e c437 103f adc6 893f a78c 953f
00000320: 2021 503f 8ec1 593f 7fcd 1c3f d4ba d33e
00000330: 154c d93e 6a48 533f 6351 b43f 01ff 3fbf
00000340: 18c2 5c3d cd4f a53f 473d aabe 4812 423f
00000350: 8cb0 0a40 3d5e 813f 4a42 883f 6719 ad3c
00000360: 80cb c93f f48c d83e e80d 9bbf 87eb 853f
00000370: 6b96 873f 1680 193d ccc0 23bf d1b8 2dbf
00000380: ef9b 77bf 710c 66be ae0a 593e a5e2 ee3e
00000390: ad45 9cbf 5656 8dbe 27cc bfbe 9807 99bf
000003a0: a667 e13d 8d6b 9b3f 805e b8bc 3086 103e
000003b0: 9626 8dbf 3920 cabe 85dc e1be 5ed8 12bf
000003c0: 9652 863f 05e6 c03d 330f 0abf 93c6 3fbf
000003d0: 10ad 88bf 98f1 afbe dd7f 11be e0b5 84bf
000003e0: 8495 20bf 4aab 51bf 37e0 20bf de28 50bf
000003f0: 9619 a2be 855a a23e abb7 e13f 49c2 3abf

cell_list.2.conv_can.weight f4 [10, 20, 3, 3]
-0.35886905 -0.21685335 -1.4838327 -0.038600523 0.1050286 -0.20345283 0.5975146 0.5650478
-0.033111528 0.4098656 -0.13837256 -0.067057215 -0.52644056 0.05758516 0.18507789 0.62284905
-0.020008454 -0.21704657 -0.4767869 -0.061558623 0.22672416 0.047682818 0.15014476 0.18256053
0.110768266 -0.27171457 0.43275282 0.12559424 0.3793162 0.20930615 -0.30921984 -0.45441198
-0.4367801 -0.31629106 0.3074106 0.42029637 -0.3204874 0.52956766 0.29459116 0.24076489
0.35435256 -0.1183684 -0.5276349 0.19593935 0.58768 -0.023498397 -0.1702242 -0.67768586
0.21452667 0.3477629 0.5746001 0.11721373 0.017764203 -0.41571313 -0.42177194 -0.27403826
0.5025575 0.039693598 0.1381333 0.072929524 -0.03775832 0.07562547 -0.004953799 0.2870644
0.18848944 -0.8353939 0.40436298 -0.11413304 -0.20122458 -0.07567053 0.019277109 -0.108217485
-0.16421828 0.39680558 0.40707088 -0.017375164 0.060301762 -0.17399636 0.028996317 0.09795802
0.1632411 -0.43252328 -0.33362085 0.6652784 -0.52382284 -0.16941299 -0.11231291 -0.305654
0.21998651 0.3311849 -0.55002975 -0.47015163 -0.48017243 -0.061736826 0.051280033 0.38429147
-0.06812881 -0.00081946613 -0.09182794 -0.2710374 -0.24996799 -0.60265803 -1.1259471 -0.41022095
0.06655993 0.34672335 0.79533863 0.44489166 -0.03118393 -0.05422746 0.45305356 0.118011065
-0.3503513 -0.44079378 -0.5326895 -0.022823274 0.25941026 0.16608247 -0.22076854 -0.029440258
0.06530262 0.37557673 0.1135448 -0.20374048 -0.16561474 0.08736725 -0.07464988 0.019816065
-0.019133927 0.18709181 0.15465958 0.06907777 -0.26458365 -0.38218203 -0.2342022 0.4192461
-0.5978925 -0.006535421 -0.65786886 -0.7338618 -0.20981582 -0.21885608 0.3939296 0.23345056
0.4077298 0.69228363 0.04641131 0.1683996 0.1341435 0.16626996 0.28923982 0.16046427
-0.36984643 -0.8666586 -0.43817633 0.26270613 0.3802908 0.13725747 0.37128305 0.35611427
0.15714814 0.059833545 -0.41210377 0.42538258 0.34120345 0.1471434 0.1602275 0.012629226
-0.080345795 -0.38891727 -0.5409451 0.042163666 0.58864087 -0.08452613 0.1888741 -0.31293237
-0.24959931 0.39882153 0.4860185 0.22682942 -0.13896532 -0.41467255 -0.2530294 -0.36638868
-0.43135655 0.26182774 -0.4353854 -0.20201753 0.090541996 -0.113454945 -0.60314095 0.25782412
0.6532101 0.558836 -0.41747805 0.4488655 -0.0053388136 0.07737209 -0.23880365 0.083778046
0.06374398 0.23140348 0.42790338 -0.3929528 -0.41354644 -0.37256363 0.7123189 0.5117748
-0.099255644 -0.7544728 0.13226058 -0.1467197 0.42869502 -0.54917747 -0.1440591 -0.098434545
-0.21694183 0.43760982 -0.3081741 0.34152186 -0.2332313 -0.031863123 0.2348936 0.10433896
0.3261107 -1.3000392 -0.9045906 -0.08187969 -0.22372063 -0.08317015 -0.19336589 0.32382652
0.47484663 0.63187426 -0.38039628 0.7120329 -0.042176735 0.71820617 -0.19550419 -0.1049747
-0.03563568 -0.2642994 -0.077314034 0.28161085 -0.45797136 -0.31897298 -0.20622131 -0.34312958
-0.0572499 0.084275424 0.07930043 0.79596394 0.19937393 0.10595342 0.27179706 -0.12876448
00000000: afbd b7be ce0e 5ebe 3bee bdbf 951b 1ebd
00000010: 3c19 d73d f055 50be b8f6 183f f9a6 103f
00000020: f49f 07bd e7d9 d13e 89b1 0dbe 4b55 89bd
00000030: cfc4 06bf 6bde 6b3d 0f85 3d3e 0973 1f3f
00000040: c5e8 a3bc 7541 5ebe 6a1d f4be e524 7cbd
00000050: 612a 683e 0f4f 433d 8cbf 193e 26f1 3a3e
00000060: 79da e23d 2c1e 8bbe c791 dd3e c79b 003e
00000070: bc35 c23e 5a54 563e 1052 9ebe b0a8 e8be
00000080: a4a1 dfbe e7f0 a1be ec64 9d3e 1631 d73e
00000090: ed16 a4be bf91 073f a7d4 963e 128b 763e
000000a0: b36d b53e 226b f2bd 1513 07bf 53a4 483e
000000b0: 3272 163f b67f c0bc 414f 2ebe d27c 2dbf
000000c0: e1ac 5b3e fb0d b23e fe18 133f c10d f03d
000000d0: 3c86 913c 5ad8 d4be 7ef2 d7be be4e 8cbe
000000e0: 9ca7 003f c195 223d d172 0d3e 135c 953d
000000f0: 78a8 1abd 87e1 9a3d 7a53 a2bb 1bfa 923e
00000100: 6003 413e 60dc 55bf aa08 cf3e 95be e9bd
00000110: d10d 4ebe 27f9 9abd 07eb 9d3c 21a1 ddbd
00000120: d628 28be 1a2a cb3e 986b d03e 5c56 8ebc
00000130: fbfe 763d 1a2c 32be af89 ed3c 379e c83d
00000140: ad28 273e b173 ddbe 5ad0 aabe af4f 2a3f
00000150: 4119 06bf 997a 2dbe 5004 e6bd ae7e 9cbe
00000160: 2544 613e 1191 a93e c0ce 0cbf b7b7 f0be
00000170: 29d9 f5be c1df 7cbd 030b 523d dac1 c43e
00000180: 1e87 8bbd 71d1 56ba 4910 bcbd 6ac5 8abe
00000190: 9cf7 7fbe cc47 1abf 091f 90bf 7b08 d2be
000001a0: 9350 883d b985 b13e 509b 4b3f d7c8 e33e
000001b0: 7175 ffbc 9d1d 5ebd a3f6 e73e c9af f13d
000001c0: 3f61 b3be b9af e1be 575e 08bf e0f7 babc
000001d0: 6cd1 843e 8611 2a3e 2611 62be b22c f1bc
000001e0: 61bd 853d 984b c03e 2d8a e83d 58a1 50be
000001f0: e996 29be 9aed b23d 09e2 98bd 4d55 a23c
00000200: c1be 9cbc ff94 3f3e 155f 1e3e a578 8d3d
00000210: 8277 87be 5dad c3be b4d2 6fbe 6da7 d63e
00000220: 7c0f 19bf 1627 d6bb 186a 28bf 5ede 3bbf
00000230: f5d9 56be cf1b 60be 24b1 c93e aa0d 6f3e
00000240: f6c1 d03e 8039 313f c919 3e3d f270 2c3e
00000250: ea5c 093e ac42 2a3e 3e17 943e bf50 243e
00000260: 835c bdbe 57dd 5dbf a658 e0be 6b81 863e
00000270: 7ab5 c23e 398d 0c3e d018 be3e 9c54 b63e
00000280: 71eb 203e 0514 753d 44ff d2be bfcb d93e
00000290: 38b2 ae3e c2ac 163e ae12 243e d0ea 4e3c
000002a0: 568c a4bd 2a20 c7be 617b 0abf cfb3 2c3d
000002b0: 2bb1 163f 091c adbd 3668 413e ac38 a0be
000002c0: f696 7fbe 5632 cc3e 6bd7 f83e f945 683e
000002d0: ed4c 0ebe f64f d4be 128d 81be 4c97 bbbe
000002e0: c4da dcbe 490e 863e d6ea debe afdd 4ebe
000002f0: 156e b93d 115b e8bd 7267 1abf 8601 843e
00000300: c738 273f e00f 0f3f afbf d5be b3d1 e53e
00000310: 37f1 aebb 4275 9e3d f288 74be d393 ab3d
00000320: 348c 823d 09f5 6c3e 2716 db3e 1c31 c9be
00000330: 5cbc d3be a9c0 bebe 885a 363f ac03 033f
00000340: 8b46 cbbd 2125 41bf 516f 073e b03d 16be
00000350: ea7d db3e e596 0cbf 3b84 13be 0d98 c9bd
00000360: 0026 5ebe 650e e03e ffc8 9dbe f4db ae3e
00000370: 30d4 6ebe e882 02bd f387 703e aaaf d53d
00000380: fbf7 a63e af67 a6bf 4093 67bf 8ab0 a7bd
00000390: 0517 65be 1d55 aabd b501 46be 97cc a53e
000003a0: 191f f33e 83c2 213f 4dc3 c2be ca47 363f
000003b0: 83c1 2cbd 5cdc 373f 4032 48be fafc d6bd
000003c0: b8f6 11bd 4052 87be d256 9ebd 4c2f 903e
000003d0: 397b eabe 6d50 a3be ae2b 53be aeae afbe
000003e0: df7e 6abd 9898 ac3d 4468 a23d 4bc4 4b3f
000003f0: ae28 4c3e 1bfe d83d fc28 8b3e d6da 03be

cell_list.3.conv_gates.weight f4 [20, 20, 1, 1]
-0.8180667 0.31783053 1.8522243 -1.6745352 -0.15025099 -0.1741371 -0.25943825 0.9966714
-1.8357015 0.8730925 -0.1125072 -2.3911202 -0.28598425 0.29039925 -1.1492777 -1.2349249
-0.05940893 1.6109201 -0.37202436 0.022005338 -4.1188738e-05 0.4278942 0.90171367 -0.42981482
-0.26909432 -0.64654166 -0.783752 -0.13727725 -0.06254488 1.0931226 -0.56959873 -0.6701777
0.017713884 -0.00030075794 -1.2173853 -0.53806645 0.83942246 0.9216993 0.00066177145 0.20224465
1.8758675 -1.533865 -0.5605749 -2.626991 1.7974095 0.62327856 1.4670368 -0.2188312
0.6817652 -0.76798147 -1.4217224 0.62116015 -0.45517585 0.23540628 -0.78775984 -0.165952
-1.095919 -1.224081 1.1013341 -0.7646484 -0.25666642 -0.6488953 -1.1044412 0.43168047
-0.05992215 -1.8950837 0.17258178 0.30926552 -0.3801974 -0.43484846 0.27157936 -0.04633515
-0.3368626 -1.0474812 -0.00379977 -0.61258453 -0.23178412 -0.6406291 -0.18283996 -1.1224306
-1.5189141 -0.79455864 1.7594308 1.0291364 1.1253835 -1.8291451 0.7971531 1.5670395
0.071608394 -1.0581615 0.35579148 -0.9278087 0.121967256 -0.172124 0.3914386 0.4729961
-0.56788594 0.0080795195 0.6687633 0.40947375 0.40792775 0.54905754 -0.3460751 -0.21120694
-0.4213659 -0.0075314287 -1.0541918 -1.4567261 -1.0171952 0.31047314 -0.7543367 -0.081217624
0.38342026 -0.5455377 -0.13926318 0.117726475 0.35231757 -0.7082842 -0.7889667 -0.5088196
2.0935693 -0.44455442 -1.2183954 -0.12508295 0.17989868 0.9723303 0.4401789 0.03474935
-0.4417263 -0.9621626 0.18921769 0.3592051 -0.4362271 -0.7312138 -0.5186466 1.18382
-0.8662075 -1.6131737 -1.3624467 -0.20086588 0.49809462 0.6990151 -1.0493834 0.25002798
-2.0546844 0.3716474 0.13615093 -0.16449882 -0.31210887 0.18730299 -0.49238077 0.24337563
-1.3988299 -0.026034478 0.26283047 -0.34023958 0.31457436 -0.6685886 -0.024903767 -0.5604854
-1.2282683 -0.115279265 1.27751 0.066322275 1.2430445 -1.0005542 0.4783482 1.1913751
0.47672114 0.6796672 -0.4055211 -0.18993637 -0.4049591 0.4774028 -1.058911 -0.47862604
-1.6390009 0.35571772 -1.3785114 -0.1693466 -1.3554385 -0.9485843 -0.49813664 0.51023275
0.33176613 -2.4515443 -0.79163367 -0.8175299 0.98248684 -0.85288405 0.8802112 -1.52943
0.97678113 -1.5758486 -1.7288115 0.57037187 0.5880796 -0.26042047 0.24011375 0.12139693
-0.4035106 0.22691411 -0.35983318 0.19158319 0.6372814 -0.5149113 -0.16769949 1.0022157
0.5907746 -0.15064645 -2.901644 -0.23399405 0.8083691 -0.25580165 0.64497614 1.3739046
1.0034696 -0.7146246 -1.0936075 0.116212554 -0.34459165 -0.34701735 -0.22749114 -0.08918624
0.7920753 0.22089314 0.6875173 -0.8532947 -0.2054273 -0.08654238 -0.065730944 -2.486047
-1.345995 0.7832734 1.7197763 0.09418896 0.16613047 -0.8246317 -0.2390404 -1.4327601
-0.21172075 0.08495801 0.75471956 -0.12246493 -0.32164812 -0.67148226 0.23078457 1.2621058
-0.24823283 0.1514859 0.92238843 -1.4061358 -3.386688 -0.3358273 0.3046758 -0.30275807
00000000: d26c 51bf afba a23e b015 ed3f 2b57 d6bf
00000010: 65db 19be ff50 32be 17d5 84be db25 7f3f
00000020: 44f8 eabf fd82 5f3f 2d6a e6bd 1d08 19c0
00000030: 876c 92be 36af 943e 881b 93bf 0512 9ebf
00000040: c756 73bd a132 ce3f fa79 bebe 8a44 b43c
00000050: 12c2 2cb8 f314 db3e b5d6 663f b010 dcbe
00000060: bbc6 89be c183 25bf f9a3 48bf 6892 0cbe
00000070: 8817 80bd 71eb 8b3f 39d1 11bf c490 2bbf
00000080: b51c 913c 0caf 9db9 48d3 9bbf b9be 09bf
00000090: 64e4 563f 7cf4 6b3f bb7a 2d3a 3919 4f3e
000000a0: 6d1c f03f b055 c4bf d681 0fbf 9f20 28c0
000000b0: 8411 e63f 2f8f 1f3f ddc7 bb3f 4915 60be
000000c0: 2a88 2e3f 6f9a 44bf 00fb b5bf 5a04 1f3f
000000d0: cf0c e9be 580e 713e a1aa 49bf 52ef 29be
000000e0: 1347 8cbf b0ae 9cbf 84f8 8c3f ffbf 43bf
000000f0: c869 83be 011e 26bf 545e 8dbf 3905 dd3e
00000100: ee70 75bd 1a92 f2bf 47b9 303e 0d58 9e3e
00000110: 3ca9 c2be 75a4 debe 730c 8b3e edc9 3dbd
00000120: 4179 acbe dd13 86bf 9005 79bb 57d2 1cbf
00000130: d158 6dbe 4500 24bf 663a 3bbe ceab 8fbf
00000140: c76b c2bf 3268 4bbf 0735 e13f beba 833f
00000150: 910c 903f 6d21 eabf 3a12 4c3f c094 c83f
00000160: 6ca7 923d d671 87bf 4d2a b63e df84 6dbf
00000170: f8c9 f93d 4641 30be a46a c83e 8b2c f23e
00000180: f960 11bf f65f 043c 1234 2b3f 8ba6 d13e
00000190: e8db d03e 098f 0c3f c130 b1be a246 58be
000001a0: 45bd d7be 34ca f6bb c2ef 86bf 0076 babf
000001b0: 7433 82bf 56f6 9e3e 361c 41bf 6d55 a6bd
000001c0: a94f c43e 5ca8 0bbf 029b 0ebe 941a f13d
000001d0: f862 b43e 1d52 35bf b9f9 49bf 0042 02bf
000001e0: 0afd 0540 a39c e3be 61f4 9bbf bf15 00be
000001f0: 5c37 383e a3ea 783f 215f e13e 5655 0e3d
00000200: f329 e2be 4a50 76bf 48c2 413e bbe9 b73e
00000210: 2959 dfbe d430 3bbf 06c6 04bf 6a87 973f
00000220: c6bf 5dbf 7a7c cebf a764 aebf c9af 4dbe
00000230: 4206 ff3e a7f2 323f 3252 86bf ab03 803e
00000240: f37f 03c0 9148 be3e 266b 0b3e 6172 28be
00000250: bccc 9fbe 5bcc 3f3e 5519 fcbe 7637 793e
00000260: dc0c b3bf 4246 d5bc b791 863e e233 aebe
00000270: e40f a13e 9f28 2bbf fc02 ccbc f97b 0fbf
00000280: e537 9dbf 8917 ecbd 7385 a33f f9d3 873d
00000290: 151c 9f3f 2912 80bf 0eea f43e fb7e 983f
000002a0: cb14 f43e abfe 2d3f 76a0 cfbe ae7e 42be
000002b0: cd56 cfbe 246e f43e 658a 87bf 790e f5be
000002c0: c8ca d1bf a220 b63e 1073 b0bf 3269 2dbe
000002d0: 027f adbf 6cd6 72bf c40b ffbe 9d9e 023f
000002e0: 40dd a93e 1ae6 1cc0 81a8 4abf a449 51bf
000002f0: 4284 7b3f 9c56 5abf 8555 613f 5dc4 c3bf
00000300: 540e 7a3f 68b5 c9bf b249 ddbf e403 123f
00000310: 628c 163f d555 85be 61e0 753e f49e f83d
00000320: f198 cebe 2c5c 683e 0e3c b8be 622e 443e
00000330: e024 233f 3ad1 03bf 6ab9 2bbe 9b48 803f
00000340: 013d 173f 1043 1abe 89b4 39c0 239c 6fbe
00000350: 47f1 4e3f 6ff8 82be 281d 253f 1bdc af3f
00000360: b171 803f a3f1 36bf 55fb 8bbf d900 ee3d
00000370: 516e b0be 42ac b1be 70f3 68be 47a7 b6bd
00000380: 72c5 4a3f d031 623e 2201 303f 8571 5abf
00000390: 895b 52be 223d b1bd f29d 86bd 651b 1fc0
000003a0: 9049 acbf 9b84 483f a121 dc3f 24e6 c03d
000003b0: 1b1e 2a3e 101b 53bf 02c7 74be af64 b7bf
000003c0: 53cd 58be 77fe ad3d 4d35 413f e5ce fabd
000003d0: 10af a4be 43e6 2bbf ca52 6c3e af8c a13f
000003e0: bf30 7ebe 1f1f 1b3e a621 6c3f 42fc b3bf
000003f0: 7fbf 58c0 8ef1 abbe 77fe 9b3e 1b03 9bbe

cell_list.3.conv_can.weight f4 [10, 20, 1, 1]
-0.4495249 -0.2001514 -0.6936306 0.5104665 0.37400368 -0.18797393 -0.10037126 0.16213259
0.3733513 0.29275927 -0.11263818 0.22702067 0.39506876 -0.10558958 0.10293317 0.40493768
-0.0015964461 -0.22559412 -0.15813194 0.036652483 -0.31207958 -0.28175053 -0.5977737 -0.5221416
0.24682625 0.31019995 0.44033 -0.22342718 0.38128233 0.1466854 0.16204335 -0.4695117
-0.1984371 0.13468681 0.4239647 0.11844001 -0.15391481 -0.27626777 0.039030187 -0.5328096
-0.21351612 -0.17977768 0.32681617 0.41595736 0.2931784 -0.15987648 -0.40876794 0.47033647
-0.12788726 0.4144134 0.25218967 -0.21218854 -0.6180712 -0.08661731 0.039247993 -0.13007885
-0.15057589 0.2964534 -0.061001483 0.2191908 0.061562818 0.04640723 0.28292257 -0.72670376
0.17212838 0.2550304 0.50675046 0.34232873 0.22627044 0.15806207 -0.08942209 0.3373379
-0.22886363 -1.2090427 0.35577565 -0.27454913 -0.17359063 0.25180316 -0.13498572 -0.6246162
-0.30794895 -0.37138385 -0.16736574 -0.24338378 0.3298349 0.2527846 0.24620691 0.1131397
0.46615463 0.6137162 0.2061564 0.44225353 0.059397906 0.23868336 -0.5680402 -0.016022502
0.025349403 -0.009583738 -0.2347599 -0.49085146 -0.20429052 -0.12528482 -0.74647444 0.5079642
-0.060423948 -0.24783298 -0.24700603 -0.5322727 0.05676655 -0.18421328 0.17105828 0.025416339
0.0604014 -0.64437103 -0.007865672 -0.4761091 0.016671332 -0.45717284 0.08219917 0.3155368
-0.19982727 0.20343843 -0.12826465 0.30289948 0.15435915 0.022359084 -0.064568646 -0.0396667
0.59199685 0.7717017 0.4197426 0.01211078 0.30068862 -0.112050995 0.15987852 0.15034525
-0.5658088 -0.020683207 -0.68640095 0.03556915 0.14841355 0.082869105 1.0690415 -0.2171445
0.1824988 0.13682903 0.13830501 0.39439622 -0.23825386 0.18736213 -0.19062446 -0.109885514
0.11363397 0.41088343 0.17689751 -0.35775682 -0.14599147 -1.0202515 -0.0890114 -0.20321727
0.37343988 -0.16224551 0.0336537 -0.22242498 -0.2152834 -0.19258912 -0.0023604324 -0.0058096917
-0.5771529 -0.74281263 -0.14674377 0.015306462 -0.27560967 0.056402497 -0.25059655 -0.053730484
-0.7573389 0.06892659 -1.0015843 0.025716795 0.07918862 0.10728713 0.18818355 0.74295795
-0.22430421 -0.44703424 -0.7452638 -0.24323052 -0.32050255 -0.34953335 0.06573567 -0.3197114
0.1540544 -0.58700746 -0.42226118 0.013362275 -0.027707512 -0.02335655 0.029360509 -0.5936275
00000000: 2128 e6be 7df4 4cbe c691 31bf efad 023f
00000010: 697d bf3e 3d7c 40be 728f cdbd 1606 263e
00000020: e727 bf3e 8be4 953e d9ae e6bd 1b78 683e
00000030: 7446 ca3e 5a3f d8bd a0ce d23d fe53 cf3e
00000040: d83f d1ba 2502 67be 57ed 21be ea20 163d
00000050: e5c8 9fbe 9b41 90be b207 19bf 12ab 05bf
00000060: 05c0 7c3e 87d2 9e3e ef72 e13e 18ca 64be
00000070: 7037 c33e b334 163e b1ee 253e d663 f0be
00000080: 1833 4bbe 57eb 093e e711 d93e ad90 f23d
00000090: d89b 1dbe f872 8dbe 1ede 1f3d 3666 08bf
000000a0: f8a3 5abe a417 38be 7354 a73e 5df8 d43e
000000b0: 7b1b 963e a9b6 23be 084a d1be f1cf f03e
000000c0: e1f4 02be fe2d d43e 011f 813e f447 59be
000000d0: ea39 1ebf 6b64 b1bd 81c2 203d 6433 05be
000000e0: 9130 1abe bdc8 973e b1dc 79bd 8e73 603e
000000f0: 4b29 7c3d 8215 3e3d 3adb 903e 4209 3abf
00000100: 6c42 303e 5893 823e 66ba 013f b645 af3e
00000110: 70b3 673e 06db 213e ee22 b7bd 8eb7 ac3e
00000120: 3a5b 6abe e9c1 9abf 3a28 b63e b491 8cbe
00000130: bec1 31be 58ec 803e b239 0abe d9e6 1fbf
00000140: 7cab 9dbe 0626 bebe ed61 2bbe 9939 79be
00000150: 1fe0 a83e fc6c 813e aa1d 7c3e c9b5 e73d
00000160: d2ab ee3e 811c 1d3f aa1a 533e 0e6f e23e
00000170: 384b 733d 6969 743e 156b 11bf 9f41 83bc
00000180: 8da9 cf3c 1c05 1dbc e664 70be e250 fbbe
00000190: 8931 51be aa4a 00be f318 3fbf f109 023f
000001a0: 1a7f 77bd eec7 7dbe 26ef 7cbe 0643 08bf
000001b0: 0b84 683d 68a2 3cbe e729 2f3e ed35 d03c
000001c0: 7567 773d 80f5 24bf 05df 00bc 92c4 f3be
000001d0: 5192 883c 8f12 eabe 0a58 a83d 0a8e a13e
000001e0: 859f 4cbe 2a52 503e cf57 03be a415 9b3e
000001f0: 5310 1e3e 662a b73c 913c 84bd 8d79 22bd
00000200: 1b8d 173f 3e8e 453f 81e8 d63e 4b6c 463c
00000210: dcf3 993e fe7a e5bd 32b7 233e 1bf4 193e
00000220: d8d8 10bf d46f a9bc f9b7 2fbf f5b0 113d
00000230: b9f9 173e 47b7 a93d 5ad6 883f 215b 5ebe
00000240: f7e0 3a3e e91c 0c3e d49f 0d3e 4dee c93e
00000250: d2f8 73be dcdb 3f3e 0f33 43be a80b e1bd
00000260: edb8 e83d 505f d23e 9f24 353e e72b b7be
00000270: ca7e 15be 9a97 82bf 9c4b b6bd 3018 50be
00000280: 8333 bf3e b023 26be 76d8 093d 60c3 63be
00000290: 4073 5cbe 1536 45be 7cb1 1abb 3a5f bebb
000002a0: 4bc0 13bf f828 3ebf 0044 16be f4c7 7a3c
000002b0: b61c 8dbe 4e06 673d 314e 80be 7f14 5cbd
000002c0: f6e0 41bf 6229 8d3d ea33 80bf 07ac d23c
000002d0: a52d a23d 5bb9 db3d 30b3 403e 7e32 3e3f
000002e0: 01b0 65be ace1 e4be 9cc9 3ebf 6c11 79be
000002f0: e918 a4be 09f6 b2be 6ca0 863d 36b1 a3be
00000300: 70c0 1d3e 1f46 16bf 9e32 d8be 72ed 5a3c
00000310: ddfa e2bc 3c56 bfbc 7385 f03c f9f7 17bf
