saved_models/ambimg_brainlike/big_rnn_6.pt (torch, 118160 bytes, 14 tensors)

cell_list.0.conv_gates.weight f4 [20, 11, 3, 3]
00000000: 3fcd e6bf 7b12 eabf b106 88bf 3cd1 e3be
00000010: fe29 12bf c43d 643d 201b 843f 6919 b23f
00000020: e55a fa3f 64b7 aebe 4d40 dc3e aece 983e
00000030: 9811 1ebf a602 5e40 10ed d7be e87f 5c3e
00000040: a8c8 c63e 253d a5bd cfd3 acbf 6f9b 29be
00000050: 636e d6be c1d8 babf 73d7 a1bf a141 72bf
00000060: 5894 d2bf aab7 d7bf 3ede 9bbf 25e3 643f
00000070: 65b6 0bbf 26d3 b2be 5f99 b9be 2106 56bf
00000080: dc91 d5be 9963 1ebe 8078 d53e 5f46 983e
00000090: 327c 703d 75c6 41ba 7a4d 0e3e c76c 5e3e
000000a0: 54e1 093e d361 c63d efe7 813d 86da a3bd
000000b0: 3c96 863d 5b50 8b3f a61a 903f 6ca2 a13f
000000c0: 8e12 063f a2e2 573e fe24 e53e 35b1 903f
000000d0: 1c56 6e3f d691 143f 4038 5ebe bc64 b53e
000000e0: 9b78 b93c 711f 303d 72a8 b7bb d46f 4dbe
000000f0: c565 193f 723a 173f 003a 313f b640 d43e
00000100: e865 09bf c076 19bf dae4 f23e 25f9 dcbe
00000110: 8410 4ebe c8a2 303d 2315 88be afea dbbe
00000120: 3e65 823d c7ba 083e 7b4f 14bd 55bd 18bd
00000130: 6a57 3b3e 3a93 a2bd dac6 c33d 13b7 be3e
00000140: 9059 8f3d e51f a93c 3ee6 e33e cb14 133f
00000150: 5df1 35be 5a80 c7be 2c8d fabe 9484 473e
00000160: a8bb 5fbd 963f dabe 84ea 20be 1b22 02bf
00000170: ff5f 1c3d 2c88 80be 8236 adbe 15ef f83e
00000180: f363 2abe 64ed 34bc 22e6 b0bd 1e84 a93e
00000190: 0f23 033e 24cd a63e 217a fa3d b32f 87bf
000001a0: 6e8c 15bf feee 143f 931f 183e 20b0 933f
000001b0: 9f47 c53f f91f a53f 91c9 b43e e248 a43f
000001c0: f722 dcbd 8f40 85bf 37ae a63e 08a8 49be
000001d0: 3095 1abf 475e 7fbe e80e f43d 10b2 06bd
000001e0: b769 93bf 297b e8bb 6296 75bf 7c61 863f
000001f0: 8f40 373f bc19 283f c2e6 53bf 5da5 1a3f
00000200: 3308 c93f 6475 06bf a58c e33d b3bb 4e3f
00000210: 41db c2be 830f 2e3e 62d6 e43e 78d3 b4bf
00000220: f3eb d4bf cae3 d0bf 984e 89bf b5c5 71bf
00000230: af60 46bf 9605 c2bd 3cdd d53e 42f4 073f
00000240: f0c5 903f 4034 873f 6156 053f 32e8 1340
00000250: e825 f03f 4d6b 9d3f 5127 0c3f 76ab a73d
00000260: 0e19 cfbe a507 823f 790b dd3d 3181 75bf
00000270: 65d0 8c3f 117c b53e 4451 66bd b539 533e
00000280: 87a0 0f3e 069d 9a3e 154a 2dbf 8cb6 403d
00000290: 4615 513f c155 dcbf 8701 9fbd dd93 863f
000002a0: f85c 2abf c001 00be e865 093f e042 923f
000002b0: 4049 9b3f f3a1 963f dce8 623f 742e 0d3e
000002c0: 2688 8c3e 8a52 723e 0765 bdbd ae0c c0bd
000002d0: 4556 f23f 3fe5 1a3f 4fb3 243e db48 8f3f
000002e0: 75c2 be3e 1b9f c2be 7cfc f03e 57e6 93be
000002f0: 217a 97be b928 b43e d37c 973d 4614 833e
00000300: e832 073f ff72 8dbc 11c5 adbe f1bd b5be
00000310: 7f08 c0be cdab 1ebf 0260 abbe 740e 68bd
00000320: 4d76 443f 1245 27bf 7260 423e 2a1f fb3f
00000330: 5e41 c8bf cd21 91bf 83de 7d3e 38ce f73e
00000340: 94f1 c93c 558e ad3e be36 ba3e 7836 313f
00000350: 21cc fa3e 9844 993e bfd7 3b3f 997c 623f
00000360: bcf7 c63e 5df5 3f3e 93a1 34bf 631e 7cbe
00000370: fdf6 723e e870 82be 6eb7 393f c478 043f
00000380: 4189 02be 32c8 13bf f297 fbbe c501 1d3f
00000390: 4f00 053d 6558 31bf 0251 c93e a48a 29bf
000003a0: fd79 1fbf 7eb7 bdbe ae59 e0be 001c abbe
000003b0: 8344 ffbe 152b 81be fbe4 97bd ece8 15be
000003c0: 279e 73be 3542 90be 7e3a 2abf 3180 24be
000003d0: aecb 093d 729a fa3e 70e7 973f 6fcd 963f
000003e0: 6c4e ae3f 1f1a 253d c27a 663e 1cc4 703e
000003f0: ebeb 4b3f 9c04 663f 8e65 edbe 564a 623f
-1.8031386 -1.828689 -1.0627042 -0.4449557 -0.57095325 0.055722967 1.0320778 1.3914005
1.9558989 -0.3412429 0.43017808 0.29845184 -0.61745596 3.4689116 -0.42173052 0.21533167
0.38824964 -0.08068303 -1.3502139 -0.165632 -0.41881093 -1.4597398 -1.2643875 -0.9463139
-1.6451521 -1.6852925 -1.2177198 0.89409095 -0.54575187 -0.34926718 -0.36249825 -0.836031
-0.41712844 -0.15467681 0.41693497 0.2974119 0.058712192 -0.0007391938 0.13896742 0.21721183
0.13464862 0.09686627 0.06343066 -0.080006644 0.06571624 1.0883898 1.1258132 1.2627692
0.5237206 0.21082547 0.44754785 1.1304079 0.9310014 0.5803503 -0.21701145 0.35428417
0.022640517 0.042998735 -0.005604797 -0.2006219 0.59920913 0.59073555 0.69229126 0.4145562
-0.5367112 -0.59946823 0.47440225 -0.43158832 -0.20123488 0.04312399 -0.26578626 -0.42952487
0.06366967 0.133525 -0.03620861 -0.037289936 0.18295065 -0.079382375 0.09559412 0.3724905
0.069995046 0.020645091 0.44511598 0.574536 -0.17767854 -0.38965112 -0.4893583 0.19484168
-0.054622322 -0.42626637 -0.1571446 -0.5083329 0.038177487 -0.2510389 -0.3383065 0.48619905
-0.1663969 -0.011042926 -0.08637644 0.3310861 0.12806343 0.32578385 0.122303255 -1.0561432
-0.58417404 0.58177173 0.14855795 1.1538124 1.5412482 1.2900382 0.35310033 1.2834742
-0.107488565 -1.0410327 0.3255479 -0.19693005 -0.6038389 -0.24938308 0.11916906 -0.032884657
-1.1516637 -0.00709476 -0.9593259 1.04985 0.71582884 0.6566427 -0.82773983 0.60408574
1.5705627 -0.52522874 0.1111081 0.80755156 -0.38057902 0.16998105 0.4469481 -1.4127035
-1.6634506 -1.6319516 -1.072711 -0.944423 -0.7749128 -0.09473722 0.4177035 0.5310708
1.1310406 1.056282 0.5208493 2.311047 1.8761568 1.2298371 0.5474749 0.081870005
-0.40448803 1.0158583 0.10793204 -0.95900255 1.1001097 0.35446218 -0.056229845 0.20627482
0.1402608 0.30197924 -0.67691165 0.04704909 0.81673086 -1.721367 -0.07763963 1.0513874
-0.6654811 -0.12500668 0.5367112 1.1426659 1.2131729 1.1768173 0.88636565 0.13787252
0.27447623 0.23664299 -0.09247785 -0.093774185 1.8932577 0.6050605 0.16084026 1.1194109
0.37257734 -0.38012013 0.4706763 -0.28886673 -0.29585364 0.3518732 0.07396855 0.25601405
0.5281205 -0.017266748 -0.33939412 -0.35496476 -0.37506482 -0.619809 -0.33471686 -0.05665441
0.7674301 -0.6533977 0.18982103 1.9618886 -1.5644948 -1.133844 0.24791913 0.4839952
0.024651326 0.33897653 0.3636989 0.6922374 0.48983863 0.29935145 0.7337608 0.8847137
0.3886088 0.18745942 -0.7055904 -0.24620967 0.23727031 -0.25476766 0.72545516 0.51746774
-0.1274767 -0.5772735 -0.49139363 0.61330825 0.032470997 -0.69275504 0.39319617 -0.66227174
-0.62295514 -0.37054056 -0.4381842 -0.334198 -0.49856958 -0.2522818 -0.074167214 -0.14639634
-0.23790799 -0.28175512 -0.664955 -0.16064526 0.03364151 0.48945957 1.1867504 1.1781443
1.3617682 0.040308114 0.22507766 0.2351231 0.7965686 0.89850783 -0.46366543 0.8839468

cell_list.0.conv_can.weight f4 [10, 11, 3, 3]
00000000: 7a23 673e fbab ab3e 5aa9 023c 55e8 aa3e
00000010: 8d61 ac3e dcfb d53d 5653 1f3c 315a bc3d
00000020: a8c6 0bbe 959f 193e f3a9 323e a479 153e
00000030: 645e 9a3d 0451 31be b9c6 a33e aafc 61ba
00000040: 7c98 a4bd d982 893d 3ed5 953e 651f 8f3f
00000050: d318 753f 0ea4 60be d02d 92be af4e e1bd
00000060: b1a1 81bf 87ca 64bf 41c5 9dbe fe75 7cbc
00000070: 576a efbc ffa8 01be dcab c03d 93ca 103d
00000080: fd86 84bd 8120 d83d 72a2 373e 9a21 483a
00000090: af0a 973e 3659 0d3f 9872 b33e e4d0 133f
000000a0: 7e06 313f 41d5 053f f513 023f e113 f23e
000000b0: 8f1d 1a3f faec 433e da4c d0bb aea8 c8bd
000000c0: 80ee 263f f900 383f 15f9 253f 3e3e 3e3f
000000d0: b895 3d3f e91b bd3d 1bb0 d33e 872f fd3e
000000e0: c88d 023f 26d4 783d 6d26 c43d 20f8 4d3e
000000f0: 9128 4bbe 6904 81bd 25a5 0d3c 0523 dc3a
00000100: 8258 23be ccfb 48be 9079 053e 0397 23be
00000110: 2ca3 ffbe 0e77 153e b886 15be 0d27 f2be
00000120: f57a d3be 6701 e0be 83d2 a6bd 4a80 153e
00000130: b415 efbe 24b8 923c 7c07 1cbc 92dd 24bf
00000140: 9991 b9be c0ac 123e 5ce4 cf3e 83d1 8a3e
00000150: 83a7 0e3e ba38 a73e 300d 0b3e c421 d73e
00000160: cccb af3e b62f 4b3e 49ce 15bf 479f 36bf
00000170: b64a 0bbf 629f 87be de84 22bf f817 c1be
00000180: 547a 89be 3db9 07bf f536 52be 1ba9 40bf
00000190: 4210 bcbe 966d 36bf ffc2 293e d8a6 893e
000001a0: ecb3 973d 2f2f b43e e8d7 263f 1e3b ac3e
000001b0: 8f44 0a3e d772 3f3e aff8 833e f549 043c
000001c0: b32c 033e 43fc 473e d833 69be ed3c 98be
000001d0: f797 84be 6c1b 923f c75b 733f 709e 70be
000001e0: 27f8 f03f 8895 643f 4aae 903f a794 6b3f
000001f0: 614e 143f 37da 843e fe6e 43bf 5e5a 60bf
00000200: 36bb f8be aa06 5bbf dd9c a3bf bf03 54bf
00000210: fcae 95be 4cbb 4fbe 7646 72be 15bc a13e
00000220: bb4c 4b3e aa0a acbc f886 453a f51d b1bd
00000230: aa2e e2bd d8b5 14be e824 a9be de0f b5bd
00000240: 7164 56bf ff4b 69bf 7f78 a63d 1133 28bf
00000250: deb9 8fbf 67de 3ebf 7b87 c1be 0c5a 0bbf
00000260: 4a59 f4be 647f d53d a0c4 6b3e dffb 173e
00000270: bd52 80bd b7c2 d2bd 05b5 6dbe c06b 14bf
00000280: 6bf6 00bf 7500 10bf 292c 1e3e 36e1 14be
00000290: 0945 e0be e5d0 443e c508 e33d b821 5cbe
000002a0: 840d 013f 6ccc 203f 0f49 b33e bf64 96bf
000002b0: ac73 22bf fdb2 d0be 502a aabe 7a2c 32bd
000002c0: 0bdb 533e 66a8 1cbe fd66 7ebd 8be6 e13d
000002d0: 9f57 043e afdc 833e 0062 ce3e 3cae dbba
000002e0: 4e72 753d 0d62 08be aa9d cfbe 9658 0abf
000002f0: 10d1 02bf 2716 dabe 06ca f7be 7eb7 80be
00000300: abf1 99bd 18a1 f1bc e975 953d 47e9 cd3e
00000310: 653a b53e f72e e53e fe21 f43e 8b63 913e
00000320: 7389 1b3f ff77 0abe 82f3 4dbe 90e7 ab3e
00000330: 31e6 21bf 6476 3fbf 96c0 33be 36d9 353e
00000340: 3287 0f3e 255f 423e c9f6 893e bf31 9e3d
00000350: a70e 64bd 156b 063e acc5 5ebc e9e8 19be
00000360: cf17 efbf 4839 10c0 29c3 38bf b008 79bf
00000370: f5b6 7ebf 54ed 7cbe 3395 9abd 6497 2b3e
00000380: 6114 a1bd 8d61 1e3d 2a94 fc3d 35c6 363e
00000390: fbae 45bd 5d54 303e ce31 333f 648d ae3e
000003a0: f7ed 9a3e cdc5 6f3e 30ad f3be ba81 03bf
000003b0: ec7b b83d 626b 86be 0985 debe 75ac e93d
000003c0: eea7 aebc 3887 39be f169 b7bd d9df 0f40
000003d0: f876 d03f 259b 423e a6b4 3e3f 8346 1fbc
000003e0: bbbf 47bf c994 06be 0561 9bbe 3c85 b0be
000003f0: 4ee8 c7ba 5a82 20be a155 babe 8259 62be
0.22572127 0.33529648 0.007974947 0.3338038 0.33668175 0.10448429 0.009724459 0.0919689
-0.1365 0.15002282 0.17447643 0.14597183 0.07537535 -0.17316061 0.3198755 -0.0008620719
-0.080368966 0.0671441 0.29264253 1.1181456 0.95741004 -0.21937582 -0.28550577 -0.11001336
-1.0127469 -0.8937153 -0.30814555 -0.015408991 -0.029225511 -0.12662123 0.094077796 0.03534944
-0.064710595 0.10553075 0.17933062 0.00076344016 0.29500338 0.5521425 0.35048366 0.57740617
0.6915053 0.52278525 0.508117 0.4728079 0.6020135 0.19133368 -0.0063568177 -0.09797798
0.6520767 0.71876484 0.64833194 0.74313724 0.7405658 0.09233839 0.41345295 0.49450323
0.5099759 0.060749196 0.09577642 0.20114183 -0.19839694 -0.06299669 0.008645331 0.0016795105
-0.15951732 -0.19627303 0.13034654 -0.15975575 -0.49929178 0.14596197 -0.14602172 -0.47295418
-0.41304746 -0.4375107 -0.08145621 0.1459972 -0.46696246 0.01791007 -0.009523269 -0.6440059
-0.36243895 0.14323711 0.40603912 0.2711297 0.13931088 0.32660466 0.1357925 0.4201795
0.34335172 0.19842419 -0.5851789 -0.7133679 -0.54410875 -0.26488787 -0.6348399 -0.377136
-0.2685114 -0.53017026 -0.20528777 -0.75258034 -0.36731154 -0.71260965 0.16578291 0.26885104
0.07407364 0.35192248 0.65173197 0.33638853 0.13502716 0.18696152 0.25775668 0.008074273
0.1281002 0.19529824 -0.22773683 -0.29733983 -0.2589719 1.1414618 0.95061916 -0.23497939
1.882573 0.89290667 1.1303189 0.920237 0.57932097 0.25947735 -0.76341236 -0.8763789
-0.4858033 -0.85557044 -1.2782246 -0.82818216 -0.29235065 -0.20286292 -0.23659691 0.31588808
0.19853489 -0.021001179 0.00075350655 -0.08648292 -0.11044057 -0.14522493 -0.3303597 -0.08840917
-0.8374701 -0.91131586 0.081284516 -0.6570292 -1.1228597 -0.7455811 -0.37798676 -0.54434276
-0.47724372 0.104246885 0.23024225 0.14842175 -0.06265781 -0.10291045 -0.23213585 -0.57976913
-0.50376004 -0.562507 0.15446533 -0.14539036 -0.4380267 0.19220312 0.11085657 -0.21497238
0.5041125 0.62811923 0.35016677 -1.1749495 -0.6345775 -0.40761557 -0.33235407 -0.043499447
0.20689027 -0.15298614 -0.062109936 0.11030301 0.1292405 0.25754306 0.40309143 -0.00167603
0.059923463 -0.13318653 -0.40549976 -0.5404142 -0.51100254 -0.42595026 -0.4839632 -0.25139993
-0.07516798 -0.02949576 0.0729788 0.4021704 0.35396114 0.44762394 0.47682184 0.28396258
0.60756606 -0.13522337 -0.20112422 0.33575106 -0.6324187 -0.74790025 -0.17553934 0.1775864
0.14016417 0.18981607 0.26946095 0.07724332 -0.055678036 0.13126786 -0.013596933 -0.15030254
-1.8679141 -2.2534962 -0.7217279 -0.9727888 -0.9949792 -0.24699908 -0.07547989 0.1675697
-0.07865215 0.03866725 0.123329476 0.17849047 -0.048262578 0.17219682 0.6999787 0.34092247
0.30259678 0.23415299 -0.4759307 -0.5136982 0.09008011 -0.26253802 -0.43460873 0.11409847
-0.02132031 -0.18117988 -0.089557536 2.2480376 1.6286306 0.19004495 0.744944 -0.009721401
-0.7802693 -0.13142695 -0.30347458 -0.3447665 -0.0015251727 -0.15674725 -0.36393455 -0.22104457

cell_list.1.conv_gates.weight f4 [20, 20, 3, 3]
00000000: 0f9e 903f a78e 143f 234d 60be 747e 81bf
00000010: c34d 1dbf 61db 74bf 96d9 a5bb e7df 293f
00000020: 4ac2 523f be2b d33d 6f99 c03e c71b 3c3f
00000030: d508 d1bf a20e a6bf 2083 85be 9dfc a8bf
00000040: c3cb 93bf 93eb e13d 1c73 abbf 666f 44bf
00000050: 8f05 46bf 5818 ecbf 7fa9 7abf f591 82bf
00000060: 8f84 03c0 5364 d9bf db76 a7bf afbc 6b3e
00000070: 72d7 893e 3e58 8a3e 581e 253f a54d 293f
00000080: c916 003f 2ebc 8abe d742 94be cd11 5dbe
00000090: e8e9 563f b5ae 383e 5ed9 30be 4fd5 0dbf
000000a0: af59 86be a804 30bf cca6 1ebe f290 553e
000000b0: a3a0 613f b34d 04bf 8fa1 b0be de3e 6b3f
000000c0: 76af 00be 8beb bebd 3722 1c3e 84e0 a43f
000000d0: 5467 6a3f 4f99 d8bd 4e9a d1bf a8d1 9ebe
000000e0: 49e5 6c3e e4ec 9b3f b59b fe3e bfe6 003f
000000f0: d427 6b3e 0162 15bf 953e 37bf cad9 b53e
00000100: 17e8 c2be 9cf8 90bf c8db 89bf bd7a 73bf
00000110: 7633 b8bf 1dbc 8dbf 9e3c 60bc 8146 073f
00000120: 516a 69be b88b 75be 1282 033f 1dde adbf
00000130: 5535 253d 3ce0 743f a8c8 b43f a291 633f
00000140: b1c1 263f 91a9 a6bf 9327 a8bf 1f99 4fbf
00000150: e5d0 17c0 99e3 a6bf 759a 9bbf af24 98bf
00000160: a5d2 0ebf 461b 5a3f 7b57 fe3d 8614 823e
00000170: 4af4 bc3e 08d6 533f 7d4d 75be a379 563e
00000180: c914 c23f b961 273f 8e90 80be 7413 af3e
00000190: ef22 fe39 c63b 1abe 91a5 a5bd 6057 7f3e
000001a0: 65e7 543f 2b1f 91be a46b b5bd 34b2 7a3d
000001b0: 207e 063e 9a59 b73e 859e 983e 6ec8 6cbf
000001c0: a021 4cbf 20eb a3bf 0bcb fc3e f418 813e
000001d0: c754 113e 089c f2be d426 b2be 7cdb 02bf
000001e0: 14bf 1cbe 14e7 623d 6d54 253f 4241 133f
000001f0: fc28 b23e c358 a63e d893 f3be 2596 62be
00000200: e2d1 6b3d 6820 e33b 2d6f edbd cc5c cabe
00000210: a1e2 8c3f 5285 af3e 94f7 13bf f51c 233f
00000220: b002 333f 51af 0d3f 86b7 b7be 9d47 cdbe
00000230: 9dde 853a 4528 abbd aed3 813e 211c bf3e
00000240: d011 fcbd 8a86 3dbd d793 39bf fe90 953e
00000250: f479 9b3e e2b1 e0bd 2a77 15bd c691 53bf
00000260: 88d2 a5bf 9348 38be cdae c2be 0d16 fabe
00000270: b72d 0abf 2448 11bf 67fa f9be 30e0 dabd
00000280: 203f 74be 077f 9bbe 27dc 853f 91ad 433f
00000290: 81c4 0e3f f201 343e 38e5 013f b3b5 1a3f
000002a0: eb4f 883e 01b9 213f 838e 533f 2b3f d53e
000002b0: a59f 883c 64b4 423e 31ff 2bbe a9e6 cdbe
000002c0: df97 01bf 3abe 943e 8534 103f ae5b c73e
000002d0: 4b92 383f 9b47 d1be 8760 f7bf 973a 393b
000002e0: a819 53be 6b38 53be 93ff 73bf 1b48 a1bf
000002f0: bc6a 70bf 5eea ccbd 0a2a e1be f163 b4bf
00000300: ef56 98be 314f 51bf 5f96 dabf ae98 9f3e
00000310: 846c d4be 2aed a0bf f0ee 14c0 d303 85bf
00000320: 88fb 7a3d 7490 4abe c497 793e fb46 1bbf
00000330: a9ae 163f 90f1 ad3e be63 5abf 513b e33e
00000340: de1a 10be 5222 8cbf ee08 acbe 11f5 a7be
00000350: 477d 35be a32c 8cbe b822 083f 6e2c d73f
00000360: fcc2 fa3f af42 bc3f 9ee6 7e3f f52b fe3e
00000370: 4d1e 523c 3f54 c43e de9c febe a7c6 6f3e
00000380: 9479 623f 7bce 9a3f f895 3cbe a5c4 0abf
00000390: 7c90 9ebf e823 44bf 2839 3b3f 2b8c 34be
000003a0: 2626 da3c 2f4c e73e a716 0dbd df1b 9ebe
000003b0: b038 723e e99e d93e 6fdb 443f e183 df3f
000003c0: 2886 8b3f 29fc 2840 742b 4240 a07b 15bf
000003d0: 7e32 0cbf d670 ec3e 2d93 9fbf be71 3f3e
000003e0: 2f8d 413f 20da 71bf 0000 ffbe f50e cd3b
000003f0: 4b21 7abf 2050 2e3e 96ca 55bc ba74 43bf
1.1298236 0.5803017 -0.21904425 -1.0116715 -0.6144678 -0.95647246 -0.0050613387 0.6635727
0.8232771 0.103110775 0.3761706 0.73479885 -1.633082 -1.2973216 -0.26076603 -1.3202091
-1.1546558 0.1103126 -1.3394504 -0.7673248 -0.7735223 -1.8444929 -0.9791488 -1.0200793
-2.0549657 -1.6983742 -1.3083147 0.23021196 0.26922184 0.27020448 0.64499426 0.661341
0.5003477 -0.27096695 -0.28957245 -0.21588822 0.8395066 0.18035395 -0.17270419 -0.5540361
-0.26240298 -0.68757105 -0.15493315 0.20856073 0.8813574 -0.5168106 -0.3449826 0.918928
-0.12566933 -0.0932227 0.15247427 1.2881017 0.91563916 -0.10576116 -1.6375215 -0.3101933
0.2313434 1.2181668 0.4972817 0.5035209 0.22964412 -0.5835267 -0.7157987 0.35517722
-0.38067695 -1.132587 -1.0770197 -0.9510916 -1.4390705 -1.1073033 -0.013686327 0.52841955
-0.22794463 -0.2397908 0.51370347 -1.3583409 0.040334065 0.95654655 1.4123735 0.88894093
0.651393 -1.3020498 -1.3137077 -0.8109302 -2.372125 -1.3038207 -1.2156512 -1.1886195
-0.5579017 0.85197866 0.12419029 0.25406283 0.36905128 0.8274846 -0.2395534 0.20944838
1.5162593 0.6538349 -0.25110286 0.3419453 0.00048472683 -0.15061864 -0.0808822 0.24935675
0.8316558 -0.28344092 -0.088584214 0.061205104 0.1313405 0.35810548 0.2980844 -0.9249333
-0.7973881 -1.280613 0.4937366 0.2521435 0.14192496 -0.47384667 -0.34795249 -0.51116157
-0.15307266 0.055396155 0.6458195 0.5752145 0.34796894 0.32489595 -0.47573733 -0.22127588
0.057573207 0.0069313534 -0.11593471 -0.39523923 1.1006662 0.34281403 -0.5779965 0.6371606
0.69925976 0.55345637 -0.35882205 -0.400937 0.0010213439 -0.0835729 0.2535681 0.37326148
-0.12308085 -0.046270885 -0.7249121 0.29212183 0.3036648 -0.109714285 -0.036490597 -0.8264431
-1.2954874 -0.17996435 -0.38023987 -0.48844948 -0.53976005 -0.567507 -0.48823854 -0.106872916
-0.23852205 -0.30370352 1.045781 0.76436716 0.5576859 0.17578867 0.50740385 0.604335
0.26623473 0.6317292 0.8263933 0.41649756 0.016677687 0.19014126 -0.16796567 -0.40215042
-0.5062236 0.2905138 0.5633014 0.38937134 0.72098225 -0.40874943 -1.9326333 0.0028263682
-0.20615256 -0.2062699 -0.9531185 -1.260013 -0.93912864 -0.100056395 -0.43977386 -1.4093
-0.29753825 -0.8176146 -1.707714 0.31171173 -0.4148904 -1.2572377 -2.3270836 -1.0391792
0.061275035 -0.19781667 0.243743 -0.6065518 0.5886026 0.3397336 -0.85308444 0.44381192
-0.14072749 -1.0947974 -0.33600563 -0.32804158 -0.17723571 -0.27377805 0.53177977 1.6810434
1.9590755 1.470785 0.99570644 0.49642912 0.012824607 0.38345525 -0.49729055 0.23415624
0.88466763 1.2094263 -0.18416584 -0.54206306 -1.2387843 -0.7661729 0.7313409 -0.17631595
0.026629519 0.4517531 -0.03444543 -0.3088064 0.23654437 0.4250405 0.7689733 1.7462121
1.0900316 2.6403906 3.0339022 -0.5839176 -0.54764545 0.46179837 -1.246679 0.18695733
0.75606054 -0.9447346 -0.49804688 0.0062578865 -0.9770705 0.17022753 -0.0130487885 -0.76349986

cell_list.1.conv_can.weight f4 [10, 20, 3, 3]
00000000: 8646 fcbe 1a90 3ebe 8d83 143e 4193 a7be
00000010: 1839 73bc c8ec ed3e 23e2 84be eecc d2bb
00000020: 6445 7c3e 83df 21bf 9829 16bf ba42 cf3d
00000030: 6290 823e f335 e63d 36a0 f5bd 0ade 14bf
00000040: af5d c2be 0355 8dbd 4932 84be 7c45 bfbe
00000050: 72be 6fbe dba2 433c b9ed 05bc c855 d5bd
00000060: f25d 15be 03c2 4bbe 0417 63be bcd4 30be
00000070: 9ee4 083e 1e72 943e 1198 79be c2c0 de3d
00000080: f176 c63e 1dd4 133e 2fa3 973b 4ab0 563f
00000090: e5fc a4bd aff3 68bd 4fde 36be 2877 84be
000000a0: fe67 ebbd 81c1 36be e5bc 313f 4b66 573e
000000b0: 3552 fa3c c64b 303f b78c 2a3f 6ad5 083f
000000c0: 4fed cbbd ee06 e7bc 2f6f 913e 0749 b03d
000000d0: 335f a33e d196 debd 7a47 58bd ee2d 16be
000000e0: 9c48 e4be 9535 b13e e14e 463e ff52 02bf
000000f0: e651 9bbe 091f cfbc 8dd0 65be 29a1 c4bd
00000100: 7498 073d 06f2 b5bd b39c 7a3d 8b3f 7bbe
00000110: d8e4 37bf 0715 70bd baea 4bbe 2f74 20bf
00000120: 771f 1ebe d982 eebe df93 07bf b7c4 563e
00000130: 8a5f 003d 9022 8e3c 046d 9abe dcad cdbd
00000140: 9181 2d3e 356f c2be 7057 e8be e2d3 2dbf
00000150: dd41 0bbe 6ec3 c53d d97a 47bf 37a3 8c3d
00000160: c3e1 163e 41e4 e6bd 03a1 a9be b9c5 adbe
00000170: 4cf5 00bf 85bb 473e 5ce1 25bf 94e5 0a3f
00000180: 0e54 b23d 113e 1e3e 8320 a33e ac64 04bf
00000190: 0efd 34be 7eb3 96be 067a 50be fc8a 85be
000001a0: 7299 8fbe 8dfd b43e 2d95 09be 07cf 5cbe
000001b0: 6de5 9e3e b0ee 123f d26c f93e f425 b53e
000001c0: c9b8 ae3e 2737 cc3e a480 483e 14ac 31be
000001d0: e727 69be 2105 1c3f fa32 0f3f 11eb 583e
000001e0: e655 163f 7cee 0c3e 0705 3ebf 317c 583e
000001f0: d0d1 2bbe b987 92be c3ff 1bbe 0e49 78bd
00000200: 205f 893d 354a 9f3e 715f 9b3e 2dc5 6f3e
00000210: 28e7 df3e 65f5 a73e a175 9b3e 03d3 683e
00000220: 55b2 ff3d 17a0 5abe c517 143e b3b7 a1bd
00000230: 65c1 74be ccd1 2a3f bd7d 873e a336 b1bb
00000240: ffc8 943e 8b61 aa3d 1e43 b13e f4ba 17be
00000250: db69 82be 58f9 47be 4827 56bf b458 f4be
00000260: 3ff0 683e 9f86 ca3c 087f 173e 5a2a 283e
00000270: 3763 a6bd 7546 c63d 8cf1 dcbe 7217 a03d
00000280: 2a3d 733d 1a8e e73e 6b8c 13bf 78b9 9bbe
00000290: 4e48 98be 791c abbf fd10 1ebf b881 a8be
000002a0: 94b7 6bbf f4e0 90be bf8a b43d cf71 cdbd
000002b0: c36d 4cbe 2ad7 70be ed6f 163e 2266 463c
000002c0: 9e01 dabb 1911 5abe bbbc 92be 52e8 f3bd
000002d0: d448 763e 5ca2 8d3d 45e2 0fbe d7d3 ac3e
000002e0: f6ae 453d b650 66bd b7e4 1b3e 2ae6 86be
000002f0: 0164 aabe 50a9 803f 4d82 f73e b538 ffbe
00000300: 9d93 e73e 7cd8 5c3e 90ef f3bd bc39 653e
00000310: 8cc5 3fbe 9afc 35bf f9d0 12be 1528 dc3e
00000320: b3c8 ef3e b04b 81be 7968 0cbe 245a e7bd
00000330: 717e f4bd 3844 05be 9d73 d13d b7eb 94be
00000340: ea3c 2abe 2dc2 c43d a23b d6be d473 b9bc
00000350: 8b94 ae3e 0f8d 32bf a81e 0fbe 4da2 c43e
00000360: 6b3b 1bbf 5f80 ab3c 5587 303e 3c14 9abe
00000370: e451 963d c100 84be a01d 3fbe 70f9 c03e
00000380: 4bd7 28bd 1a44 a3be 5242 adbe 8d04 763e
00000390: 2e08 d5bd 3caa 5f3d 6293 793d 1bc6 cc3e
000003a0: 3253 f03c d8b7 cdbd 38f5 88be 7632 00be
000003b0: ce1a bd3e 81d7 1b3b 0e31 82bd 569e 403e
000003c0: 43b2 8d3e ec98 993e f9f1 8abd 4266 a43d
000003d0: 4b10 9a3d 44f2 ffbc 5c4b 0f3c 500c 953d
000003e0: e251 00be 6afa dd3e adcf 853e 6af9 14bd
000003f0: de27 fdbe 9071 17bd a190 da3d 98b6 6dbe
-0.49272555 -0.18609658 0.14503308 -0.32729533 -0.014845155 0.46469712 -0.2595378 -0.006433121
0.24635845 -0.63231677 -0.5865722 0.10120149 0.2550078 0.11240759 -0.119934484 -0.58151305
-0.379621 -0.0690098 -0.25819615 -0.373577 -0.23412493 0.011940683 -0.008174353 -0.10416752
-0.14586619 -0.19898228 -0.22176749 -0.17268652 0.1336846 0.28993315 -0.24374415 0.108766094
0.3876262 0.14436384 0.0046276073 0.83862746 -0.08056048 -0.05687302 -0.17858241 -0.2587216
-0.11494444 -0.17847253 0.69428855 0.21035115 0.030556777 0.6886562 0.66620964 0.53450644
-0.099573724 -0.028201547 0.2840514 0.08607679 0.3190857 -0.1086861 -0.05280254 -0.14665958
-0.44586647 0.34611192 0.19366027 -0.5090789 -0.3033592 -0.025283353 -0.22442837 -0.09601051
0.033104375 -0.08884053 0.061184596 -0.24535958 -0.7183356 -0.058613803 -0.1991376 -0.6267728
-0.1544169 -0.46584204 -0.5296001 0.20973478 0.031341113 0.017350465 -0.30161297 -0.10042927
0.16943957 -0.3797547 -0.4537921 -0.6790143 -0.13599344 0.09656416 -0.77921826 0.06867068
0.14734559 -0.11274005 -0.33130655 -0.33939913 -0.50374293 0.19505127 -0.64796996 0.5425656
0.087074384 0.15453364 0.31860742 -0.51716113 -0.17674658 -0.29433817 -0.20359048 -0.260826
-0.28046757 0.35349694 -0.13435812 -0.2156335 0.31034413 0.5739546 0.48715836 0.35380518
0.34125355 0.39885828 0.19580323 -0.17350799 -0.22769128 0.60945326 0.5593716 0.2118342
0.5872482 0.1376285 -0.7422642 0.21141125 -0.16779256 -0.28619173 -0.15234284 -0.060616545
0.06707597 0.31111303 0.30346254 0.2341506 0.43731046 0.3280441 0.3036318 0.22736745
0.12485186 -0.21350132 0.14462192 -0.07896366 -0.23901899 0.66726375 0.26463118 -0.0054081245
0.29059598 0.08319386 0.3462152 -0.1481741 -0.25471386 -0.19528711 -0.8365369 -0.47723925
0.22747897 0.024722395 0.14794552 0.16422406 -0.081243925 0.09681407 -0.43153036 0.07816972
0.059384502 0.45225602 -0.57636136 -0.3041494 -0.29742664 -1.3368064 -0.6174467 -0.32911468
-0.92076993 -0.28296626 0.08815526 -0.10031473 -0.19963746 -0.23519579 0.14691134 0.012109311
-0.006653025 -0.21295585 -0.28659615 -0.11909546 0.24051219 0.06915733 -0.14051159 0.3375537
0.04826256 -0.056229316 0.15223967 -0.26347476 -0.33279422 1.005167 0.483416 -0.49847952
0.45229807 0.21566957 -0.11910927 0.22385305 -0.18727702 -0.71088564 -0.14337529 0.4299933
0.4683281 -0.25253057 -0.13711728 -0.1129649 -0.11938179 -0.13014305 0.102271296 -0.29086086
-0.166248 0.096073486 -0.4184237 -0.022638239 0.34097704 -0.6974649 -0.13976538 0.38405076
-0.6063754 0.020935236 0.17239125 -0.30093563 0.07339838 -0.25781825 -0.18663645 0.37690306
-0.041220944 -0.31887895 -0.3383966 0.24025173 -0.10401951 0.054605708 0.06093157 0.39994892
0.029336546 -0.10044831 -0.26749587 -0.1251925 0.36934513 0.0023779573 -0.06357013 0.188104
0.27675065 0.29999483 -0.06784434 0.08027317 0.07522639 -0.031243451 0.008745994 0.07277739
-0.12531236 0.43355113 0.26135007 -0.036370672 -0.4944448 -0.036973536 0.10672117 -0.23214185

cell_list.2.conv_gates.weight f4 [20, 20, 3, 3]
00000000: 939f c93e 389c 1cbf 9cfb 93bf 083b f4bf
00000010: 2d7f acbe 5200 a53e 7cb5 51be f1b3 af37
00000020: f04a 253f eddb 5dbf e475 2dbf e249 ee3e
00000030: 3015 633e 5eee 473e 9606 a83e 8d02 1bbf
00000040: 503e f5be 0b12 d4be 7401 e0bf de07 88bf
00000050: 120e 80bf aa35 74bf ee32 36bf dada 08be
00000060: 7d10 97bf 1b7c 44be 7912 2a3f 8260 abbe
00000070: b348 1abe f206 c1be 43e3 123f bc9a 053e
00000080: b92b 67bf dd5b febe 01e2 33bf 93a7 92bd
00000090: fb9c 3c3f eeb4 663f df8f b93f 5d2c 663f
000000a0: 0c80 1d3f 38f8 9bbf d4ea 62bd 35fb 413d
000000b0: ef8f 4fbf aa48 afbf 033c 043d e176 6b3f
000000c0: 160c acbf 7110 713e f7ca 353f 10b2 9abc
000000d0: 203e 873f 7d26 393f 2faf d2bf decd 57bf
000000e0: e8ce e1be fd15 d6bf 5484 74bf af3f d0be
000000f0: 6caf 3cbf 7681 43bf 161a 91bd 2636 f6bf
00000100: 4e1b 113d 0d2f 193f f166 2cbe 025b 733f
00000110: 40cb df3e 21ad 6b3e f6a1 b3be 7db4 d23c
00000120: 110b b1bf 6608 433e 0e94 dd3e 2624 b33e
00000130: b76a c63f 0c5e 1b3f eed5 9d3f 6779 ff3f
00000140: c3e8 573c 8f28 dcbe 548c bd3e 5f0a 983f
00000150: 6cd1 c7be a21c a93e e7a0 ee3e fc3d 553e
00000160: 27dd 9a3f 4cc5 933e 5150 883e 968e 5b3d
00000170: 242e 7b3e 4f2c bd3e cedc a93e 3ca5 d5bd
00000180: d14a b0be a8ab 2ebd 7f2f dd3e 8c19 6fbe
00000190: 7940 83bd 5695 8e3d a837 28bf 9831 c23d
000001a0: a82f b13e 57ab 053f cb8c b83e 7dc5 ae3e
000001b0: 04e6 593e b44d bcbd 628f 3cbf 5391 7fbd
000001c0: d548 113c 343a 88bc 16c0 b43e 4d87 42be
000001d0: 147b 293e c81d 68bf f794 3fbe f2aa 073c
000001e0: d4f6 bbbd f9ce 50be 7178 fc3d 432f 73be
000001f0: 12aa 253e 47ed 7e3e ecfd a5be 4772 013e
00000200: 08ce f8bd a768 8c3c aeea 13bd 7f70 7b3c
00000210: ab6a 493d 96cb 11bf 3ca3 a7be 68cb b53e
00000220: 873c 213e 4aac 023f 748c 103f 8c3f 0c3f
00000230: e4ee 913e ee98 92bc 98e9 683e 6b46 a33e
00000240: a0b2 5a3d 3f78 68bb 591a c6be 5b7a dbbe
00000250: f677 af3d 84fc c43c ff80 6fbe 04d1 bbbe
00000260: 5800 02be d19e bfbe f2a8 1c3d a556 923d
00000270: 7f5f e13d 2ca8 ea3a 3f47 f3be 08fc 2bbe
00000280: 9311 96be c191 9a3e c8f8 113f ebcc d73d
00000290: ddf8 41be a351 873e 5d60 913e 9ae1 593e
000002a0: 523a c83e f8f6 0e3e d0b0 97be 59f9 273e
000002b0: c175 333e a14f 3abf 2b30 4bbf 1366 b6be
000002c0: 062c 17bf 8129 b93e b231 86be 0237 80be
000002d0: ba3a fa3e a5dd a9bf 487d 16bf 574a 1dbf
000002e0: 721c c0be dc47 8abe 6f37 063f 95d2 53bf
000002f0: 4930 e5bf dc11 823f 2c2f 98be 1c07 84bf
00000300: 2699 acbf 6c52 2d3f f178 b13f 16c1 963f
00000310: 3f53 8d3e c2e3 8d3f 6d22 813e bdce 3b3f
00000320: cf69 253f c341 d93e 7cf0 7c3f ec3a 593f
00000330: 0b4e dcbf 3636 403f 7f78 253f c4e1 39bf
00000340: a3a1 da3d 5215 10bf d37e 4c3f afe2 3dbe
00000350: 2856 34bf c28e ab3f ac62 b93e a6c1 5bbf
00000360: bedc 083f 6d22 e33e 0201 3a3f 4998 cd3e
00000370: d9f3 2f3f f8b4 0ebf 92e4 873f 8212 5a3e
00000380: 50ac 1ebf a166 a6bf fc27 8fbf 214a c1bf
00000390: 82fe 773f cd06 8a3e 2d10 30bf 58fa cebe
000003a0: add8 05be 7816 593f 45f8 19be 37b3 143f
000003b0: 5d02 64bf f9ad 523f c9d1 703e 6e74 213e
000003c0: d875 70bf 505d 753e 5716 88bf 2720 cebe
000003d0: e3b9 da3e cb82 7b3f d38e 0ebf 7ebd 40be
000003e0: 6216 483d 2632 873f f6c9 6c3f 0fd2 09bf
000003f0: 0b0f a03e d75e 603e 0622 cbbe 15d0 f73e
0.39379558 -0.6117587 -1.156116 -1.9080515 -0.33690777 0.32226807 -0.20479387 2.0945417e-05
0.6456747 -0.86663705 -0.6775801 0.46540743 0.22176051 0.19524524 0.32817525 -0.6055077
-0.47899103 -0.41420016 -1.7500443 -1.0627401 -1.0004294 -0.95394385 -0.7117146 -0.13364735
-1.1801907 -0.19187967 0.6643444 -0.33472067 -0.15066795 -0.3770061 0.57378024 0.13047308
-0.9030109 -0.4967946 -0.7026673 -0.071608685 0.73677033 0.90119827 1.4497031 0.89911443
0.6152351 -1.2185125 -0.05539973 0.04735871 -0.81079 -1.369405 0.032283794 0.9197827
-1.3441188 0.23541428 0.71012825 -0.018883735 1.0565834 0.72324353 -1.6459712 -0.84298503
-0.4410317 -1.672546 -0.95514417 -0.40673587 -0.7370517 -0.76369417 -0.070850536 -1.9235275
0.03542643 0.5983742 -0.16836144 0.9506074 0.43709755 0.23015262 -0.35084504 0.02572083
-1.3831502 0.19046172 0.4327702 0.34988517 1.5501317 0.6069038 1.2330911 1.9958924
0.013178053 -0.42999694 0.37021124 1.1878165 -0.39026964 0.33029658 0.46607134 0.20824426
1.209874 0.28861463 0.26623777 0.053602777 0.2452932 0.36947867 0.33176273 -0.104319066
-0.3443208 -0.042644173 0.432003 -0.23349589 -0.064087816 0.06962077 -0.65709925 0.094821155
0.3460667 0.5221457 0.36044917 0.34135047 0.2127915 -0.09194508 -0.73656285 -0.06239445
0.008867462 -0.016629316 0.353028 -0.18996926 0.16550857 -0.9067044 -0.1870917 0.008280503
-0.09177938 -0.20391454 0.1232766 -0.23748498 0.16178158 0.24895202 -0.3242029 0.1264125
-0.12148672 0.017139746 -0.03611248 0.015346645 0.049173992 -0.5695127 -0.32741725 0.3550675
0.15745746 0.5104414 0.56464314 0.54784465 0.28502572 -0.017895188 0.22745359 0.31889662
0.053393006 -0.0035472063 -0.38691977 -0.42866787 0.085678026 0.02404619 -0.23389052 -0.36682904
-0.12695444 -0.37425855 0.038247056 0.071454324 0.110045426 0.0017902902 -0.47515294 -0.16795361
-0.29310283 0.30189326 0.57020235 0.10537132 -0.1894259 0.2642947 0.28393832 0.21277466
0.39106995 0.13961399 -0.29627085 0.16403712 0.17525388 -0.72777754 -0.79370373 -0.3562475
-0.5905155 0.36164477 -0.2620979 -0.25041968 0.4887293 -1.3270766 -0.58784914 -0.6144156
-0.37521702 -0.2700795 0.52428335 -0.827432 -1.790536 1.01617 -0.2972349 -1.031467
-1.3484237 0.6770389 1.3865033 1.1777675 0.27602574 1.1085131 0.25221577 0.7336233
0.64614576 0.42432985 0.9880445 0.8485553 -1.7211317 0.7508272 0.6463699 -0.72610116
0.10675361 -0.5628253 0.7988102 -0.18543504 -0.70443964 1.3402941 0.36208093 -0.8584236
0.53461826 0.44362202 0.7265779 0.40155247 0.68731457 -0.55744886 1.0616629 0.21296123
-0.6198168 -1.300007 -1.1184077 -1.5100747 0.96872723 0.26958314 -0.6877468 -0.40425372
-0.13070937 0.8479991 -0.15036114 0.5808596 -0.89066106 0.8229671 0.23517527 0.1576707
-0.93929815 0.23961377 -1.0631818 -0.40258905 0.42719945 0.9824645 -0.5568668 -0.18822286
0.04884947 1.0562179 0.9249567 -0.5383615 0.31261477 0.21911179 -0.39674395 0.48400941

cell_list.2.conv_can.weight f4 [10, 20, 3, 3]
00000000: fab0 143e 09fd 903c b7ae 0a3f 371b babe
00000010: 2e79 cf3c 9652 44bd fda2 4abe 432b 163f
00000020: e7d5 a1be 3f31 25be 15dc cdbe 600e 03be
00000030: df07 65bf 1fc5 26be 27e2 24bf d247 eb3e
00000040: 4de0 a1bd cc83 213d d97c 773e 5ece 94bd
00000050: bc8e 7fbd eedc 45bf bdd2 0b3d 9378 1d3f
00000060: 988a 16bf 613b cebe e356 51be 4295 91be
00000070: 34a5 d7be 9c29 e1be 0e9c 663e 04dd c3be
00000080: 23b3 14be 848a d0bd 727a e13d 13ef 123f
00000090: b1ac 81be 5518 f5bd 0349 36be 879f 25bf
000000a0: 087f 8abe 47dc 253d 24bd 3f3f 136a a13e
000000b0: e61a 9a3e 2bb5 cd3e 6526 a3be af75 23bd
000000c0: 5e62 cabe 7179 4ebf d0f9 61be 72e5 97bf
000000d0: 27cd 3b3e 97db 0ebe 12c9 c13e 6375 00be
000000e0: eaf9 70be 0be6 adbe ced2 d6be 2804 c3bc
000000f0: 5791 cd3e 5792 ad3c e2c1 bcbe 8a56 a1be
00000100: 2fd9 fbbe 7953 f43d 1be9 5d3e 1572 c0be
00000110: d88f c73e e9d9 4e3e 0830 943e 184c 5abe
00000120: 3c3f 3c3f ea2f 173f f483 cdbd 5525 a7be
00000130: 35d3 efbe 66ef d6bc 7726 24bd 5a96 043d
00000140: c951 7c3d 2bea a13d b19b 233f 5ae3 3e3f
00000150: 1f74 cdbe 18e7 053e e811 8b3e 18d9 a93e
00000160: ce6e 04be 43f4 06bd ca19 59bf 8cac 2abf
00000170: a7c9 31be 0ac6 163f 958d 89be 1421 383f
00000180: bdf9 7fbe ae0f 6abd 22b1 38be 4400 4bbe
00000190: c1ef d93d 3c81 93be cb27 913e 6a08 7e3e
000001a0: 3894 ce3e ad29 193f 340e 873e 1733 86be
000001b0: f300 2a3f b5ae 6c3e e9fa 603e f3c6 9b3e
000001c0: 2657 c33e 3160 cebe c4d1 68bf 7b37 9ebe
000001d0: d49d 8fbe eaf8 00be eec2 0a3f 343a 4e3f
000001e0: 41d1 53be cf51 fcbd 3397 97be 699d 23bf
000001f0: eca9 15be eb13 b53e e737 b6be 04d4 d3be
00000200: 500f c93e d451 443f 4635 a13e 31b8 013e
00000210: cf15 8ebd 96e9 633e 5a24 aebb b883 953e
00000220: b574 05bb 7ba8 963e 13e1 02bf 6eff 91be
00000230: 6003 c1be 2d0f 333f 425f e73e 0bb9 a43e
00000240: 5605 a1be d00c 53be 6ab0 9cbe b411 293f
00000250: fd26 c23e dcd5 f53e c5c8 bcbe 335c 28be
00000260: d236 56bc 36be c13e 6122 3bbe e6a2 cc3e
00000270: 987d 7fbd a0b0 fbbc 1e38 733a 261f dcbe
00000280: a80a 58be 464c be3e b76e 67bd 58b3 cabd
00000290: 1570 eebe e311 f1be 3969 88bd d704 5f3e
000002a0: 787d a33e 0560 313e 5aeb 193f d7fe f03e
000002b0: 8081 223f b65a cbbd 668d d2be e3db efbd
000002c0: 96bc b0be 6d55 363d acd7 bcbe aea7 0a3e
000002d0: 6383 aebd 617f e0be dac1 cbbd 28b1 c8be
000002e0: 0cd1 b6be ff4d 553e 9ea8 b6be c776 d1be
000002f0: 7a63 a23e 84f9 bb3e 4547 833e 977d 1e3f
00000300: a539 fc3e 8b97 723c 3e87 27bd 897f 113f
00000310: dad3 ca3e 9d4c e9bd ae9b a3be 0406 14be
00000320: 5476 a23e 5c7b 893e 91f6 e03e d627 813e
00000330: 1248 823f 1303 39be 1c0c 57bf 4c86 bc3e
00000340: 266c ca3e 8c3f 40be 58c7 623e 8f9b 2dbf
00000350: a00b 29bf 89d3 62bc 9fb0 3d3a ecb6 833e
00000360: 0272 e7be 7daa 1c3e 246a 91be ced1 7dbe
00000370: a450 88be 5e8b babe 7a7a cd3e d5f3 e83c
00000380: 7482 b6be caab e1be 967c ca3e c293 cd3e
00000390: 5d48 063e 13a8 513d 05c5 f53e 42f5 ae3e
000003a0: dfe0 05bf 75e9 92bf 68af e9be 6797 4dbe
000003b0: a4ed 68be 83c2 c5be 656e 863e 03be 6d3e
000003c0: 04ad bfbd 02ec 17be 3683 503e 7661 9e3e
000003d0: 7cca 3a3f a2fa 243f 1a77 af3d 67f5 633e
000003e0: 0df1 02bf bd1a 05be c449 ecbe ca39 c03e
000003f0: bca2 c03e 45b4 023f 6fa5 0c3f a408 f13c
0.14520636 0.017698782 0.54172844 -0.36348888 0.025326338 -0.047930323 -0.19788738 0.5865976
-0.31608507 -0.16132067 -0.40206972 -0.12798452 -0.89465135 -0.16286133 -0.6440758 0.45953232
-0.0790411 0.039432332 0.2416872 -0.07265924 -0.06239198 -0.77290237 0.034136523 0.61512107
-0.5880523 -0.40279678 -0.20443301 -0.28434187 -0.42118227 -0.43977058 0.22520468 -0.3825456
-0.1452146 -0.1018267 0.11009683 0.5739605 -0.25327066 -0.119675316 -0.1780129 -0.64696544
-0.27050042 0.040493276 0.7489798 0.3152624 0.30098647 0.40177283 -0.3186523 -0.039907154
-0.39528173 -0.80654055 -0.22067952 -1.1866896 0.18339978 -0.13950954 0.37848717 -0.1254478
-0.23532835 -0.3396457 -0.41957706 -0.023805693 0.40149948 0.021187944 -0.3686667 -0.31511337
-0.49189135 0.11929984 0.21670954 -0.37587038 0.38976932 0.20200314 0.28942895 -0.2131809
0.7353399 0.59057486 -0.10034934 -0.3264567 -0.46840826 -0.026237201 -0.040075745 0.03236995
0.061601434 0.07905992 0.6390944 0.7456566 -0.40127656 0.13076437 0.271621 0.33173442
-0.12932894 -0.03294779 -0.84804976 -0.66669536 -0.1736208 0.58895934 -0.2686583 0.71925473
-0.24997611 -0.05714386 -0.18036321 -0.1982432 0.106414326 -0.28809536 0.28350672 0.24807897
0.40347457 0.5982922 0.26378024 -0.26210853 0.664077 0.2311352 0.21970715 0.30425224
0.38152426 -0.40307763 -0.90945077 -0.30901703 -0.280501 -0.12594953 0.5420369 0.8055756
-0.20685293 -0.12320291 -0.29607543 -0.63912064 -0.14615601 0.3536676 -0.35589525 -0.41372693
0.39269495 0.7668736 0.31485957 0.1266792 -0.069377534 0.22257075 -0.005314392 0.29202056
-0.0020363752 0.29425415 -0.51124686 -0.2851519 -0.37697887 0.6994503 0.45189863 0.32172427
-0.31449383 -0.20610356 -0.30603343 0.6604264 0.3792037 0.48014724 -0.36871925 -0.16441421
-0.013074594 0.37840432 -0.18274833 0.39968032 -0.062375635 -0.03072387 0.00092780765 -0.42992514
-0.21097815 0.37167567 -0.05650207 -0.09897488 -0.46569887 -0.4708396 -0.06660695 0.2177919
0.31931663 0.17321785 0.60124743 0.47069427 0.6347885 -0.09929411 -0.41123503 -0.11711862
-0.3451888 0.044515062 -0.36883295 0.13540527 -0.08521154 -0.43847182 -0.099490836 -0.3919766
-0.35706365 0.20830534 -0.3567552 -0.40910932 0.3171652 0.36713803 0.25640312 0.61910385
0.4926273 0.0148066385 -0.04090046 0.5683523 0.39614755 -0.11391566 -0.31954712 -0.1445542
0.31730902 0.26851928 0.43938115 0.25225705 1.0178244 -0.18067579 -0.8400285 0.3682121
0.39535636 -0.18774241 0.22146356 -0.6781549 -0.66033363 -0.013844379 0.00072360964 0.25725496
-0.4520417 0.15299411 -0.2840129 -0.24787065 -0.26624024 -0.36434454 0.40132505 0.02843658
-0.35646403 -0.44076377 0.39548177 0.40151793 0.13113542 0.05118568 0.48001876 0.34171492
-0.5229625 -1.1477495 -0.45641637 -0.20077287 -0.22746903 -0.38624963 0.262561 0.23217015
-0.09359172 -0.14836124 0.20362553 0.30933732 0.72965217 0.64444935 0.08567639 0.22261582
-0.51149064 -0.12998481 -0.4615003 0.3754409 0.37624156 0.5105632 0.5493993 0.029423065

cell_list.3.conv_gates.weight f4 [20, 20, 1, 1]
00000000: e922 ccbf ce14 1a3f 409f 5abf 5a22 99be
00000010: 6741 1fbe 9023 a8be 5b1e ce3f 0034 273e
00000020: 3d1f b8bf 0579 2b3e 5dc2 fc3e fe0b abbf
00000030: 74d6 893f d3b9 dfbf e96b 9bbd 5454 98bf
00000040: 9367 81bf 0b8a 6c3e 2789 06bd cc20 67bf
00000050: c218 a2bf c30c 9f3f 46bf 5fbf 53c1 2d3e
00000060: e0a5 f2be b04a 8fbe 04be 223f e59d d5be
00000070: 15c7 d83e b02f b23f 6ed7 5dbf 76f0 123f
00000080: b002 2b3f cecf 56bf fb65 97bf 0766 97bf
00000090: 882f 49bf c72e 18bf 9438 0a3f a8dc 6dbf
000000a0: e6ed 84bf 335e 12bf 62a2 56bf 0c80 953f
000000b0: 1ab9 0cbf 7220 2e3f 0a3a 2abf 0300 a33d
000000c0: f5ad 1cbf a2b3 54bf c1fb b8bf a938 73be
000000d0: 773c 1bbf 50bd 9cbf 6aa4 323f 005d 293f
000000e0: 47a5 89bf 689d a3be 87a3 e23d 6991 a3bf
000000f0: 8f2e a3be 3163 b5bf 228e 8fbf 36b1 1f3f
00000100: cc5a 273f a559 9abe 97fe d93f 6e35 4f3d
00000110: 76c6 2dbe 1f0d 663f 4d8b 85bf 13e1 2cbf
00000120: 0803 363f 0715 353f 494c 00bf 9718 18bf
00000130: f75e 57bf 6b82 253f a83e 2ebf 2ccb b1be
00000140: 86d6 0940 32b8 4ebf 3925 383f 1b14 b2be
00000150: 2fd9 303f a7e6 73bf b0da 8d3d e439 213e
00000160: c940 2e3f f445 c23f c6e6 983e 10c7 f3bf
00000170: 3b15 38bf 9b6f 49bf 492f 383f 9745 11c0
00000180: 86d6 fb3e 0d80 ddbf ecac b0bf cc38 e0be
00000190: 3149 913f c74d 043f e80b be3f 554a e5bf
000001a0: 24ed 633f 449a 50be a016 463f e63f 1d3f
000001b0: 1d0f fe3e 8e9c a03f fa1c 40bf fb54 d1bf
000001c0: 73f2 cbbe 21f2 32bf d133 08c0 1428 613f
000001d0: 5217 0a3f d97d 08c0 fc23 8abf 8f8f e23c
000001e0: be2a b2be 3271 403e 9578 bfbf c12d 963f
000001f0: 4126 cbbe d942 723f c4a1 b8bf cf6a eb3e
00000200: b060 99bf 58ee 0cc0 1835 9ebe e24c 603f
00000210: 7674 143f db90 c03d 2d90 763f 4daf 8e3f
00000220: e832 173f 0763 82bf b6b0 c43e 2fb4 a2be
00000230: e90b 7d3f e8d0 e23e dc05 6d3e 5fe9 91bf
00000240: ae4e cdbf 8505 5dbf 5f8c 08c0 747e 243f
00000250: b9eb 943f 90cd 383f 36a9 903f 1ab1 28bf
00000260: 8488 08c0 1a7c 2e3f 1d6f 56bf d5ce a2bf
00000270: 572f 263f 5508 95be c01d 363f c957 693f
00000280: 7741 0640 b52f 0ac0 64a2 da3f c502 723f
00000290: f117 0fbf 3c65 a63f 44a4 16bf a1ca c43e
000002a0: a3a7 d0be bde6 573d 41a1 153f 1ba8 203d
000002b0: 5570 0abf bbba aabf f445 8bbf 96bc 26bf
000002c0: caf9 153f 857e 1e3d d274 aabe 5c56 ddbe
000002d0: 188a b5bf 8132 0440 b635 eabf 03d0 f33d
000002e0: 8cce 85bf c7a7 0140 810c 733f 1718 aebc
000002f0: a31c 0fbf 15b9 163e 9d33 d4bd baf4 b6bd
00000300: 0531 013f 8a61 75bd a7e3 253f da2e f03e
00000310: 7741 32bf 3f2b cebe 6e20 36be 06be a1be
00000320: bc54 a0be c75e 0dbf 30bf 943f 28b6 8b3f
00000330: 22a3 8bbd 42ec e33e 123c c1be 455a c13e
00000340: 7c3c d7bd e95e 15bf ac6d 7cc0 a95f ec3f
00000350: a3cb 86bf b077 b03f aa0b 9abe 0ba1 0c3f
00000360: be25 9a3f 7f2e 11be 57a0 8cbe e718 c63e
00000370: 48d6 6cbf d216 a53e 2c4d c53e 3db4 3c3e
00000380: 45c4 1ebe fff7 ae3d 8314 a7be dc6f 9e3c
00000390: 4e24 c6be 41af 56be e39b e53f bd53 91c0
000003a0: d1fb 02bf 10c4 893f a7b1 aa3f 6a4a 833f
000003b0: 22ea 9e3e 7786 573e 0497 b43e 8625 d53e
000003c0: 3822 dabe 631d 043f ae19 8f3e be5a c83e
000003d0: e1b5 683f 2fe2 cf3e 179f 90be 7a7a a83f
000003e0: b7fb 89be f553 5dbd 4cd5 c8bf 2821 8abf
000003f0: 6694 49c0 4a47 8dbf b4b7 1abe 8606 163e
-1.5948154 0.60187995 -0.85399246 -0.2990902 -0.15552293 -0.32839632 1.6103014 0.1632843
-1.4384533 0.16745384 0.49367037 -1.3363035 1.0768571 -1.7478584 -0.075889416 -1.1900735
-1.0109733 0.23099534 -0.032845642 -0.9028442 -1.2663805 1.242577 -0.87401235 0.16968279
-0.47392178 -0.2798667 0.6357119 -0.41722026 0.42339388 1.3920803 -0.86656845 0.57398164
0.66800976 -0.83910835 -1.1827997 -1.1828011 -0.7858815 -0.59446377 0.5399258 -0.9291482
-1.0385101 -0.57174987 -0.83841527 1.1679702 -0.5496994 0.6801826 -0.6649481 0.079589866
-0.6120294 -0.830866 -1.4451829 -0.23752083 -0.6063914 -1.2245274 0.69782126 0.6615753
-1.0753564 -0.3195603 0.110663466 -1.2778751 -0.3187146 -1.4170896 -1.121525 0.6237978
0.6537292 -0.30146518 1.703082 0.050588064 -0.16970238 0.8986377 -1.0433136 -0.67530936
0.71098375 0.7073521 -0.501164 -0.5941252 -0.8412928 0.6465213 -0.68064356 -0.3472532
2.1537185 -0.8074981 0.719318 -0.34780964 0.69081396 -0.9527382 0.06926477 0.1574474
0.68067604 1.5177598 0.29863566 -1.9045124 -0.71907395 -0.7868592 0.7194715 -2.2698724
0.49187106 -1.7304703 -1.3802772 -0.43793333 1.1350461 0.5168118 1.4847383 -1.7913309
0.8903372 -0.20371348 0.77378273 0.61425626 0.49620906 1.2547777 -0.75044215 -1.6354059
-0.39833412 -0.6990071 -2.1281626 0.8795178 0.53941834 -2.1326811 -1.0792232 0.027656345
-0.34798235 0.1879318 -1.4958674 1.1732713 -0.39677623 0.9463325 -1.4424367 0.45979926
-1.1982632 -2.2020473 -0.30899882 0.87617314 0.57990205 0.09402629 0.96313745 1.1147248
0.5906205 -1.0186471 0.3841607 -0.31778094 0.988463 0.44300008 0.23146766 -1.1399344
-1.6039636 -0.8633655 -2.1335676 0.6425545 1.1634437 0.72188663 1.1301639 -0.65895236
-2.1333323 0.68158114 -0.83763295 -1.271937 0.64915985 -0.2910792 0.71139145 0.91149575
2.0977457 -2.1591618 1.7080808 0.94535476 -0.55895907 1.2999644 -0.588444 0.38435844
-0.40752897 0.052710284 0.5844918 0.039222818 -0.54077655 -1.3338236 -1.0880723 -0.6513151
0.5858427 0.038694877 -0.33292252 -0.4322995 -1.4182768 2.0655825 -1.8297641 0.119049095
-1.0453658 2.0258653 0.94940954 -0.021251721 -0.5590307 0.1471904 -0.10361407 -0.08933397
0.5046542 -0.059907474 0.64800495 0.46910745 -0.6963114 -0.4026737 -0.17785808 -0.3159029
-0.31314647 -0.55222744 1.1620846 1.0914965 -0.068182245 0.44516188 -0.37741143 0.37764183
-0.10509583 -0.58347946 -3.9441938 1.8466693 -1.0530895 1.3786526 -0.30087024 0.5493323
1.2042768 -0.14177893 -0.2746608 0.38690874 -0.9251447 0.32243973 0.3853544 0.1842813
-0.15504558 0.08543395 -0.32632837 0.019340448 -0.38699573 -0.20965292 1.7938198 -4.541472
-0.5116549 1.0762959 1.3335465 1.0257084 0.31038004 0.21047388 0.35271466 0.4163019
-0.42604232 0.5160734 0.2794928 0.3913173 0.90902525 0.40602252 -0.28246376 1.3162377
-0.26949856 -0.054035146 -1.5690093 -1.0791368 -3.1496825 -1.1037381 -0.1510914 0.14650926

cell_list.3.conv_can.weight f4 [10, 20, 1, 1]
00000000: 3286 523e 79df 9bbd e83e 153f c9c9 2cbd
00000010: 21a6 cabe 5b0a 3b3e 79fd 39bf df6d f43d
00000020: 7cb6 383e 9c65 97bc 5cc6 80bf de83 943d
00000030: 13ac b5be 6fc3 663e c482 25bb dc36 883e
00000040: 9763 563e 891d 753c ecb2 403d 5ed9 76bd
00000050: f637 b03d 6f96 10bd 9485 203e fbc1 85be
00000060: 4fa7 0fbe acfe 963e 5ed3 1dbf cded 8dbd
00000070: 0a91 22be 48bd 28bf 0b3d 883e d4a6 0abf
00000080: d59d 15be 144b 123d 8f43 153f 6138 c83e
00000090: 75d1 a33d 3d72 833e 93a1 b7bc 8bf8 7f3e
000000a0: b84a d2be 5298 e8bc d7cf 19bf 1723 1b3f
000000b0: 7283 c03e d184 ac3e 656b 4a3f a1d4 683c
000000c0: 2b1b 97be d474 373e 0ee6 29bf bcd7 9bbe
000000d0: df0d 36bf 6897 05bf 4180 56be 1737 a5bd
000000e0: 4459 253b 4fc7 413e 370d 7d3d 2b49 6bbe
000000f0: 436d 18be 5648 b73e 4664 923e 7534 1ebe
00000100: 6a6c 82bb c470 60bd 0ae6 23bf d2c3 54be
00000110: 9a6d 7c3e 5dce 7fbd 9600 183f dc0a 8f3e
00000120: 0427 b9be bf53 acbf d484 a33e 5ff7 ad3e
00000130: 43cb 503e f052 f73d fdba f63e 659a ef3e
00000140: 0d7f 95be a13d 5e3e f7e1 b0be 712e efbd
00000150: 5cc8 67bd ad92 9c3e 6bd9 babe 4b0e d4bd
00000160: eff6 8c3d e791 38bf 96e3 16be 9033 173f
00000170: f15d 2cbc 5289 563e 84c2 6abf 0717 033f
00000180: afae 3dbd 5c3f 963e ca16 1b3e fd3d 0a3e
00000190: 803d d7bd a79e 723d 2b67 dfbd 7f11 d83e
000001a0: ee93 143e 3d1a 2c3f 8d3c 10bf f104 17bc
000001b0: 414f 603e b237 e0be e036 0b3e c818 6b3e
000001c0: e86b 9a3d 607c 123e 516e df3e 466c 41bf
000001d0: 335f a8bc 4f94 e43e 5889 863e 46b1 01be
000001e0: 7535 2c3f 9598 dc3e 10a7 113f eba7 2abf
000001f0: 12ef 73bd fe03 9bbe b4d0 55be f590 003f
00000200: bb9f 733e 3908 903d f4f0 433f 4875 263e
00000210: 15a4 5abe c72d 883e 18bc aabe aa6f 693c
00000220: cf65 2cbf 0756 bdbe 3f54 bfbe 23cc 8f3e
00000230: aa05 82be d83c 0f3c a425 59be 66c3 433f
00000240: 98d4 793e a215 223f 2cac c2bd 85e4 cabe
00000250: 64e5 a0be 535c 30bf 0eef c43d 3b81 353c
00000260: 4014 e43d fd9e be3c cf3d cf3e bf22 223f
00000270: 8d6d 55be dc8e 5bbf 6c1a 003d 0f2f 86be
00000280: 960f 53bf e3d2 f03d cab4 babe f63f 4b38
00000290: 08e1 1a3e 8e95 80be da81 24bf a5f8 583c
000002a0: 3b60 873e 443d 773e 8a8d 5a3e 2767 893e
000002b0: 9b57 f3bd eace 373f f01e 043f 95e5 b43e
000002c0: b124 253d 3013 01be 7d04 29bf ae64 783e
000002d0: 0dbc 543e d0ed 163e a9ba 363d 7173 58bf
000002e0: 80aa 2fbc 5577 29bf 511b dbbe 3c79 333d
000002f0: 8399 d53e ab83 4abe 4283 e73c 28e1 e43d
00000300: bb13 ccbd 712e 953e 5f56 333e 41e9 363d
00000310: 522b 563e e83e 44be 6450 3c3e c092 66bf
0.20559004 -0.076109834 0.5829911 -0.042184625 -0.3957987 0.18265669 -0.72652394 0.11935019
0.18038362 -0.018481068 -1.0060534 0.07251714 -0.35482845 0.2253549 -0.0025254944 0.26604354
0.20936428 0.014960655 0.047045633 -0.06026589 0.08604424 -0.035299715 0.15675956 -0.26124558
-0.14028667 0.29491174 -0.61650646 -0.069301225 -0.1587564 -0.6591382 0.26609072 -0.5416081
-0.1461099 0.03571613 0.5830621 0.39105514 0.07998935 0.25673094 -0.022415912 0.24997155
-0.4107263 -0.028392944 -0.60082763 0.6060042 0.37600285 0.3369508 0.7907012 0.014210851
-0.29512915 0.1791566 -0.6636666 -0.3043803 -0.71114916 -0.5218415 -0.20947362 -0.08067148
0.0025230208 0.18923686 0.06178018 -0.2297713 -0.1488543 0.35797375 0.28592128 -0.15449698
-0.003980209 -0.05479504 -0.64022887 -0.20777825 0.24651185 -0.062452663 0.59375894 0.27937973
-0.3616258 -1.3463057 0.31937277 0.33977792 0.20390038 0.12076366 0.48189536 0.4679748
-0.29198495 0.21703197 -0.34547397 -0.1167878 -0.056587562 0.30580655 -0.36494002 -0.10354289
0.06883036 -0.7209763 -0.14735255 0.59063053 -0.010520444 0.20950821 -0.9170306 0.5120701
-0.04630917 0.29345214 0.15145412 0.13500209 -0.10509777 0.059233334 -0.109083496 0.42200848
0.14509556 0.67227536 -0.56342393 -0.009217487 0.21905233 -0.43792492 0.13595152 0.22958672
0.07540113 0.14305258 0.43638852 -0.7555584 -0.020553207 0.446444 0.2627666 -0.1266528
0.6726907 0.4308516 0.5689554 -0.6666247 -0.059554167 -0.30276483 -0.20880395 0.50221187
0.23791401 0.07032818 0.7653954 0.16255677 -0.21351655 0.26597425 -0.3334663 0.014247814
-0.6734285 -0.36979696 -0.37368962 0.2808543 -0.25394946 0.008742534 -0.21205765 0.7647003
0.24397504 0.6331426 -0.095054954 -0.39627472 -0.3142501 -0.68890876 0.096159086 0.011078174
0.11136675 0.02326917 0.40476844 0.6333427 -0.20842572 -0.8576486 0.031275198 -0.26207778
-0.8244566 0.117589734 -0.36466056 4.845854e-05 0.15124905 -0.251141 -0.6426064 0.013242875
0.26440606 0.24144465 0.21343055 0.26836511 -0.11881944 0.718001 0.51609707 0.35331407
0.040318195 -0.12604976 -0.66022474 0.24257156 0.2077486 0.14739156 0.044611607 -0.8455115
-0.010721803 -0.6619771 -0.42794278 0.04381679 0.41718683 -0.1977679 0.02826083 0.11175758
-0.09964701 0.29136994 0.17513417 0.044656042 0.20914963 -0.19164622 0.18390042 -0.9006767
