saved_models/ambimg_brainlike/big_rnn2_classifier.pt (torch, 70576 bytes, 4 tensors)

fc1.weight f4 [100, 160]
000000 89 db 64 bd f5 2f dc 3d e4 ba 5a 3e 0d df 20 be
       -0.055873428 0.107513346 0.21360356 -0.15710087
000010 10 64 6a 3e a0 4a 18 3e e4 f0 c1 3c 15 89 6e 3e
       0.22889733 0.14872217 0.023674436 0.2329448
000020 b1 3d 33 3f 53 cf f0 bd 9b a8 17 3d 13 84 de 3e
       0.7001601 -0.11758294 0.03702603 0.4346014
000030 15 b2 fc bb 66 a8 7c be 3a 6f 6e 3e 60 28 af be
       -0.0077116587 -0.24673614 0.23284617 -0.3421049
000040 7e 8b 0f bd ef 55 97 3e 92 50 b2 bc 2d 6e 35 be
       -0.03504514 0.2955775 -0.021766935 -0.1771781
000050 4d ef f5 bd c8 2e ab 3e 9e 42 90 bc bf 1a 87 3f
       -0.120085336 0.3343413 -0.01760989 1.0555037
000060 89 31 28 be d2 82 ab bc 9e e5 96 3e a4 5f 15 bc
       -0.16425146 -0.020936403 0.2947206 -0.009117041
000070 67 6c 77 bd cb f5 d4 be 6a 90 b2 be e8 70 77 3e
       -0.060406115 -0.41593775 -0.34875804 0.24164164
000080 ca ff 20 bb d6 2e d7 3c db 1d 59 bd a8 a7 cb be
       -0.0024566525 0.02626745 -0.053006988 -0.3977635
000090 69 5f 83 3e 5c 08 99 be 6e c2 f5 3c 5b 63 de bd
       0.2565873 -0.2988919 0.029999938 -0.10858794
0000a0 3c 5c 1e 3d 6c 27 06 bf 18 a6 56 be 93 9d 4c 3e
       0.03866218 -0.52403903 -0.20961797 0.19981985
0000b0 79 4b d0 3d c3 81 00 3e 56 fa 8a 3e 86 cc 4e 3f
       0.10170645 0.125495 0.27144116 0.8078083
0000c0 30 2f 85 3e c5 6a 0b bd d9 e4 ac be 05 82 36 3d
       0.26012564 -0.03403737 -0.33768347 0.04455759
0000d0 5b 87 e1 3d 80 7a c3 bd ba 91 7d 3d 1b 08 10 3f
       0.11012145 -0.095448494 0.061906554 0.5626237
0000e0 1c 4c ef bc 96 91 d9 be c2 42 58 be f5 a4 aa bd
       -0.029211096 -0.42493886 -0.21119216 -0.08332244
0000f0 f9 4d cd bf 9e 73 28 bf b3 04 cb bd 54 9f 47 3e
       -1.603942 -0.6580142 -0.09913006 0.19494373
000100 02 7d 8c be f1 5c 05 3e d3 9f 89 bd e3 41 c7 3e
       -0.27439123 0.13023736 -0.06719937 0.38917455
000110 e2 80 1d 3e 4b 01 f1 3e 6c 05 94 3e 94 bc 51 3f
       0.15381196 0.470713 0.28910387 0.8192837
000120 47 c2 a1 bd 22 3d b7 be 0d 88 f3 be 8b e2 45 3e
       -0.078983836 -0.35788828 -0.47564736 0.193247
000130 ed bd 7c bf f4 a1 8e bf c1 31 05 be dd a1 5b 3e
       -0.98727304 -1.1143174 -0.13007261 0.21448465
000140 e2 f8 6b 3e 8b a9 ab 3d 5d f7 74 3e 40 dc f8 bd
       0.2304416 0.08381947 0.23922487 -0.12151384
000150 9e b8 6b 3e 47 94 95 bc d3 b1 25 3e e0 f3 b9 bc
       0.23019645 -0.01825918 0.16181116 -0.022699296
000160 28 f7 38 be 7b e5 0b 3e bd 93 00 3f 62 12 a4 3e
       -0.18063033 0.13661759 0.5022543 0.32045275
000170 55 6a 2c 3f 1c e8 d4 3e 05 d6 01 3e f8 81 1f c0
       0.6734975 0.41583335 0.12679298 -2.4923077
000180 c8 af ef bd a2 ef a7 3d 29 47 a1 3c 33 46 84 3e
       -0.117034495 0.08200003 0.019687252 0.25834808
000190 a7 e8 bd 3e 61 20 be bd 91 c0 c7 3e 2a c1 5c bd
       0.37091562 -0.092835195 0.39014104 -0.053895153
0001a0 ac ba aa bd 7f 15 b2 be 36 cf 8f bb 6a c8 a1 3e
       -0.08336386 -0.34782025 -0.004388715 0.31598216
0001b0 b5 3f 65 bf 08 28 4c bf a1 bc 42 bf 5e e9 41 bd
       -0.89550334 -0.7974858 -0.76069075 -0.047341697
0001c0 81 1c 0c bd 33 ba e8 bd b6 2f 44 be 6e 37 68 3e
       -0.03420687 -0.1136364 -0.19158825 0.22677395
0001d0 21 ee 6d 3c 4c 89 43 3d 5c 5f 66 bd 1f 33 9d 3d
       0.014522106 0.04773836 -0.056243286 0.07675766
0001e0 ec 8b 09 be a7 e0 ce bd ac c1 74 bf 31 55 ab bc
       -0.13432282 -0.10101443 -0.9560802 -0.020914646
0001f0 9a 75 53 bf fa e0 13 bf 57 41 2d 3d ec 3e e8 3d
       -0.8260132 -0.5776516 0.04229864 0.113401264
000200 93 7d 4c 3e 26 29 ff 3d 55 ae 10 3e d7 47 9a be
       0.19969778 0.1245902 0.14129002 -0.30132934
000210 8f b6 93 3c d9 79 61 be cb 0e 55 be 73 b9 62 3e
       0.018031387 -0.22019137 -0.20806424 0.22141056
000220 53 56 a7 3e 74 63 66 be 47 17 ab 3d 1d e0 14 be
       0.32683048 -0.22498876 0.08354049 -0.14538617
000230 81 e5 2b 3f 10 cb 3d 3e 88 2d 61 be 2d 17 66 3f
       0.6714707 0.18534493 -0.21990025 0.89879113
000240 5b 6a ab 3e 46 e5 e4 3e 44 44 a2 3e e1 56 df be
       0.3347958 0.44706172 0.31692708 -0.4362097
000250 8f 34 e3 3e 61 85 a4 be fc b0 9f 3e 3b e0 70 be
       0.44376037 -0.3213301 0.31189716 -0.23523037
000260 d1 55 e5 3d c1 a6 96 be de 4e c8 3e f3 c4 dd 3e
       0.11198009 -0.29424098 0.3912267 0.43314323
000270 dd 97 9d 3e f3 9b fa 3e 3b 20 08 3e 56 b6 99 bf
       0.30779925 0.48947105 0.13293545 -1.200877
000280 10 2a f7 3d 4c b3 33 be 8e 3e ce 3b f9 e5 89 3d
       0.1206857 -0.17548865 0.006294078 0.06733317
000290 c0 c4 5c bd 50 92 95 3e 96 ad 23 bd 08 76 89 3e
       -0.053898573 0.2921319 -0.039960466 0.26847863
0002a0 60 2c 87 be 3c 07 ca bd 98 47 d1 bc b6 0f e0 bb
       -0.26401043 -0.09864661 -0.025546834 -0.0068378104
0002b0 67 45 76 3f 70 69 9b be 86 51 64 bd 44 b7 be be
       0.9619965 -0.3035388 -0.05574181 -0.37249196
0002c0 7a 5e c3 be 97 06 6b bd 45 18 6f 3d cd 9e 47 3f
       -0.38158017 -0.05737933 0.058372755 0.77976686
0002d0 5a fe 8d be ad 59 85 3d ed 98 12 be 08 26 3d 3e
       -0.27733117 0.06511245 -0.14316149 0.18471539
0002e0 b6 88 17 3d b1 d9 dc 3e 51 45 a6 bd 5f fc 32 3f
       0.036995612 0.43134835 -0.0811869 0.6991634
0002f0 91 3f 15 3e f1 27 5c 3f b8 36 4f bf f5 12 29 bf
       0.1457503 0.85998446 -0.8094287 -0.6604455
000300 ff 40 04 3f 42 45 b1 bc f2 fd 40 be 76 b9 9b 3e
       0.51661676 -0.02163947 -0.18846872 0.30414933
000310 5b 93 9e 3e 45 e9 19 3e 14 31 ad 3d a0 a9 c1 3e
       0.30971798 0.15030392 0.084566265 0.37824726
000320 78 01 05 bf 54 e6 21 bf 71 75 cc be 43 fe 8c be
       -0.51955366 -0.6324208 -0.3993335 -0.27537736
000330 9b f8 28 3f b2 3d ac be bc 29 55 3f 97 48 52 3f
       0.6600434 -0.3364082 0.83266807 0.82142013
000340 30 c0 d2 bd 97 0f 15 3e 5d 6d 7f be f9 22 1e 3f
       -0.10290563 0.14556728 -0.24944063 0.61772114
000350 cb 86 ab be de 44 5c be d1 33 5c 3e 88 dc 7c be
       -0.33501276 -0.21510646 0.21504141 -0.24693501
000360 d5 d3 b5 3e 6b e6 d2 3d 83 ee 10 be c1 ec 3d 3b
       0.35513178 0.10297855 -0.14153485 0.0028980228
000370 29 e0 f7 bd 06 2d b6 bd 49 ca 1a bd 34 45 89 3c
       -0.12103302 -0.08895306 -0.03779057 0.016756631
000380 df 45 a3 3c 69 cc d9 bd 0c 56 1a bd b8 c2 30 3f
       0.019930778 -0.10634691 -0.037679717 0.6904712
000390 ce e2 b3 be 04 cb d5 be 96 af 7e 3e ff 90 0a 3e
       -0.35133976 -0.4175645 0.24871668 0.13531874
0003a0 2c 02 c7 3e 0b 30 07 3d 17 b7 d5 be 44 7a 9f 3d
       0.38868845 0.0330048 -0.4174125 0.07786992
0003b0 6f 3e 37 3d 6b f8 3d 3e c9 95 dc be a5 78 a8 3e
       0.044737276 0.18551795 -0.43083027 0.32904544
0003c0 8e 97 0c 3e e4 4a 71 3e fd db 59 3f 75 64 be be
       0.13729689 0.23563725 0.851013 -0.37186018
0003d0 a3 d3 46 bd 63 16 9e 3e 2a 80 09 be fc 1d b7 3e
       -0.048541676 0.30876455 -0.13427797 0.35765064
0003e0 fa b8 7c 3e f6 81 b9 be 90 bf 10 3f 11 f5 a4 bd
       0.24679938 -0.36231965 0.565423 -0.08054555
0003f0 f9 12 3e 3f ff 1d 2a be c0 60 67 be 73 a4 a1 be
       0.742477 -0.16613005 -0.22595501 -0.31570777

fc1.bias f4 [100]
000000 d5 1a 04 bc 79 20 97 3d 37 57 92 3d b0 2d 4f 3d
       -0.008063038 0.073792405 0.07145541 0.05058068
000010 4d ca 87 bb 99 6b 49 3e 61 68 6f bc 89 70 06 be
       -0.004143989 0.19669951 -0.014612288 -0.13128866
000020 be 1d 94 3e bf 47 03 bc d8 e7 19 3f aa 68 4b be
       0.2892894 -0.008012711 0.6011939 -0.19864145
000030 70 cb 8c be a2 29 3c 3e 49 2c 8e 3e 51 40 31 3d
       -0.2749896 0.18375257 0.27768162 0.043274228
000040 72 c6 eb be be d1 0f 3c 6a d0 40 bd e4 93 35 3e
       -0.4604984 0.008778034 -0.04707376 0.17732197
000050 2e ac ee 3e 71 37 2e 3d 54 3e 17 3d d9 1e 82 be
       0.46615738 0.04253334 0.036924675 -0.2541416
000060 e1 b9 08 be 24 ae 9a 3c 90 34 92 3e 97 71 aa bd
       -0.13352157 0.018881865 0.28555727 -0.08322447
000070 cd c3 20 bb b9 a4 b8 3d b5 fd 9d bd ec 7b 65 3e
       -0.002453077 0.09015793 -0.077144064 0.22410554
000080 7a ff 67 3e 75 e7 20 3e 8e 8c 1f 3f 48 94 ae 3d
       0.2265605 0.15713294 0.62323844 0.08524376
000090 2e 4a ee bc 02 a6 f0 be 75 17 0f 3e 47 cb ea 3b
       -0.029088106 -0.47001654 0.13973792 0.007165346
0000a0 5a 0b 9a bd f0 54 8a 3e bc 21 e7 bd e5 8a ea be
       -0.075216964 0.27017927 -0.11285731 -0.45809093
0000b0 d2 35 e4 3d 74 7b 84 be e1 ef 88 3d e9 3e 78 3d
       0.11143078 -0.25875437 0.06686378 0.06060687
0000c0 ee 39 fb 3d 51 d8 28 3e e8 b3 92 3e 0e 23 8f bd
       0.122669086 0.16488768 0.28652883 -0.06989108
0000d0 5b 0b bc be a7 55 43 be a4 d1 bc 3d 0c 06 10 3e
       -0.36727414 -0.19075643 0.09219673 0.14064807
0000e0 aa 3d 32 3d 07 4c ba 3d 6d 15 1b be 50 6c 8e bd
       0.04351584 0.09096532 -0.15144892 -0.06954253
0000f0 56 66 b3 3e 64 3a 71 3e 35 3a 5c 3e 65 54 23 3e
       0.35039014 0.2355743 0.21506579 0.15950163
000100 a3 e6 57 bb 7c eb 4b bc d9 f5 7b bd cc 6c bd 3d
       -0.0032943867 -0.012446281 -0.061513755 0.09249267
000110 13 07 f6 3d 09 63 6d 3e cc 1a 94 3d 16 3d bc 3e
       0.12013068 0.2318231 0.072316736 0.36765355
000120 64 16 6b 3d 69 c9 9e 3d 71 38 97 3e 8c aa 73 3e
       0.0573944 0.0775326 0.2953525 0.23795527
000130 c5 27 f3 bd aa 28 24 3e 68 cb 76 3e 63 8e 85 3e
       -0.1187282 0.16031137 0.24101031 0.26085195
000140 5e c4 06 be e6 ba a3 3d c5 ac fb bd 15 b3 da bd
       -0.13160846 0.079946324 -0.122888125 -0.106786884
000150 25 8d 12 3e f8 61 8a 3d 29 38 2d be 08 3c d4 3d
       0.14311655 0.06756967 -0.16915955 0.103630126
000160 a5 6f 5a 3c ba 3e 64 3d b7 ca bb 3e d6 7d 30 bd
       0.013332282 0.055723883 0.36678097 -0.043088757
000170 83 a3 9a 3d eb e6 0e 3d 67 fc 9b be 4a 5b 52 3e
       0.07550719 0.03488819 -0.30466005 0.20542637
000180 37 5a 78 3e 5f a2 a4 3d 9e d6 5a 3e 86 5e 64 3e
       0.24253164 0.08038782 0.21370932 0.22301683

fc2.weight f4 [10, 100]
000000 e4 91 b5 be 6b 4a 83 3e ef 4c 81 be ba 56 b8 3e
       -0.35462868 0.25642714 -0.25254008 0.36003667
000010 de e8 b2 3e 77 a6 74 3e 4a 34 3b bf 3e 61 be bd
       0.3494329 0.23891626 -0.7312666 -0.09295891
000020 bb a1 ab 3e 11 b2 47 bf 8b a1 12 3e 73 53 10 bf
       0.33521828 -0.7800608 0.14319436 -0.56377333
000030 f0 87 a6 be af 12 1d 3c 18 57 0c bf 35 ab ad 3d
       -0.32525587 0.009586974 -0.54820395 0.08479921
000040 42 ae 21 3f a6 88 8b bf 39 81 bf 3e ac 22 71 3e
       0.6315652 -1.0901077 0.37403277 0.23548383
000050 03 87 1d bf 85 2c cd bc 8e 8b d2 3e 5b 3b ee 3e
       -0.61534137 -0.025045643 0.41122097 0.4652966
000060 88 27 ff 3b d5 4a 3c bd 67 3b 74 bf 41 be dc 3e
       0.007786695 -0.045969803 -0.9540314 0.43113902
000070 1a 24 cb be db b1 5b bf a7 8a 27 be 18 6c 6a be
       -0.3967598 -0.8581826 -0.16361485 -0.22892797
000080 64 74 d7 bc 7c 0a 13 3f 82 00 9e bd 3a f0 4b 3e
       -0.026300617 0.5743787 -0.077149406 0.19915858
000090 31 4c cf be 1e b0 01 bf fa 1a db 3e 46 4a 51 3d
       -0.40487817 -0.5065936 0.4279402 0.051096223
0000a0 4f e1 bf 3e b4 74 96 3e 98 3a c4 3d f9 b6 94 3e
       0.37476584 0.29385912 0.09581488 0.29045847
0000b0 99 c2 83 be 97 70 63 3e b1 ce 81 bf 3c 3d 47 3e
       -0.25734404 0.22210918 -1.0141202 0.19456953
0000c0 87 b6 1f 3e ed 5b a2 be f3 43 73 bf 16 c3 33 3e
       0.15596972 -0.3171076 -0.9502556 0.17554888
0000d0 9a fb 10 bf d3 99 71 3d ac 59 96 bf ca 4a 42 be
       -0.56633914 0.05898459 -1.1746116 -0.18973842
0000e0 52 ea 79 3b bb 83 03 3e 1e bc 90 be 1a 87 92 3e
       0.003813405 0.1284322 -0.28268522 0.286187
0000f0 90 e3 a7 bf 5d 09 81 bf c4 de 59 3e 24 19 b3 3e
       -1.3116322 -1.0080982 0.21276385 0.34980118
000100 68 49 52 3e e7 5e 0c bd 14 54 ec 3d ac 8c 61 bf
       0.20535815 -0.034270193 0.11539474 -0.88105273
000110 a1 36 bf bf 8a f3 e6 bd 54 f9 16 bf ab 48 42 3f
       -1.4938546 -0.1127692 -0.58974195 0.7589213
000120 c4 46 8a 3e e2 d6 7a 3e 4f 6b 96 bf 05 d7 7d 3d
       0.27007115 0.24496034 -1.1751498 0.061972637
000130 5e 46 b9 3e fd 22 d4 be 24 04 ed 3e 10 dc 7b bf
       0.36186498 -0.41432944 0.46292222 -0.98382664
000140 61 55 e9 bc f5 0b 77 3e 1f a1 2f be 4b 2c 55 bf
       -0.028483095 0.24125655 -0.17151307 -0.8327071
000150 a3 02 e8 be 96 d2 61 be bb d8 ac be 6a 82 40 3e
       -0.45314512 -0.22052988 -0.33759102 0.18799749
000160 1c 69 de 3e 4e 74 cb be cf 8c 4c 3e 88 18 13 3e
       0.43439567 -0.3973717 0.19975589 0.14364827
000170 fc 7d 81 bf 8b a7 97 3d 43 d3 06 3f 15 74 12 3f
       -1.0116572 0.07405003 0.5266611 0.5720838
000180 9d 9d ac bf 15 ac 1d 3e ca 02 9b bf c5 1f 0b c0
       -1.34856 0.15397675 -1.2110226 -2.173814
000190 af a0 1a bf 65 90 e1 bf 7d 13 d8 3e a2 c1 d9 bd
       -0.60401434 -1.7622191 0.42202368 -0.10632636
0001a0 3f e1 21 3f e3 6d f2 3e ab 6a dc 3e 85 8d 0b bf
       0.63234323 0.47349462 0.4305013 -0.54512817
0001b0 14 3d 84 3e e6 99 94 be da df a4 3e 6e dc bf bd
       0.2582785 -0.29023665 0.32202035 -0.093682155
0001c0 22 a9 c2 be 89 d5 1a bf e9 eb 9c be d5 c5 5c bf
       -0.38019663 -0.6048208 -0.30648735 -0.8623937
0001d0 cf b6 97 3d ea 51 d0 3d 30 d0 a3 3e ed 6c 8c bf
       0.07407915 0.10171874 0.31994772 -1.0970742
0001e0 a0 c7 ba 3e 33 da 9e bd e7 48 a9 3d 18 be ca be
       0.36480427 -0.07756462 0.08265858 -0.39598155
0001f0 f2 a9 15 bf 72 76 4c 3e 86 8c 87 3f 41 12 15 be
       -0.5846244 0.19967058 1.0589759 -0.14557745
000200 90 d4 d4 3e 3a c9 8d 3f 37 43 f7 3d e2 21 66 be
       0.41568422 1.1077034 0.12073367 -0.22473863
000210 7c b6 92 3e 86 79 1c 3f f2 b7 f9 3e dd 3f 5f 3d
       0.2865485 0.6112293 0.48773152 0.054504264
000220 e2 bb 37 be 06 7b e2 bd 81 d0 36 be e8 01 05 3f
       -0.17942765 -0.11058621 -0.17852975 0.51956034
000230 b0 df 35 bf 44 62 86 3e b1 98 ea be 28 0f 33 be
       -0.71044445 0.26246846 -0.4581962 -0.1748625
000240 36 a4 b3 bf 84 d3 13 be 65 85 f7 3d fe 7e 31 3e
       -1.4034488 -0.14436156 0.1208599 0.173336
000250 38 f4 fe bd d9 f2 04 bf ef 64 bd 3d 0a 0b 2e 3e
       -0.12448925 -0.51933056 0.09247767 0.16996399
000260 86 65 8f be 6a 90 06 bf f1 83 03 3e 63 11 0a 3d
       -0.28007144 -0.5256411 0.128433 0.033707988
000270 4a 3a 65 bd d2 6d a0 3e 80 71 6e bf 8b 06 f7 be
       -0.055963792 0.31333786 -0.9314194 -0.4824718
000280 2d 2d c9 3e c6 81 75 3e 3a ab d3 bd c3 6d 46 3e
       0.3929228 0.23975286 -0.10335393 0.19377808
000290 66 be 8d bf 97 d4 cc be 7b d5 69 3f 4d da f2 bd
       -1.107373 -0.40005943 0.9134137 -0.11858044
0002a0 a4 39 14 bf fd 1a 89 3e a7 eb 39 3e 44 4d 62 bf
       -0.5790045 0.26778403 0.181563 -0.8839915
0002b0 4b f8 00 bf 0f 6d 67 bf bd 7c 89 3e 4e 28 c0 be
       -0.50378865 -0.90400785 0.2685298 -0.3753075
0002c0 8b c4 83 bf 34 22 13 3e 6d 42 d6 3c 09 6d ae 3e
       -1.0294355 0.14368516 0.026154721 0.34067562
0002d0 04 cb 56 3b 1a cb 63 3d 7b 9e a1 3d a2 55 aa bd
       0.0032774815 0.055613615 0.07891556 -0.083171144
0002e0 e3 3e d6 3e 42 07 65 be 5a 90 18 be 7a c4 94 3f
       0.41844854 -0.2236605 -0.14898816 1.162246
0002f0 91 ba 2f bf 3a df 2d bf b8 63 54 bf cc 31 25 bf
       -0.6864405 -0.6791874 -0.8296466 -0.6452911
000300 ae 9e a2 bd e7 83 24 bf c8 10 ed bd 4a d6 89 3e
       -0.07940422 -0.64263767 -0.115754664 0.26921302
000310 b0 6e 83 3e 6e 59 f9 3e bd 24 6e be bb 48 42 3d
       0.25670385 0.48701042 -0.23256202 0.047432642
000320 15 7c c5 3e e5 ba cd 3e cd 11 86 3e a8 91 31 3e
       0.3857123 0.40181652 0.26185456 0.1734072
000330 7a f9 05 3e 6c 79 24 3e a5 9a bb 3d e5 e8 81 3f
       0.13083449 0.16061944 0.091603555 1.0149199
000340 ce 4c fe 3d a1 4d 04 be 0b 32 ba be e0 a0 b2 be
       0.12416993 -0.12920238 -0.36366305 -0.34888363
000350 e0 f4 24 3e f7 17 b1 bd 17 27 42 bf c5 ee 49 be
       0.16109037 -0.08647149 -0.75840896 -0.1971999
000360 63 ba 21 3e 08 66 5a 3e c0 6f 08 3e be bd 65 bf
       0.15793757 0.21327984 0.13323879 -0.8974265
000370 54 d9 16 bf 29 6c c5 3e 42 40 82 bf fc d4 fd 3e
       -0.58925366 0.38559082 -1.017586 0.49576557
000380 8c 59 09 3d 87 37 14 3e d7 f5 13 bf de 11 1b 3e
       0.033532664 0.14474307 -0.57796997 0.15143535
000390 4b d6 ad 3e 2b 15 d7 be 21 70 fe bc 25 ad ab 3e
       0.33952555 -0.42008337 -0.031059327 0.33530536
0003a0 2f 93 72 3e 0d e9 12 be 65 34 9e 3d cc d5 77 3e
       0.23688959 -0.14346714 0.07724837 0.24202651
0003b0 4c be 83 bd da 5b cc 3e 8d 03 18 bf 04 61 12 bf
       -0.064327806 0.39913827 -0.5938042 -0.57179284
0003c0 cc e7 ef 3b e0 17 67 be 14 cc 8e bd 90 a8 da 3e
       0.0073213335 -0.22567701 -0.069725186 0.42706728
0003d0 ae b1 03 bf 8b f4 1e 3e 52 a5 26 3f 32 c1 66 bd
       -0.5144299 0.15522973 0.6509601 -0.05633659
0003e0 3f fa 38 3e 13 06 b7 bc 4c 8a 43 bf 88 fa 38 3e
       0.18064211 -0.022341764 -0.763829 0.1806432
0003f0 10 9a 15 be 28 c9 10 3e 3c 62 43 3e 7b 27 a2 3e
       -0.14609551 0.14139235 0.19080442 0.31670746

fc2.bias f4 [10]
000000 18 11 ae 3b e2 be a6 3e 6f 0d 19 be d3 b2 a4 bd
       0.0053120963 0.32567507 -0.14946531 -0.080419205
000010 31 2e 6e be 85 d7 32 bd 0c dc a6 3d 64 5e 24 bd
       -0.23259808 -0.043662567 0.08147439 -0.04012908
000020 75 9b 95 bd 0f f4 d8 3d
       -0.07305042 0.105934255
