saved_models/ambimg_brainlike/brainlike_random_extra_classifier.pt (torch, 70816 bytes, 4 tensors)

fc1.weight f4 [100, 160]
0.04284529 -0.9242023 0.061486837 -0.22848882 -0.18054073 -0.45445964 -0.34231237 -0.7182078
-0.5438955 -0.10008519 -0.49423584 0.30944443 0.38203377 0.30980223 0.51452357 -0.112876475
0.28224415 -1.1187433 -0.012534864 0.053011812 -1.7615954 0.18052417 0.11666704 0.13480476
0.25988767 0.09608273 -0.03766265 0.48196056 0.15315153 -0.1493628 0.59039944 0.2044882
-3.4663506 0.18834935 0.5003377 -0.5697487 0.5041623 -0.2501194 -1.0399891 0.27507907
-1.5208751 -0.89804244 -0.5587793 -0.24690628 0.07971091 0.15041609 0.017323699 -0.15157312
-3.8550708 0.042758755 -1.057333 -1.2484181 -1.9673086 0.1995983 0.058825444 -0.1506105
0.19612671 -1.2424349 -0.13896404 -0.3128936 -0.6029547 0.36894867 -0.13399218 -0.25757954
0.36986983 -2.4694972 0.08612341 0.54363215 -0.0116149 0.16836165 0.050884336 0.66566783
0.19972928 0.15630303 0.07652165 0.5473057 0.037994 0.57039964 0.34511128 0.413972
0.26246122 -0.2017967 0.019581946 0.5557444 -2.0882027 -0.04063069 0.4153208 0.022296514
0.12489378 0.12165296 -0.034441955 0.8415486 -0.19107178 -0.45727655 -0.7100053 0.108421564
0.09227224 -0.20074658 0.24280071 0.6298252 0.44752946 -0.23197572 -0.030809416 0.07285312
-0.87801874 0.10330089 0.13766597 0.26562095 1.0482558 -0.055060945 0.6368178 0.21181922
-2.7534144 -0.25825506 0.5811917 -0.16066588 0.23284802 -0.10594887 -0.4399919 0.0027518452
0.41997024 0.15222856 0.27818733 -0.15540247 -0.3134059 0.28428695 0.0020070984 0.01032101
-1.7468846 -0.6973844 -0.3548739 -0.08814075 -2.1129453 0.5353492 0.1654314 0.07872975
-0.096651495 0.39243478 -0.044803154 0.30858427 -0.015171489 0.14617991 -0.446171 1.0167826
0.3297382 -2.3177528 -0.30388626 0.08550236 -0.37718263 0.13590738 0.20719825 0.78418654
0.10127598 0.14685126 0.46206936 0.3370579 -0.3710128 0.27538905 -0.7588661 0.69218904
-0.14433858 0.04864919 0.46997052 0.091985114 0.8019865 0.2214337 0.18742907 0.13700633
-0.81607604 0.02331032 -0.79136974 0.79337335 -1.1350878 -0.07378954 -0.9741823 0.22493008
0.18113032 -0.17349596 0.006598114 -0.083078735 0.2706561 -0.28389862 -0.12599146 0.75088114
-0.3582969 -0.077041194 -0.078836665 0.06953347 0.025565308 1.1375118 -0.12331443 0.4459369
0.46445078 -0.044954434 0.764241 -0.48242557 0.18131205 0.012920496 0.60019237 0.06832609
-0.07994791 -0.05172682 -0.45242283 0.15527059 -0.50548667 -0.017208051 0.25133553 -0.296007
0.044579193 0.22990382 0.32883534 -0.08815753 0.358111 -0.08787574 0.48518217 0.28943527
0.6535821 -0.054408904 0.07902607 0.07854898 0.71154946 -0.0020497753 0.7999888 1.4109429
0.32433257 0.29053882 0.33816734 0.12266101 0.051913135 -0.121181965 -0.2972579 -0.46299818
-0.24148706 0.13764621 0.12136358 0.34841365 0.068161555 0.22275822 -0.6801377 -0.5012791
0.26016372 0.14473844 0.2534059 -0.2241033 -0.23332655 0.09836185 -0.030754637 1.0229468
-0.71848714 -0.053292904 0.7405801 -0.33359343 0.24809805 -0.0076548094 0.13974865 1.3718268
00000000: 8b7e 2f3d 8698 6cbf 9fd9 7b3d f9f8 69be
00000010: abdf 38be efae e8be 9143 afbe 77dc 37bf
00000020: bc3c 0bbf 77f9 ccbd 7b0c fdbe 806f 9e3e
00000030: ee99 c33e 669e 9e3e d1b7 033f c82b e7bd
00000040: 4e82 903e fb32 8fbf 085f 4dbc ea22 593d
00000050: f57b e1bf 54db 383e 21ef ee3d 420a 0a3e
00000060: ff0f 853e 06c7 c43d 2744 1abd 89c3 f63e
00000070: c1d3 1c3e 90f2 18be 6b24 173f 5b65 513e
00000080: b0d8 5dc0 a7de 403e 2216 003f 0ddb 11bf
00000090: c810 013f a60f 80be 5d1e 85bf 2ad7 8c3e
000000a0: 09ac c2bf 1ce6 65bf 290c 0fbf 00d5 7cbe
000000b0: 793f a33d ad06 1a3e 6eea 8d3c fc35 1bbe
000000c0: 7bb9 76c0 ce23 2f3d b056 87bf 2acc 9fbf
000000d0: c5d0 fbbf 7f63 4c3e f3f2 703d a439 1abe
000000e0: 71d5 483e 1b08 9fbf 974c 0ebe 9733 a0be
000000f0: 3d5b 1abf d7e6 bc3e 3f35 09be 77e1 83be
00000100: 945f bd3e 3e0c 1ec0 7861 b03d 7a2b 0b3f
00000110: 6c4c 3ebc ff66 2c3e 186c 503d 3569 2a3f
00000120: d585 4c3e e70d 203e 62b7 9c3d 3a1c 0c3f
00000130: 999f 1b3d b605 123f 6db2 b03e 23f4 d33e
00000140: 5161 863e cba3 4ebe 516a a03c 4445 0e3f
00000150: 1da5 05c0 5e6c 26bd eea4 d43e 2ea7 b63c
00000160: 4fc8 ff3d 3025 f93d 0213 0dbd bb6f 573f
00000170: 52a8 43be 2720 eabe e8c2 35bf 200c de3d
00000180: 3af9 bc3d 8390 4dbe c0a0 783e 393c 213f
00000190: 9522 e53e 0b8b 6dbe 0764 fcbc 0434 953d
000001a0: d6c5 60bf 6b8f d33d 4ff8 0c3e 78ff 873e
000001b0: 3f2d 863f 9687 61bd 7e06 233f 23e7 583e
000001c0: f137 30c0 023a 84be fbc8 143f 9985 24be
000001d0: b66f 6e3e b9fb d8bd 9e46 e1be 4d58 343b
000001e0: 5706 d73e cee1 1b3e 926e 8e3e d321 1fbe
000001f0: bd76 a0be 0f8e 913e 8689 033b 7419 293c
00000200: ea99 dfbf c987 32bf 08b2 b5be 2383 b4bd
00000210: 7f3a 07c0 a50c 093f d966 293e 103d a13d
00000220: 38f1 c5bd 36ed c83e 8383 37bd c2fe 9d3e
00000230: d691 78bc 30b0 153e 8670 e4be ef25 823f
00000240: 72d3 a83e 1056 14c0 fb96 9bbe dc1b af3d
00000250: 151e c1be 4e2b 0b3e c72b 543e 73c0 483f
00000260: c869 cf3d 2d60 163e 5b94 ec3e da92 ac3e
00000270: 64f5 bdbe cbff 8c3e 0c45 42bf 4d33 313f
00000280: 7ecd 13be 6044 473d fa9f f03e b162 bc3d
00000290: fd4e 4d3f 84bf 623e 68ed 3f3e 634b 0c3e
000002a0: 5cea 50bf 49f5 be3c 3597 4abf 841a 4b3f
000002b0: 8f4a 91bf f81e 97bd 0364 79bf 1254 663e
000002c0: 3a7a 393e eda8 31be fe34 d83b 2f25 aabd
000002d0: 7093 8a3e 295b 91be e803 01be bf39 403f
000002e0: b172 b7be c6c7 9dbd 1e75 a1bd 9067 8e3d
000002f0: 566e d13c fd99 913f 478c fcbd d751 e43e
00000300: 7ecc ed3e 2422 38bd 4ca5 433f 7c00 f7be
00000310: dea9 393e 7db0 533c 35a6 193f 8dee 8b3d
00000320: bbbb a3bd 81df 53bd f7a3 e7be 41ff 1e3e
00000330: 9367 01bf e6f7 8cbc 0daf 803e 3b8e 97be
00000340: ac98 363d e86b 6b3e 1b5d a83e ef8b b4bd
00000350: 535a b73e 32f8 b3bd cc69 f83e dc30 943e
00000360: 2851 273f dfdb 5ebd 6cd8 a13d 4ade a03d
00000370: 1b28 363f 8655 06bb 11cc 4c3f c799 b43f
00000380: eb0e a63e 81c1 943e 4524 ad3e b235 fb3d
00000390: dea2 543d 402e f8bd 3032 98be 190e edbe
000003a0: 6248 77be 21f3 0c3e 788d f83d 4663 b23e
000003b0: 4998 8b3d bb1a 643e 811d 2ebf d453 00bf
000003c0: 2e34 853e 5036 143e 6bbe 813e 567b 65be
000003d0: 28ed 6ebe f071 c93d 26f1 fbbc ecef 823f
000003e0: c6ee 37bf a949 5abd a896 3d3f c2cc aabe
000003f0: 6a0d 7e3e 32d5 fabb 451a 0f3e 0598 af3f

fc1.bias f4 [100]
-0.11302004 0.25121135 -0.047383916 -0.08314097 -0.13089085 0.0034377836 0.2656685 -0.114727445
0.42320234 0.069658384 -0.05093463 -0.10388877 -0.002995049 -0.17601654 0.25452632 0.34095928
0.30411956 0.05072483 0.22010347 -0.018562509 0.51647913 -0.083336465 0.30784848 -0.032969348
-0.13593906 -0.5493806 0.22591372 -0.0598741 -0.14754699 -0.09796421 -0.1959628 -0.19960012
-0.07354656 0.31805968 -0.057743426 -0.13308409 -0.05123326 -0.088306755 0.30895296 -0.097080745
0.1711567 0.66349775 0.09840551 -0.18155818 0.15718658 0.5439974 0.28021723 -0.13589494
-0.022800783 0.50964874 0.38051364 0.264901 -0.16335908 0.07679989 -0.021014465 0.33156198
-0.13296114 -0.107467525 -0.101423144 -0.044335157 0.060277775 0.5479561 -0.36844742 0.11690674
-0.075419255 0.73608613 0.08975906 0.085416324 -0.0949055 0.13013825 -0.10247286 0.053655714
-0.06377655 0.29392415 0.05018388 0.29650542 0.3440899 0.44490063 -0.2891661 0.5320168
0.19034271 -0.08027511 0.16313113 -0.1975519 -0.06935457 -0.14534707 0.0569942 -0.09781861
0.0048716934 -0.08791978 0.56093615 0.15241377 -0.09018133 -0.08286113 -0.09018443 0.02281799
-0.18108669 0.20204927 -0.078590676 0.5633532
00000000: 0d77 e7bd c69e 803e a315 42bd d045 aabd
00000010: 4008 06be 704c 613b b405 883e 39f6 eabd
00000020: faad d83e 0ea9 8e3d d5a0 50bd a3c3 d4bd
00000030: 9648 44bb ae3d 34be 4651 823e 3792 ae3e
00000040: 8fb5 9b3e d7c4 4f3d ce62 613e 6710 98bc
00000050: fa37 043f 4fac aabd 519e 9d3e de0a 07bd
00000060: 9c33 0bbe 35a4 0cbf ed55 673e 8b3e 75bd
00000070: 8f16 17be 76a1 c8bd 79aa 48be f963 4cbe
00000080: 949f 96bd b8d8 a23e 5f84 6cbd 3247 08be
00000090: f8d9 51bd 2cda b4bd 152f 9e3e 45d2 c6bd
000000a0: b443 2f3e fdda 293f d488 c93d 63ea 39be
000000b0: 85f5 203e 6a43 0b3f a278 8f3e 0b28 0bbe
000000c0: b5c8 babc 5778 023f afd2 c23e 1ba1 873e
000000d0: 9a47 27be 4349 9d3d 8726 acbc 7ec2 a93e
000000e0: f726 08be ef17 dcbd f0b6 cfbd c898 35bd
000000f0: d4e5 763d da46 0c3f 24a5 bcbe cd6c ef3d
00000100: 6975 9abd 2470 3c3f 99d3 b73d c1ee ae3d
00000110: d15d c2bd f642 053e 4add d1bd 18c6 5b3d
00000120: 489d 82bd 3a7d 963e 9d8d 4d3d 8fcf 973e
00000130: 8d2c b03e 04ca e33e 940d 94be 4132 083f
00000140: 33e9 423e 4767 a4bd d90b 273e 0c4b 4abe
00000150: c509 8ebd ddd5 14be c072 693d 2055 c8bd
00000160: baa2 9f3b 490f b4bd 8399 0f3f 5b12 1c3e
00000170: fdb0 b8bd 19b3 a9bd 9db2 b8bd cbec ba3c
00000180: ca6e 39be 01e6 4e3e 26f4 a0bd ea37 103f

fc2.weight f4 [10, 100]
-0.41073596 -0.010143671 -0.09912886 0.05028379 -0.25934175 -0.09726276 -0.23216176 0.044726253
-1.4115015 -0.04856812 0.06401942 0.7623546 -0.004167743 0.07724812 -1.0283619 0.5030362
-0.76973426 -0.27335334 0.0961302 -0.35075462 -0.027674684 -0.0011301067 0.055114597 0.00601772
-0.108649075 -0.6167373 -0.052739803 -0.0096214935 0.17750555 -0.009562546 0.3314605 0.38411236
0.06309282 0.079229034 0.5021617 -0.14511669 -0.28454834 -0.0527902 -0.16043708 0.0037339327
-0.4596725 0.37258136 -0.29874894 -0.68458843 0.41170457 0.79051834 0.49188498 0.093032405
-0.0162276 -0.5117096 -1.5035264 -0.4226449 -0.07873714 -0.14805569 -1.0127077 0.53200763
-0.052298013 -0.102116026 -0.5279786 -0.108753406 0.1471395 0.061382573 -0.14574286 -0.009321992
-0.10258923 -0.19159164 -0.51655644 -0.46385345 -0.012452916 -0.20596665 -0.79850954 -0.56001025
-0.23541367 -0.11723406 -1.2039071 -0.11280282 -0.43876272 -0.35623625 0.46726057 -0.2512865
-1.1725299 0.013676248 -0.43216306 -0.6801226 -0.03399949 0.06434751 0.33257943 -0.06346682
-0.2590491 0.019414106 -0.51328427 -1.626691 0.03169593 -0.16401556 0.33883762 -0.09820224
0.3654266 -0.96574306 0.26153123 -0.22893415 -0.53940547 -0.09597421 0.09565566 -0.11530481
-0.1628544 -0.008691765 0.37622383 0.12771136 0.7370659 -0.22376864 -0.030206494 0.037601475
-0.03951885 -1.0256585 -0.01233616 0.1224102 0.110480465 0.14279358 -0.107135415 1.3839
0.8416379 0.06491436 -0.8969086 -0.069191486 0.009251182 -0.5914932 -0.6202338 0.014831305
-1.7033131 0.041318785 -0.21895945 -0.49144036 -0.13920438 -0.12427567 0.80145633 -0.08797157
-1.1781228 -0.1043269 -1.1994461 -0.63166237 -1.4980104 0.67371845 0.88586676 -0.6323967
-0.9600985 0.14412452 -0.4758091 -0.59345907 -0.6515296 0.7029512 -0.20129935 0.36910313
-0.067880824 -0.31375253 -1.0540789 -0.23955008 -0.066228926 0.0069826148 -0.08486886 0.015022901
-0.32745782 0.051016167 -0.23892163 -0.055564888 -0.03509188 0.06713219 -0.10183116 -1.1882182
-0.09890815 -0.26544246 -0.53074557 -0.31937933 -1.1521214 -0.30072573 0.11005889 0.5559223
-0.5169931 -0.21057941 -0.59177274 0.37633032 -0.10448035 -0.035551146 -0.5499983 -1.039684
-0.045570973 -0.022553837 -1.1698533 0.01435675 -0.020339407 -0.050207306 0.47620764 0.28013912
-0.017485842 0.11791577 -0.50857276 -0.84195286 0.28055096 -0.5024971 0.20294885 -0.18707374
-0.29857156 -0.063035235 -0.017838653 -0.073564865 -0.028061753 0.039022516 -0.64408994 0.023109006
-0.46936098 -0.647643 0.04696665 -0.043359663 -0.059747502 0.09192711 -0.8161159 -0.23061864
0.09065999 0.20980053 0.33930296 -0.22436799 -0.3984652 -0.024882022 0.17867385 0.04047007
-0.09327029 0.9756715 -0.13303573 -0.038541876 0.08847899 0.0125343315 0.254345 0.37216565
-0.08668608 -1.0330714 -0.6307647 -0.011846611 -0.98649144 -0.09775949 -0.35100713 0.05696959
-0.74773335 0.9154393 -0.3121736 -0.33856854 -1.2074677 -0.35445037 0.068276174 0.048163015
-0.64566517 -0.37280697 -0.6801892 0.29008073 -0.013052311 0.6165103 -0.8390773 -0.1536092
00000000: fc4b d2be a431 26bc 1204 cbbd 60f6 4d3d
00000010: 71c8 84be b331 c7bd d0bb 6dbe e032 373d
00000020: 15ac b4bf 5def 46bd 9d1c 833d ac29 433f
00000030: 9091 88bb 4334 9e3d 5da1 83bf fbc6 003f
00000040: 4e0d 45bf f8f4 8bbe e9df c43d 1c96 b3be
00000050: 05b6 e2bc 1720 94ba d8bf 613d 4b30 c53b
00000060: 6883 debd 7fe2 1dbf b105 58bd 78a3 1dbc
00000070: 04c4 353e 3aac 1cbc 31b5 a93e 60aa c43e
00000080: cf36 813d d542 a23d ab8d 003f 7899 14be
00000090: 52b0 91be 893a 58bd 9e49 24be ffb4 743b
000000a0: 325a ebbe fcc2 be3e 9ff5 98be 3041 2fbf
000000b0: f1ca d23e 695f 4a3f 59d8 fb3e c687 be3d
000000c0: beef 84bc 66ff 02bf 8e73 c0bf ea64 d8be
000000d0: f040 a1bd e99b 17be 68a0 81bf a731 083f
000000e0: 7136 56bd 3522 d1bd 9b29 07bf 1bba debd
000000f0: bdab 163e 4b6c 7b3d 9e3d 15be 45bb 18bc
00000100: 4d1a d2bd 9930 44be 0b3d 04bf 337e edbe
00000110: 5107 4cbc ece8 52be 1f6b 4cbf d55c 0fbf
00000120: 4810 71be 6918 f0bd a119 9abf 2a05 e7bd
00000130: 82a5 e0be 9964 b6be c73c ef3e a0a8 80be
00000140: 7615 96bf 5712 603c 7a44 ddbe 841c 2ebf
00000150: 0d43 0bbd a1c8 833d da47 aa3e e4fa 81bd
00000160: 15a2 84be 550a 9f3c 9966 03bf 6937 d0bf
00000170: 97d3 013d b2f3 27be 207c ad3e 421e c9bd
00000180: 3219 bb3e f03a 77bf 6ce7 853e b76d 6abe
00000190: 7a16 0abf 208e c4bd 1de7 c33d ee24 ecbd
000001a0: 4ec3 26be e867 0ebc 69a0 c03e c4c6 023e
000001b0: 5ab0 3c3f 9b23 65be 9c73 f7bc 0104 1a3d
000001c0: 85de 21bd c748 83bf 9b1d 4abc 33b2 fa3d
000001d0: 9543 e23d 7b38 123e d069 dbbd a323 b13f
000001e0: 9575 573f d2f1 843d cd9b 65bf 44b4 8dbd
000001f0: 4592 173c 196c 17bf a4c7 1ebf 00ff 723c
00000200: 2a06 dabf e33d 293d e836 60be 129e fbbe
00000210: 988b 0ebe 3e84 febd 3e2c 4d3f 702a b4bd
00000220: bacc 96bf 57a9 d5bd 7387 99bf a0b4 21bf
00000230: cebe bfbf d078 2c3f 2ac8 623f c0e4 21bf
00000240: 04c9 75bf 6195 133e 409d f3be efec 17bf
00000250: a5ca 26bf 9cf4 333f 6b21 4ebe 16fb bc3e
00000260: 1a05 8bbd 2ca4 a0be 0fec 86bf 9e4c 75be
00000270: 08a3 87bd 6bce e43b bacf adbd 9d22 763c
00000280: 8da8 a7be 54f6 503d dfa7 74be 0298 63bd
00000290: 81bc 0fbd 9a7c 893d db8c d0bd 8917 98bf
000002a0: 5b90 cabd 13e8 87be f1de 07bf b085 a3be
000002b0: b778 93bf b9f8 99be 8e66 e13d ed50 0e3f
000002c0: a959 04bf 21a2 57be 6b7e 17bf 5eae c03e
000002d0: cbf9 d5bd 149e 11bd b0cc 0cbf 5e14 85bf
000002e0: a1a8 3abd d3c2 b8bc c1bd 95bf 9338 6b3c
000002f0: d49e a6bc 2da6 4dbd 7dd1 f33e 656e 8f3e
00000300: 783e 8fbc d37d f13d d331 02bf 398a 57bf
00000310: 60a4 8f3e a6a3 00bf d3d1 4f3e 4290 3fbe
00000320: 5fde 98be 9e18 81bd 5e22 92bc 2da9 96bd
00000330: c3e1 e5bc 13d6 1f3d 14e3 24bf 194f bd3c
00000340: 1550 f0be efcb 25bf 1a60 403d e799 31bd
00000350: ccb9 74bd 4844 bc3d f9ec 50bf 4b27 6cbe
00000360: f2ab b93d f3d5 563e 1eb9 ad3e b9c0 65be
00000370: a103 ccbe 62d5 cbbc 47f6 363e f2c3 253d
00000380: 7e04 bfbd 9cc5 793f 853a 08be 16de 1dbd
00000390: 7934 b53d cc5c 4d3c 8239 823e 7f8c be3e
000003a0: 7988 b1bd af3b 84bf cc79 21bf 4a18 42bc
000003b0: b48a 7cbf 2136 c8bd 35b7 b3be f258 693d
000003c0: 746b 3fbf 3b5a 6a3f 38d5 9fbe db58 adbe
000003d0: 4d8e 9abf 857a b5be 61d4 8b3d 9546 453d
000003e0: 504a 25bf 8ee0 bebe e120 2ebf 7685 943e
000003f0: 5cd9 55bc 9ed3 1d3f c5cd 56bf bb4b 1dbe

fc2.bias f4 [10]
0.028993828 0.34384757 -0.23136446 -0.2464507 -0.35596207 -0.007738162 -0.040083136 -0.3123073
0.08173603 0.30285716
00000000: 7784 ed3c ca0c b03e ceea 6cbe 935d 7cbe
00000010: a940 b6be 6890 fdbb 372e 24bd bee6 9fbe
00000020: 3865 a73d 1810 9b3e
