saved_models/ambimg_brainlike/brainlike_thickness_4.pt (torch, 196655 bytes, 18 tensors)

cell_list.0.conv_gates.weight f4 [20, 11, 3, 3]
0	0x3c446889	0.011987814
1	0x3c429c06	0.011878019
2	0xbda82eab	-0.08212026
3	0xbd6ec31f	-0.05829155
4	0xbdcadeb8	-0.099057615
5	0xbdbdcae5	-0.09267215
6	0x3dcae81e	0.09907554
7	0x3daa1047	0.08303886
8	0x3cc34235	0.02383528
9	0x3dc349da	0.095355704
10	0xbd151832	-0.036400028
11	0xbd6aca23	-0.05732168
12	0x3daf79d1	0.085681565
13	0xbbae6e88	-0.005323235
14	0x3c9c57c5	0.01908482
15	0x3d735c2c	0.059414074
16	0x3d58ef0f	0.05296236
17	0xbd6bb75d	-0.057547916
18	0xbd1f3498	-0.038868517
19	0xbdbdf5ef	-0.09275424
20	0x3b9118ca	0.004428004
21	0xbd139670	-0.03603214
22	0x3cb0d0a4	0.021583863
23	0x3b99379c	0.0046758186
24	0x3daf7aa4	0.08568314
25	0x3c0dd230	0.00865607
26	0x3d4e4d91	0.05036694
27	0x3d01e6b1	0.031714145
28	0x3db69eaf	0.08916985
29	0xbd2b21bc	-0.04178022
30	0x3dabdd78	0.08391851
31	0x3d93a1e6	0.07208614
32	0xbd244d90	-0.040113032
33	0x3d7c56f8	0.061606377
34	0x3dbe4a6c	0.092915386
35	0xbd68c396	-0.05682715
36	0xbd209205	-0.039201755
37	0x3d8ccf60	0.06875491
38	0x3da5f74d	0.081038095
39	0x3cd9310e	0.026512649
40	0x3cfcd4a3	0.030863112
41	0x3d9873f0	0.07443988
42	0x3db46316	0.08807962
43	0xbd822de3	-0.063564084
44	0xbd295500	-0.041340828
45	0x3dad4dc9	0.08462102
46	0x3d5e5905	0.054284114
47	0xbd412806	-0.04715731
48	0xbd0badea	-0.034101404
49	0x3dc7bfcd	0.0975338
50	0xbd80ead2	-0.062947884
51	0x3d846882	0.06465246
52	0x3d6ee0e8	0.058319956
53	0xbdc56707	-0.096387915
54	0xbdcd7849	-0.10032708
55	0x3d08a900	0.033364296
56	0x3d49fb02	0.049311645
57	0x3db672d7	0.08908623
58	0x3c4af530	0.012387559
59	0x3d8ba3cd	0.06818352
60	0xbd9247ea	-0.07142623
61	0x3d75ba6f	0.05999225
62	0xbdc649a7	-0.09682017
63	0x3d8615f9	0.0654716
64	0x3c3285ef	0.01089619
65	0x3d7e494e	0.062081628
66	0x3d229ce1	0.039700393
67	0xbd8e655e	-0.06952928
68	0x3a88ccbe	0.0010436994
69	0x3c5047d1	0.012712435
70	0x3c6cb890	0.0144483
71	0xbdb43795	-0.08799664
72	0xbd4fef56	-0.050765358
73	0xbd41ea9c	-0.04734288
74	0xbd5fc2c2	-0.054629095
75	0x3daf443e	0.08557938
76	0x3d68dd40	0.056851625
77	0x3d29824a	0.04138402
78	0xbcf6d192	-0.030129228
79	0xbda70108	-0.081544936
80	0x3caf349a	0.021387387
81	0x3dbe2dfe	0.09286116
82	0x3d373620	0.044729352
83	0xbda62d9b	-0.08114167
84	0xbc11fc95	-0.008910318
85	0x3b85c359	0.004082125
86	0x3d82a116	0.06378381
87	0x3d2de80c	0.042457625
88	0xbd912768	-0.07087594
89	0xbdc21c93	-0.09478106
90	0x3cf477e1	0.029842319
91	0x3d48f758	0.04906401
92	0x3d6c1b9d	0.05764352
93	0x3d8db0eb	0.0691851
94	0x3db5f39d	0.08884356
95	0xbd2bd688	-0.04195264
96	0xbdc83537	-0.09775775
97	0x3d49998c	0.0492187
98	0x3dc68b58	0.096945465
99	0xbd95ecd1	-0.0732056
100	0xbd4f3bc9	-0.050594125
101	0x3db03c11	0.08605207
102	0x3da0c324	0.0784972
103	0xbc1d7da5	-0.0096124755
104	0xbd6af841	-0.05736566
105	0x3c96f049	0.018425124
106	0xbdc99987	-0.09843736
107	0xbd229a54	-0.03969796
108	0xbc5517ff	-0.013006209
109	0xbcc43a74	-0.023953654
110	0x3d299fc0	0.041412115
111	0x3b0b5fa5	0.0021266725
112	0xbda22bea	-0.07918532
113	0xbc2188af	-0.009859248
114	0x3c18fa34	0.009336997
115	0x3d809be7	0.06279736
116	0x3bb96ec0	0.0056589544
117	0xbd0f8bc0	-0.035045385
118	0x3d205486	0.039143108
119	0x3d3db0b6	0.046311103
120	0x3c9c45c1	0.01907623
121	0xbd5d0de2	-0.053968318
122	0x3cdeb79e	0.027187165
123	0x3c6b6786	0.014367944
124	0x3d6715ff	0.05641746
125	0xbce0f55f	-0.027460752
126	0xbbd5e5e0	-0.0065276474
127	0x3d56ceab	0.052443188
128	0xbc5ac291	-0.013352052
129	0x3d56d550	0.052449524
130	0xbc8449a7	-0.016148401
131	0x3db4c76c	0.08827099
132	0xba4a722e	-0.00077227026
133	0xbcadad1d	-0.02120071
134	0x3d0ebe12	0.034849234
135	0xbba6bcc2	-0.0050884197
136	0x3da4c4d5	0.08045355
137	0xbc670b88	-0.01410187
138	0x3d8a6171	0.06756867
139	0xbcd4e645	-0.025988707
140	0x3c10a786	0.008829003
141	0x3d058177	0.03259417
142	0xbdc12e4e	-0.0943266
143	0x3c9e7799	0.019344138
144	0x3d5fdc46	0.05465343
145	0x3d228414	0.03967674
146	0x3b217c38	0.002464069
147	0xbc2a1743	-0.010381523
148	0x3d018eca	0.031630315
149	0x3cf94200	0.030426979
150	0xbd465017	-0.048416223
151	0x3d20ae60	0.039228797
152	0xbdb04482	-0.08606817
153	0x3b8172e9	0.003950466
154	0xbd0d8a4d	-0.034555722
155	0xbd2c3eee	-0.042052202
156	0xbda6ef11	-0.08151067
157	0x3da1cc5a	0.07900305
158	0x3c17af58	0.009258114
159	0x3be27cef	0.006911866
160	0xbc77dae7	-0.015127874
161	0xbd2ab832	-0.04167957
162	0xbd9f221c	-0.07770178
163	0x3c9cd573	0.01914475
164	0xbda0927b	-0.07840439
165	0xbd302b03	-0.04300977
166	0x3d4ef099	0.05052242
167	0x3dac3966	0.084093854
168	0xbd0392f3	-0.032122564
169	0xbdcac448	-0.09900719
170	0x3dc94c84	0.09829047
171	0x3d5ed9bd	0.05440687
172	0x3d948ae0	0.07253051
173	0xbc962a7f	-0.01833081
174	0xbca9a6b3	-0.020709371
175	0x3c210445	0.009827678
176	0x3cc98025	0.024597237
177	0x3b2a4011	0.0025978128
178	0xbd55a821	-0.052162293
179	0x3db7db51	0.08977378
180	0x3d40411e	0.0469371
181	0xbc14c527	-0.009080208
182	0xbdaf56dc	-0.08561489
183	0xbd4abf7b	-0.049499016
184	0xbd0f941e	-0.035053365
185	0xbc8952ea	-0.01676317
186	0x3ce3dccc	0.027815245
187	0xbc8996c8	-0.01679553
188	0x3d0e72a1	0.034777287
189	0xbd85b1e5	-0.06528071
190	0xbcb427cd	-0.021991635
191	0x3d3a0f44	0.045424715
192	0x3dca2657	0.09870594
193	0xbdade265	-0.08490447
194	0x3c2b2f9e	0.010448365
195	0x3d59677d	0.05307721
196	0xbc31a3cd	-0.010842276
197	0x3cbfd198	0.023415372
198	0x3d808251	0.06274856
199	0xbdcc8580	-0.099864006
200	0x3d73c3ad	0.059512783
201	0xbdb8027b	-0.08984848
202	0x3c98f3b2	0.01867089
203	0x3d792d32	0.060834117
204	0xbd3b2161	-0.04568613
205	0x3a6dd395	0.00090723607
206	0xbdc599a5	-0.09648446
207	0xbbcad77d	-0.006190239
208	0x3d67fbbf	0.05663657
209	0x3d4d2e17	0.050092783
210	0x3cdc07c5	0.026859174
211	0xbc071ebd	-0.008247075
212	0xbd28abf4	-0.041179612
213	0x3da75055	0.08169619
214	0x3cf329db	0.029683044
215	0x3d1279af	0.035760578
216	0x3d48731f	0.048937913
217	0xbce8b7c7	-0.028407944
218	0xbbfb3f81	-0.0076674824
219	0x3dc23903	0.0948353
220	0x3db83ca4	0.08995941
221	0xbdcc49c4	-0.09975007
222	0xbdafa7ca	-0.08576925
223	0xbcec98bb	-0.028881421
224	0x3cd01d0e	0.02540448
225	0xbd576b31	-0.05259246
226	0x3d4bf937	0.049798217
227	0xbdb8ab32	-0.09017028
228	0xbc470c92	-0.012148993
229	0x3d84ad20	0.064783335
230	0xbcd22a16	-0.025654834
231	0xbcd2c394	-0.025728025
232	0x3cb29712	0.021800552
233	0x3d9dad35	0.07699052
234	0x3cb8b0df	0.022545276
235	0x3b23356e	0.0024903673
236	0xbb22fc58	-0.0024869647
237	0xbdae6dfe	-0.08517073
238	0xbd230939	-0.039803717
239	0x3dcd02c4	0.10010293
240	0xbd89c29d	-0.06726573
241	0x3d423eb2	0.047423072
242	0xbd0ef376	-0.03490015
243	0x3d0b547a	0.03401611
244	0x3d36c140	0.04461789
245	0x3d91911d	0.07107756
246	0xbd7f71e1	-0.062364463
247	0xbc50eea8	-0.012752213
248	0xbd8c4ef0	-0.06850994
249	0x3ca7ca9d	0.020482356
250	0xbd42dbf2	-0.047573037
251	0x3c22c437	0.009934477
252	0xbda956d3	-0.082685135
253	0xbcb9d5aa	-0.02268489
254	0xbdabf187	-0.08395677
255	0xbdae2929	-0.085039444

cell_list.0.conv_can.weight f4 [10, 11, 3, 3]
0	0x3ece738a	0.40322524
1	0x3f250346	0.6445812
2	0x3eb63d57	0.35593674
3	0x3e5c24cb	0.2149841
4	0x3f1c5625	0.61068946
5	0x3f02788b	0.50965184
6	0xbfa4186f	-1.2819957
7	0xbf3ca63b	-0.7369115
8	0xbf2fc351	-0.68657404
9	0x3d848535	0.0647072
10	0xbcde07d0	-0.027103335
11	0xbc99dfce	-0.018783476
12	0xbd9c738f	-0.076392286
13	0xbd13594b	-0.03597383
14	0x3b42b007	0.0029706971
15	0x3cfb3f67	0.030669881
16	0xbdae21c6	-0.085025355
17	0x3a5fd405	0.0008538368
18	0xbcf8c391	-0.03036669
19	0x3dc4ed5b	0.096155845
20	0x3d41d0a8	0.04731813
21	0x3dc005d3	0.09376111
22	0xbd09fee1	-0.033690337
23	0x3cd24d29	0.025671558
24	0xbdbee313	-0.09320655
25	0x3b2b8ef2	0.0026177731
26	0x3d2099a6	0.03920903
27	0x3cb5d5fc	0.022196762
28	0x3c6be805	0.0143985795
29	0xbd8a83d8	-0.067634284
30	0xbcc7b0b2	-0.024376247
31	0x3d3aa4ca	0.04556731
32	0xbd3b1170	-0.045670927
33	0x3da1fdbd	0.07909725
34	0x3d55b957	0.052178707
35	0xbd6ace9b	-0.05732594
36	0x3c78a0a4	0.015175018
37	0x3d80556e	0.062662944
38	0xbce234a5	-0.027612993
39	0x3d2f727c	0.04283379
40	0x3b7ceec4	0.0038594464
41	0xbcbd1fe3	-0.023086494
42	0xbd5461e2	-0.05185116
43	0xbd256101	-0.040375713
44	0xbd844a46	-0.06459479
45	0xbd87ef08	-0.066373885
46	0xbd8714e5	-0.06595782
47	0x3d72e46b	0.059299868
48	0x3d9aedfc	0.07564923
49	0xbdbd45a2	-0.09241797
50	0x3ca89223	0.020577496
51	0xbdcdb0ba	-0.100434735
52	0x3d13776b	0.036002558
53	0xbda2dfa2	-0.07952811
54	0x3da3f872	0.080063716
55	0xbdbfc2d7	-0.093633346
56	0x3cdfab9e	0.027303513
57	0xbaf84028	-0.0018940018
58	0x3d539274	0.05165334
59	0x3d3275da	0.043569423
60	0xbd1282eb	-0.035769384
61	0x3c4562ca	0.012047479
62	0x3da56a46	0.08076911
63	0xbc46854b	-0.01211674
64	0x3d790045	0.060791273
65	0xbdcce3c6	-0.10004382
66	0xbd263518	-0.040577978
67	0xbc109a75	-0.008825888
68	0xbb7ea760	-0.0038857087
69	0xbdc93517	-0.09824579
70	0x3dad7447	0.08469444
71	0xbcc5359d	-0.024073416
72	0xbc059e29	-0.008155384
73	0xbd261ba4	-0.040553704
74	0x3cebf117	0.028801484
75	0xbd179db1	-0.03701562
76	0xbda500cc	-0.080567926
77	0xbd2195e0	-0.039449573
78	0x3daf7fb1	0.08569277
79	0x3bec5862	0.0072126845
80	0xbccf8a11	-0.02533439
81	0xbd99c0cf	-0.075074784
82	0xbcb6e75b	-0.022327116
83	0xbcd5047f	-0.02600312
84	0x3db145af	0.08655869
85	0x3d1a019f	0.037599202
86	0x3d9a8297	0.07544439
87	0x3db2118d	0.08694754
88	0x3da26e45	0.079311885
89	0xbdcd89b9	-0.10036034
90	0xbb15ae79	-0.002283959
91	0x3d6eb0e1	0.058274154
92	0xbd000fbb	-0.031265
93	0xbcb88c2a	-0.022527773
94	0xbc2968ca	-0.010339925
95	0x3d92ad44	0.07161954
96	0x3cbb0dd4	0.022833742
97	0xbd8fc714	-0.07020393
98	0x3d1dbc52	0.038509674
99	0x3f29e444	0.6636393
100	0x3d9975f8	0.07493204
101	0x3e940a9d	0.28914347
102	0x3e1aa47e	0.15101811
103	0xbf0508bc	-0.5196645
104	0xbe8afe16	-0.27146977
105	0x3eaed722	0.34148508
106	0xbee6f44d	-0.45108262
107	0xbeadc5e8	-0.33940053
108	0xbd9e9cc1	-0.07744742
109	0x3d4b6726	0.049658917
110	0xbd6afe0f	-0.057371195
111	0x3d05c1f4	0.03265567
112	0x3b3206d9	0.0027164726
113	0xbdbd2cb5	-0.09237043
114	0x3ce31ad9	0.027722763
115	0xbd770802	-0.06031037
116	0xbd43260b	-0.047643702
117	0x3dbdbcd3	0.09264531
118	0xbd6cfb63	-0.05785693
119	0xbd4c0ae1	-0.049815062
120	0xbd4d0d29	-0.05006138
121	0x3d852e82	0.06503011
122	0x3d25c623	0.04047216
123	0xbd33c8d7	-0.043892708
124	0xbdbf3e04	-0.093380004
125	0x3d94eed2	0.07272114
126	0x3d44e32c	0.04806821
127	0xbd3c70a9	-0.04600588
128	0x3d25d5fd	0.04048728
129	0x3c2f3bb6	0.010695389
130	0xbcb0b6c3	-0.021571523
131	0x3da302ee	0.07959543
132	0x3d88a8cd	0.06672821
133	0x3b26dfbc	0.0025462946
134	0xbbc949b2	-0.0061428184
135	0xbd7faab0	-0.06241864
136	0x3d35b93a	0.0443661
137	0x3dc221b0	0.09479082
138	0x3c7f78d3	0.015592772
139	0xbdc7f984	-0.09764388
140	0xbd3e7a3c	-0.04650329
141	0xbc2c9218	-0.010532878
142	0xbd8b46c7	-0.06800609
143	0x3d47b80b	0.0487595
144	0x3d44b7ab	0.048026722
145	0x3d898ae9	0.06715948
146	0x3cc91346	0.024545323
147	0xbd95d0c8	-0.073152125
148	0x3a98658f	0.0011626947
149	0x3d3babac	0.045818016
150	0xbc65aadd	-0.014017788
151	0xbd3c749a	-0.046009637
152	0x3c95965a	0.01826017
153	0xbd2e8db4	-0.042615607
154	0x3d1e9569	0.038716707
155	0xbbef8ac9	-0.0073102457
156	0xbd3e4aac	-0.04645793
157	0xbb6518fb	-0.0034957516
158	0xbcf6a519	-0.030108022
159	0x3d90859f	0.07056736
160	0x3c352ae0	0.0110575855
161	0xbd1dfdd0	-0.038572133
162	0x3d450264	0.048097983
163	0x3c40a636	0.011758378
164	0x3d49c017	0.049255457
165	0xbd33802d	-0.04382341
166	0xbc34e98d	-0.011042011
167	0xbd0cac74	-0.03434415
168	0xbd317754	-0.04332669
169	0x3da3cf3c	0.07998511
170	0xbd073405	-0.033008594
171	0x3d4d27d2	0.050086804
172	0x3dcd96e9	0.100385495
173	0x3d0e51e7	0.034746077
174	0x3c70e7d5	0.014703711
175	0xbc1d7534	-0.009610463
176	0x3d4daf87	0.050216224
177	0x3d93b5e2	0.07212426
178	0x3d1780f0	0.0369882
179	0xbd9b4060	-0.07580638
180	0xbd626198	-0.055268854
181	0x3cc6a0f5	0.024246672
182	0x3d2ed9f5	0.04268833
183	0xbb967dd0	-0.0045926347
184	0xbdcb2fa8	-0.09921199
185	0xbbea3e2f	-0.007148526
186	0xbda2890b	-0.07936295
187	0xbd77789f	-0.060417768
188	0xbc209428	-0.009800948
189	0x3cd87f76	0.026427966
190	0x3dc4d468	0.09610826
191	0x3da9e8d6	0.08296363
192	0x3c982543	0.018572455
193	0xbd8ee709	-0.0697766
194	0xbd682186	-0.056672595
195	0x3db4a896	0.08821218
196	0xbdab18b2	-0.0835432
197	0x3d97b698	0.07407874
198	0x3dd066a6	0.10175829
199	0x3cebd2a8	0.028786972
200	0xbec1677c	-0.37774265
201	0x3f3bc86f	0.7335271
202	0x3ef60c5b	0.480563
203	0xbdbcdef4	-0.092222124
204	0x3da69dd5	0.08135573
205	0xbe25f461	-0.16206504
206	0xbf2dfbde	-0.67962444
207	0xbccb2764	-0.024799056
208	0x3da19a71	0.078907855
209	0xbc16c809	-0.009202966
210	0xbbdc0184	-0.006714048
211	0x3c22a6d1	0.009927467
212	0x3d373fa6	0.044738434
213	0xbc4b059f	-0.012391477
214	0xbd3dea3d	-0.046365965
215	0xbc891413	-0.016733205
216	0xbc52421b	-0.012833144
217	0x3c46101b	0.012088801
218	0xbd9f74d4	-0.07785955
219	0x3c34c4d1	0.011033253
220	0x3c199494	0.009373803
221	0xbca3082e	-0.019901361
222	0x3d59cc14	0.05317314
223	0x3dc0a8f1	0.09407223
224	0xbd95f88a	-0.07322796
225	0xbda971ca	-0.08273657
226	0xba9c9554	-0.0011946359
227	0x3c8d52d9	0.017251419
228	0xbce28607	-0.0276518
229	0x3dc3e013	0.09564223
230	0x3c5585b2	0.013032364
231	0xbdbffdb4	-0.09374562
232	0x3c148ab6	0.009066274
233	0xbdac7400	-0.08420563
234	0x3d4eb114	0.050461844
235	0x3d732241	0.05935884
236	0x3da976e1	0.082746275
237	0xbd8fc7ec	-0.07020554
238	0xbd793648	-0.060842782
239	0xbd89a4f4	-0.067209154
240	0x3d2a2075	0.04153486
241	0xbc16fbbe	-0.009215293
242	0x3dc1b1a0	0.094577074
243	0xbd7a56ca	-0.061117925
244	0xbd3124c0	-0.04324794
245	0xbd605c91	-0.05477578
246	0xbcef6849	-0.029224532
247	0xbd1490f1	-0.03627104
248	0x3dab81ee	0.083743915
249	0x3d6035e9	0.054738913
250	0xbd1bd423	-0.038044106
251	0xbd7ac25a	-0.061220504
252	0xbcda476c	-0.026645385
253	0x3d8ee742	0.06977703
254	0x3d0a85b4	0.033818915
255	0x3dc49582	0.09598829

cell_list.1.conv_gates.weight f4 [20, 20, 3, 3]
0	0x3d5140ec	0.051087305
1	0xbd099931	-0.03359336
2	0xbc8cce2e	-0.017188158
3	0x3ca386dd	0.019961769
4	0x3d1aa0c7	0.037750985
5	0x3d96e089	0.073670454
6	0x3caa7f49	0.020812647
7	0xbd9515f1	-0.072795756
8	0x3d8cd066	0.06875686
9	0x3d18aa74	0.03727193
10	0xbd8ebcb2	-0.069695845
11	0xbd626687	-0.05527356
12	0x3d69afac	0.0570523
13	0x3d88e142	0.066835895
14	0xbd1a0eec	-0.037611887
15	0x3d082510	0.03323847
16	0x3cfd2167	0.030899717
17	0x3d7ec875	0.06220289
18	0xbcac502a	-0.021034319
19	0x3bfb972f	0.0076779346
20	0x3ca3e2c9	0.0200056
21	0xbc488688	-0.012239106
22	0xbbfcdbc9	-0.00771663
23	0xbd809e51	-0.062801965
24	0x3ce06577	0.027392132
25	0x3d262e0b	0.040571254
26	0xbd3ccea2	-0.046095498
27	0x3cfd6ae9	0.030934768
28	0x3cb05d96	0.021529
29	0x3d037e4d	0.03210287
30	0xbd2e5bbd	-0.042567957
31	0xbbf9f031	-0.00762751
32	0x3b3b1a11	0.0028549472
33	0x3d2c4a95	0.042063314
34	0xbd38604e	-0.04501372
35	0xbd167588	-0.03673318
36	0x3d578d02	0.05262471
37	0x3d12a0f8	0.035798043
38	0x3d49b84c	0.049248025
39	0x3d933ac8	0.07188946
40	0xbd1819bc	-0.037133917
41	0xbceab436	-0.028650384
42	0x3d7eacd5	0.062176544
43	0xbd51421d	-0.05108844
44	0xbd3b43fe	-0.04571914
45	0x3d8847da	0.066543296
46	0xbd7aa630	-0.061193645
47	0x3d0a85d0	0.03381902
48	0x3d71d3be	0.059039824
49	0xbcbb9a9b	-0.02290087
50	0x3d719fd4	0.058990315
51	0x3d6b48b9	0.0574424
52	0xbd74d3b6	-0.059772216
53	0x3d179d17	0.037015047
54	0x3d3dcd76	0.04633852
55	0xbc355598	-0.01106777
56	0xbd8d52aa	-0.069005325
57	0xbd3d8bd0	-0.046275914
58	0xbd250a11	-0.040292803
59	0xbd757920	-0.059929967
60	0xbd9774df	-0.07395338
61	0xbd2bf330	-0.04197997
62	0xbca1d5de	-0.0197553
63	0x3b120269	0.0022279269
64	0x3ae1f62f	0.0017239506
65	0x3b413ec5	0.0029486876
66	0xbd75266b	-0.05985109
67	0x3ce53914	0.027981319
68	0x3a96141f	0.0011450088
69	0x3d80980a	0.06278999
70	0xbd582709	-0.0527716
71	0x3d976f69	0.07394297
72	0xbd840ba2	-0.06447531
73	0x3c0dd339	0.008656316
74	0xbcccefdc	-0.025016718
75	0xbd5b9f25	-0.05361857
76	0xbd7ef00d	-0.06224065
77	0xbd83df5b	-0.06439086
78	0xbd5a17d3	-0.053245377
79	0xbd80d260	-0.06290126
80	0xbd3e62f3	-0.046481084
81	0x3c07310a	0.008251438
82	0xbccd806b	-0.025085649
83	0x3d55c9b4	0.052194312
84	0xbc2a7f3a	-0.01040631
85	0xbd70265f	-0.058630344
86	0x3cbda68d	0.023150707
87	0xbd91ff85	-0.071288146
88	0xbd28b058	-0.0411838
89	0xbd5c5cee	-0.053799562
90	0x3d05aa24	0.032632962
91	0xbc42c586	-0.011887914
92	0x3c9e442c	0.019319616
93	0x3c16d9c1	0.00920719
94	0xbd8f15d8	-0.06986588
95	0xbce2382b	-0.027614674
96	0xbd7d28db	-0.06180654
97	0xbcef5c17	-0.029218717
98	0x3c8e5fd6	0.017379683
99	0x3c8270f0	0.015922993
100	0xbd41a6c4	-0.04727818
101	0xbc0559a4	-0.008139048
102	0x3a8bd215	0.0010667468
103	0xbc156e5b	-0.009120549
104	0x3d0de195	0.03463896
105	0xbba9f8d7	-0.0051871347
106	0x3c24920e	0.010044588
107	0x3d22ccaa	0.039745964
108	0x3cd784f3	0.026308512
109	0x3c80de2a	0.015730936
110	0x3b90fccb	0.0044246665
111	0x3bd9e888	0.0066500343
112	0xbd2409a8	-0.04004827
113	0xbc3cef62	-0.011531683
114	0xbd2b9a04	-0.041894928
115	0x3b902562	0.0043989876
116	0xbd8c9254	-0.068638474
117	0x3d65581a	0.055992223
118	0x3d2105c6	0.039312147
119	0x3cf242c8	0.02957286
120	0xbd41f98c	-0.047357127
121	0x3ca395bc	0.01996886
122	0x3cf18a9b	0.029485038
123	0x3b8d8ec3	0.004319997
124	0x3d397973	0.04528184
125	0xbd8a646f	-0.067574374
126	0xbd0a08b4	-0.033699706
127	0x3cedd827	0.029033734
128	0xbd4fb9b2	-0.050714202
129	0x3a68681b	0.00088656106
130	0x3d1325bc	0.03592466
131	0xbd8e6f3b	-0.06954809
132	0x3d26f48a	0.040760554
133	0xba7e7785	-0.0009707141
134	0xbce148e4	-0.027500577
135	0x3d32d688	0.043661624
136	0x3d84c9f0	0.06483829
137	0xbd54c51c	-0.05194579
138	0x3a61e616	0.00086173543
139	0x3c433d73	0.011916506
140	0x3d355da9	0.044278774
141	0x3d0c1d00	0.034207344
142	0x3b34cc85	0.0027587723
143	0x3cb60e20	0.022223532
144	0xbceb9bb8	-0.028760776
145	0xbc07482f	-0.008256956
146	0x3c3c4905	0.011492019
147	0xbc86521b	-0.016396573
148	0xbd74ba59	-0.059748027
149	0x3cd6194a	0.026135106
150	0x3d43fef9	0.047850583
151	0xbc354575	-0.011063923
152	0xbcf57eee	-0.029967751
153	0x3d8a4518	0.0675146
154	0xbd1bbb1e	-0.038020246
155	0xbd7ee647	-0.06223133
156	0xbd97c1e9	-0.07410032
157	0x3d2f5a91	0.04281098
158	0xbd692156	-0.056916557
159	0xbd8b8ea0	-0.06814313
160	0xbbf00c84	-0.0073257107
161	0x3d57b172	0.05265946
162	0x3d44d051	0.04805023
163	0x3d989ba8	0.07451564
164	0x3d8e6e8d	0.0695468
165	0x3cb665aa	0.022265274
166	0x3cc45e46	0.023970734
167	0xbd0a7734	-0.033805087
168	0xbd73d149	-0.05952576
169	0xbb4d9085	-0.0031366658
170	0xbcbc3895	-0.0229762
171	0xbd05a1e0	-0.03262508
172	0x3b9bde0a	0.0047566937
173	0x3d77b2a4	0.0604731
174	0x3d133a7e	0.035944454
175	0x3c9099eb	0.017651519
176	0x3cd6bfa2	0.026214425
177	0xbd8639d3	-0.06553998
178	0x3d67e726	0.056616925
179	0xbc923548	-0.017847672
180	0x3d0955e9	0.033529196
181	0xbd0303ae	-0.03198593
182	0xbd07f1bc	-0.03318952
183	0x3d0afa3f	0.03393006
184	0x3d426499	0.04745922
185	0x3d74ab61	0.059733752
186	0xbd435599	-0.047689054
187	0x3cce3d08	0.025175586
188	0xbd92df12	-0.071714535
189	0x3b75f465	0.0037529704
190	0xbcd1fa20	-0.025631964
191	0x3d3b2073	0.045685243
192	0x3d850b7d	0.06496332
193	0xbc24e635	-0.010064651
194	0xbadb8c9d	-0.001675028
195	0x3c859f3d	0.016311282
196	0x3d16206e	0.03665202
197	0x3c04c12e	0.008102698
198	0xbd8d38d5	-0.068956055
199	0x3cf1617f	0.029465435
200	0xbd642868	-0.055702597
201	0x3d223318	0.039599508
202	0x3d1fca87	0.039011505
203	0x3d08aaa1	0.03336585
204	0xbcd0c697	-0.02548532
205	0xbd7bcf11	-0.06147677
206	0xbd4c8cb5	-0.049938876
207	0x3d729466	0.059223555
208	0xbce70a71	-0.028203221
209	0x3ce9b9f0	0.028531045
210	0xbc706143	-0.0146716265
211	0x3d3c1ded	0.045926977
212	0xbc9f307d	-0.0194323
213	0x3d74bd8e	0.059751086
214	0xbd8f8218	-0.07007235
215	0xbc97f45b	-0.018549135
216	0x399d3ccd	0.00029990674
217	0xbc91643a	-0.017747987
218	0xbd9570d0	-0.07296908
219	0x3c1daec4	0.009624187
220	0x3d6b34f1	0.057423536
221	0xbd387aa4	-0.045038834
222	0xbc04a22c	-0.008095305
223	0x3d5e010f	0.05420023
224	0x3d27049f	0.04077589
225	0xbd516ffc	-0.051132187
226	0xbabb192c	-0.001427447
227	0xbb6328d3	-0.0034661784
228	0x3cb23de0	0.02175802
229	0x3d914f9a	0.07095261
230	0xbc7eacaa	-0.015544096
231	0x3d2e6b1a	0.04258261
232	0xbd55c8e7	-0.05219355
233	0xbd8dd3c6	-0.06925158
234	0x3d42d903	0.04757024
235	0xbc6fcc28	-0.014636077
236	0xbcef51ef	-0.029213874
237	0x3b62bce6	0.0034597456
238	0x3d4c871e	0.049933545
239	0xbd8d421e	-0.068973765
240	0xbd4d909f	-0.05018675
241	0xbd7609ed	-0.06006806
242	0xbd26348c	-0.040577456
243	0xbbc4f2ca	-0.006010388
244	0x3d22ba76	0.039728604
245	0x3cd97cb2	0.026548717
246	0x3d753b96	0.05987128
247	0xbd1b7204	-0.03795053
248	0xbc0500f1	-0.0081179
249	0x3d013266	0.031542204
250	0xbcc000a2	-0.023437802
251	0x3c66b66c	0.014081579
252	0xbd5c8835	-0.053840835
253	0x3c8af1b1	0.01696095
254	0xbc42ded4	-0.011893947
255	0xbc408697	-0.011750839

cell_list.1.conv_can.weight f4 [10, 20, 3, 3]
0	0xbeb4e5ac	-0.35331476
1	0x3ed4501e	0.41467375
2	0xbfa6d599	-1.3033935
3	0x3e734f0e	0.23760626
4	0x3f501e3c	0.81296134
5	0xbf2d8047	-0.6777386
6	0x3f04f0e6	0.5193008
7	0x3f29afb0	0.662837
8	0xbfc36e2a	-1.5267994
9	0x3e329c21	0.17442371
10	0xbe13e428	-0.14442503
11	0xbe880e60	-0.26573467
12	0x3e0103b8	0.12599075
13	0x3cd945f1	0.026522608
14	0xbe8defbe	-0.2772197
15	0xbe84229d	-0.25807658
16	0xbf0ff0b6	-0.5622667
17	0xbf6435b7	-0.8914446
18	0xbf6765ed	-0.903899
19	0xbede76fd	-0.43450156
20	0xbec61dd8	-0.38694644
21	0xbe16f000	-0.1473999
22	0xbdd98a1a	-0.10622044
23	0xbe8fa0da	-0.28052408
24	0xbefdb27d	-0.49550238
25	0xbf35bef7	-0.70994514
26	0xbf2433de	-0.64141643
27	0x3fc46d98	1.5345945
28	0x3f9dd5f2	1.2330916
29	0x3d7dbd43	0.061948072
30	0x3f0be612	0.54647934
31	0x3f6ddc7b	0.9291455
32	0x3f85ac22	1.0443156
33	0x3f33a65c	0.7017572
34	0x3ff7b7c8	1.935296
35	0x3f8b023b	1.0860056
36	0x3ed0f5ee	0.4081263
37	0xbe7f8fec	-0.24957246
38	0xbf123691	-0.5711451
39	0x3de9f0bd	0.1142287
40	0xbe8327c7	-0.25616285
41	0xbf89c02b	-1.076177
42	0x3f3afac2	0.73038876
43	0x3f153cf3	0.58296126
44	0xbdc3f134	-0.0956749
45	0x3e52eff5	0.20599349
46	0x3f31f1e9	0.6950975
47	0x3ec38a27	0.3819134
48	0xbdaf279b	-0.08552476
49	0x3e7d8b70	0.24760222
50	0x3ea300c0	0.3183651
51	0x3f018b26	0.5060295
52	0x3c27c908	0.010240801
53	0x3f139c05	0.5765994
54	0x3e3597c3	0.17733674
55	0xbe377960	-0.17917395
56	0xbcce4e79	-0.025183903
57	0xbdf0191d	-0.1172354
58	0xbe8bbec4	-0.2729398
59	0x3e1c06a3	0.15236907
60	0xbe258cb7	-0.1616696
61	0xbeba351a	-0.36368638
62	0xbdcb2979	-0.0992002
63	0x3f97999b	1.1843752
64	0x3f0d8fbb	0.5529744
65	0xbe501fab	-0.2032458
66	0x3f4862ff	0.78276056
67	0x3ed17dc8	0.40916276
68	0xbcab42a0	-0.020905793
69	0xbf0afa05	-0.5428775
70	0xbde6b6f7	-0.112653665
71	0xbe60c43d	-0.21949859
72	0x3f7dd8eb	0.99159116
73	0xbd9745a5	-0.073863305
74	0x3f1ce576	0.6128763
75	0x3f4bd497	0.7962126
76	0x3f4bc5b7	0.79598564
77	0x3f8a313d	1.0796276
78	0x3f231c74	0.6371529
79	0x3f611cd6	0.87934625
80	0x3fcc1bd2	1.594599
81	0x3f474ecd	0.77854615
82	0xbde5093a	-0.111834005
83	0xbfbeb3d8	-1.4898634
84	0x3f04ac64	0.5182555
85	0xbefbee4d	-0.49205247
86	0xbf7acd2a	-0.97969306
87	0xbed1ca7f	-0.40974805
88	0xbf97882e	-1.1838434
89	0xbfa4aa8e	-1.2864549
90	0x3b75f16a	0.0037527927
91	0xbd34691a	-0.044045545
92	0x3cc7e03e	0.02439892
93	0xbd864fed	-0.065582134
94	0x3d8e5298	0.06949347
95	0x3d492464	0.04910697
96	0x3d9455e7	0.07242947
97	0xbce25516	-0.027628463
98	0xbcfdad3b	-0.030966392
99	0xbbd39256	-0.0064566536
100	0x3d8c68f0	0.06855953
101	0xbc8152a0	-0.015786469
102	0xbce44cee	-0.027868714
103	0xbc25a7f6	-0.010110846
104	0x3d8c9b8a	0.06865604
105	0x3c609716	0.013707897
106	0x3d039717	0.032126512
107	0xbcb0e429	-0.02159317
108	0x3b0b11a2	0.0021220227
109	0x3c180211	0.009277836
110	0x3d7280ce	0.05920487
111	0x3d5d894a	0.054086007
112	0xbd4fd9b5	-0.05074473
113	0xbd94ca02	-0.072650924
114	0x3d9727d2	0.07380642
115	0x3c7b67d0	0.015344575
116	0xbd03e253	-0.03219826
117	0x3d8ea1e4	0.06964472
118	0xbd962b52	-0.073324814
119	0xbd73a436	-0.059482776
120	0xbcbfe6ce	-0.023425486
121	0x3d6374b9	0.055531237
122	0x3cb6dffb	0.0223236
123	0x3d147da2	0.036252625
124	0xbd1bb52f	-0.038014587
125	0x3c694668	0.014237978
126	0x3cad3af8	0.021146283
127	0xbd7b42e9	-0.061343107
128	0xbc96703f	-0.01836407
129	0x3d540c2f	0.05176943
130	0x3d982273	0.07428446
131	0xbd13e8b3	-0.03611059
132	0xbbe2bf22	-0.0069197575
133	0xbb3272df	-0.0027229113
134	0x3d75be7d	0.059996117
135	0x3d762750	0.060096085
136	0xbd87c586	-0.066294715
137	0xbd8cb237	-0.06869929
138	0x3d4df632	0.05028362
139	0x3d2a7b55	0.041621525
140	0xbc7ccd07	-0.015429742
141	0xbccafa8d	-0.024777675
142	0xbcef867b	-0.02923893
143	0x3c9ff09f	0.019523917
144	0xbc13927b	-0.009007092
145	0x3d2af273	0.041735124
146	0x3d5424f3	0.05179305
147	0x3cd19c2c	0.025587164
148	0x3cbea898	0.023273751
149	0x3d5c64c9	0.053807054
150	0x3d051958	0.032494873
151	0x3c77bb40	0.0151203275
152	0x3ccd2869	0.025043683
153	0x3d5dcf83	0.054152977
154	0x3d8114e2	0.06302811
155	0x3ce9fc46	0.028562676
156	0x3d982aef	0.07430064
157	0x3c8005d8	0.015627787
158	0xbc88f959	-0.01672046
159	0xba846e12	-0.0010103604
160	0xbd8a0383	-0.06738951
161	0xbd9369bc	-0.071979016
162	0xbd63ed57	-0.055646267
163	0x3d9858fe	0.07438849
164	0x3d62fc26	0.05541625
165	0xbd250afd	-0.040293682
166	0x3d59a420	0.053135037
167	0x3d846810	0.06465161
168	0xbd5793b5	-0.0526311
169	0xbd378e3c	-0.04481338
170	0x3d7a16ba	0.06105683
171	0x3c688c71	0.01419364
172	0x3d8c90d2	0.0686356
173	0xbd5d51a4	-0.054032937
174	0x3d0e48ba	0.034737326
175	0x3d7609b4	0.060067847
176	0xbbe0c6e6	-0.006859648
177	0xbd4be62f	-0.049780067
178	0x3d03cfbb	0.03218053
179	0xbcbf9eb1	-0.0233911
180	0x3c9dacde	0.019247469
181	0x3d6e3ca5	0.058163304
182	0xbf946995	-1.1594721
183	0x3ec4af73	0.38415107
184	0x3ea9abe0	0.33138943
185	0xbf17b745	-0.5926402
186	0x3f016b04	0.5055392
187	0x3db5a058	0.08868474
188	0xbf0ba0c1	-0.54542166
189	0x3ee247bf	0.44195363
190	0xbebd883f	-0.3701801
191	0xbebb912e	-0.366342
192	0x3ea8af0d	0.32946053
193	0xbe54a150	-0.20764661
194	0x3e010dd7	0.12602936
195	0x3e78bdf2	0.24291208
196	0xbe6cfd5b	-0.23143522
197	0x3e52bc29	0.2057959
198	0xbe871107	-0.26380178
199	0xbe36246b	-0.1778733
200	0xbf0814da	-0.53156817
201	0xbe8c5ad5	-0.2741305
202	0x3e41727d	0.1889133
203	0x3ee578fe	0.44818872
204	0xbf7a3d32	-0.97749627
205	0xbecdefe8	-0.40222096
206	0xbe555a8f	-0.20835327
207	0x3eb1f81a	0.347596
208	0x3d2f0c28	0.042736202
209	0xbf5869ee	-0.84536636
210	0x3de51c99	0.11187095
211	0x3c8168a1	0.015796961
212	0xbf3c667e	-0.7359389
213	0x3f581684	0.84409356
214	0x3fd0f552	1.6324866
215	0xbd0ae791	-0.033912245
216	0x3f59e934	0.85121465
217	0x3e67752d	0.22603293
218	0x3ecf3b25	0.4047481
219	0x3e9de159	0.3083599
220	0xbeb47dac	-0.3525213
221	0xbe7db1be	-0.24774835
222	0x3eb7db5c	0.35909545
223	0xbf05abe1	-0.5221539
224	0xbf1eca86	-0.62027776
225	0x3e8a1885	0.26971832
226	0x3eb51353	0.35366306
227	0x3f87d194	1.0610833
228	0x3e965724	0.29363358
229	0x3ef93110	0.48670244
230	0x3f2ded03	0.67939776
231	0x3eb46cd2	0.35239273
232	0x3f04f3a3	0.5193426
233	0x3fd9257b	1.6964563
234	0xbe5eb4f1	-0.21748711
235	0xbef85094	-0.48498976
236	0xbf24cbd0	-0.64373493
237	0xbe4dff9a	-0.20117036
238	0xbdb83660	-0.08994746
239	0x3ea56eb1	0.32311013
240	0x3ec72ac8	0.38899827
241	0xbf7d74e5	-0.9900649
242	0xbf27dd7d	-0.6557234
243	0x3e9af0a6	0.30261725
244	0x3ed091f3	0.4073635
245	0x3e84e265	0.25953975
246	0xbdf044dc	-0.11731884
247	0x3f005529	0.50129944
248	0xbe990424	-0.29885972
249	0x3d9230a6	0.07138185
250	0x3f258f50	0.646718
251	0xbf302a35	-0.688144
252	0x3ec5e30d	0.38649788
253	0x3e90b404	0.2826234
254	0xbe9b2cfc	-0.30307758
255	0xbf051c80	-0.5199661

cell_list.2.conv_gates.weight f4 [20, 20, 3, 3]
0	0xc007bd2e	-2.1209216
1	0xbf653b4f	-0.8954362
2	0x3f171ca2	0.59028065
3	0x401ee1a3	2.4825218
4	0xbf8bff09	-1.0937206
5	0xc005f649	-2.093157
6	0xc08551ab	-4.166219
7	0xc082b392	-4.08442
8	0xbf166b39	-0.5875736
9	0x3f874700	1.0568542
10	0xbf828bc8	-1.0198908
11	0xbfde7992	-1.738085
12	0xbfa19045	-1.2622153
13	0xbe01ef39	-0.12688912
14	0xbe09c39d	-0.13453527
15	0x3f43370d	0.76255876
16	0x3fb38370	1.4024487
17	0x3e7f10ce	0.24908754
18	0x40256569	2.5843146
19	0xbe472ea8	-0.19451392
20	0x3f89776c	1.073957
21	0x3f8980be	1.0742414
22	0x3fb5845e	1.418102
23	0x3f9a0cbe	1.2035139
24	0x3fec2f9a	1.8452027
25	0xbfb61fb7	-1.4228429
26	0x3f29f057	0.66382354
27	0x3f426dfa	0.7594906
28	0xbe988570	-0.29789305
29	0xbe844264	-0.25831902
30	0x3e8cd4ef	0.27506205
31	0xbfe3d12f	-1.7798213
32	0x3f467524	0.7752249
33	0x3f3903cd	0.72271425
34	0x3f238153	0.6386921
35	0x3eca3fb4	0.39501727
36	0x40294855	2.6450398
37	0x3fe6e36a	1.8038151
38	0x3f23e012	0.6401378
39	0xbdc0b074	-0.09408656
40	0xbf063f03	-0.524399
41	0xbec8d736	-0.39226693
42	0x4088439c	4.258253
43	0x40491f87	3.1425493
44	0x3fd73056	1.6811626
45	0xbf8d905e	-1.1059682
46	0x3f12b273	0.5730354
47	0xbf9f2b54	-1.2435098
48	0xc0380a7f	-2.8756406
49	0x3f738d89	0.9513784
50	0xbf76049e	-0.96100795
51	0xbe31a0ff	-0.17346571
52	0x3f8cef27	1.1010484
53	0xbfa63b39	-1.2986823
54	0x3f5c3c6d	0.860297
55	0xbfb65638	-1.4245062
56	0xbf5043fb	-0.8135373
57	0x4001ade7	2.0262392
58	0xbfea29ea	-1.8294041
59	0x4091642a	4.543477
60	0xbfe1cd9b	-1.7640871
61	0xbe99b30a	-0.30019408
62	0x3f0301c4	0.5117457
63	0xbf277764	-0.6541655
64	0x3faaf7bb	1.3356851
65	0xbef28481	-0.47366717
66	0x3e14c0b7	0.1452664
67	0xbfbbeedb	-1.4682268
68	0xbf26a040	-0.6508827
69	0x3e4d6e72	0.20061663
70	0xbfa425c4	-1.2824025
71	0x3fb647bf	1.4240645
72	0x3bd39ae1	0.006457672
73	0xbef77241	-0.48329356
74	0xbf35902a	-0.709231
75	0x40104612	2.2542768
76	0x3f7d5600	0.9895935
77	0x3e072f8a	0.13201728
78	0xbf15f595	-0.58577853
79	0xbf51db3e	-0.8197516
80	0x40333550	2.800129
81	0xbece1672	-0.402515
82	0xbe947135	-0.2899262
83	0xbf087de1	-0.53317076
84	0x3f617d4c	0.8808181
85	0x3dbf47e9	0.09339888
86	0xbeb14bca	-0.34628135
87	0xbfa063a7	-1.2530411
88	0xbfdd5c6c	-1.729383
89	0xbf330de0	-0.69943047
90	0xbe81b69b	-0.2533463
91	0x3f2fbcde	0.68647563
92	0xbf73132e	-0.9495114
93	0xbf07d391	-0.530572
94	0xbfa2a300	-1.2705994
95	0x3f642b4c	0.89128566
96	0xbee71970	-0.45136595
97	0x3f00e283	0.5034563
98	0xbee31ea9	-0.4435933
99	0xbd9ab47f	-0.07553958
100	0xbf947917	-1.1599454
101	0x3f26b28a	0.6511618
102	0x3f72bee8	0.9482255
103	0xbf767fca	-0.9628874
104	0xbea43238	-0.32069564
105	0x3f971a81	1.1804963
106	0x3ef3dbfd	0.47628775
107	0xbedfc3f5	-0.4370419
108	0xbed61f4f	-0.41820762
109	0x3f8a56d4	1.0807748
110	0x3f0accd4	0.5421879
111	0xbeaaf00a	-0.3338626
112	0xbe9de413	-0.3083807
113	0x3ce51c7e	0.027967688
114	0xbd4f366e	-0.050589018
115	0xbead3cfb	-0.33835587
116	0x3f5dfde9	0.8671556
117	0x3e5f0301	0.2177849
118	0xbfa2fcb8	-1.2733374
119	0x3f5834da	0.84455645
120	0x3fbba9c4	1.4661183
121	0xbe2978a3	-0.16549926
122	0xbfb3f0f4	-1.4057908
123	0x3d664f65	0.05622806
124	0xbf0846c3	-0.53232974
125	0xbeffc22b	-0.49952826
126	0xbf464b87	-0.77458996
127	0x3f5530fb	0.83277863
128	0xbeaf15bf	-0.34196278
129	0xc02a5d8a	-2.6619592
130	0xbf864e48	-1.049264
131	0x3fbb3fad	1.4628807
132	0xbee226ca	-0.4417022
133	0x3f3661f9	0.71243244
134	0xbfab9ea0	-1.3407784
135	0x3e91be6c	0.28465593
136	0xbf04f3bb	-0.51934403
137	0xbf24215f	-0.6411342
138	0x3f6cb32a	0.9246088
139	0x3f3a1d7b	0.72701234
140	0x3f2f4198	0.68459463
141	0xbe5d8abc	-0.21634954
142	0xbe2991f9	-0.1655959
143	0x3fbd745a	1.4801133
144	0xbf9e9242	-1.2388384
145	0x3f842a2c	1.032537
146	0x3ef4d5e2	0.4781943
147	0x3f59ec1c	0.851259
148	0x3f921cde	1.141506
149	0x3dd1b7a8	0.10240108
150	0xbf9d3f71	-1.2284986
151	0x3f032c94	0.51239896
152	0x3fb5450f	1.41617
153	0xbf5d79ed	-0.8651417
154	0xbf03aa00	-0.51431274
155	0xbe0f71ec	-0.14008301
156	0xbf4f4842	-0.8096963
157	0x400b813c	2.1797628
158	0x3f4dc257	0.80374664
159	0x3d657cf0	0.056027353
160	0xbf4928af	-0.78577703
161	0x3f01476b	0.504996
162	0x3f8e161f	1.1100501
163	0x3f83c3c9	1.0294124
164	0xbf5cd344	-0.86259866
165	0xbf2b328b	-0.66874
166	0x3e81589a	0.2526291
167	0xbd24c0d5	-0.04022296
168	0xbe9864f0	-0.2976451
169	0xbf4a227c	-0.7895887
170	0xbf5710b6	-0.84009874
171	0x3eab929a	0.33510286
172	0x3f06fec5	0.527325
173	0x3f952338	1.1651373
174	0x3f872bab	1.0560201
175	0xbf30f82e	-0.6912869
176	0x3e85a1ed	0.26100102
177	0xbea24693	-0.3169447
178	0xbf4c8e54	-0.79904675
179	0xc0180002	-2.3750005
180	0x3e796a1d	0.24356885
181	0x3f053c09	0.5204473
182	0x3efd4290	0.49464846
183	0x3faf2d26	1.3685653
184	0xc07a98bd	-3.9155724
185	0xc047eecf	-3.1239507
186	0x3fd9953c	1.6998668
187	0x400da7f3	2.2133758
188	0x4041b04c	3.0263853
189	0x3e976233	0.29567108
190	0xbd857775	-0.06516925
191	0xbfd7def3	-1.6864914
192	0xbec0cebc	-0.37657726
193	0x3f610189	0.8789297
194	0x4037fe14	2.8748827
195	0x3eb6c203	0.35694894
196	0xbdc710d4	-0.097200066
197	0xbf3ed848	-0.7454877
198	0xbed1e70f	-0.40996596
199	0x3f6c9e3e	0.9242896
200	0x3f04387f	0.51648706
201	0x3fb306fe	1.3986509
202	0x3cd7a3a0	0.02632314
203	0xbf17a7c7	-0.5924038
204	0x3fe40053	1.7812599
205	0xbf4ecb9a	-0.8077942
206	0x4004a234	2.0724
207	0xbe3775e8	-0.17916071
208	0x3e341316	0.17585406
209	0x3f8c90c4	1.0981679
210	0xbf84d10f	-1.03763
211	0x3fef43e9	1.86926
212	0x3e24cac6	0.16092977
213	0x4027f67f	2.62442
214	0xbee7f425	-0.45303455
215	0xbff814a3	-1.9381298
216	0x4045076e	3.0785785
217	0xbf0c56f6	-0.5482019
218	0xc07df7ff	-3.9682615
219	0xbcca6784	-0.024707563
220	0x400de1e4	2.2169123
221	0xbec2a7fc	-0.38018787
222	0xbfa66a63	-1.3001217
223	0xbfa1b4c8	-1.2633295
224	0xc0000cfb	-2.0007923
225	0x3eb547b9	0.35406283
226	0x3f44cc05	0.7687381
227	0x40a125ad	5.035849
228	0xbf427a9c	-0.7596834
229	0x3f47893d	0.77943784
230	0xbea7d3ea	-0.32778865
231	0x3f9b81a9	1.2148944
232	0x3ea0be06	0.31394976
233	0xbfbd5729	-1.4792224
234	0xbfb06eab	-1.3783773
235	0xbffc3443	-1.9703449
236	0x4018284a	2.377459
237	0x40013781	2.0190127
238	0xbfa0654b	-1.2530912
239	0x4002b9a6	2.042581
240	0x4000f241	2.014786
241	0x40318a11	2.774052
242	0x3e78e9ee	0.24307987
243	0xc05c129c	-3.4386358
244	0x40582261	3.3770983
245	0xbf3638dd	-0.71180516
246	0xbffbece7	-1.9681672
247	0x3ea5db01	0.3239365
248	0x3fec9e27	1.8485764
249	0x3ffdf1c6	1.9839408
250	0x405b832b	3.4298809
251	0x3f37eec0	0.7184868
252	0xbe24a450	-0.16078305
253	0xbedb1cb9	-0.4279535
254	0x40009a95	2.009435
255	0x3e6a8e27	0.2290579

cell_list.2.conv_can.weight f4 [10, 20, 3, 3]
0	0x3f38e9a9	0.7223154
1	0xbec1d6ce	-0.37859195
2	0x3e8472a4	0.25868714
3	0xbcddfa0a	-0.027096767
4	0xbf45ac12	-0.77215683
5	0xbedfc7c2	-0.4370709
6	0x3ee98f15	0.45616975
7	0xbf743f88	-0.9540944
8	0xbd99ee81	-0.07516194
9	0x3f3b97a8	0.73278284
10	0x3f329ab0	0.69767284
11	0x3f1b4332	0.60649407
12	0x3e0d901c	0.13824505
13	0xbeaa175d	-0.3322095
14	0xbd9dcaa6	-0.07704668
15	0xbde64047	-0.11242729
16	0xbcba2400	-0.022722244
17	0x3e1e1c16	0.15440401
18	0x3d48dec1	0.04904056
19	0xbef117ee	-0.4708857
20	0xbe8ef3db	-0.27920422
21	0x3f975e73	1.1825699
22	0x3f127792	0.572137
23	0xbe655ccc	-0.2239868
24	0x3f128e24	0.5724814
25	0x3f1324a6	0.57477796
26	0x3eeeeb83	0.46664056
27	0x3c8b0335	0.016969303
28	0x3f7698a2	0.9632665
29	0x3cfa4199	0.030548858
30	0x3ed73fd0	0.42040873
31	0x3f0a1bb3	0.53948516
32	0xbdad7e36	-0.084713385
33	0x3b85f0e3	0.004087554
34	0xbead704a	-0.33874732
35	0xbe0a7d4f	-0.13524364
36	0x3fa319d6	1.274226
37	0x3ece950b	0.40348086
38	0xbe87e974	-0.26545298
39	0x3dc08eed	0.09402261
40	0x3e46a446	0.19398603
41	0xbace4fbb	-0.0015740314
42	0xbef7de52	-0.48411804
43	0xbf81379b	-1.0095094
44	0xbe081093	-0.13287573
45	0x3f0679f0	0.5252981
46	0x3ebe0962	0.37116534
47	0x3e6b90bb	0.23004429
48	0xbdf5fb75	-0.12010852
49	0x3dc58442	0.09644367
50	0xbc183b75	-0.009291519
51	0x3ebb1ce9	0.36545494
52	0x3f4f2372	0.8091346
53	0x3e63b723	0.2223783
54	0x3edc8f37	0.43078014
55	0x3ca8e4f2	0.020616982
56	0x3f81bd71	1.0135938
57	0x3f4b2c6b	0.7936465
58	0x3dec84b9	0.11548752
59	0xbedb10e3	-0.4278632
60	0x3e9eb153	0.30994663
61	0x3e71e3e3	0.23622088
62	0x3f5c876e	0.8614415
63	0xbf78efbe	-0.9724082
64	0x3ea5ed50	0.32407618
65	0x3edef20b	0.4354404
66	0xbd153a3c	-0.03643249
67	0x3eaa9f31	0.33324578
68	0xbf226a46	-0.6344341
69	0xbe955f3d	-0.29174224
70	0x3f1cefa1	0.61303145
71	0x3f4baf4b	0.7956435
72	0x3e7bc065	0.24585111
73	0x3dbc9ac6	0.09209208
74	0x3ec9434b	0.39309153
75	0xbe952493	-0.29129466
76	0xbf7c674f	-0.98595136
77	0xbe1a5c72	-0.15074328
78	0x3f0f8417	0.5606093
79	0x3e4b5e5f	0.19860218
80	0xbf02d24f	-0.51102155
81	0xbe7fe0de	-0.24988124
82	0x3e320f54	0.1738866
83	0x3e22b23e	0.15888306
84	0xbf332b3b	-0.6998784
85	0xbe0668d0	-0.1312592
86	0xbe8dcbd4	-0.2769457
87	0x3efc3f99	0.4926727
88	0x3dc12e69	0.0943268
89	0x3e91f001	0.2850342
90	0xbe56cf44	-0.20977503
91	0xbe86b8b3	-0.2631279
92	0x3e9803f9	0.2969053
93	0x3dcc99e1	0.099902876
94	0xbec0b5ea	-0.3763879
95	0xbdc6ca75	-0.09706584
96	0x3e86f458	0.26358294
97	0xbe74d576	-0.23909554
98	0xbdc383ed	-0.09546647
99	0x3d7f46a3	0.062323224
100	0xbf052cf8	-0.5202174
101	0xbf9da45e	-1.2315786
102	0xbeca5454	-0.39517462
103	0xbf1df8bf	-0.6170768
104	0xbf02bcd5	-0.51069385
105	0x3eb94b18	0.36190104
106	0xbddbf278	-0.107396066
107	0x3e13a13a	0.14416972
108	0x3e7cba0d	0.24680348
109	0xbf046d1d	-0.51728994
110	0xbda85465	-0.08219222
111	0xbde3cf62	-0.111235395
112	0xbf9a8283	-1.2071079
113	0xbe42036a	-0.18946615
114	0x3eb71c47	0.3576376
115	0xbe864e66	-0.26231688
116	0xbe01de00	-0.12682343
117	0xbf332a1c	-0.6998613
118	0xbeff2b74	-0.4983784
119	0xbf442fc6	-0.76635396
120	0xbda1f696	-0.07908361
121	0x3e617ecd	0.22021027
122	0x3e051309	0.12995543
123	0x3cce7d62	0.025206272
124	0x3e063a00	0.13108063
125	0xbee9b563	-0.456462
126	0xbcb515e1	-0.02210516
127	0xbecf6b53	-0.4051157
128	0xbe2b1a89	-0.16709341
129	0xbe343c76	-0.17601189
130	0xbf5e30f6	-0.8679346
131	0xbe1fd1fb	-0.15607445
132	0x3d9027e4	0.070388585
133	0xbe7236f6	-0.23653778
134	0xbeb91045	-0.36145225
135	0xbf14b1ca	-0.58083785
136	0xbf00b3e0	-0.5027447
137	0x3e88f79b	0.26751408
138	0x3e6dfc2a	0.23240724
139	0xbe37349e	-0.17891166
140	0x3e55b0e9	0.20868267
141	0xbe90fe29	-0.2831891
142	0xbecd3366	-0.40078276
143	0xbe065ca8	-0.13121283
144	0x3b974095	0.004615853
145	0x3ebd7190	0.37000704
146	0xbeb6bd9f	-0.35691544
147	0x3e915ceb	0.28391203
148	0xbe65436a	-0.22388998
149	0xbea618b2	-0.32440716
150	0x3f62c9d0	0.8858919
151	0x3e2e9d8d	0.17052288
152	0x3e9b517b	0.30335602
153	0xbee44e97	-0.4459121
154	0x3decd4ba	0.11564012
155	0x3e59762d	0.21236487
156	0xbd6a8d49	-0.057263646
157	0x3f655f4e	0.8959855
158	0x3e93cd96	0.28867787
159	0x3ec5b1f9	0.38612345
160	0x3ebef2df	0.3729467
161	0x3bae54af	0.0053201537
162	0x3e9f90b7	0.31165096
163	0xbe34bace	-0.17649385
164	0xbd8e0ebc	-0.06936404
165	0xbd988a20	-0.0744822
166	0x3c77148c	0.015080582
167	0x3e274d10	0.16337991
168	0x3c8b7072	0.017021392
169	0x3e80c033	0.25146636
170	0xbbf689b6	-0.0075237406
171	0xbe43314c	-0.19061774
172	0x3e891eb5	0.2678124
173	0x3f5c8c93	0.86152
174	0xbc966b38	-0.018361673
175	0x3e44b599	0.19209899
176	0x3e8d2f7e	0.27575296
177	0xbc62572f	-0.0138147315
178	0x3e5525a7	0.20815144
179	0x3d9a94f9	0.075479455
180	0xbef1b1a7	-0.4720585
181	0x3d58d289	0.052935157
182	0x3f4f4bb8	0.8097491
183	0xbef76ba3	-0.48324308
184	0x3e0b1628	0.1358267
185	0xbca8d3e3	-0.020608848
186	0xbd1d7f99	-0.038451765
187	0x3ea647d6	0.3247668
188	0xbf3e9148	-0.7444043
189	0xbd8a49af	-0.06752335
190	0x3f227e1c	0.6347368
191	0xbdf13808	-0.11778265
192	0x3d4b455f	0.049626704
193	0x3edc8ce7	0.4307625
194	0x3ea14c73	0.3150364
195	0x3c23b578	0.009991996
196	0xbea48a91	-0.32136968
197	0xbec4d053	-0.3844019
198	0xbf2fa2dc	-0.6860788
199	0xbf04cfa9	-0.51879364
200	0xbf103b24	-0.5634024
201	0xbda75044	-0.08169606
202	0xbee14bf4	-0.4400326
203	0x3e83ac0c	0.257172
204	0x3e271b91	0.1631911
205	0x3fab9f0d	1.3407913
206	0x3ea09af7	0.3136823
207	0x3da3a1b3	0.07989826
208	0xbec5725d	-0.38563815
209	0xbdb24303	-0.08704188
210	0xbe236c96	-0.15959391
211	0xbeaf6581	-0.3425713
212	0x3f6f1bd2	0.93401825
213	0xbef0df68	-0.47045445
214	0x3dff0906	0.12452893
215	0xbec7d97d	-0.39033118
216	0xbe9084e5	-0.2822639
217	0xbe9dd62d	-0.30827466
218	0x3d9c8303	0.07642176
219	0xbe592efc	-0.2120933
220	0x3c224ede	0.009906499
221	0x3f849594	1.0358148
222	0xbe15326b	-0.14570014
223	0xbd05989e	-0.03261625
224	0xbec1d4c2	-0.37857634
225	0x3e888542	0.26664168
226	0xbb7a84d9	-0.0038226156
227	0x3e20ad83	0.1569119
228	0x3f4c1ad1	0.7972842
229	0xbf39ae21	-0.72531325
230	0xbe58b1c3	-0.2116156
231	0x3d6b384b	0.057426732
232	0xbe0505c3	-0.12990479
233	0x3e6a6d64	0.22893292
234	0xbf435676	-0.76303804
235	0x3eba05f2	0.3633266
236	0xbee7b65e	-0.45256323
237	0x3c9d4a65	0.019200513
238	0x3e16203f	0.14660738
239	0xbed57d4a	-0.4169715
240	0xbe534ca9	-0.20634712
241	0x3e32d8a5	0.17465456
242	0x3f2f6a63	0.6852171
243	0x3e92b1f5	0.28651395
244	0x3e76fd88	0.24120152
245	0xbeafbc3f	-0.34323308
246	0xbc96e8d2	-0.018421564
247	0xbe950f80	-0.29113388
248	0xbb83ab1d	-0.004018201
249	0x3e85f322	0.26162058
250	0xbe268636	-0.16262135
251	0xbf0616c7	-0.52378505
252	0xbee10a28	-0.4395306
253	0x3f018747	0.5059704
254	0x3e2049b1	0.15653111
255	0x3c9d63c6	0.019212615

cell_list.3.conv_gates.weight f4 [20, 20, 1, 1]
0	0xc09ecddd	-4.96263
1	0x3faced2c	1.3509879
2	0xbcdcadf9	-0.026938425
3	0xc0995db7	-4.79269
4	0x40ab41b0	5.3517685
5	0xbf89c9d1	-1.0764714
6	0xc00b7acf	-2.1793706
7	0xc0259de5	-2.587762
8	0x3e002959	0.12515773
9	0x3feb580d	1.8386246
10	0x3f5b43a3	0.8565008
11	0xbec254d6	-0.3795535
12	0xbf8f772e	-1.1208246
13	0x3f01ce92	0.50705826
14	0xc039d6aa	-2.903727
15	0xbfb27145	-1.3940817
16	0xbf0065dd	-0.5015543
17	0xbf0275ac	-0.50960803
18	0xc0223d53	-2.534993
19	0xbf1f1485	-0.62140685
20	0x3fb7034a	1.4297879
21	0xbe7a1b2c	-0.24424428
22	0xc00f388a	-2.2378259
23	0x3db74940	0.08949518
24	0xbfbe1aab	-1.4851888
25	0xc08c1a3f	-4.378204
26	0xbf09f8b6	-0.5389513
27	0xbe0cdd70	-0.13756347
28	0xbee9b86f	-0.45648524
29	0x3f7a684e	0.97815406
30	0xbe33493d	-0.17508407
31	0xbe1d2ba4	-0.15348679
32	0xbed2b387	-0.41152593
33	0x3fb8f52a	1.4449818
34	0xbe2ec6a1	-0.17067958
35	0xbff1286d	-1.8840462
36	0xbf9b65e6	-1.2140472
37	0x3fa3e916	1.2805507
38	0xbc9ae764	-0.018909164
39	0xbeea8e46	-0.4581167
40	0x402090bf	2.5088346
41	0xbf329484	-0.69757867
42	0xc00a30d8	-2.1592312
43	0x3dfedb6e	0.12444197
44	0xbea3921c	-0.3194741
45	0xbf7212f4	-0.9456017
46	0xbfbe03e2	-1.4844935
47	0xc0637fdd	-3.5546792
48	0x3ffb56c9	1.963586
49	0x4038a76c	2.8852186
50	0x4003c487	2.05887
51	0xc013089e	-2.297401
52	0x3fab94ab	1.3404745
53	0x3f2cd839	0.6751743
54	0x400529d7	2.0806787
55	0xbf3024c8	-0.68806124
56	0xbeefa390	-0.46804476
57	0xbf8c982d	-1.098394
58	0x4000a5ed	2.0101273
59	0x3fcc5899	1.5964538
60	0xc041cff0	-3.0283165
61	0xbfb0212c	-1.3760123
62	0xbfc678e4	-1.5505643
63	0xc013cb09	-2.3092673
64	0x3fa32888	1.2746744
65	0x3ed6a85b	0.4192532
66	0xc01067e9	-2.2563422
67	0xbee6e311	-0.45095113
68	0xbdb6f327	-0.089330964
69	0xbeff591b	-0.4987267
70	0xbf56aee1	-0.83860594
71	0xbe91999c	-0.28437507
72	0xc01633de	-2.3469157
73	0xc04b0aba	-3.1725297
74	0xbf77344f	-0.9656419
75	0xbf4fc59d	-0.8116091
76	0x3e3ebb0d	0.18626042
77	0xbf7916b5	-0.97300273
78	0xbf5dfc20	-0.8671284
79	0xbe8a596d	-0.2702135
80	0xc09c6e1a	-4.88844
81	0x3ffe0341	1.9844743
82	0x3d551d89	0.05203012
83	0xc0a34687	-5.1023593
84	0x40abb091	5.3653035
85	0xbecf3f42	-0.4047795
86	0xc04928b7	-3.14311
87	0xbff5a52b	-1.919103
88	0x3f30bd70	0.6903906
89	0x3fbaaec8	1.4584589
90	0xc091bf64	-4.554613
91	0x3e86aff6	0.26306123
92	0x3f76fc03	0.9647829
93	0x3f25dce5	0.64790183
94	0x3dd1450b	0.10218247
95	0xc02b89c4	-2.6802835
96	0xbcd4b7c8	-0.02596654
97	0xbfb827d6	-1.4387157
98	0xc021a053	-2.5254104
99	0xbf814189	-1.0098125
100	0xc058cde0	-3.3875656
101	0x3da5b710	0.08091557
102	0xbf6b3565	-0.9187835
103	0xc05dd277	-3.4659708
104	0x40a7cf4d	5.2440553
105	0xbf677008	-0.9040532
106	0xc019d651	-2.4037058
107	0xc02fd5ff	-2.7474363
108	0x3fe49de4	1.7860684
109	0x3f1dd42e	0.61651886
110	0xc0722535	-3.783521
111	0xbe6a3d35	-0.22874911
112	0xbec5043e	-0.384798
113	0x3f3c1f11	0.73484904
114	0xc067d74f	-3.6225164
115	0x3db88cb5	0.09011213
116	0xbe561a69	-0.20908512
117	0xbf9ab429	-1.208623
118	0xc013509d	-2.3017952
119	0xbf1e3b60	-0.6180935
120	0xc027e6e6	-2.623468
121	0xbf418e05	-0.7560733
122	0x3f0c20f9	0.5473781
123	0xbf010d62	-0.50411046
124	0x3fbf384a	1.4939053
125	0xbf7b22c8	-0.98099947
126	0xbf9f7350	-1.2457066
127	0xbff664ff	-1.9249572
128	0x3f8d1ff5	1.1025378
129	0x405b533e	3.4269557
130	0xc08145cd	-4.0397706
131	0xbf9e89d7	-1.2385815
132	0x3f752f7c	0.9577558
133	0x3e251972	0.16122988
134	0xbfdaaac3	-1.7083362
135	0xbf15b317	-0.58476394
136	0xbf9e1059	-1.2348739
137	0xbff5e909	-1.9211742
138	0xbeb98ee7	-0.36241838
139	0xbf3d4b0a	-0.73942626
140	0x3fbc5e2b	1.4716238
141	0xbf4d7afa	-0.8026577
142	0xbfcccbb2	-1.5999663
143	0x400575ee	2.0853229
144	0xbec4a665	-0.384082
145	0xc00b669f	-2.1781385
146	0xbfc7fd14	-1.5624108
147	0x3de715f4	0.11283484
148	0x3fd9f984	1.7029271
149	0x40842ccf	4.13047
150	0x3f72c7c7	0.94836086
151	0xbf603368	-0.8757844
152	0x3f8a6a0a	1.081361
153	0x400618ef	2.0952718
154	0x3f3b6649	0.7320295
155	0xbfd434c0	-1.6578598
156	0xbf4cc9b4	-0.79995275
157	0xbfa8eca6	-1.3197219
158	0x3fe10e77	1.7582539
159	0xbf0ca5c0	-0.54940414
160	0xc05564d5	-3.3342793
161	0x3f5c43fa	0.86041224
162	0xbeacce6f	-0.33751246
163	0xc0a7b31b	-5.2406135
164	0x40a6bc4b	5.210485
165	0xbfb8cd0b	-1.4437574
166	0xbf8174c1	-1.0113755
167	0xc0321ef1	-2.7831385
168	0x3f24a146	0.64308584
169	0x3f9f77cc	1.2458434
170	0xc090c70f	-4.524299
171	0xbfa9e41f	-1.3272742
172	0x3e9894e2	0.2980109
173	0x3f39e7ba	0.7261921
174	0xc057cce0	-3.3718796
175	0xbfc35a81	-1.5261995
176	0xbf8335e8	-1.0250826
177	0xbc9ee6c4	-0.019397147
178	0x3f9fe8e5	1.2492949
179	0x3f05c922	0.5226003
180	0xc017f240	-2.3741608
181	0xbfb64cf0	-1.424223
182	0xbf580e24	-0.84396577
183	0xc0849776	-4.143489
184	0x3f2a87c7	0.6661343
185	0xc0250cf8	-2.5789165
186	0xbf9716e1	-1.1803857
187	0xbf75ae38	-0.9596896
188	0xbf87180b	-1.0554212
189	0xbf08927d	-0.53348523
190	0xbfca6579	-1.5812217
191	0xbdff393e	-0.1246209
192	0xbea9c8c0	-0.33160973
193	0x3fda683e	1.7063062
194	0xbf693647	-0.91098446
195	0xc038926f	-2.8839376
196	0x3f0598c6	0.5218624
197	0x3f247e73	0.64255446
198	0xbd3aed7d	-0.045636643
199	0x3f9b03d4	1.2110543
200	0x3f931212	1.148989
201	0x3f94be6d	1.1620613
202	0x3e7c4d0a	0.24638763
203	0x3f930a2a	1.1487477
204	0x3f0faa87	0.5611958
205	0x3f39b495	0.7254117
206	0x3fb2b85a	1.396251
207	0x4010ed83	2.2644966
208	0xc04a0fc1	-3.1572115
209	0xbf83116e	-1.0239694
210	0x40e793e8	7.236805
211	0x3ebbbec3	0.36668977
212	0x3f3d60f7	0.7397608
213	0x3ec1d165	0.37855068
214	0x3f6cc8c8	0.9249387
215	0x400766aa	2.115641
216	0xbe91eabf	-0.2849941
217	0x40325b47	2.7868211
218	0x3fcb0e03	1.5863651
219	0x3e5d2c90	0.2159903
220	0x3f86aa95	1.0520808
221	0x40845f5c	4.1366405
222	0x3d4353f7	0.047687497
223	0xbf2637fc	-0.64929175
224	0x401c4ed1	2.4423106
225	0x3d8d8b86	0.069113776
226	0x3ff314f2	1.8990767
227	0x407dd430	3.966076
228	0xbf15442e	-0.5830716
229	0x3d4a45fc	0.04938315
230	0xbfc1af5d	-1.5131642
231	0x40bf4efd	5.978392
232	0xc0169eb6	-2.353437
233	0x3f2a292a	0.6646906
234	0xbf0b0956	-0.5431112
235	0x3e104c3b	0.1409158
236	0x4041c4b4	3.0276308
237	0x3f505ab3	0.81388396
238	0x3f067d61	0.52535063
239	0xc0b5bd46	-5.6793547
240	0x3fef6f67	1.8705872
241	0x3f629ad6	0.8851751
242	0x40ba1bbb	5.815885
243	0x3fd54599	1.6661865
244	0x40375da3	2.8650901
245	0x407613cf	3.844959
246	0x3ffcd2eb	1.9751867
247	0x4081b62e	4.0534887
248	0xc069e204	-3.65442
249	0xbfe0d728	-1.756566
250	0x4011cfe5	2.2783139
251	0x3fb83bd5	1.4393259
252	0x3e06cf0f	0.13164924
253	0x3fe22d30	1.767004
254	0x4012c818	2.2934628
255	0x40204598	2.5042477
