saved_models/ambimg_composite_mfcc/random2_9.pt (torch, 140048 bytes, 14 tensors)

cell_list.0.conv_gates.weight f4 [20, 11, 3, 3]
00000000: 9d9e 34bf f56a 073f 0f6e f93e 13cb a4bf
00000010: ca5e d83e b188 673f c000 4bbe d382 e33f
00000020: aacd 0540 12cc 5a3e 841a bf3e b15a 783e
00000030: e4e6 45be 431c 8ebf cae5 e0be 7e6c 1b3f
00000040: a542 103f bde6 243e 2183 113f cbc0 503f
00000050: 9601 c23f 8ab7 ebbe 5098 613d ccd5 3d3e
00000060: a1cb c9be 083d 203d 1c2c 9e3e 4fb6 273f
00000070: 9efe 8f3e 7915 4cbf 3bc1 923e 4b40 3fbe
00000080: 0df8 b8bf aacb 053f 7ec3 053f eaaa 11bf
00000090: 1bdb 7abe 1e37 89be fac3 363f 0cce 9fbe
000000a0: 9922 03be a45e 1f3f 60e9 2abf d681 8abe
000000b0: 61ca 6a3e 8e3f c0be d953 28be 0cbc 193f
000000c0: 7223 b6bd 67c0 b6bd d2b0 4f3f e1e1 243f
000000d0: ab62 9f3e 944d 2d3f b561 bf3e ade8 85bb
000000e0: 9dfc 57bf 40e6 a23f fa2c 553f 6f18 343e
000000f0: 094f ee3f 6319 663f 403a 2a3e b6c8 0d3f
00000100: 5855 493f d12c 113f dd2a b73e a46c d83e
00000110: 54d8 9b3e 3b02 683f 4f25 693f 3ca7 2f3f
00000120: 6142 d53e 9d2d 833e 819b 7fbf 485a 653f
00000130: e01b 8f3e 184f 6ebf f896 b53f 66f8 333f
00000140: 5af6 f0be 8d06 02bf 7995 34bf cc0e 27bf
00000150: 7438 7fbf b66e d8bf b9d9 b3bf 4562 1ebf
00000160: 9c09 7bbf 585b 48bf b78f 0dbf 1ca1 0bbf
00000170: 06b2 3dbf ce27 883f 9bf8 0d3f 6146 b53e
00000180: 5742 823f bdef b13e 254c 043d d712 903f
00000190: 1c1c 0340 8c82 4940 cdef 413f 5e17 be3f
000001a0: 4bef 1b40 0316 0c3f 5cfa c13f e867 1040
000001b0: 22db bc3e 2536 433e 4a63 50bf f195 9e3e
000001c0: 2eaa cc3e 62a0 cbbe 220a cb3d 17a3 153f
000001d0: 8a38 2cbd fc4d 1f3e f917 8b3f 1387 3b3f
000001e0: 2b91 9b3e b67f 4abf d2f0 753f a00b b4bc
000001f0: d338 2d3f c7eb dd3e 6ac5 c1bc 21d0 36bf
00000200: c199 803d 195b e33e 04d6 be3e 0c05 3b3f
00000210: d763 523f 5efd e13e 341d a63e 5074 a73e
00000220: 71cc 383f e26d d83e 9ee0 853e 2af0 133f
00000230: ef1b 1b3f a31e 213f 2917 233f 2256 6a3f
00000240: d58c d1bd 9754 77bf 7b23 efbf 4b3a 813e
00000250: 940c 87be 5593 bcbf 949b 1e3f d8d6 2dbd
00000260: 5900 9ebf d822 89bd bb53 983e 243d 62be
00000270: 643d 553e e43c 2a3e 0271 47bf d30b 293e
00000280: a596 2dbe 73ce b9bf 3c76 39bd 5cba 2c3f
00000290: 8b9a fabc 6fdb 8dbe c834 af3e aa03 7cbe
000002a0: 2d90 59bf 4838 bebe 56a9 96bf c720 813f
000002b0: 727f 213f de2c 073f ac6c 423f b411 603e
000002c0: 75d8 9d3e b1a0 803e eec1 0cbe b532 75be
000002d0: e120 af3d f5ec a53e 11e2 0ebc 97e6 38bd
000002e0: 5fe8 ce3e ca61 863d 08f3 22be 54bb 683d
000002f0: 2fed 48bd ac2d 273f d7d3 8dbe ffd9 b3be
00000300: 5bd3 633d 841d 74bf 094b 23bf cf50 473f
00000310: 00a0 8d3d 8a28 8d3e e529 3940 1b3c 773f
00000320: 39eb 5f3f 6684 653f 7e71 81bf ea4b 87b9
00000330: f358 dc3f 6361 48be 280f e03f 12cc 5a3f
00000340: 6602 0c3e 0ad2 ebbe c755 4540 5841 6b3f
00000350: 4b62 113e e1d0 7940 95c0 7a3f 36aa 51be
00000360: a8ac 6bbe e076 b13e cd25 833e 76ae 8c3e
00000370: ec05 853f ff7c bd3e 219b ec3e d3be 8c3f
00000380: 03be a9be cb7b 833f b424 cd3e a1ac 2d3e
00000390: 0e61 8d3f a139 8dbe 2021 0bbf 594c 123f
000003a0: 4b7f 21bf dae7 33bf abd7 9cbf 0f34 a9bd
000003b0: 1ce2 43bd 5fca f7be caf0 60bd 09c9 203f
000003c0: c2bd 08bf 28b0 713e f7e1 953f 9c62 583f
000003d0: 83bc a93f 933d b03e 3a01 16bf fe67 d0bd
000003e0: 3b70 7bbf 7cf2 9a3d 4dcf 21bf bb4b cebf
000003f0: 1d68 893f f856 043f 3759 b23e 860a 513f
-0.70554525 0.5289758 0.4871678 -1.2874473 0.42259818 0.9044295 -0.19824505 1.7774299
2.0906777 0.21366909 0.37324917 0.24253346 -0.19326359 -1.1102375 -0.43925315 0.6071242
0.5635169 0.16103645 0.5684071 0.8154418 1.5156734 -0.46038467 0.055076897 0.18538588
-0.3941317 0.039120704 0.30893028 0.65512556 0.28123945 -0.79720265 0.28663048 -0.1867687
-1.4450699 0.5226389 0.5225142 -0.5690142 -0.24497645 -0.26799864 0.71392787 -0.3121189
-0.12806167 0.62253785 -0.6676235 -0.27052182 0.22928764 -0.37548488 -0.16438235 0.6005256
-0.088934794 -0.089234166 0.8112918 0.64407164 0.31129965 0.676965 0.37379232 -0.004086575
-0.8436983 1.2726517 0.83271754 0.17587446 1.861787 0.8988249 0.16623783 0.55384386
0.7864585 0.5670901 0.3577489 0.42270386 0.30438483 0.90628403 0.91072553 0.68614554
0.41652206 0.25620738 -0.99846655 0.89590883 0.27950954 -0.9308944 1.4186697 0.703009
-0.4706295 -0.50791246 -0.7054058 -0.65256953 -0.99695516 -1.6908786 -1.4050819 -0.618687
-0.9806154 -0.7826438 -0.55297416 -0.5454271 -0.7409977 1.0637147 0.55457467 0.35405257
1.0176495 0.34753218 0.03229918 1.125575 2.0485907 3.148593 0.7575653 1.4850881
2.4364803 0.5472109 1.5154529 2.256342 0.36885935 0.19063623 -0.81401503 0.3097377
0.39973587 -0.397708 0.09914042 0.5845198 -0.042046107 0.15557092 1.0866691 0.7325298
0.30384192 -0.7910112 0.9607059 -0.0219782 0.6766483 0.43343946 -0.023653705 -0.7141133
0.06279326 0.4440544 0.37272656 0.73054576 0.82183594 0.44138616 0.32444155 0.32705927
0.7218695 0.42271334 0.26147932 0.57788336 0.605895 0.6293737 0.63707215 0.9153768
-0.1023194 -0.9661345 -1.8682703 0.25239787 -0.26376784 -1.4732462 0.61956143 -0.04244122
-1.2343856 -0.06696099 0.2975138 -0.22093636 0.208242 0.1662479 -0.7790681 0.16508417
-0.16951998 -1.4516128 -0.045278773 0.6747186 -0.03059127 -0.27706477 0.34219956 -0.24610773
-0.8498562 -0.37152314 -1.1770427 1.0088128 0.6308509 0.52802837 0.7594707 0.21881753
0.30829206 0.25122598 -0.13745853 -0.23945124 0.08551193 0.32407346 -0.008720891 -0.045141783
0.4041166 0.065616205 -0.15913022 0.056819275 -0.04905432 0.65304065 -0.27700683 -0.35127255
0.055621486 -0.9535754 -0.6378637 0.7785768 0.06915283 0.2756999 2.893182 0.9657609
0.87468296 0.8965515 -1.011276 -0.00025805767 1.7214645 -0.195684 1.7504625 0.85467637
0.1367279 -0.46058685 3.0833604 0.9189658 0.14197652 3.903374 0.97950107 -0.20475087
-0.23015082 0.34661007 0.25614777 0.27476853 1.0392432 0.37009427 0.46212104 1.0995735
-0.3315278 1.0272154 0.40067065 0.16960384 1.1045244 -0.2758303 -0.5434742 0.5714775
-0.6308486 -0.7027565 -1.2253317 -0.082618825 -0.047823057 -0.48396584 -0.054917134 0.62806755
-0.5341455 0.23602355 1.1709584 0.84525466 1.3260654 0.34421977 -0.5859562 -0.10176085
-0.98218125 0.075657815 -0.6320694 -1.6116861 1.0734898 0.51695204 0.3483369 0.8165668

cell_list.0.conv_can.weight f4 [10, 12, 3, 3]
00000000: 58af 01bf 371c 89be 2ddc 813d 9acd 08be
00000010: feb2 573e 6d9c f43e d405 00bd 6418 b93e
00000020: 690c 413f 529b 313d 1aab bb3a c75f e33d
00000030: 83f5 4f3e 9b2a b5bf 9825 c6bd 284e c3bd
00000040: 7eb4 08be e694 42be 0ab9 273d 2294 493e
00000050: 5471 ae3e fc92 73be 4a02 483d 888f 723e
00000060: 03ab 873d cced b73e f270 803e c805 f03f
00000070: 2aac a53f 02ee 633e 5d7e 8d3f 8029 ae3e
00000080: 6378 a2be 8658 383f 81d5 e83e 8dad 6abe
00000090: 869b 39bf 933d a7be 3317 9cbe f01b 35bf
000000a0: fa7e 173e fa29 493e ecb1 70be 82ff b03e
000000b0: 4741 e13e 910c c83e ed06 163f 6517 843f
000000c0: 872f 39be 3128 853d 2853 ac3d 17b6 33bf
000000d0: 1722 bbbe 44db d9be eb0d d8bf ec23 68bf
000000e0: ccf6 06bf f04e 48bf 4056 d03e 8dbb 593e
000000f0: 97df 8cbf 413c a7be 2174 cc3d 6ac2 63bc
00000100: 29b4 2a3e 9374 fdbe a8ab 25be 9da6 68be
00000110: e378 4dbe f009 17be f4b6 7f3e b1c3 e4bc
00000120: 8b21 0c3f 979d 763e e73a 0dbe 1dff 123f
00000130: 03ec 773e 04ec 063e 39f0 b13e 0b36 673e
00000140: 418d c2be e9e8 2a3e f30b 2a3e 2c51 6f3e
00000150: d057 aa3e 1080 b23d 5451 283e e9e0 db3e
00000160: 5671 8f3e 8202 653e 9cef b33b fd11 27be
00000170: 102f 963d 7aa9 883d cd19 7f3d fecd f63d
00000180: 94c4 03be 5699 84be c6ad 4fbe 2e63 40bc
00000190: 349a 62bd 6d75 22bd a2ad 4ebd 33c3 b7bc
000001a0: 2577 c13d d0f7 e83c aeb7 6bbd 66d8 063e
000001b0: 54db 073d 66aa 10be b2b3 983d 31f6 f5bd
000001c0: af48 b4be 9c8f 85bd 4acd 6abd d14f 60bd
000001d0: 9040 503e 2575 c13f 3a3f 3f3f d7d0 cb3e
000001e0: 4ae8 753d 590c 61be bd44 89be 8a66 9abf
000001f0: 39fb 8bbf e80b 4abf 13e0 723f bb21 0b3f
00000200: 65a2 d33e 67b5 403f c55c e3bc 9f01 d03d
00000210: f67c 283f 632f e63e 3128 e43c 0cd6 ad3d
00000220: d75a 0a3f f694 723e ac4b 3ebe 89fb 713e
00000230: 326d cabe fa6a d4be 6442 19bf 854f bcbf
00000240: 211c 6dbe 7993 93be b634 bbbe a9d0 1c3e
00000250: e075 873d 5c9e b13e 8c2f af3e 44b9 063f
00000260: f801 7d3f 8efe 823d 2159 713f ea5b c63f
00000270: 938f 15bf b097 ea3d 50ce 213f 6e0c dbbf
00000280: 0af8 2ebf af09 233e a0d8 9cbf 51a9 77bf
00000290: 68f2 c63e ace0 40bf 66eb 2ebd 3293 8c3f
000002a0: 1b94 0dbf 5c4b a03e 6ad8 a93f 3003 f03e
000002b0: 59df 303d ba86 b2be a365 97be 9a0d 23bd
000002c0: 70a9 d83d 36ae 86bd 0b0c 203e 9876 f03d
000002d0: 0522 743e a1fd 0a3e e577 b7bd 6f5c 9b3e
000002e0: 3b45 913e 9150 64be 5eae 183f 923b 2e3e
000002f0: 3351 9ebe 62cd 903f 227a 4e3f 1534 313f
00000300: 4c0a 0f3f 0074 4f3e 6ffd 093f 50bd b63d
00000310: 9d19 c9bc e0cb d83c a549 1cbf 6ecc 84be
00000320: 1985 5e3e 2a16 72bf 22b4 a7be e174 12bd
00000330: 9636 53bf 6546 dcbe 3b48 a53b 6803 373c
00000340: 47a6 febb 39f1 9ebd e7a6 d83d ea32 0ebd
00000350: bbae 4cbe db71 3ebd 68cb b8bc b7fc 873d
00000360: dfe6 363f ac71 d83e a7e6 9b3e 044c a53e
00000370: b29e 11be f220 d9bd a7c4 a3be c851 2cbf
00000380: 76e8 01bf 856d 93be 8336 3fbe 4af6 70be
00000390: 2194 1fbe 0c7f 1e3e 04a1 ef3e 1d12 97be
000003a0: 8567 49be 2d8c e03a b97b 5abe 70d1 43bd
000003b0: ad15 febd ac09 7d3d 0baa 87bd c472 3f3d
000003c0: 9dec 41bb 4560 acbc 6d08 4d3d b559 313f
000003d0: 03dd 313f 0b8a 463f 546f b33e 08f4 30bd
000003e0: 3288 443f 1857 4dbd db21 10be fa0b 1a3f
000003f0: 436c 61be 3866 21bf 35f0 a9bf 2213 38bd
-0.5065818 -0.2677934 0.06340823 -0.13359681 0.21064374 0.47775593 -0.031255558 0.3615142
0.7540956 0.043361016 0.001431796 0.111022525 0.20308499 -1.4153627 -0.09675139 -0.095363915
-0.13350102 -0.19002113 0.04094795 0.19685414 0.34070837 -0.23786539 0.048830308 0.23687565
0.06624415 0.35923612 0.2508617 1.8751764 1.2943165 0.22258762 1.1054188 0.34016037
-0.31732473 0.72010076 0.4547539 -0.22917767 -0.72502935 -0.32664165 -0.3048645 -0.70745754
0.14794531 0.19644919 -0.23505372 0.34569937 0.43995115 0.39072087 0.5860432 1.031964
-0.18084536 0.065018065 0.08414298 -0.7019972 -0.36549446 -0.425501 -1.6879247 -0.9067981
-0.5272033 -0.7824545 0.40690804 0.21262951 -1.1005734 -0.32663158 0.09983087 -0.013901332
0.16670288 -0.49503002 -0.16178763 -0.22719808 -0.20065646 -0.14749885 0.24972135 -0.027925344
0.5473868 0.24083553 -0.13792 0.5742052 0.24211125 0.1317597 0.34753588 0.2257921
-0.37998393 0.1669041 0.16606121 0.23370808 0.3327012 0.08715832 0.16437274 0.4294503
0.28016156 0.22364238 0.00549121 -0.16315456 0.07333195 0.0667295 0.062280465 0.12051009
-0.12867957 -0.25898236 -0.20281133 -0.011742396 -0.05532284 -0.039662767 -0.050458558 -0.022431945
0.09446553 0.028438479 -0.057548217 0.13168487 0.033168152 -0.14127502 0.07456149 -0.12009848
-0.35211703 -0.06521532 -0.057324685 -0.05476362 0.20337129 1.5113875 0.7470585 0.3980777
0.06003598 -0.21977367 -0.26810256 -1.2062542 -1.0936042 -0.7892442 0.9487316 0.54348344
0.41334835 0.752768 -0.027754197 0.10156559 0.65815675 0.44958028 0.027851196 0.08488092
0.5404486 0.23689637 -0.18583554 0.2363111 -0.39536434 -0.41487867 -0.5986693 -1.4711767
-0.23155262 -0.2882345 -0.36563653 0.15313973 0.0661428 0.3469113 0.34215963 0.5262644
0.9883113 0.06396209 0.94276625 1.54968 -0.584222 0.11454713 0.6320543 -1.7113168
-0.6834723 0.15921663 -1.2253609 -0.9674273 0.38856816 -0.7534282 -0.042704962 1.098242
-0.55304116 0.31307495 1.3269169 0.46877432 0.04318175 -0.34868413 -0.2956973 -0.039807893
0.10579193 -0.06576197 0.15629594 0.1174137 0.23841102 0.13573314 -0.08958415 0.3034396
0.2837313 -0.22296359 0.59641063 0.17014912 -0.30921325 1.1312678 0.8065511 0.69220096
0.55875087 0.20259094 0.53902334 0.08922827 -0.024548346 0.026464403 -0.6104987 -0.25937217
0.2173046 -0.9456507 -0.32754618 -0.035755996 -0.82505167 -0.43022457 0.005044011 0.011170246
-0.0077712866 -0.07760853 0.10578709 -0.034716524 -0.1998853 -0.0464953 -0.02255793 0.066399984
0.7144603 0.42274225 0.3044941 0.32284558 -0.14220694 -0.10601987 -0.3198597 -0.6731229
-0.5074533 -0.28794494 -0.18673138 -0.23531452 -0.1558385 0.15478152 0.46802533 -0.29506007
-0.19668396 0.0017131619 -0.21336259 -0.047807157 -0.12406478 0.061776802 -0.0662423 0.04674031
-0.0029590495 -0.021041999 0.050056864 0.6927751 0.6947786 0.77554387 0.35045874 -0.043201476
0.7677032 -0.050131887 -0.14075415 0.60174525 -0.22013955 -0.630466 -1.327643 -0.04494012

cell_list.1.conv_gates.weight f4 [20, 20, 3, 3]
00000000: c8dc fdbe 3c1c ffbe e8ce 88be 0517 c33f
00000010: 544e 233f ccb2 04bd 76f5 a43e 45da f7be
00000020: c773 f5be 88fe c5be d6ca 87be dc15 10bf
00000030: 6c69 aebf e595 b2be 2018 33be a59e 42bf
00000040: e600 a2bf 76c2 b1be 800c 323f fed5 dfbe
00000050: 53b5 80bf 6df8 93bf 6a79 cabf 18c7 d4bf
00000060: 7721 583f 0c58 9f3e de60 b6bd 3038 c8be
00000070: 5db4 33bf 19ab 29bf 5a0a a7bf c057 92bf
00000080: 5147 dabf 3b98 343e a343 963e 87e2 233d
00000090: 1c33 113f fc4c 213e dbb3 d93d 7c2c b5bf
000000a0: 7ba8 c3bf d4f6 d4bf 7c0d 99bf 344b 2abf
000000b0: bacb 41bf 6c57 cb3d 2be4 15bd bc80 cebe
000000c0: 2ecc e33a 2078 e03e b6a0 1ebf 16d8 993e
000000d0: 7ea8 85be 1318 4c3f 3231 da3f a946 b63f
000000e0: fed8 e03f 083e 88be 76e4 ed3e 41ba 3c3f
000000f0: 9998 2a3f f7fb c33e 49b0 ab3e 7607 303f
00000100: 6e93 cc3e ccab 403d ac54 6e3f 9e51 48be
00000110: 06ae 17bf 432a b7be 4ac1 803f 0a83 0340
00000120: 6f63 9a3f e08b 0abf d611 7fbf d210 6b3f
00000130: b054 f53f 3b68 ee3f 1503 833f 6703 e63e
00000140: 6e1d 7ebe b7f0 a33e d217 8ebd a433 843e
00000150: d0dd d83e 5a83 133f 7b0f f53e e328 123f
00000160: cbd0 bd3d da4a 96be 6ae6 4dbf 6143 5b3e
00000170: 6a1c 183f 93a0 243f 2fba 7a3e 1960 353f
00000180: b2d7 063f 90c9 223d a245 07bd 7110 0bbf
00000190: b4ca a53e 5689 cf3e 2b9c 6fbd 1739 acbc
000001a0: c7c3 6e3e 3802 3f3f 6840 4a3c e630 06bf
000001b0: 87f5 60bf d972 80bf ee24 6ebf f6bb 8ebe
000001c0: cbce a7bc 08c4 fe3c fef2 133f 4d0a 963e
000001d0: bfc0 e93e 18aa fd3e 668b 5b3f 081a 5f3f
000001e0: 3ee3 40be db29 5abe f721 31be adc8 003f
000001f0: 4587 8a3e f3da 73be cf9c 2bbe e4bb 82bd
00000200: cc4d a4be 7e80 4dbf 2328 75be 82e8 83be
00000210: 4292 babe 3967 d93b 655c 513f 763a e43d
00000220: 1ede 3d3f 75c0 ac3f 3881 ca3c 9b23 c33e
00000230: fa5e 43be 9f32 fb3e 5837 d83e bd8d 0a3e
00000240: f46c 543e a876 34bd e822 e93d eaf0 18bf
00000250: 97c2 f8bc a65e b4be 864d 19bf 602c cebe
00000260: d3af dbbe 6653 533f 73e8 0b3f 672f 92be
00000270: 5677 13bf 9272 28bc 5c74 773e 5759 c1bb
00000280: 6623 2a3e 66d7 6dbe 59f6 64bf 315c e1bd
00000290: 4076 a23e 0fdb 293e 4f5f 283b 7713 223e
000002a0: 3596 53bf 0de9 52bd 18b2 6c3e 6dd2 2cbf
000002b0: 2cb2 07bf a6bc cebd f151 09bd a431 4fbf
000002c0: 2818 b3bf f2ff 06be 8a6a debd c128 abbe
000002d0: a00d 943e c40d 3abf 4f62 7cbf 5d62 993f
000002e0: 03ac 943f 7cec 743f 1e50 0ebf d036 963c
000002f0: 30fe 9e3e 2b47 cbbf a749 4cbf 1c2d 2abf
00000300: 2449 5b3f fa9a f93e f36b 613e 9177 a6bf
00000310: 81be 10bf 6bb3 aebe ffb8 78bd 9937 dabe
00000320: 11df 0bbf 10d3 72be e332 fcbe ee85 9dbf
00000330: afec ed3d aa9a dabe 9c2c 73bf dcb3 293d
00000340: b994 82be 4b7f 0a3d a28a 99bf 53b1 c7bf
00000350: 7e78 debf e3cf a1bf 3490 c7bf 3f43 e6bf
00000360: d894 943f 493f b63f 82ef 073f 6eaf b13d
00000370: 39e6 adbe dcec 0cbf 50a2 87be c347 acbe
00000380: 686f c0be a10a 2d3e b71f 8d3c f174 463f
00000390: 7277 bfbf 3014 edbe 3502 18be 367c fc3c
000003a0: 800d 0cbe c371 33bf de5f f63f d0a1 9b3f
000003b0: 1318 623f fcac 8f3d b461 f83e 1c31 d93f
000003c0: 5852 5f3f f483 d03f 0f3c f53f 1da5 0940
000003d0: ad26 da3f 719e ec3f 402a cebe 05f3 193f
000003e0: db50 8b3f 5669 be3f 8124 db3f 4a00 b53f
000003f0: dd7b 9d3f 0372 a43f 26f5 c73f 6812 413f
-0.49582505 -0.4982623 -0.26720357 1.52414 0.63791394 -0.032397076 0.32218522 -0.48408714
-0.47939894 -0.38670754 -0.2652194 -0.56283355 -1.3625922 -0.34879985 -0.17489672 -0.7602332
-1.2656524 -0.34718674 0.69550323 -0.4371795 -1.0055336 -1.1560189 -1.5818303 -1.6623259
0.84426063 0.31121862 -0.08905195 -0.39105368 -0.7019709 -0.662767 -1.3050034 -1.1433029
-1.7053014 0.17636196 0.29348478 0.040010955 0.5671861 0.15752023 0.10630008 -1.41542
-1.5285791 -1.6637826 -1.195724 -0.66521 -0.7570149 0.09928784 -0.03659455 -0.40332592
0.0017379576 0.43841648 -0.61963975 0.30047673 -0.26105112 0.79724234 1.7046263 1.4240314
1.7566221 -0.26609826 0.46463364 0.737217 0.66639096 0.3827817 0.33532932 0.68761384
0.3995623 0.04703884 0.9309795 -0.19562384 -0.59249914 -0.3577443 1.0058987 2.054873
1.2061595 -0.5411968 -0.9963659 0.9182254 1.916647 1.8625559 1.0235316 0.4492447
-0.24815914 0.32019588 -0.06938137 0.2582065 0.4235673 0.576223 0.47863373 0.5709364
0.0926834 -0.29353982 -0.8042971 0.21412422 0.59418356 0.64307517 0.24485086 0.7084976
0.52672875 0.039743006 -0.03302539 -0.5432196 0.32381213 0.40534467 -0.058498543 -0.021023316
0.2331687 0.7461276 0.012344457 -0.52418363 -0.87874645 -1.0035049 -0.930251 -0.27877778
-0.020484349 0.031099334 0.5779265 0.29304734 0.45654866 0.49543834 0.8575958 0.87149096
-0.18836686 -0.21305029 -0.17298113 0.50306207 0.27056327 -0.23813991 -0.16759036 -0.063834935
-0.32090604 -0.8027419 -0.23941092 -0.25763327 -0.3643971 0.0066346196 0.8178161 0.11143963
0.7416705 1.3496233 0.02471982 0.38113102 -0.190792 0.49062058 0.42229724 0.13530631
0.20744687 -0.044058472 0.11383611 -0.59742606 -0.030366225 -0.3522846 -0.59883916 -0.4026823
-0.4290758 0.8254913 0.54651564 -0.2855179 -0.5760397 -0.010281222 0.24165481 -0.0059005427
0.16615066 -0.23226699 -0.89438397 -0.11003912 0.31730843 0.1658747 0.0025691574 0.15827738
-0.8265107 -0.051491786 0.23114812 -0.67508584 -0.53006244 -0.100945756 -0.03352541 -0.8093512
-1.3991747 -0.13183573 -0.108601645 -0.3342953 0.28916645 -0.72677255 -0.98587507 1.1983143
1.1614994 0.95673347 -0.55591 0.018336684 0.31053305 -1.5881094 -0.79799885 -0.6647508
0.8565848 0.4875105 0.22013836 -1.3005239 -0.56540686 -0.3412126 -0.0607233 -0.42620543
-0.5463725 -0.23713326 -0.49257573 -1.2306497 0.116174094 -0.42696124 -0.94989944 0.041431293
-0.2550409 0.033812802 -1.1995432 -1.560099 -1.7380521 -1.2641567 -1.5590882 -1.7989272
1.1607924 1.4238063 0.53099835 0.08676039 -0.33964708 -0.5504892 -0.26491022 -0.336485
-0.37584996 0.16898586 0.017227037 0.7752219 -1.4958327 -0.46304464 -0.14844592 0.030820947
-0.13677025 -0.7009546 1.9248006 1.2158756 0.88317984 0.07015416 0.48512042 1.6968112
0.8723502 1.6290269 1.9158953 2.1507027 1.7043053 1.8485852 -0.4026661 0.60136443
1.088405 1.4875896 1.7120515 1.4140713 1.2303425 1.2847294 1.5621688 0.7541871

cell_list.1.conv_can.weight f4 [10, 21, 3, 3]
00000000: 0dbb 90be 8b1f 06be d64c 69be efdf fdbe
00000010: 9201 96be 01cc debe 3604 6b3e 6ece f6bd
00000020: fcb4 9bbe 0784 4dbf 2b26 01bd e3be e8be
00000030: 7d25 f73d ca3a 463e ad43 fa3d 3330 4bbe
00000040: d413 b33d 682e 1a3e a31e c9be 58e7 20be
00000050: b2ab debe ac32 dfbd 0cc1 d03d 0f29 593e
00000060: 0c8b bc3e 6756 ce3d d4e9 75bc ea03 fc3d
00000070: 0efb c63e 966d 7e3d b649 08bf 4d76 d2be
00000080: 0b9d 97be b8bd 203e a764 a5be 17cb 08be
00000090: 39c5 6fbe 4485 3bbe 6688 37bf 7c9d 03be
000000a0: cb3f 06bf 4178 48bf c97d 9d3f e541 cb3e
000000b0: f1a5 043e c2b9 9f3e ee11 e53d 7fbe 80bb
000000c0: a27a dcbe 9aba acbe 087e dabe 71ef 62bf
000000d0: a4b5 f9be a846 b2bf 2336 ad3d df26 9bbe
000000e0: e461 493e 66aa 8ebe eeb3 b1bd b1ed 21be
000000f0: f43a b33e 7086 b0bd f60e cd3e 1f6b cb3e
00000100: 188d 003f fd2f ad3e ac01 39bf 8cde 25bf
00000110: e816 6cbe c64a 9fbf 5901 4dbf c876 ddbe
00000120: 2b85 71bf 6845 d2be 62c1 ab3e 850c 893e
00000130: 935e 29bd d70f 573e 5412 ef3e 879d 573f
00000140: beb7 1c3f d96b 563d c1ba 93bd 89ad 4ebe
00000150: 1933 00be 651d 613e 6fb9 493e 2c77 013f
00000160: c52a 223f 14bf 8e3e e2e9 023e 3bd2 d23e
00000170: 3948 163e 86bc fc3e 535d fcbe c152 e93e
00000180: d6a5 c3bd d6a4 b5bd 0e70 5c3e 55a9 e93d
00000190: a74b 06bd 8167 87bc a88f a2be ca15 1cbe
000001a0: 3210 093e 7fa1 00bf 54b7 d3be f3c0 84be
000001b0: af28 91bd c674 aebe 4984 99be a453 2f3d
000001c0: ef6c cfbd d78c 2dbe b473 a0be 3b7a 90be
000001d0: 20b4 02bf c656 e73e 0159 213d 63d3 f4bd
000001e0: 34c4 353e 6773 11be 9fae 83bd eccd 1dbe
000001f0: 1b94 a13d cef6 dc3e 2b14 413e ad4c 9a3c
00000200: ff5b 9e3e b39c c1bd 6bf4 08be 7b57 00be
00000210: d73c 913c aeef a6be 5834 2cbe 9a24 cfbd
00000220: 4c64 1a3d 8167 98bd c149 77be 96eb 4fbc
00000230: 153c 213c 27cc 033e 150c 2f3e f75d e8bc
00000240: 01f2 08bb 3391 87bd 32d6 0e3d 6e3c 193e
00000250: f405 823e 1555 953e 594c 04bd e18e 303d
00000260: b5f6 8b3d bc90 8cbe 9730 21be 14ea c73d
00000270: 9e49 7c3f 2d43 153f cab4 72bd 7b90 253f
00000280: 5558 dabd 47c6 3cbe 4c3c e83d 5a2a 963e
00000290: c1d4 2ebd 3854 283c 6a11 f0bd 0be7 5ebd
000002a0: 87ef 08bf d4a7 853c a71d b0be f645 05be
000002b0: 4967 e5bd 4991 52be 4bb0 153e eb8c 0e3e
000002c0: 9e33 693e ab09 0b3f 9b90 343f 42fa 1b3f
000002d0: a395 703e f828 f8be 211e c33e f7b1 3abd
000002e0: 6662 e2be 2372 55bd e69b c03d 8291 18be
000002f0: f7a2 77be b9ac 22bd 5850 8f3e f74b 5c3e
00000300: d007 833c 4b26 dfbe 0d80 47be 0984 d6bd
00000310: 0ecc 87be 5543 9d3d 6c24 a4be 492f 0cbe
00000320: 35b6 e6bd 87fd 003e 91cb c3bd a36f 2abe
00000330: 9511 ed3e 9248 0d3e 7001 acbd 6a71 1cbe
00000340: 9ebc aabe 5b47 3fbf 4c59 97be 5e7a e7be
00000350: 4876 053d 8c74 013f a08b b23e 820a 3b3e
00000360: 4723 b23d fd0e 173d 7dd7 713d 1739 02bc
00000370: c54a 273e 0fb7 22be a330 ba3d be67 853d
00000380: d966 94be 9dba b6bd a48c 703e 9dc1 2abe
00000390: 6d85 b4be 142e b2be cd9b 91bd 8176 833e
000003a0: 4bcd 85be 301e f53d 330c e2be 4c37 0b3c
000003b0: 69a0 2e3e 2406 5cbd ad71 50be 18ac c6bd
000003c0: ca57 39be aea9 bdbd 6446 9ebd 3c7a 89be
000003d0: 8835 6bbe a2fc 80be 7adf 42be a759 873d
000003e0: 87c5 f9bd ddc7 d4bd 17cb 01be dfe4 fc3e
000003f0: dec3 513f 7e2a 213f 73d2 ff3d b5a3 02bf
-0.28267708 -0.1309797 -0.22783217 -0.4958491 -0.29298073 -0.43515018 0.22950825 -0.12051092
-0.30411518 -0.8027958 -0.03153054 -0.45458135 0.12067697 0.19358364 0.122199394 -0.19842605
0.08744016 0.15056765 -0.39281186 -0.1571325 -0.43490368 -0.10898337 0.10193071 0.21207069
0.36824834 0.10075074 -0.015009362 0.12305434 0.38863415 0.062116228 -0.53237474 -0.4110588
-0.29612002 0.15697372 -0.32303354 -0.13358723 -0.23415078 -0.18312556 -0.716925 -0.12853044
-0.5244109 -0.7830849 1.2304012 0.3969871 0.12953927 0.3119641 0.111850604 -0.003928959
-0.4306231 -0.33736116 -0.4267428 -0.8864661 -0.48771393 -1.3927813 0.084575914 -0.30303094
0.19666249 -0.2786438 -0.08676897 -0.15813328 0.35005915 -0.08619392 0.40050477 0.39730164
0.5021529 0.33825675 -0.72268176 -0.64792705 -0.23055613 -1.2444694 -0.8008018 -0.43254685
-0.94343823 -0.41068578 0.33545977 0.26767364 -0.04134996 0.21002136 0.4669367 0.8422474
0.6121787 0.052348945 -0.07213355 -0.20183386 -0.12519492 0.2198387 0.19699644 0.50572467
0.6334651 0.27880156 0.12784532 0.41176018 0.14675988 0.49362582 -0.4928995 0.4557095
-0.09553115 -0.088693306 0.2152712 0.11409251 -0.03278699 -0.016528847 -0.31750226 -0.15242687
0.13385084 -0.50246423 -0.41350806 -0.2592846 -0.07087838 -0.34073466 -0.29983738 0.042804375
-0.10128199 -0.16948257 -0.31338274 -0.28218254 -0.510561 0.4518339 0.03939152 -0.11954381
0.17750627 -0.14204179 -0.06429791 -0.15410584 0.07889577 0.43157047 0.1885535 0.01883539
0.30929562 -0.09453716 -0.13374488 -0.12533371 0.017729206 -0.32604736 -0.16816843 -0.10114403
0.037693307 -0.07441617 -0.24149229 -0.012690445 0.009840985 0.12870847 0.17094453 -0.028365118
-0.0020896199 -0.066194914 0.03487224 0.14964458 0.25395167 0.29166475 -0.032299373 0.04310501
0.06834165 -0.27454174 -0.15741192 0.09761444 0.9854983 0.5830563 -0.059254445 0.64673585
-0.10661379 -0.18435012 0.11339626 0.29329187 -0.042683367 0.010273986 -0.117220715 -0.05441956
-0.5349049 0.016315378 -0.34397623 -0.13014969 -0.11201341 -0.20563234 0.14618032 0.13920943
0.22773597 0.5431163 0.7053315 0.6092874 0.23494582 -0.48468757 0.38108924 -0.045579877
-0.44215697 -0.052110802 0.09404735 -0.14899257 -0.2418326 -0.039715502 0.27990985 0.21513353
0.015994936 -0.43583903 -0.19482441 -0.104744025 -0.2652287 0.07678858 -0.32059038 -0.13689913
-0.11265222 0.12596713 -0.095603116 -0.16644149 0.46302477 0.13797215 -0.08398712 -0.15277639
-0.33347028 -0.74718255 -0.29560316 -0.45210546 0.032583505 0.5056846 0.3487215 0.18265727
0.08698135 0.03687953 0.059043396 -0.007948182 0.16337116 -0.15890144 0.09091308 0.06513928
-0.28984717 -0.089223124 0.2349115 -0.1667542 -0.35258046 -0.3480078 -0.07109795 0.2567635
-0.2613319 0.119686484 -0.44149932 0.0084970705 0.17053379 -0.053716794 -0.20355864 -0.09700793
-0.18099895 -0.092608795 -0.0772827 -0.2685107 -0.2296964 -0.25192744 -0.19030562 0.06608897
-0.121958785 -0.103896834 -0.12675129 0.49393365 0.81939495 0.6295546 0.12491312 -0.5103105

cell_list.2.conv_gates.weight f4 [20, 20, 3, 3]
00000000: e83d 29bf 8f9f 6bbf 6ae1 bf3f 2b8c 80bf
00000010: 64f4 ddbe f7ff 56be 8fc6 88bf 481c 70be
00000020: 7f4a c93e b77d 5d3f 90f8 e0bf a547 3bc0
00000030: 25e6 783f 3f81 68be 2371 10bf 25a3 23bf
00000040: fd47 ce3f 42d6 02bf 615f 7dbd c49e f7be
00000050: da4b 39bf f0d9 263c 6278 babf a319 8ebf
00000060: 0c3b 93bf c829 bb3b 6d40 a5bf 5b01 c2bf
00000070: 099c 4e3f 85f8 4dbf 0949 093f 0edb 843e
00000080: 369f e1bf 1c9e ae3e 2b6a 423f 297f a9bf
00000090: 8da9 f3bd 2c62 33bf ea67 96bf 4100 013f
000000a0: a345 02be 5d69 823f 9d77 d93e 4ee1 03bd
000000b0: f364 153f 742c 583e 97b4 59bf 48c0 d7be
000000c0: 4f43 1dbf 8c82 42bf ce19 23bf db9d ab3e
000000d0: 8683 fb3e e91f f0bd cc3f 2dc0 bd62 a5be
000000e0: 6c03 ab3d c678 f2be 391b 093f 23bf 16bf
000000f0: 0400 19bf 8efd c4be 2ad4 49c0 b171 c1bf
00000100: 013f 05bf bc41 96bf 2da9 863f 83c7 483f
00000110: 96cc 2abe 4f0e 78bd 3231 90bc e86c 163d
00000120: 4984 353e e0fe 353f 851d 13bf bbc3 c63f
00000130: f734 fbbd 3e88 c4be 5218 bebe c567 343f
00000140: 1ddb 06be 7451 ecbf 1754 94bf f6e9 33bf
00000150: 6ca6 93bf ab3b bbbe 2469 acbf 56e8 29bf
00000160: 49d1 3c3e 9b22 8e3e 18dc 12be 2bf6 c9be
00000170: ed71 10bf 8a1f debe f22c 623e 7716 4a3e
00000180: fa9a 85be 5817 cebe cb03 b1be d2b7 73be
00000190: 183b b23e 10ee 7fbe ca66 953d 390a c23c
000001a0: 89f8 5a3e 4752 993a a573 e8bd 24f3 7b3e
000001b0: ec68 e93e 99e5 aa3e 26c0 9cbd 9223 d4bd
000001c0: 6c05 2f3e 33eb 24ba 78b4 acbe f3f7 053d
000001d0: 0ce4 11be dc28 4abe f2ad 983e 62f5 023e
000001e0: e1a8 903e 6fa5 2c3f 1087 d4bc d46b 903e
000001f0: 1de8 b0bb 794b 8e3e 2dd1 383d 486d 9a3e
00000200: d4b8 183d 16e7 73be 0d66 6abe b947 b13e
00000210: 0a65 6f3e 46f3 ea3d d5f9 fabc 1720 ff3c
00000220: 9bac 993e d1e4 54bf a3cf 2a3f e3dc d33e
00000230: 6cce 9e3e 4e70 943e a52a ff3e f6ae b03e
00000240: 09fc 733b b670 d63d fda3 1f3e 2ba5 fd3c
00000250: 2ddb f53e d1ed 46be 8255 6fbd 8ac3 28be
00000260: cee5 11bf 39f7 d0be 7935 793e f70f 163f
00000270: 4645 d8bd 3c1f a43e 9f15 903d 4f64 48be
00000280: 6ad5 b7be 1f7e 05bd 4f73 a5bd 0ae0 93be
00000290: cedb b03e 828c 13bf 9629 4d3e 6d7a 03bf
000002a0: 40ff 563e 0755 cebd c74e 533d 2f76 56bf
000002b0: f73c bbbe a6d7 933c a06e a3be 1bfb 4cbd
000002c0: 7767 f6be f7eb 09be f083 0fbd e576 d7be
000002d0: 6b8b 87be 54e6 6ebf e89e 313f 36b0 2cbf
000002e0: b396 ebbe e6c5 8d3f 6e25 43be 12ed 04bf
000002f0: 8af0 ffbf 2d93 6a3e 446d 293f 6e19 0640
00000300: 3dc8 2f3f 9247 debf 5e06 93bf f2a6 69bf
00000310: 636c 99bc 96ed d1bf 7131 f2be 8c64 11c0
00000320: cd6d cbbd aab0 cdbe 92c4 f3bf 44fd 7d3f
00000330: d4e8 b3bd 2865 ef3d 9e5f 13bf bf45 a73f
00000340: 01fe b63f 477f f0be 19d3 b5bd e049 8ebf
00000350: 903c 363f 616c b63e b155 2dbf 30e6 7f3f
00000360: 7662 e13f 896a c53f ddd6 1440 127a 293e
00000370: 3fdc 57be 2496 0a3f e978 ac3d 58f7 023f
00000380: 4fc9 ec3e 57cd 5a3f 4aae 6b3e 78bf dcbf
00000390: 2ced c3be 22ac 823f 3577 58be 54dc 1c3f
000003a0: 7832 5e3f 2efe 2ac0 f02b cebf c67e 0dbf
000003b0: 27f2 6abf 5d84 a3bf d412 c2bf eb19 dcbf
000003c0: 3fd9 2bbf 7b9f 54be 3d7e c03b 3e04 7f3f
000003d0: d869 b83f 5a30 b33f 91db 03bf 72cb 75bf
000003e0: 02cb 013c 915d 983e c91f 693f 6a74 c63f
000003f0: 19e9 353f b1e4 adbf ad6c ffbf efeb 133d
-0.66110086 -0.9204034 1.4990666 -1.0042776 -0.43350518 -0.2099608 -1.0685595 -0.23448288
0.39314649 0.8651995 -1.7575855 -2.9262478 0.9722617 -0.22705553 -0.5642263 -0.63920814
1.6115719 -0.5110818 -0.06185854 -0.48363316 -0.72381365 0.010183796 -1.4567988 -1.1101574
-1.1502395 0.005711768 -1.2910286 -1.5156664 0.8070684 -0.80457336 0.5362707 0.25948375
-1.7626712 0.34105003 0.7594325 -1.3241931 -0.118975736 -0.70071673 -1.1750462 0.5039101
-0.12721877 1.0188404 0.4247407 -0.03219729 0.5835716 0.21110708 -0.85041183 -0.42138886
-0.6143083 -0.7598045 -0.6371125 0.33518872 0.49123782 -0.117248364 -2.7070189 -0.32301894
0.08350262 -0.47357768 0.53557163 -0.588854 -0.5976565 -0.38474697 -3.1535745 -1.5112821
-0.5204926 -1.173881 1.0520378 0.7842943 -0.16679606 -0.06056052 -0.017601583 0.036724955
0.17726244 0.71092033 -0.5746692 1.5528482 -0.122659616 -0.38385195 -0.3712793 0.7047084
-0.13169523 -1.8462358 -1.1588162 -0.7027887 -1.1535163 -0.3656896 -1.3469586 -0.6637014
0.18439211 0.27760777 -0.14341772 -0.39445624 -0.56423837 -0.43383437 0.22087458 0.19735132
-0.260948 -0.40252185 -0.34573206 -0.2380059 0.3481071 -0.24993157 0.07294996 0.023686515
0.21383871 0.0011697494 -0.113501824 0.2460447 0.45587862 0.33378294 -0.07653837 -0.10358347
0.17091912 -0.0006291151 -0.33731437 0.032707166 -0.14247149 -0.19742149 0.2982021 0.12788919
0.28253844 0.6743993 -0.02594331 0.28207266 -0.005398764 0.27791956 0.04512136 0.301615
0.03728564 -0.23818621 -0.22890492 0.34625033 0.23378387 0.11472182 -0.030636707 0.031143231
0.300145 -0.83161646 0.6672308 0.4137946 0.31016862 0.28991932 0.49837223 0.34508485
0.0037229082 0.10470717 0.155899 0.030962547 0.4801878 -0.19426657 -0.058431156 -0.16480842
-0.5699128 -0.40813616 0.24336804 0.5861811 -0.10560088 0.3205508 0.07035374 -0.19569515
-0.3590501 -0.03259098 -0.08078634 -0.28881866 0.34542698 -0.5763627 0.20035395 -0.5135868
0.20995808 -0.100748114 0.0515888 -0.83774084 -0.3656995 0.018047165 -0.31920338 -0.05004416
-0.48125812 -0.1346892 -0.035037935 -0.42082897 -0.26473555 -0.933202 0.69383097 -0.67456377
-0.46013412 1.1076019 -0.19057247 -0.5192424 -1.9995282 0.22907706 0.6618235 2.095302
0.68664914 -1.7365592 -1.1486318 -0.91270363 -0.01872844 -1.640063 -0.47303346 -2.271762
-0.09933052 -0.40173846 -1.9044363 0.9921458 -0.08784643 0.11689216 -0.57567775 1.306816
1.4296266 -0.46972105 -0.08878154 -1.1116295 0.7118616 0.35629562 -0.6770888 0.99960613
1.7608173 1.5423137 2.3256142 0.16550472 -0.21080111 0.54135346 0.08421499 0.51158667
0.46247336 0.85469574 0.23015705 -1.7245932 -0.38266885 1.0208781 -0.21139224 0.61273694
0.8679576 -2.671764 -1.6107159 -0.55271566 -0.91775745 -1.2774769 -1.5161996 -1.719541
-0.67128366 -0.20763962 0.005874424 0.9961585 1.4407301 1.3999131 -0.51506907 -0.9601356
0.007921936 0.29758886 0.91064125 1.5504277 0.71058804 -1.3585416 -1.995504 0.036113676

cell_list.2.conv_can.weight f4 [10, 21, 3, 3]
00000000: 6568 e03c 29ee fcbd 3bec 8ebb 3b50 0fbd
00000010: 6518 bc3d 6051 66be 7d88 da3e 2267 d43e
00000020: 7092 a33e 06de d7bc 957c 7bbe 8715 5d3e
00000030: 5db6 e9bd 0102 983e aa52 943c 18fa 1a3e
00000040: de4c 58be 998b 483e 8c52 b33d be77 6e3e
00000050: 9bdd f63e 5b9a bbbe 1447 b9bd 5879 22be
00000060: e5db 3cbe 9d99 94be eb39 9a3e 21ba b83d
00000070: c8af 33bd 854d 833f 3e8d 84be aab8 e7be
00000080: 1439 8b3e 4dd8 fe3e 30fa 88bd bc5a a33d
00000090: 4f1f a3bd 7af1 79be e639 82be 404a 1a3e
000000a0: 1e53 a03d adf3 1bbf 3ca9 e1be f2f5 3fbe
000000b0: b290 2a3e f483 05be ae8f 90be 86ce 1d3f
000000c0: 1e6c 30bc 5e36 a5be 27fa e5be 86f0 813d
000000d0: 884a 8dbd 8b1a 83be a774 373e 3d8c b6be
000000e0: c27c 933c 632b 503e 4013 31be 9909 793c
000000f0: 414e b73d 989a 06bf 7d92 203e 7e8d ebbe
00000100: 0d03 97be 1efd 0abd 375c ab3d 73fb 863d
00000110: e300 8cbc bfaf f63c 7efa 99be 43d0 38be
00000120: ba8a 35bf ee86 61be 36b2 ce3e 48fa 01bd
00000130: 79e3 243e b8cb 0dbf 4e6f 90bd 0013 81be
00000140: b59e 1cbf 5501 1b3e 9a55 2ebe 295f a13d
00000150: c25b c2bd 071f 22bf f306 38bf 307a 423d
00000160: 8d02 afbd aef0 cf3e 5b7e a43e d277 62be
00000170: e01d 2fbf dc20 fc3e e50c b33d e499 143e
00000180: 8d1a a93e 9cf5 433e 1a74 b6bd 1a94 d03e
00000190: 1d5c ca3e 45e1 84be 2720 9c3e da12 8f3c
000001a0: 4bd3 e03c 1248 b03e a92b c13e 0c17 9cbe
000001b0: fdda fbbd 2060 dfbd d115 2c3e fb47 1d3e
000001c0: 7bbc b63e 4422 443e fb01 e83d c587 3f3e
000001d0: ce41 143f 8142 82bf 0ed6 d0be 4dd9 023f
000001e0: 9990 ecbd 95ee 0f3e 996c 373e 4d67 89be
000001f0: a0c1 03bf f70f 303e 08b0 603e 9cf4 22be
00000200: bb5b 163f 2a8e 46be cd8a 52be 633a 343e
00000210: 6402 9ebd 73cb 21be 9497 1ebe 3132 afbe
00000220: 0773 8bbe fd37 753c 724f d43d 17a1 8ebe
00000230: 73d6 2b3d 46aa e2be 422d 27bf 7a78 aebe
00000240: a115 4d3e d634 313e 1c04 ebbe 47e3 c4bb
00000250: 9b6a cebe 4849 eebb b8e6 bebe e936 033e
00000260: ebdb db3d 1abf 18bd 668a 21be a81d acbe
00000270: 784b c7be 7e4c 12be d216 2b3f 1956 1a3f
00000280: 739b c53d 094a 143b 9214 3b3e 2577 0c3e
00000290: 5287 4c3d b6fb 92bd 382b d4bd 5dca 22be
000002a0: b3ef 1b3f 079a 8f3e 6188 96bd e683 b0be
000002b0: 79bb e03e 4d49 363f 9343 113e 1324 673e
000002c0: 338a 17bd 5ae0 0b3e bc3d 1d3e 6749 3b3f
000002d0: 6b81 b53d c509 2b3e 3056 26bd 1993 5e3e
000002e0: 5f46 05be 4484 b6bd 1449 993d f038 d7bc
000002f0: 5a98 fa3d 534e 4fbc 22c4 97be a7f1 e5be
00000300: 9a4e 343e 5bf1 ab3c b75e 2e3e c49c 303e
00000310: df7f 8bbd 9a2e bfbd a38b 3fbd 907c 103f
00000320: b26c 933e a21c 41bd 6a4e 2abe 4a92 92be
00000330: 3966 013d 6f5a 91be c00f 10bd 1bf2 093e
00000340: 3648 393f 528d fdbd 2a6d d4be 4943 0e3f
00000350: 5e60 93be 086a 9e3e 607e d23d 477c a9bd
00000360: bec3 c03e ccfd 063f c2ab a03c c11b 2fbe
00000370: 6520 633e 6502 043e 5c42 1a3e 5403 6e3f
00000380: 66d7 6bbe 8f08 66bc 2af5 4e3f 1afb 4e3f
00000390: c154 243d 715c b6bd 641c c9bd 1678 34be
000003a0: 36db 1c3c 3060 58be 2791 01be 6a45 4cbc
000003b0: 7108 19bf 091e 27be c7ef 41bd 12a3 f83e
000003c0: fd59 55bd 3819 0fbe 3dc4 bcbe 528b 233d
000003d0: 4d1b d53e 451d 263e d87c 03be 1f3d 683d
000003e0: 7100 b5bd f378 953e 0ca8 dd3e 2e9a ae3e
000003f0: f8ef 4ebc b090 db3e 3d78 a63e 6acc c6bd
0.02739353 -0.12350113 -0.004361657 -0.034988623 0.091843404 -0.2249198 0.42682257 0.41484934
0.3194766 -0.026350986 -0.24559243 0.21590243 -0.11411736 0.2968903 0.018105824 0.15134466
-0.21123073 0.19584502 0.08755979 0.23287866 0.48215947 -0.366412 -0.0904676 -0.15866601
-0.18443258 -0.29023448 0.30122313 0.09019876 -0.04386881 1.0258032 -0.2588901 -0.45258075
0.27191985 0.497744 -0.066883445 0.079762906 -0.07964956 -0.24408522 -0.25434798 0.15067387
0.07828353 -0.60918695 -0.44074428 -0.18746164 0.1665676 -0.13038617 -0.2823462 0.61643255
-0.010767965 -0.3226804 -0.44917414 0.06344704 -0.06898981 -0.25606188 0.17915593 -0.35653868
0.018003825 0.2032905 -0.172925 0.015200042 0.089504726 -0.5257964 0.15680881 -0.46006387
-0.29494515 -0.033932798 0.08367198 0.06590929 -0.017090267 0.0301131 -0.30073923 -0.18048196
-0.70914805 -0.22024128 0.4037034 -0.031732827 0.16102399 -0.55388975 -0.0705248 -0.25209808
-0.6117967 0.15137227 -0.17024842 0.078794785 -0.09490158 -0.63328594 -0.71885604 0.04747981
-0.085454084 0.40613312 0.32127652 -0.2211602 -0.6840496 0.4924382 0.08742694 0.1451183
0.3302807 0.19136661 -0.08908863 0.40737993 0.39523402 -0.25953117 0.3049328 0.017465044
0.027444502 0.34429985 0.37728623 -0.30486333 -0.12297628 -0.10907006 0.16805197 0.1535949
0.35690674 0.19153696 0.11328503 0.18704136 0.5791291 -1.0176545 -0.4078831 0.51112825
-0.11551017 0.14055856 0.1791252 -0.26836625 -0.51467323 0.1719359 0.2194215 -0.15913624
0.5873372 -0.19390169 -0.20560761 0.17600398 -0.077153 -0.15800266 -0.1548751 -0.3421798
-0.27236196 0.014966962 0.103667155 -0.27857277 0.04195256 -0.44270533 -0.6530343 -0.3407629
0.20027782 0.17305312 -0.45901573 -0.006008539 -0.4031571 -0.0072719194 -0.372854 0.12813915
0.107353054 -0.037291624 -0.15775451 -0.33616376 -0.38924766 -0.14286992 0.66831696 0.60287625
0.0964879 0.0022627136 0.18269566 0.13717325 0.04993374 -0.07176916 -0.10359806 -0.15897508
0.60912627 0.280472 -0.07350231 -0.3447563 0.4389303 0.712056 0.14185934 0.22572355
-0.03699703 0.13659802 0.15355581 0.7315888 0.08862575 0.16702946 -0.04060954 0.21735801
-0.13015126 -0.089119464 0.07484642 -0.026272267 0.1223609 -0.012652951 -0.29641825 -0.4491093
0.17608109 0.02098911 0.17028318 0.17247301 -0.06811499 -0.093350604 -0.046764027 0.5644007
0.28793865 -0.047146447 -0.16631475 -0.28627235 0.031591628 -0.28389308 -0.03517127 0.13471262
0.7237581 -0.1238047 -0.41489536 0.5557142 -0.2878446 0.3094027 0.1027801 -0.08275657
0.3764934 0.52731013 0.01961315 -0.17100431 0.22180326 0.12891538 0.15064377 0.9297383
-0.23031387 -0.014040126 0.8084284 0.808519 0.04011989 -0.089043505 -0.09819868 -0.17623934
0.009573748 -0.21130443 -0.12653027 -0.0124677215 -0.59778506 -0.16320051 -0.04734781 0.48561913
-0.052087773 -0.13974464 -0.36868468 0.039927788 0.4162239 0.16222103 -0.12840593 0.056698915
-0.08837975 0.2919384 0.43292272 0.34102005 -0.012630455 0.42883825 0.3251361 -0.09706958

cell_list.3.conv_gates.weight f4 [20, 20, 3, 3]
00000000: b38f 413e 6e24 163f 37ab 753f e524 1b3f
00000010: 96cd b43f 4dc4 023f 0f26 6f3f a31e 87bf
00000020: 28f7 a33e 6fe5 b2bd 1707 e83e 88f9 52bf
00000030: 7872 adbe 88ca ecbe 3763 86bf b4ee f83d
00000040: 2d9b d43c c6b7 8cbc ac88 9abd b3dd bfba
00000050: 387a 56bf b082 f93e 41aa 7cbe d7ab 46be
00000060: f273 853f d8f5 993f 1dcc 293f 2371 943d
00000070: c619 1bbe 9ae2 4dbf 8738 76bb b003 b93e
00000080: c000 e3bd 58a8 72bf dc70 193d 4793 06bf
00000090: 1c03 783e 7ee9 07bf 8a6a 1cbf d8aa f4be
000000a0: f10e 05bf b50e ae3d 000f 2c3e 3e73 883e
000000b0: dbc1 073f e435 873e 33b3 913f 098d 4f3e
000000c0: c5e6 863f 04c2 f9bc 0788 893e 3951 e53d
000000d0: c174 77bc d577 58bf be09 dd3e f2f5 563f
000000e0: a0e7 86bd 6e67 ea3f ad4c 7c3f 79aa 053e
000000f0: 5bbb d9be 3494 b63e f89f 7ebf 62b1 d33f
00000100: 4796 fc3e 64c5 1f3f cc46 393f 5fac 263f
00000110: c499 f1be 503d e63e f28c 683e e3b1 903e
00000120: 67ea 3f3f df76 ca3f 2843 0c40 56bf 0440
00000130: 28af 4c3f da39 9cbc 1e2c e03e 709f 073f
00000140: a2c8 253f 1c6e 143e 66ff 043f e24e 403f
00000150: 1025 fa3d 3dd4 373d 0d77 123f af9c 683f
00000160: 1d96 8fbe 7da7 3abf 59fe 2fbf b742 053f
00000170: aed2 76bc c704 22be 30ec 46bf a883 50bd
00000180: 1273 ecbd 3377 b2be 5d1b 29bf 884d dcbe
00000190: f53e adbd 0b2c c3be 9fc1 c83d d5ee 393d
000001a0: d227 493e d972 11bf c032 273e 9125 553d
000001b0: 96b3 f8bd 6b57 3a3e 9dd7 3f3f 6c94 f83d
000001c0: 5c1e f3bd 6e5f a23d 5a9a 523f ac4a 26bf
000001d0: 4e06 933d 11f5 83be 9f48 88be 5e0f 78be
000001e0: 8468 293e 2a1a 66bd dcb2 03be baae c5be
000001f0: 7812 e83e 3698 2c3d 2b4c ddbe e55a fe3d
00000200: b3d4 92be 27f2 4bbf 2d65 1fbe 06dc 8b3d
00000210: a562 f6be b65a cb3e efc3 cdbd 4ae7 213f
00000220: 06af 6fbe 0ce3 f8be 0cea 28bf 21f2 83be
00000230: 9a4e 0abf 9fbe edbe 864e ec3c 4039 a1bb
00000240: 0dda e73d 0072 b0bd 318b 1d3d 53a5 d4bb
00000250: 04d8 18bf 75a3 3a3b dc1b 35be 6466 90be
00000260: 2923 c03e fbe0 603b 514f b23d f4b3 0dbf
00000270: c781 f93e 9734 b63e eee3 a2be b2b8 3b3e
00000280: 2812 e8bd 1cb1 2ebe a706 38be f9ba 8dbd
00000290: 1035 bebd b89e 863e 7ce1 843e de55 9ebe
000002a0: d543 2bbf 344a 15bf 50e5 be3d 171c 7abd
000002b0: 3284 a0be ab58 12be a7a2 e73e 18b4 393e
000002c0: d2a7 193d addc 51bf 06f6 053d 338b 973e
000002d0: 9b60 6cbe cb65 ba3f 653a 8d3e 45ef 653f
000002e0: 94b5 03bd 1c39 873e 4692 cf3f 82f6 893f
000002f0: 076f 893e 1b41 973d 004a a63f 585c 88be
00000300: a8c0 3b3d 72ef 49be 6868 9dbc 908f 68be
00000310: dd1b d4bf 0ba7 e4bf 5fba 333f 05be a73e
00000320: eeed 663f 6250 433f 5aae ec3e f4c7 2fbd
00000330: f466 293f 1893 a8be 1f1d 8dbe fc12 c93e
00000340: 2111 09bf 1040 bfbe 89ee c13e 9981 ea3e
00000350: 6da6 e6be 5590 d3be e695 423d e5df b3be
00000360: b72c b03e 9aa5 1dbe 9f13 8dbf a11a fd3e
00000370: b322 603f c0a3 a03e ce9d 86bf 3796 d83b
00000380: aa2a 693f cb8c 0dbf 5de3 b4be 0899 ac3f
00000390: e3f6 563f 8889 953e a689 70bd 357e adbe
000003a0: cd86 b3bf 908a b8be 8921 4dbe 01f8 2f3f
000003b0: 1ab2 2fbe 2ad9 7a3f f810 923f 0e30 713f
000003c0: 398a 553e f009 9cbe 638c a63f 97a5 94be
000003d0: e493 a9be 86fe 09bf 1dc7 013e 546d ff3e
000003e0: 882d f63e b430 553f 6a56 8ebe 4d9f 803f
000003f0: 0b7d 67be 566b 273f 240a eb3e a934 eb3e
0.18902473 0.5864934 0.9596438 0.6060317 1.412524 0.5108078 0.9341745 -1.0556225
0.32024503 -0.08735167 0.4531791 -0.82412004 -0.33876395 -0.4624827 -1.0499028 0.12154904
0.0259529 -0.017177474 -0.07545599 -0.0014638215 -0.8378024 0.4873252 -0.24674322 -0.19401489
1.0426009 1.202815 0.6632708 0.072481416 -0.1514655 -0.8042389 -0.0037570314 0.36135626
-0.110841274 -0.9478812 0.037461147 -0.5256848 0.24219936 -0.53090656 -0.61100066 -0.47786593
-0.51975924 0.08498899 0.16802597 0.26650423 0.53030175 0.26408303 1.1382812 0.20268644
1.0539175 -0.030488022 0.26861593 0.111971326 -0.01510352 -0.8455785 0.43171495 0.8396903
-0.06587148 1.8312814 0.985545 0.13053311 -0.42525753 0.35659945 -0.9946284 1.6538508
0.49333403 0.6241057 0.7237365 0.6510677 -0.47187626 0.44968653 0.22710016 0.28260717
0.74967045 1.5817527 2.191599 2.0741782 0.7995477 -0.019070555 0.4378366 0.5297766
0.64759266 0.14495128 0.5195221 0.75120366 0.122141 0.04488014 0.5721291 0.9086408
-0.28044215 -0.72911817 -0.6874748 0.52054924 -0.015064878 -0.15822135 -0.77704144 -0.050906807
-0.115453854 -0.34856567 -0.6605738 -0.43027902 -0.08459274 -0.3811954 0.09802555 0.045393784
0.19644096 -0.5681587 0.16327953 0.05203778 -0.12143628 0.1819741 0.74938375 0.12137684
-0.11871025 0.07928358 0.8226677 -0.6495769 0.07178937 -0.25772908 -0.26617905 -0.24224612
0.16543776 -0.056177296 -0.12861198 -0.38609868 0.4532659 0.042137347 -0.43222174 0.124196805
-0.28677902 -0.7966637 -0.15565939 0.068290755 -0.48122135 0.39717644 -0.10047137 0.63243544
-0.2340661 -0.48610723 -0.6598213 -0.25770667 -0.54026186 -0.46434495 0.028846037 -0.004920155
0.11320887 -0.08615494 0.03846282 -0.0064894347 -0.59704614 0.0028478776 -0.17686409 -0.28203118
0.37526825 0.0034313786 0.08706535 -0.5535271 0.48731825 0.35586998 -0.31814522 0.18332174
-0.11331588 -0.1705975 -0.17971288 -0.06920428 -0.092874646 0.26292968 0.2595328 -0.30924886
-0.6690038 -0.5831635 0.09321082 -0.061061945 -0.31350857 -0.14291637 0.4524128 0.18135107
0.03751356 -0.8197735 0.03270533 0.29598388 -0.23083727 1.4562315 0.27583614 0.8981822
-0.03215559 0.26410758 1.6216514 1.0778353 0.2684252 0.07385465 1.2991333 -0.26632953
0.04583803 -0.19720247 -0.019214824 -0.22711015 -1.6571003 -1.7863477 0.70206255 0.3276216
0.902068 0.7629453 0.4622677 -0.0429153 0.6617272 -0.32924724 -0.2756128 0.39272296
-0.5354176 -0.37353563 0.378773 0.45802 -0.45048848 -0.41321054 0.047506236 -0.35131755
0.34409115 -0.15395203 -1.1021613 0.4943438 0.87552947 0.3137493 -1.0516908 0.006609704
0.91080725 -0.5529296 -0.35329714 1.3484201 0.8397047 0.2920649 -0.05872502 -0.3388535
-1.4025513 -0.36043215 -0.20032324 0.687378 -0.17157784 0.97987616 1.1411428 0.9421395
0.20853509 -0.30476332 1.3011593 -0.29032585 -0.33120644 -0.53903997 0.12673612 0.49888098
0.48081613 0.8327744 -0.27800304 1.0048615 -0.22606294 0.65398157 0.45906174 0.45938614

cell_list.3.conv_can.weight f4 [10, 21, 3, 3]
00000000: 111e b6be 8844 eebe 221e 13be 98d9 cfbe
00000010: 348d bfbe db12 123e 9ace 03bd d94b b1be
00000020: b3cf db3c 7f8a b83e d4c6 c33e 0ac1 b03e
00000030: 9e1b 3f3d 0d05 64be dc3c 0d3f bee3 d3be
00000040: 4ca4 95be 2d64 733e baf3 2bbe 3c7b 2d3e
00000050: 4ce3 77be 70d2 0c3e 2314 d8bd ee54 2f3e
00000060: 61ba 58bd f893 133d 2641 b53e 6a79 66be
00000070: 90b6 d9bd 40ff 153f f103 fabe 9edd c4bc
00000080: 720d 49bd acfb 543d 6408 d63d ffa2 ae3e
00000090: e00f 4d3e f7a0 17be a693 9bbe 286a 54be
000000a0: 886b 8c3e 92c5 9ebd cdd7 44be fe22 173e
000000b0: d44f af3d 9e12 f93d c173 bcbc 0a95 623e
000000c0: ead8 04bf 0bbe c43d 8bb4 033f 18e3 84be
000000d0: f3bc e2bd f204 123e 6617 c73e 0bfa e83e
000000e0: c44a ea3e 881b 82be 45c5 ca3d a9e0 08bd
000000f0: 23f1 163e 85ce 09bd 0666 d63d c506 ab3c
00000100: 9244 ae3e c51e c2be 7c24 e2bc 6853 ed3e
00000110: 8f4b 033f 32fb bebe 3011 96bd 23e5 23be
00000120: 7b63 ad3e 3af1 e4be ff1b b53e 29e4 3cbe
00000130: 82eb 89be a561 c13d eb4e 7f3e a9cf 9e3d
00000140: f97c 27bc 69cf 0e3e 55d2 773e 6baf ee3e
00000150: dd4d 30be 6968 4bbe eb3d 25bd 81a5 59be
00000160: 6233 ae3e 81e3 c23d a5aa 0cbe 7cb5 a13d
00000170: 7a8b c13c 54fa 55be 7155 23bf 30fd f6bd
00000180: a6e8 93bd dbed a2bd 72a2 7bbd 5c15 373d
00000190: 0220 7f3e 7ad0 83be 1bad bc3e 7407 9dbd
000001a0: b89e 933d 76b3 97be 96f5 90bd f55d f43d
000001b0: 8089 b53c dacb ee3d 6edf 4bbe a561 053e
000001c0: 8a29 dabe 7048 a33d af9a 4cbe 2dd3 89be
000001d0: 1258 07ba bf5e 1cbb 6dd6 6dbd d2f0 a9be
000001e0: 1d64 803d 1d23 ed3c 78a2 fc3e c17d 8f3d
000001f0: eabf 30bd 365f 16bf 5d08 d23e d819 913c
00000200: 9f4d 23be f4d1 543e daa1 86be 5531 fc3d
00000210: 2fec adbe b44e f73c 920b 98be 94e8 f43d
00000220: 58a3 583e c3ec 44bd fa7b 583e 7d8e b53e
00000230: 964f 3c3f 292a d33e 9673 b5bd 878a aa3e
00000240: 306f 67be a986 c93d ada3 c63e dc4d 27be
00000250: 709a c5bd 84cb 06be 74c7 923d e2ef 5c3c
00000260: 5504 763d e65f 65be 4285 84be 3f90 173f
00000270: 3c56 60be 7412 71bd 1d39 b73d bb2a a93d
00000280: 1346 58bd 4f94 833c 89ca cb3d d630 263e
00000290: c26f 70ba f13d c2bd 1995 333e 97f9 a83d
000002a0: 93fb e0be 3a67 223e b7ac 5dbe 170f 0dbf
000002b0: c3fd 933e 4998 983e 3af2 013f f083 a3bd
000002c0: e05d 5ebd 74d2 453f c9de fd3e 8e11 1a3e
000002d0: 3f93 3b3c 4ee8 9bbd 2815 c9be d1d8 23be
000002e0: 1640 3bbf ae00 f9bb fd82 04be d0c8 a1be
000002f0: 3465 58bc cdd2 443e 9dab 85bd c485 263e
00000300: 6905 0a3e 750d 77be 5c0e bf3e 04e6 fcbe
00000310: b797 9abd 69dc d33c 5f8d ce3d dbc5 0f3e
00000320: ca0d bdbe 358a a93d b817 5bbe 7c86 3b3c
00000330: aeae bd3e f69d 9ebe 2567 5ebd 1c9d 8a3d
00000340: f4fe c4be 8116 b3be 23a3 c1bc 7478 2a3f
00000350: ae90 47bd caf7 da3d c16c 99be 6f17 1fbe
00000360: 25a1 e23c 25ed bebd d986 3dbe 182d 6fbe
00000370: bbc8 8f3c 8fbb 563e f468 8c3e 36a3 a3bd
00000380: ce58 ab3c 08ec 82be eb52 f13d 4e1e 5e3e
00000390: 6210 fe3d b77a 233e 42a3 fa3d bbdc 333e
000003a0: d85e 7f3d 462a 9f3c 2648 b73e 5b68 70be
000003b0: 2c55 95bd 3a0d 27bf a0c9 88be 46c6 4b3e
000003c0: eabb 87bd 071f d8bd 8eeb 033f e1f6 d83e
000003d0: e29c 433e f554 d6be 99bc 6e3e 593f 32bd
000003e0: 11e6 79bd 6b05 413e 1edf 93be 1c90 44be
000003f0: 60c9 ccbc 06cb ba3d 92ab c63d 26ad 673c
-0.35569814 -0.4653666 -0.14366964 -0.40595698 -0.37412417 0.14265005 -0.032179452 -0.3462818
0.026832437 0.36043164 0.3823763 0.34522277 0.046657197 -0.22267552 0.5517099 -0.4138469
-0.2922691 0.23768683 -0.16792193 0.16941541 -0.242078 0.1375215 -0.10550716 0.17122242
-0.05291212 0.036029786 0.35401267 -0.22507253 -0.10630524 0.58592606 -0.48831132 -0.024031457
-0.049085088 0.051997826 0.10450819 0.3410873 0.20025587 -0.14807497 -0.30386084 -0.2074362
0.2742579 -0.07752527 -0.19222946 0.14759442 0.08560148 0.12161754 -0.023004415 0.22127166
-0.51893485 0.0960656 0.5144736 -0.2595451 -0.110711955 0.14259699 0.3888504 0.45503268
0.45760167 -0.2541163 0.099009074 -0.033417378 0.14740424 -0.033644218 0.10468678 0.020877251
0.3403669 -0.379141 -0.027605288 0.46352696 0.5128717 -0.37301022 -0.07327497 -0.16005377
0.3386496 -0.4471529 0.35372922 -0.18446411 -0.2693749 0.09442452 0.24932449 0.07754452
-0.010222667 0.13946308 0.24201329 0.46618208 -0.17217202 -0.19864048 -0.040342253 -0.21254541
0.34023577 0.09516049 -0.1373697 0.078959435 0.023626078 -0.20896274 -0.6380225 -0.120600104
-0.072221085 -0.079555236 -0.061434217 0.044698104 0.24914554 -0.25744992 0.3685082 -0.07667437
0.072080076 -0.29629105 -0.07078092 0.119319834 0.022160292 0.11659975 -0.1990945 0.1302553
-0.42609817 0.07972801 -0.19980882 -0.26918927 -0.0005162965 -0.0023860184 -0.05806582 -0.33191544
0.06269095 0.028947407 0.49342704 0.070064075 -0.043151774 -0.5873903 0.41022006 0.017712519
-0.15947579 0.20783216 -0.26295358 0.12314097 -0.33969256 0.030188896 -0.29696327 0.11958423
0.2115606 -0.048077356 0.21141043 0.35460272 0.7355894 0.41243103 -0.08859937 0.33308813
-0.22601008 0.098401375 0.3879675 -0.16338295 -0.09648597 -0.13163573 0.07166949 0.013484927
0.060062725 -0.22399864 -0.25882918 0.5920448 -0.21907896 -0.05885549 0.0894644 0.08260103
-0.052801203 0.01606193 0.0995074 0.16229567 -0.00091719266 -0.09484471 0.17537345 0.082507305
-0.43941936 0.1585969 -0.21647917 -0.5510115 0.28904542 0.29803684 0.50760233 -0.079841495
-0.054288745 0.7727425 0.49584034 0.15045759 0.01144868 -0.07612668 -0.39273953 -0.16000678
-0.7314466 -0.007598958 -0.12940593 -0.3159852 -0.013207722 0.19221039 -0.06526873 0.16261965
0.13478626 -0.24126227 0.37315643 -0.49394238 -0.075484686 0.025861936 0.10085558 0.1404032
-0.36924583 0.08278314 -0.21395767 0.011445638 0.37047333 -0.3097989 -0.054297585 0.067682475
-0.38475764 -0.34978107 -0.02363736 0.66590047 -0.04872196 0.10691793 -0.29965785 -0.15536283
0.02766473 -0.093225755 -0.18508472 -0.23357046 0.01755177 0.20969985 0.27423823 -0.079901144
0.020916369 -0.25570703 0.117833935 0.21691248 0.124054685 0.15964781 0.1223817 0.1756467
0.06234631 0.019429337 0.35797232 -0.23477308 -0.07291636 -0.6525456 -0.26716328 0.19899854
-0.06627639 -0.10552793 0.515313 0.42375854 0.19102815 -0.41861692 0.23314132 -0.043517444
-0.061010424 0.18849723 -0.28881162 -0.19195598 -0.024998367 0.09120755 0.09700693 0.014140403
