saved_models/double_amb/brainlike_MPC_3.pt (torch, 118396 bytes, 14 tensors)

cell_list.0.conv_gates.weight f4 [20, 11, 3, 3]
00000000: 7eed b93d b76f 913d 6775 dd3d 7b5c 36bd
00000010: 650e 923c 2eda 85bd 6a91 b13c 09eb aebc
00000020: 429c 1cbd 0102 ee3d 497d c03c f5a8 103e
00000030: 594c d5bd 5999 f4bd f9ed fcbd 61ad 53bd
00000040: d09d fabd a76c 013d 52b0 cbbc a4c7 dbbc
00000050: a4a3 92bd e6f7 373c 3e84 063e dd7c 17bd
00000060: 74b1 09bb 11ae 033d e424 0c3d 842f eb3d
00000070: a0ca bf3c 16d1 e23c 3ff5 09bd e7a7 333c
00000080: d7b2 c1bd 739c a5bd 2655 d6bd 616f cabd
00000090: aa55 82bd 362e 31be 8772 13be de24 dd3c
000000a0: 0511 d53d 146f 953d 0a62 6d3d 9d52 543c
000000b0: 8597 ec3d 1708 923e d1b6 123e a23c 253e
000000c0: ab72 8b3e cb51 9f3e 8fb0 963e 8f22 533e
000000d0: d2a0 303e 5f09 a63e 2c15 3a3e 28e7 153e
000000e0: aa87 cb3d b50f 8b3e 93f8 813e dfe1 513e
000000f0: b35f 4b3e 887d 353e 6e80 be3d b13d 4a3d
00000100: 7b94 c23c 33ea 59ba 4964 823c 7dc3 dbbd
00000110: abab 3e3a 5d66 c03c 8e6a 843b 288b 803d
00000120: 3e8a 9bbd cdef 37bc 64f5 983d 7d1e ee3d
00000130: 3642 c93d c6e8 463e b4b0 d03c 9de9 a43d
00000140: 09be bdbd 5d08 563c 05bd 8e3c aa36 273e
00000150: 66a2 15bb 6b95 32be a85f febc c629 6cbe
00000160: 13a7 90be f661 62be a156 19be 2d15 d2bd
00000170: ee4b 3dbe 1df8 413d 625b 8bbc 7586 9e3c
00000180: b42f dbbd 836d 873d 0615 d3bc 9e48 863e
00000190: 49aa 913e e348 c03e 2a7e 613e 0eb7 e43d
000001a0: e33b 2d3e 1ce4 11bd 1912 97bd 56dd a3bd
000001b0: 4664 f43d 3beb 713c 26d0 d43d 8ece 90bd
000001c0: cb80 25be c0fb 4fbe 2ba3 24be 9def 6cbe
000001d0: 7286 23bd 8271 bd3d da0b 6bbc d2ec a93d
000001e0: 47b7 643e ce28 ea3d 79dc 9b3d 8af2 013e
000001f0: 71f7 b43d 3a24 cc3d cf6e 283e de8e fe3d
00000200: 9754 c33d 49bc 3c3d 71e1 cd3d fce8 d33a
00000210: 204b 2a3d e868 b3bc f2c6 08be 227b f3bd
00000220: 5090 a3bd 6877 48bd 9426 faba d2e5 bf3d
00000230: 6077 e93c 114b a73d 9956 023e 0f0f e63d
00000240: 6903 083f 118a eb3e 757f ff3e 65fe 063f
00000250: f86b 143f 6083 1d3f a772 b73e d230 f83e
00000260: b97c b83e 2d79 693e ceec 6f3e 73bc 153d
00000270: 70f3 5d3e 05cc 433e a096 453e 4b40 db3d
00000280: 3126 853d 9cf7 fc3d 8627 243e 4262 623e
00000290: 187e 193d 6326 cdbd 98ad 013d 7bc1 5bbc
000002a0: 9757 abbc 53ab 6abd 4d8d cbbc 50ce 8ebc
000002b0: e749 09be eb68 a73c c9ee cabb 2e14 cbbc
000002c0: 42ef 7ebd 5d99 d83c 335f b53c a90e d0bd
000002d0: b25d 063f 5faf e23e 6c9b 143f 6d7a ee3d
000002e0: c5ba c23d f551 033e 87ac e2bd f68d a7bd
000002f0: 138b 37be fd93 2cbe d028 dfbd d5be 94be
00000300: c03a 43bd 6a85 033d 6c7d 8d3d 6417 813c
00000310: 516c 14bc 57a6 633c d504 423e 654d 9e3e
00000320: 8133 023e a2ae 803e d05d 5d3e f6d1 6b3e
00000330: d433 873e bef2 053e 65be 503e 343a b2be
00000340: 8c9a 5dbe 56df afbe 4487 cfbe 308f d2be
00000350: 2ecb 51be f5b7 2bbe eefa 99be de84 83be
00000360: 94d2 783e 431e 7b3e ff11 7f3e 9f8c cb3e
00000370: 9e46 8b3e c978 663e a0c6 873e 0895 9b3e
00000380: df8a 883e 8409 70be 41dd 72be e23b 0abe
00000390: 0662 99be c750 03bf 7e8c b7be 31e8 35be
000003a0: cbc7 2fbe e635 15be ef1c 9b3e df67 c73e
000003b0: 12de 263e 7e1f c23e c2b9 cf3e d3ff d83e
000003c0: a41a 8c3e 2feb a13e af2c f03d 6e02 80be
000003d0: 6741 4ebe 7ecd 44be 9bf4 b9be 1a10 a8be
000003e0: f1ee d7be bc54 80be 672a 13be 61d3 38be
000003f0: 3c64 ea3e 84cc a63e cde4 c13e 1e0d 2d3e
0.09078501 0.07101386 0.10813408 -0.04452179 0.01782913 -0.06535755 0.021675784 -0.021352308
-0.038234957 0.11621476 0.02349724 0.14126952 -0.10414953 -0.11943311 -0.12350077 -0.05167902
-0.122371316 0.03159776 -0.02486435 -0.026828595 -0.07160118 0.011228537 0.13136384 -0.036984313
-0.0021010311 0.032148425 0.03421487 0.11483672 0.023412049 0.02768759 -0.03368115 0.010965324
-0.09457939 -0.08086481 -0.104654595 -0.09884525 -0.063639954 -0.17302784 -0.14399157 0.026995119
0.10403637 0.07296577 0.057954825 0.01295915 0.115523376 0.28521797 0.14327551 0.16136411
0.27235922 0.3111709 0.2943158 0.20618652 0.17248848 0.32429025 0.18172139 0.1463896
0.09937985 0.2716042 0.2538496 0.20496319 0.19860725 0.17723668 0.0930184 0.04937524
0.023752442 -0.00083127915 0.01591696 -0.10730646 0.00072735053 0.02348631 0.0040410226 0.06276542
-0.07594727 -0.011226607 0.074686795 0.11626909 0.09827082 0.19424734 0.025474884 0.08052371
-0.09264762 0.013063517 0.017424116 0.16329446 -0.0022832393 -0.17439811 -0.031051472 -0.2306281
-0.28252468 -0.22107682 -0.14974453 -0.10257945 -0.18485996 0.04735576 -0.017011348 0.019351223
-0.10702458 0.066126846 -0.02576686 0.26227278 0.2845023 0.37555608 0.22020784 0.111677274
0.16917376 -0.035617933 -0.07376499 -0.08001201 0.11933188 0.014765556 0.10391264 -0.07070647
-0.16162412 -0.20310879 -0.16077869 -0.2313828 -0.03992314 0.092501655 -0.014346087 0.08297123
0.2233554 0.11433564 0.07610411 0.12690178 0.08836258 0.09967847 0.1644852 0.124295935
0.095376186 0.046078 0.10052765 0.0016167457 0.04157555 -0.02190061 -0.13357142 -0.1188872
-0.0798651 -0.048942 -0.0019084984 0.093700066 0.028499305 0.08168615 0.12728347 0.11233341
0.53130203 0.46003774 0.4990193 0.52731925 0.5797725 0.6152859 0.3582966 0.48474747
0.36032656 0.22800131 0.23430178 0.036556672 0.21674895 0.19120796 0.1929574 0.10705622
0.06501425 0.12351915 0.16030702 0.22107795 0.037473768 -0.10017087 0.031659693 -0.013412829
-0.02091579 -0.057292294 -0.02484765 -0.017432362 -0.13407098 0.020435771 -0.006193016 -0.024789896
-0.062239893 0.026440317 0.022140121 -0.10159046 0.5248672 0.44274423 0.58049655 0.116444446
0.0950828 0.12824233 -0.11068063 -0.08181374 -0.17924146 -0.16853328 -0.10896456 -0.29051843
-0.04766345 0.032109655 0.06908688 0.015758224 -0.009059028 0.013894639 0.18947156 0.30918422
0.1271496 0.25133234 0.21617818 0.23029312 0.2640673 0.1308088 0.2038513 -0.3481003
-0.21640986 -0.3435008 -0.40532887 -0.41124868 -0.20487663 -0.16769393 -0.30074257 -0.25687307
0.24299079 0.24523263 0.24909209 0.39755723 0.27202314 0.22507013 0.26518726 0.3038714
0.2666845 -0.2344113 -0.23717214 -0.13499406 -0.29957598 -0.5129513 -0.35849375 -0.17764355
-0.17166059 -0.14571342 0.30295512 0.38946435 0.1629565 0.37914652 0.4057141 0.42382678
0.27364075 0.31624743 0.11727273 -0.25001854 -0.20142137 -0.19219014 -0.36319432 -0.32824785
-0.42174485 -0.25064647 -0.14371644 -0.18049385 0.45779598 0.32577908 0.37869874 0.16899535

cell_list.0.conv_can.weight f4 [10, 11, 3, 3]
00000000: 11fc bd3c 570a 883d 210c 8c3b 56b3 a83d
00000010: d613 313e 10bd 0f3e 37b8 db3d 5811 bebc
00000020: 88e8 0ebb 7ed4 5f3d 949a 0a3e b356 113e
00000030: d581 313e ba6b 323e 2acc 4c3e f34f a33c
00000040: 4381 d1bc a324 b03c faa6 073d 8a51 87bd
00000050: 20c5 cd3d 6da8 33be dd2c 263a 9cfe 02be
00000060: 27dc 6cbd b7c5 823d 8ee2 d63c 13ae a23e
00000070: d368 4e3e 08e9 1e3e 2157 663e de22 5b3e
00000080: 1e10 ef3d 4d12 5c3e 6b37 843d fbb8 833d
00000090: 8ac2 9abe b630 29be c39c 7ebe 7b5b d1be
000000a0: 78b4 aabe 6f83 8ebe 7acf 09be 4ee7 66be
000000b0: 3288 a8bd 0cc2 bf3e 14db ed3d 6cbd bc3d
000000c0: 0f08 af3e 52a3 523e cae9 153e 3306 693e
000000d0: 1310 683e edda 383e 03c6 8dbe db89 89be
000000e0: a528 85be cd39 3dbe 4aa5 6abe 4362 a0be
000000f0: 8e85 12be 9deb 1dbd 1407 34be 9107 bb3e
00000100: 581a e73d 0311 453e 1434 983e e8cb 5a3e
00000110: 9f85 033e d59a 553e 48f4 333e 6ccf 0f3e
00000120: 810d 9abe e34a 44be 7363 84be a89f 94be
00000130: 63bf 80be 43bd 38be fc86 8ebe 67e7 f4bd
00000140: 345e 45be 0831 223e 7e49 3c3e 368a ac3d
00000150: c32f b93e 68b2 4f3e 8388 353e 287b 453e
00000160: d343 563e 4196 223d 5ae0 92be 0aeb 4dbe
00000170: 5a78 96bd e565 acbe ae08 cabd eb59 6bbe
00000180: 6ae1 aebd fd5d 11be 9545 bebd ba3a bf3d
00000190: f358 a6bd 1dd2 473d b0b7 c53c 1426 803d
000001a0: 586d 9fbd bfab f23d 936a e13d 4a17 2dbd
000001b0: 2e81 94bd 611c b8bd 89d8 1bbe 63df 2cbe
000001c0: 619f 75be 9386 68be d458 4dbd b296 5abd
000001d0: 6e3d 03be e309 60bd eb92 293d 6d93 0d3e
000001e0: 1b75 153e f0ee 0a3e baef 853c 9bf3 7abc
000001f0: e378 8b3d 5a63 24bd 231b b1be c74a 68be
00000200: b124 2fbe 63e3 a2be 19e1 51be 6da7 60be
00000210: e8bc ccbd 652d 0bbe 5e9e 72be 5c11 7b3e
00000220: d61a 9d3e 395b 363e 5ac5 4d3e 5a78 853e
00000230: 0527 ab3e 8843 b13d cc36 6b3e 2cde 333e
00000240: 5993 9ebe 00fe a2be baf5 9abe f07a e6be
00000250: 4e61 81be f6ec 85be 0aa5 17be 4939 43be
00000260: cc89 c9bd 9ab2 b33e 9320 a03e 1c67 883e
00000270: 883b 913e bb3e 6c3e 792a a13e 77bf 20bb
00000280: 41ac 2d3d 29d9 703d 50af 5dbe 808a b2be
00000290: 1b49 15be ad70 a3be c117 b3be 7225 a6be
000002a0: c6c8 58be 3577 63be 22b3 7bbe d36d dc3e
000002b0: 8b3d 9b3e 70ba 903e e90d a83e 97b0 923e
000002c0: 3f70 c83e 887b 953e 4a84 963e b191 893e
000002d0: d362 70be a210 17be d71a 0fbe 4a92 acbe
000002e0: f264 9abe 3839 35be fc32 50be c34c cebd
000002f0: 0c82 43be 679e 473e f4b5 f53d d8d9 003e
00000300: 3724 983e 8f1e 5d3e 2541 493e 158d 1e3e
00000310: 2f6b 953d b3d9 ca3d 57d1 033f b85d 053f
00000320: 26c4 ea3e e451 c23e 49d2 a43e 430f d33e
00000330: 9138 a03e 7243 863e e0c1 4b3e 3021 e83c
00000340: 6367 813e 9575 443e 26b2 cf3d 784d c43d
00000350: 5503 2b3e 80a3 583e f1e8 3e3e fea6 a43e
00000360: a0a1 7bbd 9df0 6bbd 7819 d7bd 39e2 93bd
00000370: 4687 47be f6a2 8ebe a1f7 9abc 8192 e0bd
00000380: a0ce 9ebe 96ea ae3c e16a f7bc 9d82 463e
00000390: da31 cb3c 4f66 0a3e 325d 553e 33b6 08bd
000003a0: 1032 5b3e f44f bc3d 1f9c a93c 19dd 0c3d
000003b0: 01bc 3fbd d65d 61bd a79a 18be 9e3f 7bbe
000003c0: 65d5 81bd 5ba7 9abd c720 48be f019 14bd
000003d0: 9d42 353c 00f5 123e c81b 033c de99 1d3e
000003e0: 768f 0d3e c715 453d aeca cb3d e310 1c3e
000003f0: ab39 723d 50c5 18bd 89f9 3fbd 3253 1abd
0.023191484 0.06642597 0.004273907 0.082373306 0.17292723 0.14036965 0.107284956 -0.02320163
-0.002180608 0.054646008 0.1353553 0.1419323 0.17334683 0.17423907 0.19999757 0.019935584
-0.025574332 0.021501845 0.033118226 -0.06607349 0.10047364 -0.17544718 0.00063390826 -0.12792438
-0.05782714 0.06385367 0.026231077 0.31773433 0.20157175 0.15518582 0.22494175 0.2140002
0.11672996 0.21491356 0.06455883 0.064317666 -0.30226547 -0.16522488 -0.24864487 -0.40890107
-0.33340812 -0.2783465 -0.13458052 -0.22549173 -0.08229102 0.37452734 0.116140515 0.09215817
0.34185836 0.20570114 0.14639965 0.22756271 0.22662382 0.18052264 -0.27690133 -0.26862988
-0.26007572 -0.1847908 -0.22914615 -0.31324968 -0.1430876 -0.038554776 -0.17580825 0.3652921
0.112843215 0.1924477 0.29727232 0.21366847 0.12843941 0.20859845 0.17573655 0.14043969
-0.30088428 -0.19169192 -0.25857124 -0.29028058 -0.25146016 -0.18040948 -0.2783736 -0.11958199
-0.19274217 0.15839016 0.1838741 0.08424799 0.36169252 0.202829 0.17727856 0.19285262
0.2092431 0.039694075 -0.28686792 -0.20109192 -0.07347174 -0.3367149 -0.09864937 -0.2298352
-0.08539088 -0.1419601 -0.092906155 0.09337373 -0.081224345 0.048784364 0.02413544 0.06257263
-0.077845275 0.11849164 0.110066555 -0.04225854 -0.072512016 -0.08989788 -0.1521932 -0.1688209
-0.2398658 -0.22707586 -0.05013354 -0.05336637 -0.12816402 -0.05469693 0.041399878 0.1382577
0.14595453 0.1356771 0.016349662 -0.015316869 0.06810167 -0.04013381 -0.34591016 -0.22684775
-0.1710384 -0.31814107 -0.20496024 -0.21938868 -0.099969685 -0.13591535 -0.23693225 0.24518341
0.30684537 0.17808236 0.20094815 0.26068383 0.33428207 0.08655459 0.22970122 0.1756522
-0.30971792 -0.31834412 -0.302656 -0.4501567 -0.2526955 -0.2615735 -0.14809051 -0.19064821
-0.09840736 0.350972 0.31274852 0.26641166 0.2836573 0.23070805 0.31477717 -0.0024528184
0.042400602 0.05880085 -0.21648908 -0.34871292 -0.14578669 -0.31921902 -0.3497906 -0.32450444
-0.21170339 -0.22213443 -0.24580052 0.4305254 0.3032039 0.2826724 0.32823113 0.28650352
0.39148137 0.2919581 0.29397804 0.26868966 -0.23475198 -0.14752439 -0.13975082 -0.3370536
-0.3015514 -0.17697608 -0.20331949 -0.10073235 -0.19092578 0.1949402 0.119975954 0.12583101
0.2971513 0.21593688 0.19653757 0.15483506 0.07295834 0.09904804 0.514913 0.5209613
0.45852774 0.37953103 0.32191685 0.4122258 0.31293157 0.26223332 0.19898176 0.028336138
0.2527419 0.19185479 0.10141401 0.095850885 0.1670049 0.2115612 0.18643548 0.32158655
-0.061433434 -0.057602514 -0.10502905 -0.07220883 -0.19485196 -0.27858704 -0.018916907 -0.109654434
-0.31017017 0.021352094 -0.030202331 0.19385763 0.024804045 0.1351559 0.20836332 -0.033376884
0.21405816 0.09194937 0.020704327 0.034390543 -0.046810154 -0.05502113 -0.14902745 -0.24535987
-0.0633953 -0.07551452 -0.19543754 -0.03615755 0.011063245 0.14351273 0.008002229 0.15390727
0.13824257 0.04811647 0.099507675 0.15240817 0.059137028 -0.037297547 -0.046868835 -0.037676997

cell_list.1.conv_gates.weight f4 [20, 20, 3, 3]
00000000: a0b1 8cbe 1b51 8fbe 09cb 63be 4b83 b5be
00000010: 8a04 b8be d0dd 98be bbe5 9dbe b1b4 a1be
00000020: 232c d6be 54bd 3ebe e724 51be 1944 80be
00000030: 0c98 21be 5689 11bd ec80 64be d750 04be
00000040: 7c62 45be 454e 87be 8269 3dbe 34b1 87be
00000050: b096 acbe 86d5 99be 6a68 81be d3ad 64be
00000060: fa1b 48be c510 febd 1fde 5dbe c2f8 d2bd
00000070: 4d8a bdbd 7ddf b3bd 8b33 e53c 64fe c03d
00000080: 6dbc a0bc cc77 5cbd 861e a73d 53c1 e53d
00000090: 3198 f5bd beaf f8bd 6b9f 14be 2e57 843e
000000a0: 3d4b 843e 1408 863e 8b57 823e af86 963e
000000b0: 2579 9b3e b501 653e cd9d 513e 968b 293e
000000c0: 1e19 8b3e ef3c a83e 72a7 ac3e c4de 013e
000000d0: 271a 723e 52b0 983e f43b 9a3e 459b ac3e
000000e0: d130 9e3e 5647 983e d555 9c3e c347 d23e
000000f0: 7b7e b43e c848 973e bd05 b43e f9d8 c23d
00000100: 0c05 373e 702a 793d 4c4c ae3d dff6 8b3d
00000110: 8bc7 243d 81f4 fe3d 991b 043d c94d 99bc
00000120: 2c3a 633d e5c2 123e 6433 263d 4d6e 823e
00000130: 4375 b13e 8537 973e 3c62 f33e a9cc fe3e
00000140: 7bd7 e43e d9c4 3a3e d9a4 633e 31fe 973e
00000150: 6626 5e3e 5407 a43e bbcb 723e 94d7 963e
00000160: d01d a43e b9da c53e 4ab7 69be b12a 87be
00000170: 3adb 91be 9ee2 8fbd 5fd6 8abd f8ef 5fbb
00000180: e9bf f5bd 605e fcbc 8ab6 ad3c 3317 bebd
00000190: 2812 80be ee83 15be 54d6 5cbe c648 edbd
000001a0: e2f8 f3bd c619 7ebe 7714 62be 5e53 80be
000001b0: 8ea5 ffbd 113f 52be d23e 3fbe b31b 10be
000001c0: 6120 50be ee1b a4be 4213 97be 56d9 83be
000001d0: 31da c5be 29e8 a33d 4860 493d 1887 603d
000001e0: 8d9a 4b3e 358e 203e a136 823d 901d b13e
000001f0: a3ea 923e 45b6 bd3e 8639 71bd 4ff5 cf3b
00000200: fea1 92bd 52c0 263e 83a6 083e 2afa 343d
00000210: 12ad 243e 3282 103e d93f 383e 6a17 66be
00000220: a0b6 bdbe 5998 99be 0789 90be bb09 88be
00000230: 72d7 89be 86e7 63be 7cd1 76be a960 96be
00000240: eb48 2dbe ce80 9bbe 1a3d 83be 1b24 80be
00000250: f5b0 93be 4524 aebe 2dc8 c4be 344e 98be
00000260: fa51 c2be 8010 16be f467 67be 8816 6abe
00000270: 63a6 59be 39a2 87be 00e0 65be c024 8fbe
00000280: 2855 9abe 822a b4be 86e2 83be f10a 9dbe
00000290: 317d 53be 756c b1be 1ce6 a4be b200 c7be
000002a0: b175 7dbe 48c7 cfbe 66ae babe 1b37 22be
000002b0: 0488 68be ba71 96be 258c 62be e7b5 63be
000002c0: aefe afbe 71bc 8abe ff97 a8be 551a 8cbe
000002d0: 89e3 563b 5885 d13d 6fde 5e3e 3571 f0bd
000002e0: 3133 3bbd f22f e3bc eb1b 61be 04e8 55be
000002f0: 3f5e 34be 01af 54bd e12c 71bd 39a9 11be
00000300: 05bf ef3d 33cf e63d a7c1 2b3e 094e 58be
00000310: c692 3cbe 34c9 643c a817 bfbe 5b82 f5be
00000320: 1799 05bf 45e6 a8be d785 c0be fe51 82be
00000330: 7890 27be c041 b3bd a18c 033e d9e5 a8be
00000340: c3ab 93be c85c ddbe e388 a63d 0eed be3d
00000350: dd92 093e c1b5 9bbd bfd1 e83c 0033 0b3e
00000360: 91b0 fcbe 61a8 0fbf 4257 eebe fc81 26be
00000370: 9aeb 07be 2183 52be b7fb 1a3d 79a5 5cbd
00000380: 12a5 bfbc f410 b2bc 221b f53d e3a0 433d
00000390: f76e 043e 3fcb 513e e884 703e 31f8 2b3d
000003a0: e44d 913c 97ab ae3d 5436 653e 6d0f 8e3e
000003b0: c8cc 913e 6a9a 383e 6277 6f3e d499 983e
000003c0: 2dfe 6f3e ae55 523e e778 ca3c ebe9 b43e
000003d0: 939c ec3e 6cea dd3e 7b78 483c ea12 72bd
000003e0: c347 8dbe 196e 3e3e 8057 6e3e a96b 9d3d
000003f0: def2 d43c c71f a3bc 0aa9 c73b dc36 213e
-0.27479267 -0.27991566 -0.2224542 -0.3545173 -0.35940963 -0.2985673 -0.30839333 -0.3158317
-0.4183055 -0.1862691 -0.20424233 -0.25051954 -0.15780658 -0.035531364 -0.22314805 -0.12921463
-0.1927585 -0.26426902 -0.1849728 -0.26502383 -0.33708715 -0.30045718 -0.25274974 -0.22331934
-0.19541922 -0.12405542 -0.21666764 -0.10301353 -0.092548944 -0.087828614 0.02797868 0.09423521
-0.019621098 -0.053825185 0.08160119 0.11218514 -0.11991919 -0.12142895 -0.14513938 0.25847763
0.25838652 0.26178038 0.25457415 0.2939963 0.30365863 0.22363932 0.20470352 0.16557154
0.271676 0.3285899 0.337215 0.12682635 0.23642789 0.29822022 0.30123866 0.3371221
0.3089662 0.29741925 0.30534235 0.41070375 0.35252747 0.29547715 0.35160628 0.095140405
0.17873019 0.060831487 0.08510646 0.06834196 0.04022936 0.12448979 0.03225288 -0.018713849
0.0554754 0.14332159 0.040576354 0.25474778 0.34659776 0.29534546 0.47535884 0.49765518
0.4469565 0.18239154 0.22230853 0.2968612 0.21694335 0.3203684 0.2371053 0.29461348
0.32053995 0.38643435 -0.22823825 -0.26399758 -0.2848757 -0.07025646 -0.06779169 -0.0034170132
-0.119994946 -0.03080672 0.021205205 -0.09281769 -0.25013852 -0.14601108 -0.21566135 -0.11586146
-0.11912705 -0.2481452 -0.22078119 -0.25063604 -0.12482749 -0.2053187 -0.18676308 -0.14073066
-0.20324852 -0.3205256 -0.2950688 -0.25751752 -0.3864303 0.080032654 0.049164087 0.054816335
0.19883175 0.15679248 0.06358076 0.34592867 0.2869464 0.37053123 -0.05889275 0.0063463817
-0.07159804 0.16284302 0.13344769 0.044183888 0.16081646 0.14112166 0.17993106 -0.2246987
-0.37053394 -0.29999045 -0.28229544 -0.26569924 -0.26922184 -0.22256288 -0.2410335 -0.2937062
-0.16922347 -0.30371708 -0.25632554 -0.25027546 -0.28845945 -0.34012046 -0.38433972 -0.29747164
-0.37953168 -0.14654732 -0.22598249 -0.22860157 -0.21254878 -0.26490954 -0.2244873 -0.27957726
-0.30143094 -0.3518868 -0.2575876 -0.3067241 -0.20653225 -0.3465306 -0.3220681 -0.38867718
-0.24751927 -0.40581727 -0.3646118 -0.15841334 -0.22708136 -0.2938364 -0.22123773 -0.22237359
-0.34373993 -0.27096894 -0.32928464 -0.2736384 0.003278943 0.102305114 0.21764539 -0.117403425
-0.045703117 -0.027732823 -0.21983306 -0.20889288 -0.17614077 -0.05192471 -0.05888069 -0.1422471
0.11706356 0.11269989 0.16773091 -0.21123518 -0.18415365 0.013963986 -0.37322736 -0.47951016
-0.5218672 -0.32988182 -0.37602112 -0.2545318 -0.16363704 -0.08752775 0.12846614 -0.3298786
-0.2884198 -0.4323485 0.08131578 0.09322558 0.1343493 -0.07603026 0.028420327 0.13593674
-0.4935346 -0.561163 -0.46550947 -0.16260523 -0.13273469 -0.20557834 0.03783771 -0.053868745
-0.023394141 -0.0217366 0.11968066 0.047760855 0.12932955 0.20487688 0.234882 0.04198474
0.017737336 0.08528822 0.22384006 0.27746144 0.28476548 0.18027654 0.23385385 0.29804862
0.23436804 0.20540497 0.024715854 0.35334715 0.46213207 0.43342912 0.012235756 -0.05910007
-0.27593812 0.18596686 0.23275566 0.0768655 0.025994714 -0.019912614 0.006093149 0.15743583

cell_list.1.conv_can.weight f4 [10, 20, 3, 3]
00000000: 3389 fbbd 6c37 4dbe 9df0 78be eb03 c03d
00000010: c214 8c3c 2b21 97bd ebbc 7a3e 43ab 243e
00000020: 173a 3e3e 5f23 523e 402a 923e dd76 813e
00000030: d217 903e 482e c93e fe3a bf3e 4116 3f3e
00000040: 8fc2 0b3e 962f fa3d 399a 953e cd0d 9f3e
00000050: 6b8b d33e a171 df3d ff7b 943e 7a54 943e
00000060: 60b9 78be 17ca 08bd 8a92 20be 56cb b63e
00000070: 6384 a23e 4ca0 a23e f25f 46bd 19db cbbd
00000080: d47a 78be 8436 e6bd 5e59 ce39 017e 4cbe
00000090: aa73 0e3f 921f 233f 3b73 203f a9fb b53e
000000a0: 634c eb3e 1f3a eb3e a967 133c a217 a33d
000000b0: 0e66 583d 749f 1cbe 8cb8 0dbe 5afa 80be
000000c0: ec04 7a3e 2dbf 9e3e 29c7 843e 2bc0 b43a
000000d0: f779 65bc efdc 83be 3797 6abd d9a2 4cbc
000000e0: 7466 a0bd 0e19 bb3d 0bfc a93d 2f6f 663d
000000f0: 6835 8f3e d21f 7d3e 0406 b93e 0c88 83be
00000100: d0ca 05bf 11a0 34bf 3a65 233e f69c 21bd
00000110: 17f5 8bbe d5df 583d 65c8 0dbe f621 dfbe
00000120: fbdc d5bd 0c40 88bd 3a40 c83c de81 283e
00000130: 1430 843e 24ea e43e 3342 ac3d cc33 783e
00000140: 16af 763e 81a1 5cbe 961e e5bd fd51 87be
00000150: 6378 33bf d5f1 30bf 9fed 2bbf 2022 00bf
00000160: b38e 15bf 70ab d8be 8394 72be 1734 48be
00000170: 326a 8fbd 1ec9 a73d 6dc3 6e3e 867d b73e
00000180: d246 d5bd 20d4 733e 56cd e13e 5920 9dbe
00000190: e910 41be 0352 2abe d3ff 223e 5346 703e
000001a0: 4720 233e c548 f43d 937d 693e f38a c03e
000001b0: 0dc5 d23d a678 c03e 6ad2 ee3e 0b54 0d3e
000001c0: 5917 7e3e 35fc 783e 2533 d03c b520 163c
000001d0: b729 023b ac81 9cbe 53dc d5be d352 a3be
000001e0: 2f25 913d 68d5 e1bb aaa8 253e ea9d b6bc
000001f0: 91d2 273e b9de e33e 9439 91be e9c2 67be
00000200: e63a 92be a404 58be 693d 21be 59d2 273c
00000210: 8370 32be 469f 233d 2c36 503e d321 2c3d
00000220: 8b6a 703e 0a31 ac3e 3f67 3e3e 62bb b53e
00000230: 736c fa3e b644 81bd c0c5 243e 7a34 f43d
00000240: fe22 96bc fd20 6c3e 7253 573e 250e 013e
00000250: d002 943e fc6e dd3e 0856 fabd 9ca3 18bd
00000260: 1c83 fabb 6ec7 b4be 9337 f2bd 9441 72bc
00000270: 7933 ba3d f751 893e f42b b73e 1f70 003e
00000280: 1348 743e 72cd 9a3e 6ef7 c4bd bc9a a83c
00000290: 215a 273e 6fa6 e83d 5ee1 813e 38d9 ab3e
000002a0: 1ccc 4f3d 0efa 483d 097c 8e3d 6eff 85bd
000002b0: 14e5 a03d 3b53 473d c88e 9c3e eb2d 8c3e
000002c0: 7fdc 243e 50bd 783e 3007 363e 9ff4 763d
000002d0: 28be c8ba b012 09bd 08cc 0fbe 402c 8a3d
000002e0: 6d29 a83d a9d2 5f3c 5b9f 3b3e 4b21 2d3e
000002f0: 3f81 563e 4649 513e eab7 c73e 86b9 bc3e
00000300: 431b 6b3e a799 8c3e eed0 6e3e 3f44 cc3d
00000310: 9518 423e 15e9 c03d f57c ab3e aa22 083f
00000320: 62c1 0f3f 723d 733e fba9 693e 979e 833e
00000330: 4511 0bbe e82c cebd 5e85 6bbe 872d 9f3e
00000340: e655 cc3e 1f92 9d3e 3fb5 813d b115 f73a
00000350: 9531 ccbd a98c ac3d 4ab3 e33d ed3b 333e
00000360: 0e71 c93e 7630 f73e 8905 0e3f 638b a03e
00000370: e0a9 813e 40ef 1e3e 9f13 c23d f187 8a3d
00000380: cb64 1fbd a3a2 f23e 4e90 b53e 48ff 11bd
00000390: 6e5d fb3e bff7 923e 0ea7 953e b549 d43d
000003a0: 0c96 16bd 7de4 f3bd 2077 9cbe 5102 90be
000003b0: 9af0 8abe a3e2 f83a 4a19 993d 7e04 d03d
000003c0: 8fb7 b83d f7cc 143e 98c8 963e 6b8a 34be
000003d0: 7cbb cebe 8b8e e1be 878d cd3e fc4f 003e
000003e0: 8608 4d3e 7b90 013e 8802 1dbe 9ad3 01be
000003f0: 2507 93bd d533 50bd 9e07 6cbd ccdb 383e
-0.12282028 -0.20040673 -0.24310537 0.09375747 0.017099742 -0.07379373 0.24486129 0.16080956
0.18576847 0.20521306 0.2854786 0.25285998 0.28143173 0.39293122 0.37349695 0.18660833
0.13648437 0.122161075 0.29219225 0.31065217 0.41317305 0.10910345 0.29000852 0.289707
-0.24289465 -0.033395853 -0.156809 0.35702008 0.31741628 0.31762922 -0.048431344 -0.09953899
-0.24265605 -0.11240867 0.00039357966 -0.19969942 0.5564524 0.6372005 0.6267583 0.35543564
0.45956716 0.4594278 0.0089968825 0.07963492 0.052831702 -0.15295202 -0.1383993 -0.25191003
0.2441594 0.3100523 0.25933197 0.0013790181 -0.0140061295 -0.25754496 -0.057273116 -0.012489998
-0.078320414 0.09135638 0.083000265 0.056258377 0.27970433 0.2471917 0.36137402 -0.25689733
-0.5226259 -0.7055674 0.15956584 -0.03945633 -0.27335426 0.052947838 -0.13845976 -0.43580598
-0.10442539 -0.06652841 0.024444688 0.1645579 0.2581793 0.44709885 0.08411064 0.24238509
0.24090227 -0.21545984 -0.111874744 -0.2642974 -0.7010557 -0.69119006 -0.67159456 -0.5005207
-0.58420867 -0.42318296 -0.23689465 -0.1955112 -0.07002677 0.08192657 0.23316737 0.35837954
-0.104138985 0.23811388 0.4410197 -0.30688742 -0.18854107 -0.16632847 0.15917902 0.23464327
0.15930282 0.11927942 0.22801809 0.3760601 0.10291491 0.37592047 0.46644908 0.13801591
0.24813594 0.2431496 0.025415013 0.009163071 0.001986129 -0.30567682 -0.41769657 -0.31899127
0.0708717 -0.006891895 0.16177621 -0.022292096 0.16388918 0.4450586 -0.2836424 -0.22632946
-0.2856056 -0.2109552 -0.15746082 0.010243022 -0.17425732 0.039946817 0.20333165 0.042024445
0.23478143 0.33631164 0.18594073 0.35494524 0.48910865 -0.06311934 0.1609106 0.119240716
-0.018327232 0.23059459 0.21027926 0.12603052 0.28908396 0.43248737 -0.122234404 -0.037265405
-0.007645024 -0.35308403 -0.11827006 -0.014786143 0.09091849 0.26820347 0.3577572 0.12542771
0.23855619 0.30234867 -0.09617506 0.020581596 0.16342975 0.1135987 0.25367254 0.33564162
0.050731763 0.049066596 0.069572516 -0.0654286 0.07856193 0.04866336 0.30577683 0.27378783
0.16099738 0.24290967 0.1777618 0.060291883 -0.001531546 -0.033465087 -0.14042675 0.06746721
0.08211026 0.013661065 0.18322508 0.16907232 0.20947741 0.20438108 0.39007503 0.36860293
0.22959618 0.27460977 0.23321888 0.099739544 0.1895469 0.09419457 0.33493772 0.53177893
0.56154454 0.23753908 0.22818749 0.25706932 -0.13580807 -0.10067159 -0.23000094 0.31089422
0.39909285 0.30775544 0.06333398 0.0018851069 -0.099703945 0.08425266 0.11118181 0.17503329
0.39344066 0.4827916 0.55477196 0.31356344 0.25324917 0.15520954 0.09476399 0.0676421
-0.038914483 0.47389707 0.35461658 -0.035643846 0.4909472 0.2870464 0.29229015 0.10365621
-0.03676419 -0.11908815 -0.30559635 -0.28126767 -0.2713669 0.0018988441 0.07475527 0.10157107
0.09019386 0.14531313 0.29449916 -0.17630927 -0.40377414 -0.44054064 0.4014704 0.12530512
0.20022783 0.12652771 -0.15332997 -0.12678376 -0.07179097 -0.05083068 -0.05762445 0.18052596

cell_list.2.conv_gates.weight f4 [20, 20, 3, 3]
00000000: 0f2a 613e 329f a53e 105b 6d3e 936d a93e
00000010: 3373 c03e 0eea 683e 7ff9 163e ee4d 113e
00000020: 5020 49bc 61f2 17bd 03f6 34bd 1d52 49bd
00000030: 4e31 2cbd 126b bd3b 0cfd 32bd 19d7 173e
00000040: 33fc 9c3d 8297 773e a61d 29be 5549 3ebe
00000050: efa3 82be 62fe 32bd c0e7 a8bd 59a4 34bd
00000060: e483 8f3e b5db a63e aad3 b43e 6272 603d
00000070: e215 503e a157 7c3e 0285 9d3e 708b fb3e
00000080: c84b cb3e 4b9a 103e 3baf 913e e902 963e
00000090: 3d1d 0c3e a3a4 563e 1b3a 463e 8cb7 fd3d
000000a0: 0c93 9e3e 28b5 963e 8a58 233e 6af2 993e
000000b0: 7509 fd3d 42fd eabc 8bc1 94bd 932d edbc
000000c0: 479e 4fbe c6c1 72be a8de 52be 479c 5dbe
000000d0: 7451 57be 2da8 acbe 2dc5 a53c f5bf 1a3d
000000e0: e119 d43d 4953 f7bb 5099 6d3d ac2a d23d
000000f0: b7c7 adbd 9c16 0ebe 2df4 073c 82be d13d
00000100: 5603 993d dfd0 e0ba 5791 90bd 59f4 80bd
00000110: a54c 64be 15a3 c8be 7fb1 84be a375 abbe
00000120: 4f78 5b3e 82ea ac3e 0bf8 373e 1ef7 62be
00000130: 13de 4cbe e355 f5bd f8c1 7cbe 047a a7be
00000140: 13ca 8cbe c768 52be cf6a 66be 8e8f 50be
00000150: 0ed6 6bbe f78d 70be 2cc4 a6be 8307 0cbe
00000160: b0c2 16be e835 51be 1d11 c33d bbe5 c63c
00000170: 5f35 df3d 5778 4e3e 854f 573e fa4e 363e
00000180: 2e6f b93e 066f 9d3e 794f 873e 74bc c5bd
00000190: 1cac c8bd 105c 1dbe 93f6 57bd 85a9 5ebe
000001a0: 6e98 4fbe 4b01 ccbd 3f81 51be 149f debd
000001b0: 7fc5 973d bf34 473e 41db 9c3e 422f 063e
000001c0: 6c2a 353e 28a0 a23e acd3 973d 24dd 79bd
000001d0: 3f24 37bd 3504 253e 5c23 793e 213e 7a3e
000001e0: ed9d 393e 2ccf 133e 6b22 943e 9115 a53d
000001f0: 8b41 2d3e 1e72 163e 00dc 0bbe 8137 debd
00000200: e8d1 23be e46a 0b3d aa36 fe3d 3571 c73d
00000210: 69f2 0e3e d430 5a3e d8c7 843e 4a55 86bd
00000220: 14fa 24be 54a8 19be 6065 30be 9649 71be
00000230: a8ed 33be 5d56 0abe 957f d3bd 24f0 2abe
00000240: d632 023e d1e3 2b3e 9c49 463e 6938 863e
00000250: 0cb1 ab3e 07b8 ce3e 9b3f 913e 1490 a93e
00000260: 19fb b83e a4ad 313d c87a af3d 7d76 d1bc
00000270: 345e 123d 9370 1a3e cb4d cd3d fecb 1b3e
00000280: a551 893e bc88 9a3e dd2f a6bd 07c4 f5bc
00000290: 05f0 aebd 5006 35be 012b 8fbe d150 86be
000002a0: 3311 29be 8bd2 88be c99e 6ebe 8d03 c33d
000002b0: c06d ac3d ffd8 5e3d 8dc2 a6bd 16a1 e9bd
000002c0: 9f11 16be b450 9bbe 2e0d 97be ab21 7dbe
000002d0: 2c37 bd3d 85fc 053e 3665 0c3e c08b 4b3e
000002e0: 0b1d ba3e 2453 883e 8a73 5a3e fc0b b83d
000002f0: bf95 893d d168 593d d13f 863d 3800 7c3d
00000300: de32 1fbc 8a28 96bd e75e c2be db37 6cbd
00000310: 6618 523c d09b 8d3d 0eea d3be 90b7 d0be
00000320: 8302 cebe ef9e 60be 947e c0be 1a5b 82be
00000330: 9b0d 313e 5c59 183e d019 073e 60df 03bd
00000340: 1308 243e 303c c43d da52 553e 22d2 f83d
00000350: 6b91 5e3e 4623 56bd 169b 9d3d 095f 993d
00000360: 7c13 fc3c c097 993d 8462 cb3d 09cf b33d
00000370: 7241 243e 1641 6b3e 2cef d93d 8f10 843d
00000380: da41 233d 0f74 2d3e 660d 523e 975a ba3d
00000390: d77b 00bd ec14 eabd ae6c 91bc 5a8d 543d
000003a0: deac e2bd c605 a7bd d944 c13d fc4a b33d
000003b0: d3c8 543e ef9b 2f3e e302 b23d 9edd e73d
000003c0: bc34 37be 11fa 02be b92f c0bd 2a00 9c3e
000003d0: 5e06 af3e c7f9 893e 4ee2 9ebb 483b c13d
000003e0: 3afa de3c e971 40be 7243 6fbe b04d 22be
000003f0: 04eb a33e 1fa9 e43e 9885 9d3e d146 ba3d
0.219887 0.3234802 0.23179269 0.3309141 0.3758789 0.22745535 0.14743613 0.14189884
-0.01227577 -0.037096385 -0.044179928 -0.049150575 -0.042039208 0.005780586 -0.043698356 0.14828147
0.07665291 0.2417889 -0.16515216 -0.18582661 -0.25515696 -0.04369963 -0.08247328 -0.044102047
0.28030312 0.32589498 0.35317737 0.054796584 0.20320848 0.24642803 0.3076554 0.4912982
0.39706254 0.14121358 0.28454003 0.29299095 0.13683029 0.20961241 0.19358103 0.123885244
0.30971563 0.29435086 0.15951744 0.3006776 0.123553194 -0.028685216 -0.07263478 -0.028952396
-0.20275222 -0.23706731 -0.20592749 -0.21641646 -0.21027166 -0.33722058 0.020235622 0.03778072
0.103564985 -0.00754777 0.05800754 0.10262045 -0.08485358 -0.13875812 0.008297962 0.102414146
0.074713394 -0.0017152092 -0.070589714 -0.062966056 -0.22294863 -0.39186922 -0.2591667 -0.33488187
0.21432613 0.33772665 0.17965715 -0.2216458 -0.2000659 -0.11979272 -0.24683368 -0.32710278
-0.2749792 -0.20547782 -0.22501682 -0.20367262 -0.23030874 -0.23491655 -0.32571542 -0.1367474
-0.14722705 -0.2043072 0.095247485 0.024279466 0.108988516 0.20163094 0.21026428 0.17803565
0.36217636 0.30748767 0.2642782 -0.09655085 -0.09798452 -0.1536715 -0.052725386 -0.21744354
-0.20272991 -0.09961184 -0.2045946 -0.108701855 0.07410716 0.19453715 0.30636027 0.13103965
0.17691964 0.31762815 0.0741342 -0.06100191 -0.0447123 0.16114886 0.24329895 0.24437763
0.1812665 0.14434499 0.2893251 0.08060754 0.16919534 0.1469197 -0.13658142 -0.1085043
-0.15998042 0.034037486 0.1241277 0.097383894 0.1395966 0.21307689 0.2593372 -0.06559236
-0.16111022 -0.15005618 -0.17226171 -0.23563227 -0.17571127 -0.13509507 -0.10327069 -0.16693169
0.12714705 0.16786124 0.19364017 0.26214913 0.33533514 0.40374777 0.2836884 0.33117735
0.36129072 0.043378487 0.085683405 -0.025569195 0.03573437 0.15082006 0.100246035 0.15214536
0.26820102 0.30182445 -0.08114598 -0.0300007 -0.08541874 -0.1767819 -0.27962497 -0.26233533
-0.16510467 -0.26723132 -0.23302759 0.09522162 0.08419371 0.054406162 -0.08142576 -0.11407678
-0.1465516 -0.3033501 -0.29502243 -0.24719875 0.09239039 0.1308461 0.13710484 0.19877529
0.36350283 0.2662593 0.21333137 0.08986661 0.06718015 0.053078476 0.06555141 0.061523646
-0.0097167175 -0.07331951 -0.3796303 -0.057670455 0.0128232 0.069144845 -0.41389507 -0.40765047
-0.4023629 -0.21935628 -0.3759657 -0.2546013 0.17290346 0.14877838 0.1319344 -0.03219545
0.16018705 0.09581792 0.20832387 0.12149455 0.2173516 -0.052279733 0.07695596 0.0748883
0.03077101 0.07499647 0.099309 0.08779723 0.1604059 0.22974047 0.106413215 0.06448471
0.039857723 0.16938804 0.20512924 0.0909931 -0.031368103 -0.11429772 -0.017752018 0.051892616
-0.11068128 -0.08155398 0.0943696 0.087545365 0.20779733 0.17149328 0.08691957 0.11321567
-0.1789121 -0.12790705 -0.093841024 0.30468875 0.34184545 0.26948377 -0.004848755 0.09435135
0.027218927 -0.18793453 -0.23365572 -0.15849948 0.3201524 0.4466028 0.30765986 0.090955384

cell_list.2.conv_can.weight f4 [10, 20, 3, 3]
00000000: a7fb 1c3e c66d 873e 7573 133e 1430 903e
00000010: 856f d43e 3e6d 263e e9a3 bc3e 7416 dd3e
00000020: 7a16 7a3e f5f6 92bc de82 a63c a897 253e
00000030: 94fc fe3d 7fa9 963e 26ce c83e 6b6a 243e
00000040: 0439 1c3e 684c 893e 346e 39be 2609 3dbe
00000050: ba91 2bbe 4d66 03be 6551 a2bc 43ac 993c
00000060: afb4 8b3c a57f 013e 235e a73d 9755 113e
00000070: 7e43 323e 7c8f aa3e 512c 603e f784 963e
00000080: b4ab 773e ee69 913e 4d75 cc3e 700d e93e
00000090: e788 773e 0e30 9a3e e520 b93e f6a3 2e3e
000000a0: 99a1 c03e 2dfe 743e 621e 7f3e b64a 973e
000000b0: 50e0 3a3e 20f7 abbc b1e2 1dbe 21fa 0dbe
000000c0: f035 13be 0782 65be ea52 9ebe b28c 7cbe
000000d0: ebc2 0bbe 552d a8be f283 ccbd 9758 34be
000000e0: 4bb4 bfbd 53a3 d9bc 1c8e 28be cf33 acbd
000000f0: 4379 e5bd 2bd2 55be 36bc 54be 5d77 10be
00000100: 050e 0abe 1563 38be 46f5 3abe 641f b7be
00000110: 913e 80be 3b96 8dbe 6a71 7bbe 9d96 49be
00000120: f244 4f3e 6de2 2e3c afd6 cc3d d653 623d
00000130: bfec 0bbe 7b09 7dbe d3ee 18bd b3b6 acbd
00000140: 1219 c0bd d9fe 7abe e1f6 89be ddc2 debe
00000150: 5ddd ffbd 0360 19be d183 09be ec3d eebd
00000160: 18fc 83be 336d 9bbe 8a2a c2bc 5dbf 70bb
00000170: 9622 993d 2c9c 623e 2268 953e 86ef 863e
00000180: 6d84 633e 4835 683e a14d b43e cd50 ce3d
00000190: de39 d43d dad8 893d 4951 81bd af3a 0fbe
000001a0: 5bd4 53be 9b5a 72bd 4148 1bbe 93ea 05be
000001b0: ee39 ffbd 4cfe 42be d6df 13be c7f9 9abd
000001c0: 7196 913d b34f 803e aa41 c8bd c74d 2cbe
000001d0: 940a fc3d f2d7 11be 40de 19be be13 cdbd
000001e0: 0a13 313e babd f33d f361 763e fa28 00be
000001f0: 248d 01bd 89a0 8b3d 29d1 043e 80b7 4e3e
00000200: 9e88 293e 732c 3e3e 50a1 493d 120d 293d
00000210: 21fe dc3e 7de7 b83e 87ea 973e cbae fcbb
00000220: bca8 843d f29e 89bd d794 b3bd f285 febd
00000230: 14f5 b1be 71d4 0cbe c6cc 35be 2c4f 7bbe
00000240: cb33 59bd 368d babc 5060 84bd 0fb4 453d
00000250: cae9 803d 7fa7 263e ad51 823e ae18 523e
00000260: ec0c b03e c1e2 553e 00a7 333e 2e42 663e
00000270: bb79 343e d3f1 413e b3e8 693e 7131 0f3e
00000280: 5b6b 2b3e 1d79 9c3e b6d4 ca3c 5962 e53d
00000290: ce6c 0e3d ab43 6dbe c1a3 76be f681 b3be
000002a0: 9fa3 d8bd 65d6 85be 5edf 86be e8ed aabd
000002b0: 77f3 38bd 4e4b 97bd 501a 68be be22 25be
000002c0: 4451 2cbd 0c79 7ebe fde6 95be 59da 93be
000002d0: 75a1 0abe e384 dbbe 2c77 d2be 0cbc 83be
000002e0: 8319 5ebe de3f dc3d caef 433c ceb4 a13d
000002f0: 607c 1e3e 787b be3e 41e3 713e b96c 5a3e
00000300: de36 243e 3924 303d 32b4 c8bc 9ef9 84bd
00000310: c83c aebc 76fb ddbd 360e 103d 3668 0c3e
00000320: 1a89 a93d ec91 483e a998 0a3e a471 923d
00000330: b20c 17be 8987 74be c29f e3bd 9ac9 593e
00000340: f74f b93d 0c06 be3d 308b e8bd 093f 91be
00000350: 3ac9 6abe 1b22 61be 3f48 85be 9238 59be
00000360: 0a98 4f3e dc2b d7bd fb08 91bc 84b5 8e3d
00000370: 18f6 babd 85b2 1abd cf1b cebd 16eb fcbd
00000380: 23c3 16be 5a51 96bc 15ea 1ebe 0501 08be
00000390: 7390 283e ce5c 003e e2e5 f53d 7ea2 da3c
000003a0: c930 153e c867 2b3e 5a05 7b3c e4e6 cfbd
000003b0: 2d36 4dbe a679 3abe 2d3b 98be e3fb bcbd
000003c0: 6670 b43d e16e ad3d 8e92 cd3d b6d0 20be
000003d0: 72a7 56be d843 3bbe 66f3 86bc d85f 133e
000003e0: 7009 003e 0345 413e 08a1 4e3e 9ce4 3e3e
000003f0: d09e 50bd e8b7 bebd 278a 0cbe 83dd 873c
0.15330373 0.26450938 0.14399512 0.2816168 0.41491333 0.1625261 0.36843804 0.43181193
0.24422637 -0.017940024 0.020326074 0.16171134 0.12450519 0.2942619 0.3921978 0.1605622
0.15256125 0.26816106 -0.18108445 -0.18460521 -0.16754809 -0.12831993 -0.019814203 0.018758899
0.01705393 0.12646349 0.08172252 0.14192806 0.17408559 0.33312595 0.21891905 0.2939832
0.24186593 0.2840113 0.39933243 0.45518064 0.24173318 0.30114788 0.3615791 0.17054734
0.3762329 0.23925085 0.24913934 0.29549187 0.18249631 -0.020991862 -0.15418507 -0.13864948
-0.14376044 -0.22412883 -0.30922633 -0.24663046 -0.13648574 -0.32847086 -0.09986104 -0.1761192
-0.0936056 -0.026567137 -0.1646046 -0.08408319 -0.112047695 -0.20880954 -0.20774922 -0.14108033
-0.1348191 -0.18006547 -0.18257627 -0.35766137 -0.25047734 -0.2765368 -0.24554983 -0.1968636
0.20241144 0.010674101 0.10001885 0.055255733 -0.1366453 -0.24710648 -0.037337136 -0.084332846
-0.09379782 -0.24511279 -0.26946166 -0.43508044 -0.124933936 -0.14978032 -0.1342919 -0.116329044
-0.2577827 -0.3035675 -0.023701925 -0.0036735155 0.074773 0.22129887 0.2918101 0.26354617
0.22218485 0.22676575 0.35215476 0.10074005 0.103626 0.06730814 -0.06314332 -0.1398723
-0.20686476 -0.05916844 -0.15164281 -0.13077764 -0.12462221 -0.19042319 -0.14440855 -0.075671725
0.071087725 0.25060806 -0.097781494 -0.16826545 0.12306705 -0.14242533 -0.15026188 -0.10013531
0.17292419 0.11901422 0.24060802 -0.12515631 -0.031628743 0.06817729 0.12970413 0.20187187
0.16556022 0.18571644 0.049226105 0.04127223 0.43162635 0.36114112 0.29671118 -0.0077112666
0.06477496 -0.067197695 -0.08768623 -0.12427892 -0.34757292 -0.13752915 -0.17753896 -0.2454192
-0.05302791 -0.022772413 -0.06463683 0.04826742 0.06294592 0.16274832 0.2545294 0.20517227
0.3438486 0.20887281 0.17544174 0.22486183 0.17624561 0.18939905 0.22842674 0.13983704
0.16740172 0.30561152 0.024759632 0.11200399 0.034771733 -0.23170345 -0.24085905 -0.3506009
-0.10578083 -0.26140133 -0.2634229 -0.08346158 -0.04515406 -0.0738741 -0.22666287 -0.16126534
-0.04206969 -0.24850863 -0.29277793 -0.28877524 -0.13538153 -0.42874822 -0.41106546 -0.25729406
-0.2168942 0.10754369 0.011959026 0.07895814 0.15477133 0.37203574 0.23621847 0.21330537
0.16036555 0.043003295 -0.024499986 -0.06492923 -0.021269217 -0.10838978 0.035169803 0.13711628
0.08278103 0.19586915 0.13534798 0.071505815 -0.14750937 -0.23879828 -0.11114456 0.21268311
0.09048455 0.09278497 -0.11354673 -0.28368405 -0.22928324 -0.21985666 -0.26031682 -0.21212986
0.20272842 -0.105064124 -0.017704478 0.06968215 -0.0912897 -0.037767906 -0.10063898 -0.123495266
-0.14722876 -0.018349338 -0.15518983 -0.13281639 0.16461353 0.12535402 0.12006737 0.02668881
0.14569391 0.16738808 0.0153211 -0.10151461 -0.20040198 -0.18210468 -0.29732648 -0.09227731
0.08810501 0.08468414 0.10037719 -0.15704617 -0.20962313 -0.18287599 -0.016473483 0.1439203
0.125036 0.18873982 0.20178616 0.18641895 -0.050932705 -0.09312421 -0.13724576 0.016585117

cell_list.3.conv_gates.weight f4 [20, 20, 1, 1]
00000000: 10e6 17bf 04cf 4f3e eea8 d9bd 9513 863e
00000010: ecd0 373e 9ced a4be 2dcf 1fbf 7966 2dbe
00000020: 4fb5 f0bd 6148 d8be a9d6 f8be 13a6 f83e
00000030: d971 bc3e 174d 06bf eae4 183f 0de9 223f
00000040: 4997 943e b035 5d3e 3745 28bf 3dea 40be
00000050: b1b3 353c f2a4 b03d 2f94 933d 5d5f a03e
00000060: dda8 523e f9c4 f8bd 4c8e 17be c3c7 aebd
00000070: d0fe 08be 80e9 a5bd 7147 b93d e896 913e
00000080: ab90 1f3e 0d81 75be 1dcb 4bbd 89d9 c23e
00000090: 1442 d73d b733 943e bc89 b4be dcff bcbe
000000a0: dc7e 08bf 449a 0c3f adb3 d23c 9e9f d13e
000000b0: 1110 af3e eef0 13bf e370 98be 304c de3d
000000c0: 6a58 4ebe b3fa 9dbe 065b 35be 2d94 a23d
000000d0: 8f4c 353e 7d07 f8be a101 31bd 18b3 a53e
000000e0: 220b cb3e 4799 943e d667 eabe 1f8b b8be
000000f0: 3e3a f4be 1d76 c63d d974 e23e 617e bd3e
00000100: a19e 8ebd 7371 26be d88b 1cbf a850 79be
00000110: 7a59 d53b 9ed0 5fbe ebe4 4abf 8e18 163f
00000120: 5900 0c3f 51e5 01bf c691 0d3f 0f99 2a3f
00000130: af3d ca3e 4ea6 cd3e a328 43bf c3e1 21be
00000140: 8ef8 b5be abba af3e 2c84 183e bbee d93e
00000150: 4e48 5f3e 45b7 a0be 6776 0dbf a9e1 68be
00000160: 3e6b b7be f8c2 fbbe e62c cdbe d1ff c33e
00000170: eeb1 573d 98ef 1abf ba90 d53d 2956 563e
00000180: f987 1c3f 2520 9a3e 3497 42bf 7715 80be
00000190: b05c 09bf f516 753e 62eb d83e 2381 e93e
000001a0: 9e72 fc3e 59ec 61be e7f7 24bf 21b9 09be
000001b0: 41cc 94be a812 04bf 3c06 2fbf b59f 023f
000001c0: 9227 1cbc f078 18bf b81c de3e 6c5b e83e
000001d0: 8ccc 3d3f 07cd d13e 23e3 55bf 0123 a3be
000001e0: 6b18 f2be b810 4d3e 2540 cc3d a89e ea3e
000001f0: 659e fd3d 9a16 c1be 983b 20bf cf06 2fbe
00000200: 85b8 11be 5196 9bbe e33d 0dbf 2539 0c3e
00000210: f6e0 8b3e 328a eebe 3449 663e 54bd e33e
00000220: d0c9 253f ccfb 333f 0c9c 20bf 07cb ddbd
00000230: 00a7 3fbf 95f2 c23e 9dd0 0dbd e9b2 063f
00000240: 7184 273e b612 b2be efe0 46bf a281 85be
00000250: 844a 84be 0c18 debe ceae 41bf e5eb 0f3f
00000260: 600c fe3e 84fb 61bf 7a7b f73e 21c7 193f
00000270: e890 623f f2fd 4a3f bbe5 51bf 085c 2dbf
00000280: 5d04 03be 2dc0 e93c fc80 ce3d a739 963d
00000290: 13dd 323e e462 07bf 8325 bdbe 3d05 233d
000002a0: 66e0 44be 5623 7cbd ded2 abbe 0bbc 8d3e
000002b0: eee4 ef3d 7e00 2cbe 82df 883e 96c1 d63e
000002c0: 34a4 7f3e f102 8c3e b5eb 04bf 5b91 a9be
000002d0: 2de0 19bf 6690 843e 467d a6ba ef24 fc3e
000002e0: 70b4 87bc 2656 a9be 47e1 b4be 2a61 1c3e
000002f0: 49e5 91bd 2683 08bf 4c52 0cbf a45e 933e
00000300: ba3a b63e c961 debe 623e 7c3e 4d0f e23e
00000310: 7ab2 073f 6463 843e 071d 12bf 7c66 3cbe
00000320: cf60 64be 6b05 c33d 6c59 203e aee9 813e
00000330: 54b9 163c fcd0 84be 7b33 e1be c9b9 6bbe
00000340: e377 4dbc 46e3 96be 3bd6 86be 62bf a83e
00000350: ece3 113e e799 c4bd 77c5 8f3e 9b83 d73e
00000360: d8d1 153f f1b1 233f 2ece 8fbe 46c9 68bd
00000370: f330 b0be 6799 b3bd 996f dbbc c01e 443e
00000380: 534c 9abe 6035 813e a143 78be e074 0abe
00000390: fe7e bb3d 7492 2fbe a1a3 8e3b 1085 4c3e
000003a0: 951c 3abe d26b 203e f394 c3bd 446e bf3e
000003b0: 1c06 4d3e 5977 643e 62c3 92bd 2587 f93d
000003c0: c92b 2a3e 7303 5e3e 5756 cf3e 53ce 853e
000003d0: b813 673e a6c7 58be 5083 20be 045d 10bd
000003e0: c04a 12bd e5a7 523e a08b 513e 9662 22bd
000003f0: 697e ed3d 30bc 483e dcdd 433e 77cc 8f3e
-0.5933542 0.20293814 -0.10627924 0.26186815 0.17950791 -0.32212532 -0.624255 -0.16933621
-0.11753332 -0.4224272 -0.48601273 0.48564205 0.3680561 -0.5246138 0.59724295 0.6363686
0.2902167 0.21602511 -0.65730613 -0.18839355 0.011090205 0.08625211 0.07205998 0.31322756
0.20572229 -0.121469446 -0.14800376 -0.08534195 -0.13378453 -0.08101177 0.090468295 0.28435445
0.1558253 -0.2397501 -0.04975425 0.3805659 0.1051065 0.28945705 -0.35261333 -0.36913955
-0.5331857 0.5492289 0.025720442 0.4094209 0.34191945 -0.57789505 -0.29773626 0.10854375
-0.20150915 -0.3085533 -0.17710504 0.079384185 0.17704986 -0.48443213 -0.043214444 0.323632
0.3965693 0.2902319 -0.45782346 -0.3604364 -0.47700685 0.09690497 0.44229773 0.37010482
-0.0696385 -0.16254215 -0.61150885 -0.24347174 0.0065109106 -0.21856925 -0.7925555 0.5863122
0.5468803 -0.50740534 0.5530056 0.666398 0.39500186 0.40165943 -0.7623388 -0.15808778
-0.35541195 0.34322104 0.1489417 0.4256495 0.21804926 -0.31389824 -0.5525879 -0.22742333
-0.35824007 -0.49172187 -0.40073317 0.3828111 0.05265992 -0.6052184 0.10427995 0.20931305
0.6114498 0.3010265 -0.7601197 -0.25016376 -0.53657055 0.23934539 0.42367083 0.45606336
0.49306196 -0.22062816 -0.6444077 -0.13449527 -0.29062083 -0.5159097 -0.6836889 0.51024944
-0.009530919 -0.59559536 0.43381286 0.4538225 0.7414024 0.40976736 -0.8354971 -0.31862643
-0.47284254 0.20025909 0.09973172 0.4582417 0.12383727 -0.37712556 -0.6259093 -0.17092441
-0.14230545 -0.3038812 -0.55172557 0.13693674 0.2732007 -0.4658981 0.22488862 0.44480383
0.64761066 0.70306087 -0.6273811 -0.1082974 -0.74864197 0.380757 -0.034622777 0.52616745
0.16359116 -0.347799 -0.7768697 -0.26075464 -0.258381 -0.4337772 -0.75657356 0.5621932
0.49618816 -0.8827441 0.48336393 0.6006947 0.8850236 0.7929374 -0.81991166 -0.67718554
-0.12794633 0.02853402 0.100831956 0.07335215 0.17467146 -0.5288527 -0.36942682 0.039799917
-0.19226226 -0.061557136 -0.33559316 0.27682528 0.11713587 -0.16797063 0.26733023 0.4194457
0.24964982 0.27345994 -0.5192216 -0.3311871 -0.6010769 0.25891417 -0.0012702129 0.49246928
-0.016565531 -0.3307354 -0.35328123 0.1527144 -0.07123811 -0.53325117 -0.54813075 0.28783143
0.3559168 -0.4343398 0.24633172 0.441523 0.5300671 0.2585708 -0.5707554 -0.1839847
-0.22302555 0.09522518 0.15659112 0.25373596 0.009199459 -0.25940692 -0.4398459 -0.2302009
-0.01254079 -0.2947027 -0.2633532 0.32958513 0.14247102 -0.09599667 0.2808034 0.42092595
0.5852332 0.6394339 -0.2808699 -0.056832574 -0.34412345 -0.087694936 -0.026786612 0.19152355
-0.30136356 0.25236034 -0.24244548 -0.13521147 0.09155081 -0.17145711 0.004353002 0.19972634
-0.18174966 0.1566613 -0.09549894 0.37388813 0.20021862 0.22311153 -0.071661726 0.1218398
0.16618265 0.21681003 0.4049556 0.26133975 0.22566116 -0.2116991 -0.15675092 -0.035244957
-0.03571582 0.20571859 0.20463419 -0.0396448 0.115963764 0.19603038 0.19127601 0.28085682

cell_list.3.conv_can.weight f4 [10, 20, 1, 1]
00000000: 0119 fb3c 754c a23d 172a 89be 703b f6be
00000010: f9a9 1bbc 441d 213e da80 0d3f 655a 4f3e
00000020: aafa bdbc db5d 9b3e 9fb5 033f cb58 98bc
00000030: e056 0dbe 8f2f 773e d0d4 b0be 68a4 dbbe
00000040: a67f fbbe 7d88 08bf da7d 0e3e 0d13 5c3e
00000050: f098 263d 9fa3 e63c 6244 983c 2eb9 d3bd
00000060: 14f6 05bd 0925 5ebe c5e8 d8be 09f1 89be
00000070: b390 b2bd 1380 a0be 350c f63d 6215 1f3d
00000080: 9cd2 c83c c4ae e13e abad 57bd 64aa 33bd
00000090: c9d0 b6bd 62eb d2bd 5ea6 50be 091e 5d3e
000000a0: a8ba 783d 3ddd ff3d e8f8 a9be a6a0 3bbe
000000b0: 00ad b1be bdf4 56bd 005c c2be 2ed0 b0be
000000c0: 6df6 1d3d 6963 c3be e1e7 6ebc e3f2 383d
000000d0: 2967 84bd 7430 533e 4b42 2bbe 1068 70be
000000e0: 934b b73b b9f3 abbe d4a2 95be 5adc fe3d
000000f0: b662 ae3e 427e 27be 4a7f 84be b4d8 08bf
00000100: 186e dd3b a422 743e 5919 3d3f 4476 ef3e
00000110: 88c5 8f3d 4736 173f d1f4 323f 36c8 f9be
00000120: 4ccc 02bf 3554 233f 6b84 b2be 7eae 24bf
00000130: deda 9cbe 0442 0bbf e613 fa3e 9716 ac3e
00000140: 55f4 403d 0a40 73be 1ad3 273e 1475 c83e
00000150: 1100 0bbf 114c f73d b049 31bf fa2a e9be
00000160: bb53 57bd ae5d b9be 8ed6 1cbf 8c5b 4c3e
00000170: e2cf d23e 9285 fa3b b1ef e93e b65e e73e
00000180: 82ed c53e b0c5 1e3e 2628 533e f1c6 853e
00000190: 1547 eabe af88 5fbe 1cb0 5d3e 7e8e b03e
000001a0: 6590 55be b342 3dbd 1acd 20bf 45b8 14bf
000001b0: efb7 06bd 6dbb 3abf d548 03bf 7f51 bb3e
000001c0: 03dc f73e 8058 22bf 1836 3d3f 521e 153f
000001d0: 7a58 193f 9186 1c3f 13f2 fcbe 16f5 b3be
000001e0: 7cfd 4ebe 43a1 41be 49ac cf3e 1a27 1b3e
000001f0: 221c 09be 2f27 2f3d 0158 57bf e297 68be
00000200: 41df c33d 3c1e 1bbf 751f 0abf c973 9b3e
00000210: a5e1 1d3f 8c1d 58be c524 363f 968c 3f3f
00000220: 02cb 133f ed16 c63e 1d35 3abe ea6e a2be
00000230: 7fee b7be 795e 9d3e 1cf3 3dbd 6903 b93e
00000240: a92c 83bd cf08 3dbe 062c 05bf ebb0 2bbe
00000250: ba81 08be 8605 39bf 4883 afbe 8fc8 a83e
00000260: ea1c 133f f440 a4be bfc9 9c3e f03a 283f
00000270: 0e9d ee3e 3280 333f 0dd1 e8be 6a53 e7be
00000280: 2818 e63e 6035 e0be f9d1 81be edd2 0dbe
00000290: 5559 d2bc 1b43 ed3e 4e3b a23e c1dc e63d
000002a0: 3fb4 0e3e f8ec 1f3f 17f8 e9bb 7312 ecbd
000002b0: ce77 64bd 0637 e5bc cbee 1bbd 9280 2f3e
000002c0: 5d42 3e3e 12fb ad3e 61a2 843e 1a7d 9f3e
000002d0: 77b1 413d 1dbb 593d cbed 903d 28d7 6e3e
000002e0: 8612 213e 8d62 fd3c 46d3 8abe c0d4 79be
000002f0: efd4 1c3e a1b3 003e 4d4b 803a 6869 babe
00000300: af57 f6bd 2236 86bd faf5 33be 6ce7 0a3e
00000310: 3751 9fbe 38a9 fabd 0480 033e 5d32 083e
0.030651571 0.07924739 -0.26789925 -0.48092222 -0.009500974 0.1573382 0.55274737 0.20249327
-0.023190815 0.30345044 0.51449007 -0.018597027 -0.13802671 0.24139236 -0.34537363 -0.4289887
-0.49120826 -0.53333265 0.13915196 0.21491642 0.040673196 0.028154192 0.018587295 -0.103380546
-0.03270538 -0.21693815 -0.4236509 -0.26941708 -0.087190054 -0.31347713 0.12014047 0.03883875
0.024514489 0.44078648 -0.052655857 -0.04386367 -0.08926541 -0.10298802 -0.20375964 0.21593489
0.060724884 0.1249337 -0.33197713 -0.18323001 -0.347023 -0.052479494 -0.37960815 -0.34533828
0.038565088 -0.3816178 -0.014581651 0.04515351 -0.06464989 0.20623952 -0.16724508 -0.23477197
0.005593726 -0.33584383 -0.2922579 0.124443725 0.34059685 -0.16356757 -0.25878364 -0.5345566
0.006757509 0.2384134 0.738668 0.46769917 0.07020098 0.59067196 0.6990481 -0.4878556
-0.5109298 0.63800365 -0.34866652 -0.64328754 -0.30635732 -0.54397607 0.48843306 0.33610985
0.047108013 -0.23754898 0.16389123 0.39151824 -0.54296976 0.120750554 -0.69253063 -0.455406
-0.052570086 -0.36204284 -0.61264884 0.19956797 0.41174227 0.0076453174 0.45690683 0.45189446
0.38657767 0.155051 0.20620784 0.26128343 -0.45757356 -0.21829484 0.21649212 0.34483713
-0.20855863 -0.046206187 -0.6281296 -0.58093673 -0.032890256 -0.7294224 -0.5128301 0.36585614
0.48410043 -0.6341629 0.73910666 0.5824939 0.5990063 0.6114283 -0.49403438 -0.35147923
-0.20213884 -0.18909173 0.4056113 0.15151635 -0.13389638 0.042761978 -0.8411866 -0.22714189
0.09564067 -0.6059301 -0.5395425 0.30361775 0.6167243 -0.21105021 0.71149856 0.7482389
0.5773164 0.38689366 -0.18184324 -0.31725246 -0.35924146 0.3073614 -0.046374425 0.36135414
-0.064050026 -0.18460391 -0.520203 -0.16766708 -0.13330737 -0.72274053 -0.34279847 0.32965514
0.57465994 -0.32080805 0.3062267 0.6571493 0.46604198 0.70117486 -0.45471993 -0.45180827
0.44940305 -0.43790722 -0.2535551 -0.13849993 -0.025677362 0.4634026 0.3168587 0.11272574
0.13935946 0.6247096 -0.0071401703 -0.115269564 -0.055778317 -0.027980339 -0.038069528 0.1713889
0.18580003 0.33980614 0.25905135 0.31150132 0.047288384 0.05315696 0.070766054 0.23324263
0.15729722 0.030930782 -0.27114314 -0.24397564 0.15315603 0.12568523 0.0009788066 -0.36408544
-0.12028443 -0.06553294 -0.17574301 0.13564843 -0.3111665 -0.12239307 0.12841803 0.13300462
