saved_models/double_amb/brainlike_MPC_8.pt (torch, 118396 bytes, 14 tensors)

cell_list.0.conv_gates.weight f4 [20, 11, 3, 3]
000000 db 53 03 3f 3b e0 07 3f 05 99 07 3f 6c 52 fb 3e
       0.5129983 0.53076524 0.52967864 0.4908632
000010 f6 8e fc 3e ac 03 ff 3e a0 11 0b 3f 8b 8c b1 3e
       0.4932782 0.4980749 0.5432377 0.34677538
000020 c5 aa e9 3e d7 93 0f be 17 5a d6 3d ec 0e 20 3e
       0.456381 -0.1402124 0.10466402 0.15630692
000030 ce 4b 81 3e be e3 f3 3e f7 11 bb 3e 70 8a 0e 3f
       0.25253147 0.4763469 0.36537144 0.5567999
000040 ea 4a 0d 3f 14 cd f5 3e bf 18 08 3d ec 85 3b be
       0.55192435 0.48008025 0.033226725 -0.18312806
000050 53 ec 91 be 99 be c8 be 11 bf 05 bf 66 a4 09 bf
       -0.28500614 -0.39207914 -0.5224467 -0.5376648
000060 62 d8 df be 8a d5 15 bf 8e 14 07 bf 96 0b 53 be
       -0.43719774 -0.5852896 -0.5276574 -0.20609888
000070 73 13 47 bc 23 8e 94 3d 2b 13 7d 3e 79 de cb 3e
       -0.012150633 0.07253673 0.24714343 0.3981817
000080 df 40 f2 3e d3 70 00 3f 64 49 0f 3f c1 f2 37 3f
       0.47315118 0.50172156 0.5597136 0.7185479
000090 db 02 79 bd 88 a6 16 3e e0 58 86 3d 5b 4f 92 3e
       -0.06079374 0.14711964 0.0655992 0.28576168
0000a0 be 06 ee 3e 3a 46 ff 3e 32 ec cb 3e d5 0f a7 3e
       0.4648952 0.49858266 0.3982864 0.32629266
0000b0 3d 1e e6 3e 3f 1c 99 3d f0 8d d6 3d 08 02 81 3e
       0.44944945 0.07476091 0.10476291 0.25196862
0000c0 ae e0 8b 3e e3 57 e6 3e 37 59 0e 3f 4a 3a e6 3e
       0.27319854 0.44988927 0.5560488 0.44966346
0000d0 75 d0 f2 3e 31 52 f1 3e d4 df a1 be a6 33 b4 be
       0.47424665 0.4713302 -0.3161608 -0.35195655
0000e0 90 af eb be e5 ed cd be de f1 02 bf 57 e7 0b bf
       -0.4603238 -0.40220562 -0.5115031 -0.5464987
0000f0 48 8d b3 be af 37 d4 be 22 d8 d6 be 67 16 15 bf
       -0.35068727 -0.41448733 -0.4196177 -0.5823731
000100 c5 d4 17 bf 2a 5c 45 bf cf 67 c9 be 99 c8 b4 be
       -0.59309036 -0.77093756 -0.39337012 -0.35309294
000110 09 b9 03 bf 45 4d 55 be e4 83 4b bd 86 1b b0 bd
       -0.51454216 -0.20830257 -0.049686328 -0.08599
000120 e9 4e ee be f0 5d 32 bf 3d 0e 46 bf 98 4b 0b bf
       -0.4654458 -0.6967459 -0.77365476 -0.5441222
000130 47 89 22 bf 1d 52 19 bf e3 4a 81 be f1 4c 30 be
       -0.6349072 -0.5989092 -0.25252447 -0.17216851
000140 8e 3f 25 be 3f 21 dc bc 7b e7 54 bd da 0a 3e be
       -0.16137525 -0.026871322 -0.05197857 -0.18558827
000150 75 98 90 be a8 38 b3 be 3b a3 14 bf e3 82 e3 be
       -0.28241315 -0.35004163 -0.5806157 -0.44435796
000160 27 2f df be 30 b9 ce be 23 96 d6 3d bc 2e e6 3d
       -0.43590662 -0.40375662 0.10477855 0.112393826
000170 65 f4 e7 bd e5 49 ad bd 76 f5 9d be 71 77 99 be
       -0.113259114 -0.0846136 -0.30851334 -0.2997394
000180 7e 2b 67 be 10 6e c0 be 6d 04 d1 be 22 f3 28 3f
       -0.22575185 -0.3758397 -0.4082369 0.6599599
000190 58 43 09 3f 3c 58 19 3f 8e f3 36 3f 95 af 1d 3f
       0.53618383 0.5990026 0.71465385 0.6159604
0001a0 35 82 1e 3f ea f2 43 3f 0c ab 37 3f 92 7f 32 3f
       0.6191743 0.7654253 0.7174537 0.69725907
0001b0 a1 f0 45 be 14 aa 06 be 69 f0 bb 3d 74 bc 72 3e
       -0.19330074 -0.13150817 0.09176714 0.23704702
0001c0 b4 ec 98 3e c3 23 df 3e 11 fc 09 3f 65 db 05 3f
       0.2986809 0.43581972 0.5390025 0.52287894
0001d0 0c f3 04 3f 00 b3 41 3e 89 76 ad 3d 2b af 5f bd
       0.5193336 0.1891594 0.084698744 -0.054610413
0001e0 dc 3b a8 be 75 6a f2 be b3 00 ea be 15 ec b1 be
       -0.3285817 -0.47346845 -0.45703658 -0.3475043
0001f0 46 8c a8 be d5 37 e3 be 4a a7 5b be 31 24 79 bd
       -0.3291952 -0.44378534 -0.21450534 -0.06082553
000200 10 d3 29 bd 7b 49 88 3e 6e e9 ba 3e 68 f3 f8 3e
       -0.04146105 0.2661856 0.36506218 0.48623204
000210 68 b4 f7 3e 3f 29 0e 3f f8 d0 18 3f d9 a6 5c bd
       0.48379827 0.55531687 0.5969386 -0.053870056
000220 7e ed f0 3c e9 48 7e 3b b2 fe a3 3e a9 ba 8b 3e
       0.02941012 0.0038800782 0.32030255 0.27290848
000230 9c 80 b6 3e e0 12 00 3f 2a 78 de 3e 7e 3f cf 3e
       0.35644996 0.500288 0.43451053 0.40478128
000240 f7 ef bd bd 20 a8 49 bc 58 88 ec 3d 06 3f b9 3e
       -0.09274285 -0.0123081505 0.11549443 0.36180896
000250 ad ce d1 3e b3 f9 bb 3e 3d df b5 3e 99 8c ba 3e
       0.40977994 0.36713943 0.3552188 0.36435392
000260 cd 1d e7 3e d1 d8 e2 be c1 2f cb be 02 7d 01 bf
       0.45139924 -0.44306043 -0.3968487 -0.5058137
000270 f7 7b 00 bf 1a 82 25 bf df 47 0a bf 3c 7d 02 bf
       -0.50189155 -0.64651644 -0.54015917 -0.5097234
000280 a8 0f 8d be 7e bd ca be 10 e5 87 bf 10 e4 72 bf
       -0.27551007 -0.39597696 -1.0616779 -0.94879246
000290 ff 3b 81 bf d5 00 3f bf e9 1d 35 bf 1d 52 38 bf
       -1.0096434 -0.74610645 -0.70748764 -0.72000295
0002a0 8e 6c a7 be 80 35 ec bd 48 29 fb bd e3 9c 19 bf
       -0.32700008 -0.11533642 -0.12263733 -0.60005015
0002b0 26 dc 3e bf 89 b9 63 bf ee 59 58 bf d8 a3 3a bf
       -0.7455467 -0.8895498 -0.8451222 -0.72906256
0002c0 c1 88 41 bf 7e e7 ad be d1 7c e8 be 6c 3a 87 be
       -0.75599295 -0.33965677 -0.45407727 -0.2641176
0002d0 ac 81 1d 3e 58 99 c4 3c 77 ad 76 bd c1 29 c9 be
       0.15381497 0.023998901 -0.060224023 -0.39289668
0002e0 53 83 af be 3d 0b 02 bf 53 31 04 bf a3 af f3 be
       -0.3427988 -0.507984 -0.5163776 -0.47594938
0002f0 e8 c4 01 bf 13 18 31 3e da f3 3b 3d 85 b0 c1 3d
       -0.5069108 0.1729434 0.04588685 0.094574966
000300 28 55 6c be c2 8e 76 be f8 18 a7 be fe 7c ae be
       -0.2307936 -0.24077895 -0.32636237 -0.34079736
000310 6c 25 f0 be 32 e2 93 be 40 a9 06 3f 6e 85 e1 3e
       -0.4690355 -0.2888351 0.52602005 0.4404711
000320 b0 fe dc 3e 4b cf fe 3e 62 49 e5 3e a6 fa da 3e
       0.4316306 0.49767527 0.4478255 0.42769355
000330 39 a1 14 3f 0a 52 cf 3e ec a8 c7 3e 90 ac 7e 3d
       0.58058506 0.40492278 0.38996065 0.062176287
000340 ff fc 34 3e ad 5f 94 3e bb 2e 9a 3e ee 41 d3 3e
       0.17674635 0.28979245 0.30113778 0.41261238
000350 8e 80 eb 3e 64 a2 e7 3e fd 23 c3 3e c4 cb ad 3e
       0.45996517 0.45241082 0.38113394 0.33944523
000360 70 0e 31 be 23 41 b4 bd 9f 97 a7 be db 9d 81 be
       -0.17290664 -0.08801486 -0.32732865 -0.25315747
000370 ac 63 d3 be 8d f5 bd be 33 74 c1 be f5 95 83 be
       -0.4128698 -0.37101403 -0.37783965 -0.25700346
000380 fb 5d 98 be df 02 8c bc 8a 6e 74 3d 90 00 68 3e
       -0.297592 -0.017091213 0.05967573 0.22656465
000390 16 6c 9c 3e a2 19 06 3f b0 06 0f 3f 53 e8 c8 3e
       0.30551213 0.5238286 0.5586958 0.3923975
0003a0 8c fe 05 3f e9 07 05 3f 50 0d 40 3e 87 3d 95 3e
       0.5234153 0.51965195 0.18755078 0.29148504
0003b0 eb 6e ac 3e 4a d7 af 3e 79 7c f9 3e 7d f6 06 3f
       0.33678374 0.3434394 0.48727778 0.5271986
0003c0 27 34 8e 3e 9c f1 81 3e 6b 73 90 3e ff e0 9d 3d
       0.27774164 0.25379646 0.28213057 0.0770893
0003d0 22 88 4e 3e 1d b8 d7 3e ed fe 8c 3e 6d 53 e8 3e
       0.20169118 0.42132655 0.27538243 0.4537615
0003e0 d9 70 f3 3e 6d 2e a2 3e 59 31 bf 3e 72 cf b6 3e
       0.47547033 0.31676045 0.37342337 0.35705143
0003f0 ae 4f 00 bf d2 1b fd be 95 d0 13 bf 4e b6 f5 be
       -0.5012158 -0.49435288 -0.57740146 -0.4799065

cell_list.0.conv_can.weight f4 [10, 11, 3, 3]
000000 46 5e 81 be 0b b1 ed be 27 ea f5 be 84 d2 3c bf
       -0.25267237 -0.46424136 -0.48030207 -0.7375872
000010 2e 80 80 bf eb f1 8a bf eb b4 38 bf fe 4f 25 bf
       -1.0039117 -1.0855078 -0.7215106 -0.64575183
000020 17 a3 41 bf 17 a9 e8 3d 5d 4b a6 3d 03 e9 75 3e
       -0.7563948 0.11360376 0.08119843 0.24014668
000030 37 5a 5b 3e 67 26 79 3e 13 7b 86 3e 4f c3 96 bd
       0.21421133 0.24331056 0.26265773 -0.07361471
000040 f4 19 09 3e 79 1f 0f 3c 0f 1b 55 3e ae a1 28 bc
       0.13388807 0.008735531 0.20811103 -0.010292454
000050 af 1f 80 bd ac 10 ab be 9b 24 06 bf 10 f2 f0 be
       -0.06256043 -0.33411157 -0.52399606 -0.4705968
000060 7a ef da be 74 a9 14 bf 76 ba 1c bf e2 95 a0 be
       -0.4276083 -0.58071065 -0.61222017 -0.31364352
000070 85 db 41 be a9 c2 c5 3d 23 91 83 3e 7f c2 c7 3e
       -0.18931396 0.09656269 0.25696668 0.39015576
000080 27 20 04 3f 36 f7 92 3e 7b e0 ee 3e c3 51 e8 3e
       0.5161156 0.28704232 0.4665564 0.4537488
000090 3b 4e 36 3e 3a 92 6a 3e 04 c3 4d 3e 42 8f 6b 3e
       0.1780328 0.22907344 0.20093924 0.23003867
0000a0 f5 8b 9f 3e b7 0c f1 3e 77 2a 50 be 66 82 f5 bd
       0.31161466 0.47080013 -0.20328699 -0.11987762
0000b0 b3 5f 4a bd 53 5b a8 3c ea 71 2a 3e c7 35 5d 3e
       -0.049407672 0.02055136 0.16645017 0.21602546
0000c0 87 40 39 3e a4 fd 1f 3e 0b 29 88 3e bb f2 ef bb
       0.18091021 0.156241 0.26593813 -0.007322637
0000d0 c9 ea cf bc 13 f8 c0 bd 7a 2d 6b bd 93 09 84 be
       -0.025380509 -0.094223164 -0.057416417 -0.25788555
0000e0 df 85 af be 5a 8d 98 be 9c 41 3b be e8 b9 c3 be
       -0.34281823 -0.29795343 -0.18286747 -0.38227773
0000f0 ff b7 da 3c ac 32 24 3e 92 3b 04 3d 79 e2 11 bf
       0.026699064 0.16034955 0.032283373 -0.56986195
000100 19 04 20 bf 81 a0 4f bf fd 37 4a bd bd 12 1c be
       -0.6250625 -0.81104285 -0.0493698 -0.15241523
000110 b1 30 6e be f7 ed a2 3e 07 e8 a6 3e 94 c0 ba 3e
       -0.23260762 0.31822178 0.32598898 0.3647505
000120 f1 fa 2f bf ca ac 27 bf 15 37 56 bf 19 44 c6 3d
       -0.6874228 -0.6549803 -0.836778 0.09680957
000130 ee 74 bc 3d f0 54 ac bd e5 c3 56 3e a5 df e9 3d
       0.0920199 -0.08414638 0.20973165 0.1141961
000140 0a c5 47 3e b4 6c 72 be c3 9d d6 be ec b2 00 bf
       0.19508758 -0.2367428 -0.41917238 -0.50273013
000150 4c 75 83 be b9 84 26 be 47 25 95 be 02 1f 7b bd
       -0.25675428 -0.16261567 -0.29130003 -0.06130887
000160 a2 fa 00 3d 77 7b ee bd 05 ec bd bd 4a 52 0f be
       0.031489022 -0.11644643 -0.09273533 -0.13996235
000170 15 8a 99 be 34 81 a2 3c d3 0a fb bd cd 5b 0e be
       -0.2998816 0.019837 -0.12257924 -0.13902207
000180 ad 13 b0 3d 0c a1 aa 3c c6 38 b7 3d 86 66 56 3e
       0.08597503 0.020828746 0.089463755 0.20937547
000190 c0 d2 d0 3e cf 89 0c 3f ac 5b 4c 3f f2 4c 86 3f
       0.4078579 0.5489778 0.7982738 1.0492232
0001a0 bd e4 6e 3f 87 e5 6c 3f 12 cd 85 3f 06 5e 7e 3f
       0.93317777 0.9253773 1.0453207 0.9936222
0001b0 41 bd 9a be 8b 35 9f be 0e 24 74 be cd 68 40 3e
       -0.30222514 -0.31095538 -0.23841879 0.18789978
0001c0 a3 9d 11 3e e3 6c 25 3e 2b 2b 01 3f fd 40 ec 3e
       0.1422029 0.16154818 0.50456494 0.46143332
0001d0 a9 b6 5d 3e 68 c8 0c 3d 3f ab 47 3d e1 86 14 3d
       0.2165171 0.03437081 0.048747297 0.036261443
0001e0 e6 25 85 be 90 cf d5 be d8 32 ea be f8 65 10 bf
       -0.26005477 -0.4175992 -0.45741916 -0.5640559
0001f0 9b f9 0c bf d1 27 05 bf ce 55 7a be 51 b4 3c be
       -0.5506837 -0.5201388 -0.24446794 -0.1842816
000200 ca 43 80 be 82 33 2a 3e 13 a4 35 3e 4c 41 0f 3e
       -0.2505172 0.16621211 0.1773837 0.13989753
000210 24 47 d9 3e fc 0a 16 3f 8f 64 bc 3e 94 aa 96 be
       0.42437088 0.5861051 0.3679547 -0.29427016
000220 6a a7 73 be f0 d8 66 be 38 86 7f 3e 90 95 fb 3d
       -0.23794332 -0.22543693 0.24953544 0.12284386
000230 85 21 77 3e dd 7b 9d 3e 8d 0f 9b 3e be 49 a9 3e
       0.2413388 0.30758563 0.30285302 0.33064073
000240 3c 96 91 be 69 c9 80 be 38 2a 01 be 58 01 21 3e
       -0.28434932 -0.25153664 -0.12613761 0.15723169
000250 61 5f 33 3e 9f 44 94 3e e5 33 9e 3e f6 19 b1 3e
       0.17516853 0.28958604 0.30898967 0.3459012
000260 d5 71 40 3e b7 e5 c3 bd 7b b2 3e be 77 bd 86 be
       0.18793423 -0.09565299 -0.18622772 -0.26316425
000270 66 a6 0d bf 58 ce c1 be 3f fd f5 be 8f 90 03 bf
       -0.5533203 -0.3785274 -0.48044774 -0.51392454
000280 50 84 e6 be ca 2f 94 be b2 3a d3 be 01 f1 b5 be
       -0.4502282 -0.2894271 -0.41255718 -0.35535434
000290 8e e0 67 be 7d 5a f6 be b1 1d 92 be 54 a4 72 be
       -0.22644255 -0.48115912 -0.28538278 -0.23695499
0002a0 08 49 05 bf 4b 5b 82 be f1 ed 99 be ca 74 55 be
       -0.5206456 -0.25460276 -0.30064347 -0.20845333
0002b0 4d 97 4a be e8 e1 3f be 70 0d f7 be 45 55 01 bf
       -0.19784279 -0.1873852 -0.4825244 -0.50520736
0002c0 25 36 c8 be c4 03 16 bf a6 4f 01 bf 7b d3 d4 be
       -0.3910381 -0.58599496 -0.5051216 -0.41567597
0002d0 2e 7c 9e 3e b8 f2 44 3e fa eb 6b 3e fb 90 10 be
       0.30954117 0.19233215 0.23039237 -0.14117806
0002e0 5f 63 fa bd a4 9a e3 bd 72 a9 c8 be f6 8a b5 be
       -0.12225985 -0.1111348 -0.39191777 -0.3545758
0002f0 f0 73 5e be 90 ac 4c 3e 63 f1 60 3e 30 8f 97 3d
       -0.21723914 0.19987702 0.21967082 0.07400358
000300 f2 14 0d be 99 2e 83 be 1c 78 35 be 10 6b a8 be
       -0.13777521 -0.2562149 -0.177216 -0.32894182
000310 9e f4 8a be b9 64 9f be 11 3a d1 be 4a aa 22 bf
       -0.27139753 -0.31131533 -0.40864614 -0.6354109
000320 d2 f4 29 bf 83 a8 10 bf 17 52 39 bf 9e ea 47 bf
       -0.6638919 -0.5650713 -0.72390884 -0.7809237
000330 32 3b 15 bf c0 d2 fc be 1b 79 2f bf 84 da 02 3e
       -0.5829345 -0.4937954 -0.6854417 0.1277867
000340 72 a3 a2 3e c9 69 66 3e ab bb 18 3e da ad d9 3d
       0.31765324 0.22501291 0.1491534 0.10628863
000350 7e 65 ef 3c a4 fe 5e be 91 68 13 be c4 6f 18 be
       0.0292232 -0.21776825 -0.14395358 -0.14886385
000360 d3 06 fe ba 0d 79 97 bd cd 99 26 bd 27 ec 81 bd
       -0.0019380696 -0.073961355 -0.04067402 -0.063438706
000370 14 09 fb bd 69 e8 08 be 38 07 21 be 13 04 3c be
       -0.12257591 -0.13369907 -0.1572541 -0.18360929
000380 ef c6 76 be bc 25 bd 3e d3 47 ea 3e c6 bc c7 3e
       -0.24099325 0.36942852 0.45757923 0.3901121
000390 91 22 f9 3d 43 5d 3a 3e 20 c9 5d 3e ed 59 c7 bd
       0.12164796 0.18199639 0.21658754 -0.09733949
0003a0 c8 0c 70 3a 25 50 23 bd ab 76 47 3e 13 e3 c7 3d
       0.0009157178 -0.039871354 0.19478862 0.09760108
0003b0 a7 88 57 3e 57 dd ef 3d 02 0a a5 bd cb d7 f8 bc
       0.21048222 0.11712139 -0.080585495 -0.030376336
0003c0 92 ac 67 be 4d 67 ac be be 4c 89 be 40 5e 04 3e
       -0.22624424 -0.33672562 -0.26816362 0.12926579
0003d0 43 45 e0 3d 90 59 6a 3c e1 7c a2 bd c6 c6 3b be
       0.109507106 0.01430358 -0.07933975 -0.18337545
0003e0 e4 4a e2 bd 7b 11 e8 be 2e df aa be 68 34 e8 be
       -0.110494405 -0.45325837 -0.33373398 -0.45352483
0003f0 78 c5 8c be 49 01 79 be da 36 c3 be 50 ea 02 be
       -0.27494407 -0.24316896 -0.38127786 -0.12784696

cell_list.1.conv_gates.weight f4 [20, 20, 3, 3]
000000 15 9c 5d bb ed fd 09 3d 0c eb 00 3d 30 13 8b be
       -0.0033814956 0.033689428 0.03147416 -0.27163076
000010 56 2d 9f be ee 34 66 be 6c 67 89 be b0 b3 d0 be
       -0.31089276 -0.22481129 -0.26836717 -0.4076209
000020 74 a9 d5 be b3 e1 1f 3f 8d 10 2d 3f 4a 4f 37 3f
       -0.41730845 0.62453765 0.6760338 0.7160536
000030 f3 d4 6c 3e da 46 cb 3e 08 0f e0 3e 9b 7e cf 3d
       0.23128109 0.39702493 0.43761468 0.1013157
000040 3d d2 8c 3d 6f 07 68 3e 8c 07 8a bd a5 14 04 be
       0.06876037 0.22659086 -0.06739721 -0.128985
000050 6e f8 0a be 78 2a dc 3d 58 13 6c 3e c4 f2 61 3e
       -0.13571331 0.10750288 0.23054254 0.22065264
000060 32 f4 64 3e 43 b0 aa 3e 16 30 c0 3e 48 4d 02 bd
       0.22358778 0.33337602 0.37536687 -0.031811982
000070 87 b7 aa bd 78 5a fb bd 9a a7 70 bd 3f bd 9c bc
       -0.08335786 -0.12273115 -0.058753587 -0.019133208
000080 7e e6 3f bd 16 33 97 bd c9 53 4d bd aa a0 25 be
       -0.046850674 -0.07382791 -0.050128732 -0.1617457
000090 3e 52 7f 3e 7c 53 18 3e 72 83 05 3e 70 4c 88 3e
       0.24933717 0.14875597 0.13038424 0.26620817
0000a0 a9 87 45 3e 3d 05 ff 3c e4 3e 7b 3e 25 13 6c 3e
       0.19290031 0.031130427 0.2453571 0.23054178
0000b0 ee 97 0b 3e 09 c2 dc be df ea 26 bf 32 a2 23 bf
       0.13632175 -0.43116787 -0.65202135 -0.63919365
0000c0 4d 12 82 be a8 25 9a be 1d dc 3b be c9 53 b6 bd
       -0.25404587 -0.30106854 -0.18345685 -0.089026995
0000d0 5a 55 1c be 3c 83 fd bd c5 8c 82 3e 8e b9 74 3e
       -0.15266934 -0.123785466 0.25498024 0.23898908
0000e0 7e 0e b2 3e b4 8d a5 3d 0c 07 71 3d 29 7b 5c 3e
       0.34776682 0.08083668 0.05884461 0.21531357
0000f0 d8 4f d6 bd 38 e9 16 be 13 7f 56 bd 7c ce ad 3d
       -0.10464448 -0.14737403 -0.05236728 0.084866494
000100 c8 48 1c 3e 67 54 fd 3d 10 ed 88 bd 91 c9 0f 3e
       0.15262139 0.12369614 -0.06685841 0.14041735
000110 e3 9b 42 3e ea 8c de 3b 55 79 2f 3e 47 56 38 3e
       0.19004779 0.0067917006 0.17136128 0.18001662
000120 79 ab d8 3d 2b d2 67 3d 64 86 bd 3d be a4 06 be
       0.10579581 0.056596916 0.092541486 -0.13148782
000130 6c 2b 57 be 0f 2e 07 be 60 59 07 be e2 cb 0a be
       -0.21012658 -0.13201164 -0.13217688 -0.13554338
000140 c7 80 61 be a5 66 67 be 0c f9 af be f8 38 c7 be
       -0.22021781 -0.2259775 -0.34369695 -0.3891065
000150 ea a2 25 bd 81 1e cb bd f1 00 e2 bd 83 63 b6 3d
       -0.04043857 -0.099179275 -0.11035336 0.08905699
000160 05 a7 81 3d 07 a9 39 3d dd 49 24 3e 4f 49 16 3e
       0.063306846 0.045327213 0.16043802 0.14676403
000170 4b a6 a7 3e 4f 9d ae 3d 37 8e 01 3d 40 70 be 3d
       0.3274406 0.08526098 0.031629767 0.09298754
000180 31 02 a5 3c b4 28 f9 bb 5c ca 8e 3d 5a 8b c4 3e
       0.020142647 -0.007603729 0.06972191 0.38387567
000190 5f f7 a9 3e a2 fb bf 3e b4 c6 f9 3d c6 ab 95 3e
       0.33196542 0.37496668 0.12196103 0.29232615
0001a0 59 27 63 3e 1c 44 f1 bc fa 87 b4 3d a8 7c 2e 3e
       0.22182979 -0.029451422 0.08814998 0.1703974
0001b0 6a f8 7c 3e f6 72 d6 3e be a5 0b 3f f1 75 30 3e
       0.24704137 0.41884583 0.5454978 0.17232491
0001c0 c7 91 bc 3e 6d 5d 93 3e f5 35 b8 3d f6 7e 86 3d
       0.3682997 0.28782216 0.089946665 0.065671846
0001d0 04 fd 09 3e 24 64 5b 3e 12 53 a6 3e 84 8d b7 3e
       0.13475424 0.2142492 0.32485253 0.35850155
0001e0 4d ab ef 3c 82 1a 62 3e 8a 8f 33 3e 41 42 68 3d
       0.029256487 0.22080424 0.17535225 0.05670381
0001f0 7d 5d 1c 3e 9b a5 a5 3d 3c fa 07 be d5 51 d0 be
       0.15270038 0.08088227 -0.1327905 -0.40687433
000200 79 ff e7 be 78 ff be bd c1 a2 6f be bd 53 6f be
       -0.45312098 -0.093260705 -0.2340193 -0.23371787
000210 95 84 41 3c 3d ac b5 bd 56 2a e2 bd ae 5f 61 be
       0.011811395 -0.088707425 -0.11043231 -0.22009155
000220 ca 6b 9e be 86 8c ca be bc be 90 be ae 91 a8 be
       -0.30941612 -0.39560336 -0.2827052 -0.32923645
000230 c1 c1 ab be 35 6e 1e be 20 30 95 be d5 04 36 be
       -0.3354626 -0.15471728 -0.2913828 -0.17775281
000240 d1 bf 48 3d 0d 8a 92 3d d0 15 66 3e a3 b9 2c 3c
       0.049011055 0.07155237 0.22469258 0.010542306
000250 3d 50 d4 3c b6 dd c5 3d 47 a7 57 bd 63 51 59 bb
       0.025917167 0.09661429 -0.052649762 -0.0033160083
000260 b0 73 79 3d eb 25 1a bd 86 4b 29 be 3f 96 4b be
       0.060901344 -0.037633818 -0.16532716 -0.19881533
000270 90 6b 90 bd 7f 4d e6 bd b7 7b 5d bd f6 cf a1 bb
       -0.07051766 -0.1124525 -0.05407306 -0.004938121
000280 90 ef 8d 3d 56 38 32 ba 7a d9 36 3e 8f 81 32 3e
       0.069304585 -0.0006798556 0.17856398 0.17432235
000290 56 df 5c 3e 8a c7 87 3d 46 3b 29 3e 17 13 4f 3e
       0.21569571 0.06629856 0.16526517 0.20222126
0002a0 1f 96 38 bd b1 59 f1 3c 38 df c5 3b a8 02 c1 bd
       -0.04506504 0.029461714 0.0060385726 -0.09424335
0002b0 26 a7 21 be 1c f7 2b be 84 b2 7e bd 27 4e b3 bc
       -0.15786418 -0.16793483 -0.062181965 -0.021887852
0002c0 39 dd ac bd ae 23 13 bd 7b 38 15 bd bd b6 cb b9
       -0.084406324 -0.0359227 -0.036430817 -0.00038855328
0002d0 d1 ec 5e 3e 75 90 cf 3d 89 42 1a 3d 0b b6 52 3d
       0.21770026 0.10134975 0.03766111 0.05144314
0002e0 45 13 ac 3d fa 83 c5 3b 42 62 10 3d 2a 67 a3 3d
       0.08402113 0.0060276957 0.035249956 0.07978661
0002f0 78 1f d5 3b 68 af e8 3d 4d 17 c3 3c 4a 01 e1 3d
       0.0065039955 0.11361581 0.023814822 0.10986574
000300 8a 57 10 3e 31 d0 38 3e a3 3b 9c 3e 3e e7 cf 3e
       0.14095894 0.18048169 0.3051425 0.4060611
000310 4e aa eb 3e a4 35 04 3f 9e aa 43 be 22 47 52 bd
       0.4602837 0.5164435 -0.19108054 -0.05133737
000320 db f7 44 be c1 90 12 bb 26 ec 0d 3d 96 f3 c5 bd
       -0.19235174 -0.0022364112 0.034649037 -0.09665601
000330 f4 e2 8c be fd 04 67 be c3 ca 98 be 05 41 b8 3e
       -0.27516901 -0.22560497 -0.29842195 0.35987106
000340 e1 e3 9b 3e aa 23 76 3e f9 51 01 bd 2e 99 41 be
       0.30447295 0.24037042 -0.031572316 -0.1890609
000350 d1 d8 11 be 13 4b da be 83 77 0a bf 31 d3 10 bf
       -0.14242865 -0.42635402 -0.5408861 -0.5657225
000360 51 a0 37 3e ab 3c 55 3e 94 37 68 3e 41 ac 73 3d
       0.1793225 0.20823924 0.22677451 0.059490446
000370 74 cf a6 3d 36 74 d1 3d 93 59 5e bd cd ee 14 3d
       0.08145037 0.102272436 -0.054284643 0.03636055
000380 b0 46 c9 bc d3 e3 1b 3e 49 4c 27 3d 32 62 75 3d
       -0.02456984 0.15223627 0.040844236 0.0599081
000390 6c 5f 77 bd 2b 19 ac bc 78 ad 71 bd 32 1a a1 be
       -0.060393736 -0.021008095 -0.059003323 -0.31465298
0003a0 fd 96 f5 be 59 e3 f4 be a8 a5 e8 3b 6d fe 29 3e
       -0.47966757 -0.47829702 0.007099826 0.16600962
0003b0 2a 70 31 3e 40 15 ce 3e 4e 75 fd 3e 32 ad f4 3e
       0.17327943 0.40250587 0.4950356 0.47788388
0003c0 35 18 11 3f 92 32 00 3f 34 f1 fc 3e d9 fb 61 bd
       0.5667756 0.50077164 0.49402773 -0.05517182
0003d0 6a 76 a6 bc 4f 25 87 3d 35 a1 d5 3d 88 e1 73 3e
       -0.020320136 0.06598913 0.104311384 0.23816502
0003e0 10 7f 51 3e af 13 4c 3e 31 63 a0 3e e0 9f b5 3e
       0.20458627 0.19929384 0.31325677 0.35473537
0003f0 9c f3 d7 3d 5d cc 52 3d 62 08 1e 3e a4 35 e3 3d
       0.10544512 0.051464427 0.15432885 0.110942155

cell_list.1.conv_can.weight f4 [10, 20, 3, 3]
000000 7c 25 1e 3e 96 4a 71 3c 42 4f cc 3c df dd 9d 3c
       0.15443987 0.014727255 0.024940137 0.019270835
000010 7a da 91 bc 3d 45 d4 bd 58 57 86 bd 32 b7 91 be
       -0.017804373 -0.10364769 -0.06559628 -0.2846008
000020 e8 84 d4 be bf 81 58 3e b2 79 8c 3e 04 b1 a9 3e
       -0.4150765 0.21143244 0.27436596 0.33142865
000030 22 d3 54 3e f2 71 8b 3e 42 d7 33 3e 54 86 ff bd
       0.20783666 0.2723537 0.17562583 -0.12476793
000040 4a d4 09 3d 8e 3b a3 39 f7 92 b1 be 86 6c 7e be
       0.03364972 0.00031134154 -0.34682438 -0.24846086
000050 d7 7f 3a be dd 57 30 3e a5 7d a9 3e d0 04 d3 3e
       -0.1821283 0.17221017 0.33103672 0.4121461
000060 c5 9b 8e 3e 3c 9c 01 3f d8 7c 15 3f cf 56 0c 3f
       0.27853218 0.5062902 0.5839362 0.5481996
000070 89 bb 0c 3f 59 19 0c 3f 33 2d 5b 3e fd 62 44 3e
       0.54973656 0.5472618 0.21403961 0.19178386
000080 eb 96 a2 3d ea 5c 4d 3d 3f 98 c8 bd d1 41 e8 bd
       0.079389416 0.050137438 -0.09794664 -0.113406785
000090 1d af d9 3e b9 ff fd 3e 16 ea 0f 3f d5 9d 63 3e
       0.42516413 0.49609163 0.5621656 0.22228177
0000a0 4a 08 80 3e 3b a7 84 3e 70 1e 84 3d d5 70 38 3e
       0.25006324 0.25908837 0.06451118 0.18011792
0000b0 e5 19 51 3e ec 46 e2 3d fb 99 19 bd 7f 1f 00 be
       0.20420034 0.110486835 -0.037500363 -0.12512015
0000c0 eb 94 05 be 58 f7 68 be 70 fd 9e be c8 d3 f1 bd
       -0.13045089 -0.22750604 -0.31052732 -0.11807972
0000d0 d6 34 67 be 13 61 7d be ba 74 01 bc a2 15 02 3d
       -0.22578749 -0.24744062 -0.007901365 0.031758912
0000e0 2f e7 47 3e 58 46 a5 3e d4 ca d8 3e 90 f8 2e 3f
       0.19521783 0.3228023 0.42342246 0.68348026
0000f0 4a 36 32 3e 15 11 9a 3d 25 44 70 3e de 42 a9 bc
       0.17403522 0.075227894 0.23463495 -0.020661768
000100 bb 86 53 3d be c7 b5 3d a0 70 99 bc 6c 84 35 3c
       0.05164216 0.088759884 -0.018730462 0.011078935
000110 eb bc e7 3d aa 02 e4 3d 96 eb 46 3e 86 40 5e 3e
       0.1131533 0.11133321 0.19425806 0.21704301
000120 d4 0e 19 3e c7 9f d1 3d 1e 65 2e 3d 0f b8 ae 3d
       0.14947063 0.10235553 0.0425769 0.085312
000130 e8 1d cf 3c 6c d6 a2 3d 99 5c cf bd d5 6b 1a be
       0.025282815 0.07951054 -0.101250835 -0.15080197
000140 43 58 40 be 2a 53 62 3c 0f f4 8b 3d 50 9c 86 bd
       -0.18783669 0.013813773 0.0683366 -0.06572783
000150 9c e8 0c 3e 01 a3 00 3d f6 8f 57 bd 91 59 e5 bc
       0.13760608 0.031405453 -0.052627526 -0.02799681
000160 38 c6 6b bd 84 93 78 be d7 f4 ca 3d cc 03 68 3e
       -0.057562083 -0.24275023 0.09909981 0.22657698
000170 4f fc 67 3e 91 db 1d 3e 98 d0 6d 3e 79 ce b7 3e
       0.22654842 0.15415789 0.23224103 0.35899714
000180 dd ed 2e 3d a9 bd 16 3e 17 3b a3 3d 88 55 8b bd
       0.042707313 0.14720787 0.07970255 -0.06803423
000190 33 c6 75 3c cb c6 9b 3d 17 7e 82 3c 3d 4b 1e 3e
       0.015000868 0.07606276 0.015929265 0.15458389
0001a0 a7 fd 44 3e 06 f9 d7 bc 3a f6 2e 3e 91 3e eb 3d
       0.19237386 -0.02636386 0.17086115 0.11486543
0001b0 28 63 27 be a1 c6 1d bd f8 22 08 3e a5 0d d7 3c
       -0.16346419 -0.038519505 0.1329459 0.026251623
0001c0 4a 92 e1 3d 89 14 ad 3e c9 45 f6 3c c1 a7 79 3e
       0.110142305 0.3380473 0.030062573 0.243804
0001d0 3d 2c 65 3e 64 a2 42 be ee 2c fd bd e9 d2 d4 bc
       0.22380157 -0.1900726 -0.12362085 -0.025979476
0001e0 60 08 f0 bd 62 d8 92 3d 37 8d 67 3e 0d 9c 18 bd
       -0.117203474 0.07170178 0.22612463 -0.037258197
0001f0 29 4d 87 3a e9 9e 75 3d d7 bf 18 3e 09 02 c1 3d
       0.0010322678 0.059966 0.14916931 0.09424216
000200 b9 f0 49 3c 4e 37 0f 3d 43 6b 1a 3d 28 f4 4a be
       0.012325459 0.034964852 0.03769995 -0.198197
000210 6f 48 19 3b 2d 00 ae bd de 89 86 be a4 06 8b 3d
       0.002338912 -0.08496127 -0.2627706 0.06788376
000220 69 68 bf bc b4 6b 11 be 3f 05 f6 bd 85 6c 9f be
       -0.023365216 -0.14201242 -0.12012719 -0.3113748
000230 9b 51 e1 be eb 28 5d bd d9 e5 12 be b4 be ad be
       -0.44007573 -0.0539941 -0.14345492 -0.33934557
000240 7e 2c 74 bd 56 b4 be 3d 91 ea fc 3d a5 7d cc bd
       -0.059612744 0.0931174 0.123494275 -0.09984902
000250 6d 94 bc bd 47 43 cf bb ab 02 b9 bd b6 7e 84 bd
       -0.092079975 -0.0063251588 -0.09033712 -0.06469481
000260 aa c9 d7 3c ff a1 a8 ba b5 33 fc bd ec 60 67 bd
       0.026341278 -0.0012865661 -0.1231455 -0.056488916
000270 83 05 cc 3b 56 46 e8 bc 76 4f d3 bc ce 4f 8e 3d
       0.006226243 -0.028353851 -0.025794726 0.06948815
000280 ed c5 e0 bb 45 f3 6a 3c 20 e1 54 3e aa a1 64 3e
       -0.006859532 0.014340227 0.20789003 0.22327295
000290 7a b8 73 3e f3 60 e6 3d 1d 71 4c 3e 48 e4 8d 3e
       0.23800841 0.1124896 0.19965024 0.27713227
0002a0 a4 73 ff 3c 27 46 37 3d fd 71 e1 3d c7 b4 a9 3d
       0.031183071 0.044744637 0.1100807 0.08286434
0002b0 d4 74 41 3e a6 4b af 3d eb 16 8b bb de 93 4a bc
       0.18892223 0.08559351 -0.0042446754 -0.012364356
0002c0 0f 12 b0 bd af c3 b9 3c aa 7e 1b bd f0 82 d1 bd
       -0.085971944 0.022676317 -0.037962593 -0.102300525
0002d0 76 c6 c2 bb e5 c7 b5 bd ba bf 06 be e2 77 72 be
       -0.0059440685 -0.088760175 -0.13159075 -0.23678544
0002e0 00 17 94 be 9c c9 83 be 0c 24 82 3c 19 45 60 bd
       -0.28923798 -0.25739753 0.01588633 -0.054753397
0002f0 e5 49 3a be fe d6 05 3e 27 34 cc 3d 52 a3 70 3e
       -0.18192251 0.13070294 0.09970885 0.23499802
000300 a4 df f0 3e 26 2b f9 3e e3 0c 0c 3f 82 18 d3 be
       0.47045624 0.48665732 0.54707164 -0.41229635
000310 45 10 fb be 95 1f cd be db de 5a be d4 97 3f bd
       -0.4903585 -0.40063158 -0.21374075 -0.046775654
000320 3a cd 71 bd 8e 22 ce 3e 5e 32 07 3f 4a 6c 01 3f
       -0.05903361 0.40260738 0.5281123 0.5055586
000330 6d c3 0c 3f e0 32 38 3f 6d 2f 40 3f 59 57 92 3c
       0.54985696 0.7195263 0.75072366 0.017863916
000340 a3 f3 20 be f2 14 e5 be 27 68 85 3e 84 b2 c0 3d
       -0.1571794 -0.44742543 0.26056024 0.09409049
000350 35 c6 38 bc eb 27 9b be e3 55 c1 be a4 02 ef be
       -0.011277725 -0.30303892 -0.3776084 -0.46681702
000360 43 9e 95 3e ee f4 bb 3e d9 54 bb 3e 0b 1b 00 be
       0.29222307 0.36710304 0.3658817 -0.12510316
000370 ba fc 87 bc cb e1 f0 bd d7 50 e0 bc 6e ba 1f bc
       -0.016600002 -0.117618166 -0.027382297 -0.009749038
000380 90 c0 28 be 03 83 d3 be a4 51 93 be 1a ff b3 be
       -0.16479707 -0.41310892 -0.28773224 -0.35155565
000390 03 b1 cb be ca 0e 03 bf bc f7 14 bf 21 fc 6e bc
       -0.39783487 -0.5119444 -0.5819051 -0.014586479
0003a0 c5 71 58 bd 16 b7 76 bc 60 29 c3 3e d0 69 be 3e
       -0.052842874 -0.0150582995 0.38117504 0.37190104
0003b0 e1 6a 1e 3f 07 1d ad 3e 9f 25 9f 3e 6a c8 9f 3e
       0.61881834 0.3381121 0.3108339 0.3120759
0003c0 da d3 89 3e b3 78 4d 3e 91 f4 5d 3e 98 c4 26 3e
       0.26919442 0.20065574 0.21675326 0.16285932
0003d0 2e fa 5a 3e a1 a7 80 3e ea a9 b5 3c 08 c1 d5 bd
       0.21384498 0.2512789 0.022175748 -0.104372084
0003e0 37 b9 b5 bd 73 be 0b be 08 cc 42 bd 12 02 5e bd
       -0.088732176 -0.1364687 -0.04755786 -0.054201193
0003f0 7a 98 6c 3e 34 31 88 3e 36 ee a0 3e 33 69 ac be
       0.2310504 0.2660004 0.3143174 -0.3367401

cell_list.2.conv_gates.weight f4 [20, 20, 3, 3]
000000 59 ca 6e 3d 63 34 ec 3d 70 64 a4 3d 8d dc 37 3c
       0.058298443 0.115334295 0.080269694 0.011222017
000010 a5 dd db 3d 8a 9d 90 3d a6 4e 96 3d 85 c0 4f 3e
       0.10735635 0.07061298 0.0733922 0.20288284
000020 c8 7b df 3d 98 e0 89 be d4 5a 7c be 64 c7 15 be
       0.10912281 -0.26929164 -0.24644023 -0.14626843
000030 89 b4 22 bd 6d 7f 28 3c f9 56 19 3d 55 78 c5 3c
       -0.039722953 0.010284287 0.03743646 0.02410523
000040 ef a8 14 3d ea 66 04 3d 60 d1 c1 3c ce 3d 40 be
       0.03629392 0.03232471 0.023659408 -0.18773577
000050 03 e3 22 be 6f b0 21 bd e3 b6 89 bc 7b e2 2e be
       -0.1590691 -0.0394749 -0.01681084 -0.17078583
000060 08 38 3c bc 90 90 ee bd 95 35 99 bd 8c 36 92 bd
       -0.011487968 -0.11648667 -0.07480923 -0.0713931
000070 95 17 b1 bc 20 80 1a bd d2 92 a4 3c 6b f3 04 3e
       -0.02161769 -0.037719846 0.02008954 0.12983482
000080 81 61 87 3d b0 22 52 3e 5f 14 35 3d 23 4a b2 3c
       0.06610394 0.20521045 0.04420888 0.021763867
000090 ca 53 f7 3c 6c e1 b5 3b d2 bb 99 3c 49 2e a3 3d
       0.03019132 0.005550554 0.018766318 0.079678126
0000a0 63 39 82 3d b0 a8 c6 bc d6 f4 0f 3e e5 bf cc 3d
       0.06358602 -0.024250358 0.14058241 0.099975385
0000b0 c9 79 b4 3d 4f 76 5a be 95 cb 9e be ce e3 85 be
       0.08812291 -0.21334194 -0.31014696 -0.26150364
0000c0 ef 48 35 be 36 99 37 be af 38 86 be 62 5f a7 bd
       -0.17703603 -0.17929539 -0.2621512 -0.0817249
0000d0 ac 4d 4d be 1b 92 00 bd d6 78 37 be 70 f0 6f be
       -0.2004916 -0.031389337 -0.17917189 -0.23431563
0000e0 f5 9d 16 be 1b b3 06 be e8 92 85 bd 73 3c 36 be
       -0.14708693 -0.13154261 -0.06522161 -0.17796497
0000f0 fe 65 5c be 71 f7 2c be 1d dd 11 be bb 81 0f be
       -0.21523282 -0.16891266 -0.14244504 -0.14014332
000100 3e 38 17 be 86 6b aa bd 3a b8 35 be f8 24 2a be
       -0.14767548 -0.0832129 -0.17746058 -0.16615665
000110 86 67 b5 bd 12 08 27 be 38 83 a1 bd d8 84 13 bd
       -0.08857636 -0.16311672 -0.07886356 -0.03601536
000120 1a e9 f5 3d 29 69 f1 3d 5b 14 a7 3d e3 8c fc 3c
       0.12007351 0.11787636 0.081581794 0.030828899
000130 76 dc 9d 3d 4b ec e8 bd 0d 3e b5 bd 17 88 37 be
       0.07708065 -0.11373194 -0.08849726 -0.17923008
000140 03 f2 ce be 7c c2 1c bd 97 35 11 bd 01 53 d7 bd
       -0.40419015 -0.038271412 -0.035451498 -0.105138786
000150 c7 c3 70 3d e8 2f 3c 3d e3 da 90 bc d3 46 87 bd
       0.058780458 0.045944124 -0.017682498 -0.066053055
000160 83 59 ca 3b 61 54 0c bd 4f a3 2b be 1d 1d b4 bd
       0.0061752214 -0.034260157 -0.16761516 -0.087946154
000170 ee 3e 17 bd ca fe 2a bd 50 a5 c0 bd 9b 03 ff 3c
       -0.03692525 -0.041746892 -0.09406531 0.031129649
000180 b1 19 e5 bc b0 51 fd 3c 9e 19 ce 3c 80 6b 60 3e
       -0.027966352 0.03092274 0.0251587 0.21916008
000190 5c 29 81 3e 01 f0 31 3e f1 86 77 3e c3 d7 35 3e
       0.25226867 0.1737671 0.2417257 0.17758088
0001a0 11 79 08 3e fc 22 06 3e 0b b8 5b 3d 93 d8 45 3d
       0.13327433 0.13099283 0.053642314 0.048302244
0001b0 eb 9f 7d be 58 77 73 be 16 23 d5 bd 2b 06 44 be
       -0.24768035 -0.23775995 -0.10407083 -0.19142978
0001c0 c3 1c 67 be fb 75 0d be b6 86 92 be 95 13 3c be
       -0.22569565 -0.13814537 -0.286184 -0.18366845
0001d0 9d fb e9 bd b6 4e 3f bd 25 39 97 3d 34 af 75 3e
       -0.114249445 -0.046705924 0.07383946 0.23992616
0001e0 68 e1 c6 bd 78 bf c5 3d d8 49 be 3d e6 5a 73 3d
       -0.097109616 0.096556604 0.09291428 0.05941286
0001f0 ed 65 37 3e 88 bc f7 3d d0 5c 4b 3e dd 39 f5 3d
       0.17909975 0.12096506 0.19859624 0.11973927
000200 27 46 a2 3d 3b 0b 63 3e 60 22 56 3d 0d b7 7a 3d
       0.07923537 0.22172253 0.052278876 0.061209727
000210 0c c3 39 3e 6d 60 4f bc e7 aa a6 bd 63 b4 6d 3e
       0.1814081 -0.012657267 -0.08138066 0.23213343
000220 4a 7e c9 3d 74 0a 47 3e 72 ae 79 3e 55 ae 46 3e
       0.09838541 0.19437581 0.24382952 0.1940244
000230 83 7f 21 3e 17 6b 2e 3e 5a 11 9d 3d be ba 45 bd
       0.15771298 0.17033039 0.07669325 -0.048273794
000240 7a 97 5e 3e 6a 2b 77 3e 4f 15 58 3e c0 e8 7b 3e
       0.21737471 0.24137655 0.21101879 0.24600506
000250 91 fd 2d 3e 4d 1d be 3d 44 41 28 3e 94 c4 b1 3d
       0.16991259 0.092829324 0.16431147 0.086800724
000260 9b ac 34 3d e2 4c 75 be 72 c1 05 be 3a 5e 31 bd
       0.044109922 -0.2395511 -0.13062075 -0.043302752
000270 85 d2 49 be 4c 97 82 bd a9 99 79 3d c6 66 0c be
       -0.19709213 -0.06376514 0.060937557 -0.1371108
000280 23 e5 1d 3d 68 18 4d 3e 31 f2 90 be 79 c5 0d be
       0.0385486 0.20028841 -0.28309777 -0.13844861
000290 ab 2f 10 be 19 a2 a7 be c2 64 24 be 1a 97 27 be
       -0.14080684 -0.32740858 -0.16054061 -0.16366234
0002a0 0f 5c 20 be 06 91 17 be 51 d9 cc 3c 5a f8 bd bc
       -0.15660118 -0.14801416 0.025005968 -0.023189712
0002b0 da a8 c3 bd fb b4 f5 bd cd 5e 75 bd a4 5f 20 be
       -0.0955369 -0.1199741 -0.059904862 -0.15661484
0002c0 3c a2 54 be d1 78 7f bd ad e0 7d bd d1 5d a7 bd
       -0.20765013 -0.06237108 -0.061981846 -0.08172191
0002d0 fc 9a f7 3d 5f ee 09 3e f3 15 88 3e f1 98 59 3e
       0.12090108 0.13469838 0.26579246 0.21249749
0002e0 62 51 3e 3e d1 41 a0 3e 4b 68 24 3e 4d 4e 32 3e
       0.18585733 0.31300214 0.1605541 0.17412682
0002f0 e8 b3 1e 3e ed bc 51 be 8a 6d 48 be d0 22 51 be
       0.15498316 -0.20482226 -0.19573036 -0.20423436
000300 6e e2 cb be 1c ab d5 be 3b 1f ec be 0c 74 0a be
       -0.3982119 -0.4173211 -0.46117577 -0.13520831
000310 4f d6 87 be f1 4d 84 be 86 34 9a 3e 08 89 8b 3e
       -0.26530692 -0.25840715 0.30118197 0.27252984
000320 55 2d 6f 3e 3d c7 e4 3c 2b 56 bf 3d ea 40 49 3e
       0.23357137 0.027927035 0.09342607 0.19653669
000330 de 15 9b 3e 5f 4b 75 3e 28 f7 95 3e 67 0f 26 3e
       0.3029012 0.23954533 0.29290128 0.16216813
000340 20 ef 41 3e f5 40 19 3e bf c8 55 3c 59 1a 27 3d
       0.18938875 0.14966185 0.01304835 0.04079661
000350 4f e4 1f bc c1 23 9a bd 4d a6 e5 3d 81 aa f1 3d
       -0.009759023 -0.07526351 0.1121336 0.11800099
000360 3c 94 ef bd f6 63 25 be 8d ff 1f be 4a a1 94 bd
       -0.11698195 -0.16151413 -0.15624829 -0.07257326
000370 85 c1 2f be 52 0c b1 3b 82 14 87 3d 2c 85 54 3e
       -0.17163666 0.00540308 0.065957084 0.20753926
000380 22 29 78 3e 16 26 18 3e c3 e5 56 3d ab 85 b7 3d
       0.24234441 0.14858279 0.05246521 0.08961042
000390 5a 1d 85 bd 8b e8 8e bd 63 45 33 be 0e c9 44 be
       -0.06499739 -0.06977948 -0.17506938 -0.19217321
0003a0 2e 6a 9a be 91 ce 98 be 27 cb 61 3e 54 f8 28 3e
       -0.30159134 -0.29845098 0.22050153 0.1650098
0003b0 0a dd 2f 3e 28 f9 9b 3d 5a 12 56 3d 33 39 8e 3d
       0.17174163 0.07615882 0.052263595 0.06944504
0003c0 3f 7c b3 bd 47 47 65 be 63 0f 09 be d7 77 36 be
       -0.087639324 -0.22390471 -0.13384776 -0.17819153
0003d0 be 85 43 be f3 a8 57 be 9b 2e ab bd 89 27 2c be
       -0.19093987 -0.21060543 -0.08358499 -0.16811956
0003e0 9f a3 08 be e4 17 cf bb 1c b4 2f be 24 9e 8b be
       -0.13343666 -0.0063199867 -0.1715855 -0.2726909
0003f0 3b 1c 0b 3e c3 c9 01 3d 67 ea ac bc a5 b2 44 be
       0.13584988 0.031686556 -0.021107865 -0.19208772

cell_list.2.conv_can.weight f4 [10, 20, 3, 3]
000000 f6 98 4b bc 75 bd a4 3b 93 10 9a bc 8b 45 00 be
       -0.012426605 0.005027468 -0.018806731 -0.12526529
000010 81 4b 37 be 5c a6 4d be 3c 74 15 be 82 2a 1a be
       -0.17899896 -0.20082992 -0.14595121 -0.15055278
000020 fd c7 1e be 6f 4a c3 3d d8 85 a8 3b 58 6b a8 bc
       -0.15505977 0.095356815 0.0051429085 -0.020558998
000030 a6 1d bf 3d 0b 2a 38 3e 18 93 e7 3d f0 d0 1d 3e
       0.09331827 0.17984788 0.11307353 0.15411735
000040 37 2a 26 3d ff cc d4 3c cb f8 e4 bb 3a 90 b4 3d
       0.040567603 0.025976656 -0.0069876662 0.088165715
000050 32 9e 37 3d 8f 2c ae bd 9c 22 81 bd 0d 21 8c 3d
       0.0448286 -0.085045926 -0.06305429 0.068422414
000060 0e 3b 02 be 8e ed 5d be 2d 5f 87 be f5 50 85 be
       -0.1271784 -0.21672651 -0.264398 -0.26038328
000070 2e e7 0b be f3 88 fb bc 59 b6 fd bd 0c 83 a8 bd
       -0.13662407 -0.03070495 -0.12388296 -0.0822812
000080 eb 1c 03 bd a2 fd f7 bc 32 49 1b bd 79 d0 c9 3c
       -0.03201 -0.030272309 -0.0379116 0.02463554
000090 e2 68 59 be 48 0f 45 be b6 09 38 be a6 cc 5b be
       -0.21231416 -0.1924411 -0.17972454 -0.21464786
0000a0 3b ad 56 be e2 92 03 be 58 be c5 bd d6 b3 f6 bd
       -0.2096452 -0.12849 -0.09655446 -0.1204602
0000b0 f5 f5 db bd 3b 79 5e bd e6 fb a2 bd cc 6a b3 bd
       -0.10740272 -0.054314833 -0.07958202 -0.08760604
0000c0 57 b3 b4 bc f6 6a b1 3d 68 3a df 3d 28 7b 12 3e
       -0.022058172 0.08662979 0.10899812 0.14304793
0000d0 0a c5 62 3e ce f4 4f 3e 55 4f 39 3e 95 0a 5c 3e
       0.22145477 0.2030823 0.18096669 0.21488412
0000e0 e9 b5 e0 3d 1b fc f3 bd f9 40 b8 bd 78 24 cf bd
       0.109721966 -0.1191332 -0.089967676 -0.10114378
0000f0 50 56 34 be b8 0b 89 be e3 21 03 be 0b e1 f6 3d
       -0.1761105 -0.26766753 -0.12805896 0.12054642
000100 a8 da bf 3d a7 6d 3e 3d 02 35 c7 3d 29 4b 2f 3e
       0.09367877 0.04649129 0.09726907 0.17118515
000110 62 9b 24 3e c2 cd ec 3b 51 1c d5 3d c9 a5 86 bc
       0.16074899 0.0072266767 0.104057916 -0.016436474
000120 6f c4 cb 3d ac cc e9 3d 40 ce 34 3d b8 c7 90 3c
       0.09949576 0.11415991 0.044142008 0.017673358
000130 ff 0e 05 3e 91 b7 0a 3e ca e6 a8 3d 75 66 da 3d
       0.12994002 0.13546588 0.082471445 0.106640734
000140 24 ee 50 3d 22 b0 7e 3d 05 94 6a 3e b0 65 3d 3c
       0.05100836 0.062179692 0.22908027 0.011559889
000150 5d b3 a6 bb eb c1 37 3e d7 11 21 3e c9 84 26 be
       -0.0050872997 0.17945068 0.15729462 -0.16261591
000160 8c fa 9f 3a f0 a0 04 bd 48 4b f9 3c 20 ce f0 3d
       0.0012205406 -0.032380044 0.030431405 0.11758065
000170 24 81 86 3d d9 83 eb 3c 5f ce 69 3d f2 ba 48 3e
       0.065676 0.028749393 0.057081576 0.19602564
000180 c5 0a 86 3c 18 29 85 3d 8a 06 29 3e 1d d5 82 be
       0.016362557 0.06501979 0.165064 -0.25553218
000190 4e d4 5b be 4c 99 d6 bd cb 48 19 be ed 49 98 be
       -0.21467707 -0.10478458 -0.14969175 -0.297439
0001a0 99 f9 a0 be d6 58 41 be 19 ec 5a be 8d 7b 58 be
       -0.31440428 -0.18881544 -0.21379127 -0.21140881
0001b0 6d 22 8e 3e db 58 be 3e d5 f9 b5 3e 7d 01 97 3e
       0.2776064 0.37177166 0.3554217 0.29493323
0001c0 00 37 cf 3e 3b e2 e0 3e 72 c8 c6 3e 13 ed bb 3e
       0.4047165 0.439226 0.38824803 0.3670431
0001d0 8a 1c bd 3e 7e 7e fb 3d 06 81 50 3e 71 75 42 3e
       0.36935836 0.12279986 0.20361719 0.18990113
0001e0 0b 27 ee 3d 98 3a 9e 3e 0a e9 90 3e ff 79 25 3e
       0.116285406 0.30904078 0.28302795 0.16159819
0001f0 90 de b6 3e 3d 6a 93 3e e2 12 8d be d0 5e 99 be
       0.35716677 0.2879199 -0.2755347 -0.2995515
000200 ec d9 79 be a3 90 96 be a7 ad a1 be 11 6f 91 be
       -0.24399537 -0.29407224 -0.315778 -0.2840505
000210 f1 03 b3 be fb dd 8c be ff b9 40 be 5a f9 b8 be
       -0.34963945 -0.27513108 -0.18820952 -0.3612774
000220 7c 67 d1 be fe c2 84 be d0 c6 ac be c4 80 a8 be
       -0.40899265 -0.25930017 -0.33745432 -0.3291074
000230 fc f2 81 be 57 4d a3 be f0 57 77 be 39 a1 4c be
       -0.25380695 -0.31894943 -0.24154639 -0.19983377
000240 ba 2d 29 be ae e2 37 be c9 bf 3a be 8c 21 40 be
       -0.1652135 -0.17957565 -0.18237223 -0.18762797
000250 bd b9 2f be 7a 49 5e be f7 37 da bd 2a e2 18 be
       -0.17160697 -0.21707717 -0.10655206 -0.14930025
000260 18 f8 96 bd 7e c3 5e 3e ac 5e 92 3e 28 b4 77 3e
       -0.07371539 0.21754262 0.28587854 0.24189818
000270 b7 62 aa 3e 2d ef cc 3e e4 72 c1 3e d0 b7 b1 3d
       0.33278438 0.40026227 0.37782967 0.086776376
000280 43 06 30 3e 5c 4c 49 3e 79 ff 35 3e 81 bd 68 3e
       0.17189889 0.19658035 0.17773236 0.2272854
000290 f3 26 a0 3e 6a 08 c0 3e e3 98 de 3e 91 ac 98 3e
       0.31279716 0.3750642 0.43476018 0.29819158
0002a0 6f ba b5 3e ff d7 89 3e c8 8c 80 3e dc 5f e5 3d
       0.354938 0.26922604 0.25107408 0.11199924
0002b0 0c b2 ad 3d 75 28 a7 bd 11 d4 2e 3e 73 0e 6e 3d
       0.08481225 -0.081620134 0.17073084 0.05811925
0002c0 d7 4b d3 3d c3 16 a8 3d 5d 04 1c 3d 03 6c 7d bb
       0.103172 0.082074665 0.0380901 -0.0038669116
0002d0 59 02 f2 3e 55 75 c4 3e be e6 0b 3f 0f fd 0d 3e
       0.47267416 0.38370767 0.5464896 0.13866065
0002e0 96 6e 99 3e 8c b0 08 3f c0 21 3c bd a3 44 d5 3d
       0.29967183 0.5339439 -0.045930624 0.10413482
0002f0 b0 aa a8 3e a4 58 43 be ba 42 28 bf 4e d6 18 bf
       0.32942724 -0.19076782 -0.65726817 -0.59702003
000300 84 e9 b3 3d f5 01 2e be a1 05 a8 be 3e 15 8a bd
       0.08784774 -0.16992934 -0.32816795 -0.06742333
000310 8a ad 96 be c9 b7 96 be 71 2e 80 3e e3 56 04 3e
       -0.29429275 -0.29437092 0.25035432 0.1292377
000320 9f 91 20 3e 7f 31 93 3e c7 de e7 3e 9f b6 12 3f
       0.1568055 0.287487 0.45287153 0.5730991
000330 d0 ae 11 3d d9 c3 b2 3e dd 10 fb 3e 60 16 ff 3b
       0.035567105 0.34915045 0.49036303 0.0077846497
000340 2a 7b 16 3e 99 dd c0 3d b3 5e c3 bb 9f 7d 58 3e
       0.14695421 0.094172664 -0.0059622168 0.2114167
000350 13 b8 86 3e 7c 6b 35 3e 54 97 24 3e d5 52 b0 3e
       0.26312312 0.17716783 0.16073352 0.34438196
000360 1a eb ed be 9d e8 dd bd 45 19 02 3d 77 84 c9 bd
       -0.4646843 -0.10835383 0.03176238 -0.09839719
000370 0e f1 70 3d 49 07 a8 3e 16 b7 69 3d 34 5b a1 3c
       0.058823638 0.32818058 0.05705937 0.01969681
000380 98 86 ce 3d 81 c9 59 3d c7 e8 3d 3d 68 05 19 bd
       0.100842655 0.053170685 0.046364572 -0.03735867
000390 87 93 3e be d1 6e 8f be b9 57 90 be 27 3b 00 3e
       -0.18610965 -0.28014234 -0.28191927 0.12522565
0003a0 be a3 2c 3d 97 7f 20 be ac d9 08 3f a9 ab 32 3f
       0.042148344 -0.15673672 0.5345714 0.6979318
0003b0 9c 48 fe 3e 81 13 ca 3d 2c 81 16 3f 13 0e f9 3e
       0.49664772 0.09867001 0.5879085 0.4864355
0003c0 53 11 f1 3d 67 b5 48 3e 50 21 8e 3e 05 70 07 be
       0.117708825 0.1960045 0.2775979 -0.13226326
0003d0 20 32 7f be 64 ee b1 be e2 76 b7 3b b1 e7 97 be
       -0.24921465 -0.3475219 0.0055988887 -0.29668954
0003e0 54 c5 a9 be c4 78 00 be e3 23 90 be 09 c9 f0 be
       -0.33158362 -0.12546068 -0.2815238 -0.47028378
0003f0 60 f5 f7 be 3f cc 19 bf e8 ee 03 bf 6a 58 0d bf
       -0.48429394 -0.6007728 -0.51536417 -0.55213034

cell_list.3.conv_gates.weight f4 [20, 20, 1, 1]
000000 0a ef 28 3f 18 0b 04 3e a9 3f 08 3e 25 0a 24 3f
       0.65989745 0.12894857 0.13305534 0.6407798
000010 25 f4 21 bf cc 87 5f 3f 25 c9 3c 3f 6e 49 0c bf
       -0.6326316 0.87316585 0.7374442 -0.54799545
000020 c5 5e 1f bf 58 ed 22 be 23 b1 51 3f 0f 92 5c bf
       -0.6225398 -0.15910852 0.81910914 -0.8616037
000030 89 e7 a0 be b1 d2 45 3f 22 76 8b be 26 d9 32 bf
       -0.31426647 0.77274615 -0.27238566 -0.6986259
000040 83 66 69 bf 80 6b 2a 3f f5 dc 09 bf ec 80 05 bf
       -0.91172045 0.6657028 -0.5385278 -0.52149844
000050 bc ff e5 3e 26 3e 8b be 52 ae bf be b4 71 1d 3f
       0.44921672 -0.27195853 -0.37437683 0.6150162
000060 e4 48 cc be 58 27 65 3f 85 d4 41 3f 42 0b 72 bf
       -0.3989936 0.8951316 0.75714904 -0.9454843
000070 17 de 4c bf 87 fb 0c be 30 54 81 3f cf 97 5e bf
       -0.8002638 -0.13767825 1.0103817 -0.8695039
000080 49 c5 2c bf 26 4c 88 3f 5c b9 57 bf 9b 04 78 bf
       -0.67488533 1.0648239 -0.8426721 -0.9688203
000090 b1 d1 30 bf 87 79 07 3f 23 41 8e bf 90 5f 34 bf
       -0.69069964 0.5291981 -1.1113628 -0.70458317
0000a0 f5 a0 58 3f 13 99 a0 be ee 46 48 bd 07 82 63 be
       0.846206 -0.31366786 -0.04889577 -0.2221757
0000b0 0f e5 cf 3c 85 c9 5e 3f 49 cd 67 3f b3 5f 86 be
       0.025377778 0.87026244 0.90547615 -0.26244888
0000c0 56 48 43 bf 60 7d 02 bf ff ed 17 3f 06 c4 27 bf
       -0.7628225 -0.5097256 0.5934753 -0.65533483
0000d0 e6 03 33 bf 2d c6 53 3f d2 bc f7 be d6 6e 21 bf
       -0.69927824 0.8272427 -0.48386246 -0.6305975
0000e0 d4 99 6b bf 0a 99 45 3f bf 44 4f bf c7 25 cf be
       -0.920316 0.77186644 -0.80964273 -0.4045851
0000f0 64 f1 5b 3e ce 52 d5 be 16 28 63 be 1b 1a e8 3e
       0.21478802 -0.41664737 -0.2218326 0.45332417
000100 83 d2 3c be 1c 0e ba 3e c0 d4 41 3f da 57 2c bf
       -0.18439679 0.3633889 0.75715256 -0.6732155
000110 42 20 23 bf fd 69 fe bb dc 4b 26 3f cf df 03 bf
       -0.63721097 -0.0077640996 0.649595 -0.5151338
000120 7c 9e 50 be dd 68 1e 3f 50 50 9d be db c9 09 bf
       -0.20372957 0.6187876 -0.30725336 -0.5382363
000130 fb 40 98 be 0e a7 19 3e 7f 57 da be 27 5f 8b be
       -0.29737076 0.15005133 -0.4264488 -0.27221033
000140 e4 f4 b5 3e 4a ac 3a be ef e3 38 3d e7 b7 5c bd
       0.355384 -0.18229786 0.04513925 -0.05388632
000150 52 f2 db bc b4 58 26 3f c8 05 a6 3e 3d 0a 0a bf
       -0.026848946 0.649791 0.32426286 -0.5392187
000160 38 10 17 bf 5b 4e cf bd db db 1b 3f c7 b5 23 bf
       -0.5900912 -0.10122367 0.6088235 -0.63949245
000170 f8 ac 2e bf d6 70 3a 3f 7f ec 0a bf ee 20 fc be
       -0.6823268 0.72828424 -0.54267114 -0.49243873
000180 89 8c ea be 0e ba dc 3e bc 10 ab be 21 0b ee be
       -0.45810345 0.43110698 -0.33411205 -0.46492866
000190 27 2b 1c 3f 87 eb 8d be 92 34 8e be 85 d0 cb 3e
       0.61003345 -0.27718756 -0.27774483 0.39807525
0001a0 02 59 2a bf e3 4a 3a 3f 06 b6 20 3f 1f 70 42 bf
       -0.66542065 0.7277052 0.62777746 -0.75952333
0001b0 a6 72 45 bf 6e ea 8a 3c 90 67 67 3f e6 dd 6f bf
       -0.77128065 0.016957488 0.903924 -0.93697965
0001c0 6e 23 53 bf 8e 47 41 3f 84 f0 20 bf 33 10 59 bf
       -0.82475936 0.7549981 -0.62867 -0.84790343
0001d0 c0 73 6f bf f8 69 47 3f 7d 40 77 bf 31 91 5a bf
       -0.93535995 0.7789607 -0.96582776 -0.85377795
0001e0 e9 a7 01 3f cd eb eb be 8f c0 c6 bd b2 af a1 3e
       0.50646836 -0.4607834 -0.097046964 0.31579357
0001f0 ea 6d 1e bd 7e 19 13 3f ab 8d 59 3f 69 cc 18 bf
       -0.03867904 0.57460773 0.84981793 -0.59686905
000200 f5 be 57 bf f5 00 4f 3d 75 0c 6c 3f 2c a6 3d bf
       -0.8427575 0.050538022 0.9220651 -0.74081683
000210 7d be 5f bf a1 cc 53 3f 71 01 b7 be 6d a1 4d bf
       -0.8740004 0.82734114 -0.35743287 -0.8032444
000220 9c 39 24 bf da 9e 1d 3f 6e 6a 55 bf b6 07 22 bf
       -0.64150405 0.61570513 -0.83365524 -0.63293016
000230 a9 62 d2 3e c2 63 34 be eb 56 92 bb 1f de 8c 3e
       0.41090897 -0.1761618 -0.004465928 0.27513215
000240 a5 26 c9 3d 3d b5 dc 3e 3f 43 38 3e 82 75 d1 bd
       0.09821824 0.43107024 0.17994402 -0.10227491
000250 ff 42 19 bf a3 bb 11 3a db c7 01 3f a0 98 6d be
       -0.5986785 0.0005559271 0.5069558 -0.23202753
000260 53 3e f5 be 66 fc 92 3e 09 2f db be 80 00 dc be
       -0.47899112 0.2870819 -0.42809322 -0.4296913
000270 d4 1f d2 bd 6b fc 9e 3e 32 15 0d bf 83 e0 95 be
       -0.10259977 0.31051955 -0.55110466 -0.2927285
000280 20 c2 ab 3e 50 c7 97 3e 71 08 b5 bd fa db e1 3e
       0.33546543 0.2964425 -0.08839501 0.4411314
000290 60 f3 32 bf 00 15 17 3f d8 78 58 3f ff c1 e5 be
       -0.6990261 0.5901642 0.8455939 -0.4487457
0002a0 e6 1c f6 be 84 af cc 3d 3d 1f 44 3f 97 b7 4b bf
       -0.48068923 0.099944144 0.76610166 -0.7957701
0002b0 88 e4 2d bf 40 b3 0b 3f f4 77 76 be aa 6a 40 bf
       -0.67926836 0.5457039 -0.24069196 -0.75162756
0002c0 ec 41 48 bf 16 42 22 3f df 8c 53 bf 46 8c 29 bf
       -0.7822559 0.6338209 -0.8263683 -0.66229665
0002d0 4b db ee 3e 79 73 4f be 80 c7 3c bc 34 91 44 3f
       0.46651682 -0.20258893 -0.011522174 0.7678406
0002e0 b2 a5 7a bd d6 0d 2b 3f 47 a0 38 3f 44 ba ee be
       -0.061193176 0.66817987 0.72119564 -0.46626484
0002f0 4e 7b 68 bf 3a a9 9f be dd 98 29 3f 77 4d eb be
       -0.9081315 -0.31183797 0.66248876 -0.45957538
000300 bf d5 d0 be 02 10 42 3f aa 00 98 be 19 43 0c bf
       -0.40788075 0.75805676 -0.29688007 -0.5478988
000310 91 01 37 bf 6f db b1 3e 49 5b 42 bf 55 64 39 bf
       -0.71486765 0.34737727 -0.7592054 -0.7241872
000320 e7 76 d9 3e cc 31 79 be 67 b7 01 be 69 1f 48 be
       0.42473528 -0.24335402 -0.12667619 -0.19543232
000330 02 0e 9b bd ea b6 f3 3e d6 c6 0b 3f a5 84 c2 be
       -0.07571031 0.4760049 0.54600275 -0.37991825
000340 4e 98 7e be 8f 4c 8a bd 94 25 b8 3e 10 14 ad be
       -0.24862787 -0.06752884 0.3596617 -0.3380437
000350 d9 67 19 bf 45 38 0d 3f 21 64 fa bd 99 49 f1 be
       -0.59924084 0.55163985 -0.12226129 -0.47126463
000360 06 93 d2 be 57 a2 b2 3d 94 39 22 be 68 86 33 be
       -0.41127795 0.0872237 -0.15842277 -0.1753174
000370 7c 89 5f 3e 42 fd 86 be 6e eb 08 be 9a c7 1c 3f
       0.2182979 -0.26365095 -0.1337106 0.6124207
000380 ae 31 a2 be 6e c7 17 3f 7c 96 c8 3e 6a 63 dd be
       -0.31678528 0.5928868 0.3917731 -0.4323991
000390 cc 6e f9 be 4f b7 02 3f 4b 4c 09 3e 28 9a 00 bf
       -0.48717344 0.51060957 0.1340801 -0.50235224
0003a0 e0 40 68 be 0e a8 0e 3d c2 65 33 be 6e 67 00 bf
       -0.22680998 0.03482824 -0.17519286 -0.5015782
0003b0 74 73 83 be c3 9e 82 3e 12 d8 0b be 16 89 22 be
       -0.2567402 0.2551175 -0.13656643 -0.15872607
0003c0 71 0d 49 3f c9 c6 10 bf 97 46 df be f1 5d 6e be
       0.78536135 -0.5655332 -0.43608543 -0.23278023
0003d0 37 16 66 bd ca dd d1 3e 61 bf 35 3f 45 7e 37 bf
       -0.05617353 0.40989524 0.70995146 -0.71677047
0003e0 ce 14 23 bf 9c e8 a4 be fc ce e1 3e 54 72 46 bf
       -0.6370362 -0.32208717 0.4410323 -0.775182
0003f0 e0 ea 66 bf 40 9b 00 3f 9e 82 60 be c1 0f ff be
       -0.9020214 0.5023689 -0.21924827 -0.49816707
