saved_models/image_benchmark/brainlike_thickness_4.pt (torch, 118504 bytes, 14 tensors)

cell_list.0.conv_gates.weight f4 [20, 11, 3, 3]
000000 89 68 44 3c 06 9c 42 3c ab 2e a8 bd 1f c3 6e bd
       0.011987814 0.011878019 -0.08212026 -0.05829155
000010 b8 de ca bd e5 ca bd bd 1e e8 ca 3d 47 10 aa 3d
       -0.099057615 -0.09267215 0.09907554 0.08303886
000020 35 42 c3 3c da 49 c3 3d 32 18 15 bd 23 ca 6a bd
       0.02383528 0.095355704 -0.036400028 -0.05732168
000030 d1 79 af 3d 88 6e ae bb c5 57 9c 3c 2c 5c 73 3d
       0.085681565 -0.005323235 0.01908482 0.059414074
000040 0f ef 58 3d 5d b7 6b bd 98 34 1f bd ef f5 bd bd
       0.05296236 -0.057547916 -0.038868517 -0.09275424
000050 ca 18 91 3b 70 96 13 bd a4 d0 b0 3c 9c 37 99 3b
       0.004428004 -0.03603214 0.021583863 0.0046758186
000060 a4 7a af 3d 30 d2 0d 3c 91 4d 4e 3d b1 e6 01 3d
       0.08568314 0.00865607 0.05036694 0.031714145
000070 af 9e b6 3d bc 21 2b bd 78 dd ab 3d e6 a1 93 3d
       0.08916985 -0.04178022 0.08391851 0.07208614
000080 90 4d 24 bd f8 56 7c 3d 6c 4a be 3d 96 c3 68 bd
       -0.040113032 0.061606377 0.092915386 -0.05682715
000090 05 92 20 bd 60 cf 8c 3d 4d f7 a5 3d 0e 31 d9 3c
       -0.039201755 0.06875491 0.081038095 0.026512649
0000a0 a3 d4 fc 3c f0 73 98 3d 16 63 b4 3d e3 2d 82 bd
       0.030863112 0.07443988 0.08807962 -0.063564084
0000b0 00 55 29 bd c9 4d ad 3d 05 59 5e 3d 06 28 41 bd
       -0.041340828 0.08462102 0.054284114 -0.04715731
0000c0 ea ad 0b bd cd bf c7 3d d2 ea 80 bd 82 68 84 3d
       -0.034101404 0.0975338 -0.062947884 0.06465246
0000d0 e8 e0 6e 3d 07 67 c5 bd 49 78 cd bd 00 a9 08 3d
       0.058319956 -0.096387915 -0.10032708 0.033364296
0000e0 02 fb 49 3d d7 72 b6 3d 30 f5 4a 3c cd a3 8b 3d
       0.049311645 0.08908623 0.012387559 0.06818352
0000f0 ea 47 92 bd 6f ba 75 3d a7 49 c6 bd f9 15 86 3d
       -0.07142623 0.05999225 -0.09682017 0.0654716
000100 ef 85 32 3c 4e 49 7e 3d e1 9c 22 3d 5e 65 8e bd
       0.01089619 0.062081628 0.039700393 -0.06952928
000110 be cc 88 3a d1 47 50 3c 90 b8 6c 3c 95 37 b4 bd
       0.0010436994 0.012712435 0.0144483 -0.08799664
000120 56 ef 4f bd 9c ea 41 bd c2 c2 5f bd 3e 44 af 3d
       -0.050765358 -0.04734288 -0.054629095 0.08557938
000130 40 dd 68 3d 4a 82 29 3d 92 d1 f6 bc 08 01 a7 bd
       0.056851625 0.04138402 -0.030129228 -0.081544936
000140 9a 34 af 3c fe 2d be 3d 20 36 37 3d 9b 2d a6 bd
       0.021387387 0.09286116 0.044729352 -0.08114167
000150 95 fc 11 bc 59 c3 85 3b 16 a1 82 3d 0c e8 2d 3d
       -0.008910318 0.004082125 0.06378381 0.042457625
000160 68 27 91 bd 93 1c c2 bd e1 77 f4 3c 58 f7 48 3d
       -0.07087594 -0.09478106 0.029842319 0.04906401
000170 9d 1b 6c 3d eb b0 8d 3d 9d f3 b5 3d 88 d6 2b bd
       0.05764352 0.0691851 0.08884356 -0.04195264
000180 37 35 c8 bd 8c 99 49 3d 58 8b c6 3d d1 ec 95 bd
       -0.09775775 0.0492187 0.096945465 -0.0732056
000190 c9 3b 4f bd 11 3c b0 3d 24 c3 a0 3d a5 7d 1d bc
       -0.050594125 0.08605207 0.0784972 -0.0096124755
0001a0 41 f8 6a bd 49 f0 96 3c 87 99 c9 bd 54 9a 22 bd
       -0.05736566 0.018425124 -0.09843736 -0.03969796
0001b0 ff 17 55 bc 74 3a c4 bc c0 9f 29 3d a5 5f 0b 3b
       -0.013006209 -0.023953654 0.041412115 0.0021266725
0001c0 ea 2b a2 bd af 88 21 bc 34 fa 18 3c e7 9b 80 3d
       -0.07918532 -0.009859248 0.009336997 0.06279736
0001d0 c0 6e b9 3b c0 8b 0f bd 86 54 20 3d b6 b0 3d 3d
       0.0056589544 -0.035045385 0.039143108 0.046311103
0001e0 c1 45 9c 3c e2 0d 5d bd 9e b7 de 3c 86 67 6b 3c
       0.01907623 -0.053968318 0.027187165 0.014367944
0001f0 ff 15 67 3d 5f f5 e0 bc e0 e5 d5 bb ab ce 56 3d
       0.05641746 -0.027460752 -0.0065276474 0.052443188
000200 91 c2 5a bc 50 d5 56 3d a7 49 84 bc 6c c7 b4 3d
       -0.013352052 0.052449524 -0.016148401 0.08827099
000210 2e 72 4a ba 1d ad ad bc 12 be 0e 3d c2 bc a6 bb
       -0.00077227026 -0.02120071 0.034849234 -0.0050884197
000220 d5 c4 a4 3d 88 0b 67 bc 71 61 8a 3d 45 e6 d4 bc
       0.08045355 -0.01410187 0.06756867 -0.025988707
000230 86 a7 10 3c 77 81 05 3d 4e 2e c1 bd 99 77 9e 3c
       0.008829003 0.03259417 -0.0943266 0.019344138
000240 46 dc 5f 3d 14 84 22 3d 38 7c 21 3b 43 17 2a bc
       0.05465343 0.03967674 0.002464069 -0.010381523
000250 ca 8e 01 3d 00 42 f9 3c 17 50 46 bd 60 ae 20 3d
       0.031630315 0.030426979 -0.048416223 0.039228797
000260 82 44 b0 bd e9 72 81 3b 4d 8a 0d bd ee 3e 2c bd
       -0.08606817 0.003950466 -0.034555722 -0.042052202
000270 11 ef a6 bd 5a cc a1 3d 58 af 17 3c ef 7c e2 3b
       -0.08151067 0.07900305 0.009258114 0.006911866
000280 e7 da 77 bc 32 b8 2a bd 1c 22 9f bd 73 d5 9c 3c
       -0.015127874 -0.04167957 -0.07770178 0.01914475
000290 7b 92 a0 bd 03 2b 30 bd 99 f0 4e 3d 66 39 ac 3d
       -0.07840439 -0.04300977 0.05052242 0.084093854
0002a0 f3 92 03 bd 48 c4 ca bd 84 4c c9 3d bd d9 5e 3d
       -0.032122564 -0.09900719 0.09829047 0.05440687
0002b0 e0 8a 94 3d 7f 2a 96 bc b3 a6 a9 bc 45 04 21 3c
       0.07253051 -0.01833081 -0.020709371 0.009827678
0002c0 25 80 c9 3c 11 40 2a 3b 21 a8 55 bd 51 db b7 3d
       0.024597237 0.0025978128 -0.052162293 0.08977378
0002d0 1e 41 40 3d 27 c5 14 bc dc 56 af bd 7b bf 4a bd
       0.0469371 -0.009080208 -0.08561489 -0.049499016
0002e0 1e 94 0f bd ea 52 89 bc cc dc e3 3c c8 96 89 bc
       -0.035053365 -0.01676317 0.027815245 -0.01679553
0002f0 a1 72 0e 3d e5 b1 85 bd cd 27 b4 bc 44 0f 3a 3d
       0.034777287 -0.06528071 -0.021991635 0.045424715
000300 57 26 ca 3d 65 e2 ad bd 9e 2f 2b 3c 7d 67 59 3d
       0.09870594 -0.08490447 0.010448365 0.05307721
000310 cd a3 31 bc 98 d1 bf 3c 51 82 80 3d 80 85 cc bd
       -0.010842276 0.023415372 0.06274856 -0.099864006
000320 ad c3 73 3d 7b 02 b8 bd b2 f3 98 3c 32 2d 79 3d
       0.059512783 -0.08984848 0.01867089 0.060834117
000330 61 21 3b bd 95 d3 6d 3a a5 99 c5 bd 7d d7 ca bb
       -0.04568613 0.00090723607 -0.09648446 -0.006190239
000340 bf fb 67 3d 17 2e 4d 3d c5 07 dc 3c bd 1e 07 bc
       0.05663657 0.050092783 0.026859174 -0.008247075
000350 f4 ab 28 bd 55 50 a7 3d db 29 f3 3c af 79 12 3d
       -0.041179612 0.08169619 0.029683044 0.035760578
000360 1f 73 48 3d c7 b7 e8 bc 81 3f fb bb 03 39 c2 3d
       0.048937913 -0.028407944 -0.0076674824 0.0948353
000370 a4 3c b8 3d c4 49 cc bd ca a7 af bd bb 98 ec bc
       0.08995941 -0.09975007 -0.08576925 -0.028881421
000380 0e 1d d0 3c 31 6b 57 bd 37 f9 4b 3d 32 ab b8 bd
       0.02540448 -0.05259246 0.049798217 -0.09017028
000390 92 0c 47 bc 20 ad 84 3d 16 2a d2 bc 94 c3 d2 bc
       -0.012148993 0.064783335 -0.025654834 -0.025728025
0003a0 12 97 b2 3c 35 ad 9d 3d df b0 b8 3c 6e 35 23 3b
       0.021800552 0.07699052 0.022545276 0.0024903673
0003b0 58 fc 22 bb fe 6d ae bd 39 09 23 bd c4 02 cd 3d
       -0.0024869647 -0.08517073 -0.039803717 0.10010293
0003c0 9d c2 89 bd b2 3e 42 3d 76 f3 0e bd 7a 54 0b 3d
       -0.06726573 0.047423072 -0.03490015 0.03401611
0003d0 40 c1 36 3d 1d 91 91 3d e1 71 7f bd a8 ee 50 bc
       0.04461789 0.07107756 -0.062364463 -0.012752213
0003e0 f0 4e 8c bd 9d ca a7 3c f2 db 42 bd 37 c4 22 3c
       -0.06850994 0.020482356 -0.047573037 0.009934477
0003f0 d3 56 a9 bd aa d5 b9 bc 87 f1 ab bd 29 29 ae bd
       -0.082685135 -0.02268489 -0.08395677 -0.085039444

cell_list.0.conv_can.weight f4 [10, 11, 3, 3]
000000 4b fe c1 be 7a af 4a bd 99 74 ec 3c 38 e6 6c 3e
       -0.37889323 -0.049483754 0.028864192 0.23134696
000010 3c 08 61 3f 26 a3 9a 3f 7b dd 3f bf 3e 6d 68 3d
       0.8790319 1.2081039 -0.7494733 0.056744806
000020 35 b6 e8 3e 35 85 84 3d d0 07 de bc ce df 99 bc
       0.45451513 0.0647072 -0.027103335 -0.018783476
000030 8f 73 9c bd 4b 59 13 bd 07 b0 42 3b 67 3f fb 3c
       -0.076392286 -0.03597383 0.0029706971 0.030669881
000040 c6 21 ae bd 05 d4 5f 3a 91 c3 f8 bc 5b ed c4 3d
       -0.085025355 0.0008538368 -0.03036669 0.096155845
000050 a8 d0 41 3d d3 05 c0 3d e1 fe 09 bd 29 4d d2 3c
       0.04731813 0.09376111 -0.033690337 0.025671558
000060 13 e3 be bd f2 8e 2b 3b a6 99 20 3d fc d5 b5 3c
       -0.09320655 0.0026177731 0.03920903 0.022196762
000070 05 e8 6b 3c d8 83 8a bd b2 b0 c7 bc ca a4 3a 3d
       0.0143985795 -0.067634284 -0.024376247 0.04556731
000080 70 11 3b bd bd fd a1 3d 57 b9 55 3d 9b ce 6a bd
       -0.045670927 0.07909725 0.052178707 -0.05732594
000090 a4 a0 78 3c 6e 55 80 3d a5 34 e2 bc 7c 72 2f 3d
       0.015175018 0.062662944 -0.027612993 0.04283379
0000a0 c4 ee 7c 3b e3 1f bd bc e2 61 54 bd 01 61 25 bd
       0.0038594464 -0.023086494 -0.05185116 -0.040375713
0000b0 46 4a 84 bd 08 ef 87 bd e5 14 87 bd 6b e4 72 3d
       -0.06459479 -0.066373885 -0.06595782 0.059299868
0000c0 fc ed 9a 3d a2 45 bd bd 23 92 a8 3c ba b0 cd bd
       0.07564923 -0.09241797 0.020577496 -0.100434735
0000d0 6b 77 13 3d a2 df a2 bd 72 f8 a3 3d d7 c2 bf bd
       0.036002558 -0.07952811 0.080063716 -0.093633346
0000e0 9e ab df 3c 28 40 f8 ba 74 92 53 3d da 75 32 3d
       0.027303513 -0.0018940018 0.05165334 0.043569423
0000f0 eb 82 12 bd ca 62 45 3c 46 6a a5 3d 4b 85 46 bc
       -0.035769384 0.012047479 0.08076911 -0.01211674
000100 45 00 79 3d c6 e3 cc bd 18 35 26 bd 75 9a 10 bc
       0.060791273 -0.10004382 -0.040577978 -0.008825888
000110 60 a7 7e bb 17 35 c9 bd 47 74 ad 3d 9d 35 c5 bc
       -0.0038857087 -0.09824579 0.08469444 -0.024073416
000120 29 9e 05 bc a4 1b 26 bd 17 f1 eb 3c b1 9d 17 bd
       -0.008155384 -0.040553704 0.028801484 -0.03701562
000130 cc 00 a5 bd e0 95 21 bd b1 7f af 3d 62 58 ec 3b
       -0.080567926 -0.039449573 0.08569277 0.0072126845
000140 11 8a cf bc cf c0 99 bd 5b e7 b6 bc 7f 04 d5 bc
       -0.02533439 -0.075074784 -0.022327116 -0.02600312
000150 af 45 b1 3d 9f 01 1a 3d 97 82 9a 3d 8d 11 b2 3d
       0.08655869 0.037599202 0.07544439 0.08694754
000160 45 6e a2 3d b9 89 cd bd 79 ae 15 bb e1 b0 6e 3d
       0.079311885 -0.10036034 -0.002283959 0.058274154
000170 bb 0f 00 bd 2a 8c b8 bc ca 68 29 bc 44 ad 92 3d
       -0.031265 -0.022527773 -0.010339925 0.07161954
000180 d4 0d bb 3c 14 c7 8f bd 52 bc 1d 3d 96 e2 39 3f
       0.022833742 -0.07020393 0.038509674 0.7261137
000190 92 79 6a 3f fb 77 4f 3f 70 5b 59 bd b2 3f 4b 3e
       0.9159175 0.8104245 -0.053065717 0.19848517
0001a0 0e 14 c5 3c d8 5f ae be 28 a4 e2 be 36 93 6d bf
       0.024057414 -0.34057498 -0.44265866 -0.9280275
0001b0 c1 9c 9e bd 26 67 4b 3d 0f fe 6a bd f4 c1 05 3d
       -0.07744742 0.049658917 -0.057371195 0.03265567
0001c0 d9 06 32 3b b5 2c bd bd d9 1a e3 3c 02 08 77 bd
       0.0027164726 -0.09237043 0.027722763 -0.06031037
0001d0 0b 26 43 bd d3 bc bd 3d 63 fb 6c bd e1 0a 4c bd
       -0.047643702 0.09264531 -0.05785693 -0.049815062
0001e0 29 0d 4d bd 82 2e 85 3d 23 c6 25 3d d7 c8 33 bd
       -0.05006138 0.06503011 0.04047216 -0.043892708
0001f0 04 3e bf bd d2 ee 94 3d 2c e3 44 3d a9 70 3c bd
       -0.093380004 0.07272114 0.04806821 -0.04600588
000200 fd d5 25 3d b6 3b 2f 3c c3 b6 b0 bc ee 02 a3 3d
       0.04048728 0.010695389 -0.021571523 0.07959543
000210 cd a8 88 3d bc df 26 3b b2 49 c9 bb b0 aa 7f bd
       0.06672821 0.0025462946 -0.0061428184 -0.06241864
000220 3a b9 35 3d b0 21 c2 3d d3 78 7f 3c 84 f9 c7 bd
       0.0443661 0.09479082 0.015592772 -0.09764388
000230 3c 7a 3e bd 18 92 2c bc c7 46 8b bd 0b b8 47 3d
       -0.04650329 -0.010532878 -0.06800609 0.0487595
000240 ab b7 44 3d e9 8a 89 3d 46 13 c9 3c c8 d0 95 bd
       0.048026722 0.06715948 0.024545323 -0.073152125
000250 8f 65 98 3a ac ab 3b 3d dd aa 65 bc 9a 74 3c bd
       0.0011626947 0.045818016 -0.014017788 -0.046009637
000260 5a 96 95 3c b4 8d 2e bd 69 95 1e 3d c9 8a ef bb
       0.01826017 -0.042615607 0.038716707 -0.0073102457
000270 ac 4a 3e bd fb 18 65 bb 19 a5 f6 bc 9f 85 90 3d
       -0.04645793 -0.0034957516 -0.030108022 0.07056736
000280 e0 2a 35 3c d0 fd 1d bd 64 02 45 3d 36 a6 40 3c
       0.0110575855 -0.038572133 0.048097983 0.011758378
000290 17 c0 49 3d 2d 80 33 bd 8d e9 34 bc 74 ac 0c bd
       0.049255457 -0.04382341 -0.011042011 -0.03434415
0002a0 54 77 31 bd 3c cf a3 3d 05 34 07 bd d2 27 4d 3d
       -0.04332669 0.07998511 -0.033008594 0.050086804
0002b0 e9 96 cd 3d e7 51 0e 3d d5 e7 70 3c 34 75 1d bc
       0.100385495 0.034746077 0.014703711 -0.009610463
0002c0 87 af 4d 3d e2 b5 93 3d f0 80 17 3d 60 40 9b bd
       0.050216224 0.07212426 0.0369882 -0.07580638
0002d0 98 61 62 bd f5 a0 c6 3c f5 d9 2e 3d d0 7d 96 bb
       -0.055268854 0.024246672 0.04268833 -0.0045926347
0002e0 a8 2f cb bd 2f 3e ea bb 0b 89 a2 bd 9f 78 77 bd
       -0.09921199 -0.007148526 -0.07936295 -0.060417768
0002f0 28 94 20 bc 76 7f d8 3c 68 d4 c4 3d d6 e8 a9 3d
       -0.009800948 0.026427966 0.09610826 0.08296363
000300 43 25 98 3c 09 e7 8e bd 86 21 68 bd 96 a8 b4 3d
       0.018572455 -0.0697766 -0.056672595 0.08821218
000310 b2 18 ab bd 98 b6 97 3d f2 2a 14 be 74 25 81 3d
       -0.0835432 0.07407874 -0.14469507 0.06305972
000320 39 1a a2 bc fe 42 ea 3e 33 e1 fa 3e b7 82 28 3f
       -0.019787895 0.45754236 0.48999938 0.65824455
000330 42 f4 ad be 9c 6b fb bc d7 62 79 3e 64 27 cb bc
       -0.33975416 -0.03069096 0.2435411 -0.024799056
000340 71 9a a1 3d 09 c8 16 bc 84 01 dc bb d1 a6 22 3c
       0.078907855 -0.009202966 -0.006714048 0.009927467
000350 a6 3f 37 3d 9f 05 4b bc 3d ea 3d bd 13 14 89 bc
       0.044738434 -0.012391477 -0.046365965 -0.016733205
000360 1b 42 52 bc 1b 10 46 3c d4 74 9f bd d1 c4 34 3c
       -0.012833144 0.012088801 -0.07785955 0.011033253
000370 94 94 19 3c 2e 08 a3 bc 14 cc 59 3d f1 a8 c0 3d
       0.009373803 -0.019901361 0.05317314 0.09407223
000380 8a f8 95 bd ca 71 a9 bd 54 95 9c ba d9 52 8d 3c
       -0.07322796 -0.08273657 -0.0011946359 0.017251419
000390 07 86 e2 bc 13 e0 c3 3d b2 85 55 3c b4 fd bf bd
       -0.0276518 0.09564223 0.013032364 -0.09374562
0003a0 b6 8a 14 3c 00 74 ac bd 14 b1 4e 3d 41 22 73 3d
       0.009066274 -0.08420563 0.050461844 0.05935884
0003b0 e1 76 a9 3d ec c7 8f bd 48 36 79 bd f4 a4 89 bd
       0.082746275 -0.07020554 -0.060842782 -0.067209154
0003c0 75 20 2a 3d be fb 16 bc a0 b1 c1 3d ca 56 7a bd
       0.04153486 -0.009215293 0.094577074 -0.061117925
0003d0 c0 24 31 bd 91 5c 60 bd 49 68 ef bc f1 90 14 bd
       -0.04324794 -0.05477578 -0.029224532 -0.03627104
0003e0 ee 81 ab 3d e9 35 60 3d 23 d4 1b bd 5a c2 7a bd
       0.083743915 0.054738913 -0.038044106 -0.061220504
0003f0 6c 47 da bc 42 e7 8e 3d b4 85 0a 3d 82 95 c4 3d
       -0.026645385 0.06977703 0.033818915 0.09598829

cell_list.1.conv_gates.weight f4 [20, 20, 3, 3]
000000 ec 40 51 3d 31 99 09 bd 2e ce 8c bc dd 86 a3 3c
       0.051087305 -0.03359336 -0.017188158 0.019961769
000010 c7 a0 1a 3d 89 e0 96 3d 49 7f aa 3c f1 15 95 bd
       0.037750985 0.073670454 0.020812647 -0.072795756
000020 66 d0 8c 3d 74 aa 18 3d b2 bc 8e bd 87 66 62 bd
       0.06875686 0.03727193 -0.069695845 -0.05527356
000030 ac af 69 3d 42 e1 88 3d ec 0e 1a bd 10 25 08 3d
       0.0570523 0.066835895 -0.037611887 0.03323847
000040 67 21 fd 3c 75 c8 7e 3d 2a 50 ac bc 2f 97 fb 3b
       0.030899717 0.06220289 -0.021034319 0.0076779346
000050 c9 e2 a3 3c 88 86 48 bc c9 db fc bb 51 9e 80 bd
       0.0200056 -0.012239106 -0.00771663 -0.062801965
000060 77 65 e0 3c 0b 2e 26 3d a2 ce 3c bd e9 6a fd 3c
       0.027392132 0.040571254 -0.046095498 0.030934768
000070 96 5d b0 3c 4d 7e 03 3d bd 5b 2e bd 31 f0 f9 bb
       0.021529 0.03210287 -0.042567957 -0.00762751
000080 11 1a 3b 3b 95 4a 2c 3d 4e 60 38 bd 88 75 16 bd
       0.0028549472 0.042063314 -0.04501372 -0.03673318
000090 02 8d 57 3d f8 a0 12 3d 4c b8 49 3d c8 3a 93 3d
       0.05262471 0.035798043 0.049248025 0.07188946
0000a0 bc 19 18 bd 36 b4 ea bc d5 ac 7e 3d 1d 42 51 bd
       -0.037133917 -0.028650384 0.062176544 -0.05108844
0000b0 fe 43 3b bd da 47 88 3d 30 a6 7a bd d0 85 0a 3d
       -0.04571914 0.066543296 -0.061193645 0.03381902
0000c0 be d3 71 3d 9b 9a bb bc d4 9f 71 3d b9 48 6b 3d
       0.059039824 -0.02290087 0.058990315 0.0574424
0000d0 b6 d3 74 bd 17 9d 17 3d 76 cd 3d 3d 98 55 35 bc
       -0.059772216 0.037015047 0.04633852 -0.01106777
0000e0 aa 52 8d bd d0 8b 3d bd 11 0a 25 bd 20 79 75 bd
       -0.069005325 -0.046275914 -0.040292803 -0.059929967
0000f0 df 74 97 bd 30 f3 2b bd de d5 a1 bc 69 02 12 3b
       -0.07395338 -0.04197997 -0.0197553 0.0022279269
000100 2f f6 e1 3a c5 3e 41 3b 6b 26 75 bd 14 39 e5 3c
       0.0017239506 0.0029486876 -0.05985109 0.027981319
000110 1f 14 96 3a 0a 98 80 3d 09 27 58 bd 69 6f 97 3d
       0.0011450088 0.06278999 -0.0527716 0.07394297
000120 a2 0b 84 bd 39 d3 0d 3c dc ef cc bc 25 9f 5b bd
       -0.06447531 0.008656316 -0.025016718 -0.05361857
000130 0d f0 7e bd 5b df 83 bd d3 17 5a bd 60 d2 80 bd
       -0.06224065 -0.06439086 -0.053245377 -0.06290126
000140 f3 62 3e bd 0a 31 07 3c 6b 80 cd bc b4 c9 55 3d
       -0.046481084 0.008251438 -0.025085649 0.052194312
000150 3a 7f 2a bc 5f 26 70 bd 8d a6 bd 3c 85 ff 91 bd
       -0.01040631 -0.058630344 0.023150707 -0.071288146
000160 58 b0 28 bd ee 5c 5c bd 24 aa 05 3d 86 c5 42 bc
       -0.0411838 -0.053799562 0.032632962 -0.011887914
000170 2c 44 9e 3c c1 d9 16 3c d8 15 8f bd 2b 38 e2 bc
       0.019319616 0.00920719 -0.06986588 -0.027614674
000180 db 28 7d bd 17 5c ef bc d6 5f 8e 3c f0 70 82 3c
       -0.06180654 -0.029218717 0.017379683 0.015922993
000190 c4 a6 41 bd a4 59 05 bc 15 d2 8b 3a 5b 6e 15 bc
       -0.04727818 -0.008139048 0.0010667468 -0.009120549
0001a0 95 e1 0d 3d d7 f8 a9 bb 0e 92 24 3c aa cc 22 3d
       0.03463896 -0.0051871347 0.010044588 0.039745964
0001b0 f3 84 d7 3c 2a de 80 3c cb fc 90 3b 88 e8 d9 3b
       0.026308512 0.015730936 0.0044246665 0.0066500343
0001c0 a8 09 24 bd 62 ef 3c bc 04 9a 2b bd 62 25 90 3b
       -0.04004827 -0.011531683 -0.041894928 0.0043989876
0001d0 54 92 8c bd 1a 58 65 3d c6 05 21 3d c8 42 f2 3c
       -0.068638474 0.055992223 0.039312147 0.02957286
0001e0 8c f9 41 bd bc 95 a3 3c 9b 8a f1 3c c3 8e 8d 3b
       -0.047357127 0.01996886 0.029485038 0.004319997
0001f0 73 79 39 3d 6f 64 8a bd b4 08 0a bd 27 d8 ed 3c
       0.04528184 -0.067574374 -0.033699706 0.029033734
000200 b2 b9 4f bd 1b 68 68 3a bc 25 13 3d 3b 6f 8e bd
       -0.050714202 0.00088656106 0.03592466 -0.06954809
000210 8a f4 26 3d 85 77 7e ba e4 48 e1 bc 88 d6 32 3d
       0.040760554 -0.0009707141 -0.027500577 0.043661624
000220 f0 c9 84 3d 1c c5 54 bd 16 e6 61 3a 73 3d 43 3c
       0.06483829 -0.05194579 0.00086173543 0.011916506
000230 a9 5d 35 3d 00 1d 0c 3d 85 cc 34 3b 20 0e b6 3c
       0.044278774 0.034207344 0.0027587723 0.022223532
000240 b8 9b eb bc 2f 48 07 bc 05 49 3c 3c 1b 52 86 bc
       -0.028760776 -0.008256956 0.011492019 -0.016396573
000250 59 ba 74 bd 4a 19 d6 3c f9 fe 43 3d 75 45 35 bc
       -0.059748027 0.026135106 0.047850583 -0.011063923
000260 ee 7e f5 bc 18 45 8a 3d 1e bb 1b bd 47 e6 7e bd
       -0.029967751 0.0675146 -0.038020246 -0.06223133
000270 e9 c1 97 bd 91 5a 2f 3d 56 21 69 bd a0 8e 8b bd
       -0.07410032 0.04281098 -0.056916557 -0.06814313
000280 84 0c f0 bb 72 b1 57 3d 51 d0 44 3d a8 9b 98 3d
       -0.0073257107 0.05265946 0.04805023 0.07451564
000290 8d 6e 8e 3d aa 65 b6 3c 46 5e c4 3c 34 77 0a bd
       0.0695468 0.022265274 0.023970734 -0.033805087
0002a0 49 d1 73 bd 85 90 4d bb 95 38 bc bc e0 a1 05 bd
       -0.05952576 -0.0031366658 -0.0229762 -0.03262508
0002b0 0a de 9b 3b a4 b2 77 3d 7e 3a 13 3d eb 99 90 3c
       0.0047566937 0.0604731 0.035944454 0.017651519
0002c0 a2 bf d6 3c d3 39 86 bd 26 e7 67 3d 48 35 92 bc
       0.026214425 -0.06553998 0.056616925 -0.017847672
0002d0 e9 55 09 3d ae 03 03 bd bc f1 07 bd 3f fa 0a 3d
       0.033529196 -0.03198593 -0.03318952 0.03393006
0002e0 99 64 42 3d 61 ab 74 3d 99 55 43 bd 08 3d ce 3c
       0.04745922 0.059733752 -0.047689054 0.025175586
0002f0 12 df 92 bd 65 f4 75 3b 20 fa d1 bc 73 20 3b 3d
       -0.071714535 0.0037529704 -0.025631964 0.045685243
000300 7d 0b 85 3d 35 e6 24 bc 9d 8c db ba 3d 9f 85 3c
       0.06496332 -0.010064651 -0.001675028 0.016311282
000310 6e 20 16 3d 2e c1 04 3c d5 38 8d bd 7f 61 f1 3c
       0.03665202 0.008102698 -0.068956055 0.029465435
000320 68 28 64 bd 18 33 22 3d 87 ca 1f 3d a1 aa 08 3d
       -0.055702597 0.039599508 0.039011505 0.03336585
000330 97 c6 d0 bc 11 cf 7b bd b5 8c 4c bd 66 94 72 3d
       -0.02548532 -0.06147677 -0.049938876 0.059223555
000340 71 0a e7 bc f0 b9 e9 3c 43 61 70 bc ed 1d 3c 3d
       -0.028203221 0.028531045 -0.0146716265 0.045926977
000350 7d 30 9f bc 8e bd 74 3d 18 82 8f bd 5b f4 97 bc
       -0.0194323 0.059751086 -0.07007235 -0.018549135
000360 cd 3c 9d 39 3a 64 91 bc d0 70 95 bd c4 ae 1d 3c
       0.00029990674 -0.017747987 -0.07296908 0.009624187
000370 f1 34 6b 3d a4 7a 38 bd 2c a2 04 bc 0f 01 5e 3d
       0.057423536 -0.045038834 -0.008095305 0.05420023
000380 9f 04 27 3d fc 6f 51 bd 2c 19 bb ba d3 28 63 bb
       0.04077589 -0.051132187 -0.001427447 -0.0034661784
000390 e0 3d b2 3c 9a 4f 91 3d aa ac 7e bc 1a 6b 2e 3d
       0.02175802 0.07095261 -0.015544096 0.04258261
0003a0 e7 c8 55 bd c6 d3 8d bd 03 d9 42 3d 28 cc 6f bc
       -0.05219355 -0.06925158 0.04757024 -0.014636077
0003b0 ef 51 ef bc e6 bc 62 3b 1e 87 4c 3d 1e 42 8d bd
       -0.029213874 0.0034597456 0.049933545 -0.068973765
0003c0 9f 90 4d bd ed 09 76 bd 8c 34 26 bd ca f2 c4 bb
       -0.05018675 -0.06006806 -0.040577456 -0.006010388
0003d0 76 ba 22 3d b2 7c d9 3c 96 3b 75 3d 04 72 1b bd
       0.039728604 0.026548717 0.05987128 -0.03795053
0003e0 f1 00 05 bc 66 32 01 3d a2 00 c0 bc 6c b6 66 3c
       -0.0081179 0.031542204 -0.023437802 0.014081579
0003f0 35 88 5c bd b1 f1 8a 3c d4 de 42 bc 97 86 40 bc
       -0.053840835 0.01696095 -0.011893947 -0.011750839

cell_list.1.conv_can.weight f4 [10, 20, 3, 3]
000000 78 32 0c bd 02 a9 9a be 61 a0 60 bf c5 76 bd bd
       -0.03422782 -0.30207068 -0.8774472 -0.09251169
000010 dc b3 f4 3d a4 66 7d bf 67 2f 07 3e 66 7c 26 3e
       0.11948368 -0.9898474 0.13201676 0.16258392
000020 c0 59 24 bf 9e 29 88 be 14 ad 7e be bd 08 92 be
       -0.6419945 -0.2659425 -0.24870712 -0.28522292
000030 12 7a 33 3d 2a df 15 be 00 35 8c bd 03 91 b5 be
       0.043817587 -0.14635912 -0.068460464 -0.35462198
000040 51 65 20 bf 57 cd be 3c e0 e6 2a bf 0e 4d 19 bf
       -0.62654597 0.023291273 -0.6675854 -0.598832
000050 71 5d 3b bf ba 66 8c be 4c b4 1f be 08 3e 19 be
       -0.73189455 -0.27422124 -0.15596122 -0.1496507
000060 ac 42 d9 3e 65 70 0a 3f 78 fe 26 3f 54 b9 24 3e
       0.4243368 0.5407775 0.6523204 0.16086322
000070 c8 6c 66 be 9e 80 0a 3e 5c d2 b2 bd 99 b4 c0 be
       -0.22502434 0.13525626 -0.08731529 -0.37637785
000080 55 34 fb 3e 7f 43 9c 3e 56 13 23 3f 79 91 2a 3f
       0.49063364 0.30520245 0.6370138 0.66628224
000090 6c 3a 82 3e dc 40 e8 3e 39 71 35 3f f5 7b b2 bd
       0.25435197 0.45361984 0.7087589 -0.08715049
0000a0 35 66 3f 3e 0b 61 17 3f a1 73 cf be 38 9f 21 3f
       0.18691333 0.5913245 -0.40517905 0.63133574
0000b0 1b ff 9a 3f c6 08 bc 3e ba 9d 91 3e 87 c1 d7 3e
       1.2109102 0.36725444 0.28440648 0.42139837
0000c0 17 fc 08 3f db b1 74 bb a0 d2 a9 bd e2 1c af 3e
       0.5350966 -0.0037337455 -0.08292127 0.34201723
0000d0 df 56 56 3d d9 32 af be f4 8c bb 3e 57 8e 76 bd
       0.05232894 -0.3421848 0.36630976 -0.06019434
0000e0 e4 19 b6 be 53 f2 f2 3d 1e cc 80 bd ee 8c cb 3d
       -0.35566628 0.11862626 -0.06288932 0.099389896
0000f0 ef 95 23 be 15 aa a7 3e d3 26 5f 3f 46 38 91 3e
       -0.15975164 0.3274695 0.87168616 0.28363246
000100 fa e7 ea 3e 35 02 cc 3e a1 22 2b 3e 6d 69 14 3f
       0.4588011 0.39845434 0.16712429 0.57973367
000110 44 63 04 3f c8 d9 73 be 5e 7f 5a 3e 35 97 f8 3e
       0.5171397 -0.23813546 0.21337649 0.48552862
000120 6d 00 a2 bd 1c a8 13 bf 4b cd 4c be da 09 6f 3d
       -0.079102375 -0.5767839 -0.20000188 0.058359005
000130 9a 90 d2 be 4c 12 71 be d3 8a 25 3f 94 c5 a4 bb
       -0.41125947 -0.23542136 0.64664954 -0.005028436
000140 23 a9 21 be b9 a3 bb 3e dc 7b b8 be 52 ba 15 bf
       -0.15787177 0.36648348 -0.36031997 -0.5848743
000150 16 a8 61 3e 87 1f f0 be 55 30 10 bf 12 78 5b 3e
       0.22036776 -0.46899053 -0.5632375 0.21432522
000160 e8 5e 6a 3e 2e fa d2 3e 6a f1 75 3b 1a 69 34 bd
       0.22887766 0.41206497 0.0037527927 -0.044045545
000170 3e e0 c7 3c ed 4f 86 bd 98 52 8e 3d 64 24 49 3d
       0.02439892 -0.065582134 0.06949347 0.04910697
000180 e7 55 94 3d 16 55 e2 bc 3b ad fd bc 56 92 d3 bb
       0.07242947 -0.027628463 -0.030966392 -0.0064566536
000190 f0 68 8c 3d a0 52 81 bc ee 4c e4 bc f6 a7 25 bc
       0.06855953 -0.015786469 -0.027868714 -0.010110846
0001a0 8a 9b 8c 3d 16 97 60 3c 17 97 03 3d 29 e4 b0 bc
       0.06865604 0.013707897 0.032126512 -0.02159317
0001b0 a2 11 0b 3b 11 02 18 3c ce 80 72 3d 4a 89 5d 3d
       0.0021220227 0.009277836 0.05920487 0.054086007
0001c0 b5 d9 4f bd 02 ca 94 bd d2 27 97 3d d0 67 7b 3c
       -0.05074473 -0.072650924 0.07380642 0.015344575
0001d0 53 e2 03 bd e4 a1 8e 3d 52 2b 96 bd 36 a4 73 bd
       -0.03219826 0.06964472 -0.073324814 -0.059482776
0001e0 ce e6 bf bc b9 74 63 3d fb df b6 3c a2 7d 14 3d
       -0.023425486 0.055531237 0.0223236 0.036252625
0001f0 2f b5 1b bd 68 46 69 3c f8 3a ad 3c e9 42 7b bd
       -0.038014587 0.014237978 0.021146283 -0.061343107
000200 3f 70 96 bc 2f 0c 54 3d 73 22 98 3d b3 e8 13 bd
       -0.01836407 0.05176943 0.07428446 -0.03611059
000210 22 bf e2 bb df 72 32 bb 7d be 75 3d 50 27 76 3d
       -0.0069197575 -0.0027229113 0.059996117 0.060096085
000220 86 c5 87 bd 37 b2 8c bd 32 f6 4d 3d 55 7b 2a 3d
       -0.066294715 -0.06869929 0.05028362 0.041621525
000230 07 cd 7c bc 8d fa ca bc 7b 86 ef bc 9f f0 9f 3c
       -0.015429742 -0.024777675 -0.02923893 0.019523917
000240 7b 92 13 bc 73 f2 2a 3d f3 24 54 3d 2c 9c d1 3c
       -0.009007092 0.041735124 0.05179305 0.025587164
000250 98 a8 be 3c c9 64 5c 3d 58 19 05 3d 40 bb 77 3c
       0.023273751 0.053807054 0.032494873 0.0151203275
000260 69 28 cd 3c 83 cf 5d 3d e2 14 81 3d 46 fc e9 3c
       0.025043683 0.054152977 0.06302811 0.028562676
000270 ef 2a 98 3d d8 05 80 3c 59 f9 88 bc 12 6e 84 ba
       0.07430064 0.015627787 -0.01672046 -0.0010103604
000280 83 03 8a bd bc 69 93 bd 57 ed 63 bd fe 58 98 3d
       -0.06738951 -0.071979016 -0.055646267 0.07438849
000290 26 fc 62 3d fd 0a 25 bd 20 a4 59 3d 10 68 84 3d
       0.05541625 -0.040293682 0.053135037 0.06465161
0002a0 b5 93 57 bd 3c 8e 37 bd ba 16 7a 3d 71 8c 68 3c
       -0.0526311 -0.04481338 0.06105683 0.01419364
0002b0 d2 90 8c 3d a4 51 5d bd ba 48 0e 3d b4 09 76 3d
       0.0686356 -0.054032937 0.034737326 0.060067847
0002c0 e6 c6 e0 bb 2f e6 4b bd bb cf 03 3d b1 9e bf bc
       -0.006859648 -0.049780067 0.03218053 -0.0233911
0002d0 16 82 ba be 79 ab 83 bf 02 98 8d bf e6 b2 f5 3e
       -0.36427373 -1.0286704 -1.1062014 0.4798805
0002e0 26 c6 e2 be 99 55 eb be 1b d5 01 3f 1b 06 4e 3e
       -0.442918 -0.45963743 0.507158 0.20119517
0002f0 86 ec 32 3f b3 47 ab be 32 6b 65 be f7 dd c7 3b
       0.69892156 -0.3345314 -0.22404173 0.0060994583
000300 c9 44 11 be b1 78 f6 bd 57 50 c5 3d c6 56 ab 3e
       -0.14186396 -0.12034739 0.09634464 0.3346464
000310 a5 ab cb 3e fa e6 c6 3e fb 33 85 be 60 e5 35 be
       0.39779392 0.38848096 -0.2601622 -0.17763281
000320 cb dd e4 3d 4f 9d c7 3d 0f ff d5 3e 29 c7 3f 3f
       0.11175116 0.09746801 0.41796157 0.7491327
000330 fe 7c a8 be 39 89 d7 3e 73 d4 5e 3f 5e 81 e3 be
       -0.3290786 0.4209688 0.8704292 -0.44434637
000340 e7 38 f8 bc 5f 8d c0 3e 10 67 86 be 78 fe 44 3e
       -0.03030057 0.37607858 -0.26250505 0.19237697
000350 44 4d 59 3e 8b 4e e9 bd 30 9f 7b bc cc 27 36 bf
       0.21220881 -0.11391934 -0.0153577775 -0.71154475
000360 cc 56 a6 3e cb 32 94 3e 3f 33 22 3b 6f 4e a7 3e
       0.32488096 0.28945002 0.0024749783 0.32677028
000370 47 05 8a 3d 93 d8 43 3d df 15 b2 3e cd 4e c6 3d
       0.06739288 0.047813963 0.3478231 0.09682999
000380 77 95 17 3e 95 3a c2 bc a0 b1 42 3e ff a7 04 bd
       0.1480311 -0.023709575 0.19013071 -0.032386776
000390 ca 2e c4 3d 3f 05 41 bd 5e 77 1f bf c1 ca 38 3f
       0.09579237 -0.047124144 -0.62291515 0.7218438
0003a0 15 55 87 3e 33 a5 0a bf 3c 06 70 3d 69 7b ac 3d
       0.264321 -0.54158324 0.058599696 0.08421976
0003b0 74 7e 92 bd 7e 69 51 3e d6 d2 ad 3e ad 16 f2 3d
       -0.07153025 0.20450398 0.33949918 0.11820731
0003c0 89 b8 2b 3f 94 5e 08 3f 7f e7 7e 3e 6f 52 af 3e
       0.67078453 0.53269315 0.24892996 0.3424258
0003d0 75 70 99 3e 3a ea d2 3d 46 fa ed 3e 1e f8 32 3f
       0.2996861 0.102985814 0.46480006 0.69909847
0003e0 c9 08 8b 3d c5 af b4 bd c2 6f 9e be 04 8d d7 be
       0.06788785 -0.08822588 -0.3094464 -0.42099774
0003f0 e9 4a 5e bf 36 c9 9a bd 2d 23 39 3e 86 60 25 bf
       -0.86833054 -0.07557909 0.18079825 -0.6460041

cell_list.2.conv_gates.weight f4 [20, 20, 3, 3]
000000 65 3e 43 3f a6 38 02 3f 71 57 21 3f 73 ef 48 bf
       0.7626708 0.5086769 0.6302405 -0.7849037
000010 0d 21 28 bf dc fe ac bf 27 93 83 3e 0e 01 0d 3f
       -0.6567543 -1.3515277 0.25698206 0.55079734
000020 1d a1 67 3f 64 fa 09 bf 33 39 f2 3e da 9a 30 3f
       0.90480214 -0.5389769 0.47309265 0.68986285
000030 89 70 73 be 57 ee 00 3f be 43 67 3f b1 12 31 bf
       -0.23773398 0.5036368 0.9033774 -0.69169146
000040 3d 9c 8b 3f 65 a1 cf 3e 7f 4f b2 bc 2d 11 a5 be
       1.0907055 0.40552822 -0.021766422 -0.32239667
000050 2b 4b f1 be d1 5e 82 3f b3 8b 7b bf 64 15 3f 3f
       -0.4712766 1.0185186 -0.9826004 0.74642015
000060 0a 7a be 3f 0e a6 bf 3f b8 0c 91 3f e8 a3 e7 3d
       1.4880993 1.4972551 1.1332006 0.113105595
000070 36 70 f6 3e 89 bb 81 be bb 53 87 bf ed bc a4 be
       0.48132485 -0.2533839 -1.0572428 -0.3217539
000080 d9 bc 53 be 6f 1d 74 bf e2 2f bd bf 09 0f 09 bf
       -0.20677508 -0.9535741 -1.4780238 -0.53538567
000090 94 96 d4 3e 39 67 83 bf e1 01 6d bf 76 57 90 3f
       0.41521132 -1.0265876 -0.9258099 1.1276691
0000a0 02 e3 ff be 6c fa c1 3f 37 da fb bd b2 41 69 3d
       -0.4997788 1.5154548 -0.122974806 0.056947418
0000b0 eb 32 20 3f 9d 5f ac be 46 95 8d bd d3 ae 1d bf
       0.62577695 -0.33666697 -0.06913237 -0.61594886
0000c0 a4 7a e9 3e cc 03 30 3e 0b c7 04 c0 ef 07 9a be
       0.4560138 0.17188948 -2.0746486 -0.30084178
0000d0 79 54 3b 3e c5 01 0c be 97 f0 9a 3d 49 4c 77 3e
       0.18293943 -0.1367255 0.0756542 0.24150194
0000e0 5e 58 9b 3f c8 f6 f6 bf ba f5 3a 3d 11 d5 a2 be
       1.2136343 -1.9294062 0.0456445 -0.31803182
0000f0 5b 5d 18 bf 48 ca aa bf 48 c2 54 bf 3d c0 77 3e
       -0.5951745 -1.3342981 -0.8310895 0.24194427
000100 6b b2 cc be 20 43 ad bf ad ee 0c bf 00 32 59 be
       -0.39979872 -1.353611 -0.5505169 -0.2121048
000110 6b c5 f7 3e 85 0f 0c 3f 4c 82 66 3e 22 f1 dc 3e
       0.48392805 0.5471118 0.22510642 0.4315272
000120 28 ed 57 be b3 24 32 bf f7 f2 95 3d 12 aa 1b 3f
       -0.21086562 -0.6958725 0.073217325 0.6080638
000130 47 13 f7 bd 69 51 80 bf ea a2 ea be 32 9d e1 bd
       -0.12064224 -1.0024844 -0.4582742 -0.11016311
000140 56 1d 77 3f 0f c5 f0 be db ff d1 be 83 ba b5 bf
       0.9652914 -0.47025344 -0.41015515 -1.4197544
000150 ec 03 0d 3f cb a2 fb be bd ec 8c bf b3 e5 21 bf
       0.5508411 -0.4914764 -1.1009747 -0.6324112
000160 09 3a 7d bf 1c 91 af 3e 66 97 9b be d4 23 4c be
       -0.9891668 0.34290397 -0.30388945 -0.19935542
000170 98 a8 c9 be e2 f5 83 3e 65 56 34 be 35 76 27 3e
       -0.3938644 0.2577353 -0.17611082 0.16353686
000180 e2 43 b9 be db 36 fb 3c 32 0c fe 3e e5 4f 45 bd
       -0.36184603 0.030665806 0.4961868 -0.048171896
000190 1a 29 18 bf 06 65 90 bf d7 6b 6f bd a2 3d 3c bd
       -0.59437716 -1.128083 -0.058452453 -0.045957215
0001a0 00 db 80 be 6f 53 ac be 5b 2f 13 bf c1 02 3c be
       -0.25167084 -0.33657405 -0.57494134 -0.18360426
0001b0 58 f7 1f 3f b7 a9 de 3e f2 42 81 3e be ce db 3e
       0.6248679 0.43488857 0.25246388 0.4293117
0001c0 14 bc 58 3e 02 1a 9e bd 68 9c 23 bf cb 6b 16 be
       0.21165496 -0.07719804 -0.6391053 -0.14689557
0001d0 de 14 0f 3f a7 1d 81 bf 5b 09 23 bf a2 3a 83 3e
       0.55891216 -1.0087174 -0.6368615 0.2563067
0001e0 f2 7c fc bd 62 99 58 3d 2a b1 a5 3e be c7 0b bf
       -0.12328519 0.052880652 0.32361728 -0.5460166
0001f0 d7 f5 c9 bd e2 ee 29 3f 69 8b 89 3f 64 c9 a6 bc
       -0.09861343 0.6638013 1.074567 -0.020359702
000200 96 57 e4 3e cc 32 21 3e 91 df fe 3e b5 0b 90 3e
       0.44598073 0.15742034 0.49779943 0.28133932
000210 69 9b 1e 3f 47 d5 9e 3d c6 1c cb 3e 10 be a0 be
       0.6195589 0.07755523 0.3967039 -0.31395006
000220 bc 43 7f be e7 a8 50 3e b2 57 3b 3e d2 29 4e bd
       -0.24928182 0.20376931 0.18295172 -0.05033285
000230 e3 7e 4a be 41 42 a6 bd 24 a1 c2 3c b9 ba 4e 3e
       -0.19774966 -0.08118106 0.023758478 0.20188417
000240 bc 87 b8 3d e8 34 16 be a9 35 7d bf 36 fa 07 3e
       0.09010264 -0.1466862 -0.98910004 0.13279042
000250 bc 6e c3 3e ec 18 c2 3e a2 3f 57 be dc 1c a7 bd
       0.3817042 0.3790964 -0.21020368 -0.08159801
000260 57 9c 9d 3c db 94 fe 3e ea 49 80 3e 80 4e 23 3d
       0.019239588 0.49722943 0.25056392 0.039869785
000270 a0 2b 57 3e bb 72 2c be e3 50 d4 3c e8 10 69 3d
       0.21012735 -0.16840641 0.025917476 0.05690089
000280 9f 23 2d be f5 db d8 bd 47 b2 dc be 28 18 a4 be
       -0.1690812 -0.105888285 -0.43104765 -0.3204968
000290 ba 8d 5e bf b8 58 ab be db 6d 92 be a1 c7 9e 3d
       -0.8693501 -0.33466125 -0.28599438 0.0775292
0002a0 e0 b4 e1 be a4 84 86 be 94 0a f2 bd 18 69 a8 3d
       -0.4408331 -0.26273072 -0.11818424 0.0822317
0002b0 7e 28 11 bf a2 96 e3 3e 07 bc f7 3e a9 34 33 be
       -0.5670241 0.4445086 0.4838564 -0.17500557
0002c0 bb fc 92 3e e1 d4 09 3d 4b 29 f3 be 09 a6 22 3f
       0.28708443 0.033650283 -0.47492442 0.635346
0002d0 5e ab 9d 3e d7 da bf be 33 07 ae 3d d1 84 be 3e
       0.30794805 -0.3747165 0.08497467 0.37210706
0002e0 fb e8 b0 3d 55 f3 9f 3f 22 de 85 bf 8f ce b4 bf
       0.086381875 1.2496134 -1.0458415 -1.4125537
0002f0 19 ea 0c 3f 87 64 92 3e 82 e2 50 3f 02 04 a3 be
       0.55044705 0.2859232 0.81595623 -0.31838995
000300 42 e0 97 3f bb 9d 20 3f 54 80 fa bd be cb 96 3f
       1.1865313 0.6274068 -0.12231508 1.1780927
000310 f4 50 a2 3e b2 69 25 3f 87 d9 56 be 86 bf 9b bd
       0.31702387 0.64614403 -0.20981418 -0.076048896
000320 5f 27 41 3d 2c fa 15 bf e3 fb 88 be 45 f1 9e 3d
       0.047156688 -0.58584857 -0.26754674 0.07760862
000330 ef d7 06 bf dc 45 f3 bf ae 6f 64 bf 2c 1a 3a 3e
       -0.5267324 -1.9005694 -0.8923291 0.18174046
000340 e3 cb 86 be 1a 28 9c 3d 34 da 36 3f 59 72 3c 3e
       -0.26327428 0.07624836 0.714267 0.18402995
000350 d0 0f 7b 3e 79 94 bf be 6b 6f 91 be 67 b9 a4 bf
       0.2451775 -0.37417963 -0.28405318 -1.286908
000360 b7 2a 6d be 8b 6e cd 3e d3 d2 91 3d 69 0b 01 bf
       -0.23160826 0.401234 0.0712029 -0.50408036
000370 59 a2 6b 3f 7c 96 11 bf 06 b3 1d be a5 25 4c 3f
       0.920446 -0.56870246 -0.15400323 0.7974494
000380 de 04 86 be 75 02 c2 3f d0 45 0d bf 24 f7 83 3e
       -0.26175588 1.5157 -0.5518465 0.2577449
000390 7c e8 36 3f d8 99 d5 be 33 ce 7c 3f fe bb 5f bf
       0.71448493 -0.41718936 0.98752135 -0.8739623
0003a0 4e a6 26 bf 2e 37 80 bd 8c 22 d0 bf cc a2 7c be
       -0.6509751 -0.06260525 -1.6260543 -0.24671477
0003b0 de 84 54 bf 3f 66 84 3e 0f 6f 76 3f 4f 79 ad be
       -0.8301524 0.25859258 0.9626321 -0.33881614
0003c0 47 80 6d bf fc aa 8b bd d0 f7 f5 be d7 51 82 be
       -0.9277386 -0.06819722 -0.48040628 -0.25453064
0003d0 2a a1 93 3e 89 30 c3 3e a3 85 bc bf f2 64 b4 bd
       0.28833896 0.38122967 -1.4728283 -0.08808316
0003e0 78 df 48 be ed 88 09 bf fe 3d 96 3e 05 b1 0c bf
       -0.19616497 -0.5372456 0.2934417 -0.5495761
0003f0 78 f7 34 3f 3d bb 8e 3d 28 c0 04 bf 64 1e cb bd
       0.7069011 0.069693066 -0.5185571 -0.09917906

cell_list.2.conv_can.weight f4 [10, 20, 3, 3]
000000 ae f7 07 be fe 19 59 3e 92 cf dc bc de a0 5f be
       -0.13278076 0.21201321 -0.026954446 -0.2183871
000010 73 e3 da be ac b7 06 bf 46 87 21 3e f3 f1 45 be
       -0.42751655 -0.5262401 0.15774259 -0.19330578
000020 ae 5e 96 3c 8a 53 d5 3e 25 c1 34 3d ab 78 9e be
       0.018355694 0.41665298 0.04412951 -0.30951437
000030 e6 d1 06 3f 41 4b b1 3e 49 a7 55 bf 50 cf c9 bd
       0.5266403 0.34627727 -0.8345838 -0.09853995
000040 77 e3 81 3d ac c2 ba be c3 b5 8f be b4 0b c9 bd
       0.063422136 -0.36476648 -0.2806836 -0.09816685
000050 99 04 89 3d db 8a 1c be fa c5 ba 3e 1d ac 32 3d
       0.0669033 -0.15287344 0.3647917 0.04362117
000060 08 52 33 be 8d 19 bd 3d b0 10 e2 bd d8 f2 dd be
       -0.17511761 0.09233389 -0.11038339 -0.43349338
000070 6a 33 3b bf 0d 5a 89 3d 75 a8 84 3e d0 34 2b bd
       -0.73125327 0.06706629 0.25909773 -0.041798413
000080 d7 fa a9 3e 05 83 0f be 74 57 ca be 81 5d 94 3c
       0.33199188 -0.14014824 -0.39519846 0.018110992
000090 33 c6 84 bd fe ae 0e bf 2a e7 a9 be 1c 65 64 3e
       -0.06483116 -0.55735767 -0.33184177 0.22304195
0000a0 23 ff f5 3e 56 40 17 3e 26 d4 44 be 93 b6 82 3e
       0.48046216 0.14770636 -0.19221553 0.25529918
0000b0 d3 e9 9b 3c 35 06 0d 3e 6d a9 3d be 82 70 dd 3e
       0.019032395 0.13771899 -0.18521662 0.432499
0000c0 ab d2 1c bf 31 3c e7 3a 83 77 99 3e f2 4a f4 3c
       -0.61258954 0.001764184 0.29973993 0.029820893
0000d0 5a 61 76 bc 49 14 73 3e c6 9a 02 bf a5 b4 b3 3d
       -0.015037859 0.23738207 -0.51017416 0.087746896
0000e0 d3 ad 5c 3d bc b4 fb bd 32 06 6c be fd 77 08 be
       0.05387671 -0.12290332 -0.23049238 -0.13327022
0000f0 bb ba 88 3d 93 35 e8 3e 7b 7c c9 3d a4 1c c8 3d
       0.06676241 0.45353374 0.09838196 0.09771088
000100 6c d7 19 3c 0e dd 91 be ea 60 e7 be 2b 20 e6 3e
       0.0093897395 -0.28488964 -0.45191127 0.44946417
000110 2b 02 80 3d 4b e1 a0 bd ad 6d 76 be 02 b3 2d 3e
       0.062504135 -0.07855471 -0.24065275 0.16962817
000120 d6 31 57 3e 7b d1 c3 3e 7a 69 bd 3e ed 4c 8e 3d
       0.21015105 0.38245758 0.36994535 0.06948266
000130 ad c6 28 be aa 82 f8 be 86 e4 ca be 55 57 5d bf
       -0.16482039 -0.4853719 -0.39627475 -0.86461383
000140 f4 ce dc be e1 a2 b1 be 22 d1 5e bd 9c 2e dc 3e
       -0.43126643 -0.3469458 -0.054398663 0.4300431
000150 02 cd 4f bd 54 f8 8b 3e e7 c1 f7 3d 13 5e 49 3d
       -0.05073262 0.27337897 0.12097531 0.04916198
000160 d3 07 83 3e c5 11 0e be ce 97 29 3e c2 5c 3c be
       0.25591907 -0.13873966 0.16561815 -0.1839476
000170 d3 d8 04 3e bd 9d c8 be e1 c3 b3 be 25 14 9c 3d
       0.12973337 -0.39182845 -0.3511038 0.0762103
000180 fd df 03 3f e6 4c 3a 3e ad 13 f9 3e 60 41 61 3f
       0.51513654 0.18193397 0.48647824 0.8799038
000190 73 ac 49 3f a8 20 8d 3e 1d 7d a0 3e c5 7b de 3e
       0.7877876 0.27563977 0.31345454 0.43453804
0001a0 79 8a 88 3a b9 84 63 bd 8b c6 2d be 79 09 20 bf
       0.0010417245 -0.055546496 -0.1697027 -0.62514454
0001b0 4f 3d 01 3f de e7 66 3f 45 10 c6 3d b1 aa b4 3e
       0.50484174 0.9019755 0.09671072 0.35286477
0001c0 9c 76 9a 3e 1e f1 03 be a4 ca 79 be de be e2 bd
       0.30168617 -0.12884948 -0.24393708 -0.11071561
0001d0 39 51 ac be a4 48 8d bd 75 05 89 be 1b 09 f4 be
       -0.33655718 -0.06898621 -0.26761976 -0.47663197
0001e0 28 d1 06 3e d6 71 72 bf e3 7d 2f bf a3 d2 03 3f
       0.13165724 -0.9470495 -0.6855146 0.5149328
0001f0 ac 21 8b 3e a6 44 c2 3c 79 48 cc 3f d0 bf fa 3e
       0.27174127 0.023714375 1.5959617 0.48974466
000200 cd 68 09 3e 3e f3 d7 3e 13 39 85 3f 9c c6 3c 3f
       0.13418885 0.42177767 1.0408043 0.73740554
000210 7b d2 7f 3e f1 4c 26 3f 8b d6 84 3e df c6 d1 be
       0.24982636 0.64961153 0.25944933 -0.4097204
000220 17 b6 a9 bd 20 bc ab 3e df 5d 7c be 33 01 17 3e
       -0.08286684 0.33541965 -0.24645184 0.14746551
000230 40 44 d1 3e 99 cb 09 be de 54 ae 3d 47 3c 5c 3e
       0.40872383 -0.13456573 0.08512281 0.21507369
000240 d9 ae bb 3e 78 e3 a1 3e 6d 5c 10 3f 7f fb f7 be
       0.36656836 0.31618857 0.5639103 -0.48434064
000250 da a4 d9 3d b9 99 4b be 52 56 ce 3b d0 78 f1 bd
       0.10627146 -0.1988286 0.0062969113 -0.11790621
000260 f0 8b ef be ce 19 08 be 03 3a c1 bd a4 c0 92 bc
       -0.4678645 -0.13291094 -0.09434893 -0.017914124
000270 50 49 e8 3e 1a 09 9f 3e 9a 80 af 3d ed 54 54 3e
       0.45368433 0.3106163 0.08569451 0.20735522
000280 af c1 f0 3e f0 0f d1 3e 3f 8d 91 3e bd 0c fa be
       0.4702277 0.40832472 0.28428075 -0.48837844
000290 a6 83 3c be dc bb f1 3d ab d8 08 be 8a d6 c6 3e
       -0.18409595 0.118034095 -0.13363902 0.38835555
0002a0 f4 4d 9f be c8 9d dc 3c 16 a5 8e bd 91 92 14 3f
       -0.3111416 0.026930705 -0.069650814 0.5803614
0002b0 2a af bd 3e c8 f7 a3 be 0c 6f 6c 3f 6c 01 d3 3e
       0.37047702 -0.3202498 0.92356944 0.41212022
0002c0 3d 0d 86 be 7a 9f 01 3c d7 6d 59 bf 22 b2 c1 be
       -0.26181975 0.007911557 -0.8493323 -0.37831217
0002d0 11 16 58 3e 88 8d 96 be 88 22 31 3e c8 2c 40 be
       0.21102168 -0.29404855 0.17298329 -0.18767083
0002e0 b0 23 5e bd 2f c5 62 be f0 7d 00 3e 4a 26 09 be
       -0.054233253 -0.22145532 0.12548041 -0.13393512
0002f0 de da 2f 3f 0c 30 ce bd ad bd 71 3d 52 f7 d2 be
       0.6869334 -0.10067758 0.05901878 -0.41204315
000300 af f3 e8 3e 5f 57 ea 3e f9 0a 82 bd 7b 83 74 3e
       0.45498416 0.45769784 -0.06349749 0.23878281
000310 30 15 60 bd 79 74 d7 be 43 68 27 bf 1a 5f 63 bc
       -0.054707706 -0.4208105 -0.65393466 -0.013877654
000320 9f ae 4d be 15 5d 2e 3d 57 e7 35 bd 4a 02 fd be
       -0.20086144 0.04256924 -0.044410076 -0.4941581
000330 58 7d 9d 3e 4e b4 e0 3d 33 49 30 bf 07 56 3f 3d
       0.30759692 0.109718904 -0.68861693 0.0467129
000340 f1 f1 76 3d ef c2 80 be f4 35 86 3c 27 02 52 bd
       0.060289327 -0.25148723 0.016383149 -0.051271584
000350 d7 1b 41 bc 9e 60 91 3e 8f 8b 77 be 32 41 af be
       -0.011786423 0.28394026 -0.24174331 -0.34229428
000360 c8 6e 0c 3d 54 32 95 be ac a1 a6 be fe 54 7d 3e
       0.034285337 -0.2913996 -0.3254522 0.24739453
000370 80 67 76 3e 64 77 c1 3e e6 07 ff 3b 9f 78 0a 3f
       0.2406292 0.377864 0.007782924 0.54090303
000380 84 90 22 bd 52 e8 c2 be bd 09 55 be 96 06 4b 3e
       -0.039688602 -0.3806787 -0.20804496 0.19826731
000390 47 e9 82 3e a2 41 04 bf 43 4b 5f be ce c0 9e 3e
       0.255686 -0.5166265 -0.21806054 0.31006473
0003a0 1f 4b 21 3f ee f9 06 3f e4 d9 5e 3b 38 f2 ee 3e
       0.6300525 0.5272511 0.0034004385 0.46669173
0003b0 f4 21 fd 3e 2e e3 16 bf 64 6c d9 be b3 d1 c2 be
       0.49439967 -0.589404 -0.42465508 -0.38050613
0003c0 23 65 e7 3e a6 05 3c 3e f4 58 e8 3e 79 71 8b 3e
       0.4519435 0.1836153 0.45380366 0.2723501
0003d0 ee db ca bd 0e 69 59 3e 72 4e 21 be 34 8a c3 3e
       -0.099052295 0.21231481 -0.15752581 0.38191378
0003e0 6c 7d 3c 3e 99 15 a5 3e 7d 6c 13 3f 72 ad 44 3e
       0.1840722 0.3224304 0.57587415 0.19206789
0003f0 31 28 bf be ac 86 88 3e 27 ee e0 3e 27 81 3d be
       -0.3733535 0.26665246 0.43931696 -0.18506299

cell_list.3.conv_gates.weight f4 [20, 20, 1, 1]
000000 ae 46 a7 bf 9d 3c 8c 3f f4 e9 04 3f fa bb 20 3f
       -1.3068445 1.0955998 0.51919484 0.6278683
000010 6d 9d 0c 3f 4b 1e 47 bf 9a f8 80 be a1 f2 76 3c
       0.5492771 -0.777806 -0.25189668 0.015072496
000020 f5 29 25 3f 4f 3e 27 3f 49 a5 72 3f 9c 57 17 bf
       0.64517146 0.6532945 0.94783455 -0.59118056
000030 e7 ef 03 bf b8 e6 11 3d 1a cd 85 3e 20 a5 60 be
       -0.51537937 0.03562042 0.26133043 -0.2193799
000040 81 da 55 bf 91 39 6d bf 77 1c 0a be 1d cc 10 bf
       -0.83536536 -0.92665964 -0.13487421 -0.5656145
000050 c0 5b 59 3f df c7 78 bf 64 9b 8f 3e 35 ab 1d be
       0.84905624 -0.9717998 0.2804824 -0.15397342
000060 a9 ee 32 3e df 03 03 bf fb 10 df bf cd 48 db bf
       0.17473854 -0.5117778 -1.7427057 -1.7131592
000070 98 cb cd 3e 55 7a 9d 3e dc fe 43 be af bc 8d 3e
       0.40194392 0.30757394 -0.1914019 0.27683017
000080 59 2a 5f bf 6a 66 28 be 3a dd 24 bf d1 a6 5e 3d
       -0.8717399 -0.16445318 -0.64400065 0.054358307
000090 61 ce 15 bf a3 7f 01 bf bc 50 29 bf 28 7e 4f bf
       -0.58518034 -0.50585383 -0.66138816 -0.81051874
0000a0 c8 0e d7 be a1 b9 22 bf cf ea 1a 3f e9 31 1d bf
       -0.42003465 -0.635645 0.6051454 -0.6140428
0000b0 46 20 e8 3e 80 80 3d be c6 f3 1e be 86 e7 71 be
       0.45337123 -0.1850605 -0.1552268 -0.23623475
0000c0 df 72 18 3e 6c 80 be 3f 24 48 2e bf 06 9a e8 be
       0.1488757 1.4882941 -0.6807883 -0.4543001
0000d0 49 00 09 3f 41 e1 34 bf f7 dc f2 be c9 f8 58 3e
       0.5351606 -0.7065621 -0.47434208 0.21188654
0000e0 95 ee 09 bf 34 2d 1b bf 95 be 10 bf 61 1a 08 bf
       -0.5387967 -0.6061585 -0.56540805 -0.5316525
0000f0 e4 b4 8f be 28 17 42 bf 50 e8 07 3f b6 48 5e bf
       -0.28067696 -0.75816584 0.53088856 -0.868297
000100 a3 0c a1 3e 53 a1 48 bd 8c 6a 15 3f 49 45 9c 3e
       0.31454954 -0.048981976 0.583657 0.3052161
000110 91 37 80 bc 29 b7 d5 be 16 03 9e be 5d 6d 25 bf
       -0.015651496 -0.41741303 -0.3086173 -0.6462
000120 fd f0 3d bf b6 f0 37 3f b3 9a 4d bf 85 7c 7f 3d
       -0.74195844 0.7185167 -0.8031418 0.06237461
000130 13 41 c1 be 10 97 70 3c 71 06 2d bf f9 cf 93 bd
       -0.3774496 0.014684454 -0.67587954 -0.07217402
000140 a1 1f d7 3e 2e 03 32 bf b6 4c b1 bd d5 b9 c7 be
       0.42016318 -0.695361 -0.086572096 -0.39008966
000150 5f c1 08 3e 3f c8 56 bd db cb 8c be 7c e0 c6 be
       0.13355015 -0.052437063 -0.2749928 -0.38843143
000160 54 2c 8d bf 65 0f 54 3f 53 4c 4f bf 38 ad a7 3e
       -1.1029153 0.8283599 -0.80975837 0.32749343
000170 12 37 4c bf e2 79 94 bf 3d a1 17 be 62 f4 d9 be
       -0.7977153 -1.1599696 -0.14807601 -0.42569262
000180 a5 04 69 bb b9 72 b4 3c 6f a8 a3 bf 84 91 d8 be
       -0.0035555747 0.02202736 -1.2785777 -0.4229852
000190 79 83 07 3f 99 ac bf be 19 8f 30 bf 41 69 a7 bf
       0.52934986 -0.3743637 -0.6896835 -1.3078996
0001a0 ea f6 a1 be 40 6a 1d bf 7b 07 57 3e 81 15 6c 3d
       -0.31633693 -0.6149025 0.20998947 0.057637695
0001b0 ba 48 b9 3e be 3c e4 3e 04 45 32 3e 92 bb 7e be
       0.36188298 0.44577593 0.1740914 -0.2487624
0001c0 21 cd ac 3a 81 fd e4 be 79 6b c6 bd 9d c2 5a bd
       0.0013183692 -0.44724658 -0.096884675 -0.053408254
0001d0 31 02 08 bf 50 6b 6d bf b8 19 d6 bd 12 bd a2 be
       -0.53128344 -0.9274187 -0.10454124 -0.31784874
0001e0 20 f4 9b be 3c 34 8d be fd 12 91 be b9 d0 cf 3e
       -0.3045969 -0.27578914 -0.283348 0.4058893
0001f0 bc 07 0e bf 2d ea 9d bf a1 9d 62 3f 10 17 d2 be
       -0.5548055 -1.233709 0.8852177 -0.4103322
000200 a5 d8 e1 bd bf 9a 11 3f 3f 65 07 3f 8b f0 a9 be
       -0.1102765 0.5687675 0.52888864 -0.33191332
000210 e5 44 87 be 2e e5 a3 be 28 9d e4 3e e1 67 67 bf
       -0.2641975 -0.32010788 0.4465115 -0.9039288
000220 44 86 b8 be 24 f6 86 bf 80 a2 fb 3d fa b5 94 bd
       -0.36039937 -1.0543866 0.12286854 -0.07261272
000230 44 bc 1b 3f 08 32 ca be f9 e8 6c be c8 83 85 be
       0.60834146 -0.39491296 -0.23135747 -0.26077104
000240 b7 90 66 be 81 1e 24 3f fd 5e 9f 3e 53 bf 64 be
       -0.22516142 0.64109045 0.31127158 -0.2233861
000250 7d a2 34 be 4e e2 ee 3e 99 ea 24 3e 4f 1c 6d 3e
       -0.1764011 0.46657032 0.16105117 0.2315533
000260 a5 6b 7d 3d 54 8e 55 be 91 40 b8 3d 20 75 95 bf
       0.061870236 -0.20855075 0.0899669 -1.1676369
000270 0e 1e 98 bf 98 cc 8d be ff a3 b8 3e ab 04 1b 3e
       -1.1884172 -0.27695155 0.3606262 0.151385
000280 9a 99 4a bf 7a bb 07 bd 93 17 07 3f 60 4b 0d bf
       -0.7914063 -0.033137776 0.52770346 -0.5519314
000290 ea 98 97 3c ed 2f 80 bf d5 9b 71 be 45 c2 aa be
       0.018505532 -1.0014626 -0.23594601 -0.3335134
0002a0 cf 20 1a be 00 6c 86 3f dc 6a 31 be 14 cc fe be
       -0.15051578 1.0501709 -0.1732592 -0.49765074
0002b0 f3 f1 56 bf 52 81 43 bd d7 9e a2 be c3 83 0f bf
       -0.83962935 -0.04773075 -0.3176181 -0.5606043
0002c0 4a 80 2d be c1 b3 fc be 9c ee 2d 3f d2 0e 54 bf
       -0.1694347 -0.4935589 0.67942214 -0.82835114
0002d0 ab 35 b3 3e 60 d0 0d bf d3 60 fb 3e 90 5d 8f 3e
       0.35001883 -0.5539608 0.4909731 0.2800107
0002e0 cd f5 1d bf e3 47 bf bf a7 ef de be 77 59 82 bf
       -0.6170319 -1.4943813 -0.43542215 -1.0183553
0002f0 8a f7 68 be da 04 e5 3f eb 0b 4b bf 54 9f 67 bf
       -0.22750679 1.7892106 -0.7931506 -0.9047749
000300 e4 b1 39 bf 2d 06 ad 3d 1f 2f 08 bf 13 88 62 3e
       -0.72537065 0.084484436 -0.531969 0.2212222
000310 f0 85 a4 be 8f de 94 bd cb 91 79 bf ba 8f 91 be
       -0.32133436 -0.07269012 -0.9748809 -0.28429967
000320 38 13 2a c0 94 f2 c7 3f 33 70 12 40 f4 67 f5 be
       -2.657423 1.5620904 2.288098 -0.47930872
000330 bc 2f 65 3f ed 84 ea bc ce 49 61 3f 35 58 ef 3f
       0.8952596 -0.028627837 0.8800324 1.8698794
000340 70 d5 e5 be ef 58 cc be a6 d8 72 3c 4c 98 b3 3e
       -0.44889402 -0.399116 0.014822161 0.3507713
000350 8b df ab 3f e5 1c cc 3f 23 84 17 40 cd c7 e5 be
       1.3427595 1.5946318 2.36744 -0.44878998
000360 8e b5 6a be 51 90 94 be 81 77 12 40 a7 9a be 3f
       -0.2292082 -0.29016355 2.288544 1.4890946
000370 c3 4d 0b 40 14 8e 23 bf f2 42 09 3f ff 49 46 3f
       2.1766212 -0.6388867 0.53617775 0.7745666
000380 72 36 cc 3f 5b e1 02 40 96 c2 aa be c2 38 13 bf
       1.5954115 2.0450046 -0.33351582 -0.5750848
000390 6c bd 5b c0 b1 d3 6a 3c e0 f9 fc 3e 25 61 8c be
       -3.4334364 0.014332698 0.4940939 -0.27417865
0003a0 a2 83 a6 3f 87 bb 10 3f 57 f4 48 3e fc 02 a4 bf
       1.3008921 0.56536144 0.19624458 -1.2813411
0003b0 4e 8c 15 3f ee bc 19 bf 51 d3 b3 3f 9a 53 e5 3f
       0.5841721 -0.6005391 1.4048864 1.7916138
0003c0 90 6c db 3e c9 a1 69 3f 21 f3 dd 3f f8 12 6c 3f
       0.42856264 0.9126249 1.7339822 0.92216444
0003d0 86 c0 d4 3f 9f 9b df 3f aa 53 12 40 67 c6 f3 3f
       1.6621253 1.7469367 2.2863564 1.9044923
0003e0 7d 6d ee bf 25 7f ef 3f 4f 6d 23 3f fc c8 c3 3f
       -1.8627163 1.8710676 0.63838667 1.529571
0003f0 b1 3b 15 3f b5 94 08 40 64 0e 0a 40 2a 27 f8 3e
       0.58294207 2.1340764 2.1571283 0.4846738
