saved_models/image_benchmark/brainlike_thickness_1.pt (torch, 118504 bytes, 14 tensors)

cell_list.0.conv_gates.weight f4 [20, 11, 3, 3]
0	0x3d541d73	0.051785897
1	0xbd35b305	-0.04436018
2	0xbc9f9c84	-0.019483812
3	0x3d4138d8	0.04717335
4	0xbdc1c710	-0.09461796
5	0x3d76e1b7	0.060273852
6	0xbca96113	-0.020676171
7	0x3d516e68	0.051130682
8	0x3c64e9b2	0.013971733
9	0xbc499f86	-0.0123061
10	0x3ce45bd5	0.02787582
11	0x3ba276fa	0.004958031
12	0x3d1659e2	0.036706813
13	0xbd206cf9	-0.039166424
14	0xbbf01c6a	-0.007327606
15	0xbc143e6e	-0.0090480875
16	0x3c6eac2b	0.014567415
17	0xb9d27fb7	-0.00040149476
18	0x3db3ee67	0.08785706
19	0x3d001b09	0.031275783
20	0xbd194e59	-0.037428234
21	0xbd78a0fb	-0.060700398
22	0xbc8a00a3	-0.016846007
23	0xbd319135	-0.04335137
24	0xbd03eabd	-0.032206286
25	0x3b9db059	0.004812282
26	0x3d75676e	0.05991309
27	0x3d5fc113	0.05462749
28	0xbdc93604	-0.09824756
29	0x3d7f32d9	0.06230435
30	0x3ce60200	0.028077126
31	0x3dc33e2a	0.09533341
32	0x3d87dc7c	0.06633851
33	0xbdbb8a83	-0.091572784
34	0xbdc3b4e0	-0.095559835
35	0xbd468efb	-0.0484762
36	0x3db4be47	0.08825355
37	0xbc892408	-0.016740814
38	0x3d302cdf	0.043011542
39	0xbd3f4e02	-0.046705253
40	0x3dc9f73f	0.098616116
41	0xbd2e2c97	-0.042522993
42	0x3d9a5bbb	0.075370274
43	0x3a9bfe2c	0.0011901311
44	0xbd58df1b	-0.052947145
45	0x3d5399e4	0.051660433
46	0xbd5a84ee	-0.053349428
47	0x3cf224f3	0.029558634
48	0xbcedbdd9	-0.02902119
49	0xbc3487a8	-0.011018671
50	0xbdc5e25a	-0.09662314
51	0xbd44460c	-0.047918364
52	0x3d5f61f2	0.054536767
53	0xbcc821d0	-0.024430186
54	0x3dcd04c3	0.10010674
55	0x3da4fe0a	0.080562666
56	0xbb9a3461	-0.004705951
57	0xbd8963a3	-0.06708457
58	0x3d7aafff	0.061203
59	0x3cff867e	0.03119206
60	0xbd850dc0	-0.06496763
61	0x3d85b268	0.06528169
62	0x3d79ebf1	0.061016027
63	0x3db68d17	0.089136295
64	0xbd66c30e	-0.056338362
65	0xbc878648	-0.016543522
66	0xbaff30aa	-0.0019469459
67	0x3c708192	0.0146793295
68	0xbd9c35a0	-0.07627416
69	0xbd921014	-0.07131973
70	0x3d5ff262	0.054674514
71	0xbcc11044	-0.023567326
72	0x3d491630	0.049093425
73	0x3bbbc053	0.005729714
74	0x3d072ae6	0.032999896
75	0x3cb50a50	0.022099644
76	0x3d15ae3c	0.036543116
77	0x3d4c10e6	0.049820803
78	0xbdbe9f8e	-0.093077764
79	0x3d4f361f	0.050588723
80	0xbd90b99f	-0.070666544
81	0xbd9b4d49	-0.075831
82	0x3bc847cd	0.006112075
83	0xbc8c4d03	-0.017126566
84	0x3d71c7a4	0.059028283
85	0xbd6e68b4	-0.05820532
86	0xbdb6fb0f	-0.089346044
87	0x3d95cc44	0.07314351
88	0xbc742b38	-0.014902882
89	0x3d678b08	0.056529075
90	0x3d0457ed	0.032310415
91	0xbd9a5920	-0.075365305
92	0x3ca567ad	0.020191038
93	0x3cc5c2a5	0.024140665
94	0xbd89d101	-0.067293175
95	0xbd4352aa	-0.047686256
96	0x3d0c5e02	0.03426934
97	0x3c9379f8	0.018002495
98	0xbd2f1c41	-0.042751554
99	0xbcf93bf2	-0.030424092
100	0x3dbc848a	0.09204967
101	0xbc985540	-0.018595338
102	0x3d6817a9	0.05666319
103	0x3d324069	0.043518458
104	0xbd850d15	-0.06496636
105	0xbdaf0b9f	-0.085471384
106	0x3dc59358	0.09647244
107	0x3babf745	0.0052479827
108	0x3d8d16ca	0.06889112
109	0x3caa9e84	0.02082754
110	0x3d04667c	0.0323243
111	0x3d99bf6f	0.07507216
112	0x3dc32c34	0.095299155
113	0xbd889606	-0.0666924
114	0x3c4de123	0.012565884
115	0x3d999a7b	0.07500168
116	0x3d951c9b	0.07280847
117	0x3d7fbdbf	0.062436815
118	0xbd94f6de	-0.07273649
119	0xbd943866	-0.0723732
120	0xbd78f65f	-0.060781833
121	0x3c4eddce	0.012626125
122	0x3dcd2530	0.100168586
123	0xbd8204d6	-0.06348579
124	0x3d5b5e1c	0.053556547
125	0xbd63d9d2	-0.05562765
126	0xbdc186b7	-0.09449523
127	0xbcaefd59	-0.02136104
128	0x3d6d3043	0.057907354
129	0x3dbf16ca	0.093305185
130	0xbd7fa8b4	-0.062416747
131	0x3cb2abd3	0.021810448
132	0x3db19aa1	0.08672071
133	0x3d886528	0.06659919
134	0x3d804772	0.06263627
135	0x3d92454f	0.07142126
136	0x3d823124	0.06357029
137	0x3cd4a991	0.025959762
138	0xbd8cc07c	-0.06872651
139	0xbdacd955	-0.0843989
140	0xbd3ca1f8	-0.046052903
141	0xbc3fbf00	-0.011703253
142	0xbd7c547e	-0.061604016
143	0x3d169bcd	0.036769677
144	0x3cfecf46	0.031104695
145	0xbcba6e28	-0.022757605
146	0x3d1e3814	0.0386277
147	0x3d050b19	0.032481287
148	0x3d7b562b	0.061361473
149	0x3d8a9db8	0.06768364
150	0xbd0b6935	-0.03403588
151	0x3dc91a57	0.09819477
152	0xbc3e5dae	-0.011619015
153	0xbb624a2e	-0.0034529078
154	0xbdc247ce	-0.09486352
155	0xbd847a05	-0.06468586
156	0xbd707ec8	-0.058714658
157	0xbd3013f2	-0.04298777
158	0x3d925711	0.07145513
159	0xbd068619	-0.03284273
160	0xbd99d06f	-0.07510459
161	0x3d1e6332	0.03866882
162	0x3d03cd58	0.032178253
163	0x3d8550b7	0.06509536
164	0xbd55063e	-0.052007906
165	0x3cb28277	0.021790726
166	0xbd15ddc9	-0.036588464
167	0xbcb8fb12	-0.022580657
168	0xbda407f6	-0.08009331
169	0xbd3b9ec2	-0.0458057
170	0xbcfc2676	-0.030780058
171	0x3d300ab6	0.042978965
172	0x3c9669c3	0.018360978
173	0x3ccb6013	0.024826085
174	0x3dcd7115	0.10031334
175	0x3dc89bf9	0.097953744
176	0x3d8c630f	0.068548314
177	0x3b51bdbe	0.0032003964
178	0xbd8e6484	-0.069527656
179	0x3da0dc08	0.07854468
180	0xbccde24b	-0.025132319
181	0xbc051fd4	-0.008125264
182	0xbdb152e6	-0.0865839
183	0xbca2a171	-0.019852372
184	0xbd84c24c	-0.06482372
185	0x3dbd23d8	0.09235352
186	0xbdb1f224	-0.08688763
187	0xbda0713a	-0.07834096
188	0xbb5fa833	-0.0034127354
189	0xbd5e97c2	-0.054343946
190	0x3d134c4a	0.035961427
191	0xbd1e75b6	-0.038686477
192	0xbd415a6d	-0.047205377
193	0x3bba8674	0.0056922976
194	0x3d95004d	0.07275448
195	0xbd90c974	-0.07069674
196	0x3d4151dc	0.047197208
197	0x3d843c1e	0.06456779
198	0x3dc95813	0.09831252
199	0xbd901168	-0.0703457
200	0x3cc766c6	0.024340998
201	0xbd983290	-0.07431519
202	0x3dafba99	0.085805126
203	0xbd1fafd6	-0.03898605
204	0x3d77f775	0.060538728
205	0x3b4417d4	0.002992143
206	0xbc003eeb	-0.007827501
207	0xbb522a16	-0.0032068542
208	0x3c8bf606	0.017085087
209	0x3d420e7a	0.047377087
210	0x3c840b8b	0.016118785
211	0x3cfb28f1	0.03065917
212	0xbdb92696	-0.09040563
213	0x3d95f4c5	0.07322077
214	0x3db37510	0.08762562
215	0x3daa2447	0.083077006
216	0x3d9827ce	0.07429467
217	0xbd9488df	-0.072526686
218	0xbd189a89	-0.03725675
219	0x3db57cb0	0.08861673
220	0xbd9cc604	-0.07654956
221	0x3dbabc24	0.09117916
222	0xbda1e2c7	-0.079045825
223	0xbd90fd59	-0.07079572
224	0x3d4940d3	0.049134087
225	0xbd93e34a	-0.07221086
226	0xbcbc9ff2	-0.023025487
227	0x3d95bdad	0.073115684
228	0x3da3097b	0.07960793
229	0x3dc2aaa3	0.095052026
230	0xbca71142	-0.020393971
231	0xbd9ffc25	-0.07811765
232	0x3dcaaa08	0.09895712
233	0xbcaf63e3	-0.021409934
234	0xbd295f71	-0.041350786
235	0x3cc8b49f	0.02450019
236	0xbd8ff174	-0.070284754
237	0x3d874a04	0.06605914
238	0x3d810061	0.062989004
239	0xbda352d9	-0.07974786
240	0xbda91084	-0.08255103
241	0xbc103db1	-0.008803771
242	0x3d2ce8be	0.042214148
243	0xbb3ec330	-0.002910804
244	0xbd50becd	-0.05096321
245	0x3b169609	0.0022977612
246	0xbdc177c7	-0.09446674
247	0xbd91794e	-0.07103215
248	0xbd89051f	-0.0669043
249	0x3da98239	0.08276791
250	0x3db5711f	0.08859467
251	0xbd0bd411	-0.03413779
252	0x3b93b4bd	0.0045076297
253	0x3d3797c3	0.044822466
254	0x3c454c3a	0.0120421
255	0xbd4e243c	-0.050327525

cell_list.0.conv_can.weight f4 [10, 11, 3, 3]
0	0xbfeb0b78	-1.8362875
1	0xbfe0b3d9	-1.7554885
2	0xbf9fa6b6	-1.2472751
3	0xc0273163	-2.6123893
4	0xbf8a4e62	-1.080517
5	0x3d3d078e	0.046149783
6	0xc03b2856	-2.924337
7	0xbf51bb37	-0.8192629
8	0x3f87ced5	1.0609995
9	0x3db7c1b9	0.089724965
10	0xbc2d9991	-0.010595695
11	0x3d3719a8	0.044702202
12	0x3d73a935	0.05948754
13	0xbcdbef59	-0.026847528
14	0xbd6d2d06	-0.057904266
15	0x3dab560c	0.083660215
16	0xbc2c8e2d	-0.010531944
17	0x3d17cc9e	0.037060373
18	0xbd408248	-0.046999246
19	0xbd545b93	-0.051845144
20	0xbc988f0a	-0.018622894
21	0x3b59d283	0.0033237047
22	0x3d738a30	0.059457958
23	0x3d85b606	0.06528859
24	0xbc4ee58b	-0.0126279695
25	0x3dca5c8c	0.09880933
26	0xbd5b27c9	-0.05350474
27	0x3bdd5c0d	0.006755358
28	0xbd8100b8	-0.06298965
29	0x3c86c7d4	0.016452707
30	0x3dbb99a0	0.09160161
31	0xbdaa42dd	-0.083135344
32	0x3cc1adc2	0.023642424
33	0xbdbd2a5f	-0.09236597
34	0xbcb8243e	-0.02247822
35	0xbd4179af	-0.047235187
36	0x3931a72b	0.0001694231
37	0xbd8ed7b3	-0.06974735
38	0x3cd11998	0.0255249
39	0xbdc23826	-0.09483366
40	0x3cb47cfb	0.022032252
41	0xbd1ebe23	-0.038755547
42	0xbd765bde	-0.060146205
43	0x3dae7f11	0.0852033
44	0x3c31c41d	0.01084998
45	0xbd88400b	-0.0665284
46	0xbd680893	-0.056648802
47	0xbd37ac3e	-0.044841997
48	0xbd7396f7	-0.059470143
49	0x3c4b9def	0.012427791
50	0x3ab975fc	0.0014149542
51	0x3db37153	0.08761849
52	0x3b404f93	0.0029344305
53	0xbd5b973b	-0.05361102
54	0x3db0fcda	0.086419776
55	0x3ccf0d3e	0.025274869
56	0xbcb1a690	-0.021685869
57	0x3d90740d	0.07053385
58	0x3da8bd34	0.08239213
59	0xbdad4817	-0.08461016
60	0xbda9c2ca	-0.08289106
61	0xbd87658b	-0.06611165
62	0xbdb101d6	-0.08642928
63	0xbcf704d4	-0.03015367
64	0x3d16b20d	0.036790896
65	0xbdbbc330	-0.091680884
66	0xbdc92c11	-0.09822858
67	0xbdb13d0a	-0.086542204
68	0xbd56ca83	-0.052439224
69	0x3d810d05	0.063013114
70	0x3db67dbb	0.089107
71	0x3dcc7a95	0.09984318
72	0x3a8f828e	0.0010948943
73	0xbdae5442	-0.08512165
74	0x3dc8b9a9	0.09801037
75	0xbd8a5c0a	-0.06755836
76	0x3d1b6d69	0.03794614
77	0x3d4dc70e	0.05023866
78	0x3cfe8960	0.031071365
79	0x3d07de83	0.033171188
80	0xbdc00313	-0.09375586
81	0xbd0ab69c	-0.033865556
82	0xbd84647b	-0.06464478
83	0x3d8e2778	0.06941122
84	0xbd69e3b1	-0.05710191
85	0xbb1d91ff	-0.002404332
86	0x3db6f38c	0.08933172
87	0x3d9c02ea	0.07617743
88	0xbd94176c	-0.0723103
89	0xbdabb500	-0.083841324
90	0x3da2e941	0.07954646
91	0x3cecf308	0.02892448
92	0xbd9dceae	-0.07705437
93	0x3db1f990	0.086901784
94	0xbd949898	-0.072556674
95	0x3db22f17	0.08700388
96	0x3d93ab4a	0.07210405
97	0x3d92ad09	0.0716191
98	0xbc9df5d2	-0.019282255
99	0x3e7bd503	0.24592976
100	0xbe0b33ba	-0.13593951
101	0x3e806bc2	0.25082213
102	0x3fb65392	1.4244254
103	0x3f1979cb	0.59951466
104	0x3f6bd1c1	0.92116934
105	0x3fe2f591	1.7731191
106	0x3efdbe85	0.49559417
107	0x3f0fb334	0.5613282
108	0x3ce0c953	0.027439749
109	0xbd96280f	-0.07331859
110	0xbd890a87	-0.06691461
111	0xbd8d07cf	-0.06886255
112	0xbd6c7b75	-0.057734925
113	0x3ce4e6bb	0.027942052
114	0xbd316c4c	-0.04331617
115	0xbd0e2f14	-0.034712866
116	0x3d8ffe39	0.07030911
117	0x3c87fcda	0.016600061
118	0xbd48a248	-0.04898289
119	0xbcdf70bf	-0.027275441
120	0xbcd87516	-0.026423018
121	0x3d402f81	0.046920303
122	0x3d90e379	0.07074637
123	0x3da40387	0.08008485
124	0xbd8c0a03	-0.06837847
125	0xbc2fe9e2	-0.010736914
126	0x3cc142df	0.023591457
127	0xbd20e307	-0.03927901
128	0x3d8756f5	0.066083826
129	0xbc3710d0	-0.011173442
130	0x3c2fb66d	0.010724646
131	0xbdaff8b4	-0.08592358
132	0x3d94b9d4	0.072620064
133	0xbd886352	-0.06659569
134	0xbb1e6643	-0.002416984
135	0xbda7e2e1	-0.081975706
136	0x3d9c982b	0.07646211
137	0x3bbe5b2b	0.005809208
138	0x3d396402	0.04526139
139	0xbda1c894	-0.07899585
140	0x3c0bff3f	0.008544742
141	0x3d28a7e5	0.04117574
142	0x3d915b81	0.07097531
143	0x3d974548	0.07386261
144	0xbc92fe80	-0.01794362
145	0xbc273f6a	-0.01020799
146	0x3d08c6d0	0.033392727
147	0xbd1403f9	-0.0361366
148	0xbd278348	-0.040896684
149	0xbdbd80f0	-0.092531085
150	0xbdc9d8ed	-0.098558284
151	0xbd58c30d	-0.05292039
152	0x3c4d9751	0.012548284
153	0x3c04b936	0.008100798
154	0x3c041b52	0.008063154
155	0x3c76993d	0.015051183
156	0xbc980e38	-0.018561468
157	0xbdcb5b13	-0.099294804
158	0x3db7cc7c	0.08974549
159	0xbd969bf0	-0.073539615
160	0xba9a4259	-0.0011769041
161	0x3d2390ea	0.039933123
162	0x3cd310d8	0.025764868
163	0xbd32ccd0	-0.043652356
164	0xbdb2dee9	-0.08733923
165	0x3da4ce85	0.08047203
166	0x3b3bb275	0.0028640304
167	0x3dbbb82d	0.09165988
168	0x3d40108c	0.04689078
169	0x3d2fdce5	0.04293527
170	0x3cb2276f	0.021747319
171	0xbcb9b09b	-0.02266722
172	0xbd714462	-0.058903106
173	0x3c47f7c0	0.012205064
174	0x3dc5cab4	0.09657803
175	0x3d76cb47	0.060252454
176	0x3dbaffbf	0.09130811
177	0x3dc1081d	0.094253756
178	0x3da0d431	0.07852972
179	0xbd670f76	-0.05641123
180	0xbd603160	-0.054734588
181	0xbb61f5c1	-0.0034478756
182	0xbd54e760	-0.05197847
183	0xbcdf65b7	-0.027270181
184	0xbd0d0407	-0.03442767
185	0x3db41cb2	0.08794536
186	0xbbdd73f9	-0.00675821
187	0x3dc73d6c	0.09728512
188	0xbd9f9a4c	-0.07793102
189	0xbdcb0908	-0.09913832
190	0x3c6b6ff7	0.014369956
191	0x3ca4130b	0.020028612
192	0xbd261e44	-0.040556207
193	0xbd505448	-0.050861627
194	0x3cea7fa9	0.028625326
195	0x3ba4fc69	0.0050349724
196	0xbc5c9a2e	-0.013464494
197	0x3d50fd2a	0.051022686
198	0x3e1d6434	0.15370256
199	0xbe35ebe5	-0.17765768
200	0xbf34db0c	-0.7064674
201	0x3e9a1bf7	0.3009946
202	0x3e275fb4	0.16345102
203	0xbc3d2ca2	-0.011546286
204	0x3d15d671	0.03658146
205	0x3dfb6505	0.12275127
206	0x3ecf6f8f	0.405148
207	0xbd0afaf1	-0.033930723
208	0xbd038a35	-0.032114226
209	0xbc982e82	-0.018576864
210	0x3cc61630	0.024180502
211	0xbcbfa640	-0.023394704
212	0xbd9057db	-0.07048007
213	0xbd4d8ab4	-0.050181106
214	0xbdac67c7	-0.084182315
215	0xbdcd9849	-0.10038812
216	0x3d46f12c	0.048569843
217	0x3d660409	0.056156192
218	0x3d9b8af2	0.07594861
219	0x3c025a79	0.007956141
220	0xbd2952fb	-0.041338902
221	0xbd779756	-0.06044706
222	0x3d4d094e	0.0500577
223	0xbd78c8fb	-0.060738545
224	0x3d99d219	0.07510776
225	0xbd5f4581	-0.054509643
226	0xbdc003d2	-0.09375729
227	0xbd943b43	-0.07237866
228	0x3da7a3db	0.0818555
229	0x3d9b5cf8	0.07586092
230	0x3cc8f3b0	0.024530262
231	0x3b186156	0.0023251376
232	0x3db07c11	0.08617414
233	0x3d786c88	0.06065038
234	0x3d73bdf9	0.059507344
235	0xbd8c1784	-0.06840423
236	0x3c83be48	0.016081944
237	0x3dba7c9f	0.09105801
238	0xbd90feac	-0.07079825
239	0x3dcd0fae	0.10012756
240	0xbd86d0aa	-0.06582768
241	0xbcf1ef3a	-0.029533017
242	0xbb9b4be1	-0.00473927
243	0x3cd62bfa	0.026144017
244	0x3cfd053b	0.030886283
245	0xbd6b72e5	-0.05748262
246	0x3d3c6bcf	0.04600125
247	0x3cd9e5a2	0.026598755
248	0xbc374d37	-0.011187843
249	0xbdccdc0a	-0.100029066
250	0x3dcbb670	0.099469066
251	0xbd183d07	-0.037167575
252	0xbd5b6cdb	-0.05357061
253	0x3dcbd1c0	0.09952116
254	0xbd509d25	-0.050931115
255	0x3d898249	0.06714303

cell_list.1.conv_gates.weight f4 [20, 20, 3, 3]
0	0xbbd0060c	-0.006348377
1	0xbc40cafa	-0.011767143
2	0x3d6cd5e0	0.057821155
3	0xbd38b5c2	-0.045095213
4	0x3c0102ba	0.007874185
5	0xbcddb19b	-0.027062228
6	0x3c5573b0	0.01302807
7	0xbd722ba1	-0.05912364
8	0xbcec7663	-0.028865045
9	0x3d1040fb	0.03521822
10	0xbd4ba4fa	-0.04971788
11	0xbd0b7611	-0.034048144
12	0xbc2116d5	-0.009832104
13	0xbd6ea157	-0.058259334
14	0xbd44aebf	-0.048018213
15	0xbcc5f488	-0.024164453
16	0xbc0f5302	-0.008747818
17	0xbc834870	-0.016025752
18	0x3b89ebbd	0.0042090104
19	0xbd8bdd30	-0.068292975
20	0xbc458f2a	-0.012058059
21	0xbd860d49	-0.06545503
22	0x3d208e2a	0.03919808
23	0x3d8afbbe	0.06786297
24	0xbd71250a	-0.058873214
25	0xbd5bdaa7	-0.05367532
26	0x3d940517	0.07227533
27	0x3d6d2e52	0.057905503
28	0x3d0c6d44	0.03428389
29	0xbd40da2f	-0.047083076
30	0x3cbf3818	0.023342177
31	0xbb1b1432	-0.002366316
32	0x3d65dbbc	0.05611776
33	0x3d3dedf0	0.046369493
34	0xbc0a2f7e	-0.008434175
35	0x3cee0691	0.029055865
36	0xbd856ab3	-0.06514492
37	0x3c5210d7	0.012821398
38	0xbd39f531	-0.04539985
39	0x3d726827	0.05918136
40	0xbd5da765	-0.054114718
41	0xbd84b524	-0.06479862
42	0xbd81f7e1	-0.06346107
43	0xbcae58af	-0.021282522
44	0x3b84cb17	0.0040525305
45	0xbc0be766	-0.008539056
46	0x3cfa9aa8	0.030591324
47	0xbd87823e	-0.066166386
48	0xbd336917	-0.043801393
49	0xbc292867	-0.010324574
50	0xbb1b7d97	-0.002372598
51	0xbc845fa1	-0.01615888
52	0x3d0c23ef	0.034213956
53	0x3d1e0a8f	0.03858429
54	0xbc5b6949	-0.013391801
55	0xbb6e2239	-0.0036336316
56	0xbc3e9917	-0.011633179
57	0x3beed20d	0.0072882236
58	0xbd00005e	-0.03125035
59	0xbc3e6a6f	-0.011622055
60	0xbd600b93	-0.054698538
61	0x3d7f56c8	0.06233862
62	0x3d50b4d0	0.050953686
63	0xbd4f6fac	-0.050643608
64	0x3bb4e105	0.0055199885
65	0xbd337466	-0.043812178
66	0xbc7632ac	-0.01502673
67	0xbd87622e	-0.06610523
68	0xbba247fb	-0.0049524284
69	0xbd0af6c5	-0.033926744
70	0xbd892caa	-0.06697972
71	0x3d95d9c1	0.07316924
72	0x3c9bd2ef	0.01902148
73	0x3d517aba	0.05114243
74	0x3c48ce75	0.012256254
75	0x3b7baf8e	0.00384042
76	0xbd0b7186	-0.03404381
77	0x3cf3c692	0.029757772
78	0x3d43cf13	0.047804903
79	0xbb8e4bdc	-0.0043425392
80	0xbd1d4e29	-0.038404617
81	0x3d74a4ab	0.059727352
82	0xbbd63437	-0.006536986
83	0xbd488b49	-0.048960958
84	0x3d2d8a54	0.042368248
85	0x3d9605cc	0.073253244
86	0x3d8fd181	0.070223816
87	0x3d7af854	0.06127198
88	0x3d8a7966	0.06761436
89	0xbd97231c	-0.073797435
90	0x3cd1aef9	0.025596129
91	0x3d845e63	0.06463315
92	0xbd45d1bc	-0.04829572
93	0x3ca1df64	0.019759841
94	0xbcc109d0	-0.02356425
95	0xbbb0c578	-0.005394634
96	0x3d0d88ff	0.034554478
97	0x3bb4f2af	0.005522094
98	0xbcda818d	-0.026673103
99	0xbc661212	-0.014042394
100	0x3ce758b9	0.028240548
101	0xbd1a7475	-0.03770872
102	0x3d4aea89	0.049540076
103	0xbd8dc7d3	-0.06922879
104	0xbd5078aa	-0.050896324
105	0x3ca8f296	0.020623486
106	0x3af063df	0.0018340311
107	0x3d2d8b48	0.042369157
108	0x3d029b7f	0.031886574
109	0x3b6ec089	0.0036430678
110	0x3c3a55be	0.011372982
111	0x3d5f1802	0.054466255
112	0xbd8f8989	-0.070086546
113	0xbcd0f2d4	-0.025506414
114	0x3d44fe38	0.048094004
115	0xbd6ea4b9	-0.05826256
116	0x3d11e601	0.03561974
117	0x3d4adc6b	0.049526613
118	0x3cc43476	0.023950797
119	0xbd47fd9c	-0.048825845
120	0xbd2b046c	-0.041752264
121	0x3c8d2c99	0.01723318
122	0xbd08385e	-0.03325688
123	0x3cf012bd	0.02930581
124	0x3caf4e3d	0.021399612
125	0x3c5d2406	0.013497358
126	0x3d8a3241	0.067478664
127	0xbd933755	-0.07188288
128	0xbd928b43	-0.07155468
129	0x3d4b69e1	0.04966152
130	0xbcccfc61	-0.025022687
131	0xbd919719	-0.07108898
132	0xbccbfdb1	-0.024901243
133	0x3d684674	0.056707814
134	0xbc2c1d59	-0.010505044
135	0x3d150c22	0.036388524
136	0x3d31eb9b	0.04343758
137	0xbcbb2dee	-0.02284905
138	0x3d1e7ca0	0.03869307
139	0x3cbc70a7	0.023002936
140	0xbd431b33	-0.04763336
141	0xbc762630	-0.015023753
142	0x3d392df2	0.045209832
143	0x3ced7a5e	0.028989013
144	0x3c29eac1	0.010370911
145	0xbc15d7c9	-0.0091456855
146	0xbd5700eb	-0.05249111
147	0xbcdcba98	-0.026944444
148	0x3d45ee21	0.0483228
149	0xbb84526b	-0.0040381453
150	0xbd370043	-0.044677984
151	0x3c221d9c	0.009894755
152	0xbd7ba8dd	-0.061440337
153	0xbc16c115	-0.009201308
154	0xbb480d69	-0.0030525571
155	0xbd905162	-0.070467725
156	0xbd4d4990	-0.050118983
157	0xbd4ee217	-0.050508585
158	0xbd544748	-0.05182579
159	0x3d78f507	0.06078055
160	0x3cedbcd5	0.029020706
161	0xbd57eea4	-0.05271782
162	0xbd022367	-0.031772044
163	0x3d604825	0.054756302
164	0x3d8544a5	0.065072335
165	0x3beebdda	0.0072858157
166	0x3a8260be	0.0009947044
167	0xbd686704	-0.05673887
168	0x3d34e354	0.04416211
169	0xbcab78e3	-0.020931667
170	0x3be63ff2	0.007026666
171	0xbc78acbf	-0.015177905
172	0x3cd34460	0.02578944
173	0x3c8e6af5	0.017384985
174	0xbc8cbbf5	-0.017179469
175	0xbc43f79a	-0.011960888
176	0xb967c71c	-0.00022104051
177	0xbd71eb25	-0.059062142
178	0xbb90ed70	-0.004422836
179	0xbd649327	-0.055804398
180	0x3d6c5ba8	0.057704598
181	0x3d1b51cf	0.037919816
182	0xbc015297	-0.007893226
183	0x3d52bd28	0.051449925
184	0x3bd7a931	0.0065814485
185	0x3d8b7bb4	0.06810704
186	0x3c751cd7	0.014960489
187	0x3d0febc0	0.035136938
188	0x3c3abe8a	0.011397967
189	0xbd2ceeaa	-0.042219795
190	0xbd8f2fc5	-0.06991533
191	0xbcf2ab8b	-0.029622814
192	0x3d6eddb0	0.058316886
193	0x3d1c1649	0.03810719
194	0xbcc77c8d	-0.024351383
195	0xbd3dea10	-0.046365798
196	0x3d9651d4	0.07339826
197	0x3c045e45	0.008079116
198	0xbd8397d4	-0.06425443
199	0xbcd7fc6e	-0.026365485
200	0x3ba7eb37	0.0051244753
201	0xbbe97d01	-0.0071254973
202	0xbcec1da7	-0.028822733
203	0x3cb4ecb8	0.022085533
204	0xbd4f30b5	-0.05058356
205	0x3cffb36b	0.031213483
206	0xbd4e08ac	-0.05030124
207	0x3d762b05	0.06009962
208	0x3d74ee90	0.059797823
209	0x3d974ddd	0.07387898
210	0xbd95a558	-0.073069274
211	0xbcdff984	-0.027340658
212	0xbc74bd19	-0.0149376625
213	0xbd8cff2a	-0.06884606
214	0x3d092a1f	0.033487435
215	0xbcf793a7	-0.030221773
216	0xbab394f6	-0.001370101
217	0x3d121fb2	0.03567476
218	0xbd6e74c5	-0.05821683
219	0x3c281833	0.010259676
220	0xbd05cd4f	-0.0326665
221	0x3d563919	0.052300546
222	0x3d857aad	0.06517539
223	0xbc8f3a5f	-0.017483888
224	0xbd44bd1d	-0.048031915
225	0x3d329c60	0.043606162
226	0xbd593c9d	-0.05303632
227	0x3d90e469	0.07074816
228	0x3d73de78	0.059538335
229	0x3d02edb3	0.03196497
230	0xbd0fd665	-0.035116572
231	0x3d62da33	0.055383872
232	0x3d674d62	0.056470282
233	0xbc69f94b	-0.0142806275
234	0xbd35c257	-0.04437479
235	0x3b0c1196	0.0021372787
236	0x3d6e95df	0.058248397
237	0x3d8503d2	0.06494869
238	0xbd8d43b3	-0.06897678
239	0x3d894433	0.06702461
240	0xbd455da2	-0.048185
241	0x3c618937	0.013765625
242	0xbd07d1ef	-0.033159193
243	0xbd2c07d6	-0.04199966
244	0xbc3e3317	-0.01160886
245	0x3b22630a	0.002477827
246	0xbd77c6f1	-0.06049246
247	0xbcd3e949	-0.025868075
248	0x3d5bbd01	0.053647045
249	0xbb4a8d13	-0.003090684
250	0xbd1e18c2	-0.03859783
251	0x3d82c4ad	0.06385169
252	0xbd8ebaa7	-0.06969195
253	0xbc9f5d2c	-0.019453607
254	0x3d7cb6bd	0.06169771
255	0x3bf03713	0.007330784

cell_list.1.conv_can.weight f4 [10, 20, 3, 3]
0	0xbe71ef2d	-0.23626395
1	0xbef7ee00	-0.48423767
2	0xbe8fb58a	-0.2806819
3	0xbe93d27c	-0.28871524
4	0xbf8df104	-1.1089177
5	0xbe67660a	-0.22597519
6	0xbeff4185	-0.49854675
7	0xbf7cf09f	-0.9880466
8	0xbf54ca18	-0.8312087
9	0x3e81dbc4	0.2536298
10	0x3da2ce13	0.07949462
11	0xbed4c99d	-0.4156007
12	0x3eb3ee5a	0.35142785
13	0x3e8aa5b5	0.2707955
14	0xbea950ef	-0.3306956
15	0xbec2a119	-0.38013533
16	0xbf23a06f	-0.6391668
17	0xbec7973a	-0.38982564
18	0xbf08b59b	-0.5340211
19	0xbe456ef9	-0.19280614
20	0xbf8c7746	-1.0973899
21	0xbe8af83f	-0.27142522
22	0xbf60bcae	-0.877879
23	0xbfa0b67c	-1.255569
24	0xbf101d2c	-0.5629451
25	0xbf8ea3b9	-1.1143714
26	0xbf73a242	-0.9516946
27	0x3e55a102	0.20862201
28	0x3f2543fe	0.6455687
29	0x3e295ecf	0.16540073
30	0x3eaa960d	0.33317605
31	0x3f35b19e	0.7097415
32	0x3e66df77	0.22546183
33	0x3efa26d1	0.4885774
34	0x3f09fd9c	0.539026
35	0x3f2dab07	0.6783909
36	0xbee72773	-0.45147285
37	0xbb1485a7	-0.002266267
38	0xbd9a2968	-0.07527429
39	0x3c96a8dc	0.018391065
40	0x3ed22591	0.41044286
41	0x3f2fe321	0.68705946
42	0x3e19cb8b	0.15019052
43	0x3f2bf5f8	0.67172194
44	0x3f938af2	1.1526778
45	0xbe898e53	-0.26866397
46	0xbda578ff	-0.08079719
47	0xbf700dc8	-0.9377103
48	0xbf0d4b31	-0.5519286
49	0x3d1fe922	0.039040692
50	0xbf72a1af	-0.9477796
51	0xbf2ff4d1	-0.68732935
52	0x3d8e6438	0.06952709
53	0xbfb5ef1a	-1.4213593
54	0x3eaa6579	0.33280542
55	0xbe9c1664	-0.30485833
56	0xbe6995e1	-0.2281108
57	0x3f42d735	0.7610963
58	0x3e526aea	0.20548597
59	0x3db05c87	0.08611398
60	0x3e65ec27	0.22453366
61	0xbe7fa86f	-0.24966596
62	0xbdf55d32	-0.11980666
63	0xbe70d22f	-0.23517679
64	0xbe801e89	-0.25023296
65	0xbe527d72	-0.20555666
66	0xbeba8cff	-0.36435696
67	0xbdbd84a9	-0.092538185
68	0x3dceaa4b	0.100910746
69	0x3d6fcd91	0.058545653
70	0x3e864172	0.26221806
71	0x3ea41bc2	0.32052428
72	0x3ef1af9d	0.47204295
73	0x3f8856bf	1.0651473
74	0x3edb1372	0.42788273
75	0x3f1bdabe	0.6088065
76	0x3f4a0f44	0.78929543
77	0x3d5e7e90	0.05431992
78	0x3e98bb11	0.2983022
79	0xbe52a414	-0.20570403
80	0xbefbb515	-0.49161592
81	0xbed0c997	-0.407788
82	0xbdb2eba3	-0.087363504
83	0xbe073dee	-0.13207218
84	0xbe1d266b	-0.15346687
85	0x3f0fcff9	0.56176716
86	0x3e2621f2	0.16223887
87	0x3e39d8d0	0.18149114
88	0x3f3276e5	0.6971267
89	0x3eefc272	0.46828038
90	0x3c261a69	0.010138133
91	0xbd415441	-0.04719949
92	0xbd94ec11	-0.072715886
93	0xbcd53522	-0.026026312
94	0x3c9b1935	0.018932918
95	0xbd84933f	-0.064733975
96	0x3d88cf8f	0.06680214
97	0x3ca571d9	0.020195888
98	0xbd10d473	-0.035358857
99	0x3b35697e	0.0027681286
100	0xbcce004e	-0.02514663
101	0x3d566b21	0.05234826
102	0xbd6913c8	-0.05690363
103	0x3d7fa8a6	0.062416695
104	0xbd24376c	-0.040091917
105	0x3d851dbc	0.06499812
106	0xbd456c18	-0.04819879
107	0xbd6f6929	-0.058449898
108	0xbcfaab42	-0.03059924
109	0xbbc28f72	-0.00593751
110	0xbce97d79	-0.028502213
111	0xbd8a1aa5	-0.06743363
112	0xbd80dccc	-0.06292114
113	0x3d8c9a3c	0.06865355
114	0xbd900cd4	-0.07033697
115	0x3c4ccb56	0.012499651
116	0xbd86fc6f	-0.06591117
117	0x3d8b1056	0.06790225
118	0xbd440fbe	-0.047866575
119	0x3d8b643a	0.06806226
120	0x3d6b0c06	0.057384513
121	0xbd87a68e	-0.06623565
122	0xbd0c3f0b	-0.03423981
123	0xbcf7575f	-0.030193029
124	0x3d274701	0.0408392
125	0xbc616350	-0.013756588
126	0x3c1d52fa	0.009602303
127	0xbd10016e	-0.035157613
128	0xbc9d7966	-0.019222926
129	0x3d5b2b7a	0.05350826
130	0xbd784757	-0.06061491
131	0x3b74b4ca	0.0037339204
132	0x3d01facc	0.03173332
133	0xbc0b9602	-0.008519651
134	0x3cd7df14	0.02635149
135	0xbd0e9743	-0.034812223
136	0xbd1e2247	-0.03860691
137	0x3d59f2b7	0.053209987
138	0x3b20f0bf	0.0024557558
139	0x3d123c5a	0.035702087
140	0xbd4d26b3	-0.050085735
141	0xbd97d113	-0.074129246
142	0xbd01c6db	-0.031683784
143	0x3d8d96f2	0.06913556
144	0x3d5b1fb3	0.053497028
145	0x3d80f08a	0.06295879
146	0xbd9239fd	-0.07139967
147	0x3d407149	0.046983037
148	0xbd39ea0e	-0.045389228
149	0x3d4dffd7	0.050292816
150	0xbc84ce6d	-0.016211713
151	0x3d8b3743	0.0679765
152	0xbd365a0c	-0.04451947
153	0xbd472127	-0.0486156
154	0xbd01cbc6	-0.031688474
155	0x3b1015bb	0.0021985609
156	0xbc237525	-0.00997666
157	0x3d583bcb	0.052791398
158	0x3d55b0ca	0.052170552
159	0xbca2afcb	-0.019859215
160	0x3cc337c4	0.023830302
161	0x3d0d3cf1	0.034481946
162	0x3cd64ec4	0.026160605
163	0xbb93f154	-0.0045148525
164	0xbd324bed	-0.04352944
165	0x3d4bfd6c	0.04980223
166	0x3d8ec43e	0.06971024
167	0xbd1cffb1	-0.038329784
168	0x3d7ed410	0.062213957
169	0xbbc2600b	-0.0059318594
170	0x3c474142	0.012161555
171	0xbc617c35	-0.013762523
172	0x3aebf35a	0.0018001602
173	0x3c1a0978	0.009401672
174	0xbd274f87	-0.040847328
175	0x3cb85d3a	0.022505391
176	0x3d01f62d	0.031728912
177	0x3d64b309	0.055834804
178	0x3d34ddb1	0.044156734
179	0xbced4103	-0.028961664
180	0xbeabfea0	-0.335927
181	0x3ed368a0	0.4129076
182	0x3f58b989	0.84658104
183	0xbea7391d	-0.3266076
184	0x3e41b5b0	0.18916965
185	0x3e9e912d	0.30970135
186	0xbe29cd00	-0.16582108
187	0xbeedb2c8	-0.46425462
188	0xbf199b11	-0.6000224
189	0xbf1e604c	-0.6186569
190	0xbed006e7	-0.40630266
191	0xbda5a9ad	-0.08089004
192	0xbe022b3a	-0.12711802
193	0x3e226165	0.15857466
194	0x3ec0190f	0.37519118
195	0xbe71eae9	-0.23624767
196	0x3e053a39	0.13010491
197	0x3d8fb85f	0.07017588
198	0xbed7f0e3	-0.4217597
199	0xbe970d50	-0.29502344
200	0xbf02a948	-0.5103955
201	0xbf04a36d	-0.5181187
202	0xbdb85950	-0.0900141
203	0x3e168bc3	0.14701752
204	0xbe9a1cf1	-0.30100206
205	0xbeb6fdd2	-0.35740525
206	0xbe1f238b	-0.15540902
207	0xbec323a2	-0.38113123
208	0xbf148f93	-0.58031577
209	0xbf147792	-0.5799495
210	0x3e44bf8a	0.19213691
211	0x3f15c2c6	0.58500326
212	0x3ec866a0	0.39140797
213	0x3f638bde	0.88885295
214	0x3f3fbf68	0.7490144
215	0x3ef0374d	0.4691719
216	0xbf19906d	-0.59986
217	0xbf4bf908	-0.79676867
218	0xbf06b4ff	-0.5261993
219	0x3e0e4f8a	0.13897529
220	0x3bbd1096	0.0057697995
221	0x3eb3c581	0.3511162
222	0x3eb99c37	0.36251995
223	0x3e4e697d	0.20157428
224	0x3ebc2cd6	0.36752957
225	0xbd74a04a	-0.059723176
226	0xbecfb7b4	-0.40569842
227	0x3b0c5fda	0.0021419437
228	0x3e6a0a7c	0.22855562
229	0x3d39dd0f	0.045376834
230	0x3def01fb	0.116702996
231	0x3dff5f18	0.124693096
232	0x3f02e843	0.51135653
233	0x3e365327	0.17805158
234	0x3e40ab94	0.18815452
235	0xbe0787d5	-0.1323541
236	0xbb7da917	-0.0038705522
237	0x3ebbc4fd	0.36673728
238	0x3e568785	0.20950134
239	0x3e4d5245	0.20050915
240	0x3f319569	0.69368607
241	0x3f1afc52	0.6054126
242	0x3e866903	0.26251993
243	0x3e0702bd	0.13184638
244	0x3d1b02f3	0.03784461
245	0xbf503a3c	-0.8133886
246	0xbe9743ab	-0.29543814
247	0xbed6fda8	-0.419904
248	0xbee306bc	-0.44341075
249	0xbe8b8758	-0.27251697
250	0xbb833b77	-0.0040048915
251	0xbd933fbb	-0.0718989
252	0x3f1caedb	0.6120431
253	0x3f048699	0.5176788
254	0x3ed318a3	0.41229734
255	0xbf06d635	-0.52670604

cell_list.2.conv_gates.weight f4 [20, 20, 3, 3]
0	0x3d007885	0.031364936
1	0xbf143c9a	-0.5790497
2	0xbebaeedb	-0.36510357
3	0xbe3655e7	-0.17806207
4	0x3f806401	1.0030519
5	0x3f8ee99c	1.1165042
6	0xbfa4a401	-1.286255
7	0xbfa75f3f	-1.3075942
8	0xbf76d4eb	-0.9641864
9	0x3e7068e6	0.23477516
10	0xbf2aabee	-0.66668594
11	0xbdf1a418	-0.117988765
12	0x3e250ac3	0.16117387
13	0xbeb6c766	-0.35699004
14	0x3f3dc5f8	0.741302
15	0x3f88264e	1.063669
16	0x3f034e76	0.51291597
17	0x3fb42c45	1.407601
18	0x3c9f14f6	0.019419175
19	0xbedfe3c3	-0.43728456
20	0xbec17d8f	-0.37791106
21	0x3ee0e49d	0.43924418
22	0x3f5d0cd2	0.8634769
23	0x3ce1c674	0.02756045
24	0x3ef3d006	0.47619647
25	0x3f29f172	0.6638404
26	0xbf43caa7	-0.764811
27	0xbf992a61	-1.1966058
28	0xbf74d295	-0.9563382
29	0xbf6f938b	-0.9358451
30	0x3e2d8efa	0.16949072
31	0x3f13fde8	0.57809305
32	0x3f1bd28e	0.60868156
33	0x3df5b13f	0.11996698
34	0x3de902ae	0.11377464
35	0x3f86e857	1.0539654
36	0xbf6fa1a1	-0.93606
37	0xbf338c57	-0.70136017
38	0x3d1fbbd8	0.0389975
39	0xbf726ee1	-0.9470044
40	0xbecf3875	-0.4047276
41	0xbe20af72	-0.15691927
42	0xbf224748	-0.63390017
43	0xbf0e73aa	-0.5564524
44	0xbf5e8efb	-0.8693692
45	0x3fb718f4	1.430449
46	0x3e996930	0.29963064
47	0x3f898e6c	1.0746589
48	0x3dc1f552	0.09470619
49	0xbf9ff43e	-1.2496412
50	0xbd525445	-0.051349897
51	0x3f9fe072	1.249037
52	0xbd0a4907	-0.03376105
53	0x400c45a8	2.1917515
54	0x3e8ed330	0.27895498
55	0xbf0fbb54	-0.56145215
56	0xbf84dd11	-1.0379964
57	0x3e64afff	0.22332762
58	0x3f2a0e97	0.6642851
59	0x3f868478	1.0509176
60	0xbe5dffc4	-0.21679598
61	0xbf887ef2	-1.0663741
62	0xbf38c2a2	-0.72171986
63	0xbe780da0	-0.24223948
64	0xbe96546a	-0.29361278
65	0x3f84498f	1.0334948
66	0xbdbe577a	-0.092940286
67	0xbf815bd0	-1.0106144
68	0xbfa15764	-1.2604795
69	0x3f30ad97	0.6901488
70	0x3f904d08	1.1273508
71	0x3f7d4632	0.98935235
72	0x3faa8163	1.3320736
73	0x3fdbc2f2	1.7168868
74	0x3ed1328d	0.4085888
75	0x3edbb54c	0.42911756
76	0xbe0cf8bf	-0.13766764
77	0x3d26399c	0.040582284
78	0x3ea93255	0.33046213
79	0x3e8e236c	0.277614
80	0x3efff99f	0.49995133
81	0xbd930bae	-0.07179962
82	0xbe2d65a3	-0.16933303
83	0x3dd2ebfe	0.10298918
84	0xbf05c11f	-0.52247804
85	0x3e4e517a	0.20148268
86	0xbe197dbb	-0.14989369
87	0xbfa4c067	-1.2871217
88	0x3ecb3f44	0.39696705
89	0x3f0cfbee	0.55071914
90	0x3ddf3019	0.10897846
91	0x3d4f324d	0.05058508
92	0x3ec85d17	0.39133522
93	0x3ef428fb	0.47687516
94	0x3f03da94	0.515054
95	0x3f1bcf83	0.6086351
96	0x3e3a45dd	0.18190713
97	0xbe178c28	-0.14799559
98	0xbda1f79a	-0.079085544
99	0xbf0e5c28	-0.5560937
100	0xbd667760	-0.05626619
101	0xbe901482	-0.28140646
102	0x3e38452d	0.17995138
103	0x3e971e19	0.2951515
104	0xbe9152e3	-0.2838355
105	0xbe9befb3	-0.30456313
106	0xbebc4460	-0.36770916
107	0xbeacd43f	-0.3375568
108	0x3d504836	0.050850116
109	0x3e8c5040	0.27404976
110	0xba16c904	-0.00057519996
111	0xbdbd7ff8	-0.09252924
112	0x3eeb0324	0.45900834
113	0xbef093e2	-0.46987826
114	0x3ca018a8	0.019543007
115	0xbe811ccb	-0.2521728
116	0xbf71d2fe	-0.94462574
117	0x3e8363e8	0.2566216
118	0x3e1454c0	0.14485455
119	0x3f0a4141	0.5400582
120	0xbcbba1be	-0.022904273
121	0x3e04891e	0.12942931
122	0x3e303bb5	0.17210276
123	0x3e97c7b1	0.2964454
124	0x3ee25b6c	0.44210374
125	0x3efcaa81	0.49348834
126	0x3dffdd58	0.1249339
127	0x3f1069dd	0.56411535
128	0x3ede368b	0.43400988
129	0xbe637fac	-0.22216672
130	0xbe6b82f6	-0.22999176
131	0x3df2656c	0.11835751
132	0xbe063413	-0.13105802
133	0xbdf1822a	-0.11792405
134	0x3ecdb7d3	0.4017931
135	0x3efd9f97	0.4953582
136	0x3dc75eb4	0.0973486
137	0x3e49cf88	0.19708073
138	0x3d9c4e6c	0.07632145
139	0x3eceea45	0.40413108
140	0x3f0e3f90	0.5556574
141	0xbf43a119	-0.7641769
142	0xbeea58eb	-0.45770964
143	0xbdb493ce	-0.08817254
144	0xbc5bff94	-0.013427634
145	0xbed046d2	-0.40679032
146	0xbeec3525	-0.46134296
147	0xbeeb3437	-0.45938274
148	0xbe4fb16d	-0.20282526
149	0xbe565151	-0.20929457
150	0xbd6ce720	-0.057837605
151	0xbe5f2a4f	-0.21793483
152	0xbf1486ab	-0.58017987
153	0x3ddcef9f	0.107878916
154	0x3d74ef6a	0.059798636
155	0x3d4af4e6	0.04954996
156	0xbdffec60	-0.12496257
157	0xbe76bc10	-0.24095178
158	0xbddfe872	-0.10933007
159	0x3ea9864f	0.33110282
160	0xbf472856	-0.7779592
161	0xbfb31db0	-1.3993435
162	0xbe536eab	-0.20647685
163	0xbea35ac3	-0.31905183
164	0xbd8b403f	-0.06799363
165	0xbe5ad557	-0.21370445
166	0xbebd1ee4	-0.3693763
167	0xbe14c95c	-0.14529938
168	0x3f406b16	0.751634
169	0x3ed42a46	0.41438502
170	0x3e8e82b9	0.27834108
171	0xbedad11a	-0.42737657
172	0xbe4da67f	-0.20083044
173	0x3ea949fe	0.33064264
174	0xbf7fd404	-0.99932885
175	0xbe982893	-0.29718456
176	0xbf2e295d	-0.68031865
177	0xbf080668	-0.53134775
178	0x3e03f607	0.1288682
179	0xbf8a2bdc	-1.0794635
180	0x3f0effd7	0.5585913
181	0x3e9ed6de	0.31023306
182	0xbdf25566	-0.11832695
183	0xbf0cd9cb	-0.55019826
184	0xbed27ffa	-0.41113263
185	0xbc734d46	-0.014849966
186	0x3f82b882	1.0212557
187	0xbf6d90ea	-0.92799246
188	0xbfd1124e	-1.6333711
189	0x3f1a0c3d	0.60174924
190	0x3f1d9238	0.6155124
191	0x3db99487	0.090615325
192	0xbf2ada1e	-0.6673907
193	0x3e98a033	0.29809722
194	0x3f358be9	0.7091661
195	0x3fb32580	1.3995819
196	0x3bd0a90f	0.0063678096
197	0xbe791eb2	-0.24328116
198	0x3fb3cdf8	1.4047232
199	0x3f24019f	0.64064974
200	0xbf41e045	-0.75732833
201	0x3ed60d1a	0.4180687
202	0xbef66e12	-0.48130852
203	0x3e320f65	0.17388685
204	0x3df9b14c	0.1219202
205	0xbf919a84	-1.137528
206	0x3f830c9a	1.0238221
207	0x3fb242c4	1.3926625
208	0xbd94e1bb	-0.07269617
209	0x3f84cda1	1.0375253
210	0x3f8e2842	1.1106036
211	0x3ed22be9	0.41049126
212	0x3e3a113d	0.18170638
213	0x3f94ccdb	1.1625017
214	0x3eb2b9e2	0.34907442
215	0x3ee51e48	0.44749665
216	0x3dbfba2a	0.0936168
217	0x3d35c5fa	0.04437826
218	0x3e28ebea	0.16496244
219	0x3dc898f5	0.09794799
220	0x3f06a63e	0.52597415
221	0x3f3f63d1	0.7476168
222	0xbe3234af	-0.1740291
223	0xbeebf0b3	-0.46082076
224	0x3d86a971	0.06575287
225	0x3d670604	0.05640222
226	0xbe06a646	-0.13149366
227	0x3d389ada	0.045069553
228	0xbea9fdd7	-0.33201477
229	0x3dadba6d	0.084828235
230	0xbf51dd8c	-0.8197868
231	0xbec0e03c	-0.37671077
232	0xbdb0a5cd	-0.08625374
233	0xbf1819c1	-0.594143
234	0xbd1953f5	-0.037433583
235	0xbf1c1f20	-0.60984993
236	0xbd9e1f07	-0.07720762
237	0xbf497344	-0.78691506
238	0xbe483bdf	-0.19554089
239	0xbeb95452	-0.36197144
240	0xbea94dae	-0.33067077
241	0xbe94abea	-0.2903741
242	0xbf5c0406	-0.8594364
243	0x3f4a07b1	0.78917986
244	0xbf406052	-0.75146973
245	0xbe931d5a	-0.2873333
246	0x3dff09b0	0.124530196
247	0x3f8c1b83	1.0945896
248	0x3f4fcce6	0.81172025
249	0x3f84690e	1.034456
250	0xbe22fb01	-0.15916063
251	0xbea64f9f	-0.3248262
252	0xbe002105	-0.12512596
253	0x3bc0851c	0.005875243
254	0xbf2a4f12	-0.665269
255	0x3c9fa18b	0.01948621

cell_list.2.conv_can.weight f4 [10, 20, 3, 3]
0	0x3f1f39d0	0.6219759
1	0x3d9ebb7f	0.07750606
2	0x3ed21023	0.41027936
3	0x3ebb7523	0.36612806
4	0xbe1e3bfe	-0.15452573
5	0xbda47fbf	-0.08032178
6	0xbecd9522	-0.40152842
7	0xbeb761a9	-0.35816696
8	0xbefdeea2	-0.49596125
9	0x3f32836a	0.6973177
10	0x3de95e33	0.1139492
11	0x3eb23417	0.34805366
12	0xbdd67424	-0.10471371
13	0x3e3bdcf7	0.1834601
14	0xbd8ded3d	-0.06930015
15	0x3e33f88f	0.17575286
16	0x3c5e4bc0	0.013567865
17	0xbede7375	-0.43447462
18	0xbda87fb8	-0.082274854
19	0xbd32a0a8	-0.043610245
20	0x3e82944f	0.25503775
21	0xbf03b270	-0.5144415
22	0xbe656a3c	-0.22403806
23	0xbf0f9a6e	-0.56095016
24	0x3e19ce9a	0.15020218
25	0x3e71c345	0.23609646
26	0x3eb4b090	0.35290956
27	0xbeaf72be	-0.3426723
28	0x3d802c0e	0.06258403
29	0xbe6f2c92	-0.23356846
30	0xbdd823d0	-0.10553706
31	0xbe294383	-0.1652966
32	0xbe8e2984	-0.2776605
33	0xbe86e180	-0.26343918
34	0xbe064ea1	-0.13115932
35	0xbe040ae6	-0.12894782
36	0xbe4ff7a7	-0.20309316
37	0x3e829020	0.25500584
38	0x3ea5ec1c	0.324067
39	0x3f01e877	0.5074534
40	0x3ed2cbcd	0.41171113
41	0x3dba47e9	0.09095747
42	0xbf072391	-0.52788645
43	0xbf6a3b35	-0.9149659
44	0xbf357cf3	-0.7089378
45	0x3e8eb6f5	0.2787396
46	0xbe99af0f	-0.30016372
47	0xbca6326f	-0.02028772
48	0x3dcbce08	0.09951407
49	0x3e5d1d93	0.21593313
50	0xbd9eef1d	-0.07760451
51	0x3ed8c064	0.42334282
52	0x3d92c881	0.07167149
53	0xbdb38632	-0.0876583
54	0xbd45edf7	-0.048322644
55	0x3de250d4	0.11050573
56	0x3e9d7d81	0.30759814
57	0xbe989810	-0.29803514
58	0x3f08393f	0.5321235
59	0x3e8b9135	0.27259222
60	0xbe0b3a19	-0.13596381
61	0xbc4a9644	-0.012364928
62	0xbe22333e	-0.1583986
63	0x3f0a634c	0.54057765
64	0x3d58c76d	0.052924562
65	0x3ead7759	0.33880118
66	0x3e2eb8c1	0.17062666
67	0xbc9c41af	-0.01907429
68	0xbedf2bdc	-0.4358815
69	0xbe4930f6	-0.19647583
70	0x3f39f4b4	0.7263901
71	0x396af625	0.00022407675
72	0x3d17a554	0.037022904
73	0xbe951693	-0.29118785
74	0xbe7d9a50	-0.24765897
75	0xbec2a107	-0.3801348
76	0x3e673354	0.22578174
77	0xbede01ae	-0.43360656
78	0xbdbbec95	-0.09175984
79	0x3eef2b27	0.4671261
80	0x3d8ddce3	0.069268964
81	0xbe0bd06c	-0.13653725
82	0xbf237d67	-0.63863224
83	0xbe8a923a	-0.27064687
84	0xbd15c366	-0.0365633
85	0x3d48f4c9	0.04906157
86	0x3e180a33	0.1484764
87	0xbde6066d	-0.11231694
88	0x3e2c404e	0.16821405
89	0xbe25a860	-0.16177511
90	0xbed16d03	-0.40903482
91	0xbe46a96b	-0.19400565
92	0x3dbabbe9	0.09117872
93	0xbe8d063d	-0.27543822
94	0xbe63f422	-0.22261098
95	0x3d8c1344	0.06839612
96	0xbc2ed2ac	-0.010670345
97	0x3f407afa	0.7518765
98	0x3f13dc09	0.5775762
99	0xbf0290e4	-0.51002336
100	0x3e99edd1	0.30064252
101	0xbd3a6f1e	-0.045516126
102	0xbf32efb8	-0.6989703
103	0xbefd82bd	-0.49513808
104	0xbed710a2	-0.42004877
105	0xbec73997	-0.38911125
106	0xbea4a3e4	-0.3215629
107	0x3e1c083f	0.1523752
108	0x3d2fbc42	0.042904146
109	0xbe1d279c	-0.15347141
110	0xbea1e6d2	-0.31621414
111	0xbf8896ea	-1.0671055
112	0xbf29686e	-0.6617497
113	0xbe0ed372	-0.13947847
114	0xbffe5977	-1.9871053
115	0xbf605f3c	-0.87645316
116	0x3ddff5cd	0.10935555
117	0x3d4be69b	0.04978047
118	0x3eb87138	0.3602388
119	0x3eafb8b5	0.34320608
120	0xbe14de0e	-0.14537832
121	0xbdb6210f	-0.08893024
122	0xbe705474	-0.23469716
123	0xbe13ceea	-0.144344
124	0xbf24c3e7	-0.64361423
125	0xbe2ef4bb	-0.17085545
126	0xbe9beab5	-0.30452505
127	0xbf00ac5a	-0.5026299
128	0x3eceba08	0.40376306
129	0x3e95cb41	0.29256633
130	0xbe9a89b3	-0.3018318
131	0x3ef4c068	0.47803044
132	0x3eaa0675	0.3320805
133	0xbe1d6cde	-0.15373561
134	0x3d91aaba	0.07112642
135	0x3e6590f2	0.22418573
136	0x3f145e29	0.57956177
137	0x3f0d25d6	0.5513586
138	0xbea72798	-0.32647395
139	0xbd902e24	-0.070400506
140	0xbe9de59d	-0.30839244
141	0x3ec0f795	0.3768889
142	0x3f11399e	0.5672854
143	0x3f196667	0.5992188
144	0xbe838335	-0.2568604
145	0xbf10a67d	-0.5650404
146	0xbf180cde	-0.59394634
147	0x3e2e8503	0.17042927
148	0x3d46951d	0.04848205
149	0xbdd3c26d	-0.10339818
150	0xbc2bcc21	-0.01048568
151	0xbeef4985	-0.46735778
152	0xbeeeb0f0	-0.46619368
153	0xbe886ca9	-0.266454
154	0x3e4895fd	0.19588466
155	0xbe2cbb39	-0.16868295
156	0x3d6c8cfd	0.057751644
157	0x3e3eea93	0.1864417
158	0xbe5e14ca	-0.21687618
159	0xbf1981e5	-0.5996383
160	0xbf17c5b0	-0.5928602
161	0xbcef8920	-0.029240191
162	0x3dfea066	0.12432937
163	0x3d8b72a1	0.06808973
164	0xbead1e4a	-0.3381217
165	0xbf212dac	-0.62960315
166	0xbf551839	-0.83240086
167	0xbed7a75b	-0.4211987
168	0xbf192275	-0.598182
169	0xbf952bda	-1.1654007
170	0xbf6379a2	-0.8885747
171	0xbe15ffda	-0.14648381
172	0x3e68e80e	0.22744772
173	0x3e28c4c7	0.16481315
174	0x3eb28b32	0.34871823
175	0xbf85767d	-1.0426785
176	0xbf0b36b1	-0.5438033
177	0x3da5bc87	0.08092599
178	0xbf40a400	-0.75250244
179	0x3dcd233c	0.10016486
180	0x3e9da395	0.30788866
181	0x3e076531	0.13222195
182	0xbf3e0fac	-0.74242663
183	0x3f2fcd84	0.68672967
184	0xbe8696a6	-0.2628681
185	0x3f1f9914	0.62342954
186	0xbecd1be7	-0.4006035
187	0xbe6fab63	-0.23405223
188	0xbe91b9b7	-0.28462002
189	0x3f4479d5	0.767484
190	0x3e1ff3e7	0.15620385
191	0xbf55771a	-0.8338486
192	0xbdba43c0	-0.090949535
193	0xbf6805e9	-0.9063402
194	0xbe1e5aa2	-0.15464261
195	0x3e7a7226	0.24457607
196	0xbea004e2	-0.31253725
197	0xbf3cf767	-0.73815006
198	0xbef82fe1	-0.4847403
199	0xbd67080a	-0.05640415
200	0x3dd75580	0.10514355
201	0xbf40cb43	-0.7531015
202	0x3f0fa74e	0.5611466
203	0x3e98b41b	0.2982491
204	0xbf11aa5a	-0.5690056
205	0x3f0227c9	0.5084196
206	0xbf2f6cb4	-0.6852524
207	0xbe99c0d8	-0.3002994
208	0xbf1c2ec0	-0.61008835
209	0xbe1b670c	-0.15176028
210	0xbf53ed46	-0.82783926
211	0x3e81f536	0.25382394
212	0xbeba6700	-0.36406708
213	0xbc6ed325	-0.014576708
214	0x3e9c671c	0.30547416
215	0x3e672fdc	0.2257685
216	0x3ec1a04d	0.37817612
217	0xbf00e78a	-0.503533
218	0xbf2c9e8c	-0.67429423
219	0x3f330f6d	0.6994541
220	0xbea9c716	-0.33159703
221	0x3dbb52bc	0.0914664
222	0xbece5ed2	-0.40306717
223	0xbe3f99cf	-0.18711017
224	0x3ea05cd1	0.31320813
225	0x3e05dd20	0.13072634
226	0x3df07291	0.11740602
227	0xbe81c51d	-0.25345698
228	0x3ed49675	0.4152104
229	0xbe7e6027	-0.24841367
230	0xbe571f34	-0.21007997
231	0x3e32591b	0.17416804
232	0xbe88b83c	-0.2670306
233	0x3e20a2ed	0.15687151
234	0x3e9b8c18	0.3038032
235	0x3f43baca	0.7645689
236	0x3e501101	0.20318986
237	0xbe319189	-0.17340674
238	0x3ce5ff6d	0.028075898
239	0x3e7fce5a	0.2498106
240	0xbede4035	-0.4340836
241	0xbd9c1d8a	-0.07622822
242	0xbee68eb7	-0.45030758
243	0xbe6f38f1	-0.23361565
244	0xbd54c477	-0.051945176
245	0x3e8fcbcb	0.2808517
246	0xbe35f95b	-0.17770903
247	0xbeb04002	-0.34423834
248	0x3e6b48b7	0.22976957
249	0xbdd50a7e	-0.10402392
250	0xbf139a58	-0.57657385
251	0xbed5b140	-0.41736794
252	0xbeea4026	-0.45752066
253	0xbecafec5	-0.396475
254	0xbeaa61eb	-0.3327783
255	0x3f160957	0.58608

cell_list.3.conv_gates.weight f4 [20, 20, 1, 1]
0	0x3f85e629	1.0460864
1	0xbf016ced	-0.5055683
2	0xbfe5909c	-1.7934756
3	0xbe2f094a	-0.17093387
4	0x3ef89bf2	0.48556477
5	0xbebfc559	-0.37455252
6	0xbf4ef178	-0.808372
7	0x3daf0287	0.08545404
8	0xbeb10c74	-0.34579813
9	0x3edd029b	0.4316605
10	0xbf4e0408	-0.804749
11	0x3e134228	0.14380705
12	0x3ec305e8	0.38090444
13	0xbea6227e	-0.3244819
14	0x3dfac494	0.122445256
15	0xbe509bb4	-0.20371896
16	0x3f2056ff	0.62632746
17	0x3b4b2ad4	0.003100087
18	0xbd135a9c	-0.035975084
19	0xbf6f1b6f	-0.93401235
20	0x3f3dad31	0.74092394
21	0xbe6c59fe	-0.23081204
22	0xbf39576e	-0.7239903
23	0xbfa56629	-1.2921802
24	0xbf1741cd	-0.5908478
25	0x3eea2495	0.45731035
26	0xbf306814	-0.6890881
27	0x3dab5cd2	0.083673134
28	0xbf10b9e4	-0.56533647
29	0x3d2e6351	0.042575184
30	0x3d1ee163	0.038789164
31	0x3f29651e	0.6616992
32	0x3ea49708	0.32146478
33	0x3e543739	0.20724191
34	0xbe93ac22	-0.28842264
35	0x3e8e02f3	0.27736625
36	0x3e0734c3	0.13203721
37	0xbf170c26	-0.5900291
38	0xbeea8b7e	-0.4580955
39	0xbf833267	-1.0249757
40	0x3e73e79e	0.23818824
41	0xbed61217	-0.41810676
42	0x3fb426d1	1.4074346
43	0xbf7a939f	-0.978815
44	0xbec688f3	-0.3877636
45	0x3f920432	1.140753
46	0xbf85d68d	-1.0456101
47	0x3f3cd21b	0.73758096
48	0x3f7bdbeb	0.98382443
49	0xbee54f76	-0.44787186
50	0xbf18752c	-0.5955379
51	0xbd3e82fe	-0.046511643
52	0xbf4754d9	-0.7786384
53	0x3f035151	0.51295954
54	0xbecdbce7	-0.40183184
55	0xbfad3d6d	-1.3534371
56	0xbf5625d4	-0.8365147
57	0xbdc13536	-0.09433977
58	0xbea67693	-0.3251234
59	0x3f758269	0.95902115
60	0x3f7b5a41	0.9818459
61	0xbf5d4615	-0.8643506
62	0xbf891444	-1.070931
63	0xbf97f0f7	-1.1870412
64	0x3eae6b45	0.34066215
65	0x3f9871b0	1.1909695
66	0xbfbe081a	-1.4846222
67	0x3e0ecaab	0.13944499
68	0x3f1d2833	0.61389464
69	0x3efab725	0.48967853
70	0xbfa47cdb	-1.2850603
71	0xbeac902e	-0.3370375
72	0x3e736ebb	0.23772709
73	0xbd41e5f3	-0.047338437
74	0x3eaad517	0.333657
75	0xbe421165	-0.18951948
76	0xbe9e1598	-0.3087585
77	0xbeea26d0	-0.45732737
78	0xbbcd548a	-0.0062661814
79	0xbf3fa184	-0.7485583
80	0x3f919d64	1.1376157
81	0xbf2bb14b	-0.670674
82	0xbfb86df8	-1.440856
83	0xbf1eae5c	-0.619848
84	0x3e97a037	0.29614422
85	0xbd002f06	-0.031294845
86	0x3d8a9e40	0.06768465
87	0xbecb4555	-0.39701334
88	0xbf462b62	-0.77409947
89	0x3f226796	0.6343931
90	0xbf21ed92	-0.6325313
91	0xbe86086b	-0.26178297
92	0x3df8fae7	0.12157231
93	0x3e508c08	0.20365918
94	0x3e96da32	0.29463345
95	0x3e87fed7	0.26561615
96	0x3daea4c4	0.0852752
97	0xbe55fcf9	-0.20897283
98	0xbe8928bf	-0.267889
99	0xbf8c544a	-1.0963223
100	0x3e14bbcf	0.14524768
101	0x3e2d8ba2	0.16947797
102	0xbf856663	-1.0421871
103	0xbed72aa5	-0.42024723
104	0x3edc844b	0.43069682
105	0x3edf96e7	0.43669817
106	0x3d83c0be	0.06433247
107	0x3de7f4c6	0.11325984
108	0x3c51213f	0.012764274
109	0xbe610b8b	-0.2197706
110	0xbf1f51af	-0.62234014
111	0x3e6c24f6	0.23060974
112	0x3e8bda3c	0.27314937
113	0xbdf687cd	-0.12037621
114	0x3f131173	0.574485
115	0xbe8f61c1	-0.28004268
116	0xbddb05ed	-0.1069449
117	0x3de515e0	0.11185813
118	0x3e3be45b	0.1834883
119	0xbeae8f10	-0.34093523
120	0xbd374706	-0.044745468
121	0xbf70931b	-0.93974465
122	0xbeb1aeb7	-0.3470361
123	0xbf8cddfd	-1.1005245
124	0x3db4f02e	0.08834873
125	0x3f95218e	1.1650865
126	0xbf565037	-0.8371615
127	0x3e6cfc29	0.23143066
128	0xbf07c903	-0.53041095
129	0xbe6b6975	-0.22989447
130	0xbfd510d8	-1.6645765
131	0x3c51a95a	0.012796724
132	0xbe9fb5c0	-0.31193352
133	0xbbe54a4e	-0.006997383
134	0x3f352bd2	0.7076999
135	0xbf3dd7f4	-0.74157643
136	0xbda4ac6a	-0.08040698
137	0x3e78f0ba	0.2431058
138	0x3e8a7aa1	0.27046683
139	0xbf4e24a0	-0.80524635
140	0x3f0e1d77	0.5551371
141	0x3beedbfb	0.0072894073
142	0xbf698d45	-0.91231185
143	0xbfdf6dae	-1.7455347
144	0xbf39f288	-0.726357
145	0x3e8a0d2f	0.26963183
146	0xbf26fe50	-0.652318
147	0x3ed847b4	0.42242205
148	0x3f2eb9e0	0.6825237
149	0x3f36921d	0.713167
150	0x3ca3242d	0.01991471
151	0xbec21b6e	-0.37911552
152	0x3dafae1f	0.08578133
153	0x3f165457	0.5872244
154	0xbee58a70	-0.44832182
155	0x3cf89f26	0.030349325
156	0xbdc64b6e	-0.09682356
157	0xbf365411	-0.71222025
158	0xbf13fe81	-0.5781022
159	0xbf345200	-0.7043762
160	0x3d5e414a	0.054261483
161	0xbeb0674f	-0.34453818
162	0xbf5a3e4f	-0.85251325
163	0x3ed47a46	0.41499537
164	0xbee5133c	-0.44741237
165	0x3e1ef22f	0.15522073
166	0xbf11941b	-0.56866616
167	0x3c170885	0.00921834
168	0xbeb4febf	-0.35350606
169	0x3ea3c5ac	0.3198675
170	0xbf1b85c3	-0.6075098
171	0xbf0f388c	-0.5594566
172	0xbda05a20	-0.0782969
173	0x3db4fc41	0.08837176
174	0x3d31a7fd	0.043373097
175	0x3e8ecdc8	0.27891374
176	0xbe8e3bff	-0.27780148
177	0xbf347147	-0.7048535
178	0xbe8856c2	-0.2662869
179	0xbf22e16b	-0.6362521
180	0xbee1024f	-0.43947074
181	0xbe3d7a2a	-0.18503633
182	0xbdc9ebfa	-0.09859462
183	0x3e8fc564	0.28080285
184	0x3f21e984	0.6324694
185	0x3de39869	0.11113054
186	0x3d0a3ad8	0.033747524
187	0x3e82e393	0.2556425
188	0xbf4d5da3	-0.80221003
189	0x3e818dc8	0.25303483
190	0xbf1accc6	-0.6046871
191	0xbd574e3f	-0.052564856
192	0x3d934cd9	0.07192392
193	0xbc3176d7	-0.010831556
194	0x3e320eb7	0.17388426
195	0x3e1c2112	0.1524699
196	0xbe836384	-0.25661862
197	0x3e0b15ab	0.13582484
198	0x3e49c5ae	0.19704315
199	0xbf14e30c	-0.58158946
200	0xbec15b70	-0.37765074
201	0x3ffce42c	1.9757133
202	0xbfd874b6	-1.6910617
203	0xbe2ba242	-0.16761115
204	0xbebaf22a	-0.36512882
205	0xbface34a	-1.3506863
206	0x402396a5	2.5560696
207	0xbfa5ee32	-1.2963316
208	0x3f263cd7	0.64936584
209	0xbe53d031	-0.20684887
210	0xbf8d7e62	-1.1054194
211	0xbfdf5950	-1.7449131
212	0x3ef809fb	0.48445114
213	0x3f8e5be1	1.1121789
214	0xbff1125e	-1.883373
215	0x3f1da772	0.61583626
216	0x3ef54cfd	0.479103
217	0xbfe39f15	-1.7782923
218	0xbf938019	-1.1523467
219	0x3f996650	1.1984348
220	0x3e8211b1	0.25404122
221	0xbf87743c	-1.0582347
222	0xbf0f5d65	-0.56001884
223	0xbe72ddea	-0.23717466
224	0x3ea4eee5	0.32213512
225	0xbfa21722	-1.266331
226	0xbf657b7b	-0.8964154
227	0xc0040af0	-2.0631676
228	0xbfc0f696	-1.5075252
229	0xbfe07dfa	-1.7538445
230	0xbf6b6a05	-0.9195865
231	0xbf8845a7	-1.0646256
232	0x3f6454f0	0.89192104
233	0xbfd9226d	-1.6963631
234	0x3f96587a	1.1745751
235	0xbef81ece	-0.48461002
236	0x3f4f9616	0.8108839
237	0x3f89e64b	1.0773405
238	0x3fb99418	1.449832
239	0x3f44d65c	0.76889586
240	0x3fc37666	1.5270507
241	0x3fa8442e	1.3145807
242	0xbf97adfb	-1.184997
243	0xbec5b754	-0.3861643
244	0x3fc320b7	1.5244359
245	0xc00c941b	-2.1965396
246	0x3fe646e3	1.7990383
247	0xc02332e7	-2.5499818
248	0xbff4e80a	-1.9133313
249	0xbf9909e8	-1.1956148
250	0x3fa38fab	1.2778219
251	0x3f1d7eba	0.61521494
252	0x3f929b4e	1.1453645
253	0xbfa33b38	-1.2752447
254	0x3ea54ba5	0.32284275
255	0x400c75ce	2.1946902
