saved_models/ambimg_composite/random1_8.pt (torch, 120528 bytes, 14 tensors)

cell_list.0.conv_gates.weight f4 [20, 11, 3, 3]
-0.0023573355 0.03872682 0.019587511 -0.112502284 -0.12260184 -0.11496672 -0.005917425 -0.16806127
-0.065521225 0.030332217 0.24031624 0.2269501 0.13648465 0.053001072 0.08866442 0.31960753
0.2435057 0.19114569 -0.070514716 -0.1782372 -0.17597267 -0.15542628 -0.21610384 -0.19475244
-0.1028642 -0.30448794 -0.24798524 0.0011268189 -0.051648777 -0.05792653 -0.097020656 -0.15950206
-0.23907846 0.05448774 -0.14061072 -0.011433568 0.08004531 0.045827866 -0.05746723 0.091909446
0.0714919 0.08244175 0.14920361 -0.050598357 0.13041314 0.069068424 -0.06641405 0.06300386
0.026665607 0.2695121 0.20964284 0.21395262 0.12644579 0.15145507 0.07695751 0.16102766
0.04527318 0.1219841 0.12069982 0.17104386 0.029359858 0.13681397 0.02486292 -0.14895676
-0.090104826 -0.2354063 -0.028807359 0.03149836 -0.0941793 -0.13322328 -0.01605595 -0.005560824
0.0636488 0.06023913 0.030800931 -0.033865027 -0.067476064 0.029672027 0.057578884 0.22883296
0.16282977 -0.07372265 0.1322077 0.032544173 0.14902571 0.22216201 0.1001799 -0.048250906
0.055424865 0.16298234 -0.070095666 0.15057464 -0.037188888 0.067453906 0.080462225 0.15319303
0.1726519 0.08487002 0.07149644 -0.14443013 -0.28590077 -0.15465038 -0.25149488 -0.3132798
-0.28500715 -0.26910657 -0.320106 -0.25698817 0.23704869 0.17873602 0.2709758 0.23699862
0.18700948 0.19460726 0.31213507 0.3149017 0.30566767 -0.116570994 -0.095644854 -0.12398549
-0.18267997 -0.13163684 -0.23323558 -0.18058561 -0.18498595 -0.27904877 -0.21544783 -0.16173154
-0.20530114 -0.18978924 -0.23202181 -0.1882467 -0.30326355 -0.29134467 -0.30865473 -0.29803208
-0.24912181 -0.23957753 -0.3247127 -0.4399614 -0.27576444 -0.2545698 -0.29600212 -0.25135985
-0.109438375 -0.18047705 -0.17260055 -0.12034746 -0.21102688 -0.27566913 -0.1655992 -0.1723781
-0.12461177 0.22233304 0.25930554 0.047489274 0.3071315 0.17244254 0.15587105 0.21485153
0.33736852 0.10382983 -0.16425578 -0.1065562 -0.17928207 -0.070154734 -0.118508376 -0.19838051
-0.22993964 -0.15896066 -0.22152366 0.22231442 0.21356432 0.13217661 0.14881939 0.24805897
0.18320705 0.37891254 0.16997394 0.3109704 0.29727343 0.25284162 0.20517978 0.14471872
0.33397937 0.18134534 0.12637849 0.20780712 0.08561316 0.1611078 0.07283932 0.16133523
0.10818034 0.18186337 0.17852876 0.2475953 0.10288013 0.22061707 0.19380677 0.116459206
0.09173896 0.1154665 0.08531428 0.06523086 0.32797843 0.19353382 0.13840912 -0.07163783
0.030279292 0.14402786 -0.066676356 0.033920176 0.032717284 0.043810956 0.02427048 0.024028586
-0.058857597 0.09065498 -0.04045556 0.069847286 -0.08265463 0.008930943 -0.042778645 0.06631293
-0.07927069 0.033356164 -0.018743236 0.06745942 0.03409365 0.048232466 0.10948519 0.1626294
0.1790785 0.1744634 0.21575667 0.20325409 0.1708334 0.16894715 0.1888566 0.1496554
0.24292436 0.21411024 0.20792268 -0.10574857 -0.048371747 0.008993809 0.0803942 0.21203664
0.10434161 0.3394463 0.30379835 0.24525465 -0.165955 -0.09044542 -0.102518834 -0.21916123
00000000: 877d 1abb 04a0 1e3d fd75 a03c 9967 e6bd
00000010: ac16 fbbd ac73 ebbd f5e6 c1bb 4118 2cbe
00000020: fe2f 86bd 457b f83c 7615 763e 9b65 683e
00000030: a2c2 0b3e a717 593d b195 b53d 99a3 a33e
00000040: 8f59 793e b2bb 433e 056a 90bd d083 36be
00000050: 2e32 34be 1128 1fbe 534a 5dbe 2f6d 47be
00000060: 77aa d2bd d8e5 9bbe d8ef 7dbe c5b1 933a
00000070: ab8d 53bd 5e44 6dbd c4b2 c6bd 8254 23be
00000080: fcd0 74be 892e 5f3d 42fc 0fbe dc53 3bbc
00000090: ccee a33d 00b6 3b3d c262 6bbd 053b bc3d
000000a0: 586a 923d 38d7 a83d d5c8 183e 3940 4fbd
000000b0: 068b 053e bf73 8d3d 1704 88bd 2b08 813d
000000c0: d571 da3c 7dfd 893e 9dac 563e 6516 5b3e
000000d0: 017b 013e 0a17 1b3e e69b 9d3d 6fe4 243e
000000e0: 5f70 393d cdd2 f93d 7831 f73d 1f26 2f3e
000000f0: 1684 f03c f618 0c3e 53ad cb3c 1f88 18be
00000100: e188 b8bd 590e 71be 69fd ebbc 6d04 013d
00000110: 14e1 c0bd af6b 08be c587 83bc 9337 b6bb
00000120: 4d5a 823d 4ebd 763d 3c52 fc3c 0eb6 0abd
00000130: e430 8abd c012 f33c d6d7 6b3d 3053 6a3e
00000140: d9bc 263e e7fb 96bd 7561 073e 0a4d 053d
00000150: 329a 183e 707e 633e 1f2b cd3d bea2 45bd
00000160: 2f05 633d d8e4 263e 518e 8fbd 3d30 1a3e
00000170: 6053 18bd 4625 8a3d 61c9 a43d a2de 1c3e
00000180: a9cb 303e 55d0 ad3d ba6c 923d 7ee5 13be
00000190: 9661 92be ab5c 1ebe f0c3 80be 3666 a0be
000001a0: 75ec 91be 56c8 89be efe4 a3be f493 83be
000001b0: e4bc 723e 9306 373e 57bd 8a3e c4af 723e
000001c0: 6a7f 3f3e 2047 473e 2bd0 9f3e cc3a a13e
000001d0: 7980 9c3e c6bc eebd 73e1 c3bd 1bec fdbd
000001e0: 7510 3bbe cfcb 06be 4fd5 6ebe 6feb 38be
000001f0: f56c 3dbe 7bdf 8ebe 5b9e 5cbe f49c 25be
00000200: 763a 52be 1c58 42be 2097 6dbe bec3 40be
00000210: 5c45 9bbe 212b 95be fe07 9ebe a997 98be
00000220: ca19 7fbe d053 75be be40 a6be 9f42 e1be
00000230: ff30 8dbe f956 82be 978d 97be 3db2 80be
00000240: 3a21 e0bd face 38be 33be 30be bb78 f6bd
00000250: 6e17 58be 8124 8dbe d692 29be e283 30be
00000260: 7534 ffbd 46ab 633e b2c3 843e 1d84 423d
00000270: 5740 9d3e c794 303e a99c 1f3e 0a02 5c3e
00000280: 91bb ac3e bca4 d43d ab32 28be 233a dabd
00000290: b895 37be 49ad 8fbd 85b4 f2bd 4324 4bbe
000002a0: 4c75 6bbe 95c6 22be 19d7 62be 64a6 633e
000002b0: 9bb0 5a3e 4e59 073e 1c64 183e 2c03 7e3e
000002c0: a19a 3b3e d300 c23e a60d 2e3e 8337 9f3e
000002d0: 3934 983e 7574 813e a61a 523e 2531 143e
000002e0: 58ff aa3e 98b2 393e 5d69 013e 64cb 543e
000002f0: f455 af3d 71f9 243e c82c 953d 1035 253e
00000300: a78d dd3d 643a 3a3e 3ed0 363e 9f89 7d3e
00000310: d1b2 d23d 71e9 613e 4875 463e 2a82 ee3d
00000320: a3e1 bb3d b379 ec3d 41b9 ae3d c297 853d
00000330: caec a73e bb2d 463e 1fbb 0d3e dbb6 92bd
00000340: 470c f83c 0a7c 133e 9d8d 88bd e2ef 0a3d
00000350: 8f02 063d 1e73 333d e3d2 c63c 99d7 c43c
00000360: aa14 71bd 51a9 b93d bbb4 25bd 180c 8f3d
00000370: d546 a9bd 1753 123c a938 2fbd 13cf 873d
00000380: ac58 a2bd 79a0 083d 6a8b 99bc 2a28 8a3d
00000390: c8a5 0b3d 688f 453d c539 e03d 5288 263e
000003a0: 5b60 373e 89a6 323e 51ef 5c3e d721 503e
000003b0: f3ee 2e3e 7b00 2d3e a063 413e 443f 193e
000003c0: 2ac1 783e b73f 5b3e afe9 543e b592 d8bd
000003d0: 7421 46bd c55a 133c b7a5 a43d 2220 593e
000003e0: 0eb1 d53d e8cb ad3e 758b 9b3e 0924 7b3e
000003f0: 1cf0 29be 733b b9bd 65f5 d1bd cd6b 60be

cell_list.0.conv_can.weight f4 [10, 12, 3, 3]
-0.1800275 -0.31586057 -0.29707593 -0.028323943 -0.22583634 -0.26222062 0.055439997 0.17459896
0.017650682 0.0136499535 0.022558538 0.05556233 0.033141416 -0.078352205 0.061271578 -0.09512339
0.06840373 -0.005628766 -0.007918813 -0.014273286 -0.08106408 -0.06797966 -0.15883239 -0.094713934
0.047638636 -0.23887622 -0.16883004 -0.16550858 -0.122316666 -0.05157286 -0.013209712 -0.049127433
0.043234576 0.10192517 0.22641541 0.1900282 -0.06813645 -0.20042403 -0.18944816 -0.089872986
-0.06597051 0.019086016 0.12230381 0.09984512 0.20585695 -0.09527029 -0.062360305 -0.07558152
0.21564381 0.16437234 0.21097375 0.7012682 0.6208044 0.55304575 0.27390867 0.13421614
0.28677824 0.16538523 0.22178549 0.20673852 0.044990502 0.10413758 0.11645685 0.004182944
-0.086998425 -0.13077593 -0.012217259 -0.17072907 -0.2163612 0.21709199 0.1092339 0.24655207
0.11607815 0.1339489 0.15544146 0.09666838 0.053611603 -0.07706002 -0.06332034 -0.22297038
-0.030578885 0.18250065 0.11007835 0.27092624 0.15547262 0.35785604 0.33599648 0.12533116
0.23633988 0.098914 0.2157066 0.18746845 0.22786048 0.063684076 0.107967295 0.10652973
0.037119858 0.01528124 0.13445863 -0.08404939 0.0035558264 0.20477605 -0.014696005 0.098285265
-0.068050936 0.006848633 0.06602447 -0.2508021 0.36554223 0.31255192 0.33616656 0.25875708
0.1587811 0.1428018 0.19013661 0.113333434 -0.064710744 -0.26760852 -0.1466256 -0.092948794
-0.027301624 -0.093678825 -0.051280186 -0.18870981 -0.14758936 -0.09713481 0.27928767 0.17547591
0.09504607 0.22432117 0.06486817 -0.029783452 0.21708634 0.25555688 0.09302842 0.018593017
0.08290281 -0.049359567 0.07330514 -0.075881064 0.039718445 -0.0682879 -0.09651738 -0.0035386446
0.07643523 0.09211114 0.15473555 0.18258041 0.21935134 0.29342175 0.12715155 0.1868608
-0.028166158 -0.2113755 -0.3108826 -0.42198533 -0.45976737 -0.31230488 -0.43535805 -0.51420176
-0.39701656 -0.3479369 -0.30431142 -0.36754888 -0.23601598 -0.37817243 -0.3110051 -0.25074214
-0.3187845 -0.2122208 -0.32360768 0.19821733 0.15406953 0.076082304 0.044936698 -0.045561846
0.042748723 -0.17668414 -0.18870632 -0.16821004 -0.083188206 -0.1168758 -0.14021017 -0.16393709
-0.1067918 -0.060109027 -0.12368638 -0.035342086 0.04467321 -0.3335021 -0.1734032 -0.38745096
-0.2029804 -0.42615905 -0.28370866 -0.37112945 -0.40262806 -0.44801024 -0.086288355 -0.18604992
-0.13481855 0.0070148096 -0.07234976 -0.054493092 -0.14439459 0.010041159 -0.22350718 -0.2487416
-0.0034086588 -0.30769762 -0.012493731 0.10925029 -0.30298805 -0.268392 0.17921236 -0.36976495
0.057203047 -0.084765956 0.03711043 0.08582227 -0.0047736857 0.11605261 0.23599938 0.2159371
0.15240769 0.00017164138 0.00078923727 0.043010633 -0.17628631 -0.019929927 0.073140085 -0.097605504
-0.049200367 -0.018269805 0.09757498 -0.030108977 -0.16635992 0.025751771 -0.10929724 -0.067792915
-0.07029992 -0.03914701 -0.024412926 -0.016448535 -0.0158331 -0.0833962 0.014069101 -0.04721728
0.067571774 -0.07919015 0.09081282 -0.11854257 0.0011494666 0.11696527 -0.03393378 -0.0016820882
00000000: 2159 38be 7ab8 a1be 561a 98be 9d07 e8bc
00000010: a441 67be c841 86be 0d15 633d 12ca 323e
00000020: 2a98 903c 0ea4 5f3c afcc b83c 5395 633d
00000030: 4bbf 073d 1f77 a0bd e8f7 7a3d 0dd0 c2bd
00000040: 4117 8c3d 8371 b8bb e9bd 01bc 80da 69bc
00000050: ed04 a6bd ec38 8bbd f5a4 22be 61f9 c1bd
00000060: bb20 433d f89b 74be c8e1 2cbe 157b 29be
00000070: 2981 fabd 103e 53bd 8c6d 58bc d939 49bd
00000080: bd16 313d 25be d03d 71d9 673e c196 423e
00000090: 208b 8bbd f53b 4dbe b3fe 41be 540f b8bd
000000a0: 8c1b 87bd 475a 9c3c 6c7a fa3d 997b cc3d
000000b0: 2acc 523e 121d c3bd 856d 7fbd 7cca 9abd
000000c0: bbd1 5c3e 3951 283e 8109 583e 5086 333f
000000d0: 0aed 1e3f 6894 0d3f c23d 8c3e f56f 093e
000000e0: 99d4 923e bf5a 293e bc1b 633e 43b3 533e
000000f0: f647 383d 1546 d53d ee80 ee3d 1411 893b
00000100: 3b2c b2bd 20ea 05be e62a 48bc 9ad3 2ebe
00000110: ca8d 5dbe 5d4d 5e3e 06b6 df3d 2578 7c3e
00000120: 62ba ed3d e729 093e 0c2c 1f3e 12fa c53d
00000130: d797 5b3d a5d1 9dbd 18ae 81bd 5952 64be
00000140: 9280 fabc 73e1 3a3e c270 e13d d8b6 8a3e
00000150: 3734 1f3e e838 b73e bb07 ac3e d056 003e
00000160: 1503 723e 6c93 ca3d 31e2 5c3e bbf7 3f3e
00000170: 4254 693e cc6c 823d f51d dd3d 422c da3d
00000180: fe0a 183d 2b5e 7a3c 86af 093e 1622 acbd
00000190: de08 693b d0b0 513e 83c7 70bc c949 c93d
000001a0: 4a5e 8bbd 7f6a e03b d637 873d 2269 80be
000001b0: 5a28 bb3e ce06 a03e 061e ac3e cf7b 843e
000001c0: 8397 223e a33a 123e 2cb3 423e 5c1b e83d
000001d0: 1187 84bd fc03 89be 0525 16be f05b bebd
000001e0: a8a7 dfbc afda bfbd 2c0b 52bd 253d 41be
000001f0: aa21 17be 9eee c6bd cbfe 8e3e f5af 333e
00000200: 84a7 c23d 73b4 653e 9ad9 843d 6dfc f3bc
00000210: e24b 5e3e 5ad8 823e af85 be3d 6250 983c
00000220: f3c8 a93d 422d 4abd 0121 963d 8867 9bbd
00000230: cfaf 223d 87da 8bbd e7aa c5bd 9be8 67bb
00000240: 138a 9c3d c4a4 bc3d ff72 1e3e 5cf6 3a3e
00000250: a39d 603e 603b 963e 0434 023e 7058 3f3e
00000260: b7bc e6bc d272 58be 012c 9fbe 760e d8be
00000270: a166 ebbe 6de6 9fbe 40e7 debe baa2 03bf
00000280: c145 cbbe c924 b2be b5ce 9bbe 5e2f bcbe
00000290: 2cae 71be d19f c1be 0f3c 9fbe 4661 80be
000002a0: b937 a3be 6950 59be e8af a5be 7cf9 4a3e
000002b0: 67c4 1d3e 0ad1 9b3d 8b0f 383d 0f9f 3abd
000002c0: 4919 2f3d b0ec 34be 3b3c 41be 413f 2cbe
000002d0: 945e aabd 945c efbd 4193 0fbe 20df 27be
000002e0: a9b5 dabd e234 76bd 494f fdbd ddc2 10bd
000002f0: 41fb 363d cac0 aabe 9c90 31be f95f c6be
00000300: 18da 4fbe 8531 dabe 4342 91be ae04 bebe
00000310: 4425 cebe 9961 e5be f3b7 b0bd df83 3ebe
00000320: e00d 0abe 7ddc e53b 1c2c 94bd 2634 5fbd
00000330: 2ddc 13be ac83 243c 11df 64be 1eb6 7ebe
00000340: ce63 5fbb 8b8a 9dbe 82b2 4cbc 9ebe df3d
00000350: 4021 9bbe ad6a 89be 7283 373e d551 bdbe
00000360: be4d 6a3d c699 adbd 1b01 183d 96c3 af3d
00000370: 946c 9cbb feac ed3d d2a9 713e 9d1e 5d3e
00000380: c310 1c3e a2fa 3339 d1e4 4e3a eb2b 303d
00000390: 6684 34be 1644 a3bc 78ca 953d 65e5 c7bd
000003a0: 5386 49bd 8faa 95bc 64d5 c73d 1aa7 f6bc
000003b0: 415a 2abe 61f5 d23c 3bd7 dfbd 03d7 8abd
000003c0: 68f9 8fbd 9d58 20bd 9efd c7bc 14bf 86bc
000003d0: 6bb4 81bc a0cb aabd 1682 663c e866 41bd
000003e0: 1263 8a3d 722e a2bd 12fc b93d 72c6 f2bd
000003f0: b3a9 963a 7d8b ef3d 26fe 0abd 8479 dcba

cell_list.1.conv_gates.weight f4 [20, 20, 3, 3]
-0.30161965 -0.1339131 -0.083213076 0.19944498 0.11111056 -0.012850644 0.20326342 0.18793917
0.073785886 0.3774777 0.116082124 -0.081981264 0.12295774 0.027712757 -0.0905661 0.16006264
0.12151857 0.069253504 0.09021251 0.1303745 0.16529925 0.013956003 0.09790568 0.08630297
0.05715802 -0.049633622 0.02481551 0.18020779 0.032194488 0.005496809 -0.05302516 -0.009483194
-0.106580146 0.07317691 0.115419455 0.095526695 0.77527237 0.382538 0.047299832 0.5296732
0.11128103 -0.031631082 0.48383728 0.17869213 0.041898068 -0.14929816 -0.17752318 -0.14615075
-0.2532277 -0.0560466 0.06919292 -0.025301749 -0.0020093522 0.21881416 -0.033527635 0.018586328
0.2097106 0.24719906 0.2727473 0.33018988 0.3652328 0.30222577 0.3060949 0.23704484
0.022020495 -0.080269925 -0.044125427 -0.17354031 -0.011690724 -0.11584071 -0.11069988 -0.07653785
-0.14664485 -0.16884877 -0.13989149 -0.19753951 -0.15571855 -0.06635141 -0.11263672 -0.19642724
-0.23046526 0.20738663 0.11263577 -0.084102355 0.5580835 0.46494183 0.15501183 0.26716167
0.2031022 0.17528932 0.09306163 0.060191277 0.07011832 -0.08427208 0.09509371 0.22069862
-0.013172441 0.15601754 0.13856567 -0.010626829 0.05888058 0.18053506 -0.03969504 0.15994187
0.26245338 -0.06669572 0.0508187 0.22527781 0.072875306 0.0951087 -0.050603643 0.07259056
0.08264292 0.02357311 0.10926869 0.12995954 0.14692809 0.098323435 0.14151172 0.23656508
-0.029571379 0.04282757 0.19954306 -0.07306671 0.10639961 0.31708413 -0.10640467 -0.103731886
0.017828094 -0.21269013 -0.149985 -0.06571617 -0.15593873 0.02555258 0.03539668 0.019031553
0.0025910581 0.13516472 -0.14384171 -0.014479084 0.09133079 0.025842123 0.08358615 0.26531696
-0.09815816 -0.039395988 0.01924873 -0.14050911 0.122517504 0.20439844 0.0071903556 0.1317286
0.3154294 -0.018745909 -0.045268837 -0.0028240653 0.0014043623 0.0106462715 -0.10771862 -0.08689853
-0.12595414 -0.10880658 0.03651603 -0.16485833 -0.1350119 0.11244063 -0.07641984 -0.16124128
-0.02382027 -0.09976557 -0.21889172 0.048949257 0.008986148 -0.04344701 0.023688601 -0.068830825
-0.010857357 -0.08199517 -0.12430732 -0.11375466 -0.29300082 -0.007727457 -0.12241586 0.054720454
0.16836865 0.27201205 -0.08207789 -0.009684343 -0.09769181 0.32792675 0.07425699 -0.013405868
0.09321161 -0.18372564 -0.1807083 0.05891765 -0.123577826 -0.16895974 0.30294815 0.29861128
0.26985076 0.19496092 0.15021731 -0.000569137 0.10896707 0.07113678 0.17670242 0.21407028
0.039581724 0.15615833 0.12592088 -0.07481128 -0.0411393 0.24254808 0.10793504 0.08977943
0.5165456 0.13043466 -0.09777946 0.5149872 -0.0008390925 -0.33929843 0.34303263 0.041125126
-0.24062237 -0.27294976 -0.2337803 -0.008408156 -0.18431136 -0.11922075 0.07541218 -0.13095853
0.16247876 0.19322388 0.00078856124 0.092358515 0.16314301 0.38703728 0.43254212 0.38490197
0.479479 0.42327848 0.18276094 0.19494176 -0.019119656 -0.11868185 0.056197952 -0.20292997
-0.21555237 -0.077966474 -0.22858688 -0.19075035 -0.31823903 -0.31960082 -0.025368184 -0.40289035
00000000: e46d 9abe 8420 09be 9e6b aabd 4e3b 4c3e
00000010: ef8d e33d 828b 52bc 4924 503e 2073 403e
00000020: 0e1d 973d c244 c13e 77bc ed3d cbe5 a7bd
00000030: 45d1 fb3d dd05 e33c b87a b9bd 76e7 233e
00000040: bade f83d c8d4 8d3d 56c1 b83d e580 053e
00000050: 3544 293e b8a7 643c c682 c83d 9dbf b03d
00000060: 871e 6a3d a04c 4bbd e549 cb3c 6488 383e
00000070: 5ede 033d 931e b43b e930 59bd 665f 1bbc
00000080: b146 dabd c7dd 953d 0961 ec3d 80a3 c33d
00000090: 4078 463f 05dc c33e 78bd 413d aa98 073f
000000a0: 4fe7 e33d 988f 01bd 85b9 f73e 12fb 363e
000000b0: 4f9d 2b3d 9ee1 18be a3c8 35be 8ba8 15be
000000c0: 10a7 81be 1f91 65bd 05b5 8d3d 9d45 cfbc
000000d0: 56af 03bb d210 603e 4654 09bd 5b42 983c
000000e0: 60be 563e c021 7d3e 89a5 8b3e a60e a93e
000000f0: cbff ba3e 56bd 9a3e 79b8 9c3e e2bb 723e
00000100: 5364 b43c 8f64 a4bd ddbc 34bd 8db4 31be
00000110: 738a 3fbc e53d edbd 9eb6 e2bd e0bf 9cbd
00000120: 112a 16be b1e6 2cbe b73f 0fbe cc47 4abe
00000130: af74 1fbe 3fe3 87bd 15ae e6bd 3924 49be
00000140: 16ff 6bbe 295d 543e 95ad e63d db3d acbd
00000150: 8fde 0e3f db0c ee3e 6cbb 1e3e 6ac9 883e
00000160: 06fa 4f3e 0b7f 333e 1997 be3d 218b 763d
00000170: 329a 8f3d d796 acbd 7ec0 c23d d2fe 613e
00000180: 39d1 57bc 10c3 1f3e 29e4 0d3e 271c 2ebc
00000190: c32c 713d 2fde 383e 4497 22bd cdc7 233e
000001a0: 4a60 863e c497 88bd 4527 503d 3aaf 663e
000001b0: a63f 953d 5ac8 c23d c445 4fbd 5caa 943d
000001c0: b140 a93d 651c c13c 43c8 df3d 1d14 053e
000001d0: 5174 163e cc5d c93d 73e8 103e 1e3e 723e
000001e0: ad3f f2bc f66b 2f3d 0455 4c3e 00a4 95bd
000001f0: 0ae8 d93d da58 a23e b1ea d9bd 6271 d4bd
00000200: 390c 923c 71cb 59be ab95 19be 3396 86bd
00000210: 67ae 1fbe a553 d13c 1cfc 103d 0fe8 9b3c
00000220: bece 293b 9f68 0a3e 3e4b 13be ae39 6dbc
00000230: a30b bb3d dcb2 d33c 372f ab3d a0d7 873e
00000240: 2507 c9bd b05d 21bd 83af 9d3c 9fe1 0fbe
00000250: 75ea fa3d d34d 513e 139d eb3b dde3 063e
00000260: f67f a13e 0591 99bc d16b 39bd f413 39bb
00000270: 9412 b83a b36d 2e3c 949b dcbd dbf7 b1bd
00000280: 1ffa 00be fcd5 debd d591 153d 9fd0 28be
00000290: 8f40 0abe 4647 e63d 0182 9cbd 6f1c 25be
000002a0: ba22 c3bc e451 ccbd 2725 60be 047f 483d
000002b0: a33a 133c 7ef5 31bd 990e c23c 2df7 8cbd
000002c0: 0ee3 31bc 15ed a7bd d694 febd 34f8 e8bd
000002d0: 3404 96be 9c36 fdbb 2bb5 fabd 8e22 603d
000002e0: d568 2c3e 2a45 8b3e 7418 a8bd 14ab 1ebc
000002f0: a512 c8bd 04e6 a73e 0c14 983d 49a4 5bbc
00000300: bbe5 be3d 9322 3cbe 990b 39be a253 713d
00000310: 5f16 fdbd c803 2dbe 051c 9b3e 94e3 983e
00000320: e129 8a3e d6a3 473e 91d2 193e 2332 15ba
00000330: 212a df3d 29b0 913d 7bf1 343e 3d35 5b3e
00000340: 7220 223d f8e7 1f3e 67f1 003e a836 99bd
00000350: af81 28bd 865e 783e 0c0d dd3d 47de b73d
00000360: 553c 043f aa90 053e 9940 c8bd 33d6 033f
00000370: 8bf6 5bba 86b8 adbe f9a1 af3e d272 283d
00000380: b665 76be 12c0 8bbe 1a64 6fbe 5dc2 09bc
00000390: 1ebc 3cbe 022a f4bd b371 9a3d fe19 06be
000003a0: d560 263e 7bdc 453e 73b7 4e3a 7626 bd3d
000003b0: f60e 273e c029 c63e 2976 dd3e df11 c53e
000003c0: 467e f53e f5b7 d83e af25 3b3e d09e 473e
000003d0: d3a0 9cbc 780f f3bd d32f 663d e0cc 4fbe
000003e0: c3b9 5cbe e3ac 9fbd ae12 6abe 0f54 43be
000003f0: 3af0 a2be b8a2 a3be f0d0 cfbc a547 cebe

cell_list.1.conv_can.weight f4 [10, 21, 3, 3]
0.110877275 0.19281368 0.20332463 -0.1075053 -0.06397299 0.12312263 -0.15836251 -0.012577224
-0.1563169 0.019208267 -0.115389526 -0.11987166 -0.06825146 -0.044679224 0.05473315 0.04562146
0.026087508 0.09667611 -0.14373556 -0.19268052 -0.11810885 -0.07862376 -0.20694962 -0.24435884
-0.08425803 -0.1435424 -0.30135536 -0.18786424 -0.06793242 -0.09370385 0.035950784 0.21277076
0.1748825 0.3210325 0.4430268 0.24469382 -0.36497852 -0.41075316 -0.308707 -0.2066882
-0.19503699 -0.23050444 -0.108422436 -0.22399496 -0.3395302 0.16699658 0.08941361 0.12191477
0.24563335 0.2215213 0.24496141 0.20804688 0.33506304 0.223233 0.06026299 0.16448663
0.22417767 -0.122028716 -0.10173199 -0.08997017 -0.17674917 -0.25838494 -0.17452924 -0.4174693
-0.5279788 -0.34820113 -0.18529536 -0.26332262 -0.23145962 -0.07693206 -0.19750717 -0.09956044
0.013512223 0.0049634133 0.08168395 -0.03402405 0.030386066 0.14393738 -0.24939604 -0.20935746
-0.053661928 -0.47205493 -0.42946398 -0.41181466 -0.24183531 -0.26612225 -0.35340032 -0.20608726
-0.085715316 -0.187756 0.042101365 0.00645576 -0.012968174 -0.07231968 -0.122243665 0.062325776
-0.12608683 -0.007144917 -0.0087910015 0.07669405 0.15635987 0.18987608 0.27438506 0.28725696
0.16642328 -0.019487374 0.05984794 0.15190554 -0.105212 -0.007689727 0.018378867 0.05198045
0.114815354 -0.053420547 0.03949686 0.041389927 0.12006412 0.033469774 -0.010300299 -0.11824896
0.08853632 0.14509203 0.08148034 -0.00905689 0.08276282 0.09809188 -0.07473273 -0.09371775
-0.0818852 0.0019666061 -0.037754904 -0.051580183 0.046656314 0.0030653232 -0.12131216 -0.06798606
-0.036688074 0.08305529 0.03289461 0.015382767 0.02366656 0.13700207 0.020316286 0.15294464
-0.038471162 -0.07917411 0.066163026 0.12533453 0.16597946 0.1702762 0.1485592 0.114415675
0.11566189 -0.01723933 -0.179836 -0.2209301 0.120892316 -0.15527551 -0.18764494 0.06574802
0.003970173 -0.04107565 -0.22493424 -0.07711041 -0.07391771 -0.13974884 0.023830866 -0.06500935
-0.088156894 0.014230986 -0.015210266 0.04728686 0.020635469 0.07411043 -0.14107735 -0.06674498
0.08898846 -0.17281805 -0.106647216 0.10217493 0.026481682 0.07255153 0.18118633 0.079803966
-0.03996948 0.09259497 0.11596506 0.120704025 0.047073103 0.06540485 0.18116614 0.24312684
0.09933023 0.08006377 0.0048817266 -0.12688543 -0.03084274 0.019910313 -0.11460095 -0.26691696
-0.15450911 -0.23104112 -0.1311853 -0.11622034 -0.1607453 -0.073845096 -0.053408466 -0.01699704
-0.024906483 -0.18293773 -0.037356716 -0.12303999 -0.08435264 -0.0755066 -0.039058346 -0.054925658
-0.009581389 -0.029124286 -0.19707431 0.0654763 -0.04592942 -0.1001737 0.1847805 0.1248928
0.05670077 0.03201215 -0.2978799 -0.4008007 -0.082087256 -0.20787068 -0.23339595 -0.05717102
-0.034247752 -0.11013743 0.11102235 0.20481125 0.14400321 0.13422953 0.16114488 0.3013426
0.008703903 0.091326736 0.14154764 0.12975316 0.28997275 0.17259406 0.058064286 0.11253746
0.011560389 -0.09163373 -0.0864859 -0.12410316 -0.13224556 -0.31944978 -0.52242976 0.020049674
00000000: a013 e33d f370 453e 5534 503e bd2b dcbd
00000010: 4504 83bd b827 fc3d c829 22be b310 4ebc
00000020: 8a11 20be a85a 9d3c 5851 ecbd 467f f5bd
00000030: 6cc7 8bbd 9001 37bd de2f 603d 91dd 3a3d
00000040: 78b5 d53c 20fe c53d 6a2f 13be 0b4e 45be
00000050: 0ee3 f1bd 7e05 a1bd 9aea 53be 3439 7abe
00000060: 798f acbd c7fc 12be 404b 9abe 7c5f 40be
00000070: 2720 8bbd cee7 bfbd 2141 133d 94e0 593e
00000080: 6614 333e 5f5e a43e 69d4 e23e 0491 7a3e
00000090: 77de babe 3d4e d2be d80e 9ebe 12a6 53be
000000a0: c7b7 47be 5b09 6cbe 950c debd ef5e 65be
000000b0: e7d6 adbe 2701 2b3e 7c1e b73d 73ae f93d
000000c0: 4f87 7b3e 7bd6 623e 2ad7 7a3e 3e0a 553e
000000d0: 628d ab3e 3197 643e 53d6 763d 2f6f 283e
000000e0: d58e 653e 31ea f9bd dd58 d0bd 4842 b8bd
000000f0: bcfd 34be 084b 84be cbb7 32be 89be d5be
00000100: 9e29 07bf 6b47 b2be 11be 3dbe 39d2 86be
00000110: c003 6dbe 8e8e 9dbd 523f 4abe 58e6 cbbd
00000120: 5f62 5d3c 21a4 a23b ea49 a73d cd5c 0bbd
00000130: 33ec f83c 5264 133e ad61 7fbe cd61 56be
00000140: 9ccc 5bbd 2fb1 f1be b4e2 dbbe 5fd9 d2be
00000150: ada3 77be 2d41 88be e3f0 b4be 8a08 53be
00000160: 838b afbd 1c43 40be 7b72 2c3d d78a d33b
00000170: 7778 54bc 571c 94bd e35a fabd 5049 7f3d
00000180: e81c 01be e81f eabb 2208 10bc c511 9d3d
00000190: cd1c 203e e06e 423e 337c 8c3e 5813 933e
000001a0: dd6a 2a3e fca3 9fbc 1d23 753d 208d 1b3e
000001b0: 6479 d7bd 1bfa fbbb 478f 963c 74e9 543d
000001c0: 5024 eb3d 81cf 5abd 76c7 213d 7c88 293d
000001d0: 2de4 f53d 9a17 093d 96c2 28bc 832c f2bd
000001e0: 8852 b53d 0193 143e 2adf a63d 5a63 14bc
000001f0: 8e7f a93d 65e4 c83d 790d 99bd 17ef bfbd
00000200: 6eb3 a7bd 2de2 003b e3a4 1abd be45 53bd
00000210: b11a 3f3d 97e3 483b 8272 f8bd 473c 8bbd
00000220: 3c46 16bd e418 aa3d 80bc 063d 0008 7c3c
00000230: 60e0 c13c 454a 0c3e 576e a63c 859d 1c3e
00000240: f093 1dbd 0926 a2bd 7b80 873d b257 003e
00000250: 85f6 293e e25c 2e3e e71f 183e c452 ea3d
00000260: 24e0 ec3d 7f39 8dbc ee26 38be 803b 62be
00000270: 6496 f73d 8b00 1fbe ff25 40be e6a6 863d
00000280: 3a18 823b f13e 28bd 2955 66be 10ec 9dbd
00000290: 2b62 97bd 521a 0fbe f338 c33c 9f23 85bd
000002a0: 9a8b b4bd 1529 693c 7b34 79bc deaf 413d
000002b0: b70b a93c 36c7 973d 9576 10be 98b1 88bd
000002c0: 953f b63d 37f7 30be db69 dabd 1741 d13d
000002d0: 1df0 d83c e695 943d e988 393e 4370 a33d
000002e0: 0ab7 23bd 6ea2 bd3d 177f ed3d ac33 f73d
000002f0: bacf 403d faf2 853d 9e83 393e 3ef6 783e
00000300: a66d cb3d 79f8 a33d e4f6 9f3b 41ee 01be
00000310: eaa9 fcbc f41a a33c e7b3 eabd 57a9 88be
00000320: a337 1ebe 0b96 6cbe 7055 06be ee04 eebd
00000330: 6a9a 24be 193c 97bd d6c2 5abd 603d 8bbc
00000340: ae08 ccbc 0754 3bbe 5b03 19bd 64fc fbbd
00000350: 14c1 acbd 34a3 9abd a5fb 1fbd baf9 60bd
00000360: 42fb 1cbc 0e96 eebc d9cd 49be 7018 863d
00000370: 7d20 3cbd de27 cdbd 1937 3d3e ccc7 ff3d
00000380: 113f 683d 2c1f 033d b783 98be c035 cdbe
00000390: 5d1d a8bd 0ddc 54be 59ff 6ebe 292c 6abd
000003a0: 5f47 0cbd bc8f e1bd b05f e33d 0aba 513e
000003b0: 9475 133e 7773 093e 2a03 253e 9449 9a3e
000003c0: d19a 0e3c 8309 bb3d ddf1 103e 03de 043e
000003d0: 4f77 943e 7fbc 303e d1d4 6d3d 0a7a e63d
000003e0: c967 3d3c 77aa bbbd 851f b1bd cc29 febd
000003f0: 616b 07be ec8e a3be f5bd 05bf 373f a43c

cell_list.2.conv_gates.weight f4 [20, 20, 3, 3]
0.03351187 -0.27700144 -0.25875938 0.3023985 0.2882847 0.33769017 0.2357064 0.20530522
-0.21688518 0.1213883 0.330319 0.29066148 0.15797952 0.26663566 0.1829292 0.2631325
0.1721332 0.12863576 -0.13020211 -0.2537004 -0.10170915 -0.07641828 0.016561428 0.26041308
-0.118970685 0.03449743 0.33215728 0.3592064 0.3228121 0.28606755 0.3434974 0.4225506
0.26770654 -0.16279545 0.071997285 0.09638593 0.123412825 0.002798513 0.21911255 0.3008862
0.14892037 0.23722517 0.11743517 0.62576866 0.85044 -0.3470707 -0.23642224 -0.03504226
0.020655125 0.062026013 -0.1109245 -0.13985743 -0.032088183 -0.01727857 0.06901577 0.11526739
0.35244295 -0.37042603 -0.35731536 -0.052038036 -0.1135339 -0.0696171 0.21158966 -0.06012089
-0.24454898 -0.31253037 0.31758407 0.14396912 0.037658267 -0.01130812 0.10185716 0.040272143
-0.1613327 0.038352795 0.08355624 -0.3199389 -0.33884013 -0.34346357 -0.11421559 -0.11504331
-0.34949467 -0.42151722 -0.25525308 -0.11902892 -0.11583332 -0.15823491 -0.14892729 -0.5079798
-0.31421074 -0.15961659 0.0065039317 0.10155435 0.16141616 -0.19384766 -0.14724766 -0.058543555
0.030494392 -0.22248727 -0.121283695 -0.10911867 -0.057123043 0.07477302 0.02444409 -0.07815102
0.09214728 0.42832443 0.22326726 -0.0027993023 -0.18829224 -0.29283428 -0.17271736 -0.27057728
0.06302558 -0.13275072 -0.053346507 -0.054457318 -0.09753486 0.4157723 0.52128637 0.40659183
0.17165847 0.1863425 0.19666527 0.25668955 0.22909257 0.11222857 0.07231287 0.08262062
0.0074455505 0.304658 0.28845692 0.25600332 0.08240232 0.23307166 0.25576475 -0.030601922
-0.16224964 -0.14314756 0.11012053 0.14919837 0.019263152 -0.05616724 -0.04000176 0.019373784
0.026665073 0.2927663 0.37526044 -0.26063022 -0.20700264 -0.06724929 -0.21357481 -0.12757291
-0.120670855 0.33446938 0.24116522 0.09675837 -0.07049034 0.14760944 0.14375563 0.0029288738
0.026227294 0.2823825 0.039699417 0.12585527 0.08030893 -0.28165796 -0.21999578 -0.04529624
-0.07519664 -0.13407403 -0.03248792 -0.100317195 0.16290979 0.19303338 -0.08526753 -0.1178662
0.04688889 -0.19745496 -0.09066118 -0.04653714 0.1614472 -0.09904608 0.021436155 0.8330173
0.46572408 0.23472165 -0.12124415 0.3861463 0.15894866 -0.0106832115 0.079585075 0.15277492
0.020222828 0.17193292 0.19481382 0.029875854 0.072506726 0.15853179 -0.23408598 -0.21514155
0.06118687 -0.19549973 0.053327754 0.15706754 -0.08130457 -0.06560188 0.21521239 0.23735824
0.113821045 0.18029475 0.17430115 0.14696448 0.10615383 -0.5194378 -0.3187407 -0.114968106
0.26272678 0.2686211 0.5792 -0.07715197 0.1953189 0.47225422 -0.5206259 0.10711001
0.60284656 -0.32534692 -0.17742053 -0.22390382 0.040024526 -0.056812517 0.058782224 -0.08000892
0.07651363 0.04113205 -0.19733591 -0.25342482 0.15464173 -0.34235927 -0.34209058 0.14312437
0.11068948 -0.15309812 0.0310524 -0.17040369 -0.16310933 -0.18114024 0.43211803 0.18105732
-0.26123834 -0.24939482 0.20280585 0.16000022 -0.3870898 -0.13282253 -0.23377407 -0.46499535
00000000: be43 093d 22d3 8dbe 1c7c 84be fad3 9a3e
00000010: 0d9a 933e bae5 ac3e 055d 713e 883b 523e
00000020: 2617 5ebe 6e9a f83d 921f a93e 95d1 943e
00000030: 62c5 213e 7884 883e cb51 3b3e 4eb9 863e
00000040: b043 303e 18b9 033e b453 05be 05e5 81be
00000050: e34c d0bd 3081 9cbd d5ab 873c dd54 853e
00000060: e7a6 f3bd 2d4d 0d3d 8510 aa3e e7e9 b73e
00000070: a147 a53e 7277 923e e4de af3e 8d58 d83e
00000080: d510 893e dab3 26be 5073 933d fd65 c53d
00000090: ddbf fc3d 4267 373b 0a5f 603e c20d 9a3e
000000a0: 957e 183e 28eb 723e da81 f03d 6032 203f
000000b0: 70b6 593f 40b3 b1be ac18 72be 7988 0fbd
000000c0: f034 a93c fd0e 7e3d 622c e3bd c936 0fbe
000000d0: e66e 03bd ca8b 8dbc 2458 8d3d 4f11 ec3d
000000e0: 6773 b43e 7ba8 bdbe 0af2 b6be d625 55bd
000000f0: 7684 e8bd 6993 8ebd f6aa 583e 5341 76bd
00000100: 0c6b 7abe fb03 a0be 619a a23e a46c 133e
00000110: 8e3f 1a3d b145 39bc 7d9a d03d 67f4 243d
00000120: 6634 25be d217 1d3d 891f ab3d 08cf a3be
00000130: 747c adbe 75da afbe dde9 e9bd d49b ebbd
00000140: f7f0 b2be 1bd1 d7be 88b0 82be 6fc5 f3bd
00000150: 053a edbd 5508 22be 6580 18be f70a 02bf
00000160: 3be0 a0be 8872 23be ef1e d53b bafb cf3d
00000170: 474a 253e 0080 46be 17c8 16be 5ecb 6fbd
00000180: 60cf f93c b4d3 63be 9663 f8bd 9c79 dfbd
00000190: daf9 69bd 9922 993d f93e c83c a40d a0bd
000001a0: b7b7 bc3d 574d db3e 2ca0 643e 8074 37bb
000001b0: aecf 40be 60ee 95be d2dc 30be 1b89 8abe
000001c0: 8e13 813d ceef 07be de81 5abd a30e 5fbd
000001d0: 5bc0 c7bd 1be0 d43e 0673 053f ce2c d03e
000001e0: 3dc7 2f3e 91d0 3e3e 9f62 493e d06c 833e
000001f0: 3e97 6a3e 18d8 e53d c518 943d 0035 a93d
00000200: cef9 f33b 22fc 9b3e a0b0 933e de12 833e
00000210: 8cc2 a83d 56aa 6e3e 99f3 823e e2b0 fabc
00000220: c524 26be 4695 12be df86 e13d 75c7 183e
00000230: c2cd 9d3c 9f0f 66bd e3d8 23bd c5b5 9e3c
00000240: b670 da3c 77e5 953e 2322 c03e 5371 85be
00000250: 80f8 53be ffb9 89bd 5bb3 5abe 79a2 02be
00000260: 4822 f7bd 923f ab3e 04f4 763e 4129 c63d
00000270: 3d5d 90bd ee26 173e ad34 133e 59f2 3f3b
00000280: 9fda d63c 7094 903e db9b 223d 34e0 003e
00000290: 0279 a43d 7935 90be 9346 61be 8d88 39bd
000002a0: b200 9abd b44a 09be 0e12 05bd 1a73 cdbd
000002b0: d3d1 263e 8baa 453e bea0 aebd d663 f1bd
000002c0: 910e 403d a231 4abe 92ac b9bd ba9d 3ebd
000002d0: 6a52 253e acd8 cabd e09a af3c 9f40 553f
000002e0: 6373 ee3e df5a 703e da4e f8bd f8b4 c53e
000002f0: 70c3 223e a308 2fbc 80fd a23d 0771 1c3e
00000300: 58aa a53c 2f0f 303e 467d 473e 35be f43c
00000310: 687e 943d 2856 223e 3cb4 6fbe 114e 5cbe
00000320: 159f 7a3d 1531 48be 346e 5a3d 50d6 203e
00000330: 0383 a6bd 475a 86bd a360 5c3e 0a0e 733e
00000340: 021b e93d 309f 383e 007c 323e db7d 163e
00000350: 2e67 d93d e0f9 04bf fb31 a3be 6674 ebbd
00000360: 2084 863e b488 893e 7446 143f da01 9ebd
00000370: ad01 483e 4ecb f13e bd47 05bf 7e5c db3d
00000380: 2754 1a3f df93 a6be baad 35be 0b47 65be
00000390: c2f0 233d 3eb4 68bd a1c5 703d b7db a3bd
000003a0: 2eb3 9c3d 157a 283d 6d12 4abe e6c0 81be
000003b0: 675a 1e3e b749 afbe 7f26 afbe 328f 123e
000003c0: 2bb1 e23d c1c5 1cbe 9a61 fe3c 4e7e 2ebe
000003d0: 2206 27be d47c 39be 933e dd3e 1767 393e
000003e0: 08c1 85be 5b61 7fbe 56ac 4f3e 19d7 233e
000003f0: a230 c6be a102 08be 7862 6fbe df13 eebe

cell_list.2.conv_can.weight f4 [10, 21, 3, 3]
-0.16641517 -0.09580471 -0.14815879 0.19639373 0.20996478 0.08606141 0.06456245 -0.16924095
-0.24329542 0.14230558 -0.042143665 -0.028324602 -0.0018042283 -0.07536754 -0.10131962 0.013196275
-0.0090845935 -0.072846726 -0.18559156 -0.08806052 0.34605265 0.18281259 0.11760891 0.25080663
0.072441585 0.018403089 0.16641624 -0.24277225 -0.34971166 -0.21462534 -0.056610208 -0.10403158
-0.27898228 0.0361351 -0.20770833 -0.031211112 -0.0402671 0.25602552 0.07718844 -0.12375647
0.048087463 0.059502758 0.0929388 -0.084151536 0.07681415 0.16330954 0.2613508 0.10596884
0.0018514781 -0.11095172 -0.04457656 -0.14253981 -0.104701854 -0.108367436 -0.10653529 0.016046805
0.062424563 -0.099056266 -0.025748488 0.006105313 -0.11651424 0.0063162637 0.14019704 -0.1510896
0.19008496 0.17483097 -0.27961165 0.13414876 0.23392737 0.13847725 -0.10486385 -0.030872865
0.42144164 0.11230602 -0.18688674 0.18276635 0.08794357 0.0031642858 -0.030637309 0.21314238
0.14933184 -0.1062393 -0.11451145 -0.1099402 -0.12004861 0.01557053 0.034921963 -0.23308279
0.09353857 0.06692071 0.24752164 -0.08845894 -0.062671885 0.35472935 0.23328143 0.13419068
-0.10547913 -0.13397472 -0.2856501 0.44995677 0.17243907 0.07346979 0.36052945 0.21892072
-0.07902121 -0.089204416 -0.12973352 -0.17316091 -0.23401214 -0.016628068 0.35326016 -0.17758375
0.030225564 -0.0038332185 0.20563301 0.0828067 -0.0005717835 0.15750594 0.024367878 -0.20105238
0.35376537 0.062700495 -0.11934445 -0.067395754 0.06509523 0.020134035 -0.34460428 -0.20427476
0.11760548 0.10794254 -0.013070758 -0.0056965696 0.168254 -0.20235091 -0.20345299 -0.13620095
0.0007533697 0.1551096 -0.28223643 -0.3583931 -0.07802688 -0.08042539 -0.23851335 -0.24946871
0.41017225 0.19994967 -0.12979719 0.21269117 0.26343068 0.1715361 0.12061743 0.24139923
0.2089194 -0.16108157 -0.21351764 -0.2646741 0.13045247 0.038695987 -0.01748317 0.265768
0.20669442 0.008561724 0.40461966 0.08903961 -0.0812693 0.25964424 0.4030606 0.33078125
0.09889069 0.17258282 0.38566548 0.31306484 0.050652567 -0.1442353 0.14553963 0.20381348
0.31073987 0.024882196 0.19703622 0.31081778 0.17705774 0.13332933 0.20181488 -0.17727166
-0.039065305 0.25703943 -0.20721774 -0.09576301 0.060129818 -0.08597344 0.016200023 0.36246085
0.0891036 -0.16698647 0.11407749 0.16380893 -0.19893351 -0.00682993 -0.08078945 0.15835081
0.25253206 0.14079425 0.033065304 -0.094942965 0.08413504 -0.095416725 -0.11055218 -0.34548417
-0.25687513 0.0062886914 0.0014785172 0.0403951 0.0682079 0.09981863 0.08527624 0.02183335
-0.17482598 -0.055703722 0.13656278 -0.018545588 -0.11302993 -0.23887083 0.23303795 0.11020671
-0.11447072 -0.10698178 0.0746532 0.16205178 -0.37641147 -0.25246355 -0.16125569 0.2118179
0.16900249 -0.017699316 0.049390726 0.23306474 0.13746311 -0.2942296 -0.020478997 0.14055613
-0.08929671 -0.1069328 0.060516287 0.26877558 0.039762404 0.25299627 0.09450415 -0.17886177
-0.077453 -0.026474943 -0.01687094 -0.093605205 -0.43042603 -0.11137708 0.40223482 -0.55020833
00000000: bd68 2abe 4335 c4bd f0b6 17be 701b 493e
00000010: 0201 573e f740 b03d 5139 843d 804d 2dbe
00000020: 6f22 79be 8eb8 113e d69e 2cbd ff08 e8bc
00000030: db7b ecba 4c5a 9abd a980 cfbd 3035 583c
00000040: 8cd7 14bc aa30 95bd b70b 3ebe 1359 b4bd
00000050: d02d b13e 3933 3b3e f1dc f03d ba69 803e
00000060: 415c 943d 13c2 963c 0569 2a3e 4a99 78be
00000070: 680d b3be bfc6 5bbe 1be0 67bd 820e d5bd
00000080: c4d6 8ebe 6602 143d 7eb1 54be 72ae ffbc
00000090: 1def 24bd c715 833e f914 9e3d 0874 fdbd
000000a0: 5cf7 443d 2ab9 733d b356 be3d a457 acbd
000000b0: bd50 9d3d 9e3a 273e c6cf 853e 3106 d93d
000000c0: 4cad f23a a83a e3bd e995 36bd f5f5 11be
000000d0: ed6d d6bd bfef ddbd 2d2f dabd 9774 833c
000000e0: e6b0 7f3d 03de cabd 7eee d2bc 140f c83b
000000f0: 059f eebd a9f8 ce3b d08f 0f3e 3bb7 1abe
00000100: a2a5 423e e406 333e 4229 8fbe 4b5e 093e
00000110: a88a 6f3e fbcc 0d3e dcc2 d6bd 17e9 fcbc
00000120: 33c7 d73e b300 e63d 3d5f 3fbe 1a27 3b3e
00000130: c21b b43d e85f 4f3b 18fb fabc ff41 5a3e
00000140: 72ea 183e fd93 d9bd fb84 eabd 5428 e1bd
00000150: 0cdc f5bd 891b 7f3c 550a 0f3d 41ad 6ebe
00000160: 2691 bf3d ba0d 893d 5076 7d3e f629 b5bd
00000170: 1e5a 80bd 169f b53e 54e1 6e3e 4869 093e
00000180: 7105 d8bd ab30 09be bb40 92be bc60 e63e
00000190: de93 303e 5477 963d 5197 b83e c12c 603e
000001a0: dfd5 a1bd ceb0 b6bd ddd8 04be 1851 31be
000001b0: e1a0 6fbe 9637 88bc 84de b43e 84d8 35be
000001c0: 9a9b f73c bc36 7bbb 7691 523e 8f96 a93d
000001d0: bee3 15ba 3d49 213e 259f c73c ade0 4dbe
000001e0: bc20 b53e 1e69 803d dd6a f4bd c906 8abd
000001f0: a650 853d 22f0 a43c f96f b0be 672d 51be
00000200: 24db f03d fa10 dd3d bc26 56bc 4aaa babb
00000210: c74a 2c3e 1435 4fbe fb55 50be 4378 0bbe
00000220: c97d 453a 0dd5 1e3e 4b81 90be 4d7f b7be
00000230: 8fcc 9fbd 11b6 a4bd d83c 74be ba74 7fbe
00000240: 1902 d23e 9bbf 4c3e 8ee9 04be b7cb 593e
00000250: 63e0 863e 29a7 2f3e 4506 f73d 5c31 773e
00000260: f8ee 553e 91f2 24be 5ea4 5abe 5d83 87be
00000270: 5595 053e af7f 1e3d dd38 8fbc be12 883e
00000280: b4a7 533e 7946 0c3c 4f2a cf3e 665a b63d
00000290: 8570 a6bd 17f0 843e f55d ce3e 295c a93e
000002a0: 3487 ca3d 8db9 303e f275 c53e 094a a03e
000002b0: 1179 4f3d 6bb2 13be 5708 153e 7bb4 503e
000002c0: 4c19 9f3e bfd5 cb3c ddc3 493e 8223 9f3e
000002d0: a04e 353e 7c87 083e 8fa8 4e3e b486 35be
000002e0: f102 20bd ac9a 833e e330 54be 661f c4bd
000002f0: af4a 763d d812 b0bd e9b5 843c 7894 b93e
00000300: f37b b63d 80fe 2abe 76a1 e93d 87bd 273e
00000310: 3ab5 4bbe 9bcd dfbb f074 a5bd b726 223e
00000320: e24b 813e 5e2c 103e 7c6f 073d 7571 c2bd
00000330: fe4e ac3d d869 c3bd 2e69 e2bd 4de3 b0be
00000340: 2385 83be 5e11 ce3b ceca c13a 5575 253d
00000350: 95b0 8b3d b66d cc3d 4fa5 ae3d dbdb b23c
00000360: 9505 33be 9629 64bd 1dd7 0b3e ebec 97bc
00000370: 3c7c e7bd 8e9a 74be 80a1 6e3e 0eb4 e13d
00000380: a06f eabd 4319 dbbd c7e3 983d e7f0 253e
00000390: 01b9 c0be e742 81be 3620 25be cbe6 583e
000003a0: fd0e 2d3e 28fe 90bc ee4d 4a3d 86a8 6e3e
000003b0: 21c3 0c3e 43a5 96be 92c3 a7bc f2ed 0f3e
000003c0: 32e1 b6bd 95ff dabd eddf 773d f49c 893e
000003d0: e7dd 223d ba88 813e 648b c13d 8a27 37be
000003e0: ae9f 9ebd fbe1 d8bc ed34 8abc 16b4 bfbd
000003f0: cd60 dcbe ab19 e4bd b9f1 cd3e 74da 0cbf

cell_list.3.conv_gates.weight f4 [20, 20, 1, 1]
0.34598652 0.26929528 0.24567972 0.25133368 0.033285357 -0.18147334 0.24829465 0.417276
0.2611121 0.8177794 0.40165535 -0.03586373 -0.083440654 0.47208366 -0.07388321 -0.3724207
0.28798127 0.39652053 -0.13016379 0.26559487 0.01778561 0.16470452 0.21736291 -0.27920365
0.19647111 0.027852794 -0.0129297655 -0.07677027 0.07000413 0.4646474 0.07659922 -0.032412257
-0.1501854 -0.056686167 0.13712054 0.059303846 -0.15172578 -0.18576157 -0.3800231 -0.2559916
0.18483123 -0.013307721 -0.16093646 -0.26068687 -0.098352104 -0.07898647 -0.15861087 -0.03924933
0.35366878 0.089414194 0.041492976 -0.05152204 0.078448825 -0.086842746 -0.03512565 -0.4420716
-0.2510137 0.39662805 0.11921079 0.31531858 0.042990692 0.15664946 -0.033996195 0.04162459
0.6039109 -0.058741502 0.29038122 -0.041710116 -0.19063596 0.07805761 -0.23654105 0.2282844
-0.5194448 0.29407692 -0.25515342 -0.44467208 0.075001426 0.15351059 -0.17445177 0.39083317
-0.39096087 -0.2183138 0.32661656 -0.16143285 -0.3934589 -0.43678197 -0.36222845 -0.13156243
0.26941276 0.22401172 -0.07349618 -0.29138148 0.13797942 0.12632121 0.008079809 0.0046161986
-0.28260943 -0.024744406 0.15584241 -0.24671556 0.018129744 -0.16323616 0.36486933 -0.5695337
-0.08597349 -0.402393 0.10920041 0.15663438 -0.20895924 -0.28829017 -0.05771491 -0.024255693
0.21416803 0.23882559 0.22834305 -0.12850016 0.18726219 -0.023004837 -0.040318564 -0.3976411
-0.11590375 -0.25752044 0.15295844 -0.65175 0.15940066 -0.04697986 -0.05284364 -0.1355773
0.06442512 -0.009950153 -0.50296366 -0.24960771 -0.021299886 0.0037335416 -0.08991679 0.02110496
0.049490917 0.33375168 0.11420649 0.012913292 -0.65948725 -0.4274147 -0.14033432 -0.11374111
-0.28681165 0.034500916 -0.0149263805 -0.5900919 0.09939717 -0.074848 -0.5179485 -0.2803613
0.117304355 0.01791786 -0.3970827 0.1319468 -0.26065093 0.19989224 0.27616936 -0.15181167
0.27137154 -0.19989018 -0.061798744 -0.39965734 -0.1633402 -0.22526662 -0.032307725 -0.17294908
0.28757674 -0.0705659 -0.25130412 -0.055031344 0.0495034 -0.07286516 -0.5750152 -0.15811363
-0.3103905 -0.2384684 0.24347454 -0.048328817 -0.29804495 0.060592353 0.18734787 0.24007651
0.1690905 -0.16392908 0.15008318 0.5018594 -0.073226556 0.09032924 0.01881339 0.18456271
-0.15484954 0.17105134 -0.0929991 -0.073413014 0.3634411 -0.004268539 0.13977943 0.30070925
0.089737326 0.64576596 -0.39097586 0.15343823 -0.63846135 -0.5727646 0.5041378 0.027288752
0.033595577 0.23653395 0.2251104 0.7649821 -0.45975637 -0.43986195 0.005775923 0.032007486
0.1666831 0.52580124 -0.06605518 0.47824964 -0.20050563 0.6472352 -0.8201557 0.28087366
-0.6323815 -0.45062548 0.3894341 0.39468572 -0.7666433 0.034566958 0.5094505 0.12829399
-0.6011887 -0.5330314 0.50964284 0.32087725 0.26719484 -0.16432552 -0.7365944 0.124211825
-0.33603793 -0.22823937 0.12625326 -0.707725 -0.5907821 -0.30656365 -0.7807856 -0.38745868
0.18182032 0.044301666 -0.47099987 -0.45855013 0.50421697 -0.70770717 0.4498821 0.17472652
00000000: 2525 b13e 12e1 893e 7793 7b3e cfae 803e
00000010: 3a56 083d 26d4 39be f440 7e3e 33a5 d53e
00000020: 7cb0 853e fe59 513f c5a5 cd3e d9e5 12bd
00000030: efe2 aabd f3b4 f13e 1550 97bd edad bebe
00000040: 4872 933e bd04 cb3e a849 05be 0dfc 873e
00000050: 21b3 913c 4da8 283e 6294 5e3e c8f3 8ebe
00000060: b92f 493e 8b2b e43c 5ed7 53bc bb39 9dbd
00000070: 535e 8f3d 44e6 ed3e 0de0 9c3d b7c2 04bd
00000080: 34ca 19be c12f 68bd 5469 0c3e 97e8 723d
00000090: 015e 1bbe 4838 3ebe 6392 c2be 5511 83be
000000a0: 6644 3d3e a108 5abc 87cc 24be c078 85be
000000b0: d46c c9bd a9c3 a1bd e36a 22be e8c3 20bd
000000c0: 1314 b53e ca1e b73d 8af4 293d c608 53bd
000000d0: c7a9 a03d 9cda b1bd eadf 0fbd 3557 e2be
000000e0: de84 80be d512 cb3e c924 f43d 7071 a13e
000000f0: 0217 303d b768 203e 983f 0bbd 8c7e 2a3d
00000100: e899 1a3f ee9a 70bd d9ac 943e 3ad8 2abd
00000110: 1336 43be abdc 9f3d d137 72be 63c3 693e
00000120: 56fa 04bf 4091 963e 78a3 82be 0fac e3be
00000130: 599a 993d e131 1d3e 7ca3 32be 491b c83e
00000140: 062c c8be a78d 5fbe 493a a73e a74e 25be
00000150: 7273 c9be e3a1 dfbe 0276 b9be 4db8 06be
00000160: 78f0 893e 5463 653e 2a85 96bd f42f 95be
00000170: 7a4a 0d3e 595a 013e 2d61 043c 7b43 973b
00000180: 2fb2 90be c8b4 cabc 2795 1f3e 01a3 7cbe
00000190: d484 943c 6127 27be 27d0 ba3e f6cc 11bf
000001a0: de12 b0bd 7506 cebe 77a4 df3d c364 203e
000001b0: 69f9 55be c59a 93be 7866 6cbd e0b3 c6bc
000001c0: dd4e 5b3e b28e 743e c3d2 693e 8c95 03be
000001d0: a9c1 3f3e a474 bcbc 1425 25bd 9d97 cbbe
000001e0: f25e edbd b8d9 83be 23a1 1c3e 17d9 26bf
000001f0: ed39 233e f46d 40bd 9372 58bd c7d4 0abe
00000200: 51f1 833d f705 23bc 3ac2 00bf 2a99 7fbe
00000210: 197d aebc 6fae 743b 4b26 b8bd 4fe4 ac3c
00000220: fdb6 4a3d 80e1 aa3e 18e5 e93d 4692 533c
00000230: 28d4 28bf 19d6 dabe cdb3 0fbe 19f1 e8bd
00000240: fad8 92be d550 0d3d c78d 74bc 4310 17bf
00000250: be90 cb3d e949 99bd 4698 04bf 848b 8fbe
00000260: 443d f03d 7ac8 923c 6c4e cbbe 101d 073e
00000270: 0a74 85be 8db0 4c3e 1266 8d3e 8574 1bbe
00000280: 36f1 8a3e 03b0 4cbe ae20 7dbd e39f ccbe
00000290: a742 27be 4bac 66be 1b55 04bd 9019 31be
000002a0: 423d 933e db84 90bd efaa 80be 8c68 61bd
000002b0: 14c4 4a3d 543a 95bd 3234 13bf 8ae8 21be
000002c0: 81eb 9ebe 0f31 74be 6451 793e 70f4 45bd
000002d0: 5999 98be b02f 783d 1fd8 3f3e 9ed6 753e
000002e0: 0f26 2d3e 06dd 27be 68af 193e dc79 003f
000002f0: cef7 95bd 89fe b83d 8a1e 9a3c 02fe 3c3e
00000300: e190 1ebe 1528 2f3e 5076 bebd 9059 96bd
00000310: f414 ba3e 1adf 8bbb 5722 0f3e 90f6 993e
00000320: 34c8 b73d eb50 253f fd2d c8be e91e 1d3e
00000330: 3472 23bf b3a0 12bf 2d0f 013f a98c df3c
00000340: 849b 093d f535 723e 5783 663e ded5 433f
00000350: 3065 ebbe 9635 e1be f443 bd3b 481a 033d
00000360: f9ae 2a3e e99a 063f f047 87bd 23dd f43e
00000370: 5951 4dbe 35b1 253f b9f5 51bf acce 8f3e
00000380: c1e3 21bf 62b8 e6be e863 c73e 3f14 ca3e
00000390: bc42 44bf 1596 0d3d 596b 023f 805f 033e
000003a0: 81e7 19bf bf74 08bf f477 023f 064a a43e
000003b0: c3cd 883e f344 28be 7391 3cbf c562 fe3d
000003c0: 2a0d acbe 95b7 69be 8948 013e 772d 35bf
000003d0: 7f3d 17bf e9f5 9cbe 91e1 47bf fc60 c6be
000003e0: 1b2f 3a3e aa75 353d e526 f1be 15c7 eabe
000003f0: 5d14 013f 4c2c 35bf f256 e63e 82eb 323e

cell_list.3.conv_can.weight f4 [10, 21, 1, 1]
0.30722877 0.49834704 -0.128469 0.45464098 -0.23741853 0.08451629 0.23264566 0.13039362
0.2804248 0.010438418 0.25851843 0.21651854 -0.37821123 -0.17553623 -0.08119766 0.06641567
0.08585386 0.24243204 0.012212129 0.21082664 -0.5746203 -0.023618622 0.47293258 -0.34086275
0.60940725 -0.17244366 0.15270434 0.4329088 0.2748059 -0.37444445 0.22700496 0.33011335
0.06171138 -0.4845021 -0.22215396 -0.050230056 -0.08052235 0.21075986 -0.09187064 -0.21108164
0.009124192 -0.3844066 -0.008901238 -0.213035 0.3852111 -0.2833829 -0.1385638 0.28448012
-0.62042964 -0.19285214 0.30762997 -0.4261838 -0.2662168 -0.4234596 -0.077548034 -0.25494835
0.07647336 -0.029141989 -0.22079876 0.01663334 -0.04502128 -0.091121726 0.40426964 0.08070399
-0.45968753 0.27387205 -0.0060508014 0.80041873 -0.35388583 0.32446402 -0.20992213 -0.34697935
0.4780795 -0.24407329 -0.17096332 0.04680558 0.07879224 0.08004138 -0.15839727 0.46360585
0.09067773 0.17270993 0.33916265 -0.038364287 0.025421787 0.3029276 0.04656778 -0.2888243
-0.33430803 -0.26870808 -0.40338767 0.50069 -0.17755058 0.4632774 -0.13718434 -0.0135982195
-0.066662565 -0.03565541 0.097040415 0.051167447 0.14708361 -0.27569994 -0.42059994 -0.16751671
0.17274421 -0.50438625 0.3686475 -0.28575695 0.2747837 -0.30535766 0.11244942 0.0015147151
0.2664613 -0.32307008 -0.11883078 -0.23636338 -0.074257635 -0.16817549 -0.24549802 0.044229474
-0.027666857 0.033420425 -0.6478185 -0.31161755 -0.14209811 0.4627398 -0.19762987 0.13953976
-0.2789511 0.000753334 0.45680386 -0.2110654 0.46242216 0.14795688 -0.5226643 0.3710537
-0.15445265 0.24657676 -0.16305736 0.18334341 0.1737738 0.19714734 -0.029163186 -0.09625884
-0.118516706 -0.05968188 -0.093589485 0.6622296 -0.1460097 0.16314425 -0.13948847 0.07612326
-0.42000252 0.13182539 -0.46076873 0.39655656 -0.09643548 -0.12688625 -0.055196494 0.094856784
0.04745712 -0.06137068 -0.2339146 -0.033209007 -0.13441998 0.31069213 0.0350553 -0.06225067
0.044202335 -0.5014834 -0.23253965 -0.24673082 0.3293197 -0.03731504 0.4944484 -0.5396835
0.40107113 -0.2916511 -0.1755029 -0.31275558 0.09266067 0.09852041 -0.50279623 -0.31924614
-0.14610377 0.17981786 0.12230157 -0.00946686 -0.013733938 0.5647064 -0.39520594 -0.23099363
0.084478416 0.26297 -0.13409437 0.4594707 0.04243969 0.34324002 0.30345547 0.34949356
-0.032301016 -0.38819695 0.060217395 -0.25225636 -0.28786498 0.15405825 -0.13796005 0.104174
0.18151775 -0.41323298
00000000: 174d 9d3e 5827 ff3e 618d 03be b4c6 e83e
00000010: d81d 73be e016 ad3d aa3a 6e3e e885 053e
00000020: d793 8f3e e605 2b3c 875c 843e 09b7 5d3e
00000030: e7a4 c1be c5bf 33be f54a a6bd f004 883d
00000040: 26d4 af3d 1b40 783e 6215 483c f0e2 573e
00000050: 511a 13bf d77b c1bc 3824 f23e 9085 aebe
00000060: 1d02 1c3f 1295 30be 875e 1c3e 39a6 dd3e
00000070: 5cb3 8c3e 2fb7 bfbe fd73 683e 9e04 a93e
00000080: 12c5 7c3d a910 f8be 547c 63be 08be 4dbd
00000090: e7e8 a4bd 6fd1 573e ad26 bcbd c925 58be
000000a0: a37d 153c f1d0 c4be 80d6 11bc d925 5abe
000000b0: 643a c53e 9017 91be abe3 0dbe 61a7 913e
000000c0: 7ad4 1ebf 087b 45be ad81 9d3e c334 dabe
000000d0: 924d 88be b2cf d8be 81d1 9ebd 9788 82be
000000e0: 119e 9c3d 2ebb eebc 1219 62be a442 883c
000000f0: 3c68 38bd 079e babd 6efc ce3e 2248 a53d
00000100: 2a5c ebbe f538 8c3e cd45 c6bb 3ee8 4c3f
00000110: 8630 b5be 2620 a63e d4f5 56be 47a7 b1be
00000120: d6c6 f43e 59ee 79be 0211 2fbe 35b7 3f3d
00000130: d35d a13d bcec a33d e532 22be bf5d ed3e
00000140: 3fb5 b93d dfda 303e baa6 ad3e df23 1dbd
00000150: 5a41 d03c 5419 9b3e dbbd 3e3d c7e0 93be
00000160: 6c2a abbe 1b94 89be d488 cebe 382d 003f
00000170: d2cf 35be b232 ed3e 0d7a 0cbe 11cb 5ebc
00000180: 6286 88bd 680b 12bd 20bd c63d f594 513d
00000190: 169d 163e 8b28 8dbe e058 d7be 8089 2bbe
000001a0: dce3 303e 751f 01bf 5dbf bc3e bc4e 92be
000001b0: 73b0 8c3e d757 9cbe e24b e63d 6889 c63a
000001c0: 9e6d 883e 7169 a5be 8d5d f3bd 3e09 72be
000001d0: 6314 98bd 3236 2cbe d563 7bbe f729 353d
000001e0: 9ba5 e2bc dbe3 083d 6fd7 25bf 568c 9fbe
000001f0: 2b82 11be 3bec ec3e 7c5f 4abe 83e3 0e3e
00000200: aed2 8ebe 647b 453a 32e2 e93e 8721 58be
00000210: 99c2 ec3e 0282 173e 54cd 05bf c0fa bd3e
00000220: d628 1ebe 9e7e 7c3e 82f8 26be 60be 3b3e
00000230: c2f1 313e fee0 493e a2e7 eebc 5b23 c5bd
00000240: e3b8 f2bd fd74 74bd d8ab bfbd e187 293f
00000250: 9183 15be 490f 273e 11d6 0ebe 83e6 9b3d
00000260: 920a d7be 3cfd 063e e1e9 ebbe 7609 cb3e
00000270: f77f c5bd 78ee 01be b815 62bd 4644 c23d
00000280: 6662 423d d25f 7bbd 4f87 6fbe 2b06 08bd
00000290: 64a5 09be 0a13 9f3e 2596 0f3d 8ffa 7ebd
000002a0: 820d 353d 3761 00bf e01e 6ebe 01a7 7cbe
000002b0: 979c a83e a8d7 18bd 5728 fd3e b328 0abf
000002c0: 3259 cd3e 4b53 95be 08b7 33be 8021 a0be
000002d0: e1c4 bd3d 12c5 c93d 41b7 00bf 3b74 a3be
000002e0: 3a9c 15be 2c22 383e 3f79 fa3d e41a 1bbc
000002f0: 5004 61bc 9990 103f 6f58 cabe 9889 6cbe
00000300: 0503 ad3d 01a4 863e 0950 09be be3f eb3e
00000310: 3ed5 2d3d 28bd af3e 845e 9b3e d2f0 b23e
00000320: 124e 04bd c0c1 c6be 84a6 763d bf27 81be
00000330: 0a63 93be 72c1 1d3e 6645 0dbe 2e59 d53d
00000340: cadf 393e 4693 d3be
