saved_models/audio_benchmark/random3_9.pt (torch, 118160 bytes, 14 tensors)

cell_list.0.conv_gates.weight f4 [20, 11, 3, 3]
000000 f6 42 00 3d 03 00 23 bd 1e 6a 84 bb 82 5e 64 3d
       0.03131386 -0.039794933 -0.0040409705 0.055754192
000010 87 0f ac 3d d8 70 b1 3d 3e 4d 45 bd 76 a8 ba 3d
       0.08401399 0.08664101 -0.048169367 0.091141626
000020 e8 df c4 bc a0 7b 93 bc 31 ab b9 3d a1 04 62 3c
       -0.024032548 -0.018003285 0.09065855 0.013795049
000030 9c fb 94 bd 66 58 71 bd f9 1c 37 3b 2a 9a 45 bb
       -0.07274553 -0.058922194 0.0027940853 -0.0030151703
000040 c4 dd 7d 3b a2 4d fc bc 79 65 2c bc 67 a0 d8 3c
       0.003873692 -0.030798737 -0.01052224 0.026443673
000050 e9 56 20 3d 64 56 84 3d c7 3e a9 3d 22 9a 3e 3d
       0.039145384 0.0646179 0.08263927 0.04653371
000060 5c 3b 2f bc ae 00 b0 bd 32 ba ac 3d fc 5d 69 3d
       -0.010695305 -0.0859388 0.084339514 0.056974396
000070 9e 18 c2 3d 06 be 9e 3c 47 53 d0 3c 1a 02 0b 3d
       0.094773516 0.01937772 0.025430335 0.03393755
000080 e6 79 a0 3d 39 d2 82 3d 10 2f 3a 3d 70 be 99 bc
       0.0783575 0.06387753 0.04545504 -0.018767565
000090 61 bc 50 bd 68 72 87 3c ff 50 84 3d 75 f1 30 bb
       -0.050960902 0.016534045 0.06460761 -0.0026999388
0000a0 46 5f b4 3d aa e1 89 bd 60 7c 63 3d 6b 9b af 3c
       0.088072345 -0.06732495 0.055538535 0.021436414
0000b0 8e 26 89 bd 86 ed 3c 3d e1 d5 6d bd 65 e7 8d 3d
       -0.06696807 0.046124958 -0.0580653 0.06928901
0000c0 0c cc 61 3d 1c c5 b7 bd b6 e8 53 3d 14 4b 83 3c
       0.055126235 -0.089731425 0.051735602 0.016027011
0000d0 7d 92 45 3d 01 9e 46 3d b1 cb 70 bc 84 a2 20 bd
       0.048235405 0.048490528 -0.014697001 -0.039217487
0000e0 77 79 a8 bc 9c 64 11 bd 8a 3c b8 bd 4d 16 1d 3d
       -0.020565731 -0.03549634 -0.08995922 0.038351346
0000f0 76 30 33 bd 26 60 cb 3c dc 2b d1 bc 35 0c 93 3d
       -0.043747388 0.02482612 -0.02553361 0.07180063
000100 5b ec f0 3b 53 e3 be bd 69 f8 8b b9 c2 8f 75 bc
       0.0073523945 -0.093207024 -0.00026697226 -0.014987888
000110 c3 07 58 bd a4 56 b0 3d de 35 95 3c 82 cb fe bc
       -0.052741777 0.086102754 0.018214162 -0.0311029
000120 e3 f4 ca bd 91 64 bb 3d c1 c6 9c bd 25 84 19 3c
       -0.0990999 0.09150041 -0.07655097 0.009369885
000130 e7 ad 7c 3d a4 00 af bd b4 c1 07 3d fc be c4 3d
       0.061689284 -0.08545044 0.033143714 0.0960674
000140 ff 96 26 bd e8 b7 0a bd e2 05 ba bd 3d 56 cc bd
       -0.040671345 -0.033866793 -0.09083153 -0.09977386
000150 f9 4f e4 bc 32 a2 9c 3d 26 91 e7 39 0f ab 9a bd
       -0.027870165 0.07648124 0.00044167897 -0.07552158
000160 1c 98 85 3d 8a e7 2b 3c 49 ef be 3d 64 85 c8 bd
       0.06523153 0.010492215 0.09322984 -0.09791067
000170 1a 7c bb bd 91 25 2b 3c b9 3c a3 bd 29 a5 b0 bd
       -0.0915453 0.010445968 -0.07970566 -0.08625252
000180 a0 95 90 3d ce 57 a9 bd bf 7c a4 bd 74 b3 ee 3c
       0.07059789 -0.082687005 -0.08031606 0.029138304
000190 80 47 05 3d 4e 7e c1 3d 8e 3b 02 bd e8 18 22 3c
       0.03253889 0.09447919 -0.031795077 0.009893633
0001a0 6e 71 7b bd a4 aa b5 3c c7 05 89 3c 88 72 39 bd
       -0.06138747 0.022176094 0.016726388 -0.04527524
0001b0 b4 06 9a 3d 3e e5 bf bb 5c 98 a4 bc c1 fc 03 bd
       0.0752081 -0.005856185 -0.020092182 -0.032223467
0001c0 a0 a6 9d bc 0d 06 67 bc b1 5e d1 3c 27 df 93 3d
       -0.019244492 -0.014100564 0.025557848 0.07220297
0001d0 2e 5b 61 3b 56 ea b5 3d 24 5e fc bc d9 22 2a 3d
       0.0034386623 0.08882587 -0.030806608 0.04153714
0001e0 48 d2 c0 bd d1 36 4e 3d 33 72 c6 3c 31 08 1a 3d
       -0.09415108 0.050345246 0.024224376 0.03760547
0001f0 cf 4a a6 bd 61 68 a6 3d 3f 68 29 bd 72 5c 90 bb
       -0.08119737 0.081253774 -0.041359182 -0.0044055516
000200 46 2a 86 3d 65 e0 bf bd 57 b4 91 3d b0 73 5c bd
       0.06551032 -0.09368972 0.07114475 -0.053821266
000210 1e e5 c0 bd 3c 32 59 bd 30 24 a2 bd d4 e2 9e 3d
       -0.09418701 -0.053026423 -0.079170585 0.07758108
000220 9a 88 54 3d cb 87 88 bd ed b1 1e 3d 27 a1 39 3d
       0.051888086 -0.066665255 0.038743902 0.045319702
000230 0d 5e 9c 3b aa 31 5d 3d 9d eb af bd c5 1b 93 3d
       0.004771954 0.05400244 -0.085898615 0.07183031
000240 23 e3 8f 3d 20 a1 08 3b 5f 7f 04 bc c1 2a 8e bc
       0.07025745 0.002084799 -0.008087008 -0.017354371
000250 62 7c c1 bb f7 a0 6d bd 21 47 f0 3c 82 83 9b 3c
       -0.00590472 -0.058014836 0.029330792 0.018983606
000260 64 7d a3 bb 93 02 cc 3d 03 59 91 bb a4 2d a2 bd
       -0.004989313 0.099614285 -0.00443566 -0.079188615
000270 87 3b 25 3c 4c c9 aa bd 1f f7 a7 bd 9d 51 2e bd
       0.010084993 -0.083391756 -0.082014315 -0.0425583
000280 33 a5 a4 bd 24 80 9f bd a1 ca b2 bc 3d ae 08 3c
       -0.08039322 -0.07788113 -0.021825137 0.008342323
000290 72 e8 ae bb 7d 16 80 3c 83 4f a0 3b a3 ae ab 3d
       -0.0053377682 0.015635723 0.004892291 0.08382919
0002a0 3a a3 44 3c f9 d4 e2 3b e3 07 a4 3b 6e 1d 0a 3b
       0.012001807 0.006922361 0.005005823 0.002107467
0002b0 11 88 7e bc 63 7a 5e bc 2a 95 b2 3d 1e cf ba bb
       -0.01553537 -0.013578984 0.08719857 -0.00570096
0002c0 b1 5a 9f 3d bc c8 2b 3d 28 09 c7 3d fd 2b b1 3d
       0.0778097 0.041939482 0.09718543 0.08650968
0002d0 19 c4 97 bd 91 18 92 bd dd e0 b4 bd 4b 0f ba bd
       -0.074104495 -0.07133592 -0.08831952 -0.09084948
0002e0 48 93 c2 bc 5b 06 7b bd 70 c7 9a 3c a1 af 72 bd
       -0.02375187 -0.061285358 0.018893927 -0.059249524
0002f0 36 de 81 3d c5 fa cb 3d 3c 3b 35 3d 82 57 f3 3c
       0.063412115 0.0995994 0.044245943 0.029704813
000300 6f 75 c2 bd d4 cb 92 bd 31 e0 b9 bc 8e 7d 46 3d
       -0.09495055 -0.071677834 -0.02268991 0.048459582
000310 7a 1f 7f 3c 72 b8 ed 3c 6e 46 b6 bd 0b 52 96 3d
       0.015571469 0.029018614 -0.08900152 0.07339867
000320 0a 66 93 bd 4d e1 36 3d 42 a6 83 3d 22 d1 8a bb
       -0.07197197 0.044648457 0.064281955 -0.0042363564
000330 7f 18 78 3d 96 39 2d 3d 95 c8 c6 bb 55 fe c5 bd
       0.060570236 0.042291246 -0.0060663917 -0.096676506
000340 c4 32 81 bd b4 85 99 bb fa 0a 80 3d a3 89 f6 3c
       -0.06308511 -0.004685128 0.062520936 0.030094927
000350 a0 4a 03 bc b8 36 4d bd b9 fd 72 3d 93 fc 44 3c
       -0.008013397 -0.050101012 0.059324 0.012023109
000360 2f d5 83 3d 58 66 02 3d 95 01 92 bc c7 39 a8 3d
       0.06437146 0.031835884 -0.01782302 0.08214145
000370 0a 25 fd bc 58 1a cc bd 73 0e 00 3d 1b bc 82 bd
       -0.03090145 -0.09965962 0.03126378 -0.063835345
000380 7a 4a 5d bd 46 ba c7 bd fb b1 ac bd 26 84 81 bc
       -0.054026105 -0.09752326 -0.084323846 -0.015810084
000390 77 1d 77 bd eb ed 09 3d a4 65 86 bd 18 2d b5 3d
       -0.060330834 0.033674162 -0.06562355 0.088464916
0003a0 47 3c b9 3d 56 70 6a bc 5f 04 1e 39 94 cb dc 3c
       0.090447 -0.01430901 0.00015069683 0.026952542
0003b0 99 b4 bf bb 5f 2a c3 bd 35 9b 91 bd a5 21 20 bd
       -0.0058503863 -0.09529566 -0.071096815 -0.039094586
0003c0 f1 b8 43 3d d1 7a 06 3c 46 6e b1 bd 95 21 ad bd
       0.047783796 0.008207993 -0.08663611 -0.08453671
0003d0 08 36 9e 3d 91 7c 8b 3d 2a 52 c6 bd c3 18 96 3d
       0.077251494 0.068108685 -0.0968364 0.07328942
0003e0 d6 b6 0a bd e1 7c f1 3b 18 96 88 bc 41 06 07 3d
       -0.033865772 0.007369623 -0.016673133 0.03296495
0003f0 a7 7d 7b 3d 5c fb 2f 3d 1b 4b 51 bd e5 91 12 bd
       0.06139913 0.042964324 -0.051097017 -0.035783667

cell_list.0.conv_can.weight f4 [10, 11, 3, 3]
000000 60 b4 6a bd d6 50 af bd df e1 b3 3d 25 83 8b 3d
       -0.057300925 -0.0856034 0.08783316 0.06812123
000010 52 6d 70 bb 1f 1f 17 bb 13 16 17 3c 44 b2 9b bc
       -0.0036686254 -0.002305932 0.0092215715 -0.019005902
000020 72 61 4d 3c 6c 34 47 3d 7f 5b 8d 3d e2 9e 96 3d
       0.01253544 0.048633978 0.06902217 0.07354523
000030 7d 34 29 bd 7e 3a af bd 13 f2 c7 3d 64 4d ad bd
       -0.041309822 -0.085560784 0.09762969 -0.08462027
000040 b9 89 af bd 66 39 a5 3d 67 1c c1 3b 3e ae 82 3c
       -0.085711904 0.080675885 0.0058932784 0.015952226
000050 78 f3 1e bc b2 9e bb bd e3 2d 2d bd b5 f1 9a 3d
       -0.009701602 -0.09161128 -0.04228009 0.07565633
000060 28 81 8d bd 21 1e c3 3c c1 19 5b bb c5 3a 5e 3c
       -0.069094 0.023818078 -0.0033432099 0.013563816
000070 4b 7b 98 bd bc 7d b7 3c de 25 f7 bc fe bd 5a bd
       -0.07445391 0.022398822 -0.030169424 -0.053403847
000080 d5 33 47 bd bc 4e 5d bc 17 e4 b6 bb 2d e0 b6 3d
       -0.048633415 -0.013507541 -0.0055813896 0.08929477
000090 38 d6 ca bd 89 bc 5a bc 5c ba a9 3d 5e cb b4 3d
       -0.0990414 -0.013350614 0.08287498 0.08827852
0000a0 49 af 2d bd d3 5a 05 3c 78 0c 3f 3d 90 bf be 3d
       -0.042403493 0.00813933 0.04664275 0.093138814
0000b0 f2 3c b4 3d 6d 92 2b 3d e8 e1 b9 3d 7c 1c 68 bd
       0.08800687 0.04188769 0.09076291 -0.05666779
0000c0 8c b3 8a bd 25 9f 9b bc 89 46 96 bc 62 45 15 bd
       -0.06772527 -0.018996784 -0.01834418 -0.03644312
0000d0 28 97 1e bc 04 06 58 bd bb 43 51 bb b6 d7 b4 3c
       -0.009679593 -0.052740112 -0.003193124 0.022075515
0000e0 71 88 c6 3d 90 04 5a 3d 8f 57 56 bd df 28 05 3c
       0.09693993 0.053227007 -0.052329596 0.00812742
0000f0 47 4d e6 bc 94 1f 56 3d 1a a4 28 bc 82 da 5b bd
       -0.02811302 0.05227621 -0.010293031 -0.053675182
000100 34 9e ae 3d e0 19 1c 3d 33 a7 3e bd a2 fc 22 3d
       0.085262686 0.038110614 -0.046546172 0.03979171
000110 52 43 8c 3d ad cb a4 3d 45 f7 7f bd d3 98 4d bb
       0.06848778 0.080466606 -0.062491674 -0.0031371608
000120 d7 8d e8 bc 56 b5 cc bd 66 1b 21 bd d8 fc 00 bd
       -0.028387947 -0.099955246 -0.03933277 -0.03149113
000130 15 aa 85 bd e5 46 dd 3c d5 30 75 bd 22 ce c2 3d
       -0.06526581 0.027011344 -0.059861023 0.09511973
000140 c8 7e b4 bd ca ff 8c bd e5 38 b1 3d 6e fc c7 3d
       -0.08813244 -0.068847254 0.0865343 0.09764944
000150 81 06 80 bd e6 1e bf bd 35 0a e5 bc 0f b7 a4 3d
       -0.062512405 -0.09332065 -0.027958969 0.08042728
000160 31 21 38 bd 13 6b 78 bd a8 97 1b bb 16 ec 0b 3d
       -0.04495353 -0.06064899 -0.0023741517 0.034160696
000170 36 51 ad bd 5a 35 76 bd 96 26 77 bd a5 b0 a4 bd
       -0.084627554 -0.060109474 -0.060339533 -0.08041505
000180 07 6d 10 3d 0b e7 9a 3d 0a 28 4f 3d 19 77 8a bd
       0.035260227 0.07563599 0.050575294 -0.06760997
000190 90 07 b6 bd c0 4a 83 bc 2f 08 c5 bc 86 88 26 3d
       -0.08888161 -0.016026855 -0.024051754 0.040657543
0001a0 eb d4 a2 bd dc 63 4a 3d ad cb 82 bd 25 06 a0 ba
       -0.07950767 0.04941164 -0.06386504 -0.0012208862
0001b0 47 a4 74 bc 2f 2c 35 bd 99 52 a6 bd 6a fb 88 bd
       -0.014931745 -0.04423159 -0.08121223 -0.066885784
0001c0 ba 12 b0 bd 16 a3 3c bd 1c 3c a4 bd f3 f0 a5 3d
       -0.08597322 -0.04605397 -0.080192775 0.08102598
0001d0 54 bf 89 3d 20 5a bc bd 5e 3b fc bc 94 54 cd bd
       0.06725946 -0.091968775 -0.030790027 -0.100258976
0001e0 9b 02 0e 3d fa b2 cb bd 3b a1 61 3c ab 7d 60 bb
       0.034670454 -0.099462464 0.0137713505 -0.0034254591
0001f0 f1 db 80 3d b8 c3 95 3d 99 77 21 bb 22 a2 73 bd
       0.062919505 0.07312721 -0.0024637936 -0.059480794
000200 53 4e a0 bd 2d 3a bb bd 13 13 a7 bd b0 b2 62 bd
       -0.07827439 -0.091419555 -0.08157935 -0.05534619
000210 eb 42 6d 3d 84 fe ec ba 25 a3 b4 bd 1d 68 85 bd
       0.057925146 -0.0018081223 -0.0882018 -0.06513999
000220 ca 86 a9 bd 7f 9e 57 bd b6 4a a1 3d 80 d9 c1 3d
       -0.08277662 -0.052641388 0.07875578 0.09465313
000230 49 29 14 3d c0 fe 95 bd e5 a6 5f bd 41 eb 8f bd
       0.036172185 -0.0732398 -0.054602522 -0.07027293
000240 17 dc 88 bd 9c a6 9b 3c c7 2e c8 3c 6a fd 50 bd
       -0.06682604 0.019000344 0.024436368 -0.051022924
000250 03 ce a5 3d 1b e7 1e ba dc 6f c1 3d 44 a5 b0 3d
       0.08095934 -0.0006061659 0.094451636 0.08625272
000260 0c 42 77 bd b8 ea 91 bd 0c 09 b6 bd ce f5 b2 3d
       -0.06036572 -0.07124847 -0.08888444 0.0873829
000270 1d 8f 3e 3d b8 a3 c4 bd 3d e2 62 3d d2 3c 88 bc
       0.046523202 -0.096015394 0.05539154 -0.016630564
000280 15 6c 8b bc 5e d8 a4 3d 23 55 32 bc f1 8c a8 bd
       -0.017019311 0.08049081 -0.010884556 -0.082300074
000290 31 63 b2 bd e6 e5 4d 3d 52 63 ed bb 5d d2 04 bd
       -0.087103255 0.050268076 -0.007244506 -0.03242718
0002a0 af 8b b1 3d cd 0b 4e 3c 20 60 ce bb 6e 87 a6 3d
       0.08669221 0.012576056 -0.00629808 0.081313
0002b0 1d 73 8b 3d 67 35 b5 3d de c1 a9 3d af 1d 27 3d
       0.068090655 0.08848076 0.0828893 0.040799793
0002c0 54 cf 43 3d 4b 3a 8c bd e3 2e 89 3c d0 98 9a 3d
       0.047805145 -0.06847056 0.01674599 0.07548678
0002d0 6b ef 13 3d f4 f4 3d bb 85 dc a6 3a 5b 48 9e 3d
       0.036117 -0.0028985115 0.0012730515 0.077286445
0002e0 69 a7 c0 bd 1f 65 a9 bd 3b fc d7 bc 63 d3 66 3d
       -0.09406931 -0.082712404 -0.02636539 0.056353938
0002f0 db 5d a8 3d 59 1e 2d 3b a5 19 9d bd 40 56 c2 3d
       0.082210265 0.0026415794 -0.07670907 0.09489107
000300 21 3a 8f 3d 6c 1d 4f bd 52 70 e5 bb af fc 6e bd
       0.06993509 -0.05056517 -0.007001915 -0.058346447
000310 65 f9 a0 bd 28 4f 4d bc 45 54 98 bd aa 1f d9 bc
       -0.07860068 -0.012531079 -0.07437948 -0.026504356
000320 a4 f0 bb 3d ca 24 42 bd 75 e7 64 bd 1f 50 c2 bd
       0.09176758 -0.047398366 -0.055884797 -0.09487938
000330 0f 4c bd 3d de a2 ba 3d 4a 0b 42 bd 2f 49 31 bd
       0.09243023 0.09113096 -0.047374047 -0.043282684
000340 37 f4 2e 3d d4 43 66 bc 67 ab 48 bc 68 ce 64 ba
       0.04271337 -0.014054257 -0.012247897 -0.00087282667
000350 8d dc ba bd 24 3e f7 bc 3c e9 c1 3d d3 da ba 3d
       -0.09124098 -0.030180998 0.09468314 0.09123769
000360 8c 08 92 3d 36 46 a7 3d 4e b8 9f bc 08 4e 9a 3d
       0.071305364 0.081676885 -0.019497063 0.075344145
000370 bd d7 7f bd 15 a2 4d 3d 3e 41 1d bd 19 a5 c6 bd
       -0.062461603 0.0502034 -0.038392298 -0.09699459
000380 88 be 46 3d 97 33 c8 3d e1 07 a1 bd 19 d1 99 3d
       0.04852155 0.09775465 -0.07862831 0.07510585
000390 88 13 c4 3c ab b2 b8 bd 8a 3f ea 3c d9 c0 a5 3d
       0.023935094 -0.09018453 0.02859475 0.080934234
0003a0 e0 25 91 3d 12 0e 8f bb 91 6a 9c bc 16 91 c4 bc
       0.07087302 -0.004365691 -0.019093784 -0.023994964
0003b0 08 48 c9 bd 87 1c 30 bd 74 9f c2 3d 11 3d bb bd
       -0.09828192 -0.042995956 0.095030695 -0.09142507
0003c0 f7 f7 04 3d 62 2b 05 3c e1 16 81 bd 79 52 b7 3d
       0.03246304 0.008128019 -0.06303192 0.08951277
0003d0 08 c5 b0 bd df 45 91 3d b4 8f 19 3d 77 f5 c4 bc
       -0.08631331 0.07093405 0.03749056 -0.024042828
0003e0 ef b1 5d 3d bf 01 43 bd 4b 83 8a 3d 09 c3 8d 3d
       0.05412477 -0.047609087 0.067633234 0.06921966
0003f0 15 63 07 bc 73 97 c7 bd 97 24 cb bd fd f7 47 bd
       -0.008263369 -0.097456835 -0.09919088 -0.048820484

cell_list.1.conv_gates.weight f4 [20, 20, 3, 3]
000000 49 0b 42 bd d5 05 cf 3c 0a a6 2d bd f8 4f ff bb
       -0.047374044 0.025271336 -0.042394675 -0.0077915154
000010 2b 8f 33 3d 2a aa 85 bd 62 12 85 3c 38 74 36 bc
       0.043837707 -0.06526597 0.016244117 -0.011136107
000020 ac 6e 44 3c 11 f2 1f 3d a4 ca 4f 3c 09 95 3d 3d
       0.011989277 0.039049212 0.012682591 0.04628471
000030 a7 3b 30 3d 3a 9f 65 3d 04 41 90 3d 0f ca 70 bc
       0.04302564 0.056060053 0.07043651 -0.014696612
000040 1e 88 07 bd d6 73 7d 3d 40 a7 09 3d ff a3 0e bd
       -0.033088796 0.061878048 0.033606768 -0.034824368
000050 62 c9 fb bc a5 5b 81 bc 18 36 79 3d 84 f1 8f 3d
       -0.030735675 -0.01579077 0.060842603 0.07028487
000060 62 17 ed 3c e4 79 40 bd b2 e0 ba bc 70 4a 1a bd
       0.028941814 -0.046991244 -0.022812221 -0.037668645
000070 a4 75 88 bd cc 55 44 bd 5f 2d 3b bc 30 13 15 bd
       -0.06663063 -0.047933385 -0.0114243915 -0.03639525
000080 a3 1a 40 bd 3f 34 11 bb fc 77 8e bc 0f e3 1a 3d
       -0.046900403 -0.0022156385 -0.017391197 0.037814196
000090 fb 49 33 bd f0 38 14 bd 32 c0 0c 3d 75 98 2e 3d
       -0.043771725 -0.036187112 0.03436298 0.042625863
0000a0 cb bc 57 bc c1 bb fc 3c 8d cf d3 bc 33 a0 1f bd
       -0.01316757 0.030851247 -0.025855804 -0.038971137
0000b0 ff f8 e4 bc cb ec 15 3d b5 84 8c 3d 73 8d 04 3d
       -0.027950762 0.036602776 0.06861249 0.03236146
0000c0 30 95 96 3d ae f2 2d bd 21 52 5a 3d 60 a9 79 bd
       0.07352674 -0.042467766 0.05330098 -0.060952544
0000d0 31 6c 74 3b 8e d3 4e bb a2 99 96 bc e2 05 38 bd
       0.0037295932 -0.0031559202 -0.018383805 -0.044927485
0000e0 53 a0 11 3b ec fe 96 bd a2 84 de 3c e3 67 42 bd
       0.0022220805 -0.07372841 0.027162854 -0.047462355
0000f0 d3 e2 83 bd 7e f7 d9 bc 41 19 49 bd 89 60 3c bc
       -0.06439748 -0.026607271 -0.04909635 -0.011497625
000100 f8 09 18 3c 6a 04 77 3c e4 e6 a7 3a 31 a5 b3 bc
       0.0092797205 0.015076736 0.00128099 -0.021929355
000110 9d 56 38 bc fc fc 32 3d de 32 59 bd 63 5d 14 3d
       -0.011251119 0.043698296 -0.053027026 0.036221873
000120 a0 d5 83 bd 8e c5 22 bd 57 f9 cf 3c 56 aa 71 3c
       -0.0643723 -0.039739184 0.02538745 0.014750084
000130 8f a1 33 3d 55 3d 35 3c cc 0d 50 bc 3c 0b 80 3d
       0.043855246 0.011061986 -0.012698602 0.06252143
000140 12 e2 5c bd fc aa 6f 3d c0 d4 9c 3a 5c ea 65 3d
       -0.053926535 0.058512673 0.001196526 0.056131706
000150 7e f5 4a bd 99 fb 9a 3b 88 cc 92 bc cf 55 5f bd
       -0.049550526 0.0047297 -0.017919794 -0.054525193
000160 0a ea 59 bd 49 0e 94 bc 29 73 19 3d 4d 97 52 bb
       -0.053201713 -0.018073218 0.03746334 -0.003213364
000170 9f f2 88 bd 3c cb cd 3c 42 16 92 3d 84 93 c1 3b
       -0.06686901 0.025121324 0.071331516 0.005907478
000180 13 6c 8c 3c 21 25 8f 3b c8 7d 5c bd 79 69 2a 3d
       0.017141378 0.00436844 -0.05383089 0.041604493
000190 8c 15 88 bc 47 e9 09 3d 32 e9 3d 3d ea f6 fc bb
       -0.016611837 0.033669736 0.04636497 -0.007719864
0001a0 2d 7a 92 bd 1b 08 8b 3d e9 e5 86 3c 06 a3 9b 3c
       -0.071522094 0.06788655 0.016467052 0.018998634
0001b0 e4 63 7f 3d 34 0d 87 bd 84 c2 26 3d 21 85 73 3b
       0.062351122 -0.06594315 0.04071285 0.0037158208
0001c0 b2 c4 cd bc ba 1f c6 bc af 11 32 3d df 65 98 bb
       -0.025118206 -0.02418505 0.043473896 -0.004650816
0001d0 8b 9f 84 bd ae 57 b0 bb 39 81 02 bd 2e 1b 8d bd
       -0.06475743 -0.005381546 -0.031861518 -0.0688995
0001e0 ff a3 8a 3d 07 40 22 bd a7 79 23 3a 5c c6 7e bd
       0.06769561 -0.039611842 0.0006236084 -0.06220089
0001f0 df 30 6c bd 05 2c 35 3d 7a 6a 9a bc 1a 07 97 bd
       -0.057663795 0.044231433 -0.0188496 -0.073744014
000200 e7 15 df bc 7d cc d9 bc 4b 8f d4 bc 6a 4e 83 bd
       -0.027232124 -0.026586765 -0.025947234 -0.06411441
000210 48 13 67 bd 33 c1 8f bd c4 88 0a bd 80 11 ef 3c
       -0.056414872 -0.07019272 -0.033821836 0.02918315
000220 b6 f5 02 bd 38 f8 35 3d 46 95 af bc bc 2a 3f 3b
       -0.03197261 0.044426173 -0.021433484 0.0029169759
000230 f0 7f 1c 3d 35 82 6f bd 12 84 0b bd fc 07 04 bd
       0.03820795 -0.058473784 -0.0340615 -0.032234177
000240 c8 7d 82 bd 37 67 cc bc a1 7e 6b bb 67 e8 65 bd
       -0.06371647 -0.02495156 -0.003593363 -0.05612984
000250 49 50 22 3d 18 d4 48 3d cc 55 68 bd d1 5a 8c bd
       0.039627347 0.049030393 -0.056722447 -0.06853259
000260 a2 69 25 bd 5c ae f4 3c 64 07 2d bc f7 1f 8b bd
       -0.040383942 0.029868297 -0.010560844 -0.06793206
000270 af db f8 bc 49 ab 2e 3c b8 3f 89 3d bf a4 3e bd
       -0.03037819 0.010660955 0.067016065 -0.046543833
000280 89 aa 82 3c c4 41 58 bd 40 c3 d1 bb db 81 10 3d
       0.015950458 -0.052797094 -0.0064014494 0.03528009
000290 90 ca 79 bd 50 d9 53 3d b2 2c 60 bd c6 57 5a bc
       -0.060984194 0.051720917 -0.054730125 -0.013326591
0002a0 89 7a 55 bd 28 f1 2b bd fe 52 ed 3c 8f 2d 35 bd
       -0.05211881 -0.04197803 0.028970238 -0.0442329
0002b0 21 89 9f bc e9 a4 79 3d 23 14 38 3d 15 e7 89 3d
       -0.019474568 0.060948286 0.04494108 0.067335285
0002c0 19 dd b0 3a 8b 4d 3a bb 83 e1 e7 3c 3e be 37 bd
       0.0013493627 -0.0028427567 0.028305775 -0.044859163
0002d0 6c 72 8a bd f2 0f 8c 3d 08 48 5b bd 9c b3 ed bb
       -0.067601055 0.06838979 -0.05353549 -0.007254077
0002e0 81 3f 37 bd 11 60 8e bd 53 68 33 3d 08 52 1a bc
       -0.044738296 -0.06951917 0.043800663 -0.009418972
0002f0 d0 e6 a5 bc 73 1f 16 3d 7f 24 b2 3c 5c c9 a4 3c
       -0.020251662 0.036651086 0.021745918 0.020115547
000300 5c 96 87 bd a6 56 0e bd 95 46 aa bb b2 ec 40 3d
       -0.06620476 -0.034750603 -0.0051964023 0.04710073
000310 ca 1b 3e bd be c1 95 bd 18 e0 bd bc f8 e9 91 3d
       -0.04641322 -0.07312344 -0.023178145 0.07124704
000320 26 78 2a bd e1 6c 27 bd 7a c1 cc 3c 24 14 d9 3c
       -0.04161849 -0.04087532 0.0249946 0.026498862
000330 34 c8 91 bd 9d 10 13 bd 4f 30 f8 bb 1e c7 d7 3c
       -0.07118264 -0.035904516 -0.007574118 0.026340064
000340 b4 c1 7a 3d 24 c0 1c 3d 5f 9b 8d 3d 5f 21 ac bb
       0.061219886 0.038269177 0.069144 -0.0052530016
000350 c7 8d bc bc 34 d4 cf 3c d3 1e 86 3d b9 5e 67 bc
       -0.023016823 0.025369741 0.06548848 -0.014121705
000360 f4 10 17 bd c4 e1 f7 bc 02 63 dd bb b5 25 bc 3c
       -0.036881402 -0.03025902 -0.0067561874 0.022967199
000370 6d ed 92 bd 52 03 c2 bb 74 02 19 3d a4 a7 32 ba
       -0.071741916 -0.005920806 0.037355855 -0.00068151415
000380 fd d5 11 ba bf b2 cb bb 1b 68 91 bc d4 33 ab bc
       -0.0005563198 -0.0062163766 -0.017749837 -0.020898737
000390 b0 d3 a6 bc e3 44 08 3d 5c 64 3a bd 40 8e 5e 3d
       -0.020364612 0.03326882 -0.045505866 0.05433488
0003a0 f0 cd 81 3d 1c b1 0a 3d 54 66 36 3d 5c de 79 3d
       0.063381076 0.03386031 0.04453118 0.061003074
0003b0 28 59 ad 3c de fa bb bc 17 be ba bc 15 ad 22 bd
       0.021160677 -0.022946771 -0.02279572 -0.039715845
0003c0 45 be c5 bc dc 43 7a 3d e0 bc 2e bd 93 ee 4e bc
       -0.02413858 0.061099872 -0.042660594 -0.012630123
0003d0 cf ee 8c bb cb 3c 4b bc df 5a e6 3c 84 d0 84 3c
       -0.004300929 -0.012404631 0.028119503 0.01621271
0003e0 49 fe ce 3c 7c 12 59 bd 70 5e 5b 3d 00 47 5d 3d
       0.025267737 -0.052996144 0.05355686 0.05402279
0003f0 47 95 1d 3d a2 02 bf bc 16 d5 ab bc c9 94 37 b8
       0.03847244 -0.023316685 -0.02097563 -4.3769167e-05

cell_list.1.conv_can.weight f4 [10, 20, 3, 3]
000000 ed ad 28 3e 88 9e 30 3e 25 db 1b 3e c9 4e 24 3e
       0.16472597 0.17247975 0.15220316 0.16045679
000010 f0 4a e0 3d 11 e4 41 bd 38 63 12 be 0e e7 85 bd
       0.10951793 -0.04733664 -0.14295661 -0.06538211
000020 20 f9 af bd b4 9f 88 3e 71 ff 75 3e 99 f8 1a 3e
       -0.08592439 0.26684344 0.24023224 0.15133895
000030 b2 d7 96 3d f9 4b 9a bd f2 b6 8c bc e1 6a c4 bd
       0.07365359 -0.07534022 -0.017177079 -0.09590698
000040 29 c5 18 be 15 20 2d be 9b 57 40 3e 28 b1 6d 3e
       -0.1491896 -0.1690677 0.18783419 0.23212111
000050 76 19 0b 3e 0e 63 20 bc 10 46 ec bc 21 52 7d bd
       0.13583931 -0.0097892415 -0.028842002 -0.061845902
000060 5c 3a 39 be 06 34 f0 bd 5c c3 2e be bf 7c 12 be
       -0.18088669 -0.11728673 -0.17066711 -0.143054
000070 ef 61 f3 bd a3 19 7b bc 05 7c d2 3d 9b 61 34 3e
       -0.11883914 -0.0153259365 0.10277561 0.17615359
000080 cd ec 7a 3e 33 c2 0e 3d 62 d9 04 3e 73 54 14 3e
       0.24504395 0.03485317 0.1297355 0.1448534
000090 73 97 cf bd da e4 36 bd 57 06 9c 3d 1b 10 df 3d
       -0.101363085 -0.044651844 0.07618397 0.10891744
0000a0 65 9d b9 3d 88 d7 f0 3d a3 fd 14 3e 33 c8 27 3d
       0.09063224 0.11759859 0.1454988 0.04096241
0000b0 2a 04 e4 bd 67 54 86 bc a7 2c aa bc 48 cb 9e b9
       -0.11133607 -0.016397668 -0.020773245 -0.00030287565
0000c0 8b b6 d9 3e 13 c3 cd 3e e8 47 5f 3e 41 db ae 3e
       0.42522082 0.40187892 0.21804774 0.34151652
0000d0 cc 14 da 3e 5d ea bf 3e fb f1 d5 3e 1a 6c b3 3e
       0.42593992 0.37483492 0.4178618 0.35043412
0000e0 13 bf 9c 3e e4 54 1f bc 55 48 31 3e 53 4e e2 3d
       0.30614528 -0.009724829 0.17312749 0.110500954
0000f0 f6 a8 a4 be a9 d9 8e be 50 84 72 bd 38 d2 a2 bd
       -0.32160157 -0.27900437 -0.059208214 -0.07950252
000100 d5 63 54 be 8b 85 77 be 79 73 e6 be c6 6f 06 bf
       -0.20741208 -0.24172036 -0.45009974 -0.525143
000110 64 39 ef be 73 5d a1 be 2c 8c ad be b8 64 87 be
       -0.46723473 -0.3151661 -0.33896005 -0.2644403
000120 cd af 30 3d ec 14 ed bc 9e b4 46 3c 27 86 74 be
       0.043136407 -0.02894064 0.012128023 -0.238793
000130 13 6a 62 bd 6a b7 8e bd 6d 65 57 be c5 30 de bd
       -0.05527694 -0.06968577 -0.21034785 -0.10849146
000140 53 00 66 3d 48 29 3c bd e6 b6 a1 3d ae a1 cf 3d
       0.056152653 -0.045937806 0.07896213 0.1013826
000150 46 08 08 3e 5e 57 5d 3d 98 44 02 bd 97 be d8 bc
       0.13284406 0.054038398 -0.031803697 -0.026458068
000160 26 20 dc bd 84 a5 4a be 69 3b 7c bd e1 fe 29 3c
       -0.10748319 -0.19789702 -0.061580095 0.010375709
000170 39 d4 81 bd fb fa 36 bc 05 98 ae bb d4 ab 91 3d
       -0.063393064 -0.011168237 -0.0053281807 0.07112852
000180 a5 0c f5 3c b7 bf 03 bd 1f 4f 37 3d b6 4e 09 bd
       0.029913256 -0.032165255 0.04475319 -0.03352233
000190 26 0a 80 3b cd c8 05 3d 98 5e 35 bd 96 c4 8e bd
       0.00390746 0.0326622 -0.044279665 -0.069710895
0001a0 08 43 c9 3b 17 e5 1b 3d 75 7a 11 bd 18 4e 21 bd
       0.006142024 0.038060274 -0.035517175 -0.039381117
0001b0 f2 22 07 3d 10 7b 67 3d ba ce 1f bc 37 d3 63 bb
       0.03299231 0.056513846 -0.009753877 -0.0034763345
0001c0 a2 28 b7 bb 6f 05 98 bd cc 8f 63 3d 9a c0 41 3d
       -0.0055895606 -0.074229114 0.055557057 0.04730282
0001d0 60 a9 00 3d 71 6d 8b bc 73 bb f0 bc 7d d3 cd 3c
       0.03141153 -0.01701996 -0.029386258 0.02512526
0001e0 3c 8d ab bc 70 5d 92 bc f0 f4 10 bd 4d 5c 88 3c
       -0.02094137 -0.01786682 -0.03538984 0.016645575
0001f0 9b b8 45 3c 95 54 90 bd 9d 7d 6f 3d 01 07 27 bd
       0.012067939 -0.07047383 0.058469404 -0.040778164
000200 a6 fc 8a bc 51 18 0e 3d 13 6c 4f bd 91 77 56 3d
       -0.016966175 0.03469116 -0.050640177 0.05236012
000210 1c 54 1b 3c 5d 5a e9 3c cd e6 5f 3d 32 f9 33 3d
       0.009480502 0.028485471 0.05466347 0.043938823
000220 8b 18 f4 3c 94 5b b7 3c e7 ac bb bc cf f5 8e bd
       0.02979686 0.022382535 -0.022909595 -0.06980478
000230 a1 bd f8 3b e9 a5 e1 3c 1e d4 95 3d 95 b4 13 3d
       0.007590965 0.027544932 0.07315849 0.03606089
000240 4a 4d 75 bd ae f2 94 bd 28 1a aa bb 15 29 19 3c
       -0.05988816 -0.0727285 -0.0051911063 0.009348174
000250 5c e4 31 bc 11 ef 70 bd 7f 68 03 3d 93 d8 56 bd
       -0.010857668 -0.05882174 0.032082077 -0.052452635
000260 59 a5 03 bc d2 01 15 bd c8 8e 41 3d 3d b4 89 3d
       -0.008035027 -0.03637869 0.047255307 0.06723831
000270 f7 e7 69 3d 80 a9 ec bc d6 ef 04 3c b2 92 69 3b
       0.057105985 -0.028889418 0.008113822 0.0035640416
000280 a2 f5 e5 bb 7d 55 1b bd c9 da 3f ba 7a 6a b8 3b
       -0.007017807 -0.037923325 -0.00073186733 0.0056279274
000290 e0 c7 8a 3d e5 5d 89 bd fa 88 c0 bc 09 9b 97 bd
       0.067764044 -0.06707362 -0.023502816 -0.074026175
0002a0 c8 b5 e9 bc 94 c8 88 3d d8 95 97 bd 31 2c 46 3d
       -0.028529063 0.06678882 -0.07401627 0.048381988
0002b0 ca ed e0 bc c7 fd a9 bc 2c b2 80 3d bc 1f 38 bd
       -0.027457137 -0.020750893 0.062839836 -0.04495214
0002c0 67 06 96 bd 44 a4 49 3d a4 ec 4a 3d 39 6f 1c 3d
       -0.0732544 0.04922892 0.049542084 0.038192008
0002d0 ec 2a 9a bd c7 96 47 bc a5 39 ee 3c d4 e6 09 3e
       -0.07527718 -0.012181944 0.029080221 0.1346696
0002e0 cc b3 1a 3d 96 e5 8f 3c 1b ac 9b 3d 1b 82 36 3d
       0.037769124 0.01756553 0.07601186 0.044557672
0002f0 04 b5 21 bc 24 8f 0b 3c 30 26 37 bd c9 f7 04 be
       -0.009869818 0.008518014 -0.044714153 -0.12985148
000300 06 77 7a 3e 72 bd 41 3e c1 be 80 3e b4 67 4b bd
       0.24459466 0.18919924 0.25145534 -0.049659446
000310 61 2e 03 be 10 cf 16 be d1 95 31 be f4 de 4b be
       -0.12810661 -0.14727426 -0.17342307 -0.19909269
000320 cb c7 f7 bd 5c 47 46 3e d2 e2 88 3e 8e 73 70 3d
       -0.12098654 0.19363159 0.2673555 0.05870395
000330 32 60 dc bd 1b 5c f8 bc da 75 49 3d 48 05 25 be
       -0.10760535 -0.030317357 0.049184658 -0.16115296
000340 71 05 90 be b8 1f 89 be 99 a5 8b 3e 71 e6 67 3e
       -0.2812915 -0.26782012 0.27274778 0.226465
000350 6e 3c 51 3e 94 e7 db bd 0c d0 da bc ca 19 23 3d
       0.20433208 -0.107375294 -0.026710533 0.039819516
000360 09 04 c8 3e bd 22 be 3e a7 2f b2 3e 9e be 84 be
       0.3906558 0.37135878 0.3480198 -0.2592668
000370 9a 5e 92 be 2d 40 3f be 2d 03 ff 3d c1 1e 9f 3d
       -0.285878 -0.18676825 0.124517776 0.07769538
000380 a2 fd 8e bc 00 f5 c4 be 08 55 8a be d9 51 48 be
       -0.017454926 -0.3846817 -0.27018 -0.19562472
000390 39 e9 93 3e 12 61 7c 3e e5 61 1f 3e 93 3c a3 bd
       0.28888872 0.24646404 0.15564688 -0.07970538
0003a0 0b a3 98 bc be 79 9e bc d9 34 c0 bd 3d 38 19 be
       -0.018632432 -0.01934516 -0.0938508 -0.1496286
0003b0 ca 00 58 be 89 2e 79 3e ae 20 95 3e ad a7 b7 3e
       -0.21094051 0.24334158 0.29126495 0.35870114
0003c0 e3 07 8a be 3e 6d 44 be f3 c8 6a be c7 39 84 3e
       -0.26959142 -0.19182298 -0.22928219 0.2582533
0003d0 58 5d 69 3e b1 e7 d8 3d 41 f4 95 be ff ba 69 be
       0.22789514 0.10591067 -0.29287913 -0.2282524
0003e0 66 de 1d be 53 38 87 3d 26 b7 c4 ba e6 72 58 bd
       -0.1541687 0.0660254 -0.0015008196 -0.05284395
0003f0 88 13 b6 3d 7f 4e 21 bd f9 45 0c 3c 5e 16 8a bd
       0.08890444 -0.0393815 0.008561605 -0.067425475

cell_list.2.conv_gates.weight f4 [20, 20, 3, 3]
000000 0e 16 51 bd c8 c9 75 bd 60 f7 5a 3d 63 18 c8 3c
       -0.051046424 -0.060006887 0.05345857 0.024425691
000010 e5 44 f6 3c 55 c3 97 bd b7 e0 da 3c bf e9 82 3d
       0.030062148 -0.074103035 0.02671848 0.0639224
000020 07 d2 9f 3c 47 65 8d bd e3 30 1e 3d 45 23 67 3d
       0.019509329 -0.06904083 0.03862084 0.05643012
000030 4a 95 48 bc 1a 55 c0 bb 9c 81 2d 3d 3e 35 c9 bb
       -0.012242625 -0.00586952 0.042359933 -0.00614038
000040 d5 5a 2d 3d 9a bb 07 bd 14 f9 95 bd 01 a1 8c bd
       0.042322952 -0.033137895 -0.073228985 -0.068666466
000050 34 2c 75 3d 78 fe 83 3d 40 5d e7 3c 98 35 42 3c
       0.05985661 0.064450204 0.028242707 0.011853598
000060 2c 50 90 3d 48 f8 6b 3d d7 ac 99 3c 95 5c b2 bc
       0.070465416 0.057609826 0.018759174 -0.021772662
000070 41 9b d7 bb 4c b8 a6 bc 13 98 79 3d 24 03 27 3d
       -0.006579787 -0.020351551 0.060936045 0.04077448
000080 f6 2d 78 bc 85 47 01 3c 9f 8b 1c bd b5 4b 92 3d
       -0.015147677 0.007890587 -0.03821909 0.07143346
000090 29 27 4b bd 9d e3 27 3a cd d8 16 3d 50 4b 05 3d
       -0.049597893 0.00064044615 0.03682785 0.032542527
0000a0 2b 6c 80 3d 90 11 0f 3d 59 ea 8b 3d 51 e4 29 bd
       0.062706314 0.03492886 0.06831808 -0.041477505
0000b0 86 40 83 3d d5 f7 8e 3c ea 7b 69 3d 0e ab 7f 3c
       0.06408791 0.01745216 0.05700294 0.015604747
0000c0 7c 49 80 bc e5 e7 90 bd 6b e7 61 3d ed 10 87 3d
       -0.01566004 -0.0707548 0.055152338 0.06595025
0000d0 fe da 88 3c 89 c8 54 3d f0 07 08 3d 0a ce 0c 3d
       0.016705986 0.051949058 0.033210695 0.03437618
0000e0 5b 1d 67 bd a8 49 68 3d db 03 de bc ae 48 ee 3c
       -0.05642448 0.05671087 -0.027101448 0.02908739
0000f0 e3 c7 7e 3d a9 55 6a 3d b7 71 41 bd e2 b2 7d 3d
       0.062202346 0.0572106 -0.047227588 0.061938174
000100 06 37 96 bd 66 0a e5 3b e8 23 40 3d b5 1e 36 3d
       -0.07334714 0.006989765 0.046909243 0.04446288
000110 77 23 3e bd f2 c4 0a bd b3 87 08 3d 8f 3c 35 3d
       -0.04642054 -0.033879228 0.033332538 0.044247206
000120 2c 77 98 bd 45 9c 44 bd 4f 82 97 bd 83 fa 20 bd
       -0.07444605 -0.048000593 -0.07397901 -0.039301407
000130 ee 89 80 3d 30 23 36 3d 7a 98 f0 3c 15 45 2a bd
       0.06276308 0.04446715 0.029369581 -0.041569788
000140 5b 99 21 3d b5 a1 6a bb 0f 83 a1 3b 08 a4 8c bc
       0.03945289 -0.0035801951 0.0049289535 -0.01716806
000150 23 5d 8b 3c 72 28 79 3d fd 97 fd bc 35 44 f8 bb
       0.017012184 0.060829587 -0.030956263 -0.0075764903
000160 2e 13 7b 3b 1c e7 8c bd 1b 1b 4c 3d 08 98 59 3c
       0.0038310993 -0.06880018 0.049830537 0.013280876
000170 6c ac e0 bc 29 0c b7 bb 6b 26 8c 3c e2 0c 76 bc
       -0.027425967 -0.0055861664 0.017108163 -0.01501772
000180 e5 0d 98 bd 59 13 58 3d 5d 9d 1e bd 4c b7 1f bd
       -0.07424525 0.052752826 -0.038724292 -0.038993165
000190 27 ad 3f 3d 7d 94 01 bd 36 44 99 3c 7d 8d 8e 3d
       0.04679599 -0.03163575 0.018709283 0.069605805
0001a0 27 10 01 bd ed 07 45 3d 09 65 7a 3d 59 75 2d bd
       -0.031509545 0.04810326 0.06113151 -0.04234824
0001b0 de 9b 0a 3c a4 66 6c 3d 7d 6d fa bc b1 85 0a 3c
       0.008460013 0.057715073 -0.030569786 0.008454726
0001c0 89 df db bc 88 50 7b 3d 72 3a ad 3b 76 54 0a 3b
       -0.026839988 0.061356097 0.0052865082 0.0021107472
0001d0 9d be 53 3b 77 4e 88 bd 16 87 26 bb d2 26 80 bd
       0.003230966 -0.06655591 -0.0025410107 -0.062574044
0001e0 9d 0c 63 3c 60 af 9e bc 19 fe 68 bd 1d 62 6c bc
       0.013857988 -0.019370735 -0.05688295 -0.014427689
0001f0 03 d4 5c 3d 7b f6 b2 3c 27 ba 98 3c 6e db a0 bb
       0.053913128 0.021846047 0.018643452 -0.0049089706
000200 11 6d d1 bc 21 9f fa 3b 62 fd 78 3d 91 86 a8 3c
       -0.025564702 0.007648364 0.06078852 0.020571979
000210 14 34 76 3d 6e fe 14 bd 82 3d c5 3c ce 9e 4a 3d
       0.06010826 -0.036375456 0.02407718 0.049467854
000220 71 b3 39 bc f2 91 2e 3c c9 aa 67 3c 3c 4e 28 bc
       -0.011334286 0.010654913 0.014139839 -0.010272559
000230 d5 d0 1e 3d 89 01 fd 3c c1 60 07 bd 94 cc 8c 3d
       0.038773376 0.030884521 -0.033051256 0.06874958
000240 84 49 c4 bb c9 60 c5 3c 84 de 73 3d 35 d7 f6 3c
       -0.005990209 0.024094002 0.05953838 0.030131916
000250 c8 f0 66 bc cf 8f 82 3d 74 9a b4 bc 84 0a a6 bc
       -0.014095493 0.063750856 -0.022046305 -0.020268686
000260 f0 ec c9 bc 92 cc 68 bd 6a 31 9b bc 16 85 c2 3b
       -0.024649113 -0.05683572 -0.01894446 0.0059362752
000270 92 2a 69 bc bd c2 8c 3c d9 76 50 bd e3 63 5f bc
       -0.014231341 0.017182702 -0.050894592 -0.013634655
000280 d0 5d 28 bc 8d d6 ea bc 01 98 83 3b a1 41 36 3d
       -0.010276273 -0.028666759 0.004015923 0.044496182
000290 5e 0f 67 3d fc d5 51 bd 87 a3 be ba 8a 25 5f bc
       0.05641114 -0.051229462 -0.0014544585 -0.01361979
0002a0 7c 88 4f 3d f4 66 80 bd fe 63 10 3b 86 2c 0d bc
       0.05066727 -0.06269637 0.0022032256 -0.008616572
0002b0 67 14 63 3c f6 d8 0d bd 03 8e 56 3d 72 35 6c 3d
       0.013859845 -0.03463074 0.052381527 0.057668157
0002c0 ee d6 d3 bc 70 d1 4c 3d b1 a9 88 3d 65 b1 91 3d
       -0.025859322 0.050004423 0.06672991 0.071139134
0002d0 a0 35 ed 3c 22 cb 6c 3d f6 7d 6b bd 4e 5c 19 3d
       0.028956234 0.05781091 -0.057493173 0.037441544
0002e0 66 2e 4a 3d 8f d8 2e 3d d6 29 8a bd c4 76 3c bd
       0.049360655 0.042686995 -0.06746261 -0.0460117
0002f0 c7 82 24 3c 7f 22 5c bd 9b c6 4d 3d 99 e5 40 3d
       0.010040945 -0.053743836 0.050238233 0.04709396
000300 d6 1f 88 bc e0 a9 5a bb 76 64 b5 bc ae d3 02 bc
       -0.016616743 -0.0033365414 -0.02214263 -0.007985039
000310 de 75 3f bd a3 21 48 3d db 16 3c 3d 65 4f 29 3d
       -0.046743266 0.048860203 0.045920234 0.041335482
000320 87 7e 71 3d dd fa 8c bd 1e 27 7f 3d 52 7c c3 3b
       0.058958557 -0.06883786 0.062293164 0.005965748
000330 25 a1 22 3d 71 6e bb 3c 47 14 24 3d 8d 62 72 bd
       0.03970446 0.022879811 0.0400584 -0.059176017
000340 86 f6 ed 3c 04 86 c2 3c bf 8e 4b 3c 62 e5 31 bd
       0.029048216 0.023745544 0.01242417 -0.043431647
000350 84 8c 90 3d 2b ec 80 3d 4c a1 75 bd ab f6 23 bd
       0.07058051 0.062950455 -0.059968278 -0.040030163
000360 12 04 0d bd 4e 3b 56 bd fb 35 49 3d 74 71 8c bd
       -0.03442771 -0.05230265 0.049123745 -0.06857577
000370 5d f2 4b bd 9a d8 4c bc 6c 75 78 bd 8c 8f 65 3d
       -0.049791683 -0.012502814 -0.060658857 0.0560451
000380 d3 0b 6a bd 94 9d 73 bd bf 99 8d 3d 6b fb 64 bc
       -0.057140183 -0.05947645 0.0691409 -0.013975958
000390 51 e7 be 3c 67 10 10 3c 13 cc 87 bd bf 5e 60 3d
       0.02330366 0.008792973 -0.06630721 0.054777857
0003a0 cf ce da bc bd 47 8a 3d 5d 9a 5a bd 5c 50 80 3d
       -0.026709942 0.06751964 -0.05336987 0.06265327
0003b0 02 65 96 3d b0 b9 05 bd 63 08 c7 3b 3d ca 94 3d
       0.073434845 -0.03264779 0.006073998 0.072651364
0003c0 d0 c7 55 3d 33 63 37 3d c4 e8 84 bd ae 24 4b bc
       0.05219251 0.044772338 -0.06489709 -0.012398882
0003d0 81 c6 89 3d 3a 5a 74 3c f8 58 d0 bc 4c 6f 80 3d
       0.06727315 0.01491409 -0.025433049 0.06271228
0003e0 c8 6b 6a bd 94 35 4e 3d fe ba 87 3d d8 0c e7 bc
       -0.057231694 0.050344065 0.06627463 -0.028204367
0003f0 2e ca c7 bc d1 1d 1f bd 94 8f 70 3d 94 e8 46 bd
       -0.024388399 -0.038846795 0.058730677 -0.048561648

cell_list.2.conv_can.weight f4 [10, 20, 3, 3]
000000 17 ac 6d bd 98 53 56 3c 81 c1 8a bc 8d 39 90 bd
       -0.058025446 0.013081454 -0.016937973 -0.07042227
000010 67 b4 ee bc fd 80 29 bc 47 c6 8a 3c 11 ad 53 3d
       -0.029138757 -0.010345695 0.01694025 0.05167872
000020 30 12 d1 bc 48 eb 94 bd 73 40 84 3d 24 b2 60 bd
       -0.025521368 -0.07271439 0.06457605 -0.05485739
000030 4e 65 0a bb 17 09 8e bd b2 34 84 bd 2f 97 c4 bb
       -0.0021117511 -0.069353275 -0.06455363 -0.005999468
000040 76 5a 94 3d 45 93 ec bc c5 b8 6c bd 5b 1d 30 bd
       0.072438166 -0.028878817 -0.057793397 -0.042996746
000050 9e c6 d4 39 30 09 b1 3c ea 50 17 bd 8e df 75 bd
       0.00040583772 0.021610826 -0.0369424 -0.06002765
000060 92 08 3b bd df 34 72 bd 1e f8 83 3d 05 a0 ff bc
       -0.04566247 -0.059132453 0.06443809 -0.031204233
000070 f6 92 0c bd 98 61 9c 3c 6e 2f ec 3c a1 55 e2 bc
       -0.03431984 0.019089505 0.02883121 -0.027628722
000080 a1 59 40 bd cf 5a 20 3d 6a a7 8a bd 8f da 7f 3d
       -0.046960477 0.0391491 -0.06770213 0.062464293
000090 76 a7 59 bc 13 12 30 bd 83 ab 0c bd 82 e6 0c 3d
       -0.013284555 -0.042985987 -0.034343254 0.034399517
0000a0 df 5e 0d bd a3 b4 3c bd 6b a7 6a 3d 98 1e 7c bd
       -0.034514304 -0.046070706 0.05728857 -0.061552614
0000b0 a4 27 0c bd 83 41 7f bd 49 40 e3 bc 17 c9 7a 3d
       -0.03421749 -0.062318336 -0.027740614 0.06122693
0000c0 41 e6 2a 3d 80 16 55 3d 79 6b a8 bc 09 ed 1e 3d
       0.041723493 0.05202341 -0.02055906 0.038800273
0000d0 c8 21 8d bd 57 95 18 3d 2b 6b 11 bd 85 05 8f 3d
       -0.06891209 0.037251797 -0.035502594 0.06983475
0000e0 16 d0 cc 3c 84 92 ca bb f0 ca 49 3d 43 3e e2 3b
       0.025001567 -0.006182017 0.049265802 0.006904395
0000f0 77 43 c6 bc 8e b2 16 3d df bc 96 bd 88 1c 8b 3d
       -0.024202092 0.036791377 -0.07360243 0.06792551
000100 00 0c 6a 3c 45 ec 32 bd 28 ba 01 bc 49 7b 95 3c
       0.014285088 -0.043682355 -0.007917918 0.018247264
000110 85 e7 7e bd 14 dc 70 3d 04 81 7a 3c 0f b8 91 bd
       -0.062232513 0.058803633 0.015289549 -0.071151845
000120 57 7f 82 bc 5f 2d 95 bd d4 d4 94 3d c8 99 e1 3c
       -0.015929861 -0.072840445 0.07267156 0.027539149
000130 14 bb 8f 3c f4 cd 33 3d 63 2c 8e 3d 0b d4 35 bc
       0.01754526 0.043897584 0.0694206 -0.011097918
000140 f5 8a ce bc 75 8d 30 3c 72 49 bc 3c 63 d7 03 3d
       -0.025212744 0.0107759135 0.02298424 0.03218783
000150 ee 72 0b 3d e5 02 5d 3d ac 35 40 3d 03 e8 22 3b
       0.034045152 0.05395784 0.046926185 0.0024857528
000160 50 ba e4 3c e7 cc 80 bd 05 16 b9 3c 9b 82 7e 3d
       0.027920872 -0.06289082 0.022593508 0.062136274
000170 05 1c 7a 3b a3 a5 19 bd 0f 96 8b bd 99 e3 23 3d
       0.0038163674 -0.03751148 -0.06815731 0.040011976
000180 2e 0b 08 bd 2b e5 69 3c 2c 59 88 bb 52 a6 7b 3d
       -0.033213787 0.014275829 -0.0041610207 0.061437912
000190 22 7e 78 bd eb ea 1d ba 3b 29 6f 3d 7f c5 c8 3c
       -0.060667165 -0.000602408 0.05838893 0.024508236
0001a0 f9 ac 76 bd 89 6c 37 3d ba a1 00 bd f8 20 06 bd
       -0.060223553 0.04478124 -0.031404234 -0.032746285
0001b0 c4 ec 23 bd 43 52 60 bd 06 ce 44 bd 25 45 e6 bc
       -0.04002072 -0.05476595 -0.04804804 -0.028109143
0001c0 c0 22 3b 3d 9b a7 01 3d 67 40 e0 3c 4a df 2c 3c
       0.045687437 0.03165398 0.02737446 0.010551283
0001d0 89 2f 18 3d 1c fc 0a 3d ee ac 02 3d 2e 0a 8b bc
       0.037154708 0.033931836 0.0319032 -0.016972627
0001e0 9b 59 9b bc 96 c3 58 bd af 61 7f bd ed 8e b8 bc
       -0.018963626 -0.0529209 -0.062349018 -0.02252909
0001f0 8e 17 6f 3d 5d 0f 0d 3d 43 cf 07 bd c4 8e 97 bd
       0.058372073 0.03443848 -0.033156645 -0.07400277
000200 23 a1 14 3d 6c 01 06 bd e7 67 7d 3d 05 95 fb 3c
       0.036286484 -0.0327162 0.061866667 0.030710706
000210 ef 4b 8f 3d 68 ae d0 bc 8b ae 36 bd fe 17 94 bd
       0.06996905 -0.025473788 -0.04460005 -0.07231139
000220 23 43 68 3d db 64 81 3d 25 aa 88 bd d7 dd 33 3d
       0.05670465 0.06318065 -0.066730775 0.043912735
000230 f9 47 c1 3c 45 21 88 3a dd b4 51 3c df 89 4f 3b
       0.02359389 0.0010385892 0.012799469 0.003166787
000240 ac a7 81 bb 57 2a 56 bd 0b 4e f6 3c f9 08 5b bd
       -0.0039567556 -0.052286472 0.03006651 -0.053475354
000250 e6 c6 4f bd 9c 69 09 bd 80 b4 a3 3c 50 cc 78 3d
       -0.050726794 -0.033547983 0.01998353 0.060741723
000260 1f 44 f7 bc 1e 37 2b 3d 09 da 86 bd 38 b2 e2 3c
       -0.03018385 0.04180061 -0.06584556 0.027672872
000270 f5 dc 48 3d 7e 58 ac 3c bb da 0b bd ab 28 2d bd
       0.049038846 0.02103829 -0.034144145 -0.042275112
000280 13 42 08 bd f4 28 98 3d eb 52 98 bd 55 98 31 bd
       -0.03326614 0.07429686 -0.0743769 -0.043358166
000290 88 07 74 bd a4 e9 4f 3d 6f 08 8f 3d 54 5f fc 3c
       -0.059577495 0.050759926 0.069840305 0.030807175
0002a0 93 c0 d7 3c 00 2b dc 3b 7a fc 54 3d f0 87 3d 3d
       0.026336944 0.006718993 0.051998593 0.04627222
0002b0 83 cf 6b 3d ce f0 0d bd 72 7f 18 bd 1f 3b 96 bd
       0.057570945 -0.034653477 -0.037230916 -0.07335495
0002c0 41 ee d1 3b d1 1d 33 3d 5d 81 5d 3d 73 99 f2 bc
       0.006406576 0.043729607 0.05407845 -0.029614186
0002d0 78 cc d9 3c 3c 23 c0 ba f2 13 8d 3d 83 07 4c 3d
       0.026586756 -0.0014658938 0.0688857 0.04981185
0002e0 0b 7a 0f bd 07 23 89 3d 81 97 81 bd c4 59 ba 3c
       -0.0350285 0.06696134 -0.06327725 0.022747882
0002f0 1c 89 7f bd e2 e6 03 3d a5 53 f2 3c e0 19 0a 3d
       -0.062386617 0.03220261 0.0295809 0.033716083
000300 d2 9e cc bc 8b bf 29 3d 46 28 81 3c d2 24 31 3d
       -0.024978075 0.041442435 0.015766274 0.043248005
000310 63 4a 1e bd d8 ae cc 3c fd cb 8a 3d 2a 97 5d 3d
       -0.03864516 0.024985716 0.06777189 0.05409924
000320 19 90 29 bd bd dd 2f 3c 64 cd 0d 3d 2d 9f 1a 3b
       -0.041397188 0.010734019 0.034619704 0.0023593411
000330 c3 fb f7 3a b4 6f 0a bc 63 9a 06 bd 6e 1b 32 3d
       0.0018919635 -0.008449484 -0.03286208 0.04348319
000340 d7 18 3b 3d ca fd 61 bb f3 7c 04 3d 2b a3 73 bd
       0.045677986 -0.0034483545 0.032345723 -0.05948178
000350 e6 d0 06 3d a1 20 93 3b a6 0a 9c bc 96 ff 48 3d
       0.032914065 0.0044899737 -0.019048046 0.04907187
000360 ad 62 5f bd ef 18 e5 3c ce 09 e0 bb 1b 7d af bc
       -0.054537464 0.02796599 -0.0068371063 -0.02142196
000370 98 28 6f 3d 94 bd 3e 3d 5b c5 7b 3c ee 24 6c bd
       0.058388323 0.046567515 0.015366877 -0.057652406
000380 d3 41 99 bb 2c 28 e3 bc c2 fd d6 3c 91 33 dd bc
       -0.0046770363 -0.027729116 0.026244048 -0.027002128
000390 f5 2b bb 3c fd 38 3e bd cc 90 b2 3c 43 18 56 bd
       0.022848109 -0.046441067 0.02179756 -0.05226923
0003a0 13 f6 8c bc 43 f6 c8 39 65 10 ed bc a6 1c 17 3c
       -0.017207181 0.00038330452 -0.028938482 0.009223139
0003b0 81 12 ca 3c 0d 48 b9 bc a5 8d 8b 3d c1 db 6c 3b
       0.024667026 -0.022617364 0.06814126 0.0036141726
0003c0 cd 3d 41 bc a5 15 28 3d 50 15 dc 3c f0 85 92 bd
       -0.01179452 0.041036267 0.026865631 -0.07154453
0003d0 62 6f ab bc 85 44 d6 bc 39 93 6d 3d ed 51 2e bd
       -0.020927135 -0.02615572 0.05800173 -0.0425586
0003e0 96 60 76 bd e7 58 82 3d e1 b6 52 3d 45 04 81 3c
       -0.060150705 0.06364613 0.05144394 0.015749106
0003f0 1d 59 81 bc 36 e2 dc bc d6 6d 5a 3c 10 e2 4e bd
       -0.015789563 -0.026963335 0.013331851 -0.05050856

cell_list.3.conv_gates.weight f4 [20, 20, 1, 1]
000000 f8 b3 7f 3d 77 6f c5 3d 7d f9 af bd f0 3f 98 bd
       0.06242749 0.09640401 -0.08592508 -0.0743407
000010 b6 42 21 be be 19 47 3e 8a 97 39 3e 92 18 66 bd
       -0.15748104 0.19443414 0.18124214 -0.056175776
000020 dc c8 f8 3d 00 42 1a be a5 bb 51 be 2f dc ee 3d
       0.12147686 -0.1506424 -0.20481737 0.116630904
000030 4d 08 5a 3e 79 a2 43 3d 26 fd 81 3d af c0 3e 3e
       0.21292229 0.047762368 0.06347112 0.1862819
000040 b0 4d 05 3e b8 b1 9c bd ca 59 17 3e 76 7f 33 be
       0.13017917 -0.07651085 0.14780346 -0.17529091
000050 d8 69 15 bd 46 85 64 be 1c dc 5f be 7e 62 f0 3c
       -0.036477894 -0.22316465 -0.21861309 0.02934384
000060 66 d8 92 bd 02 7f f3 3d 6d b2 5e be 35 bc 4a be
       -0.07170181 0.11889459 -0.21747752 -0.19798358
000070 8e 4e 4d 3c 71 95 ef 3c 53 cb 40 be 5f f8 5e be
       0.012530936 0.029246064 -0.18827562 -0.21774434
000080 fe ab 42 3e d2 da 70 bd 9b 39 5c 3e 56 53 5b 3e
       0.19010922 -0.058802433 0.2150635 0.21418509
000090 f5 1e 1e 3e 0f 85 ae 3d 43 18 89 3d b5 9b 10 be
       0.15441497 0.08521473 0.06694081 -0.14121898
0000a0 b8 63 01 3e 45 db bc 3d 28 21 59 3e 3e f1 ed bd
       0.12635696 0.0922151 0.21204054 -0.11618279
0000b0 53 5d 07 3e 66 b9 25 3e 1b e2 59 3e 5c ee 30 3e
       0.13219194 0.16184005 0.21277659 0.17278427
0000c0 b6 c4 85 bd 23 49 29 be 2a 67 54 3e 32 a8 6e 3d
       -0.0653166 -0.16531806 0.20742479 0.058265872
0000d0 98 8d 5b be 87 cc c6 3d 08 3c 42 bd ef 14 97 bd
       -0.21440732 0.09706979 -0.04742053 -0.0737704
0000e0 b2 af 53 3e ed 0e d6 bc 77 83 26 3e fe ff 51 3d
       0.20672491 -0.026130164 0.16261087 0.051269524
0000f0 47 e0 62 3e 90 cc 4d be 4a dc 6a 3b 02 c5 53 3e
       0.22155868 -0.20097566 0.003583687 0.20680621
000100 1b d6 2e be 1b 1f cc 3d 4e e1 06 3e d3 6f 62 be
       -0.17073862 0.099668704 0.13171884 -0.2211297
000110 d2 99 3b 3c 43 87 05 be aa 58 df 3d e5 98 a3 bd
       0.011450248 -0.1303988 0.10905583 -0.07988147
000120 55 cc 13 be 8d ee 8c bd a5 9b 02 be c6 39 23 be
       -0.14433415 -0.068814375 -0.12754686 -0.15940008
000130 c1 05 58 be bd ff 3d be f1 08 c4 bd ab db 76 3d
       -0.21095945 -0.18554588 -0.09572018 0.060268085
000140 f4 9f 93 bd 25 1e 20 be 99 bc 20 be f7 db 64 be
       -0.07208243 -0.15636499 -0.15696944 -0.22349535
000150 9f de 7f bd 69 69 ac bc e6 8a 10 bd e0 4f 02 be
       -0.062468167 -0.021046357 -0.035288714 -0.12725782
000160 06 46 0d bd 2b 46 dc 3c 78 03 2a 3e 3b 8b 30 be
       -0.034490608 0.026888927 0.16602886 -0.17240612
000170 07 ef 42 bd 36 a0 1f 3e f0 31 0f 3e 42 42 af 3b
       -0.047591235 0.1558846 0.13983893 0.0053484747
000180 6c 1e 0c 3e b0 9d 4b 3e 07 09 60 3e d7 02 08 be
       0.1368348 0.19884372 0.21878444 -0.13282333
000190 a5 fa 5c be df 4a 1c be 1d 17 e5 bd 21 11 1e be
       -0.21579988 -0.15262936 -0.11186049 -0.15436222
0001a0 16 2c da 3d 23 08 0b be eb 48 43 3e 97 01 8f 3d
       0.1065294 -0.13577323 0.19070785 0.06982725
0001b0 d7 37 4c be b1 13 81 3d 71 7d 00 be 81 05 42 be
       -0.19943176 0.06302584 -0.12547852 -0.18947412
0001c0 3e 1c 2b be f7 48 88 3d 0b c0 f9 3d 62 c4 09 3d
       -0.16709992 0.06654542 0.121948324 0.03363455
0001d0 8b b5 48 be 22 04 25 3e 71 62 15 3e 3d 58 54 bd
       -0.19600503 0.16114858 0.14588334 -0.051841963
0001e0 0d e3 64 3e 52 7b c8 bd 0a ee 0e bd e5 02 0f 3e
       0.22352238 -0.097891465 -0.03489498 0.13965948
0001f0 9a da d5 3c d0 fc 9f bd e6 26 5d be 92 9e 3a 3d
       0.026105214 -0.07811892 -0.2159687 0.04556138
000200 9c b6 06 3e 20 7b d0 bd e3 19 58 3e e3 a5 1c 3e
       0.13155597 -0.10179734 0.21103625 0.15297656
000210 0a 11 60 3d 24 9c e9 3d 9f dc 51 be e4 45 05 be
       0.05470375 0.114067346 -0.20494317 -0.13014942
000220 a6 62 d3 3d c7 fe 17 be e3 17 48 3e cd df 15 be
       0.1032155 -0.14843284 0.19540362 -0.14636154
000230 b2 c9 5b 3e 87 ad ad 3b 28 d4 25 be 0e 1b 54 3d
       0.2146366 0.005300227 -0.16194212 0.051783614
000240 97 65 47 be 2d b9 57 3e e6 63 b0 bd 95 cd 9b 3c
       -0.19472347 0.21066733 -0.08612804 0.019018928
000250 48 ea 9e bd 0a 4e 11 be aa f2 30 3e 41 f3 05 be
       -0.07759529 -0.14189926 0.17280069 -0.13081075
000260 ee ea 2d 3e 2f 7b 51 3e 05 67 64 3e 65 8f f8 bc
       0.1698415 0.20457147 0.22304924 -0.030341813
000270 f8 e8 2e be 61 ed d9 bd fe ce 4c 3e 9c 74 05 3e
       -0.17081058 -0.106409796 0.20000836 0.13032764
000280 e9 6b ff bd e8 4b f8 3d b8 2c cc bd 26 4b 1f be
       -0.12471754 0.12123853 -0.09969467 -0.1555601
000290 c8 4d 95 bd a1 60 a3 3d ff 28 51 3d 84 58 c5 bd
       -0.07290226 0.07977415 0.051064488 -0.09636024
0002a0 f8 53 f6 3d 67 66 5f bd 99 19 96 3d b2 5c 2a 3e
       0.120277345 -0.054541018 0.07329101 0.16636923
0002b0 80 98 ed 3d d8 9d b2 bd cb 21 59 3e 3e 4f 0a 3c
       0.11601353 -0.087215126 0.21204297 0.008441744
0002c0 91 b7 3e 3e 90 9e 08 3c bc c8 36 3e 59 2a 47 be
       0.18624713 0.0083385855 0.17850012 -0.19449748
0002d0 f9 14 9d 3d f5 2e dd 3d 2e 5e 9f bc 6f a7 5b 3e
       0.07670016 0.10799972 -0.019454088 0.2145059
0002e0 a6 8a cd 3d 45 68 30 bd 89 d3 29 bc 4f 54 69 3c
       0.10036211 -0.04306819 -0.010365375 0.014241292
0002f0 90 19 c0 3d 3c 9e 8d bd 82 c7 c3 3c 19 fe 08 be
       0.09379876 -0.069149464 0.023898844 -0.1337818
000300 31 6b c6 3c 33 d7 04 3e 55 3a 0c 3e 48 27 12 be
       0.024221035 0.12972717 0.13694127 -0.14272797
000310 ec d3 64 3e 22 36 52 3d 63 de 31 3e b5 35 4f 3d
       0.22346467 0.051321156 0.1736999 0.05058833
000320 63 7a 85 3d c3 c6 57 3e c2 0a 42 3e 23 51 54 bd
       0.06517484 0.21071915 0.18949416 -0.05183519
000330 1d e6 ca bd 1f f8 2c be 77 db 50 be fb 9e 16 be
       -0.09907172 -0.16891526 -0.20396219 -0.14709084
000340 ed 45 ba 3d f9 be 5d bd ea 79 05 bc dd b5 ee 3d
       0.090953685 -0.054137204 -0.008146742 0.116557814
000350 e2 23 53 3e 29 03 57 bc ca 20 66 3c c9 1b 1e 3e
       0.20619157 -0.013123312 0.014045903 0.15440287
000360 7a e1 59 3e b1 4b f4 bb c3 48 51 3e c8 bf 6a 3d
       0.21277419 -0.007455312 0.20437913 0.057311803
000370 77 db 44 be 5c 02 7a bd c0 55 90 3d 90 ee cf 3d
       -0.19224344 -0.061037406 0.070476055 0.10152924
000380 e7 a5 dd 3c 0c bf a9 bd 06 f0 0a be 51 47 ed bd
       0.027056647 -0.082883924 -0.13568124 -0.11585868
000390 33 36 84 3d c4 f4 4e be cc 62 5d be dd 9a 62 be
       0.0645565 -0.20210558 -0.2161972 -0.22129388
0003a0 8a 09 1e 3d 0f db 2d be bd 7a d2 bd 00 72 6f bc
       0.038583316 -0.16978095 -0.10277317 -0.014614582
0003b0 13 b8 c2 3d 0d ed fc bd 1d bb 3a 3e 05 40 27 be
       0.095077656 -0.12349901 0.1823544 -0.16333015
0003c0 03 81 c1 bc 8b 06 1b 3e 68 44 f3 3d 41 d6 54 be
       -0.023621088 0.15139215 0.11878282 -0.20784856
0003d0 e8 de 41 3e e3 e2 0e 3e 89 96 86 bd 26 a0 26 be
       0.18932688 0.13953738 -0.06571681 -0.1627203
0003e0 07 9d 5d 3e 07 01 3e be d9 55 31 3e 3a c8 b8 3d
       0.21641932 -0.1855508 0.17317905 0.09022565
0003f0 e6 1a 1e bd 67 ee 5b 3a 86 80 10 3e 74 52 41 3e
       -0.03859987 0.0008389712 0.14111528 0.1887911
