saved_models/audio_benchmark/random2_10.pt (torch, 118178 bytes, 14 tensors)

cell_list.0.conv_gates.weight f4 [20, 11, 3, 3]
000000 49 0a 0a bc 98 d5 61 bb 0c 60 1a bd 9e 66 bd 3c
       -0.008425304 -0.0034459587 -0.037689254 0.02312022
000010 d1 83 6b bd 16 31 91 bc 48 8e 1f 3d 7d 32 c1 3d
       -0.057498757 -0.017723601 0.03895405 0.09433458
000020 ed f7 c1 3c 0e aa 0b bd 67 e3 1d 3c 5c 8b 38 bc
       0.02367779 -0.034097724 0.0096367365 -0.011263695
000030 0a 09 28 3d 3e 8b 3c 3c 3b 42 21 3d 9f a0 c7 3d
       0.041024245 0.011507807 0.039369803 0.09747433
000040 c2 f1 2a bd b6 c8 68 bb 61 5a bd 3c 08 18 2c ba
       -0.041734464 -0.0035520024 0.023114385 -0.000656486
000050 60 b5 1d bc 6c 27 b6 bd 56 8d b1 bd 40 38 b9 bd
       -0.009625763 -0.08894238 -0.08669536 -0.09043932
000060 5a 67 c9 bd 86 b3 bf bd 27 ee 9b bd ad a5 b9 bd
       -0.09834166 -0.09360413 -0.07613783 -0.09064803
000070 80 15 c1 bd e5 75 34 3d 61 7e 7c 3d e2 15 8b 3d
       -0.09427929 0.044057745 0.06164396 0.06791283
000080 7b c5 5d 3d d9 7d 0b 3d 4b 5b 35 3d 52 a8 63 bd
       0.05414341 0.034055565 0.044276517 -0.055580445
000090 20 52 b9 3d 0a 1e e3 bb 92 97 b1 3d d2 68 fc 3c
       0.09048867 -0.006931071 0.08671488 0.030811701
0000a0 9e 1b a1 3d 03 31 a4 3d b7 05 ac bc 88 76 ef bc
       0.07866596 0.08017161 -0.020998819 -0.029231325
0000b0 fe c4 77 3c 35 f7 8b bb 67 c7 80 3c f5 d5 50 3d
       0.01512265 -0.0042714127 0.015720082 0.050985295
0000c0 01 d7 a0 bd 6c 1f 97 bb 38 8b a1 bd 7b c7 c6 3d
       -0.07853509 -0.0046119 -0.07887882 0.09706017
0000d0 2b c3 90 bd 4b 78 9d 3c f5 f2 e0 bc 98 fc 69 3d
       -0.07068475 0.0192224 -0.027459601 0.057125658
0000e0 ee ff b0 39 aa 9c 25 bc 35 a8 96 3d 96 00 bc 3d
       0.00033760018 -0.010108152 0.07356302 0.09179799
0000f0 56 60 95 bd c5 87 c6 bd 81 3c 09 3c 55 ab 01 3d
       -0.07293765 -0.09693865 0.008376242 0.031657536
000100 3a e8 bb 3c 3d 21 be 3d 6c c9 38 3d 4d 61 3d bd
       0.022937883 0.092836834 0.045113966 -0.04623537
000110 c8 f4 8c bd 3a b0 9f 3d 72 46 c5 3d 33 59 43 bd
       -0.06882626 0.077972844 0.09632577 -0.04769249
000120 cc bb 83 bd cc 16 10 3d 06 34 93 bd 09 3c c7 bc
       -0.06432304 0.03517799 -0.07187657 -0.02432062
000130 c1 95 cb bd 02 3e e1 3c 63 5e 0c bd cb 50 66 bd
       -0.09940673 0.027495388 -0.0342697 -0.056229394
000140 f3 e2 82 bd 6d da 10 bd 6a 84 43 3d e2 78 ba 3b
       -0.063909434 -0.035364557 0.0477337 0.00569068
000150 00 40 b1 3d a8 22 13 bd dc f1 f0 bc be 75 c9 3d
       0.08654785 -0.035921723 -0.029412203 0.09836911
000160 18 55 c4 bd a4 0b 22 bd 6b 63 7f bd a3 09 c6 3d
       -0.09586543 -0.039561883 -0.06235067 0.09669807
000170 96 2a 5b 3d b9 ee 09 bd 08 c3 2e bd 36 80 fc 3c
       0.05350741 -0.03367493 -0.042666465 0.030822854
000180 c9 28 0b bd 59 a0 ff 3c e4 b6 52 bd b4 be 7e bd
       -0.033974443 0.03120439 -0.05144395 -0.062193587
000190 1c d4 24 bb da b7 71 3d 4c 4f af 3d 6f f8 b5 3c
       -0.002515084 0.059013225 0.085600466 0.022213189
0001a0 35 7d 74 bd 09 36 57 3d de 7a 20 3d 59 9c 2f 3d
       -0.05968972 0.052541766 0.039179675 0.042873714
0001b0 f9 3f 09 bd b1 2b 5e bc c7 f9 3d 3d 31 0e 2a 3d
       -0.033508275 -0.0135602215 0.046380784 0.04151744
0001c0 fb b8 88 3d c0 ed 76 bd 5c 3f 81 3d af 1f 20 bd
       0.06675907 -0.06028533 0.06310913 -0.039092716
0001d0 2c 58 25 bb 89 c2 41 bd be 11 f4 bc 8b c3 8a 3d
       -0.0025229556 -0.047304664 -0.029793616 0.06775578
0001e0 cc d6 af 3d e4 5a 0f 3d 20 67 9a bd 32 d2 17 bd
       0.08585891 0.03499879 -0.07539201 -0.037065692
0001f0 7f c7 8e 3d 3b 1f de bc cf 24 a8 bd 69 3a bf 3c
       0.069716446 -0.027114501 -0.08210146 0.023343282
000200 71 b9 b6 bd c5 cb 1e ba ab 6f 4a bc a9 89 7c 3a
       -0.08922089 -0.00060575857 -0.012355725 0.000963355
000210 47 08 c4 bc 8e a6 70 bc f0 db 78 bd dc e5 87 bd
       -0.023929728 -0.014688147 -0.060756624 -0.06635639
000220 d8 24 07 3d c1 ab b9 3d b8 6f a4 bd 35 4c c2 bd
       0.03299412 0.090659626 -0.08029121 -0.094871916
000230 89 a9 5e bd 3f 92 c5 3d 6b 3f b9 3d 80 49 c8 bd
       -0.0543609 0.09647035 0.09045299 -0.09779644
000240 ca b4 c7 3c d8 17 5e 3c 6f d8 b5 3d 5b d8 f6 bc
       0.0243782 0.0135554895 0.08879172 -0.030132463
000250 e9 bd 07 3d 37 e2 4b bd 56 47 c0 bd c7 ca 38 3c
       0.033140097 -0.049776282 -0.09388606 0.011278815
000260 dc 02 47 bd 20 74 ce bb ac ce b5 bc 78 7b a6 bd
       -0.04858671 -0.0063004643 -0.022193275 -0.081290185
000270 6e 05 71 3d 52 26 8e 3d 5c 65 9d 3d 4a b6 55 3c
       0.05884307 0.06940903 0.076853484 0.013043949
000280 4e 5d c2 bd a4 99 a4 bd 0c 0a 2d bc d0 d4 2a bc
       -0.09490453 -0.08037117 -0.010561477 -0.010426715
000290 f0 d1 ba bd 78 25 7f 3d df 76 99 bd 2a fa 38 bb
       -0.09122074 0.062291592 -0.07493376 -0.0028225281
0002a0 39 57 c4 bd 2c 32 e7 3c 73 13 f7 39 e5 61 8e 3d
       -0.09586949 0.028222166 0.00047126002 0.06952266
0002b0 7a 58 8a 3c e5 52 a2 bd 71 11 c2 3d 74 1c b1 bd
       0.016887892 -0.07925967 0.09475983 -0.08648005
0002c0 c1 9c 45 3d 58 57 8f bd 7a 21 5e 3d 33 85 cd 3c
       0.048245195 -0.069990814 0.054231144 0.025087928
0002d0 b0 69 dc 3c ee f9 c3 bc c5 d5 bb 3d 27 a5 c8 3d
       0.026905864 -0.023922887 0.09171633 0.09797125
0002e0 e7 5a 2a bc 9b 30 03 bd 5d e4 7f 3c 8e 7f 84 3d
       -0.010397649 -0.032028776 0.015618411 0.064696416
0002f0 54 82 bf 3d bf 14 bb 3d b9 61 3f 3d 74 26 3e 3c
       0.0935103 0.091348164 0.046724055 0.011605848
000300 ba 37 97 bd 66 e6 9c bd d5 2e 8b 3d 7c 6f b9 bd
       -0.07383676 -0.076611325 0.06796042 -0.09054467
000310 37 f9 91 bb 8a 2f a7 3d 98 d3 b1 bd 01 d3 8e bd
       -0.0044547576 0.08163364 -0.086829364 -0.069738396
000320 6e a0 cc bd 49 41 5f 3d 80 41 b0 3c 10 66 78 3d
       -0.09991537 0.05450562 0.021515608 0.06064421
000330 8f f9 5c bc fe 4c 05 bd 13 da ac 3d 5f 61 86 bd
       -0.013487234 -0.03254413 0.08440032 -0.06561541
000340 6b 27 84 bd 61 d8 8c 3d df 51 be 3d 97 12 53 bd
       -0.06452831 0.068772085 0.092929594 -0.0515314
000350 da ed c4 bd c1 f7 a0 3b 92 d0 49 ba cd e9 f4 3c
       -0.09615679 0.004912347 -0.0007698621 0.029896641
000360 c2 ae 5c 3d 72 bd 36 3c f7 0a 85 bd a2 e0 e2 bb
       0.0538776 0.011153566 -0.06496232 -0.006923751
000370 11 10 3e 3d b0 05 87 3c f9 f9 8c bd 3e d1 c5 bb
       0.04640204 0.016482204 -0.06883616 -0.0060369065
000380 0f 43 98 bc aa 81 31 bd bd ca 50 3d 64 bc 21 3d
       -0.018586664 -0.043336548 0.050974596 0.039486304
000390 d1 d6 ad 3d 2a e5 ab 3d 9f 0a 7c bb 40 38 a6 bd
       0.084882386 0.08393319 -0.003845848 -0.081161976
0003a0 8d 4b 07 3d d4 e1 56 3d bb 45 76 3d 77 83 79 3d
       0.033031035 0.05246146 0.060125094 0.06091639
0003b0 91 ba 5f 3d 3f 17 b1 3c 78 34 dc 3b 0c e7 4c 3d
       0.054621283 0.02161753 0.006720122 0.05002503
0003c0 c9 ca cb bd ff f6 4a 3d a6 ea e4 3c 94 50 db 3c
       -0.099507876 0.04955196 0.02794392 0.026771821
0003d0 ff 99 e4 bc cf 7b ec 3c a5 03 c3 3c 71 68 c8 bd
       -0.027905462 0.02886763 0.023805449 -0.097855456
0003e0 1e 74 41 bd 2c 6b 4d 3d 69 a9 8e bd 68 38 12 bd
       -0.04722988 0.050151035 -0.06965906 -0.035698324
0003f0 9c 65 6f 3d 83 55 53 3d 5f 59 9f bd 88 dd 36 3d
       0.05844651 0.051595222 -0.07780718 0.044644862

cell_list.0.conv_can.weight f4 [10, 11, 3, 3]
000000 ac fe aa bd ec 1c 40 3b 6e 78 4f bd 7c a3 9d ba
       -0.08349356 0.0029314114 -0.05065196 -0.0012026872
000010 28 ee a9 3d b3 5a 04 bd 95 ad f2 3c 84 3c 55 bd
       0.08297378 -0.03231306 0.029623786 -0.052059665
000020 8d 3e a5 3d 06 8b 0c bd 62 02 ca 3d d0 f8 c3 3d
       0.08068571 -0.03431227 0.09863736 0.095689416
000030 f7 5d 76 3d 4b f0 ef ba ea 55 3e bd f8 f1 eb 3c
       0.060148206 -0.0018305866 -0.046468653 0.028801903
000040 6a 9b d0 3c e4 fe f2 3c 55 9c d8 bc eb a8 13 3d
       0.025464732 0.029662557 -0.026441732 0.036049765
000050 28 d6 86 bd cf 33 92 3d be ee a6 bd 6e e7 2d 3d
       -0.06583816 0.07138788 -0.08151005 0.042457037
000060 53 98 09 3d 12 70 9e 3d 51 b1 2e bd f2 6e 5d bc
       0.033592533 0.077362195 -0.04264957 -0.013515221
000070 90 d6 96 bd ee 5d cd 3b 55 f8 c5 3d 93 e5 a1 3c
       -0.07365143 0.006267301 0.09666506 0.01976279
000080 db 30 41 3d 5b 51 15 bc 61 5b bd bd 9e 26 24 3d
       0.047165733 -0.009113635 -0.09245945 0.04007589
000090 a3 01 bd 3b 14 1b 77 bd e0 ca bc 3d 25 03 65 bd
       0.0057680174 -0.060328558 0.09218383 -0.055911202
0000a0 68 40 b1 bd 08 b4 a5 bb a1 97 bf 3d e0 15 bd 3d
       -0.08654863 -0.005056862 0.09355093 0.09232688
0000b0 ef dc 26 bd 50 c1 30 bc fd 36 f2 3c bb c1 73 bd
       -0.040738042 -0.010788277 0.029567236 -0.059510928
0000c0 bc 51 b9 bd 73 a5 ac 3d 1b 10 b6 3d 14 67 f2 bc
       -0.09048793 0.084299944 0.088897906 -0.029590167
0000d0 b5 2d b1 3c b7 ec 5d 3d ee 93 a3 bc ce 95 ad 3d
       0.02162824 0.054180827 -0.019968 0.084758386
0000e0 2e 1b 33 bd 77 6a d3 3c 97 ef 89 bd df 2a 1c 3d
       -0.043727092 0.025807602 -0.06735151 0.038126823
0000f0 e3 ca 8f bd db 64 b5 3d cb 97 73 bd fa fc a4 bd
       -0.070211194 0.08857127 -0.059470933 -0.08056064
000100 cc e6 6c bb 5b 68 84 3c c2 6d 81 3c 63 3e a5 3d
       -0.0036148308 0.016163042 0.015799407 0.0806854
000110 75 b5 e1 3c 76 ee 6b 3d dc 79 64 3d e9 84 8d bd
       0.027552346 0.05760046 0.055780277 -0.06910116
000120 8e ee 84 3d 12 30 a8 3c 82 96 17 3d fa 89 94 bd
       0.06490813 0.020530734 0.03700877 -0.072528794
000130 b3 f8 b7 bc 01 ba b3 bd 1b 0d b9 3d aa 65 f1 3c
       -0.022457456 -0.08775712 0.09035703 0.029467423
000140 60 42 74 3d 6f 81 1b bd 88 37 57 bd a8 cc c5 bd
       0.059633613 -0.037965234 -0.052543193 -0.09658176
000150 38 d5 92 bb c6 dd b8 3c 42 a2 2a 3c e8 a0 cf 3c
       -0.004480984 0.022566687 0.010414662 0.02534528
000160 a9 e5 a8 bd 71 c3 cb bd 0e de 65 bd a0 e9 c1 bd
       -0.08246929 -0.09949387 -0.05611997 -0.094683886
000170 94 9a 74 3c 55 55 85 bd c6 3b 4f 3c d5 04 99 bc
       0.014929432 -0.065104164 0.012648528 -0.018679062
000180 51 76 38 3d 86 cb f7 3c 34 0c 92 3d b8 aa 9d 3a
       0.04503471 0.030248415 0.07131234 0.0012029028
000190 74 f2 09 bd f6 92 38 3d 56 8d 46 3d a4 81 71 3d
       -0.033678487 0.045062028 0.048474632 0.058961526
0001a0 3f b9 bf bc a8 f0 0c bd 9c 73 74 bd 60 ed 01 3d
       -0.023403762 -0.034409195 -0.059680566 0.03172052
0001b0 1b 00 71 3c 01 b0 7e bd 84 3f 2d bd 0a 1e 94 3c
       0.014709498 -0.06217957 -0.0422969 0.01808073
0001c0 af bb 36 bb 91 5a b5 3c f3 53 bd bd 1d e8 46 3d
       -0.0027882864 0.022137912 -0.09244528 0.048561204
0001d0 42 88 89 3c 8a bc b8 bd 5a 4a c2 3d 37 b8 c8 3d
       0.016788606 -0.09020336 0.09486838 0.09800761
0001e0 a9 a1 8f bc 5b fb 2d bc 5d 89 5b 3d 74 37 46 3c
       -0.01753314 -0.01061901 0.053597797 0.012098182
0001f0 2d e4 97 bd df 6d ca 3d c5 3e bb 3d 01 38 89 bd
       -0.07416568 0.098842375 0.09142832 -0.06700135
000200 8c e1 dd bc 9e 33 c1 3b 45 7a 92 3d 09 0b 74 bd
       -0.027085088 0.005896046 0.07152227 -0.059580836
000210 73 ab d4 3c 0b 69 aa 3d 8c 8c 48 3c 59 83 60 3d
       0.02596066 0.083208166 0.01224054 0.054812763
000220 c9 ef 5f bd eb ed 86 3d d4 48 29 3b 08 fe 1c bd
       -0.054672036 0.06588348 0.0025830762 -0.0383282
000230 72 50 da 3b 9a aa 83 bd 48 22 82 bd 09 fc 5e bc
       0.006662422 -0.06429024 -0.06354195 -0.013609895
000240 62 d5 a6 bb 6f 2d 62 bb b4 9c 8e 3c 02 09 a2 3d
       -0.005091355 -0.0034511944 0.017408706 0.07911874
000250 7a 8d 65 bd 2d ff 1e 3d 30 b3 57 3b 09 25 de bc
       -0.056043126 0.038817573 0.00329132 -0.02711727
000260 1b 89 a9 bd 0d a4 28 bc 9b 91 c6 3d 17 92 99 bc
       -0.08278104 -0.010293019 0.09695741 -0.018746419
000270 ff 6b 34 bd 56 d3 a3 3d dd 0c 92 bd 51 3e 6e bd
       -0.044048306 0.079992935 -0.0713136 -0.0581649
000280 e1 c3 30 bc 85 0c 68 bc 29 b2 82 bd f6 a0 48 3d
       -0.010788889 -0.014163141 -0.063816376 0.04898163
000290 b8 23 a7 3d 48 58 da bc e8 14 20 3d 85 1f b2 3c
       0.0816111 -0.026653424 0.039082438 0.021743545
0002a0 d1 dd e5 3c a7 66 6c 3d 49 5d 0e 3b 7a 78 d2 bb
       0.028059872 0.057715084 0.0021723083 -0.0064230533
0002b0 7b 33 8f bc 85 98 81 bd 44 a0 4f bd 1e af 6f bc
       -0.017480602 -0.06327919 -0.05068995 -0.014629154
0002c0 38 fd 8c bb c2 50 b1 3c 7a c9 1f 3d e8 a8 7b bd
       -0.004302647 0.021644954 0.039010502 -0.06144038
0002d0 26 1d 7d 3c 5b 2a 22 3d ac ea c0 bd ee 25 2e 3d
       0.015448844 0.039591175 -0.0941976 0.04251664
0002e0 94 b2 16 3d 70 21 b9 bd e3 47 66 bd 7a ab 3c 3d
       0.0367914 -0.09039581 -0.0562209 0.04606197
0002f0 ab 56 7c 3d 76 25 95 3c 23 aa 18 3d df 12 a1 bd
       0.06160609 0.01820634 0.03727163 -0.078649275
000300 66 ee c5 bd a7 f3 d3 bc 70 d4 12 bd c0 54 55 bd
       -0.096646115 -0.025873018 -0.035847127 -0.052082777
000310 f2 ce a6 3d b2 66 1f bd 50 bb e4 bb 65 4f 4d bd
       0.081449404 -0.038916297 -0.006980337 -0.050124545
000320 81 14 b2 bd 11 de 11 3d dd b4 48 3d 7f 92 75 bd
       -0.08695317 0.03561217 0.04900061 -0.059954163
000330 87 e1 b7 bd 34 f7 3a 3d b0 d5 51 bd bc 07 b9 3d
       -0.08978563 0.045645908 -0.05122918 0.09034678
000340 df 9e 12 3d 23 cc ac 3d 02 48 91 3d e8 27 d0 bc
       0.035796043 0.084373735 0.070938125 -0.025409654
000350 3e 9d b4 bc a7 4a c3 bc 4e 4a 86 bd fb 82 91 bd
       -0.022047635 -0.023839308 -0.06557141 -0.07105061
000360 ff e7 47 3d ed f6 9f bd 64 f6 28 bd 0d ca 6f bc
       0.048805233 -0.07810769 -0.0412506 -0.014635575
000370 a7 5d 8d bd 72 88 29 bc b2 86 a9 3d 4e 0d 9a 3c
       -0.069026284 -0.0103474725 0.08277644 0.018805172
000380 f3 92 92 bd 9a 01 f9 bc a7 54 28 bd 6d 50 5b 3b
       -0.071569346 -0.030396271 -0.041096356 0.0033464686
000390 61 ad ca 3b 45 8e 59 3d 8b 09 89 3d 8d 45 b0 bd
       0.006185219 0.053114194 0.06691273 -0.08607016
0003a0 82 ef 39 bd e4 fb bd bc dd 3f 79 3d 62 36 47 3d
       -0.045394428 -0.0231914 0.06085192 0.048635848
0003b0 90 20 41 3d 24 84 31 3c e6 e2 86 3d 85 34 05 3d
       0.047150195 0.010834727 0.06586246 0.03252079
0003c0 d7 b2 1c bd 8d cf 98 3d 03 dc 1b bd bb f4 ab 3c
       -0.038256492 0.07461462 -0.038051616 0.02099072
0003d0 23 f3 c5 bc 4e 75 1c 3d 6f eb fd bc 3c 0a d6 bc
       -0.024163788 0.038197808 -0.030996053 -0.026127927
0003e0 5e 3c ec 3c 0b f1 67 bd dc 9c b5 3d 82 73 48 bd
       0.028837379 -0.05662636 0.08867809 -0.04893828
0003f0 ea 81 ac 3c 9e c9 90 bd e3 a4 32 3d 96 5f 7f bd
       0.021058042 -0.070697054 0.04361428 -0.062347017

cell_list.1.conv_gates.weight f4 [20, 20, 3, 3]
000000 d3 5f 73 bd 8e 35 5b bb 8e 6c 97 3d 5c 9f 66 3d
       -0.059417557 -0.003344867 0.07393752 0.05630432
000010 72 0e 38 3d 78 50 8a bd cb f0 dd 3c 54 c4 f4 3c
       0.04493565 -0.067536294 0.027092358 0.029878773
000020 74 1d c1 3c 3c e7 91 bd 5b d4 65 3d 20 dd 82 3c
       0.023573615 -0.071241826 0.05611072 0.015974581
000030 0f fd 6e 3c 20 74 04 3d b4 7b b2 3c 2a d9 24 3c
       0.014586701 0.032337308 0.021787502 0.010061542
000040 d3 0e 28 3d 63 53 bb 3c 79 c8 69 3c d6 55 0d 3d
       0.041029762 0.02286691 0.014268988 0.034505688
000050 fb 67 29 3d ea d4 8b bc 75 17 43 bd b5 14 2a bd
       0.04135893 -0.017069299 -0.047629792 -0.041523654
000060 d7 97 80 bc 2c e8 9e bc 0b 6e 2c bd 66 e7 0b bc
       -0.015697403 -0.019397818 -0.042097133 -0.008539056
000070 00 39 13 bd 04 75 af bc b5 b9 fe bb ae c3 b0 3c
       -0.03594303 -0.021418102 -0.007773603 0.021577682
000080 dd d8 82 3d 64 67 64 3c b5 5c 95 bc 3c 6a 79 3d
       0.0638902 0.013940666 -0.018232683 0.06089233
000090 30 b2 7e bd f8 35 1a bc e6 3c 80 3d ff 76 31 bd
       -0.06218165 -0.009412281 0.062616155 -0.043326374
0000a0 78 ad 12 3d c2 a5 2c bd e2 56 15 bd c0 0f 91 bd
       0.035809964 -0.042150266 -0.03645981 -0.07083082
0000b0 b3 c7 27 3d af f2 62 3d 30 41 98 bd 01 2b 35 3d
       0.040961932 0.055407222 -0.074343085 0.044230465
0000c0 8a a7 28 3d 57 21 8f bd 7a da 9e bb 63 cb 6d 3d
       0.041175403 -0.06988781 -0.004847822 0.058055293
0000d0 04 eb 83 3d 80 2f 6a 3d ea 16 1b bd be e9 3b bd
       0.0644131 0.057174206 -0.03786365 -0.04587721
0000e0 ad ab 55 bd b6 ad c9 bc 78 04 89 3d 12 14 0e bd
       -0.052165676 -0.024618965 0.066903055 -0.03468711
0000f0 54 9b 07 bd ec 67 45 bd d7 61 3c 3c d8 b2 3e 3c
       -0.033107117 -0.04819481 0.011497936 0.011639319
000100 f3 99 2f bd b3 0b d9 3c 32 f0 44 bd b5 5b 08 bb
       -0.042871427 0.026494836 -0.04808063 -0.0020806615
000110 bb c0 31 bc cd 3f d9 3c 56 91 8c 3d b1 db 73 3d
       -0.010849173 0.02651968 0.06863658 0.059535686
000120 f9 7c 24 3d 6a dd 03 bd fa 3d ef 3c 50 c9 87 3d
       0.040158246 -0.03219358 0.029204357 0.06630194
000130 6f 65 83 3c ed 01 63 3d 64 43 46 3c 20 ac 05 bd
       0.016039578 0.05542176 0.012101028 -0.032634854
000140 2a 62 98 bd 9f 40 44 3d 04 0d f8 bc e4 ce a7 bc
       -0.07440598 0.04791319 -0.030279644 -0.020484395
000150 b5 0b 8a 3d 0d 26 e5 3b 3c 53 d4 3c e1 e3 b5 3c
       0.06740514 0.0069930614 0.025918595 0.022203388
000160 44 31 cf bc 08 b9 85 bd f8 cc 5c 3b bb d3 e1 bc
       -0.025292046 -0.065294325 0.0033691507 -0.027566781
000170 aa d3 84 3b a8 2f 98 3d 17 66 38 bd b7 ce 13 bd
       0.0040535526 0.07430965 -0.045019235 -0.03608581
000180 c7 f8 5c 3d 8d 48 6a bd 9d 38 d1 bb 56 0e 88 bc
       0.05394819 -0.057198096 -0.0063849227 -0.016608398
000190 4e 32 38 3d 8f e7 ff 3c 39 5e bc 3c 13 a0 41 bd
       0.04496985 0.031238345 0.022994148 -0.0472718
0001a0 fc f3 1e bd bb 7a 8c bd 9f 9e 5b bd f7 c2 ac bb
       -0.0388069 -0.068593465 -0.05361807 -0.005272265
0001b0 1f d7 0f 3d 03 38 8f bd 71 d5 3b 3d 89 29 73 3d
       0.035117265 -0.06993105 0.04585785 0.059365783
0001c0 6d 1a 90 bd f4 0b 72 3d 6c 8b d1 bb 47 51 b4 bc
       -0.0703629 0.05909343 -0.006394794 -0.022011412
0001d0 34 77 38 bd c0 64 c3 3c 34 d6 12 bd 3b 9c 93 bd
       -0.045035556 0.023851752 -0.03584881 -0.07207533
0001e0 2e 26 8d bd b6 a6 5c bd 11 62 95 bd e9 e5 dd bc
       -0.06892048 -0.053869925 -0.07294095 -0.027087169
0001f0 d2 4c 84 bd 55 83 b6 3c 51 62 0b 3c 80 df f6 3c
       -0.06459965 0.02227942 0.008507327 0.03013587
000200 03 ce 71 bd fc 3f 25 bc d7 97 24 3d d7 aa 06 bd
       -0.05903436 -0.010086056 0.04018387 -0.03287777
000210 df 4c 82 bd 86 28 3e bd 7b 43 8d ba 28 c5 46 3a
       -0.06362318 -0.046425365 -0.0010777557 0.0007582479
000220 cd 67 fd 3c c7 cb 96 ba 71 a2 6f 3d 71 a9 7f 3d
       0.030933285 -0.0011504822 0.058504526 0.06241745
000230 b7 b3 46 3c 08 20 1d bb 90 08 18 3d eb 1c 80 bd
       0.012127808 -0.002397539 0.03711754 -0.06255516
000240 95 6c 82 bd 46 6b 72 3d 25 43 0c bd ac 60 4f bd
       -0.06368367 0.059184335 -0.03424372 -0.050629303
000250 cc bd 46 3d 34 5a 91 3c d9 9f 44 bd a5 39 e9 bc
       0.04852085 0.017743208 -0.048004005 -0.02846987
000260 72 25 83 3b c3 98 64 3d 7c 56 95 bd 42 de 75 3c
       0.0040022666 0.055809747 -0.07291886 0.015006604
000270 71 24 d7 3b c3 13 69 3d 9c 16 a1 3c af 91 9f bb
       0.0065656235 0.056903612 0.019664101 -0.0048696618
000280 48 49 93 3d bf 6d 82 3d 58 1d 86 3d f1 b4 97 bd
       0.07191712 0.06368589 0.065485656 -0.07407559
000290 e0 86 bd bb ae b7 a1 bb b4 a4 4a bc 83 81 63 3d
       -0.0057839006 -0.0049352264 -0.01236837 0.055543434
0002a0 76 f3 6e 3d 2e 47 5e bd 71 e0 dc 3c 0d 35 59 bc
       0.05833765 -0.0542671 0.02696249 -0.013257277
0002b0 2a 51 1f bd 58 4b 3f bc e0 3c 63 3c 55 29 3c 3d
       -0.038895763 -0.011675678 0.013869494 0.045937855
0002c0 5c c3 42 bc 87 6f 95 bd b8 de bf 3c 21 8e 03 3c
       -0.011887398 -0.07296663 0.02342163 0.008029492
0002d0 ce 67 3e bd 65 91 05 bd 2e 82 61 bd f5 b7 29 bc
       -0.046485715 -0.032609362 -0.05505579 -0.0103588
0002e0 14 8a 60 3d a7 42 0d bd ab aa a2 3b 42 34 5f 3c
       0.05481918 -0.034487393 0.004964193 0.013623299
0002f0 23 21 62 bd 68 c5 f2 bc 30 03 09 bd 9e 10 dc 3b
       -0.055207383 -0.029635146 -0.033450305 0.006715848
000300 29 01 89 3d f7 62 13 bd b1 77 76 3d 07 31 88 bd
       0.066896744 -0.035983052 0.06017274 -0.06649976
000310 42 56 96 3d 23 49 3a bd be 7a 09 bc 3d 56 22 3d
       0.07340671 -0.045479905 -0.00839108 0.039633024
000320 18 cf 67 3d b2 8a d6 3c ba 12 46 bd d5 c5 6d 3d
       0.056593984 0.026189182 -0.048357703 0.058049995
000330 30 91 85 3c f8 38 4d bd b2 26 70 bd b8 a2 d3 bc
       0.016304582 -0.050103158 -0.058630653 -0.025834426
000340 fc c4 9a bc 23 98 5a 39 33 6f 8f bd 08 ae 28 3d
       -0.018892758 0.00020846775 -0.070036314 0.041181594
000350 59 ed 68 3d 9b 82 45 3c d0 1c 58 3d 3b 96 29 3d
       0.056866977 0.012055065 0.052761853 0.041403037
000360 3e 69 4f bd 07 d7 50 bd cb ed 91 bd ed 64 24 3d
       -0.050637476 -0.050986316 -0.071254335 0.040135313
000370 e3 c0 0d bd bb 5a d6 3c 8b 17 b5 bc bc 55 3c bd
       -0.03460778 0.02616631 -0.022105953 -0.0459802
000380 fe 77 78 3d 8e 04 0e bd f3 79 9c bc 7a b1 95 3d
       0.06066131 -0.034672312 -0.019101119 0.073092416
000390 b3 60 3b bd ee 10 a8 3a 81 26 02 bd 47 d6 2b bc
       -0.045746516 0.0012822428 -0.031775 -0.010488099
0003a0 c7 ef 02 3c aa 51 5a bd 1c 7c da bb 0d 18 8a 3d
       0.007991738 -0.053300537 -0.006667627 0.067428686
0003b0 c9 0c 4b 3d 38 bd 94 3d 25 85 ce bb fd 67 70 3d
       0.04957274 0.07262653 -0.006302493 0.05869292
0003c0 32 14 e1 3a 34 d0 2b bb 40 f3 9a ba 5c a8 6f bd
       0.0017172156 -0.0026216628 -0.0011821762 -0.05851017
0003d0 48 fd 83 bd 6f 29 37 bd 57 79 1b 3c 69 43 2d 3d
       -0.06444794 -0.04471725 0.009489379 0.042300615
0003e0 d4 a0 09 bb da 7f 6c 3d a6 86 95 3d ed c7 fe 3c
       -0.0021000402 0.057739116 0.07301073 0.031101191
0003f0 6d 03 3f bd 91 ec 84 bd 37 88 3c 3d f4 57 55 bd
       -0.046634126 -0.06490434 0.046028342 -0.05208583

cell_list.1.conv_can.weight f4 [10, 20, 3, 3]
000000 4e 54 f0 3d 8a 70 73 3e d5 34 9b 3d 85 1a 1f be
       0.1173483 0.23773399 0.07578436 -0.1553746
000010 14 18 0e be 3c 3a 60 be 9e 52 95 be dc 2d 62 be
       -0.13876373 -0.21897215 -0.29164594 -0.22087806
000020 fc 6c 73 be 0e 93 c2 be d4 ce b7 be e5 15 b1 be
       -0.23772043 -0.3800282 -0.35899985 -0.34587017
000030 35 95 e6 be ee 0f d3 be 33 90 b9 be 21 bc 5b 3e
       -0.4503571 -0.4122309 -0.36242828 0.21458484
000040 e7 f7 6e 3e c9 c0 a7 3e e1 33 8a 3d 51 fb 96 bc
       0.23336755 0.3276427 0.06748176 -0.018430384
000050 8d bb d5 3d 9b 38 51 3d ac e9 6b bc 73 fe 4b bd
       0.10436163 0.051079374 -0.014398973 -0.04980321
000060 a8 cf 86 bd ef 01 6b bc b0 0e 1d bd d7 32 aa bd
       -0.06582576 -0.014343723 -0.038344085 -0.08310478
000070 52 4d 14 be 46 18 97 bd 38 19 6b 3c 38 e7 3f 3e
       -0.1448262 -0.07377677 0.014349274 0.18740547
000080 b7 35 75 3e de 28 7e be a9 63 0b be ee 20 66 bd
       0.23946272 -0.24820277 -0.13612236 -0.056183748
000090 d9 8d ad bc d1 6a 20 bd 4e df b1 bd a2 a6 08 3c
       -0.021185802 -0.039164368 -0.0868517 0.00834051
0000a0 c6 f0 a6 3c f1 5f af bd 92 8d f8 3b 3e a1 62 bd
       0.020378482 -0.08563221 0.007585236 -0.055329554
0000b0 07 2d 47 bd 36 fb a5 bd 19 67 55 bd 7b b3 26 bd
       -0.048626926 -0.08104555 -0.052100275 -0.04069851
0000c0 f1 0f d1 3b 92 13 da 3d 7f e8 10 3e 7f 81 50 3d
       0.006380074 0.10648264 0.1415119 0.050904747
0000d0 e4 e8 81 3d 9d c1 82 3c c2 c7 17 3d af a7 bc 3c
       0.063432485 0.015961463 0.03705574 0.023029177
0000e0 73 d0 41 bd ae c1 04 3d 89 c0 a1 bd 5d 77 98 bd
       -0.047317933 0.03241127 -0.07898051 -0.07444642
0000f0 24 8f 80 3c 44 5b 09 bd be 20 29 3d 31 17 4b bd
       0.015693255 -0.033534303 0.04129099 -0.049582664
000100 70 5d 78 bd 14 e8 03 bd 69 8e bd bd ed 45 8c be
       -0.060635984 -0.03220375 -0.09255678 -0.273971
000110 b9 1c 90 be a0 ac 87 be e2 e1 83 be a6 3b f4 be
       -0.28146914 -0.2649889 -0.25758272 -0.47701758
000120 02 e1 92 3c c6 ce 93 3d aa 23 b5 3c 64 d4 ff 3b
       0.017929558 0.07217173 0.022111733 0.0078073014
000130 b5 24 04 3d 03 80 ac bc 5d 29 cd bd 66 6d 4a bd
       0.03226157 -0.021057134 -0.10017655 -0.049420737
000140 3e c9 d0 bd c4 3f 83 3d 68 ca 38 3e 87 a4 40 3e
       -0.10194634 0.06408647 0.18045962 0.18812762
000150 02 53 df bc 44 97 ad 3d df 47 cf 3d 8a ed ab 3c
       -0.02726126 0.08476117 0.1012113 0.02098729
000160 1a c4 04 3d d4 af 3a bd 82 ec 03 bd c6 95 65 bd
       0.03241358 -0.04557784 -0.032207973 -0.05605104
000170 fe 93 cc bc be 62 8a bd b9 7a 09 3d b0 b4 53 bd
       -0.024972912 -0.06757115 0.033564303 -0.05168599
000180 d6 c4 03 bc 3a 21 01 bd 7f b0 8c 3d 0f 96 45 3d
       -0.008042535 -0.031525828 0.068696015 0.04823881
000190 cd 32 34 bd a1 7b 37 bc e9 df c9 bc 8d dd 87 3d
       -0.04399376 -0.011198909 -0.024642901 0.06634054
0001a0 e9 25 03 3d 5f b6 55 3d 83 53 43 3c ea 73 7e bd
       0.032018576 0.052175876 0.011921766 -0.062122263
0001b0 a3 75 5f 3d 7e d3 11 3c f3 2b 73 3d fd af 51 3d
       0.054555546 0.008900521 0.059368085 0.051193226
0001c0 79 42 86 bc ce b9 35 bc 3a 20 c1 3c a3 b5 6b 3b
       -0.016389119 -0.011091663 0.023574937 0.0035966418
0001d0 f2 8c 2c 3d 4a fc 48 bd 7a 45 13 bd 9b c7 32 bd
       0.042126603 -0.049068727 -0.03595493 -0.04364739
0001e0 7e e4 bd 3b 65 69 4c bd c1 9f 52 bd 2b 3e 1f 3d
       0.0057950607 -0.0499052 -0.051421884 0.038877647
0001f0 26 cf b4 3c 7a b4 2b 3d 03 02 b6 bc c2 50 94 3d
       0.022071432 0.041920163 -0.022217756 0.07241966
000200 7d 31 07 3c a9 36 dd ba 89 44 5f 3d a3 55 9b bc
       0.008251545 -0.0016877252 0.05450872 -0.018961733
000210 e6 96 c2 3b dd 47 b2 3b b4 18 96 3d d6 94 7d 3d
       0.0059383987 0.0054406957 0.073289305 0.06190952
000220 56 a2 3a 3d f1 e0 37 bd c6 82 5f 3d a7 9c 80 bd
       0.045564972 -0.044892255 0.054568075 -0.06279879
000230 dd eb 20 3d 11 1d aa bb 32 07 bd bb f5 e2 72 3d
       0.039287437 -0.0051914533 -0.00576868 0.059298474
000240 eb 25 fc bc f1 14 91 3d 7e 3a 04 bd 98 98 91 bd
       -0.0307798 0.070840724 -0.032282345 -0.07109183
000250 71 3f a3 bc 53 bb 44 bd cb 28 fb bc 41 e5 0e 3c
       -0.019927712 -0.04803021 -0.0306591 0.008721651
000260 e2 ad 93 3d c0 58 8c bd 6c 5c 31 3d 03 b8 8d 3d
       0.072109 -0.06852865 0.04330103 0.06919863
000270 2b 15 93 3d 8a 44 61 3d b0 54 01 bd 3f 8b 83 3d
       0.07181772 0.054997005 -0.031574905 0.064230435
000280 9f cb 0d 3d c8 56 7a 3d 0a d1 95 37 1e 86 84 3d
       0.034618016 0.061117917 1.7859526e-05 0.06470893
000290 9d 6f 8f 3d 60 cc 78 bd 84 24 57 3c e6 21 86 bc
       0.070037104 -0.060741782 0.013131265 -0.016373586
0002a0 82 93 4b 3d 4e a9 8e bd b2 a7 a8 bc 94 fd 04 3d
       0.04970122 -0.06965886 -0.020587776 0.032468393
0002b0 57 0c 33 bd 11 72 da 3c c6 b3 99 bc 9c 4d 86 3d
       -0.04371294 0.02666572 -0.01876248 0.065577716
0002c0 21 6f 1b 3c c6 b8 7d 3d 52 04 44 3d e3 10 8b 3a
       0.009486944 0.06194379 0.047855683 0.0010609891
0002d0 e3 86 08 bd 29 34 c9 3b 1c da 99 3d 8c ad ab bd
       -0.033331763 0.006140251 0.07512304 -0.08382711
0002e0 52 30 d5 bc f8 0e 41 3d 4e bf 3d bd 90 0f 37 bd
       -0.026024017 0.047133416 -0.04632502 -0.044692576
0002f0 bf a6 a4 bc ab 20 53 be 68 71 0f be 72 da 89 be
       -0.020099042 -0.2061793 -0.14008105 -0.26924473
000300 c9 19 f4 3d 07 7e 78 3d 79 dd 93 3b a6 3e 11 3e
       0.11918981 0.060667064 0.0045124856 0.14184055
000310 39 97 09 3e b5 34 c5 3d a6 41 0c be 0b 8d 81 bc
       0.13436593 0.09629194 -0.13696918 -0.015814325
000320 ae c8 5a 3c 0a 94 cb bc 41 9e b8 bc 44 d9 26 bd
       0.01335351 -0.024850864 -0.022536399 -0.040734544
000330 ba 66 05 be 44 bf 90 bc 71 91 0c bd 1d 9d c6 3d
       -0.13027468 -0.017669328 -0.03431839 0.09697936
000340 17 44 40 3e dd ae 1f bd ae 26 94 bd d2 e4 04 bd
       0.18775974 -0.038985122 -0.0723394 -0.032444783
000350 fb ba 71 bc 02 a0 8a be 44 c5 f0 bd 8a e1 0b be
       -0.014754052 -0.270752 -0.117563754 -0.13660255
000360 a0 a8 12 3d 4c 5a ee 3d 88 f8 16 3d 03 a9 00 3e
       0.035805345 0.116383165 0.03685811 0.12564473
000370 0e b1 6a 3d e5 f5 fb 3d 2d 2d 0f 3d 32 40 ed 3c
       0.05729776 0.1230276 0.034955192 0.028961275
000380 39 dc 47 3d 83 6f cf bc d0 66 7e bd 9e 42 00 bd
       0.048794005 -0.025321728 -0.06210977 -0.03131353
000390 b9 20 b0 bd 65 d4 d2 bc af 48 cb bd d0 14 6e be
       -0.08599991 -0.025736043 -0.09925973 -0.23250127
0003a0 3e b8 0f be 07 32 28 be 7b 2c b7 3d 91 9a a9 3d
       -0.14035127 -0.16425334 0.08944031 0.08281434
0003b0 4a 34 03 3e 92 2a db 3d f2 87 09 3c cd cc 2d bc
       0.12812915 0.10701479 0.008394228 -0.01060791
0003c0 ee 7b 34 3e 4a cc 3f 3d f9 1b 8f 3d a6 4c b4 3b
       0.176254 0.046825685 0.06987757 0.0055023013
0003d0 fd f1 0e bd 40 22 e0 3d f9 25 e1 bc 27 7e 9e bc
       -0.034898747 0.10944033 -0.027483927 -0.019347264
0003e0 01 eb 3a 3d d9 98 b5 3d 94 a7 4e 3d 0e 60 c8 3d
       0.045634273 0.08867044 0.050452784 0.09783946
0003f0 4d 46 6e bc 02 09 33 3d 93 9e 54 3d fd 0b ad 3d
       -0.014543128 0.043709762 0.05190904 0.08449552

cell_list.2.conv_gates.weight f4 [20, 20, 3, 3]
000000 b3 e4 82 3d c8 1d 16 3d ac d9 d0 3c ee d1 e0 bc
       0.06391277 0.036649495 0.025494419 -0.027443852
000010 51 9f 8c bd 28 03 ba bb b9 0e 46 bd 51 79 8a bd
       -0.06866325 -0.005676646 -0.048353884 -0.067614205
000020 9b 55 d1 ba 44 90 1e bd d1 98 8b bd f9 d6 f0 3c
       -0.0015970947 -0.0387118 -0.06816257 0.029399382
000030 a7 d9 2c bd 6d b4 80 3c 57 a9 88 3d e3 c3 02 3d
       -0.042199757 0.015711034 0.06672924 0.031925093
000040 9b 5a c9 3c 3c 00 0a bd c8 07 05 3d e7 47 1f 3d
       0.024579337 -0.03369163 0.032478124 0.03888693
000050 c1 e9 23 3d f5 5f 8e bd d0 e1 78 3d 74 71 82 3d
       0.040017847 -0.06951896 0.060762227 0.06369296
000060 b9 f5 d4 3b 6b b9 81 bd ac c7 13 3d 25 94 30 bd
       0.006499019 -0.06334194 0.036079094 -0.04311003
000070 5f 56 0a bd bc 7f de bb a1 91 06 3d 1b 64 47 3c
       -0.033773776 -0.0067901295 0.032853726 0.012169863
000080 4b ab 99 3c 6f 4a 31 3d b5 f9 af 3c 20 56 40 3d
       0.018758437 0.043283876 0.021481374 0.046957135
000090 0b 84 71 bd ec b1 8b 3c 5d 7e b0 3c 00 d1 5b 3c
       -0.058963817 0.017052613 0.02154463 0.013416529
0000a0 09 cc 9e 3c 48 25 80 bd 8c 7c 91 3b f0 76 91 3d
       0.0193844 -0.06257111 0.004439896 0.07102764
0000b0 1d 7c 04 3d 9f 79 17 bd dc e1 63 3d 7b 3d 36 bd
       0.032344926 -0.03698122 0.05563532 -0.044492226
0000c0 59 ff 45 3d 38 11 bd 3c 67 89 66 bd 19 a5 29 bc
       0.04833922 0.0230795 -0.05628338 -0.010354304
0000d0 e5 48 9d 3c 07 09 b7 3b 7a 8c 0b bd a9 a3 5e 3c
       0.019199798 0.005585793 -0.034069516 0.013588824
0000e0 a5 99 a1 3a 03 a9 23 bd a9 c5 f3 3c 5e dc c7 bc
       0.0012329115 -0.039956104 0.029757338 -0.024397071
0000f0 8e 8d 00 bb ed 19 53 3c 79 01 45 bb 19 ad c4 3a
       -0.0019615623 0.012884599 -0.0030060692 0.00150052
000100 7f 31 a4 3c c0 74 63 bd 2f ae 66 bd 91 eb 39 bd
       0.020043133 -0.055531263 -0.05631846 -0.04539067
000110 8a 10 8e 3d d3 22 0d bd e4 7f 49 bd 52 70 5d bd
       0.06936748 -0.03445704 -0.04919423 -0.054062195
000120 93 1b 10 3d 85 f2 8e bd 21 c1 44 bd af b7 37 bd
       0.035182547 -0.06979851 -0.048035745 -0.04485291
000130 4f 99 36 bd ad e8 62 3d 3e 62 6c 3d 54 3b 91 bd
       -0.0445798 0.05539768 0.05771088 -0.07091394
000140 46 b2 b3 bc f0 38 e4 3c 5c 3c 4c 3d 0d 4a 21 3d
       -0.021935593 0.027859181 0.04986225 0.03937726
000150 d3 4f 2b bd d5 25 b0 3c 90 6d 83 3d 67 db c4 bc
       -0.041824173 0.021502415 0.06417382 -0.0240304
000160 bd ed a1 bc 5b db 1b bc e6 60 86 bc 26 af 84 3d
       -0.019766683 -0.009512748 -0.016403627 0.064787194
000170 25 dc e0 bb 4b 58 8a bd 6a d5 22 3c c5 26 28 bc
       -0.006862181 -0.06755122 0.009938577 -0.01026315
000180 25 31 31 3d 03 a9 88 3d d0 8b 3c bd c8 5b ee bc
       0.04325976 0.066728614 -0.046031773 -0.0290965
000190 28 cf fb bb 26 34 64 3d 33 e3 96 bd 41 62 49 3d
       -0.007684607 0.055713795 -0.073675536 0.049165968
0001a0 89 40 89 3d 40 15 83 3c d8 f2 20 bd 0c 1d 96 3c
       0.06701762 0.016001344 -0.039294094 0.018324398
0001b0 a3 70 42 bd e9 8d 3e 3b cb 29 84 3d da ff 73 bd
       -0.0474707 0.0029076284 0.06453284 -0.05957017
0001c0 9c 31 87 3d a1 56 14 3d 9f f3 3c 3d 32 f8 5f bd
       0.06601259 0.03621543 0.046130773 -0.054680057
0001d0 92 46 a9 bc c0 e0 63 3d 3f c5 63 bd 4f 2e 83 3d
       -0.020663533 0.05563426 -0.05560803 0.06405317
0001e0 68 50 b6 bc 0a a7 8f bd e0 9e 65 3d c6 8c 80 3c
       -0.022255138 -0.07014282 0.056059718 0.015692126
0001f0 f6 57 cb 3b 38 6d dd 38 57 37 1c bd d2 69 c5 bc
       0.006205554 0.00010558445 -0.038138714 -0.02409831
000200 3c 98 70 3c b5 2d 3b 3c 62 8e ac 3c 89 20 bb 3c
       0.014684733 0.011424472 0.021063987 0.022842662
000210 a7 c6 39 3d 94 7d 44 3d da 03 24 3d 1f 9e 3e 3c
       0.045355465 0.047971323 0.040042736 0.011634379
000220 60 32 30 bd dd de 7f 3d 85 8a a5 3c 8c e5 25 bd
       -0.04301679 0.0624684 0.020207653 -0.040502116
000230 e5 a6 7e bd da 86 ed bc 70 da 97 3d 8e 93 50 3d
       -0.06217088 -0.028994966 0.074147105 0.05092197
000240 63 76 17 bc 1d 3a 48 bd f3 f5 4f 3b d7 c5 90 bc
       -0.009244534 -0.048883546 0.003173229 -0.017672462
000250 db 84 e6 3c c5 51 89 bd 11 34 e0 3c cc 3f 1b 3d
       0.028139522 -0.067050494 0.027368577 0.03790264
000260 39 98 85 3d 56 31 85 3d 01 36 e5 bc f5 dd b2 bc
       0.06523175 0.06503551 -0.027979853 -0.021834353
000270 49 96 95 3d 0b 87 39 3d f3 08 01 bc c7 38 84 bc
       0.07304055 0.045294803 -0.007875669 -0.016140355
000280 16 b3 1b bd 16 5d fd bc 4f 67 05 3d 3b 03 d3 3b
       -0.038012587 -0.030928176 0.032569226 0.006439594
000290 15 95 a3 3c b2 c3 c7 3b 4b 34 92 3d 95 38 8f 3c
       0.019968549 0.0060963267 0.0713888 0.017483035
0002a0 4a 6e 95 bd 16 0e 03 3d 29 84 30 3d df 62 3b bd
       -0.072964266 0.031995855 0.043094788 -0.045748588
0002b0 c0 e3 02 3d 7d 10 bb 3c 85 6c 07 bc 83 a4 8d bd
       0.03195548 0.02283501 -0.008265619 -0.06916144
0002c0 fb 31 d3 bc bc ef fd 3c 36 be 81 3d da 04 08 3d
       -0.025780668 0.030998103 0.06335108 0.03320775
0002d0 f2 fe 11 bd 2d f6 34 bd 07 d7 2e bd dd 1d 56 3d
       -0.035643525 -0.044180084 -0.042685535 0.052274574
0002e0 16 c4 fe bc 08 89 5d bd 6e 3f 3b bd 7c 1e 98 3c
       -0.03109936 -0.05408576 -0.04571479 0.018569224
0002f0 ac 20 0d 3c 07 64 87 3d 71 f2 fc 3a 6c 83 45 bc
       0.008613747 0.066108756 0.0019298327 -0.012055259
000300 17 f9 0f bd c7 5d 37 bd 83 2f 1b bd d8 b5 57 3d
       -0.03514966 -0.044767167 -0.037887108 0.052663654
000310 7f d6 27 bc 58 75 1b bd 5e 50 54 bc 2e 2d 61 bd
       -0.010244011 -0.037953705 -0.012958614 -0.054974727
000320 13 3f 4e bd 34 cf 1a bd 16 c9 08 3c e0 a2 15 bd
       -0.05035312 -0.03779526 0.008348724 -0.036532283
000330 58 b1 61 bd bf 1a 1c 3c 8a 8c 47 3c b8 12 f3 3c
       -0.05510077 0.009527861 0.012179503 0.029672012
000340 b1 10 66 bb 59 7c e7 bc ad 19 31 3d 73 6a 99 bb
       -0.0035105164 -0.028257536 0.043237377 -0.004681879
000350 11 6d 57 3d 8a 1e 2c bd 95 45 24 3c d5 79 85 3d
       0.05259425 -0.04202131 0.010026355 0.06517378
000360 76 29 1d bc 99 a1 02 bd b2 c4 39 3c 48 41 35 bd
       -0.009592405 -0.031892393 0.0113384 -0.04425171
000370 5f 58 c6 3c e4 7e 2e bd 43 db 8e 3d 8a b0 89 3d
       0.02421206 -0.04260148 0.069754146 0.06723125
000380 11 7c f9 3b 47 b2 12 3d 1b cd ae bc 98 4d 86 3c
       0.007613667 0.03581455 -0.021338036 0.016394421
000390 f2 42 93 bd 10 74 9e b9 77 6f 82 3c 48 56 08 3d
       -0.07190503 -0.00030222582 0.015922291 0.03328541
0003a0 a4 ca 45 3d 9b ff d8 bb 4c 05 86 bd 5a cb 4f bc
       0.048288956 -0.0066222674 -0.06543979 -0.01268276
0003b0 65 1c d7 3b 50 0b 33 3d 35 7b 86 bd 8a 92 6f 3d
       0.006564664 0.04371196 -0.065664686 0.05848936
0003c0 75 f5 66 3d eb b1 0f 3d 45 37 93 bd 0c 21 9c bb
       0.05638643 0.035081785 -0.07188276 -0.0047646817
0003d0 a9 50 d2 3c cc d3 2f bd 51 a7 00 3d fa 54 dd bc
       0.025673227 -0.042926595 0.031409565 -0.027018059
0003e0 6a 4b 5c bd 86 5c 08 3c d2 c5 15 3c fd b4 af 3c
       -0.053782858 0.008322841 0.009141402 0.021448607
0003f0 00 c0 01 bd 54 29 4e 3d 43 dd 9a bc a4 fa 90 3d
       -0.031677246 0.050332382 -0.018904334 0.07079056

cell_list.2.conv_can.weight f4 [10, 20, 3, 3]
000000 b5 d9 96 bd 70 cf 02 3d be bf 4f 3d b9 4f 78 bc
       -0.07365743 0.03193611 0.05071997 -0.015155726
000010 ef c9 36 3c 94 de 5d bd 20 3d 92 3c dc 9d 38 3d
       0.011156543 -0.054167345 0.017851412 0.04507242
000020 8e 38 b6 bc 05 71 0c bd 35 06 0a 3d 8e c1 8d bd
       -0.022243764 -0.03428747 0.033697326 -0.06921683
000030 6d 2c 8c bd 70 d8 90 3c 72 68 57 3d 67 10 0c bd
       -0.06844411 0.01768133 0.05258984 -0.03419533
000040 d0 93 30 bd 5d 5a 59 3d 36 3e 60 3d d8 34 68 bd
       -0.043109715 0.053064693 0.05474683 -0.05669102
000050 fb b8 3c 3d d2 cc f2 3c 3b 58 b1 bc 75 49 7e bd
       0.04607485 0.029638682 -0.021648517 -0.062081773
000060 1a b6 ad bc 70 8e 81 3d dc 92 d8 3b ee 48 44 3d
       -0.021204997 0.06325996 0.006609304 0.047921114
000070 7a 95 33 bd 4a c0 12 3d 89 51 06 bd d9 e5 82 bd
       -0.043843724 0.035827912 -0.0327926 -0.06391496
000080 36 98 40 3d d2 74 6c bd ad 9e 8f bd 09 6a 45 3d
       0.04702016 -0.057728596 -0.07012687 0.048196826
000090 cd 04 85 3d 97 8d 14 bd b0 63 91 3d 0d d9 56 3d
       0.06495056 -0.036267843 0.07099092 0.05245309
0000a0 f2 fa e5 bc a6 5d 51 3d c8 46 22 bd d9 4c 85 3d
       -0.028073762 0.0511147 -0.039618284 0.06508798
0000b0 7b dd 62 3d 36 1f b1 bc 18 a1 3d bd b9 45 2a 3c
       0.055387 -0.021621328 -0.04629621 0.0103926
0000c0 f1 f8 04 bd 6e e8 3c 3d ac 69 ac bc 27 e8 46 bc
       -0.03246397 0.0461201 -0.021046482 -0.01214031
0000d0 bc b9 31 3d 35 99 03 3d c7 2e ba bc fa 21 d3 3c
       0.04339002 0.03212853 -0.022727383 0.025773037
0000e0 43 ca 3b bd 2b 40 32 bd 4d d7 81 bb 0b 0b cd bc
       -0.04584719 -0.043518227 -0.0039624334 -0.02502968
0000f0 31 b7 7f bd 3d 6e 1d 3d 5b 5a 27 3d 65 17 7e bd
       -0.062430564 0.03843521 0.040857654 -0.06203403
000100 ab ec 63 3c bd e9 2a 3b fd 4f 81 bd 61 50 83 3d
       0.0139114065 0.002607926 -0.06314085 0.064118154
000110 28 d2 c2 3a 6a c6 65 3c 77 12 f7 3b 7e a7 6e bc
       0.0014863657 0.014024356 0.007540043 -0.0145663
000120 ea da 97 bd 1e 1f 5e 3d bd 1d 8d bd 99 6a d7 bc
       -0.074148014 0.054228894 -0.06890438 -0.026295947
000130 1e 7b cc bc 97 3b 5e bd ee c3 42 bd bc 4d eb 3c
       -0.02496105 -0.054256048 -0.047550134 0.02872359
000140 01 46 68 bc 73 8d cf bc d8 90 a4 3c 00 a3 93 bd
       -0.0141768465 -0.025336003 0.020088598 -0.07208824
000150 3b ab 47 3d 67 fb 56 3d ce a6 be 3c 19 82 d7 3c
       0.048747282 0.05248585 0.023272898 0.026307153
000160 69 24 ac bc be 19 97 3b ce 84 46 bd dd 23 fa bc
       -0.021013455 0.004611223 -0.048466496 -0.03053468
000170 19 0b 75 3b 95 59 88 3d e3 53 43 3d 61 79 25 bd
       0.0037390648 0.066577114 0.047687422 -0.04039896
000180 90 35 04 3d 2d 23 71 3d dc 36 84 bd 7e 21 35 3c
       0.032277644 0.058871437 -0.06455776 0.011055348
000190 76 d2 09 bd 9f af 30 bd c1 19 13 3d 3e 05 44 3c
       -0.033647977 -0.043136235 0.035913233 0.01196414
0001a0 53 d8 25 bd e0 c7 64 bd c1 59 dc 3c 5b fa b7 bc
       -0.040489506 -0.05585468 0.026898267 -0.022458246
0001b0 fb 11 72 bc 4c 6f 02 3d d1 2a 70 3d 38 85 fb ba
       -0.014774795 0.031844422 0.058634583 -0.0019189483
0001c0 7f 5b 90 3b ff 50 86 bd 87 a9 58 bd 5a da 7d 3d
       0.0044054384 -0.065584175 -0.05289605 0.061975814
0001d0 09 22 84 bd 8e b8 48 3d 66 2e 92 3d 47 7e 11 bd
       -0.06451804 0.04900413 0.07137756 -0.035520818
0001e0 c0 23 bc 3c 0c 6c 18 3d 4f 79 38 3b 27 c0 54 bd
       0.022966266 0.037212417 0.0028148477 -0.051941063
0001f0 1d a5 b1 bc f8 27 96 bd 17 7e 8a 3d ba fd 2c 3d
       -0.021685177 -0.07331842 0.06762331 0.04223416
000200 41 3a c2 bb 37 ef 90 bd f0 e9 22 bd 1a 0c c4 3a
       -0.0059273546 -0.070768766 -0.03977388 0.001495722
000210 f4 4b 84 bd 97 6e bb 3b 8e 20 22 3c a0 bf 7b bd
       -0.064597994 0.0057199704 0.009895457 -0.061462045
000220 b2 c4 b4 3b 67 fb 88 bd a5 8b 6a bb 27 6c 60 bd
       0.005516612 -0.06688576 -0.00357888 -0.054790642
000230 a5 2b 95 bc b0 82 7c 3d 04 dc 4e 3c 61 16 31 3c
       -0.018209288 0.06164807 0.012625698 0.010808558
000240 c9 2e 7a bd 4e e1 d6 3c d9 16 fe bb 62 40 db bc
       -0.061079774 0.02623048 -0.0077541885 -0.026764099
000250 53 d5 a9 bc b1 26 88 3c 13 53 b8 3b 2e f8 b9 bc
       -0.020731604 0.016620012 0.0056251376 -0.02270135
000260 b5 38 07 3d 32 09 26 3d 4a 7d a0 3c 22 db 49 bd
       0.033013064 0.040536113 0.019590992 -0.049281247
000270 a0 d8 97 3d 31 e6 f3 3c ad 6a 72 bc 44 6d 1c bd
       0.07414365 0.02977285 -0.014795941 -0.03819014
000280 62 8d 08 3c dc 7c 93 3d 0f 4c 2a bc 11 80 1b 3d
       0.00833449 0.072015494 -0.01039411 0.03796393
000290 8e b5 bf 3c e3 72 1c bc 51 16 81 3d fb 0f 51 3d
       0.023402002 -0.0095488755 0.06303085 0.05104063
0002a0 39 6e 42 3d 10 63 90 bc f6 b3 1b bc 5e b0 21 3d
       0.047468398 -0.017625362 -0.009503355 0.039474837
0002b0 1a 2b b3 3c 5e f6 08 bc 87 5b a5 3c cf 01 97 bd
       0.021871138 -0.00835952 0.020185245 -0.07373392
0002c0 d6 bc cf bc c0 0c bf bc 20 eb 8d 3d 1e d3 67 3d
       -0.025358599 -0.02332151 0.06929612 0.05659782
0002d0 19 55 59 bc 88 50 f0 bc 62 6c 80 3d 35 f1 46 3d
       -0.013264918 -0.029335275 0.062706724 0.048569877
0002e0 0d ec 0d bd bb 80 88 bd 03 2a 6f 3d 88 4e 84 3d
       -0.034648944 -0.066651784 0.058389675 0.06460291
0002f0 ce f4 60 bd 48 af 9e bc 79 28 de 3c 2e 67 52 3d
       -0.054920964 -0.01937069 0.027118908 0.05136793
000300 81 2d 93 bd 8f 5c d8 bc e4 43 f3 3c 21 52 89 bd
       -0.071864136 -0.026411323 0.029695459 -0.06705118
000310 da 89 49 3d b3 9c c9 bc 0d db d0 3c ac 75 d9 bb
       0.04920373 -0.024610853 0.025495077 -0.006636342
000320 44 3d 2a b9 31 41 1e bc e1 11 64 bd 74 85 3f 3d
       -0.00016235287 -0.0096590975 -0.055681113 0.04675813
000330 68 c2 5e 3c c5 bf 41 3d 68 ee 38 3d 71 b8 8e 3d
       0.013596155 0.047302026 0.045149237 0.06968773
000340 91 e2 4f bc 9a 6c 28 3d ca 89 05 bc 50 e2 6b bd
       -0.012688295 0.041119196 -0.008150527 -0.057588875
000350 02 b0 7e 3d 8e 3b 55 3d 4e 9e 41 3d f5 5b 27 3d
       0.062179573 0.05205875 0.04727011 0.04085918
000360 22 6d 80 3b c9 fc 08 bd 83 16 5b bd a1 19 98 bd
       0.0039192596 -0.0334442 -0.053488266 -0.07426763
000370 e7 20 3d bd 07 4e ee bc 7c 88 1e 3d f9 67 52 bc
       -0.046173956 -0.02908994 0.03870438 -0.012842172
000380 e3 ad eb 3a 6f ca 20 3b af c5 9b bc 4b 23 87 bd
       0.00179809 0.0024534722 -0.019015161 -0.065985285
000390 f9 6a 20 3d 98 cf 74 bd f1 8c b4 3b 61 21 f6 bc
       0.039164517 -0.05976829 0.0055099656 -0.030045213
0003a0 b9 53 89 3c 2f 4f 94 bd e1 bf 39 bd 59 cc 17 3d
       0.016763555 -0.072416656 -0.045349006 0.037060115
0003b0 58 35 fa 3c 79 08 56 bd 38 57 01 bd ff d6 27 bd
       0.030543014 -0.052254174 -0.03157732 -0.04097652
0003c0 98 a7 6f bb e7 4f cf 3c 36 44 99 bb d2 92 33 3d
       -0.00365684 0.025306655 -0.004677321 0.04384119
0003d0 29 a8 64 3d e7 f7 e3 3c 42 a5 2d 3d fe 00 7b 3b
       0.055824433 0.02782817 0.04239393 0.0038300152
0003e0 e7 57 67 bd 7b 2c 98 bc 8f 5d 54 3d eb e0 ce 3c
       -0.056480315 -0.018575897 0.051847037 0.025253734
0003f0 e0 5e 6f bd 04 d0 16 3d d6 96 56 3d b0 a3 df 3b
       -0.05844009 0.036819473 0.052389942 0.006824933

cell_list.3.conv_gates.weight f4 [20, 20, 1, 1]
000000 93 45 05 3e 7c 90 b3 3d 7e 4e 1c 3d aa 5b 4e 3e
       0.13014822 0.087677926 0.038160793 0.20152155
000010 f5 22 22 bd b4 c6 56 3d 8d 29 47 3e 52 41 0a 3e
       -0.03958412 0.05243559 0.19449444 0.1350148
000020 bf 99 22 bd e0 c9 0e 3e c4 07 54 3c e9 28 fe bd
       -0.039697405 0.13944197 0.012941305 -0.12410147
000030 d4 30 64 ba 38 81 82 bd a1 46 42 be ad a4 0b 3e
       -0.0008704786 -0.06372303 -0.18972255 0.13637038
000040 d3 12 52 3e 50 c2 28 bd 58 a1 3d 3e c9 7a 17 bc
       0.20514993 -0.041200936 0.18518579 -0.009245583
000050 2a a7 1e be b9 24 5a 3e 6f e5 fb 3d 3e 9c c6 bd
       -0.15493456 0.21303071 0.1229962 -0.096977696
000060 80 31 73 bb 2c f7 93 bd 51 b6 95 bc 67 77 b6 3d
       -0.0037108362 -0.07224879 -0.018275412 0.08909493
000070 77 d4 36 3e c4 dc 53 be 44 ac 58 3d b6 d4 85 bd
       0.17854486 -0.20689684 0.05289866 -0.06534712
000080 15 03 4a be d5 73 42 3e 1c 9b 80 bd a5 1a 95 bd
       -0.19727738 0.18989499 -0.06279585 -0.07280473
000090 2b 28 49 3e 63 67 48 be c6 04 44 be d9 89 8e bd
       0.19644229 -0.19570689 -0.19142446 -0.06959886
0000a0 32 ee 09 bb 3e 07 93 3d 60 06 48 3e 44 71 fa bc
       -0.0021046516 0.07179116 0.19533682 -0.030571587
0000b0 12 34 3b be 8f a7 f1 bc ab 1b 3d 3e ef 48 a6 bd
       -0.18281582 -0.029498843 0.18467586 -0.0811938
0000c0 95 d7 1b be 0b da f4 3d 40 ea 07 bd e6 36 10 be
       -0.15218957 0.11955651 -0.033182383 -0.14083442
0000d0 38 ee 16 3d 0f ad 12 3d ed d2 13 3e a2 f0 58 3d
       0.036848277 0.035809573 0.1443593 0.05296386
0000e0 f4 dc 1e be ac ba 38 3e d8 e7 d1 bc 0d 3d 2b 3e
       -0.15513974 0.1803996 -0.025623247 0.16722508
0000f0 fc 46 63 be 03 9a a9 3c a6 fa 4d be eb a6 2e 3e
       -0.22195047 0.020703321 -0.20115146 0.17055862
000100 f7 d3 14 3e d6 1c 1f be 42 2f 28 3e 96 14 af bc
       0.14533983 -0.15538344 0.16424277 -0.02137212
000110 b9 84 dc 3c 0e 17 fa bd 7d 85 c3 3b b5 15 e7 bd
       0.026918756 -0.122114286 0.005966841 -0.11283437
000120 12 29 bd bc 27 c4 34 3e 17 94 3a bd 4d 44 c0 3d
       -0.023090873 0.17652951 -0.045551386 0.09388027
000130 5d c4 9e 3d 05 63 e8 bd 38 cf 23 bd 68 1e 73 3d
       0.07752297 -0.113470115 -0.03999254 0.05935517
000140 f2 fc 23 3e 0a 73 d3 3d bf ac ae bd 69 77 01 3e
       0.1601446 0.10324676 -0.085290425 0.12643208
000150 a3 63 59 3e 68 dd 1c 3e 2a 04 47 bd 5a 3b fc bd
       0.21229415 0.15318835 -0.048587956 -0.12316008
000160 ff b0 0f 3d d1 de 49 3e ef 24 5b be 72 39 e2 bd
       0.035080906 0.19713904 -0.21400808 -0.11046113
000170 3d 45 0b 3e ea a9 8b 3d 85 3f 7c bd 3d b7 25 be
       0.13600631 0.06819518 -0.061584014 -0.16183181
000180 4d e4 24 3e fa 89 1e bc eb a7 50 bd d9 33 27 3e
       0.16102715 -0.009676451 -0.05094139 0.16328372
000190 ca 42 4f be b6 5e 90 bd 7b cd 4e 3d 3a c3 d1 bc
       -0.20240322 -0.07049315 0.05048893 -0.025605787
0001a0 5c 50 1a bd 98 be 2d be f7 d4 1c be 25 ca 49 3d
       -0.037674293 -0.16967237 -0.15315615 0.049265046
0001b0 61 63 4a 3e a8 37 2c bd 24 41 53 3e 96 b0 43 bd
       0.19764473 -0.042045265 0.20630318 -0.047775827
0001c0 3b af ba bd e4 08 1b be e2 f5 75 3b ca e8 2f 3e
       -0.09115454 -0.1514011 0.003753059 0.17178646
0001d0 69 2d 1f be 0d 9b bc 3d e6 b7 41 3e 7b ad 31 bd
       -0.15544666 0.09209261 0.18917808 -0.043378334
0001e0 85 f1 22 be 97 6e d8 3d 06 2e 0b be f3 82 4e 3e
       -0.15912445 0.10567968 -0.13591775 0.2016714
0001f0 b8 c5 15 bd 94 bb a0 3d d7 97 88 3d e7 d0 0f 3e
       -0.036565512 0.07848278 0.06669586 0.14044534
000200 d7 b4 c5 3d dd 6b 4a be 1c ce a1 3d f2 2a 01 bd
       0.09653633 -0.19767709 0.0790064 -0.031535096
000210 39 67 02 be 66 62 98 3d 05 9d 3b 3e b0 9f 94 bd
       -0.12734689 0.07440643 0.18321617 -0.072570205
000220 ef 61 4a 3e db f7 3f bd 7d b0 0e bd 8c df 48 be
       0.19763921 -0.046867233 -0.03483628 -0.19616526
000230 99 6b dd 3c f2 df 57 bd 8c 13 39 be 60 39 24 3e
       0.027028846 -0.052703805 -0.18073863 0.16037512
000240 1b e4 dd bd 99 55 6b bc a6 7b 34 3c b8 37 5c bd
       -0.10834523 -0.01436367 0.011015808 -0.053764075
000250 c1 dd ff 3c 7b d8 5b be e3 88 cc 3b c0 20 3e be
       0.03123367 -0.214693 0.006241904 -0.1856718
000260 cc 8d 1a be af bc d7 bd e5 ba 37 be 72 cc af bb
       -0.15093154 -0.105340354 -0.17942388 -0.005364948
000270 46 b3 54 bc b3 4a 29 be 6c 60 d2 bd 68 e3 a0 3d
       -0.012982195 -0.16532402 -0.10272297 0.07855874
000280 a6 5a d7 3d 6c bb 58 be 96 5c 59 be 3e 18 2d 3d
       0.10515337 -0.21165246 -0.21226725 0.042259447
000290 ff 46 1a 3e e8 dd 1e be f1 45 da 3d f1 06 a5 bd
       0.15066145 -0.15514338 0.106578715 -0.080579646
0002a0 36 ea 5b be e0 3b 67 3b d5 0f 46 3e bf 1e 83 3d
       -0.21476063 0.003528349 0.19341977 0.06402349
0002b0 4d a3 af 3c e8 5b fe 3d f1 eb 07 be 77 62 34 3d
       0.021440173 0.124198735 -0.13273598 0.044039216
0002c0 cb 68 1b bc e9 fb 13 bb b1 e5 2b be 38 e9 af bd
       -0.009485434 -0.002258057 -0.16786839 -0.08589405
0002d0 f1 a8 78 bd 88 44 f2 bc 87 ef 58 be 21 42 89 bc
       -0.06070799 -0.029573694 -0.21185122 -0.016755166
0002e0 27 2d 88 3d b9 27 b3 bd 2e 52 58 be 52 35 42 bd
       0.06649237 -0.08747811 -0.21125099 -0.04741413
0002f0 85 91 56 be f1 ac ad bd 3f ab 42 be ff 36 25 3e
       -0.20953949 -0.084802516 -0.19010638 0.1613426
000300 8b 72 47 3d 35 9f ec 3d 4b 94 82 bd 44 e8 96 bc
       0.04869322 0.11553804 -0.06375941 -0.0184213
000310 69 2e f3 bd f7 6a af bd 7b de 51 bd c4 88 0f 3e
       -0.118740864 -0.08565324 -0.051237565 0.14017016
000320 36 a3 43 be ca 2c dc bd 59 b7 0f be 4e 0e 0a 3e
       -0.19105229 -0.1075073 -0.14034785 0.1348202
000330 d9 12 62 be a7 bc f4 3d 10 e1 19 3d 78 a0 9b 3d
       -0.22077502 0.11950045 0.037568152 0.07598966
000340 26 0f 89 bc 18 27 1b 3e 00 95 ca bd 46 c1 06 3e
       -0.016730856 0.15151632 -0.09891701 0.13159665
000350 df 9d 10 3e a5 49 3b 3e d4 22 91 bd 96 dc fa bd
       0.14122723 0.18289812 -0.07086721 -0.12249105
000360 6a bf cb b9 35 c2 08 3e cb 13 f6 bc 26 dc ea 3d
       -0.00038861792 0.13355334 -0.030038735 0.11467771
000370 ae 27 31 be b5 28 2d bc e4 c1 fa bd f4 d3 12 be
       -0.17300293 -0.010568787 -0.12244013 -0.14338666
000380 f5 61 9a 3d ac ca 2b 3e 2b 93 a4 bd ee fd 87 bd
       0.07538215 0.16776532 -0.080358826 -0.0664023
000390 f9 9c 21 3e c0 8a 2a bd 4a e0 9f bd 68 ca 01 bc
       0.15782537 -0.04163623 -0.078064516 -0.007921793
0003a0 c9 7d 1f be 18 06 4e 3e f9 e5 14 be d2 0a 67 3d
       -0.15575327 0.20119512 -0.14540853 0.056406803
0003b0 a6 92 05 3d 45 f6 bd 3d 74 87 49 3d 5d 75 2b 3e
       0.032610558 0.09275488 0.049201444 0.1674399
0003c0 79 af 17 bd 3b c8 b9 3d ef 80 49 3e db 46 c6 3c
       -0.03703258 0.09071394 0.1967809 0.024203708
0003d0 27 48 90 bd d3 c5 fe bd a0 6b cf bc e1 19 16 3e
       -0.07045012 -0.12440076 -0.025319874 0.1465831
0003e0 11 a0 0c be 3d 82 83 3d 71 02 36 be 84 46 72 3d
       -0.13732935 0.06421325 -0.17774369 0.05914928
0003f0 d0 47 bb 3c ed 5a 44 be 5d eb 1a be 2c 4b 27 3e
       0.022861391 -0.1917531 -0.15128846 0.1633727
