saved_models/4task/big_rnn_6.pt (torch, 164174 bytes, 16 tensors)

cell_list.0.conv_gates.weight f4 [20, 11, 3, 3]
-0.6957427 -1.0423524 -0.9516241 -1.2914596 -1.5520637 -1.43873 -1.1441796 -1.1433505
-1.0007361 -0.08361229 -0.064584546 -0.21183103 -0.055215478 0.37978533 -0.24319987 0.113621846
0.12018173 0.06629667 0.2806531 0.09242332 0.12485624 0.126294 -0.026640711 0.032414597
-0.13127404 -0.38804576 -0.5250923 0.107531436 0.16776128 0.23098125 0.13988799 0.1237335
0.299909 -0.23177554 -0.03608374 -0.055509392 0.04200827 0.02692578 0.042297672 -0.07416481
0.12537201 0.033602487 0.19564599 0.20017174 0.2604953 -0.2748096 -0.14921916 -0.14530593
-0.034966208 0.11241257 0.26284495 0.29613844 0.7882823 0.82622224 0.017615782 -0.15263781
-0.26909184 0.13960555 -0.06844811 -0.13141234 0.31753635 0.3045845 0.22927783 0.10497359
-0.032821167 0.06269976 0.18759817 -0.022434112 -0.014761726 0.10635538 0.020722607 -0.16092211
0.37063527 0.2164439 0.030504713 0.13512401 0.19569956 0.046011746 0.2330533 0.32776606
0.23730545 -0.35265702 -0.31971952 -0.23177914 -0.1501959 -0.098234415 -0.18006897 -0.2775336
-0.20811611 -0.2041571 0.0077625727 0.064749986 0.19261068 -0.11248257 -0.035436627 0.07342965
-0.17425458 -0.18369918 -0.27965498 -0.1946937 -0.33533522 -0.25313887 -0.5268982 -0.71430814
-0.7611985 -0.8173754 -0.99850845 -0.83010656 0.94110286 0.7760071 0.8931046 0.6794476
0.46510756 0.58755857 0.48382807 0.27159584 0.38107 -0.58489454 -0.52337956 -0.6018279
-0.3949138 -0.30440733 -0.27484253 -0.11539703 -0.07682182 -0.0819995 -0.6261634 -0.61588806
-0.7693121 -0.70924187 -0.7163999 -0.8552002 -0.82580197 -0.90168047 -0.7694173 0.5957872
0.49513265 0.5284242 0.34533694 0.21060811 0.23517488 0.33496863 0.24413021 0.19267921
0.48661974 0.52502835 0.53943354 0.4733967 0.36217332 0.28426018 0.18063234 0.003953825
0.17437965 0.79172003 0.78467214 0.9773906 0.51928395 0.26527715 0.5471931 0.36851487
0.24763809 0.28555286 0.12339627 0.07213962 0.005937412 0.013270876 0.110954516 0.00305206
0.2401125 0.27482727 0.27289182 0.92438674 1.1199286 1.2889891 0.44035783 0.44778982
0.6811599 0.5548436 0.45574287 0.4921369 -1.6121609 -1.8165511 -1.8597935 -1.1741652
-1.1344378 -1.227621 -0.68336993 -0.79668325 -0.8720944 -0.31021845 -0.26901668 -0.47926462
0.03536522 0.07319004 -0.0053113624 -0.19182394 -0.04318704 -0.19555816 0.37369555 0.31842795
0.2728869 0.2061783 0.047575757 0.16132209 -0.05767237 -0.17567055 -0.29878694 0.22837631
0.27374858 0.29526642 -0.094667256 0.08930215 0.29640436 -0.2795527 -0.07277882 -0.05464218
0.3238682 0.45619977 0.45277077 0.6731726 0.64816576 0.4263807 0.6042386 0.5248294
0.31999043 0.55168885 0.42685217 0.4828794 0.49005312 0.014279204 0.42443937 0.4599839
0.5996288 0.44188446 0.050217103 0.26494467 0.45573053 -0.15881577 0.22987287 0.28632203
-0.31059468 -0.09294547 0.06605057 -0.32285205 -0.37986225 -0.12982365 -0.49984914 -0.25698873
-0.20793316 -0.5441007 -0.3089801 0.15471214 0.19160172 0.42747182 0.5556001 0.10039536
00000000: 321c 32bf ce6b 85bf a39d 73bf 8c4e a5bf
00000010: 06aa c6bf 4e28 b8bf 7a74 92bf 4f59 92bf
00000020: 1f18 80bf ec3c abbd e744 84bd 3cea 58be
00000030: a029 62bd 3973 c23e 6309 79be 92b2 e83d
00000040: d721 f63d 8cc6 873d c3b1 8f3e 7048 bd3d
00000050: a1b4 ff3d 3753 013e 9f3d dabc 2bc5 043d
00000060: b46c 06be efad c6be 736c 06bf 7139 dc3d
00000070: 9dc9 2b3e 5986 6c3e cc3e 0f3e fd67 fd3d
00000080: ac8d 993e 9156 6dbe 8bcc 13bd d15d 63bd
00000090: dd10 2c3d 7493 dc3c 5340 2d3d b8e3 97bd
000000a0: 8561 003e c3a2 093d 6c57 483e d2f9 4c3e
000000b0: a45f 853e d8b3 8cbe e8cc 18be 14cb 14be
000000c0: ba38 0fbd 9038 e63d 9d93 863e 759f 973e
000000d0: decc 493f 4d83 533f f94e 903c 164d 1cbe
000000e0: 68c6 89be c2f4 0e3e 862e 8cbd f590 06be
000000f0: 2094 a23e 80f2 9b3e cfc7 6a3e 65fc d63d
00000100: 7d6f 06bd bb68 803d bc19 403e bec7 b7bc
00000110: 2bdb 71bc d9d0 d93d 75c2 a93c c4c8 24be
00000120: e8c3 bd3e 78a3 5d3e 05e5 f93c f35d 0a3e
00000130: 7765 483e d076 3c3d 86a5 6e3e f4d0 a73e
00000140: 3300 733e 768f b4be 47b2 a3be 8357 6dbe
00000150: f4cc 19be 202f c9bd 0064 38be e218 8ebe
00000160: 641c 55be 8f0e 51be 2e5d fe3b a49b 843d
00000170: bc3b 453e 435d e6bd ff25 11bd 4962 963d
00000180: cb6f 32be a31b 3cbe f02e 8fbe c95d 47be
00000190: 0fb1 abbe 6b9b 81be cde2 06bf e6dc 36bf
000001a0: e8dd 42bf 843f 51bf 409e 7fbf dd81 54bf
000001b0: 1eec 703f 67a8 463f 81a2 643f 47f0 2d3f
000001c0: 9422 ee3e 3d6a 163f 50b8 f73e 9c0e 8b3e
000001d0: 9b1b c33e a6bb 15bf 34fc 05bf 6511 1abf
000001e0: 2432 cabe 47db 9bbe 29b8 8cbe 4755 ecbd
000001f0: c254 9dbd 5bef a7bd 3f4c 20bf d7aa 1dbf
00000200: a3f1 44bf e090 35bf fc65 37bf 66ee 5abf
00000210: c267 53bf 88d4 66bf 88f8 44bf 8385 183f
00000220: 0782 fd3e cf46 073f 01d0 b03e a7a9 573e
00000230: afd1 703e 0281 ab3e 45fd 793e b34d 453e
00000240: 3926 f93e 4268 063f 5118 0a3f 0d61 f23e
00000250: c86e b93e 8d8a 913e aff7 383e 178f 813b
00000260: 9490 323e 2aae 4a3f 46e0 483f 4536 7a3f
00000270: cbef 043f 68d2 873e d914 0c3f fbad bc3e
00000280: d794 7d3e fc33 923e 2fb7 fc3d f0bd 933d
00000290: 9f8e c23b 176e 593c 1f3c e33d 1205 483b
000002a0: 0de0 753e 29b6 8c3e 7ab8 8b3e 9ca4 6c3f
000002b0: d259 8f3f 98fd a43f 9576 e13e b544 e53e
000002c0: 7f60 2e3f 3b0a 0e3f 2157 e93e 5ef9 fb3e
000002d0: 4a5b cebf bf84 e8bf b70d eebf 0c4b 96bf
000002e0: 4235 91bf af22 9dbf 55f1 2ebf 6ff3 4bbf
000002f0: 9441 5fbf f4d4 9ebe 8ebc 89be 2c62 f5be
00000300: 1fdb 103d a9e4 953d f00a aebb 7f6d 44be
00000310: e5e4 30bd 6640 48be 0655 bf3e fd08 a33e
00000320: d5b7 8b3e 6720 533e ccde 423d 9e31 253e
00000330: dd39 6cbd fbe2 33be 9afa 98be 7bdb 693e
00000340: c628 8c3e 292d 973e e8e0 c1bd 0ce4 b63d
00000350: 50c2 973e 8821 8fbe 100d 95bd 7bd0 5fbd
00000360: 0dd2 a53e 0493 e93e 92d1 e73e 0a55 2c3f
00000370: 31ee 253f 924e da3e 62af 1a3f 385b 063f
00000380: c9d5 a33e 7b3b 0d3f 5e8c da3e f83b f73e
00000390: 3ee8 fa3e 53f3 693c 1e50 d93e 0283 eb3e
000003a0: 4681 193f ae3e e23e 73b0 4d3d d4a6 873e
000003b0: 8355 e93e 9aa0 22be cb63 6b3e cd98 923e
000003c0: 4406 9fbe 325a bebd 8545 873d dd4c a5be
000003d0: 4e7d c2be 7ef0 04be 3aec ffbe 0794 83be
000003e0: 6eec 54be 2f4a 0bbf a432 9ebe dc6c 1e3e
000003f0: 3e33 443e 96dd da3e cf3b 0e3f 159c cd3d

cell_list.0.conv_can.weight f4 [10, 11, 3, 3]
0.18681327 0.07831156 -0.048190653 0.22593558 0.08371156 0.112677924 0.008714037 -0.063632995
-0.084887795 0.29665518 0.2019707 0.08122214 0.22876838 -0.007875049 0.08564969 0.09567047
0.022892427 0.09158674 -0.039628256 -0.16009097 -0.1862006 -0.20924552 -0.29431546 -0.16159797
-0.30361068 -0.16506672 0.061192192 -0.18014294 -0.18513896 -0.12783684 -0.09010884 -0.048368983
0.048380293 -0.10396377 -0.07916819 0.02285363 0.2686318 0.1783096 0.0084900325 0.23075958
0.11855468 0.012400211 0.16904426 0.10203759 0.045599375 0.20908312 0.1602388 0.25964388
0.3577002 0.42389995 0.14797866 0.3313952 0.40587628 0.36561203 0.25812253 0.057912625
0.10280615 0.128118 0.09140705 0.06605025 0.070192136 0.01633711 -0.030244764 0.06202532
-0.1593239 0.038565136 -0.06708669 -0.047842726 -0.05797727 -0.20555766 -0.21921498 0.036951195
-0.0073813368 -0.026659595 0.0291061 0.014080438 -0.0023490035 0.043755088 0.035493284 -0.11995668
-0.048639312 -0.02010777 -0.016026748 0.055162743 -0.03156366 0.046853635 0.05135302 0.02234905
-0.052331317 0.16681674 -0.23221196 -0.055608563 0.013838831 -0.025216704 0.080635786 0.068621896
0.09030326 -0.06203277 0.081359796 -0.4151519 -0.23806559 -0.34558725 0.0037336007 -0.068094194
0.1162131 0.2488979 0.3331452 0.4075801 0.021024486 -0.0809422 0.015887477 0.021115167
0.18498155 0.17383696 0.20796002 0.14721927 0.08835787 0.91401964 0.7461832 0.35073265
1.5214173 1.0967836 0.5249195 0.71744883 0.39837465 0.13391915 -0.07926575 -0.100334644
0.11680475 -0.024964701 -0.12585112 0.11988808 -0.025306486 0.016896944 0.15632468 -0.14399676
0.04314734 -0.09268878 0.12350849 0.059081204 0.028255217 0.20201395 0.16242027 0.33051154
-1.0143471 -0.78258115 -0.39038444 -1.1377563 -0.9229433 -0.38529244 -0.58975303 -0.2538207
0.006618102 -0.0020014404 0.10440094 -0.11016587 0.060144544 0.111534126 -0.008118451 0.08465273
0.1655946 0.13553134 0.0054359483 0.114726946 -0.16273077 0.46291858 0.41101134 0.26697317
0.30097842 0.38499516 0.18605937 -0.03748646 -0.005009 -0.10962699 0.0680345 0.04791705
-0.055210773 -0.0073822034 0.04219385 -0.024519539 0.13348852 0.11334624 0.07012681 0.07922882
0.062949836 0.09967403 0.13884766 -0.10721253 0.13897078 0.009414711 0.039936736 0.058931135
-0.08858399 -0.045752194 -0.012099803 -0.3091748 -0.10607726 -0.13805613 0.02018955 0.016402349
0.032810044 -0.10457857 -0.13492271 -0.03127071 -0.14114235 -0.17191006 -0.07309164 0.13841285
0.12637942 0.1512851 0.17889768 0.19332618 0.10617646 0.1713282 0.01955224 0.11540304
0.13040465 0.20331684 0.28453907 0.24360606 0.29540095 0.30624676 0.32667527 0.5581041
0.5190035 0.07030335 0.11608678 0.02113697 -0.029763322 -0.062145673 -0.024664292 0.21035606
-0.028052889 0.08691967 0.2623757 0.20739262 0.31440777 0.23920412 0.2082586 0.34520012
0.32605296 0.31608576 0.106234215 -0.020117274 -0.104128554 -0.1784541 0.046539914 -0.14126611
-0.2601089 -0.2867419 -0.4186235 -0.44882947 0.34526294 0.33414602 0.25751886 0.25986624
00000000: fa4b 3f3e d061 a03d 9063 45bd a85b 673e
00000010: f770 ab3d afc3 e63d 52c5 0e3c 0452 82bd
00000020: a7d9 adbd 30e3 973e 68d1 4e3e cb57 a63d
00000030: 4242 6a3e 5906 01bc 1b69 af3d e1ee c33d
00000040: e688 bb3c d491 bb3d 3d51 22bd e3ee 23be
00000050: 5fab 3ebe 7544 56be 84b0 96be f079 25be
00000060: dc72 9bbe 4007 29be aaa4 7a3d 6477 38be
00000070: 1195 3dbe a9e7 02be fc8a b8bd 8e1e 46bd
00000080: 6a2a 463d f5ea d4bd ef22 a2bd 8937 bb3c
00000090: 1b8a 893e cb96 363e c719 0b3c 3d4c 6c3e
000000a0: cccc f23d 412a 4b3c f019 2d3e 16f9 d03d
000000b0: 69c6 3a3d e319 563e a415 243e 0bf0 843e
000000c0: 7b24 b73e 6a09 d93e b887 173e a2ac a93e
000000d0: 04cf cf3e 8031 bb3e a328 843e ca35 6d3d
000000e0: 088c d23d 5d31 033e 9f33 bb3d 5a45 873d
000000f0: e5c0 8f3d 67d5 853c dec3 f7bc 430e 7e3d
00000100: ce25 23be 7af6 1d3d bf64 89bd bcf6 43bd
00000110: 9379 6dbd b57d 52be e479 60be 235a 173d
00000120: 24df f1bb 3965 dabc ea6f ee3c a3b1 663c
00000130: bdf1 19bb 8938 333d 6861 113d d9ab f5bd
00000140: 043a 47bd 0db9 a4bc 874a 83bc 54f2 613d
00000150: e548 01bd 99e9 3f3d 8b57 523d 5b15 b73c
00000160: 5d59 56bd 02d2 2a3e f9c8 6dbe cec5 63bd
00000170: 44bc 623c 4393 cebc 6024 a53d a389 8c3d
00000180: eaf0 b83d 1316 7ebd f79f a63d ca8e d4be
00000190: 77c7 73be d0f0 b0be 6daf 743b f874 8bbd
000001a0: 2201 ee3d 17df 7e3e 0292 aa3e 57ae d03e
000001b0: 8b3b ac3c 06c5 a5bd 7426 823c b7f9 ac3c
000001c0: ce6b 3d3e 5102 323e 79f3 543e a6c0 163e
000001d0: f9f4 b43d 31fd 693f dd05 3f3f 3b93 b33e
000001e0: cdbd c23f 6863 8c3f 2061 063f baaa 373f
000001f0: c3f7 cb3e 1a22 093e 1556 a2bd 407c cdbd
00000200: 5437 ef3d c682 ccbc 1edf 00be e287 f53d
00000210: 8c4f cfbc 766b 8a3c 9413 203e e373 13be
00000220: 44bb 303d 9dd3 bdbd 05f2 fc3d 22ff 713d
00000230: 7c77 e73c bfdc 4e3e 8051 263e cf38 a93e
00000240: 20d6 81bf 3d57 48bf 78e0 c7be 00a2 91bf
00000250: 0346 6cbf 0d45 c5be 0efa 16bf c9f4 81be
00000260: aadc d83b 992a 03bb 29d0 d53d a59e e1bd
00000270: 205a 763d 016c e43d 4003 05bc 695e ad3d
00000280: a191 293e bac8 0a3e 0a20 b23b f6f5 ea3d
00000290: e5a2 26be aa03 ed3e 1470 d23e b5b0 883e
000002a0: d819 9a3e 161e c53e 5986 3e3e 678b 19bd
000002b0: 8a22 a4bb 1e84 e0bd ac55 8b3d ab44 443d
000002c0: b124 62bd 69e6 f1bb 75d3 2c3d 33dd c8bc
000002d0: 37b1 083e 1322 e83d a59e 8f3d b842 a23d
000002e0: d8eb 803d e621 cc3d 152e 0e3e 3e92 dbbd
000002f0: 5b4e 0e3e 2940 1a3c b494 233d c661 713d
00000300: 866b b5bd a766 3bbd 413e 46bc 294c 9ebe
00000310: 093f d9bd 965e 0dbe 8e64 a53c 385e 863c
00000320: d363 063d 4a2d d6bd 2e29 0abe b715 00bd
00000330: 9f87 10be 3109 30be 12b1 95bd 19bc 0d3e
00000340: 9b69 013e 7bea 1a3e f430 373e 4cf7 453e
00000350: 0b73 d93d a970 2f3e 052c a03c 6e58 ec3d
00000360: cc88 053e 4a32 503e 1baf 913e de73 793e
00000370: cb3e 973e 60cc 9c3e fb41 a73e e9df 0e3f
00000380: 6add 043f 34fb 8f3d e8be ed3d 7027 ad3c
00000390: 36d2 f3bc 768c 7ebd c50c cabc 9467 573e
000003a0: 2ccf e5bc f102 b23d 1c56 863e bb5e 543e
000003b0: 0efa a03e edf1 743e be41 553e 12be b03e
000003c0: 6af0 a63e fed5 a13e 5391 d93d fbcc a4bc
000003d0: 5a41 d5bd acbc 36be a3a0 3e3d 10a8 10be
000003e0: fe2c 85be d6cf 92be d255 d6be facc e5be
000003f0: 4ec6 b03e 3015 ab3e 83d9 833e 300d 853e

cell_list.1.conv_gates.weight f4 [20, 20, 3, 3]
0.33922327 0.19944353 0.26988098 0.27653867 0.21789101 -0.02832426 0.25259754 0.15576124
-0.15436308 -0.2179771 -0.2682527 -0.12614222 -0.123008855 -0.117800444 -0.03473983 0.16803035
0.048868284 -0.056673735 0.11920477 0.101698324 -0.034987137 -0.049064398 0.117276855 0.11487058
-0.12927805 -0.120990165 -0.093384355 0.08044942 0.016828617 0.027656265 0.094601154 0.06868257
0.13076037 0.06653931 0.24537992 0.32316494 0.07483276 -0.018520828 0.045390856 0.008227329
-0.12054115 -0.15369846 -0.2561831 -0.3279447 -0.35720855 0.31121558 0.2592413 0.022651544
0.042769156 0.08168046 -0.05060706 -0.2111752 -0.24629338 0.005851086 0.23142631 0.22253628
0.077197485 0.14729209 0.17451432 0.02997551 -0.10693784 -0.03367437 0.040622704 -0.07032168
-0.1883289 -0.14614944 -0.18449524 -0.18092503 -0.157961 -0.06637382 -0.012653979 -0.07436268
-0.065592244 -0.03984076 -0.009580472 -0.23662166 -0.21185705 0.02079867 -0.27919063 -0.0908457
0.052195564 0.16005652 0.20292896 0.111595996 0.16786905 0.21858646 0.21860239 0.22126752
0.24935944 0.16402589 0.1420845 0.09853912 0.1629175 0.21617903 0.0981077 0.15829621
0.23865245 0.15502237 0.06782165 -0.15357764 -0.08564918 -0.16607152 -0.24004778 -0.25161165
-0.18275805 -0.25244337 -0.23728326 -0.19641948 0.1059355 0.18512067 0.31729302 0.21108273
0.27892518 0.18895976 0.2692854 0.2332848 0.26460528 0.17464039 -0.026832111 0.009160017
0.11009448 0.1410256 0.09104898 0.108763255 0.11939052 0.019852947 -0.11350885 0.031477127
-0.06608453 -0.0692395 -0.17817762 -0.0827736 -0.07019488 -0.085522614 -0.06405299 0.003116117
0.14176506 0.13042763 0.15286359 0.14710987 0.1603896 0.13913181 0.13672961 0.17555061
-0.052339945 0.078255035 -0.028975328 0.18318905 0.17934532 0.055939574 0.2945381 0.2972308
0.18466601 -0.20227075 -0.12265878 -0.1212052 -0.1723193 -0.13665663 -0.08611485 -0.13212267
-0.093029216 0.011637663 0.13026474 0.16526736 0.27936623 0.29868573 0.43443346 0.33838755
0.51135933 0.42881048 0.25211498 -0.3654953 -0.3614544 -0.25265548 -0.2836944 -0.31955022
-0.34171417 -0.16476679 -0.39341345 -0.29538757 0.16051261 0.19704631 0.1446513 0.30064806
0.2976631 0.3839822 0.47524044 0.3860442 0.26535147 -0.07613776 -0.20737885 -0.2553128
-0.03243962 -0.18550648 -0.36531618 -0.18498619 -0.41526815 -0.46879658 0.056176815 0.07129978
0.19597113 -0.06965659 0.14196299 0.08025829 -0.005335852 0.0605813 -0.02589671 -0.27630317
-0.17460409 -0.006999666 0.09705408 -0.0023602946 -0.022526322 0.0930209 0.06199139 -0.02534381
0.053609706 -0.008529398 0.012821533 -0.06380923 -0.01011046 -0.15202825 0.06389496 -0.07300543
-0.20081054 0.047630988 0.07664592 -0.08980575 -0.29425615 -0.10220636 -0.04266654 -0.13891152
-0.31464735 -0.12754565 0.057889733 -0.10808564 -0.08472211 0.054925267 0.0014767386 -0.06538983
-0.14736693 -0.15033585 -0.081483684 0.11119511 0.12741871 0.10508436 0.11619808 0.07352923
0.10993197 0.15820839 0.23569626 0.281019 0.1176691 0.08963526 0.057420254 -0.15559345
00000000: acae ad3e ed3a 4c3e d72d 8a3e 7a96 8d3e
00000010: d21e 5f3e 4708 e8bc 7754 813e e07f 1f3e
00000020: 5b11 1ebe 6435 5fbe 6b58 89be 6d2b 01be
00000030: 11ec fbbd 5c41 f1bd 5a4b 0ebd 2610 2c3e
00000040: 1c2a 483d b822 68bd a121 f43d 3647 d03d
00000050: ac4e 0fbd c0f7 48bd d92e f03d 4441 eb3d
00000060: 7761 04be b1c9 f7bd 4c40 bfbd aac2 a43d
00000070: 2bdc 893c 648f e23c 40be c13d 72a9 8c3d
00000080: 0ce6 053e c345 883d e044 7b3e e075 a53e
00000090: eb41 993d feb8 97bc c3eb 393d ebcb 063c
000000a0: 47de f6bd 2163 1dbe 6e2a 83be 5ee8 a7be
000000b0: 0ae4 b6be a657 9f3e 47bb 843e bb8f b93c
000000c0: b62e 2f3d 1648 a73d 5949 4fbd 503e 58be
000000d0: 5534 7cbe 78ba bf3b 05fb 6c3e 8de0 633e
000000e0: b719 9e3d bdd3 163e e2b3 323e 338f f53c
000000f0: 3a02 dbbd 23ee 09bd fe63 263d d004 90bd
00000100: 4bd9 40be 33a8 15be 52ec 3cbe 6944 39be
00000110: 87c0 21be ffee 87bd a252 4fbc 764b 98bd
00000120: 3a55 86bd 1130 23bd 69f7 1cbc f34c 72be
00000130: 0ef1 58be f961 aa3c 13f2 8ebe 4f0d babd
00000140: 04cb 553d dbe5 233e 9ccc 4f3e 718c e43d
00000150: dde5 2b3e 21d5 5f3e 4ed9 5f3e f493 623e
00000160: 1558 7f3e 67f6 273e 997e 113e e1ce c93d
00000170: d8d3 263e 095e 5d3e b1ec c83d 6718 223e
00000180: 4f61 743e 2fbe 1e3e 14e6 8a3d 7543 1dbe
00000190: d668 afbd a70e 2abe 16cf 75be 3ed3 80be
000001a0: ed24 3bbe 4240 81be 62fa 72be 3022 49be
000001b0: b6f4 d83d 4690 3d3e 3b74 a23e 1226 583e
000001c0: 48cf 8e3e ab7e 413e c7df 893e 36e2 6e3e
000001d0: 587a 873e eed4 323e 04cf dbbc e513 163c
000001e0: 3779 e13d 0469 103e e377 ba3d 45bf de3d
000001f0: 0483 f43d a6a2 a23c 5477 e8bd 29ee 003d
00000200: 5357 87bd 70cd 8dbd 3274 36be 3585 a9bd
00000210: 55c2 8fbd 7b26 afbd 372e 83bd c537 4c3b
00000220: dc2a 113e d28e 053e 4688 1c3e f8a3 163e
00000230: 2c3d 243e 9278 0e3e d902 0c3e 8ac3 333e
00000240: 6962 56bd 2d44 a03d ab5d edbc e995 3b3e
00000250: 4da6 373e e520 653d b3cd 963e a32e 983e
00000260: 1619 3d3e 1020 4fbe 8734 fbbd 6f3a f8bd
00000270: 7874 30be b7ef 0bbe fc5c b0bd 2a4b 07be
00000280: 1a86 bebd e5ab 3e3c 1f64 053e d93b 293e
00000290: 1709 8f3e 56ed 983e 106e de3e 2241 ad3e
000002a0: 72e8 023f 0c8d db3e 3715 813e 3322 bbbe
000002b0: 8d10 b9be 0f5c 81be 6440 91be 169c a3be
000002c0: 29f5 aebe a0b8 28be 7d6d c9be 0a3d 97be
000002d0: 6b5d 243e 82c6 493e 781f 143e 8bee 993e
000002e0: 4c67 983e 5199 c43e b752 f33e 96a7 c53e
000002f0: 26dc 873e 1dee 9bbd 1f5b 54be 5cb8 82be
00000300: 68df 04bd 69f5 3dbe b90a bbbe 056d 3dbe
00000310: 079e d4be 1b06 f0be a919 663d 9e05 923d
00000320: a8ac 483e 1da8 8ebd bf5e 113e 755e a43d
00000330: 5fd8 aebb 1924 783d 5625 d4bc 9c77 8dbe
00000340: 6acb 32be 745d e5bb 4ac4 c63d 2caf 1abb
00000350: 1f89 b8bc be81 be3d afea 7d3d d29d cfbc
00000360: da95 5b3d e3be 0bbc 6811 523c 6aae 82bd
00000370: 58a6 25bc 4bad 1bbe 5cdb 823d df83 95bd
00000380: 47a1 4dbe b618 433d 89f8 9c3d 14ec b7bd
00000390: bea8 96be 9151 d1bd 1cc3 2ebd d23e 0ebe
000003a0: 7519 a1be 549b 02be c91d 6d3d 015c ddbd
000003b0: c982 adbd 51f9 603d 208f c13a 1aeb 85bd
000003c0: 5be7 16be a4f1 19be ebe0 a6bd 43ba e33d
000003d0: 0d7a 023e 7836 d73d 42f9 ed3d 7e96 963d
000003e0: 0324 e13d 6101 223e 5c5a 713e b9e1 8f3e
000003f0: 7ffc f03d b192 b73d 8031 6b3d e453 1fbe

cell_list.1.conv_can.weight f4 [10, 20, 3, 3]
0.17602745 0.16847755 0.15370774 0.0190449 0.09515118 0.05435914 0.0716144 0.086026326
0.072374895 -0.16403468 -0.14487617 -0.0023071526 0.17095068 0.024080165 0.06613074 0.050189354
0.0878153 0.12125188 -0.013419711 -0.1209179 -0.07141519 -0.10664833 -0.13966648 -0.07458749
-0.08288104 -0.07664483 -0.022365592 -0.054087114 0.016911475 -0.028904695 0.12574619 0.19910404
0.23227268 0.039810013 0.19143116 0.20936517 0.075786464 0.029980347 0.08368029 0.051408175
0.12945798 0.014237854 0.21175282 0.2221858 0.14727384 0.052771054 0.0055526053 0.13790277
-0.11052207 -0.09636159 -0.12355395 -0.20123124 -0.16640837 -0.22697623 0.19567274 0.13109298
0.120313905 0.22062021 0.099019535 0.083079465 0.22563393 0.14182389 0.16598417 -0.13857622
-0.061766554 0.06473237 -0.19992976 -0.10740233 -0.15974584 -0.094843894 -0.13672386 -0.025066389
-0.17025028 -0.052988023 -0.05871763 0.055208743 -0.06419673 -0.030954076 0.022054289 0.031653002
0.09793162 -0.18543549 -0.09431423 -0.008154856 -0.0941153 -0.013979052 -0.04824698 0.088088654
0.13208894 0.123737 -0.02537288 -0.04244918 0.038721576 0.017894171 0.03736006 0.03687878
0.056229316 -0.00811226 0.10152965 -0.014932392 -0.08444822 -0.051096354 -0.11995138 -0.12654589
-0.13384634 -0.16988918 -0.070884705 -0.13687271 0.11737827 0.0971331 0.080797605 0.08925762
0.16137439 0.12137557 0.14590417 0.068565235 0.1084815 -0.017508125 -0.021516167 0.1072854
-0.12678209 -0.013376944 0.008880328 -0.10892981 -0.065303996 -0.09207577 -0.13813502 -0.20475975
-0.119310044 -0.07965859 -0.14873601 -0.0534634 0.066852674 -0.0056253043 0.041213926 -0.013605191
0.044469606 -0.08158719 0.049322527 0.075685896 -0.004309149 0.024949163 -0.002602682 0.0094592925
0.056971505 0.0036917147 0.10614437 0.09922674 0.11661118 0.067966245 0.090299934 0.08774207
0.17680795 -0.00079105276 0.04055013 0.054515973 0.060158934 0.056703445 0.11540477 0.10369909
0.08913905 0.08294105 0.04655765 0.07746598 0.14344156 0.12167888 0.107851535 0.14842536
0.1063777 0.052436344 0.05736023 0.030754909 0.12456694 0.10365747 0.06279012 0.10184531
0.14072059 0.09981444 0.015152436 0.12678765 -0.092151 -0.0022867916 0.08165332 0.19074455
0.17863108 -0.031015346 0.25108412 0.19020423 0.13442211 0.11523778 0.034130067 0.1199993
-0.03322709 -0.028405158 -0.03133412 -0.16029409 -0.24138208 -0.20233852 0.08331328 0.14332515
0.10208926 0.09733093 0.06859545 0.2109996 0.051858824 -0.00054978236 0.0722058 0.15312338
0.18370995 0.034860995 0.25884095 0.16850054 0.020420965 0.097272076 0.04966765 -0.10429869
-0.10014061 -0.0572002 -0.022358516 -0.04717328 -0.051011585 -0.051236734 -0.12134652 -0.094211526
-0.184975 0.10100716 -0.033798806 -0.038706806 0.12033531 0.0997184 0.043864165 0.10074708
0.08185703 -0.015294651 -0.010961232 -0.1355963 -0.20212466 -0.019375334 -0.04586529 -0.13306645
-0.07773183 0.011655609 -0.14748348 0.13744731 0.07557311 -0.0172796 0.0577671 0.124647975
-0.02435622 0.13123766 0.02240199 0.012922749 0.11663572 0.024815023 -0.0023547935 0.104393214
00000000: 8a40 343e 6185 2c3e 9065 1d3e 0d04 9c3c
00000010: 9fde c23d b1a7 5e3d 92aa 923d 922e b03d
00000020: 4a39 943d b5f8 27be 6b5a 14be 9933 17bb
00000030: b20d 2f3e c443 c53c 8e6f 873d 5a93 4d3d
00000040: 82d8 b33d e852 f83d 59de 5bbc cea3 f7bd
00000050: 2142 92bd 716a dabd bb04 0fbe 53c1 98bd
00000060: 89bd a9bd f7f7 9cbd 0c38 b7bc 738a 5dbd
00000070: ef89 8a3c 8ac9 ecbc 9cc3 003e eee1 4b3e
00000080: e4d8 6d3e d30f 233d 8806 443e d363 563e
00000090: ef35 9b3d 5899 f53c 9260 ab3d 6191 523d
000000a0: a290 043e e345 693c bbd5 583e ad84 633e
000000b0: f4ce 163e 7626 583d a1f2 b53b 6236 0d3e
000000c0: 6559 e2bd 3a59 c5bd da09 fdbd 900f 4ebe
000000d0: f566 2abe 756c 68be 6f5e 483e 3d3d 063e
000000e0: 2367 f63d 44ea 613e c1ca ca3d 9125 aa3d
000000f0: 950c 673e 483a 113e c1f7 293e ede6 0dbe
00000100: edfe 7cbd 6892 843d 63ba 4cbe c1f5 dbbd
00000110: 6a94 23be 843d c2bd 5701 0cbe 0758 cdbc
00000120: 1756 2ebe f809 59bd e681 70bd 9022 623d
00000130: 9379 83bd 6793 fdbc 32ab b43c 94a6 013d
00000140: 6090 c83d cde2 3dbe d227 c1bd f29b 05bc
00000150: 86bf c0bd 6508 65bc a09e 45bd d367 b43d
00000160: 5342 073e d369 fd3d c9da cfbc 31df 2dbd
00000170: 849a 1e3d cc96 923c dd06 193d 340e 173d
00000180: b650 663d 49e9 04bc c7ee cf3d fea6 74bc
00000190: 30f3 acbd 694a 51bd 12a9 f5bd 3f95 01be
000001a0: 040f 09be 6ef7 2dbe 002c 91bd 5c28 0cbe
000001b0: 0564 f03d b8ed c63d 3779 a53d b3cc b63d
000001c0: 543f 253e c193 f83d e767 153e ee6b 8c3d
000001d0: 8c2b de3d 336d 8fbc ac42 b0bc 73b8 db3d
000001e0: 2ad3 01be f82a 5bbc cc7e 113c 9816 dfbd
000001f0: 1abe 85bd 3992 bcbd 4473 0dbe 8aac 51be
00000200: d358 f4bd 0b24 a3bd 414e 18be 70fc 5abd
00000210: 0eea 883d 7954 b8bb efcf 283d 4fe8 5ebc
00000220: c325 363d 2f17 a7bd 6b06 4a3d 3501 9b3d
00000230: c333 8dbb 3062 cc3c c291 2abb 26fb 1a3c
00000240: f45a 693d b2f0 713b 3862 d93d 6437 cb3d
00000250: d8d1 ee3d e331 8b3d 2cef b83d 1db2 b33d
00000260: 250d 353e a75e 4fba e517 263d 244c 5f3d
00000270: 3769 763d df41 683d 5659 ec3d 3060 d43d
00000280: 898e b63d ffdc a93d 3cb3 3e3d 7ca6 9e3d
00000290: 58e2 123e c732 f93d 44e1 dc3d d1fc 173e
000002a0: 8ddc d93d 7ec7 563d 8ff2 6a3d b8f1 fb3c
000002b0: f41c ff3d 5e4a d43d 1b98 803d 4694 d03d
000002c0: 0f19 103e 836b cc3d ec41 783c 9fd4 013e
000002d0: aab9 bcbd ffdd 15bb db39 a73d 8a52 433e
000002e0: 11eb 363e e513 febc 198e 803e e6c4 423e
000002f0: f3a5 093e c901 ec3d f8cb 0b3d 31c2 f53d
00000300: 2119 08bd efb1 e8bc 3558 00bd 2224 24be
00000310: dd2c 77be d431 4fbe 27a0 aa3d d4c3 123e
00000320: 2d14 d13d 7055 c73d c57b 8c3d 4710 583e
00000330: eb69 543d 451f 10ba a2e0 933d 60cc 1c3e
00000340: 761e 3c3e 67ca 0e3d cd86 843e 688b 2c3e
00000350: de49 a73c 9536 c73d 4e70 4b3d 8d9a d5bd
00000360: 8516 cdbd c24a 6abd 3529 b7bc c538 41bd
00000370: 86f1 50bd 9cdd 51bd 8684 f8bd f9f1 c0bd
00000380: 166a 3dbe d8dc ce3d 9e70 0abd 078b 1ebd
00000390: 5c72 f63d 2939 cc3d e9aa 333d 7c54 ce3d
000003a0: a9a4 a73d 6a96 7abc bd96 33bc c2d9 0abe
000003b0: c4f9 4ebe 05b9 9ebc 3edd 3bbd 9242 08be
000003c0: de31 9fbd 2bf7 3e3c e905 17be fdbe 0c3e
000003d0: 13c6 9a3d f38d 8dbc 329d 6c3d 7047 ff3d
000003e0: b286 c7bc 2a63 063e 6184 b73c f0b9 533c
000003f0: b5de ee3d e048 cb3c e152 1abb 1ccc d53d

cell_list.2.conv_gates.weight f4 [20, 20, 3, 3]
-0.32155952 -0.39212653 -0.29807466 -0.07853586 -0.023744877 -0.08106723 0.019806495 -0.022096572
0.034586754 0.07346135 0.037700314 -0.18557559 -0.024611698 -0.018046187 -0.06741999 0.20916863
-0.08819225 0.14078069 0.23746762 0.35861066 0.289155 0.032423224 0.2332785 0.11959892
0.032119613 0.023783201 -0.080715545 -0.23266664 -0.22961582 -0.15309888 -0.1191372 -0.2013573
-0.30027178 -0.026252244 -0.07864503 -0.34524575 -0.039676204 0.00068991043 0.10482801 -0.019574597
-0.03352581 0.09670032 0.007437566 0.019737246 0.12954853 -0.12011999 -0.15900216 -0.24070908
-0.2556238 -0.32181612 -0.2734647 -0.05833888 -0.20546992 -0.18820967 -0.066872284 0.006323225
-0.15803401 -0.13850656 -0.2276066 -0.29377043 -0.03666281 -0.067049995 -0.2227548 0.41438606
0.15908226 -0.14734143 0.13550493 -0.011606714 -0.24871463 -0.031389408 -0.11912238 -0.15700471
0.27917498 0.11020104 -0.11608503 0.06393414 0.037701003 -0.0037985193 -0.00049226236 -0.14692862
-0.16425829 0.3035358 0.27992603 0.2697463 0.2909916 0.24571013 0.15761937 0.067476206
0.1573348 0.19985022 0.029291186 0.061047517 0.06698438 -0.097933464 0.054188184 -0.032774806
-0.022539742 -0.025578292 -0.11200133 0.042693533 0.069099 -0.059648197 0.024028715 -0.058432393
-0.17337489 -0.107716314 -0.14860526 -0.07738251 -0.25626978 0.014424004 0.18387426 -0.1767771
0.004501597 0.06755192 0.122249305 0.053389106 0.122701235 -0.32627583 -0.40706006 -0.32113373
-0.31732574 -0.25536034 -0.2660747 -0.030703899 -0.040678814 0.0785552 -0.085625455 0.022920163
0.09609586 -0.10554744 -0.038192835 0.25063798 -0.08799316 0.09002704 0.07944599 -0.064595476
-0.073480986 -0.23871203 0.08730735 6.314138e-05 -0.17819533 -0.0011801658 -0.073793754 -0.009073983
0.23918505 0.32033706 0.23842749 0.21310785 0.20476171 0.18635264 0.22076069 0.15878141
0.11880159 -0.10732464 -0.05209778 -0.050475214 -0.15063055 -0.07036676 -0.18937798 -0.03498314
-0.07179854 -0.18670654 -0.3403975 -0.24939871 -0.053411167 -0.13972552 -0.07373805 0.02226425
0.07126354 0.1298294 0.029886028 0.36314896 0.44497368 0.2843904 0.23125817 0.095481485
0.09494277 0.121730834 -0.008789556 -0.14010668 -0.09868539 -0.13745092 -0.23528124 -0.09159961
-0.1209656 -0.07944641 -0.09882667 -0.092232354 -0.18475194 0.3116922 0.23829116 0.029275132
0.19396353 0.2103109 -0.07445581 0.3864568 0.16286455 -0.028623085 0.10504018 0.2857597
0.32232288 0.23726527 0.25824377 0.30748942 0.3302905 0.21092938 0.3667657 0.06343619
-0.19563188 -0.21470837 -0.010108006 -0.22877753 -0.3408769 0.00032475224 -0.17294589 -0.2538515
-0.0015963551 -0.080942355 -0.07550267 -0.038807575 -0.13887788 -0.07815958 -0.18705888 -0.15779546
-0.09595438 -0.21920133 -0.1290722 -0.18098138 -0.2868361 -0.13925089 -0.026132682 -0.41730773
-0.16943853 -0.10368555 -0.043639936 0.17424816 0.051263366 0.06032095 0.13343318 0.116075106
0.10780768 0.234685 0.12716667 0.0142113445 -0.007153656 0.03740865 -0.021432806 0.12715192
0.18249665 -0.1265642 -0.08653461 -0.010080662 -0.13802062 0.0005068585 0.04720463 -0.27744374
00000000: 73a3 a4be cfc4 c8be 3e9d 98be 69d7 a0bd
00000010: 9e84 c2bc 9306 a6bd 3b41 a23c df03 b5bc
00000020: d7aa 0d3d e772 963d a56b 1a3d 8707 3ebe
00000030: 799e c9bc 99d5 93bc 7e13 8abd 4d30 563e
00000040: 239e b4bd d028 103e b62a 733e d19b b73e
00000050: 200c 943e 37ce 043d 8fe0 6e3e 47f0 f43d
00000060: db8f 033d fdd4 c23c 314e a5bd 2a40 6ebe
00000070: 6920 6bbe f4c5 1cbe 34fe f3bd 9c30 4ebe
00000080: 39bd 99be f20e d7bc a510 a1bd 0dc4 b0be
00000090: 8483 22bd 1bdb 343a 11b0 d63d e85a a0bc
000000a0: 5c52 09bd d10a c63d d3b6 f33b 01b0 a13c
000000b0: 5fa8 043e 7801 f6bd 76d1 22be 717c 76be
000000c0: 1fe1 82be 15c5 a4be 9103 8cbe c0f4 6ebd
000000d0: b566 52be 09ba 40be 56f4 88bd 0e33 cf3b
000000e0: abd3 21be aad4 0dbe b411 69be 1469 96be
000000f0: be2b 16bd 8251 89bd d619 64be 692a d43e
00000100: 76e6 223e ace0 16be cec1 0a3e 162a 3ebc
00000110: 0caf 7ebe 2e92 00bd 6ff6 f3bd d8c5 20be
00000120: 06f0 8e3e 15b1 e13d fdbd edbd e7ef 823d
00000130: 5e6c 1a3d 94f0 78bb 2b0b 01ba 7574 16be
00000140: 5333 28be 0b69 9b3e 7752 8f3e 301c 8a3e
00000150: dafc 943e 709b 7b3e f966 213e f730 8a3d
00000160: 601c 213e 89a5 4c3e 12f4 ef3c f60c 7a3d
00000170: 1b2f 893d 5791 c8bd 6ef4 5d3d e03e 06bd
00000180: 44a5 b8bc 9189 d1bc f460 e5bd 6adf 2e3d
00000190: c783 8d3d ab51 74bd ded7 c43c ce56 6fbd
000001a0: 3089 31be 5f9a dcbd fa2b 18be b97a 9ebd
000001b0: cb35 83be a852 6c3c 8949 3c3e 0e05 35be
000001c0: 2282 933b a958 8a3d d85d fa3d 89ae 5a3d
000001d0: c94a fb3d a00d a7be 2d6a d0be a46b a4be
000001e0: 8578 a2be 97be 82be f13a 88be be86 fbbc
000001f0: d49e 26bd 8ce1 a03d 665c afbd 11c3 bb3c
00000200: e8cd c43d 4229 d8bd 1770 1cbd 9f53 803e
00000210: c235 b4bd 1960 b83d 94b4 a23d a24a 84bd
00000220: 337d 96bd ed70 74be 32ce b23d c56a 8438
00000230: d678 36be cbaf 9aba 2e21 97bd 0bab 14bc
00000240: edec 743e 3803 a43e 5626 743e f238 5a3e
00000250: 0ead 513e 3ad3 3e3e 170f 623e 9897 223e
00000260: 3f4e f33d 05cd dbbd 7b64 55bd 19bf 4ebd
00000270: e53e 1abe 731c 90bd 4dec 41be 7b4a 0fbd
00000280: 1d0b 93bd 0030 3fbe 9548 aebe 6062 7fbe
00000290: abc5 5abd 3514 0fbe fa03 97bd 8463 b63c
000002a0: 9ef2 913d 00f2 043e 8bd3 f43c a9ee b93e
000002b0: 97d3 e33e 9e9b 913e f1ce 6c3e cc8b c33d
000002c0: 5b71 c23d 044e f93d 1202 10bc 2078 0fbe
000002d0: 911b cabd efbf 0cbe 91ed 70be 9498 bbbd
000002e0: d0bc f7bd cdb4 a2bd a365 cabd 51e4 bcbd
000002f0: 9d2f 3dbe 1f96 9f3e 9902 743e 67d2 ef3c
00000300: 609e 463e be5b 573e 4a7c 98bd aadd c53e
00000310: f7c5 263e f67a eabc 4e1f d73d 184f 923e
00000320: 8107 a53e abf5 723e 8738 843e 416f 9d3e
00000330: d61b a93e dffd 573e b7c8 bb3e d5ea 813d
00000340: b953 48be 83dc 5bbe 0d9c 25bc a844 6abe
00000350: 6b87 aebe 8243 aa39 ba18 31be d3f8 81be
00000360: ca3c d1ba 1bc5 a5bd 25a1 9abd b1f4 1ebd
00000370: 0136 0ebe 2112 a0bd 5d8c 3fbe 2295 21be
00000380: bb83 c4bd 5076 60be 812b 04be 2f53 39be
00000390: 2edc 92be c997 0ebe 3514 d6bc 5ca9 d5be
000003a0: 4b81 2dbe 1759 d4bd cabf 32bd 1c6e 323e
000003b0: 89f9 513d 1a13 773d b5a2 083e c9b8 ed3d
000003c0: 46ca dc3d 4451 703e fb37 023e b3d6 683c
000003d0: 3769 eabb d039 193d da93 afbc 1d34 023e
000003e0: 67e0 3a3e 0c9a 01be 0f39 b1bd 5c29 25bc
000003f0: 4755 0dbe b3de 043a a459 413d 1b0d 8ebe

cell_list.2.conv_can.weight f4 [10, 20, 3, 3]
-0.18120497 -0.13739863 -0.035570115 -0.32240525 -0.24749757 -0.20456412 -0.25982264 -0.17917182
-0.15705699 -0.022043156 -0.115876995 -0.024494963 0.23034383 0.0795194 -0.05700134 0.22424515
0.11343018 -0.06353078 -0.0015598187 0.09039528 0.04022674 -0.123679526 -0.07147071 -0.10056259
-0.13364899 -0.08892703 -0.16879144 -0.11949195 -0.0042917 0.028425884 -0.18891136 -0.244414
-0.1453964 -0.2802339 -0.17537044 -0.1753009 -0.06593982 -0.046485867 -0.039416507 0.1377762
0.15912238 0.009589362 0.17438295 0.17873149 0.060169403 -0.049750876 0.017909119 0.110027194
-0.07750721 -0.107387856 -0.06374927 -0.27883324 -0.06804897 0.0200686 0.10580636 0.106263585
0.07447701 -0.13204247 -0.0103515135 0.10089968 -0.20984958 -0.17486514 -0.10992621 0.033439524
-0.034012202 -0.15421915 0.08772858 0.09220402 0.024628472 0.41467306 0.519237 0.5244666
-0.10023005 -0.1037063 -0.07490834 0.12507766 0.094687305 0.0018011217 0.088174574 0.111802414
0.099064246 -0.19119065 -0.12767078 -0.13654718 -0.041564975 -0.03697895 -0.18215811 0.07721519
0.08250417 -0.038783234 0.07281101 0.00039144818 -0.076351166 0.061776888 -0.017326241 -0.08604884
0.11198207 0.1691019 -0.018041065 0.21221271 0.020723447 -0.024752758 0.050533865 -0.021431502
0.061002485 -0.024628887 -0.09080391 -0.02779075 0.018335568 0.050655 0.07277969 0.037524775
0.07773676 0.07624256 -0.03857956 -0.06823469 -0.027536264 0.06710134 0.006216748 0.17106433
-0.048047926 -0.025262365 0.06076398 -0.12796459 -0.11343335 -0.03569231 -0.01672025 0.0014977335
-0.04630298 0.034938492 0.031069806 -0.0069190483 -0.051016726 -0.14867805 -0.124694966 -0.01688435
-0.033623952 0.04303671 -0.074754655 0.052154936 0.119141 -0.14301744 0.0137630375 0.10712244
-0.1587845 0.015043115 -0.00904267 -0.14433676 0.09364304 -0.009105112 0.14900145 0.17357515
0.17181453 0.0019069392 -0.0005959218 0.022286125 -0.017067583 -0.039378773 0.10996606 -0.073906474
-0.029027734 0.06335863 -0.095809676 0.03859824 -0.084230185 0.04757284 0.0066806553 0.009675071
0.04758494 0.00252384 -0.0554396 0.0019130008 0.037648782 -0.047395088 0.047825888 -0.066204526
-0.11223319 0.11373006 -0.038999744 -0.04303531 -0.15421268 -0.17592229 -0.09893604 -0.10376817
-0.06818696 -0.092081115 -0.06807738 -0.017940432 -0.010390063 -0.09888162 -0.0788296 -0.12070552
0.045645505 0.0003296241 -0.07678487 0.13889848 -0.07184115 0.03406694 -0.17853265 0.018502485
0.26108253 0.010809279 0.12659821 0.12131614 0.16772746 0.26589757 0.29264185 0.19901389
0.070467986 -0.2010679 0.2048475 0.068894915 -0.19784993 0.22467603 0.041292183 -0.14165793
-0.04715475 -0.0015328774 -0.0631078 -0.029423578 -0.05191242 -0.06258421 -0.06723615 -0.11370835
-0.18204011 -0.0014531743 0.013559135 0.046477914 0.09719806 0.018200427 0.1459422 0.041080102
0.04600552 0.03365438 0.0026154364 0.03803981 0.10230786 0.071794696 0.067895934 0.06920361
0.03800806 0.026887305 0.026778612 0.040082324 0.103542075 0.26089826 -0.06954872 0.1000876
0.24678601 0.040362693 0.09867505 0.12597431 -0.04693013 -0.12636349 0.025226528 -0.10897403
00000000: cc8d 39be 3ab2 0cbe f8b1 11bd 4d12 a5be
00000010: 0170 7dbe 4279 51be 7907 85be d178 37be
00000020: 8cd3 20be d993 b4bc eb50 edbd a9a9 c8bc
00000030: 41df 6b3e 11db a23d 3d7a 69bd 85a0 653e
00000040: 154e e83d 6d1c 82bd d572 ccba 2921 b93d
00000050: cbc4 243d b14b fdbd 3c5f 92bd c2f3 cdbd
00000060: 48db 08be 601f b6bd aad7 2cbe 32b8 f4bd
00000070: 64a1 8cbb 66dd e83c fb71 41be aa47 7abe
00000080: cbe2 14be d17a 8fbe 4f94 33be 1482 33be
00000090: 750b 87bd f767 3ebd 3473 21bd 3415 0d3e
000000a0: faf0 223e b31c 1d3c 7291 323e 6305 373e
000000b0: 3174 763d 93c7 4bbd 25b6 923c f055 e13d
000000c0: 1abc 9ebd 2aee dbbd fa8e 82bd 3bc3 8ebe
000000d0: 425d 8bbd e866 a43c 01b1 d83d b9a0 d93d
000000e0: 6787 983d 2436 07be 6599 29bc 7ea4 ce3d
000000f0: cfe2 56be d90f 33be fe20 e1bd e2f7 083d
00000100: 6150 0bbd a0eb 1dbe 0bab b33d 76d5 bc3d
00000110: a6c1 c93c 0750 d43e b7ec 043f 7143 063f
00000120: 6a45 cdbd f863 d4bd 8b69 99bd 5c14 003e
00000130: 6beb c13d 9e13 ec3a df94 b43d aaf8 e43d
00000140: 32e2 ca3d 7bc7 43be 21bc 02be 06d3 0bbe
00000150: 0940 2abd 3d77 17bd a887 3abe ff22 9e3d
00000160: f2f7 a83d 2bdb 1ebd f01d 953d 493b cd39
00000170: 005e 9cbd c309 7d3d c3ef 8dbc 603a b0bd
00000180: db56 e53d 0c29 2d3e dbca 93bc 4a4e 593e
00000190: 38c4 a93c 4cc6 cabc 99fc 4e3d 1e91 afbc
000001a0: bedd 793d 85c2 c9bc 66f7 b9bd 6da9 e3bc
000001b0: 7934 963c 9e7b 4f3d 850d 953d 94b3 193d
000001c0: 7334 9f3d 0f25 9c3d 9a05 1ebd a1be 8bbd
000001d0: bb93 e1bc 6d6c 893d ddb5 cb3b 7d2b 2f3e
000001e0: e7cd 44bd 05f3 cebc a7e3 783d 2609 03be
000001f0: bf4f e8bd 1a32 12bd e8f8 88bc 994f c43a
00000200: 32a8 3dbd aa1b 0f3d 1b86 fe3c 2fb9 e2bb
00000210: eaf6 50bd 0f3f 18be 1360 ffbd 0c51 8abc
00000220: 45b9 09bd 4347 303d f818 99bd 6aa0 553d
00000230: 3200 f43d 2a73 12be 5d7e 613c 0363 db3d
00000240: 6798 22be 6677 763c b527 14bc 04cd 13be
00000250: ecc7 bf3d 9c2d 15bc d693 183e afbd 313e
00000260: 26f0 2f3e 43f2 f93a a337 1cba 6491 b63c
00000270: 51d1 8bbc a34b 21bd e335 e13d 475c 97bd
00000280: 92cb edbc 2bc2 813d dd37 c4bd 3019 1e3d
00000290: e080 acbd bddb 423d 66e9 da3b 3084 1e3c
000002a0: 6de8 423d 0267 253b a214 63bd a8bd fa3a
000002b0: 9c35 1a3d 5a21 42bd 14e5 433d 3d96 87bd
000002c0: 84da e5bd 4eeb e83d 32be 1fbd cb45 30bd
000002d0: eee9 1dbe f924 34be fb9e cabd 6884 d4bd
000002e0: 9ba5 8bbd 0695 bcbd 276c 8bbd d0f7 92bc
000002f0: 153b 2abc 7282 cabd 6a71 a1bd 7534 f7bd
00000300: c8f6 3a3d 66d1 ac39 6341 9dbd 673b 0e3e
00000310: 7421 93bd c789 0b3d 43d1 36be 8692 973c
00000320: 9cac 853e 6719 313c f6a2 013e 9974 f83d
00000330: bfc0 2b3e ba23 883e 27d5 953e 4cca 4b3e
00000340: 8551 903d bee4 4dbe 8bc3 513e c718 8d3d
00000350: 2c99 4abe 7911 663e fe21 293d c70e 11be
00000360: 5725 41bd d5ea c8ba aa3e 81bd b709 f1bc
00000370: 1ea2 54bd 262c 80bd 1bb3 89bd ecdf e8bd
00000380: b968 3abe 7078 beba 2227 5e3c a05f 3e3d
00000390: c70f c73d 1019 953c df71 153e 9c43 283d
000003a0: 4970 3c3d 2dd9 093d be67 2b3b a2cf 1b3d
000003b0: c986 d13d 1909 933d 060d 8b3d 9fba 8d3d
000003c0: 57ae 1b3d c442 dc3c d25e db3c 5d2d 243d
000003d0: de0d d43d 7594 853e 8f6f 8ebd bafa cc3d
000003e0: 79b5 7c3e 5a53 253d 2516 ca3d 69ff 003e
000003f0: cf39 40bd 6e65 01be dda7 ce3c c72d dfbd

cell_list.3.conv_gates.weight f4 [20, 20, 1, 1]
0.1213566 -0.2576794 0.2926562 0.42842507 -0.14629638 -0.057870235 0.029433955 0.0017104135
-0.06235974 0.47255567 -0.03993947 0.14017259 -0.3469798 -0.0023756002 -0.24281746 -0.210698
-0.07658765 0.060915552 0.0011848238 0.18762854 -0.32397065 0.14396271 0.2659053 0.2940704
0.18278939 0.20779994 0.17142606 -0.10583647 0.09954964 -0.0418216 -0.017251344 0.080732666
0.04638301 0.16512057 0.27853307 0.37946975 -0.07789198 0.072821796 0.2285079 -0.17752698
0.35009736 0.19862488 0.16851711 0.34301057 -0.044318475 -0.24705933 -0.07859385 0.20885053
0.03749408 0.16289999 -0.037426632 -0.02055913 -0.34709772 -0.04061844 0.24691398 0.052962914
0.013529807 -0.18264242 -0.049048696 -0.07007842 0.02271497 0.18843651 0.093702756 0.26941547
0.04909685 -0.12587379 0.22223242 -0.061694987 -0.19732271 0.11621296 0.11994489 0.1062746
0.2742675 -0.008055928 0.10057669 0.24260496 0.30163822 0.102276385 0.2477189 -0.25130418
-0.13152748 -0.33083034 0.23486729 -0.20668487 0.28954303 -0.34032205 0.34868917 0.39627638
0.1463234 -0.42261162 -0.34266996 -0.24556251 -0.34501594 -0.035269715 -0.38763157 -0.477556
-0.03825194 -0.21454298 -0.24706466 0.3426549 0.25666517 0.06835603 -0.1844437 0.122139074
0.077941805 -0.24226315 -0.31442243 0.046660643 0.1524575 -0.07684627 0.15049444 0.091589905
-0.34757838 -0.06870031 0.2631449 0.21671525 -0.16401957 -0.0726578 -0.09552937 -0.11154343
0.078294225 -0.06491744 0.0043157404 0.06351244 0.3838366 -0.17342319 -0.16656792 0.55726135
-0.2731956 -0.13413773 -0.2808955 0.07623973 0.32457238 -0.07645335 -0.18772154 -0.23187198
-0.36347303 -0.23633306 0.18376762 0.2283047 -0.07381688 0.06396284 -0.06565665 -0.40841264
0.0074525406 -0.18848176 -0.03168939 0.41303197 -0.414273 -0.19802414 -0.22652029 0.23153111
0.115205064 -0.017771557 0.11319613 -0.07226894 -0.00819093 -0.20785356 -0.09853376 0.31746578
-0.11001379 -0.3244623 0.1609461 0.03890087 -0.05337841 -0.04637325 0.15023592 0.25764832
-0.023830403 -0.24548224 -0.14198576 0.3573213 0.25581422 0.17913993 -0.32407838 -0.29793486
-0.028398354 -0.05606553 0.33235657 0.4322414 0.4114869 0.57778597 -0.12020159 -0.08396332
-0.36139497 0.30697513 -0.08577938 -0.2302681 -0.21817492 0.34998593 0.25687978 0.42387527
0.29009548 0.046264578 0.29472852 0.1432237 0.14332154 -0.00018156835 -0.38685042 -0.3891789
-0.035749704 0.2386998 0.016887072 0.016387727 -0.060947012 0.107126065 0.04628081 0.15196821
0.15030989 0.19599675 0.23261482 0.029168088 0.19420724 0.10106249 0.055672087 -0.12352775
0.028809031 0.3606708 -0.005436674 0.044877134 -0.14114867 0.72396207 0.434356 0.44101733
-0.4475735 -0.053546757 0.35935238 -0.5557641 0.5072382 0.04191042 -0.03996865 -0.54679906
-0.15493044 -0.2468551 0.28575838 -0.10097427 -0.048326924 -0.28243884 -0.2565559 0.1055246
-0.3149684 0.14552726 0.07162952 -0.37244502 -0.03440327 0.16116194 -0.38150105 -0.14993416
0.021256162 0.37136897 -0.22414023 -8.218978e-05 0.067865424 -0.11142446 0.07266675 0.354256
00000000: cf89 f83d 8eee 83be 09d7 953e 885a db3e
00000010: b8ce 15be 5709 6dbd 7a1f f13c f42f e03a
00000020: ed6c 7fbd d1f2 f13e 9297 23bd 6789 0f3e
00000030: 56a7 b1be f5af 1bbb 24a5 78be 37c1 57be
00000040: fcd9 9cbd 9682 793d 174c 9b3a b221 403e
00000050: 7bdf a5be f66a 133e bd24 883e 6590 963e
00000060: 242d 3b3e 82c9 543e 508a 2f3e cbc0 d8bd
00000070: afe0 cb3d 204d 2bbd b152 8dbc 2b57 a53d
00000080: 1cfc 3d3d 5e15 293e e39b 8e3e dc49 c23e
00000090: d585 9fbd 9823 953d fafd 693e a2c9 35be
000000a0: f63f b33e 5264 4b3e c08f 2c3e 159f af3e
000000b0: 4a87 35bd 1ffd 7cbe d0f5 a0bd eadc 553e
000000c0: 6493 193d 41cf 263e ab4c 19bd 9f6b a8bc
000000d0: cbb6 b1be 855f 26bd 05d7 7c3e a4ef 583d
000000e0: 20ac 5d3c 9d06 3bbe 49e7 48bd 4685 8fbd
000000f0: bf14 ba3c 80f5 403e 3be7 bf3d d3f0 893e
00000100: c719 493d 0fe5 00be e590 633e e2b3 7cbd
00000110: f70e 4abe 0f01 ee3d aba5 f53d 7fa6 d93d
00000120: ca6c 8c3e 03fd 03bc 27fb cd3d 6f6d 783e
00000130: 5370 9a3e 4876 d13d 06aa 7d3e f1aa 80be
00000140: 24af 06be 9862 a9be 0d81 703e 33a5 53be
00000150: fc3e 943e b13e aebe 6387 b23e bde4 ca3e
00000160: cdd5 153e 8d60 d8be 7072 afbe bd74 7bbe
00000170: eea5 b0be fa76 10bd a577 c6be 3882 f4be
00000180: 11ae 1cbd 28b1 5bbe 85fe 7cbe 7770 af3e
00000190: 9e69 833e 3ffe 8b3d cfde 3cbe 0d24 fa3d
000001a0: f49f 9f3d d513 78be fafb a0be 3b1f 3f3d
000001b0: d21d 1c3e 9461 9dbd 371b 1a3e 7d93 bb3d
000001c0: cbf5 b1be c0b2 8cbd eeba 863e 9aea 5d3e
000001d0: bff4 27be 9dcd 94bd e7a4 c3bd e270 e4bd
000001e0: b958 a03d 6ff3 84bd 0e6b 8d3b cf12 823d
000001f0: 3b86 c43e d995 31be c890 2abe aea8 0e3f
00000200: 4be0 8bbe 675b 09be 89d1 8fbe 9323 9c3d
00000210: 5a2e a63e 9393 9cbd 133a 40be d96f 6dbe
00000220: 2319 babe 4b01 72be 942d 3c3e b5c8 693e
00000230: 4e2d 97bd f3fe 823d fe76 86bd 761b d1be
00000240: 7134 f43b 5d01 41be bccc 01bd ed78 d33e
00000250: 971b d4be d7c6 4abe eff4 67be 7e16 6d3e
00000260: a2f0 eb3d a895 91bc 5fd3 e73d bd01 94bd
00000270: 4033 06bc 90d7 54be 11cc c9bd e08a a23e
00000280: e94e e1bd ec1f a6be 0ecf 243e 8556 1f3d
00000290: 52a3 5abd e1f1 3dbd 72d7 193e 7bea 833e
000002a0: fa37 c3bc b25f 7bbe b764 11be d1f2 b63e
000002b0: 15fa 823e 7570 373e 9aed a5be eb8a 98be
000002c0: aaa3 e8bc f8a4 65bd a42a aa3e bf4e dd3e
000002d0: 69ae d23e c8e9 133f 402c f6bd f6f4 abbd
000002e0: c308 b9be d82b 9d3e 19ad afbd 67cb 6bbe
000002f0: 3f69 5fbe 5b31 b33e bf85 833e 2e06 d93e
00000300: 6587 943e ed7f 3d3d a8e6 963e 3ca9 123e
00000310: e2c2 123e 6263 3eb9 4211 c6be 7542 c7be
00000320: 486e 12bd b86d 743e c256 8a3c 8e3f 863c
00000330: 93a3 79bd e964 db3d f290 3d3d 8e9d 1b3e
00000340: d6ea 193e 5fb3 483e 9432 6e3e eaf1 ee3c
00000350: 43de 463e daf9 ce3d 6a08 643d 1efc fcbd
00000360: eb00 ec3c d8a9 b83e 2126 b2bb 16d1 373d
00000370: 4789 10be 9455 393f e963 de3e 06cd e13e
00000380: 5b28 e5be d853 5bbd 09fd b73e 8e46 0ebf
00000390: 5dda 013f 43aa 2b3d 2bb6 23bd 06fb 0bbf
000003a0: 16a6 1ebe 95c7 7cbe ec4e 923e 99cb cebd
000003b0: 74f2 45bd d39b 90be 4c5b 83be 481d d83d
000003c0: 8a43 a1be 1905 153e 7fb2 923d 1db1 bebe
000003d0: 71ea 0cbd a307 253e 1b54 c3be 5788 19be
000003e0: 6721 ae3c 1324 be3e 0485 65be 4d5d acb8
000003f0: 07fd 8a3d 8232 e4bd 4ed2 943d 0b61 b53e

cell_list.3.conv_can.weight f4 [10, 20, 1, 1]
-0.22291414 0.026954189 0.13980727 0.099515356 -0.32450625 0.22182755 0.027444182 -0.1283916
0.05999144 0.22914872 -0.018596513 -0.19625181 -0.036141675 0.104991525 0.21537407 -0.08291615
0.05416362 -0.0028389143 0.029180067 -0.08183506 0.23085934 -0.065841965 -0.21621062 -0.45175925
0.13592143 0.19317573 -0.23186493 0.3718036 -0.63485724 0.33298424 0.22798064 0.059948836
-0.3226504 -0.3871553 0.14584245 0.24759921 -0.012269124 0.021752112 -0.23133756 -0.005813771
0.096366405 -0.05016313 -0.30498618 0.07262684 0.35030505 -0.0029125253 0.10072031 0.11643395
-0.27231303 -0.2635899 -0.25396875 0.33040306 0.102254845 0.16301295 0.14015009 0.13402358
0.14348486 0.022253577 0.04202088 0.031886037 -0.11742447 0.026051957 0.090264075 -0.09016863
0.01314468 -0.17049602 0.2730042 -0.00057851593 -0.33367437 0.14005192 0.18106699 -0.073776565
-0.018432569 -0.27004927 -0.15867083 -0.026537519 -0.05757429 0.20485255 -0.26121408 0.16954726
0.08817772 0.37940383 -0.21844384 -0.15747166 -0.17858927 -0.030475734 -0.3890801 -0.029232362
0.060942654 0.08027418 -0.23024742 0.30778342 -0.15297294 0.17401077 0.03957536 0.30432433
0.11726116 0.053742234 0.047917213 -0.28951427 0.03564061 0.07933328 -0.1734162 0.056753114
0.05872512 0.12261717 -0.10714195 -0.078298025 0.007034147 0.33254313 0.43096295 0.2471542
-0.28837353 0.2996437 -0.0304368 0.22394428 -0.13548145 -0.030094557 0.0631885 -0.016681181
0.04417393 0.20978114 0.25081447 -0.18371055 -0.07763771 -0.01391705 0.16176696 0.11572621
0.17921335 -0.027242294 0.02051846 0.12263169 -0.11157893 -0.0959035 -0.004189175 0.18398029
-0.003384351 0.04510023 0.14765579 -0.29952174 -0.087398894 -0.025026886 0.081070006 -0.0076810312
0.18240698 0.24323747 0.07204294 -0.2104493 -0.09915575 -0.2021272 0.2142775 -0.009155028
-0.23699795 -0.19612905 0.16377984 0.2358282 -0.081311576 -0.20070021 0.23869626 0.022407858
-0.15112983 -0.16399069 -0.00069227174 -0.07806345 0.23964141 -0.2852865 -0.26107708 0.049102843
0.19916676 -0.11049263 -0.24928068 0.114890814 -0.022693994 0.011638583 -0.023213293 -0.18768626
0.080124274 -0.39506033 0.09688273 -0.20749158 -0.36465874 -0.26969734 0.16177686 -0.200502
0.011232626 -0.4024341 0.17531212 0.13672093 0.23464505 -0.3532588 -0.077861354 -0.011120843
-0.07456448 -0.037642952 0.13332388 -0.2044298 0.010736485 -0.017590545 -0.14036268 0.25567913
00000000: 9b43 64be 08cf dc3c a329 0f3e b5ce cb3d
00000010: af25 a6be c326 633e 9fd2 e03c 1679 03be
00000020: 96b9 753d f6a5 6a3e b757 98bc 3cf6 48be
00000030: 4b09 14bd cc05 d73d 058b 5c3e f1cf a9bd
00000040: acda 5d3d 140d 3abb 090b ef3c 2499 a7bd
00000050: 6466 6c3e 27d8 86bd 5166 5dbe fd4c e7be
00000060: fd2e 0b3e dccf 453e 006e 6dbe 0b5d be3e
00000070: 0186 22bf e97c aa3e c273 693e e98c 753d
00000080: 6f32 a5be 3839 c6be b957 153e a68a 7d3e
00000090: 7004 49bc 7c31 b23c c1e3 6cbe 7281 bebb
000000a0: c05b c53d db77 4dbd 2627 9cbe 61bd 943d
000000b0: 2f5b b33e 11e0 3ebb 7346 ce3d ec74 ee3d
000000c0: 9d6c 8bbe 41f5 86be 3108 82be 972a a93e
000000d0: fd6a d13d deec 263e 8183 0f3e 7a3d 093e
000000e0: b2ed 123e 224d b63c 161e 2c3d ef9a 023d
000000f0: 3e7c f0bd ea6a d53c 5fdc b83d 55aa b8bd
00000100: c95c 573c 8296 2ebe 35c7 8b3e 8ca7 17ba
00000110: 5ed7 aabe c569 0f3e a069 393e 2b18 97bd
00000120: e6ff 96bc e643 8abe 9b7a 22be 3665 d9bc
00000130: 05d3 6bbd dec4 513e dabd 85be cc9d 2d3e
00000140: 8596 b43d 3841 c23e beaf 5fbe 4040 21be
00000150: 1be0 36be 3fa8 f9bc 8235 c7be b578 efbc
00000160: 019f 793d ca66 a43d fbc5 6bbe ca95 9d3e
00000170: f0a4 1cbe e12f 323e c619 223d 66d0 9b3e
00000180: 9e26 f03d d120 5c3d d744 443d 373b 94be
00000190: e3fb 113d 7d79 a23d 0494 31be f475 683d
000001a0: c089 703d b61e fb3d 3d6d dbbd b75a a0bd
000001b0: b47e e63b 1843 aa3e 2da7 dc3e fe15 7d3e
000001c0: b2a5 93be e66a 993e 9956 f9bc a651 653e
000001d0: a6bb 0abe dc88 f6bc f968 813d f9a6 88bc
000001e0: b9ef 343d ded0 563e c16a 803e 9e1e 3cbe
000001f0: 8500 9fbd 5704 64bc 3da6 253e dd01 ed3d
00000200: b483 373e 3b2b dfbc 5416 a83c 5326 fb3d
00000210: 7e83 e4bd 0e69 c4bd 5945 89bb 5465 3c3e
00000220: fdcb 5dbb 05bb 383d 1433 173e ea5a 99be
00000230: 31fe b2bd 2f05 cdbc 0808 a63d 29b1 fbbb
00000240: e5c8 3a3e 3e13 793e 408b 933d 0580 57be
00000250: 2b12 cbbd 6ffa 4ebe 906b 5b3e f8fe 15bc
00000260: 97af 72be 0ed6 48be e7b5 273e f37c 713e
00000270: af86 a6bd 5b84 4dbe cb6c 743e af90 b73c
00000280: c7c1 1abe 2ded 27be 9279 35ba bbdf 9fbd
00000290: 8f64 753e 1211 92be e5ab 85be 1020 493d
000002a0: 5ff2 4b3e f649 e2bd 6f43 7fbe e04b eb3d
000002b0: c1e8 b9bc c1af 3e3c ce29 bebc d430 40be
000002c0: 3218 a43d 5945 cabe 746a c63d ac78 54be
000002d0: 8db4 babe c515 8abe d5a8 253e 6550 4dbe
000002e0: 0c09 383c d80b cebe 0585 333e 9200 0c3e
000002f0: cb46 703e 56de b4be c675 9fbd 3234 36bc
00000300: 43b5 98bd 7f2f 1abd 0e86 083e 0c56 51be
00000310: 15e8 2f3c 0c1a 90bc 3cbb 0fbe 60e8 823e
