saved_models/4task/big_rnn_2.pt (torch, 164174 bytes, 16 tensors)

cell_list.0.conv_gates.weight f4 [20, 11, 3, 3]
00000000: 5337 5cbf 0047 71bf 6ec7 80bf 0a30 16bf
00000010: 83fd 0ebf 8a7e 2cbf df06 23bf 57ae 1fbf
00000020: 0bee 1cbf 4298 cfbc 1f84 e9bd 9529 18be
00000030: 35e3 b0bd 13c4 b43d 7b4a 32be 10a5 fd3d
00000040: c723 cdbc d726 f4bd 4055 673d b46d 2c3e
00000050: 7911 b7bd 9372 7cbe 43ce f1bd 5dd9 b5bd
00000060: 1aa7 973d 3917 ddbc ddb0 ec3c 59c1 8d3c
00000070: 6eab b03c 890b c73d 5fab 403d 25a5 fa3d
00000080: db49 413e 1b42 703e 3ba2 153e e54f 433e
00000090: 7962 523e 54eb e43d 855e 923c 8df9 53bd
000000a0: 3645 02be c842 35be 7dbd f7ba f35c 90bd
000000b0: 286c e2bc 2817 fe3e be59 e53e 938f 813e
000000c0: 6da0 a63e d176 be3e 8214 b53e a04b 433e
000000d0: ecee 943e 0be5 d83e 3055 f73c 180e 823e
000000e0: e358 183e 66f3 4fbd c307 083e 7ad1 2a3e
000000f0: fa52 b0be 4928 2cbe 9cb3 12bd 51d6 c0bd
00000100: e1d8 e33d 2944 823c f9f0 d4bd 23f8 e0bd
00000110: 637a 2abd 0547 56bc 9caf a9bd 7ed7 533e
00000120: dbab af3e b090 e03e 500a da3e 6759 503e
00000130: cfe2 c03e 3613 803e 9623 90be a8a0 1abe
00000140: ec28 203e e95f 6c3c d768 b3bc 7f84 c23d
00000150: c962 1dbe 40ab 3dbe 188e 80bd d74f e3bd
00000160: f2bc 70be 417f 55be 906b 203f 6eed 113f
00000170: a59d 043f b255 8a3e c485 823e 7d95 813e
00000180: 35bf 5dbe 7ed7 36be cd89 c2bd 6e5e 6a3e
00000190: 8461 f93d 3223 81bd 0c8f f03e 5f77 023f
000001a0: 4ff7 b93e f865 023f 9628 fc3e 2f38 d93e
000001b0: ab43 aebd ee8a 34be 0988 4bbe 5902 943e
000001c0: dbf8 f03d e101 43be e024 b73e 4cc6 3e3e
000001d0: feec 8c3d 4f37 29be f89c dabe b8cd c1be
000001e0: 31fc 25bc fe23 86bd 2f84 e9be eb24 063e
000001f0: 4c20 03be e3ec c6be 23d3 923e 1543 1b3f
00000200: 17c2 fd3e f1d8 d53d 9794 a53e 5b8a 243f
00000210: 72e0 ecbd 7486 293d d478 ee3e 1b0f 15bd
00000220: 5b9f 59be 5a7c b5be 6ee2 963e cd54 42be
00000230: 03d7 00bf 8fc4 e73e 8421 8e3e 595b 02be
00000240: cd8b 15be 0939 e33d 5f97 343e 6616 67be
00000250: 0202 8dbd 0675 17be a9a4 143e e844 e2bd
00000260: 7b47 45be 600f 16be 7f85 2abe b9b4 a9bd
00000270: 619a bcbe 3f35 f2be eb3d dbbe e99d 2d3e
00000280: 26dc 9abe 9e5c afbe 08d0 12bf 2e29 2cbf
00000290: 1e16 b5be 81f5 98be 2c11 cfbe 1b80 84be
000002a0: 399a 1d3e d67f 24ba 9e93 9abc 77be 0fbe
000002b0: b959 c93d c477 1c3e d5e7 e0be 12eb 92be
000002c0: 0c63 a7be 4f8c 723e 4a15 a93d 7994 babd
000002d0: a7a8 a5be 8041 c5be 7dd4 abbe 97e8 613c
000002e0: 9e04 e7be 1de8 20bf 42e9 623e c9af 45bd
000002f0: 331d 5dbe c747 ae3e 073a 953e 518a 433e
00000300: e85a 793e b136 50bd a84b d8bd 502d 993e
00000310: 725a e03c 049f 40be 6de8 40bd 7872 f9bd
00000320: fd13 04bf bece 933e 95b2 2d3e f869 8abd
00000330: 4fb9 af3e 92f2 d13e c3c4 113e cfba 343d
00000340: b7b7 6abc b223 2d3d abc3 fe3d 9217 e33a
00000350: aaf5 8abd 025a c93e 3748 1e3e 5f72 fc3d
00000360: 0c64 6bbe c9c7 55be bff8 e8bd 8aba 0bbe
00000370: 859d 0abe 70aa 95be 5580 c13d 9692 c6bc
00000380: 0d7f 98be 6f60 033e b987 1f3d 3c04 ca3d
00000390: e605 e73d 6e06 2ebc 9cc5 323e f31a 80bc
000003a0: c992 273e 38f6 b33e 0dee 9ebd e4fb dc3c
000003b0: f909 a73c 746c 4ebd cb9e f2bd c16b 00be
000003c0: 5d85 2d3e b6c0 6a3d c1a9 95be 5f1d 343c
000003d0: 5892 8a3e f0ce a43e 8393 aa3d 163d 0f3e
000003e0: da6d 443e 8d7a 083e 547e da3d 4c80 433e
000003f0: 45ae 863e 114d 3e3e 4eed 823e b21e 423e
-0.8602192 -0.9424896 -1.0060861 -0.5866705 -0.5585558 -0.67380583 -0.6368236 -0.62375396
-0.61300725 -0.025341157 -0.11402153 -0.14859612 -0.08637086 0.08826461 -0.17411225 0.12384999
-0.025041474 -0.119214706 0.056477785 0.16838723 -0.089388795 -0.24653082 -0.118069194 -0.088793494
0.07404919 -0.026988612 0.028892929 0.01730411 0.021566119 0.09718997 0.047038432 0.1223853
0.1887583 0.23462717 0.14612667 0.19073446 0.20545377 0.11177698 0.017867336 -0.051751662
-0.12721714 -0.17701256 -0.0018901076 -0.07048979 -0.027639464 0.49627042 0.4479503 0.2530485
0.3254427 0.37200025 0.3536721 0.19071817 0.29088533 0.42362246 0.030191988 0.25401378
0.14877658 -0.050769232 0.13284211 0.16681471 -0.34438306 -0.16812243 -0.03581582 -0.094158776
0.11125351 0.015901642 -0.103975244 -0.10984828 -0.041620623 -0.013078456 -0.08285448 0.20687672
0.34310803 0.43860388 0.42585993 0.20346604 0.3767304 0.25014657 -0.2815215 -0.15100348
0.1564061 0.014427164 -0.021900577 0.09497928 -0.15369715 -0.18522358 -0.06277102 -0.110992126
-0.23509577 -0.20849325 0.6266413 0.57002914 0.51803046 0.27018505 0.2549268 0.25309363
-0.21654971 -0.17855641 -0.0949894 0.22887585 0.12176803 -0.06305541 0.46984136 0.50963396
0.36321494 0.5093684 0.49249715 0.42425677 -0.085090004 -0.17631122 -0.19876112 0.2890804
0.117662154 -0.19043685 0.3577032 0.18630332 0.0688114 -0.16525005 -0.42697883 -0.37852263
-0.010130928 -0.06549834 -0.4560866 0.1310002 -0.12805289 -0.38852605 0.2867671 0.60649234
0.4956214 0.10441769 0.32339928 0.64273614 -0.11566247 0.04138799 0.4657656 -0.03639136
-0.21252196 -0.35446435 0.29469627 -0.18977661 -0.5032808 0.4526715 0.27759945 -0.12730159
-0.14604111 0.11094863 0.17635868 -0.22567138 -0.068851486 -0.14790735 0.14515938 -0.11048299
-0.19265549 -0.14654303 -0.16652487 -0.08286423 -0.36836532 -0.4730625 -0.42820677 0.16954769
-0.30246085 -0.3425035 -0.5734868 -0.67250335 -0.35368437 -0.29874805 -0.4044279 -0.25878987
0.15390863 -0.00062751526 -0.018869217 -0.140375 0.09831566 0.15280062 -0.43926874 -0.2869497
-0.32692754 0.23686336 0.08256014 -0.0911035 -0.32355234 -0.38526535 -0.33560553 0.013788364
-0.4512071 -0.62854177 0.22159293 -0.048263345 -0.2159317 0.34039137 0.29145834 0.19095732
0.24351084 -0.050833408 -0.10561305 0.29917383 0.027386878 -0.1881066 -0.04709666 -0.12180036
-0.51593 0.2886867 0.16962655 -0.06758493 0.34321067 0.4100538 0.14235215 0.044123467
-0.014326028 0.04227037 0.124396645 0.001732575 -0.06785138 0.39326483 0.15457235 0.12326502
-0.22987384 -0.20876993 -0.113755696 -0.13645378 -0.13536651 -0.29231596 0.094483055 -0.02423982
-0.29784432 0.12829755 0.038947795 0.09864089 0.11280422 -0.01062165 0.17458194 -0.01563785
0.16364588 0.35148787 -0.07760248 0.02697558 0.020390498 -0.050396398 -0.118466936 -0.12541105
0.16945405 0.05731269 -0.29231074 0.010993331 0.27064776 0.3218913 0.08328917 0.13988146
0.1918253 0.13328 0.106686264 0.1909191 0.26304832 0.18584086 0.25571674 0.18957022

cell_list.0.conv_can.weight f4 [10, 11, 3, 3]
00000000: 708e 203e 33d5 873e f4f0 c73e 232f 37bd
00000010: 31f4 eb3c ba40 fc3d 7bb7 dbbe 0d84 75be
00000020: 2982 48be 997a c43e 3404 283d cb4d 7bbc
00000030: e761 4f3f 437c a03e c7e4 023e cc16 e13e
00000040: fa8a 423e 9257 8e3d 90a5 8b3e 0408 a93d
00000050: db2f adbc 95ef 003f f6b7 a43e 4992 3a3e
00000060: 9e45 e43e c0fb a13e 846c 273e 8b40 d3be
00000070: 8f82 10be 8794 4bbd 0411 2bbf 118a bfbe
00000080: c0a4 86bd 7645 d7be ca2c f6be 6ffb 86be
00000090: 7b82 eb3e 5a71 413e 441c 343d ecf9 593f
000000a0: d759 d33e 114d 443e 02d6 4f3f d53a 093f
000000b0: 94a1 923e 5445 cabe fc01 e2be a43e cfbe
000000c0: 992a 81be 9cd1 40be 8da1 93be 070c 8a3e
000000d0: c1af e43d 0399 3e3e fee1 a0be 258b bebe
000000e0: 6070 c8be d72b 58be f062 a3bd 80df 5ebe
000000f0: 3787 013f 52a0 f43e 5c28 5c3e 8307 d9be
00000100: c015 bebd f3da b1bd c256 653d 4ece c33d
00000110: dcfe 073e 374b ec3e aaee cb3e 836a 8b3e
00000120: 7404 c7be 3e6f 2ebe 135c 64be 18ee a7bd
00000130: 9000 e3bd 400f 21be 21b3 0f3f 8af5 db3e
00000140: 2f1e 473e 8654 bb3e a694 463e fd58 873e
00000150: c49b 293f cb0f f83e 5b52 a43e 5add 313f
00000160: a2cf 0b3f c08c dd3e c8d2 9f3e 2403 6d3e
00000170: cfb7 c33d c3cb f93e 3a03 573e f72e 5b3e
00000180: 6d8c 6b3f 3e83 1c3f 087b 073f f7f6 333e
00000190: b2c4 863e 3be0 4b3e 58d1 19be 01d2 69be
000001a0: f200 c3bc f9f9 01bf e247 d8be f704 8fbe
000001b0: 6005 3d3c 7cbb 6f3c ff87 503e 9be0 3bbd
000001c0: 83e9 b43c a203 ed3d 7fe6 cbbd 1aab 39be
000001d0: b994 93bd 67e0 603e 761b 9e3e 1835 1f3e
000001e0: 1de8 b83e bf37 f33e a9db c83e 09d5 2f3e
000001f0: 832b 203e 1d69 863e bdc8 27be 8f9d a8be
00000200: 69ab 05bf 73de 303d 1774 9ebe ec28 8dbe
00000210: 8b17 d3bd 7c3b 3e3d 0053 46be e3d2 e93d
00000220: 2e04 8f3e 2f77 063f 387b 82bd 69aa 0a3e
00000230: 6702 6f3e afa0 8fbe ff10 15be 1eaf 483c
00000240: ac88 a1be 1f8f 1abd 6d97 8b3c 4dfb d9bd
00000250: 9c54 7a3e 108e 3d3e 38dd 633e 1064 c33e
00000260: 7b83 da3d fdf5 44be 528f e43b d2cf e43d
00000270: 9241 793e f78d bd3e 6792 ae3e cf5b 253f
00000280: 6865 123f add3 eb3e 8a3e 143e bca3 073e
00000290: 5654 7a3e 292e 1e3f 1a4e 023f 9602 b03e
000002a0: 4271 613f 74a8 233f f10c d03e fda6 1fbe
000002b0: cbf6 823d 4c38 d73e c5be 473d 049e d53e
000002c0: 01a9 da3e 4356 0f3f 7051 273f 73ea 0a3f
000002d0: 5497 2c3e 4953 9e3e 3145 fc3e 9ddd 203e
000002e0: 443e e13e a5fa 103f deb7 403e 8026 993e
000002f0: d0ce c63e 0647 55be b469 5d3e 7806 0f3f
00000300: 66dd 53be 0651 80bd b586 9a3e 8c4a 9ebe
00000310: 3d4e 41be 26d7 adbc 6f2d 03be 1f80 54bd
00000320: 670f 63be 1643 253e 4568 313e c552 7ebb
00000330: 66a0 c73e dce3 5c3e 91e7 913e 97a8 513e
00000340: 8604 363e 9401 1e3e f0c8 cdbd 9ced babc
00000350: 5808 463e 7f66 f5bd 8ecb 91bd b15f 08bd
00000360: 8ddd 903c 5801 ffbc 8e14 45bd 20df 11be
00000370: 0dca b7be 190c 83be 04f9 97be ee59 a2be
00000380: 7e7a dcbe 7517 acbd e3c8 bbbc 688a 3d3e
00000390: 348b ea3d 8291 d13d 1c2c a13e 41b0 8f3e
000003a0: 07ef 323e 65e3 cd3e 7048 e73d e267 f03d
000003b0: 20de 09bd 4f90 b9bd 2c13 47be 5e1a 0cbe
000003c0: 530b 77be 7c16 bdbe f347 d8be f17c 713d
000003d0: 4a21 b9bc 715a 263d f670 49bc bfb6 7cbd
000003e0: 3b21 123d 93d0 cfbe 9622 96be fe09 24be
000003f0: 0ce5 793e dafd a6bd 67f5 4abe d004 68bd
0.15679336 0.26529846 0.3905102 -0.044722687 0.028802963 0.12317033 -0.42913422 -0.23976155
-0.19580902 0.38374785 0.041019633 -0.0153383715 0.8100876 0.31344804 0.12782584 0.43962705
0.18998328 0.069502965 0.27274752 0.08253482 -0.021140983 0.50365573 0.321716 0.18219866
0.44584364 0.31637383 0.16349989 -0.4126018 -0.14112304 -0.049702194 -0.6682284 -0.37410024
-0.06574392 -0.42045182 -0.48081046 -0.26363704 0.45997986 0.18890896 0.04397227 0.85146976
0.4127948 0.19170024 0.81185925 0.53605396 0.286389 -0.39506018 -0.4414214 -0.40477479
-0.25227812 -0.1882996 -0.2883419 0.269623 0.11166335 0.18613057 -0.31422418 -0.37215534
-0.39148235 -0.21110474 -0.07977855 -0.21764946 0.50596946 0.47778565 0.21499771 -0.42388543
-0.09281492 -0.086843394 0.05599094 0.09560834 0.13280815 0.46151134 0.39830524 0.272297
-0.38870585 -0.17034623 -0.22300749 -0.0819971 -0.11084092 -0.15728474 0.56132704 0.4296077
0.19445108 0.36587924 0.19392642 0.2643508 0.66253304 0.4844955 0.32094082 0.6947838
0.546137 0.43271446 0.312155 0.2314573 0.09556543 0.4878827 0.20997325 0.21404634
0.9201115 0.6113776 0.52922106 0.17574678 0.26321942 0.19909756 -0.15021265 -0.22834016
-0.023804162 -0.50772053 -0.42242342 -0.27933475 0.011536926 0.014632102 0.20364378 -0.045868497
0.022084003 0.115729585 -0.09956073 -0.18131676 -0.07206101 0.21960603 0.30880326 0.15547597
0.36114588 0.47503468 0.39230087 0.1717111 0.15641598 0.2625207 -0.1638517 -0.32932708
-0.52214676 0.043180894 -0.30947945 -0.27570283 -0.10307225 0.046443447 -0.193676 0.114171766
0.27932876 0.5252561 -0.06371158 0.13541569 0.2334076 -0.2805228 -0.14557265 0.012248782
-0.31549585 -0.037734147 0.017039979 -0.10643635 0.24446338 0.18511224 0.22252357 0.3816228
0.10669609 -0.19234462 0.006975093 0.11172451 0.2434142 0.37022373 0.3409607 0.64593214
0.57185984 0.46059933 0.14476982 0.13246053 0.24446234 0.61789185 0.50900424 0.34376973
0.8806344 0.63928914 0.40634874 -0.15591045 0.06394728 0.4203514 0.048765916 0.4172212
0.42707065 0.55991 0.6535864 0.5426399 0.16854602 0.30922917 0.4927154 0.15709539
0.43992817 0.56632453 0.1882014 0.29912186 0.3882966 -0.20827875 0.21622354 0.55869246
-0.20689926 -0.06265454 0.30180898 -0.3091625 -0.18877502 -0.021220755 -0.128103 -0.05188
-0.22173844 0.16138873 0.17324932 -0.0038806659 0.38989562 0.21571296 0.28496984 0.20474468
0.17775163 0.1543029 -0.100480914 -0.02281838 0.1933912 -0.1198244 -0.07118903 -0.033294383
0.017683769 -0.03112857 -0.048115306 -0.14245272 -0.3589634 -0.25595167 -0.2968217 -0.31709236
-0.43062204 -0.084029116 -0.022922939 0.18509829 0.11452332 0.102328315 0.31478965 0.2806416
0.17473994 0.4021255 0.11293113 0.11738564 -0.0336591 -0.09060728 -0.19440907 -0.13681933
-0.24125414 -0.36931217 -0.42242393 0.058957044 -0.022598881 0.040613595 -0.012294998 -0.061697718
0.035676222 -0.40588817 -0.29323262 -0.16019437 0.2440378 -0.08153887 -0.19820176 -0.056645215

cell_list.1.conv_gates.weight f4 [20, 20, 3, 3]
00000000: 4484 7d3d a908 683c dad8 573c f6c2 143e
00000010: 89c3 a83e 9940 7f3e 6f2f 2b3e e6fc d03d
00000020: 83cf 733e 3648 a43e 33a4 0d3f 7c21 303f
00000030: 1f89 67be 4f1d a13d cc7f a53e 7efb cebd
00000040: 8528 82be 001f 2bbe 5dd9 9bbb fbdf 9c3c
00000050: 0126 adbe 0b87 363e 71cc 2f3d ea97 57be
00000060: 470e 5c3e e82d d73d abde 933c 0025 c43d
00000070: 3d64 6bbc c47e 0ebd 3328 c73d bea4 3abe
00000080: f781 a6be 9547 dc3e fb13 943e 66af b93c
00000090: 3224 80be 179d a9be c41f 84be b977 7e3b
000000a0: fc55 77be 837f e0be 8e55 b83e db3c e43d
000000b0: ed08 07bd 9b9a 313f 1436 b23e d7e3 afbb
000000c0: 3779 0e3f 39aa 253e 7753 44bd 304f 463e
000000d0: 4c7f ab3d fc52 683d dd8f d23e 3727 403e
000000e0: ef2e e5bc 449e 463d 6411 543e 0232 d13e
000000f0: 40c3 033f 35a3 1d3f cec7 143f 6c46 b53d
00000100: cfc7 393d 8f2c 053c 2efb f73e d53b d13e
00000110: 09ed a83e ef7f 2d3f 22e8 383f 1545 053f
00000120: 6d26 573e 58ee 063e 778b 77be 09bf 483f
00000130: 75ba d23e 7a1c f53d d7cf 343f 539b 813e
00000140: 5701 823e 4811 833c a324 5e3e 89d3 623e
00000150: 9544 31be 10c1 263e 4a71 463e f036 29be
00000160: 4d85 23be 3305 aabe 479e c1bc a8e4 90bd
00000170: c91d fcbd 0f5c 95bd 455b 723d 3aa0 303e
00000180: c75a efbc 5979 773e e2b7 053f 8bf7 4f3d
00000190: ba5c 4c3e 4700 cf3d cc80 5c3c b9e9 053e
000001a0: 6ff8 81be 7c9d 153e 23c9 a8bd 9c67 9ebe
000001b0: 3bed 083e a3fe 94bd b3af 9cbd 558d 9d3d
000001c0: 614f 13bd e54d c0bd 7c34 d6bc 10b0 fbbd
000001d0: 3769 6dbe a9b4 963d 940b 0dbc 4068 7bbe
000001e0: d2c7 eb3d bb06 923d ab3e 82bc ebf8 943e
000001f0: 1ccc dc3e 88af d43e 6503 2fbb 6d38 b03e
00000200: 0494 343f 2300 933e 6559 cb3e f35c b33e
00000210: cae7 3f3d 2034 903d 1aed b0bb e34c 83be
00000220: 8d18 63be 05a1 02be 1f99 69be 069a a1bd
00000230: e398 323e 956a 55be 8c5b 8e3d 411c 2b3e
00000240: 76c9 1cbc 1b8a a2bd 2d68 c2bd 1ac5 23bd
00000250: fbdf 4ebd 52a0 9fbe 849c 0dbe b78f f7bd
00000260: 86e4 53bb f4d7 003d ef24 1b3e 0a64 933e
00000270: e176 463e 6525 3bbd 81bb 993d f303 cabd
00000280: 8109 bfbc 8252 6e3d 1dee d4bd 40ab bdbc
00000290: fafb a33e be57 7abe 31b6 fabd 37dd 0c3e
000002a0: d7cc 61be b2e0 88be 3975 71be b1ca 323e
000002b0: 0c3f 40be c76f 70be f6fd 313e 2813 2ebe
000002c0: 248b 87be 84c9 7a3e 8dfa 233e 93ed b7bd
000002d0: b063 d4be d95c 48be 81da 84bc 6c63 b3be
000002e0: 1656 e5bd 6157 dcbd 7fa0 0bbe 1c82 623d
000002f0: 49b2 333e bf71 12be c234 353d ea80 5abc
00000300: 20bb c0bd 0e30 71ba 4b0a 6d3d 5e0c 1abe
00000310: a720 e8be 9ca8 0fbf dabc c4bc efb6 98be
00000320: a5b0 1cbf abcc 753e 7c7f 33bd f311 bdbe
00000330: 571a 203e 0cde b83d d821 47be 14dd be3e
00000340: f919 793e 1103 0f3e bcd4 83bc 9181 11be
00000350: ddce 97be 2a0e 803d 7666 4e3d adb0 4d3d
00000360: 092e 173f f50e 983e 4e31 4e3e 5e85 bd3e
00000370: e553 383e 2762 9fbd fca8 b03e 7234 ba3e
00000380: d8a6 a73e 7027 f13d d241 753e 4475 933e
00000390: 5012 3f3e 1330 883e 6aad c53e 5cfd f9bc
000003a0: 6065 e03c 1000 223e 14d4 263e 33d6 4d3d
000003b0: f3ce 44be b0af 543e 6ca2 c83e c860 cc3e
000003c0: c5b5 afbd 997e 34be 2e22 1fbe 192c c83e
000003d0: e246 553d 79ae 8b3c 407a 2e3f fdea e33e
000003e0: dada c63e 2f3b 0e3f ba29 193f a7bc 283f
000003f0: 23d5 b53d 99f6 cfbc 9f42 8c3d 12d4 073f
0.061893716 0.014162221 0.01317426 0.14527497 0.3296168 0.24926986 0.16717313 0.102044865
0.23809628 0.32086343 0.55328673 0.68801093 -0.22610901 0.07866918 0.32324064 -0.10106562
-0.2542154 -0.16711044 -0.0047561363 0.019149771 -0.33818057 0.17824952 0.04291958 -0.21054044
0.21489821 0.10506803 0.018050512 0.0957737 -0.01436716 -0.034788862 0.09724464 -0.18226907
-0.3252103 0.43023363 0.28921494 0.022666644 -0.25027615 -0.33127663 -0.25805485 0.0038828684
-0.24153894 -0.43847284 0.36002773 0.1114442 -0.032967497 0.69376534 0.34806883 -0.005367737
0.5565371 0.16178216 -0.04793116 0.19366145 0.08373889 0.056719765 0.41125384 0.1876496
-0.027976481 0.048490778 0.20709759 0.40858465 0.514698 0.6157716 0.5811738 0.088513225
0.045356568 0.008128299 0.48433822 0.4086596 0.32993343 0.67773336 0.72229207 0.52058536
0.21010752 0.13176858 -0.24174295 0.78416497 0.4115788 0.11968322 0.7062964 0.25313815
0.25391647 0.015999451 0.21693663 0.22151007 -0.17311318 0.16284585 0.19379154 -0.16524863
-0.15968819 -0.33207092 -0.023635043 -0.07074863 -0.123103686 -0.072929494 0.059169073 0.17248622
-0.02921809 0.24167384 0.5223371 0.050773185 0.19957247 0.10107475 0.013458442 0.1307744
-0.25384852 0.14610857 -0.08241489 -0.30938423 0.13371746 -0.072751306 -0.076506995 0.076929726
-0.035964373 -0.09389857 -0.026148073 -0.12289441 -0.23184668 0.07358677 -0.0086087175 -0.24551487
0.11512722 0.0713019 -0.015899023 0.2909616 0.43124473 0.4154017 -0.0026704904 0.3441805
0.70538354 0.28711042 0.3971664 0.35031852 0.04685191 0.07041192 -0.0053993585 -0.25644597
-0.22177334 -0.12756737 -0.22812317 -0.07890706 0.17441134 -0.20841439 0.06951055 0.16709997
-0.009569516 -0.07936498 -0.09492526 -0.039982893 -0.050506573 -0.31177002 -0.13829237 -0.12087958
-0.0032332256 0.03145595 0.15150808 0.2878726 0.19381286 -0.04568996 0.07506467 -0.098640345
-0.023319962 0.058184154 -0.10396979 -0.023152947 0.3202818 -0.24447533 -0.122417815 0.13756262
-0.22050796 -0.2673393 -0.23579873 0.17460133 -0.1877405 -0.2348014 0.17382035 -0.16999495
-0.26473343 0.24490935 0.16013546 -0.089808606 -0.41482306 -0.19566669 -0.016217472 -0.3503679
-0.1119806 -0.10758854 -0.13635443 0.055299863 0.17548479 -0.14301203 0.044239767 -0.0133364
-0.09410691 -0.0009200581 0.057871144 -0.1504378 -0.45337412 -0.5611665 -0.024015833 -0.29827067
-0.6120704 0.24003856 -0.04382275 -0.36927757 0.15635048 0.09026727 -0.19446504 0.37278044
0.24326314 0.13966013 -0.01609265 -0.14209582 -0.29650012 0.062527016 0.050390683 0.05021732
0.5905462 0.2969891 0.20135996 0.37015814 0.18000753 -0.07782393 0.34503925 0.36368138
0.3274448 0.117751 0.2395089 0.28800404 0.1865933 0.26599178 0.38608867 -0.030516319
0.02739209 0.15820336 0.16291839 0.050253104 -0.1921957 0.20770144 0.39186418 0.39917588
-0.08579592 -0.17626418 -0.15540382 0.39096144 0.052069552 0.017050968 0.6815529 0.4451522
0.38838845 0.55559057 0.59829295 0.6591286 0.08878543 -0.025386142 0.068486445 0.5305797

cell_list.1.conv_can.weight f4 [10, 20, 3, 3]
00000000: 9757 753d 7d66 643c ea46 a23d 9a03 273d
00000010: 6db8 9b3b 23ce b83d 10b9 113c e277 013c
00000020: af07 a63c 5366 703c fac5 9bbd b94e 36bd
00000030: 60ac 93bb 399c 5abd ee83 1cbe cdbf e13d
00000040: febc 0abb 2e5a 48be daf1 99be f1af 1cbe
00000050: 9c6d 1d3e 862e a1bd 58b8 b43d 30a5 a53e
00000060: f52d 1f3e a0ce a43e 8eac b93e 94f6 68be
00000070: cde9 8dbe 00eb a9be 61d5 583c 8602 3dbe
00000080: abc0 11be 6ed4 813e b71b aa3d 494d 9c3d
00000090: a7f9 6cbe 772a 57be 7503 84bd e66e 1abe
000000a0: 149e 2dba 2185 023e feeb 44bd 8ee2 383e
000000b0: fc9b 8d3e 854c d3bd 364b 9abd 253d 983d
000000c0: 8ff3 bebd 8b96 093c d247 973d e5e2 e83c
000000d0: 4c8b 2f3d 1f87 193e ea59 803e 52bc ce3e
000000e0: 95c4 073f a721 033f 3cd6 c33e 37c4 2f3e
000000f0: cb37 1d3e f38d 843c a7c8 12be d642 7a3e
00000100: fe9f 943d 371b 4c3e f6d2 043f 3149 113e
00000110: aa57 713c fd6c 983e e616 17be 4a7e 8fbe
00000120: 787c 8d3d ad77 493e ba3f 6e3e c22e 28be
00000130: 4baa 8ebb 77cc e43d 3962 733c a041 c63d
00000140: 4268 683e 2996 ab3d 435f 9f3d 8811 353d
00000150: d3b1 b53d 798f 6a3c ea69 c8bc 8e83 ad3e
00000160: 7b0c 403e 4feb a03d a039 143e bdda 523e
00000170: 5f9f 263e 9c58 db3c a31c c2bb 602d d1bd
00000180: 6cae 533d d7d3 2bbe 5dd6 a1be 4ef3 0dbe
00000190: 7b45 66be 367e 2abe eab7 2dbd 0c9b 4fbe
000001a0: dd0c 6fbd 37e3 8c3d 2a91 41bd 282e 56bc
000001b0: ae0a 99be 6728 08bd 62e2 503e a45b 8bbe
000001c0: 9bad 053d 92c2 163e cf6c 703b 5bbc abbd
000001d0: d16e 813d a5fb c2bd 4f3c 813c 344d b23d
000001e0: 9eb9 e73c 7628 5fbb a516 1e3e 0bb7 8d3e
000001f0: 88e8 263e cc37 67bb cb09 173e 20d5 b03c
00000200: e63d 93bd 19bc fc3c 2389 743c 7178 423e
00000210: 8ebf c8bc fa3b 81bc 445c 323d 30fc 533e
00000220: ce2f 5f3e d1e1 683d 4193 e13e f80f 8e3e
00000230: c02b 3a3e 433c 153e 7678 abbb 4029 94bd
00000240: 7059 013e bd70 d9bd 9bd9 05bd d7cb 173e
00000250: 5d35 053e 3af9 72bd 9cee 813e 7c46 3f3e
00000260: b518 5f3d eea6 97bd ce12 4b3e 9cde ee3d
00000270: 5ad8 57bc e9e9 0e3e 13e0 513e 76b1 38be
00000280: 9203 b13c e54a 523e 96b4 a23e 61db 9a3e
00000290: 69a4 0c3d a652 a83d 014f 753d 5161 3d3c
000002a0: 50b5 3fbe 3d26 63be 25ac 7cbe a98b d83c
000002b0: ac0e 26be 832e 7bbe c12d 583e 6899 8abc
000002c0: e77c 50be 8b1c 363e 89dd 99bd 9d97 4cbe
000002d0: 6fd8 123d e63d 683d 1402 503d 1e29 91bc
000002e0: 4879 a2bd 56d3 663c a2dd 25be 95e5 8ebd
000002f0: db88 05bd 0890 333e 1c4f 9e3d 8068 6e3d
00000300: a484 0d3c c8bd a93d 9f80 6a3e f7ab 7d3d
00000310: fcfa 553c 3fc6 213e eaca da3d 6210 f5bd
00000320: 9420 57be f18f 7e3e d72a 423b 66c4 e8bd
00000330: 4d7b c53c 8f89 403d b648 0ebd 8409 923e
00000340: 2838 a43e 63cb 443d be87 b73e 2d7d b03e
00000350: 137b 8b3e c1df 06be 74c1 3bbd 574b c83c
00000360: 1e89 943d f296 3bbd defb b8bd 1ba2 ce3d
00000370: 9a0e bfbc b6a8 4fbe 6ee0 3b3e 95a6 6c3a
00000380: 61aa 8f3c 049b 243e 4150 6b3d 3c2a a83d
00000390: 56e5 6a3c 2dba 09bd 0825 173d 4cb5 833c
000003a0: acfa c33d ccad 0bbd de86 17be 0504 a1be
000003b0: 0c42 82be 87a8 ecbe d21e 80be 3307 0bbc
000003c0: 291f 12bf 815e b4be 3e04 bbbd 9b03 0dbc
000003d0: 30ba 743c f0bc 3e3d 0a38 44be 333a da3b
000003e0: a945 193e b244 18be d8b1 1e3e d3ce 903e
000003f0: 0bd0 963d 116e 153e 897e 73bc 44f5 0d3e
0.059897985 0.013940451 0.07923682 0.04077492 0.00475221 0.090236925 0.00889422 0.007902117
0.020267336 0.0146728335 -0.076061204 -0.04450867 -0.0045066327 -0.05337164 -0.15284702 0.11022911
-0.0021169777 -0.19565651 -0.3006733 -0.15301491 0.15373844 -0.07870202 0.08824223 0.3235259
0.15544875 0.32188892 0.3626446 -0.22750312 -0.27717438 -0.33187103 0.013234467 -0.18457994
-0.14233653 0.25357383 0.083060674 0.076319285 -0.2314211 -0.21012293 -0.06445972 -0.15081367
-0.0006622982 0.12746097 -0.048076622 0.18055174 0.2765807 -0.10317329 -0.075338766 0.074335374
-0.09323799 0.008397709 0.073867455 0.028428504 0.042857453 0.14992951 0.250686 0.40378052
0.53034335 0.51223224 0.38249385 0.17164694 0.15353315 0.016180968 -0.14334355 0.24439558
0.072570786 0.19932257 0.518844 0.14188077 0.014730373 0.2977065 -0.14754829 -0.28026038
0.06908506 0.19674559 0.23266497 -0.16424087 -0.0043537966 0.11171811 0.014854961 0.09680486
0.22696021 0.0837825 0.077818416 0.044206172 0.08871808 0.014316433 -0.024464566 0.3388943
0.18754761 0.078573816 0.14475107 0.20591255 0.16271733 0.02677565 -0.005923824 -0.10213733
0.051680014 -0.16780029 -0.3160886 -0.13862345 -0.22487442 -0.16649708 -0.042411722 -0.2027399
-0.058361877 0.06879275 -0.04725758 -0.013072528 -0.2989096 -0.033241656 0.20398858 -0.27218354
0.032636266 0.1472266 0.0036685949 -0.08385535 0.06319965 -0.09520654 0.015775828 0.087061316
0.028286751 -0.0034051216 0.15438326 0.27678713 0.16299641 -0.003528106 0.1474983 0.021586
-0.071895406 0.03085141 0.014925274 0.18991257 -0.024505403 -0.01577567 0.043545023 0.2070167
0.2179558 0.05685598 0.44057658 0.27746558 0.18180752 0.1457377 -0.005232866 -0.0723443
0.12631774 -0.10617206 -0.032678228 0.14823852 0.13008638 -0.059319712 0.25377357 0.18679231
0.05446692 -0.07404886 0.19831392 0.11663553 -0.013174141 0.13956417 0.20495634 -0.18036446
0.021608148 0.20536382 0.317784 0.30245498 0.03433648 0.08218889 0.059889797 0.011558847
-0.18721509 -0.22182555 -0.24675043 0.026433783 -0.16216534 -0.24529462 0.21111204 -0.016918853
-0.20360146 0.17784326 -0.075129576 -0.19979711 0.03585094 0.056699656 0.05078323 -0.017719802
-0.07933289 0.014088472 -0.16197827 -0.06977383 -0.03260122 0.17535412 0.07729933 0.058205128
0.008637581 0.08288151 0.22900628 0.061931577 0.013060328 0.15798281 0.10683234 -0.119660154
-0.21008521 0.24859597 0.0029627585 -0.11365585 0.024106646 0.047006186 -0.03473731 0.28522885
0.32074094 0.048045527 0.3584575 0.34470502 0.27242336 -0.13171293 -0.04583879 0.024449987
0.072527155 -0.04579825 -0.09032415 0.10089513 -0.023322392 -0.20279202 0.18347332 0.0009027508
0.017537298 0.16074759 0.057449583 0.082111806 0.0143369045 -0.033624817 0.03690055 0.01607766
0.09569296 -0.034101292 -0.14797541 -0.3144838 -0.25441015 -0.46222326 -0.25023514 -0.008485603
-0.57078797 -0.3522835 -0.091316685 -0.008606817 0.014936969 0.046566904 -0.19162002 0.00665977
0.1496798 -0.14869955 0.1549753 0.28282794 0.073639 0.14592768 -0.014861711 0.13863093

cell_list.2.conv_gates.weight f4 [20, 20, 3, 3]
00000000: f386 c9bd 4be7 08be 7323 35be a61d 61bd
00000010: 2bac 49be 619d 1dbd e094 80be 82d3 49be
00000020: 9ec4 0abd ce97 5abe 53aa cd3b f1d3 173e
00000030: 8d03 47be 07f9 683d 0e12 313e e686 d03d
00000040: ec16 1e3e 8d0a b93d a7da 383f 0727 3e3f
00000050: 08d1 1b3f f57c c13e febd cc3e 40cb ca3e
00000060: e946 ce3e c9f6 113f b87d 1d3f 3a19 6a3c
00000070: da11 343e 7ec5 ce3d 7308 01bd 5a8f 70bd
00000080: 2564 af3c 09b7 4a3d d3a7 1c3e a9c3 95bb
00000090: f62a a0be f907 29bf b5e0 a6be c5c3 0dbe
000000a0: 38d7 3abe 23b0 4c3d bf0c 65bd 0b75 f3bd
000000b0: 6a82 3c3c ab8c 2c3e 07bc 4a3e 37f6 9b3e
000000c0: 66a9 303e a8d5 a13e 8445 9a3e 7a92 e73d
000000d0: 0992 603e 6701 533e 7c3f b6bd 541c 61be
000000e0: 3abe 793e d3df be3d b5c0 2dbe d01b b83e
000000f0: b1fe b73e 4f3b 8e3e 6aec b83e 4f99 02bf
00000100: d313 43bf 4b19 fbbe 99d7 cabe 1843 03bf
00000110: 056b fcbe de99 9ebe 8533 e7be f089 41be
00000120: 22aa 55be f383 cebe bb37 0bbf 9910 42be
00000130: 9878 cabe a15d cebe ef1c b4be 4858 adbe
00000140: 96f1 96be 9f31 16be 1720 b1bd 52d1 09be
00000150: 4258 25be 320e 20be c2b9 0fbe 11ad a0bd
00000160: ab3a 83be 40ba acbc ce20 a4bd 9192 c8bd
00000170: 46b5 7bbe 1a79 3d3d 92c0 3bbe 099b 87be
00000180: b121 98bd 75b2 1abe 247c 4abe 4c5f e4bd
00000190: 7002 d1bd 3d1f b3bc f9f3 fabd 7981 55bc
000001a0: 5a0c 103c 1380 efbc c2ba a9bc 6e80 96bd
000001b0: adb9 00be e389 a1bd 7893 303d 43bf a93d
000001c0: 76a4 f03d 9489 a63e 397a 75bc 1913 893d
000001d0: aa35 ab3e 60aa 2f3c 5f7c adbe a9e6 68be
000001e0: 9d14 a33c f558 11be 2447 20bd 5d35 28be
000001f0: 43a9 5abe ef04 2ebd 1413 073d f65d 683d
00000200: 0067 783d 55e6 56bd a1a8 b1bd add9 a93d
00000210: d8ec be3d 11b3 913e 4e49 a93e c868 0ebe
00000220: 160b 54be a86e e9bd c612 82be 785e 8bbe
00000230: 98f8 26be fa16 24bd c487 29be 7306 16be
00000240: 72ba 3d3e 17ea 0ebd fba8 1ebe dc02 d83d
00000250: cc23 783d ce77 20be 0dd7 45bd cdcc d1bd
00000260: 44b2 26be a5e7 e33d 6e9f ea3c 973f bfbc
00000270: 6f54 2e3d fad1 9a3d a92e 1ebc 9f5f 3dbe
00000280: a0d2 fbbd 643d 11be 07c9 b43d f13c 543e
00000290: e47e fe3c 22c3 093e 029a 273e 73b1 463e
000002a0: bec7 d23d 2354 453e 9898 3c3e e54e b23d
000002b0: cfe5 fabc c5c7 0cbe 0822 8e3d 4bc4 46bb
000002c0: d6dd 2cbe 3264 173e 85e8 093e 5500 1fbd
000002d0: 011c ef3d d3c2 163e 8408 843e 74ac 403e
000002e0: b4ac 853d 3e10 9ebb 9114 82be 3394 a6be
000002f0: 6354 e8be 5262 2dbe 615c debe d938 16bf
00000300: 731d b1be e7e6 e0be f6b5 b5be 836c 87be
00000310: aba4 c6be 60da 9abe 1f3f 10bc c899 a23c
00000320: b481 853d 0172 af3d 4937 df3d 4e7f 1c3e
00000330: fb07 97be e1ef b8bd 4904 9f3e 7ac4 0dbf
00000340: 233d eebe 26d6 b9be 7ac0 aabd b0bc 8bbe
00000350: 7d5c 7bbe 1e05 e8bd 42d8 70bd e051 93bd
00000360: 7bf3 963d f64b 2cbc b463 75bd 1a3e e5bd
00000370: c9b8 8ebe 1f64 dabe 0789 813d 0435 5bbd
00000380: fe91 75be e3c5 1e3d 0ab4 50bd 52c3 14be
00000390: 0738 b53d 78f9 3d3e d78b 433e ac8a 15be
000003a0: bcd5 03be 320d 9abe e953 893d 8a34 8cbd
000003b0: 2027 e2be 8512 de3d 5672 c4bd d6e0 75be
000003c0: 51d6 db3d 7d41 1f3e 9e19 583e 2b47 9f3c
000003d0: eaa0 963d 1448 d2bd 2936 533e a20c 853e
000003e0: ac35 5eba f154 343e 3a4f 803e a79e cc3d
000003f0: 6717 47be a16a 86bd 33c4 2dbe 4b81 8fbe
-0.09840193 -0.13369481 -0.17689304 -0.054959916 -0.19694583 -0.038480166 -0.25113583 -0.1970959
-0.033878915 -0.21346971 0.0062764077 0.14826943 -0.19434948 0.056878116 0.17292044 0.1018198
0.15438432 0.090352155 0.72208637 0.742783 0.6086583 0.37790647 0.39988703 0.39608192
0.40288475 0.5701719 0.61519957 0.014288241 0.17584935 0.100962624 -0.0315022 -0.05873046
0.021410057 0.049490962 0.15298395 -0.0045704436 -0.31282777 -0.6602779 -0.32593313 -0.13844211
-0.18246162 0.049972665 -0.05592036 -0.118875585 0.0115057025 0.16850536 0.19798289 0.30461285
0.1725212 0.3160832 0.3013116 0.11307235 0.21930708 0.20606004 -0.088988274 -0.21983463
0.24388972 0.09320035 -0.16968043 0.3595872 0.35936502 0.27779624 0.3611787 -0.5101518
-0.76202124 -0.49042735 -0.39617613 -0.5127425 -0.493004 -0.30976766 -0.45156494 -0.18900275
-0.20865682 -0.40335044 -0.5438191 -0.18951644 -0.3954513 -0.40305808 -0.35178325 -0.33856416
-0.2948119 -0.14667366 -0.08648699 -0.13458756 -0.16146949 -0.15630415 -0.14035705 -0.0784551
-0.25630698 -0.021084905 -0.080140695 -0.0979358 -0.24580869 0.04625807 -0.18335178 -0.2648547
-0.07428301 -0.15107138 -0.19773918 -0.11150989 -0.10205543 -0.021865482 -0.12253565 -0.013031357
0.008792007 -0.029235875 -0.020718936 -0.07348715 -0.1257083 -0.07887628 0.043109387 0.082884334
0.117501184 0.3252684 -0.014982753 0.06693096 0.3343938 0.010721773 -0.3388395 -0.2274424
0.01990729 -0.1419409 -0.039130345 -0.16426606 -0.2135363 -0.042485174 0.03297718 0.056730233
0.060645103 -0.052465755 -0.086747415 0.082934715 0.09322518 0.2845693 0.3306374 -0.13907158
-0.20707354 -0.11398059 -0.25404948 -0.2722051 -0.16305768 -0.040060975 -0.16555697 -0.14650898
0.18528154 -0.034891214 -0.15494148 0.105474204 0.060581014 -0.15670702 -0.04830079 -0.10244141
-0.1627894 0.11128167 0.028640475 -0.023345752 0.04256099 0.07559581 -0.009654679 -0.18493508
-0.12296033 -0.14183575 0.088274054 0.20726372 0.031066366 0.13453344 0.16367343 0.19403629
0.10292004 0.19270377 0.18417585 0.08706454 -0.03062716 -0.13748081 0.06940085 -0.0030329402
-0.16881499 0.14784315 0.13467605 -0.038818676 0.11675263 0.14722757 0.25787747 0.18815786
0.06527081 -0.0048237136 -0.25406316 -0.32534942 -0.45376882 -0.16932037 -0.43429855 -0.5868049
-0.3459278 -0.43926165 -0.35490388 -0.26449975 -0.38797507 -0.30244732 -0.008804112 0.01984872
0.065188795 0.085666664 0.10899217 0.15282938 -0.29498276 -0.09030128 0.31057957 -0.55377924
-0.4653102 -0.36296195 -0.08337493 -0.27292395 -0.24547 -0.11329101 -0.05879999 -0.07193351
0.07370659 -0.010516157 -0.059909537 -0.111934856 -0.27875355 -0.4265451 0.06324964 -0.053517357
-0.23981473 0.03876294 -0.05095295 -0.14527634 0.08848577 0.18552196 0.19096313 -0.1460368
-0.12874502 -0.30088192 0.06705458 -0.068459585 -0.44170475 0.10843376 -0.0959212 -0.2401155
0.10734237 0.15552326 0.21103522 0.019443115 0.07354911 -0.10267654 0.20626129 0.259862
-0.00084766257 0.17610528 0.25060445 0.09991198 -0.19442521 -0.065633066 -0.16969375 -0.2802833

cell_list.2.conv_can.weight f4 [10, 20, 3, 3]
00000000: 65a1 633e 5d18 163e bf31 863d 1125 6d3e
00000010: e7eb 253e 3c93 343e a77a 4c3d 7850 193e
00000020: 795c fe3d 8e0d 80be 4e27 29bd 25e6 d4bd
00000030: dd3b c6bc 8143 b1bd 91c7 9f3d 6ffc 9d3c
00000040: 3c18 d6bc daa3 d93d d942 8abe 0846 e2be
00000050: 570d 46bf 553f cf3d e37b 1bbe 3eb5 b6be
00000060: 20ca c3bd 7d3f a0be 5bee 90be f4e3 31be
00000070: 4a61 86bd d148 e8bd 792f 59bd 6b4d f73c
00000080: 503f d33c eda7 43bc ff1a e03b a473 05bd
00000090: 4fca 13be 5596 3b3d abb6 5f3e 76db 21be
000000a0: 368f 55bb 7e2d 213e a369 8cbe 8be9 82bd
000000b0: bfd5 d13d 41be 27be 656e bebd f975 b4bd
000000c0: 6be2 69be ea8f a4bd 7001 c1bd 521e e0bc
000000d0: cf25 07be f7a3 b5bc 0543 2e3e 9ccd ccbd
000000e0: c869 cfbd 4e40 933e a300 db3d 1089 823c
000000f0: 8921 34be 8dfb e4bc 26b0 ffbc 5844 e2bc
00000100: 94b2 bc3c ee28 ef3e e44b 21be a1ce bcbd
00000110: 0363 a63e 8523 78be 1913 02be 50b9 193e
00000120: 277a a73c 2167 883e fd99 f93e a848 643e
00000130: 4c75 b73e ede7 123f f1e8 e53d affe a4bb
00000140: f2f4 5d3e 0ab3 a9bd a35f 8c3d db21 243e
00000150: 5fcc ed3b ddad aa3d 4e51 243e 13ed cabd
00000160: e3da 053e 18ab f03d 47b7 69bd cd21 e13d
00000170: 87a2 6b3e dc2b 1ebe 8407 2fbe 8071 063e
00000180: 3593 8abd d63e e9bc cd35 dc3d 0181 2c3e
00000190: 8f0e bfbc 0399 bb3d dff9 1f3d c0ce de3c
000001a0: 78cb 8b3d cb58 ed3d 4c6c 2e3e 94b1 4f3e
000001b0: 5585 933e 90dc 1b3e 56df 863c af6f 773d
000001c0: 7dc9 3b3e b31d 773c 2718 cd3d 98e3 ca3d
000001d0: c523 54be 8172 fdbd 8cdd dabd 815f 8b3e
000001e0: e2b9 94be 847f 6fbe c5c3 9b3d 5faa 65be
000001f0: 2eeb 1cbe ad46 4fbc a246 1d3e f807 e53d
00000200: e149 3dbe 06ba bf3d fedc 773c 8cea 5dbe
00000210: 9803 c3bc aa1e 60bd 134b b3bd 216d c43e
00000220: fa9a e33e feda 163f d112 9a3e 08d2 b93e
00000230: 202d 7b3e 90c7 1a3e caf4 193e ba6d ccbb
00000240: a5a4 673e 07e3 e73d 8df0 a43d 6e73 063e
00000250: 16a0 653d 0cf4 003e 5dac 9a3d e978 c3bd
00000260: 4a41 07be 2e74 4fbe cb11 71be 5f38 4bbe
00000270: 4d13 4dbe c75b 13be 16d7 0dbe 21bd 34be
00000280: deed 13be 0ec2 6fbb 3d01 a03e d3dc 613e
00000290: f51c e53a 1189 893e b360 833e db98 3bbe
000002a0: 7c81 3abd 27d7 2dbb 79af 70be 048a c33d
000002b0: 0382 103e b063 a03e 8923 8c3d 7ae8 54bd
000002c0: fc02 923d 3c69 fb3c 735f ccbc 531c 023e
000002d0: 6375 25be ed65 81bd 5c28 efbd 453e 12be
000002e0: 6243 9bbd 0b6d da3d ed3a 1abd ef30 073c
000002f0: 090f c83d c685 cf3d 2c35 b23c f3af ce3d
00000300: d596 303c 3802 56be 04db f6bd 0358 b73e
00000310: b1f5 893e dca8 883e 832c 033d be75 463d
00000320: 1a4d 1cbd 88fa 253d 96d8 843d 8b1e baba
00000330: f405 febd 708e e13c 453b 0abd 2287 ac3c
00000340: 833d b33d 76ce 0dbd ecbc 153e 151b 8bbc
00000350: 605f ae3d 0aae 343e d0f0 d83d fbfc 683d
00000360: e122 d23c 81f5 833d 9134 f23d d329 79bc
00000370: 63b0 b0bd f2ca 56be 14f6 42be f8b0 82be
00000380: 55c4 b1be 57cd 0a3e 81ef d03d 79f5 25bb
00000390: ffce bbbd 0dfd 36be 619a 36be ebce d73d
000003a0: c56b 983d aeaa b8bd bf83 e6be 2a53 7bbe
000003b0: 15b6 963c 4d88 003c 1af3 ca3e 158e 153f
000003c0: 82cd bc3e 8ddc 1d3f 28d4 3f3f 381d 943e
000003d0: 061d fc3e ee7f 073f 4e7e 933d 7e71 1b3e
000003e0: 75c4 08be 32ef cfbe 8740 0abf 83a3 07bf
000003f0: 2c7b 0b3d 5bf6 553e 6b5b e73e fc7c cf3d
0.22229536 0.14657731 0.06552457 0.23158671 0.16203271 0.1763429 0.049921658 0.14972103
0.124199815 -0.2501034 -0.04129725 -0.10395459 -0.024198467 -0.086554535 0.07801736 0.019285409
-0.026134603 0.10626955 -0.27004126 -0.44194055 -0.77364105 0.101195015 -0.15183978 -0.35685152
-0.09560037 -0.31298438 -0.2830685 -0.17372113 -0.06561525 -0.113420136 -0.05302379 0.030188283
0.025787026 -0.011941892 0.0068391557 -0.032580987 -0.14432643 0.045797665 0.21847026 -0.15806374
-0.003258658 0.1574001 -0.27424344 -0.06392201 0.10245847 -0.1638117 -0.092984 -0.08811564
-0.22840278 -0.08035262 -0.09424102 -0.027358208 -0.13198017 -0.022172911 0.17017753 -0.100001544
-0.10127598 0.28759998 0.10693481 0.015934497 -0.17590918 -0.02795198 -0.031211924 -0.02762048
0.023034371 0.46710914 -0.15751606 -0.09219099 0.32497415 -0.242323 -0.12702598 0.15012097
0.020443989 0.2664118 0.48750296 0.22293341 0.35831678 0.5738514 0.11226071 -0.0050352435
0.2167547 -0.08286102 0.06854179 0.1602854 0.007257029 0.08333943 0.1604664 -0.099084996
0.1307178 0.117513835 -0.057059553 0.10992775 0.23011218 -0.15446419 -0.1709271 0.13129234
-0.06766359 -0.028472345 0.10752449 0.16846086 -0.023322372 0.09160044 0.039056655 0.027198195
0.06825918 0.115892015 0.170335 0.20282584 0.28812662 0.15220857 0.016463917 0.060409244
0.1833858 0.015082764 0.10014372 0.09906691 -0.2071677 -0.123753555 -0.10686788 0.272213
-0.29048067 -0.23388487 0.076056994 -0.22428273 -0.15324089 -0.012651128 0.15358976 0.111831605
-0.18485214 0.09361653 0.015128372 -0.21671504 -0.023805425 -0.054716744 -0.08754554 0.3836451
0.44454175 0.58927906 0.3009248 0.36293054 0.24528933 0.1511519 0.15034786 -0.0062386664
0.226214 0.11322599 0.08053694 0.1312997 0.056060873 0.12593096 0.07552407 -0.09544546
-0.132085 -0.20259163 -0.23541944 -0.19845723 -0.20026894 -0.14390479 -0.1385158 -0.17650272
-0.14446208 -0.0036584171 0.31250945 0.22056894 0.0017479943 0.26862386 0.25659713 -0.18320028
-0.045533642 -0.0026525946 -0.23504438 0.09547809 0.14112096 0.31326056 0.06842715 -0.05197952
0.071294755 0.030689828 -0.024947857 0.12706117 -0.1615806 -0.06318269 -0.1167762 -0.14281566
-0.075812116 0.106653295 -0.037653852 0.008251413 0.09768493 0.10132937 0.02175387 0.100921534
0.010778149 -0.20899284 -0.12053493 0.35809335 0.2694526 0.2669133 0.03202487 0.04845213
-0.038159467 0.04052213 0.06486623 -0.0014199776 -0.12403479 0.02753374 -0.03374793 0.02106053
0.08751967 -0.034620725 0.14622849 -0.016980687 0.08514285 0.17644516 0.10592806 0.056881886
0.025651397 0.064433105 0.118264325 -0.015207726 -0.08627393 -0.20975855 -0.19039184 -0.2552564
-0.34720102 0.13554893 0.10201932 -0.0025323315 -0.09170341 -0.17869969 -0.17832328 0.10537513
0.074424304 -0.090169296 -0.4502239 -0.24543443 0.01839737 0.007844997 0.39638597 0.58419925
0.3687554 0.6166466 0.749331 0.28928542 0.49240893 0.5292958 0.07201825 0.15180013
-0.13356192 -0.4061218 -0.5400471 -0.52983874 0.034053013 0.20894758 0.45186934 0.10131261

cell_list.3.conv_gates.weight f4 [20, 20, 1, 1]
00000000: a7cf d8be 64b8 60be 3aaf 8a3e b201 c7bd
00000010: 5a05 70be 1050 c8bd 1fcb a03e 2e3b 19be
00000020: 921e 28be 4916 aebc a615 9abd 692a 8c3e
00000030: fac9 a43e f250 423e 428d 5c3e f7cf bdbe
00000040: 03c9 7c3e 8372 6e3e 35d8 123e ecc5 823e
00000050: 4b38 5bbd e45e 6dbd b9e3 ee3d 0979 67be
00000060: 5b4f 003e 1e33 20be 88a7 f73c 8989 98be
00000070: 4976 443e 5c2f 823e f009 c1bd 6e2d 7a3d
00000080: 1b31 10bf 963c 7a3e fadb 91be c531 273e
00000090: 71c9 3a3e 8208 39be f124 0abe 63ca 61be
000000a0: 1d1a 8d3e c8e1 34be d629 b4be 7805 c3be
000000b0: fae8 8abe 73ee 5b3e df22 8ebe dcb0 d1bb
000000c0: 2699 cd3d 0c5a ddbd 219a 84bc be3a 153d
000000d0: b32e f6bd f811 113e 90f6 83be 67b9 3e3e
000000e0: 2157 e8bd 0652 96be 4e51 423e 0b97 2d3e
000000f0: fdd8 67bd d9e8 cdbe 401c d43d be6e c73d
00000100: 3293 1c3e 5bc8 cd3e 25b3 b2be 3ec8 513e
00000110: 9efd 353e 91f0 d4be bf5d 7b3c d1d0 ac3d
00000120: 6447 dcbd 49ce c63e 86d7 09bf fabb bb3e
00000130: 9791 6dbe cbab 10bf 7281 21be 5394 b2be
00000140: 02ff 313d ff5d 5dbe e54b 57be 2055 d13d
00000150: 83ab d6bb 6d02 d63e 6306 64be b4ff a3bd
00000160: b4d8 8c3e 1482 63be a4db 453e 1c0f d83c
00000170: 3273 42bd b9f4 3d3e c935 5ebe 5958 2c3e
00000180: 8dfb c1bd 7d00 edbc aa8e dabb 8d08 57be
00000190: 58d9 9cbd 6fb0 20be 8b39 053e 7882 a93e
000001a0: d713 5f3e 6404 36be 6938 9b3c 6349 5bbe
000001b0: d9e9 bcbd dc0e 413e fd13 e0bd 8e1d b8be
000001c0: 61e4 0e3f 0d13 9ebe 7538 903e be57 4cbe
000001d0: 597a 993e 2b8b 843e 6a5a 49be bd95 403c
000001e0: fb65 2bbe d4f5 483d 0665 b93e 5301 9e3e
000001f0: c4c3 63be e56f 52bf eb98 953e 14e3 10bf
00000200: b5cf a2be 796a 193f 3dad acbe 5db2 7a3e
00000210: d579 fa3d d244 adbe f603 1e3e 82ba 0dbf
00000220: 901f 1c3f 0f22 613e 77de 043e 36a1 3c3e
00000230: 1a97 65be 1f9c ea3e bd88 4a3e 775c a63e
00000240: a994 34bd f741 8cbe f100 193e 3cfa dbbe
00000250: d85c b4be c830 713e 2775 21be a670 39be
00000260: 6c3b ac3e 3c07 d13d 0aeb c93e 6414 95be
00000270: 8edd eb3e 5dd1 e43e 2416 683e 86fa ac3e
00000280: 4873 a5bc f999 2bbe 3b8d d93d c9af c23e
00000290: 882a dabd 650e 90bd 8b01 e0bc 72ab 993d
000002a0: 4582 8bbc 08e1 3f3e cc2e 52be e12f 67be
000002b0: 0ed2 a2be 8934 8ebe a7b2 a0be 0e81 213e
000002c0: 59ec 7f3e f6e1 563d 5138 1c3e 7a54 a1bc
000002d0: b0e6 84be 8c16 033f 224b 92bd e121 c13e
000002e0: 0216 753e 6aaa e33d 0ed2 1a3e 74a3 06be
000002f0: 3285 233e d05e 1d3c 5b47 463e 3887 6cbb
00000300: 4da8 b03e 2f99 bd3d 3dd3 803d ceb3 923d
00000310: dd53 013e 8145 dabd 6271 033e d226 903e
00000320: 5f91 3cbe 125a 083e 002b 00bf a6a2 9a3e
00000330: d59e 2c3f b06e ccbe 343c 843e 8d5d 13bf
00000340: c7aa dc3c aebe d73e 728d 4a3f 98ca 0d3e
00000350: de64 9bbe 97f4 adbe 28ab 57be fe6c 1f3d
00000360: 3a16 efbd 22a9 04bf 7203 25be 50c6 21be
00000370: 9ba3 a6be b1c7 e1bd c702 123e 51f1 e73d
00000380: 55e5 173c d5e4 31be aebd 00be 8644 bcbd
00000390: 3e63 6fbe 7958 4a3d 057b adbd b6e9 9b3e
000003a0: 677e f23d fbe6 773e 0f57 993e 9278 91bc
000003b0: 3244 79bd e160 aabc de22 b4bc 1ff9 b4be
000003c0: b1df dc3d dea2 043f 7d30 97b9 d6cf c13e
000003d0: 7bba f23e 8768 eebd 06b2 813e 05d6 87bc
000003e0: 81cd c3bc 8be8 433e 1125 c53d 3dbf 513d
000003f0: d6ae 7fbe 35b7 64bd 6e71 a13e c399 f53d
-0.42345926 -0.2194534 0.27086812 -0.0971712 -0.23439541 -0.09780896 0.3140497 -0.14963982
-0.16417912 -0.02125086 -0.0752366 0.27376106 0.32185346 0.1897619 0.2153826 -0.37072727
0.24686055 0.2328587 0.14340289 0.25541627 -0.053520482 -0.057951823 0.116645284 -0.22604765
0.12530272 -0.156445 0.030231252 -0.2979243 0.19185747 0.25426757 -0.094257236 0.06107848
-0.5632493 0.24437174 -0.2848814 0.1632758 0.18240906 -0.18069652 -0.13490655 -0.2204986
0.27558985 -0.17664254 -0.35188168 -0.3809011 -0.27130872 0.2147768 -0.2776098 -0.006399257
0.10038976 -0.10808191 -0.016186776 0.036432974 -0.12020626 0.14167011 -0.2577405 0.18625413
-0.113447435 -0.29359454 0.18976328 0.1695215 -0.05660342 -0.4021671 0.10356951 0.09737919
0.15290526 0.40191922 -0.349023 0.20486543 0.17772529 -0.41589788 0.015342175 0.08438266
-0.10755804 0.38829258 -0.5384449 0.36666852 -0.2320007 -0.56512135 -0.15772036 -0.34878787
0.043456085 -0.21617888 -0.21025045 0.102213144 -0.0065512075 0.41798726 -0.22268061 -0.08007756
0.2750908 -0.2221759 0.19322067 0.026374392 -0.04747314 0.18550386 -0.21700205 0.16830577
-0.09471808 -0.028930897 -0.006669839 -0.20999356 -0.076586425 -0.15692304 0.13010232 0.33107352
0.21784912 -0.17775112 0.018947797 -0.21414714 -0.092242904 0.18853325 -0.109413125 -0.35960048
0.5581723 -0.3087391 0.28168073 -0.19955346 0.29976156 0.25887427 -0.19663396 0.01175445
-0.16738121 0.049062565 0.36209887 0.30860385 -0.22242647 -0.8220199 0.2921823 -0.56596494
-0.31799093 0.5992809 -0.3372592 0.24482103 0.12230269 -0.33841568 0.15431198 -0.55362713
0.6098566 0.21985649 0.12975489 0.18420872 -0.22420922 0.45822236 0.19778724 0.3249242
-0.044087086 -0.27394077 0.14941765 -0.4296435 -0.35227084 0.23553765 -0.15767346 -0.18109378
0.33639085 0.10206458 0.39437133 -0.2911712 0.4606747 0.44690982 0.22664696 0.33784884
-0.020196572 -0.16757955 0.10622641 0.38024738 -0.106526434 -0.070339955 -0.027344486 0.07503404
-0.01702989 0.18738186 -0.20525664 -0.22576858 -0.31800884 -0.27774456 -0.313863 0.15771887
0.24992503 0.052461587 0.15255858 -0.019693602 -0.2595725 0.5120628 -0.07143237 0.3772116
0.23934177 0.11116488 0.15119192 -0.1314829 0.15968779 0.009605125 0.19363157 -0.003609134
0.34503403 0.09257733 0.062902905 0.07163201 0.12629648 -0.10657788 0.12836221 0.28154618
-0.1841483 0.13315609 -0.5006561 0.30202216 0.6742986 -0.39928198 0.2582718 -0.5756462
0.026936902 0.42137665 0.7912208 0.13846815 -0.30350393 -0.3397567 -0.21061385 0.038922302
-0.11674161 -0.51820576 -0.16114596 -0.15798306 -0.32546696 -0.11024416 0.14258872 0.11325324
0.009270986 -0.17372449 -0.12572357 -0.09192757 -0.23377702 0.04940078 -0.0847073 0.30451745
0.118405156 0.24209206 0.29949233 -0.017757688 -0.06085605 -0.020798149 -0.021989282 -0.35346314
0.10784853 0.51811016 -0.0002883709 0.3785388 0.47407898 -0.11641031 0.25331134 -0.016581545
-0.023901703 0.19131677 0.096262105 0.05120777 -0.24969038 -0.055838782 0.31531852 0.11992218

cell_list.3.conv_can.weight f4 [10, 20, 1, 1]
00000000: 16f4 acbc 71ba 383e 4b40 06be fdfe 913e
00000010: bd68 0e3e 7787 a4bc 6eea 40be 041e 773c
00000020: e60c 283e 2f6a a03d 3241 c6bd 3609 7fbd
00000030: 280d 8e3e 01e2 4d3e 0dd0 843e 2628 033e
00000040: 4e1f 203d 443e 92bb f1a9 f2bc 5768 bdbc
00000050: c365 d0bd 0f15 1dbe 2519 8abd b301 60be
00000060: 5c67 a63d ebdc 79bd 0292 d03d f743 66be
00000070: da45 8c3e c21a 06be ecae 24be 8b88 aabe
00000080: b067 b73e 6532 5dbe 5062 de3e 1598 2dbe
00000090: 3306 c83d b288 7fbd 09be a73c cd36 fb3d
000000a0: 3dd5 8ebe ab07 723d f935 8fbd 250e debc
000000b0: 2041 0fbe dba1 8dbc 33a7 0dbd 1fcb 593d
000000c0: e6a6 8b3c 2cf3 873e 6366 b63d 578e 0ebd
000000d0: 9745 90be d253 2bbe 3357 bb3d 543c d1bd
000000e0: 59b7 74bd 2276 263e 9783 143e 4542 183e
000000f0: 394c 5fbe 4361 da3c 8272 9e3e 636f 75bd
00000100: f3be 663e cc0d 093e b855 633d 358b d73d
00000110: 5b0e 3b3e 02c8 cfbd 0324 88be 5afa 573e
00000120: 59fa 9c3e 6a58 50be 5fd0 593e 63b3 093d
00000130: b740 abbc ffe3 0f3e f6d8 adbe ac4b 8c3e
00000140: 0308 2ebd 8399 f4bd 0f5f a7be dc8f 983d
00000150: 5524 0dbe 0072 0b3c 59f3 2dbd beb9 6bbe
00000160: 332d 82bd 1811 6a3e ef34 94ba 7683 703e
00000170: 4b12 9abe 5c5b 6d3e 5f51 9cbe 75c4 4ebe
00000180: 1154 29be c805 29bd 01ee 6abe 9e10 84be
00000190: 6f7e e7be c937 713d 7d08 8c3e 93ac 3bbd
000001a0: 9ad6 b63c 5bc1 e83d cc55 5dbe 8653 023c
000001b0: 66d2 5c3e ec78 5fbe c6ed cbbd 39b2 213c
000001c0: 31d7 1c3d ea80 573e c705 803b 7b7d f0bd
000001d0: 644e bb3d c0ad 7ebd f648 d7bd aa3e 9f3d
000001e0: b89d 48bc 7833 c03e e205 90be 89e1 813e
000001f0: 305c 223e 5a68 cbbe 1e8f 3e3e 1e7e 1fbe
00000200: f91a a8b9 0e30 fa3e 47b2 c6bd c9b1 c0bd
00000210: 8315 44be 669c 08bf 79e6 123e fae5 81be
00000220: 0a1d 293d 6c2b e73d a079 cdbd 482b d0be
00000230: 252d a2be 08e0 32be 08fd 793e a2b6 e43d
00000240: e74b a73d 9d14 953b a032 903d c1cd efbc
00000250: 4c02 08be d795 213e 407e 90be f5df 15bd
00000260: a143 21bd d47f 25bf 89d0 8d3e b8e9 97bd
00000270: fa8f a33d 802d f83d 185b 19be 2add 7cbd
00000280: 04f4 1e3d fa18 d7bd 87ae 643c 5fc8 9c3c
00000290: 392b 8dbe b1cd 16bc 911e 923d d827 f3bd
000002a0: dc29 7a3c f49e c83d 3c2e 92bd 6ead 08be
000002b0: 999c 323e 9605 53bd 509c a23e 3ce1 2a3d
000002c0: d340 4ebd 4d17 d0bd 7b54 8bbe db88 693e
000002d0: 1a7d c8bc 7b78 443e 5a08 f13d aaf9 f939
000002e0: 04d7 dc3c 6751 08be 9250 ddbd e214 1abd
000002f0: 5c7c 9ebd d3ab a43c f0df 14bd a47f 25bf
00000300: 8738 9b3e f390 7a3d 9293 e53e a602 0c3e
00000310: 8666 893e 7897 ac3d f65a 0f3e fa7b a9be
-0.021112483 0.18039872 -0.13110463 0.28514853 0.13907142 -0.020084126 -0.18839428 0.01508284
0.1641117 0.07832753 -0.09680404 -0.062264644 0.27744412 0.20105745 0.2593998 0.12808284
0.039092354 -0.004462989 -0.02962205 -0.023121042 -0.101756595 -0.15340064 -0.06743077 -0.21875648
0.08125183 -0.0610017 0.10184099 -0.22486864 0.27397043 -0.13096145 -0.16082352 -0.333073
0.35821295 -0.21601255 0.4343438 -0.16952546 0.097668074 -0.062386222 0.020476358 0.12266312
-0.27897063 0.059089344 -0.06992716 -0.027106354 -0.13989687 -0.017289093 -0.03458328 0.053172227
0.017047357 0.26552713 0.089062475 -0.034803715 -0.28178093 -0.16731194 0.09147491 -0.10216585
-0.059745166 0.16256002 0.14503323 0.1486903 -0.2180642 0.026657706 0.30946738 -0.05992068
0.22533779 0.1338417 0.05550167 0.105245985 0.18267195 -0.1014557 -0.26589975 0.21091595
0.3065975 -0.20346227 0.21270894 0.033618342 -0.020904882 0.14051817 -0.3395459 0.27401483
-0.04248811 -0.119433425 -0.3268971 0.07449314 -0.13783391 0.008511066 -0.042468403 -0.23020074
-0.06356277 0.22858083 -0.0011307279 0.23487648 -0.3009208 0.23179382 -0.3053083 -0.2019213
-0.16535975 -0.04126528 -0.22942354 -0.25793928 -0.4521365 0.05889109 0.27350226 -0.045818876
0.022319127 0.11365005 -0.2161476 0.007954484 0.21564636 -0.21823472 -0.09957461 0.009869152
0.03829116 0.2104527 0.0039069387 -0.117426835 0.09145811 -0.06217742 -0.10511963 0.07775624
-0.012244634 0.37539268 -0.28129488 0.25367382 0.15855479 -0.3972805 0.18609282 -0.15575454
-0.00032063553 0.48864788 -0.097019725 -0.0940891 -0.19148831 -0.53363645 0.14345731 -0.2537077
0.04128746 0.11287579 -0.10032964 -0.4065802 -0.31675068 -0.17468274 0.2441293 0.11167647
0.08168774 0.0045495764 0.07040906 -0.029272916 -0.13282126 0.15779816 -0.2822132 -0.036590535
-0.039371137 -0.64648175 0.27698162 -0.07417625 0.07986446 0.121180534 -0.14976156 -0.061734356
0.03880693 -0.10502811 0.013957626 0.019138513 -0.2757204 -0.009204314 0.07134736 -0.11872834
0.015268769 0.09795943 -0.07137725 -0.13347408 0.1744255 -0.051519 0.31759882 0.041718706
-0.05035479 -0.10160694 -0.2721289 0.22806112 -0.024473716 0.19186585 0.11769171 0.00047678995
0.026957996 -0.13312303 -0.10806383 -0.03761757 -0.077385634 0.020101463 -0.036346376 -0.6464789
0.30316564 0.06117339 0.4483915 0.13672885 0.26836032 0.08427328 0.13999543 -0.331024
