saved_models/4task/brainlike_thickness_7.pt (torch, 140798 bytes, 16 tensors)

cell_list.0.conv_gates.weight f4 [20, 11, 3, 3]
000000 77 05 e6 3b c4 fb 77 bd 52 15 03 3d 08 2c 01 3d
       0.0070196944 -0.060542837 0.032002755 0.031536132
000010 4d 06 5c bd be cb 76 bc fa 29 71 bd 82 a1 d5 3c
       -0.053716946 -0.015063224 -0.058877923 0.02607799
000020 16 c7 dd bc b7 9a 90 3d fd 1d 92 3d ce be 27 3c
       -0.02707247 0.070607595 0.07134626 0.0102383625
000030 4e 80 2f bd 90 cb 71 bd c0 d5 34 bc 14 b5 e7 bc
       -0.04284697 -0.059032023 -0.01103729 -0.028284587
000040 f5 71 35 3d 49 c2 af bd e1 72 c1 3d c0 75 a1 bd
       0.04429813 -0.08581979 0.094457395 -0.07883787
000050 e1 9d 9d 3d 77 f9 8e bc 50 c1 53 3d 58 6c 20 3d
       0.07696129 -0.017452938 0.05169803 0.039165825
000060 b4 db 89 3b 00 85 99 3c 73 4f 9c 3d e2 bd d3 3c
       0.004207099 0.018740177 0.07632341 0.02584738
000070 30 68 5a 3d 14 39 9f bd 59 87 92 3d 8f ae 0d 3d
       0.053322017 -0.07774559 0.07154722 0.0345903
000080 b7 8c d0 3c 40 7a 63 3c f8 ab 48 3d ef 0a bd 3d
       0.025457723 0.013884127 0.048992127 0.09230601
000090 17 34 b7 bc 35 57 65 bd 49 25 cf bc f6 e6 7a bd
       -0.022363706 -0.05599137 -0.025286334 -0.061255418
0000a0 a7 07 46 3d ec 75 4b bd 54 b4 5b bd e8 98 b1 3d
       0.04834714 -0.049673006 -0.05363877 0.08671743
0000b0 0c 5a bc 3d 7a 63 3d 3c cc 91 8e bc db 8e 54 bc
       0.091968626 0.011559362 -0.017403506 -0.0129735125
0000c0 e5 03 43 3d 8c 33 c0 bd 00 37 a8 bd 88 6b a4 3d
       0.047611136 -0.09384832 -0.082136154 0.080283225
0000d0 93 34 cb 3d 6e b4 c3 bb 73 a3 a2 bd 89 f7 33 3b
       0.09922137 -0.0059724366 -0.07941332 0.0027460775
0000e0 8e 83 3f bd 62 9a 4a b9 8f 7e 49 3d a5 3b 36 3d
       -0.04675632 -0.00019321733 0.04919296 0.044490475
0000f0 48 18 41 bc 2f 4a 35 3c a3 0e e0 3c f4 55 a1 bd
       -0.011785574 0.01106505 0.02735073 -0.078777224
000100 f3 91 0b bd dd f1 80 3b 23 e6 6a bd 9e c9 33 bd
       -0.034074735 0.0039350823 -0.05734838 -0.04389345
000110 c1 44 0a 3d 89 ec 6c 3d 75 94 b8 3a 7b 21 20 bd
       0.033756975 0.057842765 0.001408233 -0.03909443
000120 31 65 61 3d 7c a9 61 bd 03 41 c1 bc f2 2c c2 3d
       0.055028144 -0.055093274 -0.02359057 0.09481229
000130 5b a2 97 3c f8 0c e8 3b 25 c7 0a 3d 88 c5 c8 bc
       0.018510034 0.007081624 0.033881325 -0.024508253
000140 00 1b b0 3d 38 e1 a7 bd 8c 7a e2 bc 8f 53 8e bc
       0.085989 -0.08197254 -0.027646326 -0.017373828
000150 6c 63 29 bd 43 c6 cb bc 39 21 7f 3d 96 e0 61 3d
       -0.04135458 -0.024874812 0.062287543 0.055145822
000160 95 1e b7 3b 6c 51 b3 3d e1 53 91 bd 75 79 75 bd
       0.0055883625 0.08755764 -0.07096077 -0.059930284
000170 0c ff 39 3d d9 03 b1 bb 77 92 bb bd f6 77 8e bd
       0.045409247 -0.00540207 -0.09158795 -0.069564745
000180 9f 9b 7a bd 11 f2 9e 3d 9d 6d 3a 3d b9 3b 9f 3d
       -0.061183568 0.07761014 0.04551469 0.07775063
000190 6d 3d 99 bd cb ad c8 bd 7e fa 86 bd 5a 29 30 3c
       -0.07482419 -0.097987734 -0.06590746 0.0107520465
0001a0 f1 9c a2 bc b4 b5 81 bd 18 d7 95 3d 6a c1 04 bd
       -0.019850226 -0.06333485 0.073164165 -0.032411017
0001b0 ce 18 6e bd cc 27 3e 3d dd d5 dd bc 75 38 83 3d
       -0.058129124 0.046424672 -0.027079517 0.06407253
0001c0 b7 37 c4 3c 85 7f 22 3b d0 d6 ac 3c 6a aa 9a bd
       0.023952348 0.0024795246 0.021098524 -0.07552035
0001d0 4b 43 5c bd a3 7a 41 bd ef ef 68 bd e5 fe 91 3c
       -0.053775113 -0.047236096 -0.056869444 0.017821738
0001e0 92 7c a4 3c 3c 0b 2b bd 1d 2e 86 3d 5e 0c 65 bd
       0.020078931 -0.04175876 0.06551764 -0.055919997
0001f0 e0 38 a6 3c 01 19 eb bc 4b 8b b2 bd e3 06 86 bd
       0.020290792 -0.028698446 -0.08717974 -0.06544282
000200 d4 27 28 3d fb e7 22 3d bf 8d 7e bd cd 5e 00 bd
       0.041053608 0.039772015 -0.0621469 -0.03134041
000210 c1 6b c0 bd 6f 49 5d 3d 0e fb b1 3d bd 9f 06 3d
       -0.093955524 0.05402511 0.08690463 0.032867182
000220 5e b7 7e bd cb 22 59 3d 1b d1 aa 3d c5 70 a8 bc
       -0.06218659 0.053011697 0.08340665 -0.020561585
000230 b6 f6 86 bc 00 7c 0e 3d d6 d6 53 3c 3e 0f 08 bd
       -0.016475063 0.034786224 0.012929639 -0.03321766
000240 50 16 bf bd 39 54 90 bd db 58 b2 3b 19 aa b0 bb
       -0.09330428 -0.07047314 0.0054427213 -0.005391371
000250 f1 f7 a9 3d dd 6b 61 3b 48 fe d3 bc f2 1d c9 bd
       0.08299244 0.0034396567 -0.025878087 -0.09820165
000260 5f 3f bd bd 60 01 2b 3d b3 55 b7 3d 15 e0 c7 ba
       -0.09240603 0.04174936 0.08951893 -0.0015249277
000270 03 f9 b7 bd 23 28 12 3d 28 a5 a7 3d fd 3a 88 bd
       -0.08983042 0.03568281 0.08185798 -0.06651876
000280 dc c4 d8 bc 5d 7d 0a 3c bf c4 6a bd 21 db be bd
       -0.026461057 0.0084527405 -0.057316538 -0.09319139
000290 95 37 34 3d bc e6 a8 bd 4a a9 ce bc 1e 96 5a bd
       0.04399832 -0.08247134 -0.025227208 -0.05336582
0002a0 2c cb 9a 3d 0a f8 9e 3c 53 e8 3e 3d 05 62 8b bd
       0.07558283 0.019405384 0.04660828 -0.06805805
0002b0 d5 74 ad 3d 92 b7 12 3c a6 52 64 bd 41 70 d7 bb
       0.084695496 0.008954899 -0.055742882 -0.006574661
0002c0 87 bd 91 bd 45 04 98 bb 65 e0 65 3d 82 0f 39 bd
       -0.071162276 -0.004639181 0.056122202 -0.045180805
0002d0 e5 fb ad 3d 07 62 fb 3c 0c 12 90 bc 47 98 00 3d
       0.08495311 0.030686392 -0.01758673 0.031395223
0002e0 76 ad 97 bc b9 5a bf bc 8d 0a 87 bd 5a de 6f 3d
       -0.01851533 -0.02335869 -0.06593809 0.05856166
0002f0 6b 1e 77 3d 93 f4 0c 3d f9 77 73 3d 9c a2 cd 3d
       0.060331743 0.03441293 0.059440587 0.10040781
000300 33 d0 c1 3d a9 a2 c6 bd 54 bc bb 3c 5f fd 0c bc
       0.09463539 -0.09698994 0.02291695 -0.00860533
000310 6f c8 0b 3d cc ac 9f bc 5b cc e5 3c 8c 62 bd bd
       0.034126695 -0.019491576 0.028051546 -0.09247312
000320 8e 27 3c 3d d3 bf c5 3d 0d 11 94 bc 58 b9 a3 bd
       0.04593616 0.09655728 -0.018074537 -0.07994336
000330 27 1a ab bd 27 f2 9d bc 1a 44 c7 ba c4 a6 37 3c
       -0.083545975 -0.019280506 -0.0015202791 0.011209194
000340 45 9b 4e 3c ec 09 9b 3d 45 5e 95 bc 2d f5 ea 3c
       0.012610261 0.07570252 -0.018233428 0.028681362
000350 dc c8 5a bd b9 71 ca 3d 06 f9 1d 3d 0b 5e 64 bc
       -0.05341421 0.09884972 0.038567565 -0.013938437
000360 1a 4e 87 3d 28 b9 11 3d e3 32 8d 3c 82 0c f3 bc
       0.066066936 0.03557697 0.017236179 -0.02966905
000370 f2 0d 4f 3c f0 73 eb 3b 1f 84 70 bd 17 81 bc 3a
       0.012637602 0.0071854517 -0.05871975 0.0014381733
000380 49 ca b3 3c 27 d5 73 bd 65 11 93 3c b8 a4 08 bd
       0.021947043 -0.05952945 0.01795263 -0.033360213
000390 8d 3e ab bd 6a 8a 76 bd ed 5b a3 bd 08 8b be 3c
       -0.0836154 -0.060190596 -0.07976518 0.023259655
0003a0 5e d0 7b 3d 9b 20 bb 3d 93 d1 c9 3d ba 24 22 3d
       0.06147801 0.091370784 0.09854426 0.039585806
0003b0 41 58 49 3d 32 68 8c bc 27 28 aa 3d ff 62 1d bd
       0.04915643 -0.017139528 0.0830844 -0.03842449
0003c0 e5 ba df bc 8f 01 09 bd e4 fa 89 bd ad a2 9e bd
       -0.027310798 -0.033448752 -0.06737307 -0.07745872
0003d0 3f d6 a7 bc ed 5a a6 3d 6e 13 4d bd 97 dd ba bd
       -0.020487903 0.081228115 -0.050067358 -0.09124296
0003e0 57 1d bc bc 21 83 ba 3d d2 94 c6 3c 07 2c d0 bb
       -0.02296321 0.09107042 0.024240885 -0.0063529047
0003f0 77 5b eb bc 6d ba b4 3d f2 c8 c5 bd 3e 44 69 3d
       -0.028730137 0.088246204 -0.09657468 0.056949846

cell_list.0.conv_can.weight f4 [10, 11, 3, 3]
000000 a1 05 d3 3f 60 03 ff 3f 7e 7a bd 3f 6e 85 b9 3f
       1.6486093 1.9922905 1.4803007 1.4493845
000010 02 60 e1 3f d1 4c b6 3f ae 20 be 3f aa 20 d6 3f
       1.7607424 1.4242193 1.4853723 1.6728718
000020 6a 52 93 3f 00 e6 9d 3d fb 86 0e bd c1 44 2d 3d
       1.1509526 0.07709885 -0.034796696 0.042301897
000030 e8 83 96 3d 4c 6e 5c 3d 67 6d 4e 3d 77 2d 92 3d
       0.07349378 0.053816125 0.050397303 0.07137578
000040 53 5e 00 bb 86 ba a7 bd 08 0a 6e bd a6 66 01 3b
       -0.0019587472 -0.081898734 -0.058115035 0.001974502
000050 8e 5b 27 bc 0b ce b2 3c d5 aa 20 3d 07 5b 79 bc
       -0.010214699 0.021826765 0.039225418 -0.0152194565
000060 55 79 38 3d 4c 6e c2 bd 50 7c 57 bb d0 4f af bd
       0.045037586 -0.09493694 -0.0032880493 -0.08560145
000070 90 12 22 3d f8 3f 8f 3d 73 cc 18 bd 61 45 9c bc
       0.039568484 0.06994623 -0.037304353 -0.019076051
000080 d1 dd 34 3d 8e a2 37 bd 42 72 41 3d 9c 38 8c bd
       0.044156853 -0.04483276 0.047228105 -0.06846735
000090 86 b6 3e bb 7b 05 80 bb 24 2e b1 bd 67 cf 2f bc
       -0.0029100492 -0.0039069033 -0.08651379 -0.010730601
0000a0 02 20 1b bc e4 c3 50 ba bd 9e c2 3d e9 df 7e bc
       -0.0094680805 -0.000796376 0.09502933 -0.015556314
0000b0 8a b6 6f 3d 09 c2 ef bc 54 ed 5a bd a3 cf 30 bc
       0.058523692 -0.029267328 -0.05344899 -0.010791692
0000c0 ff 52 71 bd 70 dc 33 bd f3 81 d5 bc 8c 01 e0 3b
       -0.058917042 -0.043911397 -0.026062941 0.006836122
0000d0 fd b8 64 bd 2a 47 59 bd 60 fc 95 bd af ee 75 bd
       -0.05584048 -0.053046383 -0.07323527 -0.06004208
0000e0 43 c2 b5 bd 21 06 8e bd c5 07 ee bc 6d 85 62 bc
       -0.08874943 -0.06934763 -0.02905644 -0.0138257565
0000f0 66 88 86 3d 8e 7b 87 bb 38 bd 5f bd 71 52 a7 bd
       0.06568985 -0.004134602 -0.054623812 -0.08170021
000100 58 a4 19 bd a8 ae 28 3b 83 ea a2 bd 1e b8 22 bd
       -0.037510246 0.002573887 -0.07954886 -0.03972637
000110 62 f5 fd 3b 7a a5 bb 3d 63 71 7f 39 6c 0c c4 bd
       0.007750199 0.091624215 0.00024360935 -0.09572682
000120 ca 92 94 bd 0d 79 9a bd 2b 5b 89 3d 98 50 7d 3d
       -0.0725456 -0.0754262 0.06706842 0.06184444
000130 7b de 17 3b 2e a2 77 bd 87 6d 2e bd f8 d3 6b bd
       0.002317338 -0.0604574 -0.042584922 -0.057575196
000140 d5 9f be 3d 66 08 a2 bd 1e 39 93 3c 7f f5 34 3d
       0.09307829 -0.07911758 0.017971572 0.044179436
000150 aa 9b b0 bd c4 b2 2d 3d a0 d1 4c 3d 5b e6 d2 3c
       -0.086234406 0.042406812 0.0500046 0.025744608
000160 95 58 bf 3d 90 05 3e bd fc 5a be bd cd 74 74 bd
       0.093430676 -0.046392024 -0.09294698 -0.059681702
000170 46 4e bc bd f9 98 05 3d 86 09 c9 3c 10 4c 3c bd
       -0.09194617 0.03261659 0.024540674 -0.045970976
000180 21 b3 0d bd ba 74 6e 3d 48 15 58 39 e1 fa 82 bf
       -0.03459466 0.058216788 0.00020607293 -1.0232812
000190 35 68 b4 bf ee 20 a5 bf 8c 8b 9a bf ac f0 ca bf
       -1.4094301 -1.2900674 -1.2073836 -1.5854697
0001a0 65 27 c7 bf e0 b7 07 bf 4f 9b 50 bf 8c b7 63 bf
       -1.5558897 -0.53014946 -0.8148698 -0.88951945
0001b0 4b 4e cc 3c e5 53 8e 3d 2f ae c1 bd d8 8f cd 3d
       0.024939677 0.06949595 -0.09457051 0.10037202
0001c0 8b 11 f7 3b af ad c6 3d 58 39 85 3d 99 e4 60 3d
       0.007539933 0.09701096 0.06505078 0.054905508
0001d0 d6 c1 a3 bb e1 48 0c 3d bf 94 06 3d 87 a5 8b bd
       -0.0049974723 0.03424919 0.0328567 -0.06818681
0001e0 41 61 45 3d 54 07 b4 3d b2 30 00 bd 03 12 87 bd
       0.04818845 0.0879046 -0.03129644 -0.06595232
0001f0 45 6a ae 3d 18 94 bd 3d c5 12 55 3c f6 9a 97 bd
       0.08516363 0.09256762 0.013004963 -0.07402603
000200 ee 20 8b bb 9f d6 36 ba 5a 7f 8f 3d 6c f3 bc bd
       -0.004245869 -0.000697473 0.07006712 -0.092261165
000210 7a ca 88 bd fc e5 1f bc c2 64 7a bc b3 fb e6 3b
       -0.06679244 -0.009759422 -0.015282812 0.007049048
000220 3d 78 c7 3d 09 a8 9c 3d 5e 26 c8 3d 50 d6 c3 bd
       0.097397305 0.07649238 0.09772943 -0.09562361
000230 6d 71 b7 3d 98 d1 9f bd b7 30 f3 bc 2f b1 70 3d
       0.08957181 -0.07803649 -0.029686315 0.058762725
000240 72 d0 c6 bc 9c 9d 36 bd 7e a5 a3 3b b6 df c3 3d
       -0.024269316 -0.0445839 0.0049940934 0.09564154
000250 5a 0a 06 bc 8f 0f c8 bd cd 45 c3 bc 61 66 ab bd
       -0.008181179 -0.097685926 -0.023836995 -0.083691366
000260 e3 cc 4d 3b 3b 83 98 3d 36 30 a9 3d 29 48 92 3c
       0.003140264 0.07446905 0.08261149 0.017856674
000270 59 17 88 bd 98 32 69 bd ac 9c 5e 3d 79 5a 2a 3d
       -0.06645078 -0.056933016 0.054348633 0.041590188
000280 c5 22 62 bd 9c e2 d2 3c 98 38 12 bd d7 f8 95 bd
       -0.05520894 0.025742821 -0.035698503 -0.07322853
000290 ee cc c6 3d 63 54 40 3d 8a 5b 16 bd ff cb 6a 3d
       0.09707056 0.046955477 -0.036708392 0.057323452
0002a0 77 f7 90 bd f5 77 5c 3d b7 ac 15 3d 3a e5 ee bc
       -0.0707845 0.053825337 0.036541667 -0.029162038
0002b0 77 ba 51 bd bd 74 f1 3b b8 e4 82 3d a5 39 eb 3b
       -0.051203217 0.0073686526 0.06391281 0.0071785026
0002c0 64 a5 98 bd f5 fb 73 bd 17 b2 30 bc 3e 17 29 3d
       -0.07453421 -0.059566457 -0.010784647 0.04128193
0002d0 79 3c 73 3d 50 d8 9b 3d 61 24 a1 3d db 93 11 bc
       0.059383843 0.07609618 0.07868267 -0.008885349
0002e0 a2 16 68 bd 40 83 9b bd 82 01 03 bb bd fb b0 3d
       -0.05666221 -0.07593393 -0.0019989912 0.08641765
0002f0 eb c1 24 3d 3b df 15 3d 4c 2b ab 3c 2a fa b1 bd
       0.040223997 0.036589842 0.020894669 -0.08690293
000300 52 2f d0 bc 1b 9a 4d bd c9 85 a9 bd 3e 2a 93 3d
       -0.02541319 -0.050195795 -0.082774706 0.071857914
000310 f2 30 85 3d 17 63 d1 b9 ec 56 04 bf 31 80 8a be
       0.06503476 -0.00039937414 -0.5169513 -0.27050927
000320 1a 83 16 bf 8b 11 42 bf 04 73 e1 be 76 14 2d bf
       -0.58793795 -0.7580802 -0.44033062 -0.67609346
000330 ae f4 5c be fe 02 30 bc 56 ed 49 be 50 44 f0 bc
       -0.21577713 -0.010742901 -0.19719443 -0.029329449
000340 47 0b 7f 3d 50 4f b3 bd da dd 84 3d 52 3b ba bd
       0.062266614 -0.08755362 0.06487627 -0.09093346
000350 31 1f 07 bd f3 ca 83 3d 4a a1 1c bc 86 17 96 bd
       -0.03298873 0.06435194 -0.009559939 -0.073287055
000360 b4 a2 0f 3d f1 df 96 3d 10 4b 0c 3d 2b f7 81 3d
       0.035067275 0.07366932 0.034251273 0.06345972
000370 37 0c 1a bd 4a 3a 07 3d 17 61 82 bd c8 ec 39 bb
       -0.037609305 0.033014573 -0.06366175 -0.0028369892
000380 43 c7 a3 3b 2f d3 8c bd 0d 09 6b 3c 65 77 39 bd
       0.004998119 -0.068762176 0.01434542 -0.04527988
000390 59 97 3d bd 79 f8 c7 bd 61 1b 11 3d c7 33 8c 3d
       -0.046286914 -0.09764189 0.0354265 0.06845813
0003a0 fa 4a cd 3d b7 7f b0 3d 3c ae b1 bd 30 96 95 3d
       0.10024066 0.0861811 -0.08675811 0.073040366
0003b0 24 00 b9 3d 32 62 54 3d 42 47 82 3d 28 0e 91 3d
       0.0903323 0.05185146 0.063612476 0.07082778
0003c0 2e 58 82 3d 37 89 31 3c b7 93 93 bd 27 5b 39 3c
       0.06364475 0.010835937 -0.07205909 0.011313236
0003d0 b4 62 ae bd 62 0a b3 3d 40 0a bc 3d 17 cc 14 bd
       -0.0851492 0.08742215 0.091816425 -0.036327448
0003e0 42 2f cc 3d 65 4f 9b bc 14 90 9f bd 2b 5a 63 3d
       0.09969951 -0.018958757 -0.077911526 0.055505913
0003f0 7f a4 a7 3d 16 1a b8 3d ef 2c 4a 3d c9 98 8c 3d
       0.08185672 0.089893505 0.04935926 0.06865079

cell_list.1.conv_gates.weight f4 [20, 20, 3, 3]
000000 b6 ef 8b bc 12 3e 84 ba ae f7 80 bd d1 7f 94 3d
       -0.017082077 -0.0010089299 -0.06297241 0.072509415
000010 7d 68 21 3d 5e 93 81 bd 0b 45 dd 3c 62 ed 9c bc
       0.03940629 -0.06326936 0.027010461 -0.019156162
000020 15 65 42 3d ef b6 bf 3b 93 84 99 bc 04 76 21 bc
       0.04745968 0.005850665 -0.018739974 -0.009854797
000030 e8 e5 5b bc 1c 75 e6 bc 56 83 47 bd 89 94 c2 bc
       -0.013421513 -0.028132014 -0.048709236 -0.023752468
000040 cb 42 2d 3c b6 df 87 bd d3 21 76 3d 86 b2 50 bb
       0.010575007 -0.06634466 0.06009085 -0.003184469
000050 c9 c0 5f 3d 5a 60 2b bd a0 d2 16 3d bd cc b5 3c
       0.054627214 -0.041839935 0.03682196 0.022192353
000060 ae 09 97 bc ad fa fa bc 2c 00 c2 3c e9 e4 23 bd
       -0.018437233 -0.03063711 0.023681723 -0.040013228
000070 2c 61 97 bd a9 bb 21 3d 56 f2 6a 3d b8 d3 09 3d
       -0.07391581 0.039485607 0.057360016 0.033649176
000080 ff 59 76 bd 8a 04 6b ba 4b 30 ff 3b 5e 50 8a 3d
       -0.06014442 -0.0008965215 0.0077877394 0.0675361
000090 1d 39 4a bd d5 c1 06 3c df 10 92 bb 5d f4 49 3d
       -0.049370874 0.008224924 -0.0044575776 0.04930531
0000a0 4e fd 86 bd 82 45 15 3d 00 57 2b 3d d4 55 86 3d
       -0.06591283 0.03644324 0.041831017 0.06559339
0000b0 a7 b1 53 3d 62 42 1d bd 09 cc 00 bd b8 4b 08 bd
       0.051683094 -0.038393386 -0.031444583 -0.033275336
0000c0 bf 6c 98 3c 1d 0e c9 b9 0a 6d 6a bd 57 f7 94 bd
       0.018606542 -0.00038348223 -0.057232894 -0.07273739
0000d0 dd d7 e4 bb 01 7e 94 bd cf f9 8b bc 00 14 9c bb
       -0.0069837407 -0.07250596 -0.017086891 -0.0047631264
0000e0 f5 4e 53 ba a2 78 8e bd 0c e6 0e 3d a1 5b 7b 3c
       -0.0008060777 -0.06956603 0.03488736 0.01534167
0000f0 54 51 46 3c 13 8e 23 bc 71 69 6f 3d 43 66 73 3d
       0.012104351 -0.009982604 0.058450166 0.059423696
000100 76 a0 39 bd 23 01 a2 3c 0b 22 5a bd 12 5e 40 bd
       -0.045319043 0.019775933 -0.053255122 -0.046964712
000110 9d f8 fe bc cb 39 d0 bc d3 9f 91 3d 58 97 8c 3d
       -0.031124407 -0.025418183 0.07110562 0.06864804
000120 de af db bc 33 6e 2b 3d 16 3b 95 3d d7 af 19 3d
       -0.026817258 0.04185314 0.072866604 0.03752121
000130 59 a4 44 3d ab 8c 5b 3d 61 a2 75 3d aa 79 6c 3b
       0.048008297 0.05360095 0.05996931 0.003608326
000140 73 6e 4a 3d 0a 0f 60 3d ed 37 d8 bc 1f e1 30 bd
       0.04942174 0.054701842 -0.026393855 -0.043183442
000150 5f 27 4a 3c 64 44 42 bd 1c 42 82 3c ea 57 ed bc
       0.012338488 -0.047428504 0.015900664 -0.028972585
000160 0a 03 50 bd 7f bb 80 3d 42 5e 90 3d 72 54 34 3d
       -0.05078415 0.06285762 0.07049228 0.044025846
000170 50 75 8c 3d fb 84 bc 3b 84 3b b1 3c 43 26 59 bd
       0.06858313 0.005753157 0.021634825 -0.053015005
000180 38 b7 f8 bb a3 83 97 bd f4 71 02 3d 55 5c 00 bd
       -0.0075902008 -0.073981546 0.031846955 -0.031338055
000190 da 4b 06 bd db 96 62 3d 8b e0 87 3d 33 63 1f 3d
       -0.03278718 0.05531965 0.06634625 0.038912963
0001a0 b6 dc d0 3b 2b e1 3f 3d 37 04 47 3d 5d 76 c0 3c
       0.006373967 0.046845596 0.048588004 0.02349394
0001b0 2d ec 9e 3c 69 de 34 3c cd 2d 36 3d ce 5c 73 bd
       0.019399727 0.011039355 0.044477273 -0.059414677
0001c0 21 7c e4 3c 85 ae 7f 3c 4d d0 94 3d d7 8b 0e bd
       0.02789122 0.015605574 0.07266293 -0.03480133
0001d0 e3 9a 7e bc d0 5e 7b 3d 9f 1c 0e 3d d3 b3 03 bd
       -0.015539858 0.061369717 0.034695264 -0.032153916
0001e0 03 f8 88 bd 95 24 0f bd 23 c0 f4 3c 64 5f 94 3d
       -0.066879295 -0.034946997 0.029876774 0.07244757
0001f0 2d ae 93 3d 14 ba 1d bd dd 28 4b bd 04 b5 3a 3d
       0.07210956 -0.038507536 -0.049599517 0.045582786
000200 de 2b f9 bb e4 6d 54 3d 3f 24 6b bd 6a ae d1 3c
       -0.0076041063 0.051862612 -0.057407614 0.025595862
000210 4e 40 b1 bc d6 d1 27 bc e9 8f 27 bd e4 56 97 bd
       -0.021637108 -0.0102429 -0.040908728 -0.0738962
000220 65 c6 46 bd 30 56 9c bb 14 41 79 bd 7b 1d 89 bc
       -0.048529048 -0.0047710165 -0.06085308 -0.01673769
000230 09 94 b5 bc 08 e4 a6 3b 00 3c 80 3d 18 7f e9 bb
       -0.022165315 0.0050931014 0.06261444 -0.0071257465
000240 ee 03 c0 3b b3 97 96 bd 83 0a 3d 3c 21 4c 89 bd
       0.0058598435 -0.07353153 0.011538151 -0.067039736
000250 d8 b7 9a 3c df f2 6c bd 4f 11 8d bd 07 54 0d bd
       0.018886492 -0.057848807 -0.06888067 -0.034503963
000260 d3 80 54 3d 59 79 15 3d 3c 0d 87 3d 5f ff 19 bb
       0.05188067 0.03649268 0.06594321 -0.002349816
000270 df 55 f6 bc 6c 5a 85 3c 39 eb 3f bd 31 94 3e 3d
       -0.030070243 0.016278468 -0.046855185 0.046528045
000280 63 b6 8c 3d ee af 2c bd 2f 1d 8d 3d 33 fb f0 bc
       0.06870725 -0.042159967 0.06890332 -0.029416656
000290 d7 30 19 3d b5 d3 d3 bc 2e e5 04 bd de 53 91 3c
       0.037400093 -0.025857786 -0.032445125 0.017740186
0002a0 66 c6 bd 3c 73 51 8e 3c c7 af 58 bc 33 7b 82 3d
       0.023165893 0.017372822 -0.013225502 0.06371155
0002b0 ef 13 0c bd 08 9f 1e 3c 84 a7 f7 3c 36 a7 95 bd
       -0.034198698 0.009681471 0.030231245 -0.073072836
0002c0 11 2f fc 3c af f5 39 bd e0 b2 04 3d 10 6d 4e bd
       0.030784162 -0.045400318 0.03239715 -0.05039698
0002d0 55 40 e9 bb 54 77 7b bd 25 e8 81 3c 10 ee 8a 3d
       -0.0071182647 -0.061393097 0.015857765 0.06783688
0002e0 2c 9e 44 3d 9e ec 29 bd 91 89 64 3d 20 b2 7b 3c
       0.048002407 -0.04148542 0.055795256 0.0153622925
0002f0 2b 1e 98 39 28 ad a3 bc fc 5d 92 3d 10 d8 65 bd
       0.00029014176 -0.019980028 0.07146832 -0.056114256
000300 56 5a 6e 3d fd a2 67 3d 14 9e 7b 3c 84 5d c1 3c
       0.05819162 0.056551922 0.015357513 0.023604162
000310 fc 67 22 bd 9c f2 07 3d d3 11 46 3b 54 a5 0e bd
       -0.03964995 0.033190355 0.0030223026 -0.034825638
000320 c5 2f a8 3c 1b 82 8f 3d b3 d9 ac 3c a6 2e 55 bd
       0.02053059 0.070072375 0.0210999 -0.05204644
000330 99 b2 23 3d c3 bc ca 3c 62 eb ac bc 95 f8 d8 bc
       0.039965246 0.024748212 -0.021108333 -0.02648572
000340 ba c8 1e 3d 9c 4b 79 3d 60 e6 f1 bc 1e 81 47 bd
       0.038765647 0.060863122 -0.029528797 -0.04870712
000350 0a 01 8e 3d 28 7c 68 bd 15 8a 01 3b dd cc 06 bd
       0.06933792 -0.05675903 0.0019766141 -0.032910217
000360 4c eb 53 3c 47 53 41 bd bf bb 3c 3d 47 dd 59 3d
       0.012934517 -0.04719856 0.046077486 0.053189542
000370 00 b3 5c bd 84 2e c9 3c 97 d0 24 3c f0 6d 91 3d
       -0.053881645 0.024558313 0.010059497 0.07101047
000380 ae 55 69 bd 83 fa 40 bd e9 df 86 bc 6b c0 61 bd
       -0.056966476 -0.047113907 -0.01646419 -0.055115145
000390 6e 67 d0 bc a1 3d 2a bd 71 a2 03 3c 82 f7 dc 3c
       -0.025439944 -0.04156268 0.0080343345 0.02697349
0003a0 e6 7a 35 bc fd f6 e8 3c 6c 11 41 3d 58 05 86 bd
       -0.011076665 0.028438086 0.047135755 -0.06543988
0003b0 f2 39 19 bd 47 68 94 3d 5a 85 4a 3d ff 8e 90 bd
       -0.037408777 0.07246452 0.04944358 -0.07058524
0003c0 37 12 32 3d 78 ce 8c bd 10 43 59 3d 18 8f 2a 3d
       0.043474402 -0.06875318 0.05304247 0.04164037
0003d0 a5 1c 7b 3c 3f d9 8c bd f5 f5 3a bd 13 0c 96 3d
       0.015326654 -0.06877374 -0.04564472 0.07326522
0003e0 ba 96 59 bd 05 86 87 bd 51 29 87 bd 96 04 f4 ba
       -0.05312226 -0.06617359 -0.06599677 -0.0018617089
0003f0 bd fa 13 3d 05 bc 2f bd be ad 59 3d e3 91 60 3d
       0.036127795 -0.04290392 0.05314421 0.05482663

cell_list.1.conv_can.weight f4 [10, 20, 3, 3]
000000 a0 54 66 be 6d 91 86 be b4 8f f8 bd a9 6b 89 bd
       -0.2249322 -0.26282826 -0.12136784 -0.06709988
000010 99 47 09 bc 0e da 66 3d 11 42 0c bd 5c 35 f2 3d
       -0.008378887 0.056360297 -0.034242693 0.11826584
000020 6c 67 55 3e e3 c7 19 3e 7c 39 bb be 07 a8 47 bf
       0.20840234 0.15017657 -0.36567295 -0.77990764
000030 3c a9 a8 3d 38 a4 a8 be 6f 23 23 bf f8 8b 96 3d
       0.08235404 -0.3293779 -0.6372594 0.07350916
000040 7a cb 1f bd 54 2c 38 3b fd 1b 14 bf be 3a 9b be
       -0.03901241 0.0028102593 -0.57855207 -0.30318254
000050 e9 68 ad 3d 3d e5 c3 3c e7 e3 9a 3e 95 fc 52 3e
       0.08467276 0.02391302 0.30252 0.20604165
000060 95 e8 52 3e 3f 91 f9 3e 2f 40 51 3e fc 3b 04 3e
       0.20596536 0.48743626 0.2043464 0.12913507
000070 c6 64 2a 3b 61 b6 1d 3c 42 08 63 bd e8 a1 d2 bd
       0.0026000007 0.009626002 -0.055427797 -0.102847874
000080 2f 4f 03 be 2d 6e 5f 3d 23 2a be 3c a4 c5 1c 3d
       -0.12823175 0.05454843 0.023213452 0.038274422
000090 63 54 b3 bd 47 23 81 be e8 4f 9e be c0 a8 f0 bd
       -0.0875633 -0.25222227 -0.3092034 -0.117509365
0000a0 24 9a 2b be dd e2 a1 bd 70 2e 3b be 7a f7 d8 bd
       -0.16758019 -0.07904599 -0.18279433 -0.105940774
0000b0 97 c3 ff 3d 45 ae 7f 3e 99 44 23 3d cb a6 5f 3d
       0.12488478 0.24968822 0.03986034 0.054602426
0000c0 ab 77 a0 bc 4a af 5f be 69 5b 16 be 1b 04 3d bd
       -0.019588312 -0.21844211 -0.14683308 -0.046146493
0000d0 8a de 74 bd 5e a2 6c bb d4 bf 37 be b9 16 99 be
       -0.059782542 -0.003610752 -0.1794427 -0.2990015
0000e0 20 f9 f4 3c 86 22 48 be 60 78 6a bd ea 7d b2 bc
       0.029903948 -0.1954442 -0.057243705 -0.021788556
0000f0 2f 86 b4 3c 3b 02 06 3e 0b bc 1c 3e af 40 2f 3e
       0.02203664 0.13086788 0.15306108 0.17114519
000100 44 be 20 bd 7b 85 8e 3d 42 4b 0b 3d 0b 6c a5 3d
       -0.03924395 0.06959053 0.03400732 0.08077248
000110 54 9b 3d 3e d0 dd e3 bc d8 f1 d7 3d 3c 7f 45 3e
       0.18516284 -0.02781573 0.10544175 0.19286817
000120 3d 45 b9 3d 79 eb 85 bd 1b 05 0b be 45 64 72 be
       0.09046409 -0.065390535 -0.13576166 -0.23671062
000130 2b 91 62 be a8 db f9 bd 4e 3e 8e bc 3d 8c 4e bb
       -0.2212569 -0.12200099 -0.017363694 -0.0031516694
000140 26 a4 08 3e 1a 57 b9 bd 4d c5 df bd fd 9c c0 3d
       0.13343868 -0.090498164 -0.10926304 0.09404943
000150 0b 23 76 bd 38 c1 9d bc 58 e8 f6 3d 5d 95 be 3d
       -0.060092013 -0.019257173 0.12056035 0.093058325
000160 c1 61 2c 3e 36 1e 5c 3e 47 7c 17 3b 73 07 d7 bc
       0.16834165 0.214959 0.0023114847 -0.02624867
000170 18 72 8f bd ca 5d 11 bd 1c 67 3f 3b 20 47 54 bd
       -0.070041835 -0.035489835 0.0029205745 -0.051825643
000180 e0 5b 28 bc c5 0e 6f 3d 2d 36 1c 3c c1 bc c6 bc
       -0.010275811 0.058363695 0.009534401 -0.024259927
000190 09 28 8f bd 1e 8c 90 bd 2a 2b 08 bd 47 c3 b4 39
       -0.06990058 -0.07057975 -0.03324429 0.00034477768
0001a0 5b 58 39 3c 72 4e 4d 3c ad 02 96 bd 4d 22 24 bd
       0.0113125695 0.01253091 -0.07324729 -0.040071774
0001b0 c9 02 85 bd 5a ca f1 bc 74 3b 46 3c 43 da 5c bd
       -0.06494672 -0.029515434 0.012099136 -0.053919088
0001c0 4e be 43 3d 98 79 53 3d a7 1b 40 bd d3 a2 13 bd
       0.04778891 0.051629633 -0.04690137 -0.036043953
0001d0 5c b3 1c 3b 99 f3 9b 3c fc 61 98 3d 13 2f 06 bc
       0.0023910617 0.019037055 0.07440564 -0.008189934
0001e0 f3 90 85 bd c1 c1 93 3d e4 6f e1 3c bf a8 8c ba
       -0.065217875 0.0721469 0.027519174 -0.0010731443
0001f0 ab 02 ea bc e7 9c 10 bd b3 2c 57 3d d8 e3 25 3d
       -0.028565725 -0.035305884 0.052532863 0.04050049
000200 71 3b 86 3d 14 b4 84 bd 10 d1 37 bd 30 b9 15 ba
       0.06554306 -0.0647966 -0.044877112 -0.0005711494
000210 c7 d1 34 3c 44 a8 80 3d e8 33 18 bd e3 b6 8c 3d
       0.011036343 0.06282094 -0.037158877 0.068708204
000220 9c f5 44 bd a6 cd 81 bd 39 e4 aa b9 f2 a2 42 bd
       -0.048085794 -0.063380525 -0.00032594966 -0.047518678
000230 26 de a0 bc b3 b1 7b 3d 69 ee 54 bd ac f2 43 bd
       -0.019637179 0.061448764 -0.05198518 -0.04783885
000240 8a 4f 1e 3b 6f 9d 66 bd 2c f3 17 bd 26 13 6b bc
       0.0024156296 -0.056302484 -0.03709714 -0.014347827
000250 6d 09 11 bd d5 fd d1 bb 37 00 27 3d ed 63 97 3d
       -0.03540938 -0.006408433 0.04077169 0.07392106
000260 88 a7 66 3d d8 bf 87 bd 35 fb ea 3c 66 5f 65 3d
       0.056312114 -0.06628388 0.028684238 0.055999182
000270 68 f3 47 bd 0a da 76 bd 61 3c 52 bd f3 2a 03 3d
       -0.048816115 -0.060266532 -0.051327113 0.03202338
000280 99 d5 11 bd 5d f8 64 bc 5a 21 ed 3c c0 a0 7b 3d
       -0.035604093 -0.01397523 0.028946567 0.0614326
000290 27 a1 85 3d 7f fe 70 bc 11 1a 31 3c 50 39 85 3d
       0.06524878 -0.014709114 0.010809437 0.06505072
0002a0 37 b4 40 3d 6a 3c 85 bd ca 7b 0c 3d 5e 4a 18 3d
       0.047046866 -0.06505664 0.034297742 0.037180297
0002b0 65 f7 e4 ba ae ec 89 3d 7b 6f 29 bd 6f cd 8c 3d
       -0.0017468749 0.06734596 -0.04136608 0.06875121
0002c0 8f 29 29 bc 86 21 14 bd 6a f5 06 3c 5e 2b 07 bd
       -0.01032485 -0.036164783 0.008237222 -0.033000343
0002d0 15 4e da ba 59 3a a0 bd a8 59 e4 bd 12 9e 84 bc
       -0.001665535 -0.07823629 -0.11149913 -0.016188655
0002e0 70 b3 8f bd fb 6b cc bd 1a ed 0a 3d 07 35 d9 3d
       -0.07016647 -0.09981533 0.033917524 0.10605817
0002f0 ed b6 b9 3d 67 7b ee 3d e8 5b 6f be 82 76 d1 be
       0.090680934 0.11644631 -0.23374903 -0.40910727
000300 d7 03 71 3e f8 43 c7 be cc ca 0e bf ca f6 82 3e
       0.23536621 -0.38919044 -0.55778193 0.2557891
000310 74 75 2c be df 3b 2c be 7c 8a b3 be 5b 21 ba be
       -0.1684168 -0.16819714 -0.35066593 -0.36353573
000320 be 37 95 be 52 f0 db bd c5 11 eb bd 74 ff ce be
       -0.2914409 -0.10739197 -0.11477999 -0.4042927
000330 55 62 62 bc 23 c2 a2 bc 2a e5 a9 be 36 99 80 bd
       -0.0138173895 -0.019867962 -0.3318265 -0.06279223
000340 b1 91 86 3d c0 7b e3 3c 0e 5d f8 bd c0 01 ff bd
       0.06570757 0.02776897 -0.12127124 -0.12451506
000350 c4 81 81 bd b3 f6 3e bb a5 b6 07 3d 4c a2 b1 bc
       -0.06323579 -0.0029138743 0.033133168 -0.021683834
000360 14 dc 86 bd 48 23 1f be fd 60 05 be d0 d2 6a 3d
       -0.06584945 -0.15540802 -0.1302528 0.057329953
000370 fa 63 95 bc 3c 87 d2 bd be dd 8e 3d 2c 88 e0 3d
       -0.01823615 -0.102797 0.06975888 0.10963473
000380 5b 79 27 bd 3b ee 13 bc 97 9c 47 3e c3 b8 10 3e
       -0.040887218 -0.009028967 0.19493328 0.14132981
000390 32 83 3f be d1 b2 84 bd 77 45 ec bc e4 b9 3b be
       -0.18702391 -0.06479419 -0.028841717 -0.1833263
0003a0 c5 36 58 bd d7 6d ad ba ba 34 09 be 9a 45 8b be
       -0.052786607 -0.0013231587 -0.1339902 -0.2720154
0003b0 9f 86 6b be dd 91 45 be ab 1b 83 be fd 33 a0 be
       -0.23000573 -0.19293924 -0.25607046 -0.31289664
0003c0 30 45 fc 3b 18 ee 3a bb 87 94 45 be d3 08 1b 3d
       0.0076986775 -0.0028523263 -0.1929494 0.037850212
0003d0 03 fc 85 bd 30 6d 72 be 01 c5 cb 3d d2 3d 08 3c
       -0.06542208 -0.23674464 0.09949685 0.00831552
0003e0 4a 5a a0 bd e1 cc 30 3e a2 08 1d 3e 39 f0 94 3d
       -0.07829721 0.17265655 0.15335324 0.07272381
0003f0 c9 63 82 bc d5 48 69 bd 3e 83 8e bd 74 ba f1 bd
       -0.015916722 -0.056954224 -0.06958626 -0.11803141

cell_list.2.conv_gates.weight f4 [20, 20, 3, 3]
000000 b4 b6 0d be ba 25 7c bd df e8 34 bd cd 64 60 be
       -0.13839227 -0.061559416 -0.044167396 -0.21913452
000010 b7 87 91 bd 1c 8c 42 bd be 01 05 be e1 60 3a bd
       -0.07105964 -0.0474969 -0.12988946 -0.045502547
000020 19 8e 90 3c b2 73 d9 bd a6 c9 29 bd 8e 31 63 bd
       0.017645882 -0.1061777 -0.041452073 -0.05546718
000030 0c bc a1 bd 6a 58 14 3e 35 c9 43 3d db 53 92 bd
       -0.07897195 0.14486852 0.047799308 -0.071449004
000040 55 ac 0a bd 69 f8 81 3d f4 d7 c6 bd 39 b7 c2 bd
       -0.033855755 0.063462086 -0.097091585 -0.09507603
000050 9e 4d 4a bc 6c 1e 7f bd 60 3f cc bc 2f e9 c5 3d
       -0.012347607 -0.062284872 -0.024932563 0.09663617
000060 0b ac cd 3d 48 56 53 3d 05 20 14 3e e7 e1 53 be
       0.1004258 0.051595956 0.1446534 -0.20691644
000070 e2 49 34 be 7d b4 fc bd 5e aa b2 3c e5 25 35 bd
       -0.17606309 -0.12339113 0.021809753 -0.044225592
000080 12 f9 96 bd 8b 22 a5 3c 64 fc 91 bd e2 80 e0 bc
       -0.07371725 0.020158073 -0.07128218 -0.027405206
000090 b9 65 15 be be 22 17 be 5d 03 db bd 04 fe 1f be
       -0.14589585 -0.14759347 -0.10694001 -0.15624243
0000a0 34 9f 13 be 73 94 d8 bd b6 4e 5a be 73 94 21 be
       -0.144162 -0.105751894 -0.21319088 -0.15779285
0000b0 f6 37 a6 bc 71 db 59 3d de 3f a2 3d 30 40 e1 3c
       -0.020290356 0.05318779 0.07922338 0.027496427
0000c0 68 c0 11 3d 0e 3f a7 bd e4 7d 8c bd 7d bd 80 3d
       0.035583884 -0.081663236 -0.06859949 0.06286142
0000d0 ad de aa 3d 87 1d 0f bd 1a 92 a7 3c 07 08 bb 3d
       0.08343253 -0.03494027 0.020455409 0.091323905
0000e0 ab 56 dd 3d f7 3c 86 3e 0b ea 03 3e c7 39 06 3e
       0.10807546 0.26218387 0.12882249 0.13107978
0000f0 0d 5c bc 3d fd 36 d0 3d 4a 53 62 3d 4b f8 48 bd
       0.09197245 0.10166738 0.055255212 -0.049064916
000100 ef 8e 6c 3d 1a 59 85 bd ee 25 93 3d 59 99 80 3d
       0.0577535 -0.065111354 0.07184969 0.06279249
000110 7b 9b 04 bd 93 16 81 3e e2 9f 9d 3d a6 e4 b0 3d
       -0.03237484 0.25212535 0.07696511 0.08637361
000120 01 ee 21 bd 90 96 2d be fd 96 4e be 48 3b ed 3d
       -0.03953362 -0.16951966 -0.20174785 0.115835726
000130 3f 9f f7 bd 6a 31 44 bc 9e d7 64 bb aa 4a 06 bd
       -0.12090921 -0.011974672 -0.0034918557 -0.03278605
000140 d1 2d b0 3d ce a0 29 3d ca a9 e6 3d a7 56 0a be
       0.08602489 0.04141312 0.112628534 -0.13509618
000150 c8 b2 23 3d a0 b8 0e 3c fb 4d b1 bd fb de 64 3d
       0.03996542 0.00871101 -0.08657452 0.055876713
000160 70 4a 66 bd b9 24 2a be 3f 5e 18 bd 14 b4 dc bd
       -0.056223333 -0.16615571 -0.037199255 -0.10776535
000170 f5 5a 5c bd 8e 58 42 3e ef 7c ef bb d7 dc 42 3d
       -0.05379768 0.18979093 -0.0073085944 0.04757389
000180 dc bf 17 3e 8b cc 99 3d d5 a6 82 3d e2 74 51 3d
       0.14819282 0.075097166 0.06379477 0.05113686
000190 29 d2 67 bd 1e 3c 21 3e 12 29 6e 3e 05 f5 12 3e
       -0.05659691 0.15745589 0.23257855 0.1435128
0001a0 3f 1f 05 3e 69 ba 61 3e 68 e0 0b 3e 12 c9 ba 3d
       0.130002 0.22043766 0.13659823 0.09120382
0001b0 e9 6d 17 be 3b e4 d4 bd 0c 76 fe 3c 30 80 6c 3d
       -0.14788021 -0.10395094 0.031062149 0.057739437
0001c0 64 c1 17 3d 1a b9 33 3c e0 24 80 3e 89 34 97 3d
       0.037049666 0.010969425 0.25028133 0.07383067
0001d0 1c 47 5a 3e 02 d6 2d 3d 6a a9 32 bd 78 4a be bd
       0.21316189 0.042440422 -0.043618597 -0.092915475
0001e0 8a d0 20 be a5 99 3d be 5b 5a 81 be c4 c5 2e be
       -0.15704551 -0.18515642 -0.25264248 -0.17067629
0001f0 22 d1 1d be 63 f3 07 be 75 e6 59 3d a8 85 67 bd
       -0.15411809 -0.13276438 0.053198297 -0.05652395
000200 e5 81 46 be 46 f8 a2 bb e5 f4 6d bc 37 db 10 be
       -0.19385488 -0.004973444 -0.014523719 -0.14146124
000210 d4 d3 30 be 31 86 57 3d d6 37 97 bc 9a 32 be 3d
       -0.17268306 0.05261821 -0.018459242 0.09286995
000220 40 f9 ee 3c 67 44 be 3d 4b 80 3d 3e 14 c6 26 3e
       0.029171586 0.092903905 0.18505971 0.16286498
000230 62 40 15 3e af 6f be 3e f5 56 a4 3e 8a e9 83 3e
       0.14575341 0.37194583 0.32097593 0.25764114
000240 17 28 55 bd 14 73 89 be 83 b6 27 be b6 40 4c be
       -0.052040186 -0.2684561 -0.16378216 -0.1994656
000250 a7 c5 cd be 3f 1f 55 be 7e cb e4 bd 39 17 5b be
       -0.4018986 -0.208127 -0.111716256 -0.21395577
000260 36 28 a8 bd 99 a5 22 bd 24 e5 38 bd 94 1f bf bd
       -0.08210795 -0.039708707 -0.0451404 -0.09332195
000270 50 42 8e 3d d3 58 5f 3c 42 fd 53 bd 4b 17 a9 3d
       0.06946242 0.013632017 -0.051755197 0.08256396
000280 53 77 82 3d 3e 5b dc 3d bd dc a0 bd 97 4a 09 3c
       0.063704155 0.107595906 -0.078546025 0.0083796
000290 59 38 9f 3d ba d5 2d 3d 0f 98 d4 3d e7 14 c7 3d
       0.07774419 0.042440154 0.103805654 0.09720784
0002a0 c5 9b 7c bd b2 d0 0d 3d 62 22 19 3d 1f ae 7e 3d
       -0.06167199 0.034622855 0.037386306 0.062177774
0002b0 d5 a2 0d 3e 77 c3 03 be 3f 3d b0 bb 3e bd d6 bd
       0.13831647 -0.12867533 -0.005378395 -0.10485314
0002c0 c6 20 38 be 1c 9b ad bc 5c 83 49 be 03 8e 78 be
       -0.17981252 -0.021192126 -0.19679016 -0.24272923
0002d0 94 c6 a4 be 44 cf 68 be bf 76 da be 8b 41 8e be
       -0.32182753 -0.22735316 -0.4266872 -0.2778438
0002e0 ae 36 6e be 75 90 ce be 45 14 ab be fd a5 0f be
       -0.23263046 -0.40344587 -0.33413902 -0.14028163
0002f0 74 29 e6 be 95 f9 ca bd e8 c1 53 be 90 be 93 be
       -0.449535 -0.09910885 -0.20679438 -0.28856325
000300 fa 95 02 be 4e ad e0 be 71 d8 cd be f7 cf 05 be
       -0.12752524 -0.4388222 -0.40204194 -0.13067614
000310 36 62 b9 be 2e 5c a7 be 69 5c 9a 3e 4b 7b c0 3e
       -0.36207741 -0.32687515 0.30148628 0.37594065
000320 52 ea ad 3e c3 18 95 3e ba f8 a8 3e 40 ed de 3e
       0.33967835 0.29120454 0.33002263 0.43540382
000330 91 a0 fd 3e 39 0c 07 3f 80 98 e9 3e cc 6c ee 3e
       0.49536565 0.52753025 0.4562416 0.4656738
000340 de 26 cb 3e 1b b1 b8 3e 03 73 8f 3e c4 37 ab 3e
       0.3967809 0.3607262 0.28017434 0.33440983
000350 98 64 c8 3e fc 2c ee 3e f4 fa b6 3e 56 9f 17 3f
       0.39139247 0.46518695 0.35738337 0.592275
000360 39 e8 73 3c 93 97 c4 bd 98 32 e7 bd 1d 2e 3d be
       0.014886909 -0.09599223 -0.11288947 -0.18474622
000370 c3 47 51 be 1c 7a a8 be cc 4f 0f 3e a6 81 47 3e
       -0.20437531 -0.32905662 0.13995284 0.1948305
000380 eb 99 04 3d f5 cd 9c be 0d d5 3d be cd 8b 8f be
       0.03237335 -0.30625883 -0.18538304 -0.28036347
000390 da e7 d2 bd ea 0d b4 bd 44 ad 94 bd 08 67 63 be
       -0.102981284 -0.087917164 -0.0725961 -0.22207272
0003a0 6a 38 fd bd 09 e0 ab be 78 72 ab 3e b0 95 00 3f
       -0.12364276 -0.33569363 0.3348577 0.50228405
0003b0 10 8a 07 3f c5 c8 9c 3e 38 34 d9 3e 7d 17 ce 3e
       0.5294504 0.30621925 0.42422652 0.40252295
0003c0 54 76 dd 3e 83 90 0c 3f 11 33 17 3f c5 9e cc 3e
       0.4325434 0.5490801 0.59062296 0.39964882
0003d0 2f 9a f0 3e 2a 5e da 3e 82 b3 ce 3e 29 45 00 3f
       0.46992633 0.42649966 0.4037133 0.5010553
0003e0 fe 2d 26 3f 20 c3 e9 3e 89 23 01 3f a5 5e 12 3f
       0.6491393 0.4565668 0.5044485 0.57175666
0003f0 48 93 5f 3e 91 ae a3 3e 58 e9 0e 3e 1b ad 53 3e
       0.21833527 0.3196912 0.13956201 0.20671503

cell_list.2.conv_can.weight f4 [10, 20, 3, 3]
000000 36 9d 34 bd 7e 28 20 3d ab 82 0a 3d dd ad 08 be
       -0.04409524 0.039101116 0.03381602 -0.13347574
000010 c5 ec 69 be 20 f0 26 bd 1a a0 f6 3c 9d 9a f8 bd
       -0.22844227 -0.040756345 0.03010564 -0.12138865
000020 b9 d9 fe 3d e6 2c a8 bc 19 04 75 3d 41 1b 1c 3e
       0.12443871 -0.020529222 0.05981836 0.15244772
000030 51 1b 39 be f6 ca ed bd 7a f5 8d b9 db 5c f8 b9
       -0.18076827 -0.11610977 -0.0002707651 -0.0004737143
000040 a1 d2 7d 3d 6c 27 cb 3d f3 c0 99 bc ba 97 91 bd
       0.06196845 0.099196285 -0.018768763 -0.07109018
000050 75 1a 2d 3d cd e3 1b 3e ec ef 05 3e 92 af d4 3d
       0.04226156 0.15223618 0.13079804 0.1038505
000060 6b e6 45 bd 30 67 ba 3c 7c 19 82 bd 97 dd 36 3d
       -0.048315447 0.022754282 -0.06352517 0.04464492
000070 47 73 0b 3e 35 c1 2b 3e 67 91 a7 3e 6c 7e ee 3e
       0.13618194 0.16772921 0.3272812 0.46580827
000080 c8 4c d6 3e 94 0e 8b bd 2e 07 86 bb 8d d5 c7 3d
       0.41855454 -0.0678989 -0.0040902114 0.097575285
000090 a9 95 23 be 19 83 27 be 14 37 39 be 70 12 b7 3e
       -0.1597506 -0.16358604 -0.18087417 0.35756254
0000a0 55 ff 29 3e 7e 32 3a 3e 78 76 0a 3e 2a 2b e3 3c
       0.16601308 0.18183324 0.13521755 0.027730543
0000b0 f2 6b c3 3d c5 3b 40 3e 70 0a 45 3e 2d da 24 3e
       0.09542073 0.187728 0.19242263 0.16098852
0000c0 58 8b 89 be a5 3e 97 be f3 07 b3 be 18 41 3e bd
       -0.26864123 -0.2953998 -0.34967002 -0.046448797
0000d0 3a 94 f0 bd 47 20 ae bd da a3 1b bc 67 37 df bc
       -0.11747022 -0.0850225 -0.0094995145 -0.027248098
0000e0 f1 b9 ce 3c 25 0f cb 3e cb 65 dd 3e 43 c1 c4 3e
       0.025235148 0.39659992 0.43241724 0.38428697
0000f0 c6 83 33 3d df c5 b4 3b 5b e4 af 3d bb c3 b2 bd
       0.04382684 0.005516752 0.08588477 -0.08728739
000100 37 6a 77 3b a3 7b 69 bc 26 27 2c be 63 59 df bd
       0.0037752518 -0.014250669 -0.16811809 -0.10905721
000110 55 38 de bd 83 2c 17 be 7b 57 e4 3c a4 fc b4 3c
       -0.10850588 -0.14763074 0.027873745 0.022093125
000120 63 55 98 3d e0 55 8d bc c4 77 d0 bc 59 17 5d 3c
       0.07438161 -0.017252862 -0.025447734 0.013494336
000130 86 22 46 bd d0 2c 9d bd 88 bc 8c 3d d1 ba 8e 3d
       -0.048372768 -0.07674563 0.06871897 0.06969226
000140 11 98 0f bd 55 ae 9b 3d 4a 99 1f 3e 1a a0 de 3d
       -0.03505713 0.076016106 0.15585819 0.10870381
000150 c6 9e 6b 3e a7 1a 7e 3e 7f bb c5 3d 61 c9 34 3d
       0.23009786 0.24814855 0.09654903 0.044137362
000160 ad 44 ce 3d 2b fd 9f bd 1d 48 4e be 8e ab 78 be
       0.100716926 -0.0781196 -0.20144697 -0.24284193
000170 c6 66 cf bd 6a bd 00 be 47 8a 72 bd 15 d2 b2 3d
       -0.10127024 -0.12572256 -0.059213903 0.08731476
000180 87 ea 2b be aa db da bd e9 a3 fd bd 1c f7 87 be
       -0.16788684 -0.10686429 -0.12384779 -0.26555717
000190 60 2d 5d be da 03 d7 bd a3 fa 53 be 21 6a 28 be
       -0.2159934 -0.104987815 -0.20701079 -0.16446735
0001a0 e2 0d b9 bd fa 06 b0 be bb 00 87 be 1f 4c 07 be
       -0.09035851 -0.34380323 -0.26367745 -0.13212632
0001b0 ab 97 86 bd 7c 79 1f be f9 06 12 be d4 41 49 be
       -0.06571897 -0.15573686 -0.14260472 -0.19654018
0001c0 3e aa 19 be b3 0e 86 bd e1 f9 17 be 09 e7 46 be
       -0.15006348 -0.065457724 -0.14841415 -0.1942407
0001d0 63 81 a3 bd 6c 6f fe bd 69 eb 25 ba d6 a1 a0 bb
       -0.07983663 -0.12423596 -0.00063293293 -0.004902105
0001e0 40 24 eb bd 9e ef f2 bd d6 aa dc bd 76 30 b7 3d
       -0.114815235 -0.118621096 -0.10774772 0.0894479
0001f0 a0 77 b4 3d 19 ee 82 3c 5a 18 cc 3b fe 56 05 3b
       0.08811879 0.015982674 0.006228489 0.002034604
000200 f3 08 91 bc ac 6d 7c 3b df 51 d8 bc 36 2c e7 bd
       -0.017704463 0.0038517518 -0.026406227 -0.112877294
000210 7e b0 f8 3d 57 0f dd 3d 8a f5 c5 ba 02 98 06 be
       0.12143038 0.107939415 -0.0015103084 -0.13143924
000220 50 a5 ad bd 4b 42 c8 bd 6d 2d 2b bd 61 27 12 bb
       -0.084787965 -0.097782694 -0.04179137 -0.0022301304
000230 8b 9c d7 bc 29 9d 5a be 18 f4 d5 bd 40 42 b0 bd
       -0.026319763 -0.21349014 -0.10446948 -0.08606386
000240 27 7a 9d 3d 6d b8 07 bd 9d 97 18 3e 15 b6 aa bc
       0.07689314 -0.033134867 0.14901586 -0.020838777
000250 f2 04 9b 3d 71 3f a5 3d 7f 30 db bc da 43 9e bc
       0.075693026 0.08068741 -0.026756523 -0.019319464
000260 42 6b 43 bd 7e f6 b7 3d 5b 1d 04 3e 72 7b 08 3d
       -0.04770971 0.089825615 0.12901823 0.03332085
000270 2e cb b0 b9 bc 61 39 3d b5 7f 89 3d b9 2b 74 3c
       -0.00033720717 0.045259222 0.06713811 0.014903002
000280 e5 35 8b 3d 9e 90 6e 3d 71 e6 37 bc 3b 14 83 3d
       0.06797389 0.058243386 -0.011224375 0.06400343
000290 7e 8d 00 3e 3a ce b9 bd 8b ff 89 3c a2 f9 af 3c
       0.12553975 -0.09072538 0.016845485 0.021481339
0002a0 14 94 cb bd c8 a1 48 be 3e a6 23 be 3b 67 a6 3c
       -0.09940353 -0.19592965 -0.15981385 0.020312896
0002b0 b8 a2 38 bc a2 92 32 bd fa cf 97 bc dd 1a 01 be
       -0.011269264 -0.04359687 -0.018531788 -0.12607904
0002c0 21 2a b5 bd b3 42 d7 bd e8 ab a2 bd 47 25 b7 bd
       -0.08845926 -0.10510769 -0.07942945 -0.08942657
0002d0 5b 59 d4 bd eb 49 e4 3d 5b d6 3c 3e f7 03 21 be
       -0.10368606 0.11146911 0.18441145 -0.15724169
0002e0 52 80 5d 3d bc 19 08 3e 26 5a f1 bd a5 cb 28 bd
       0.054077454 0.13291067 -0.117847726 -0.041209836
0002f0 6e 70 2c 3e 8a 31 55 bd c2 13 a9 bd ad 22 eb bd
       0.16839764 -0.052049197 -0.08255722 -0.11481223
000300 96 29 52 3c 5a ae 40 3c c4 80 e8 3d d7 11 07 3d
       0.012827298 0.011760319 0.11352685 0.032975998
000310 7d 0c 31 3e 4c c6 18 3e 71 31 1e bd a5 12 be bd
       0.1728992 0.14919394 -0.03862137 -0.092809
000320 54 7f 01 bd 84 28 61 bd 52 bd 10 3d 1e d3 ba 3d
       -0.03161557 -0.05497028 0.0353368 0.09122299
000330 a7 83 93 bc 82 ec 56 3d b4 2c 9c 3d 85 13 04 be
       -0.018007113 0.052471645 0.07625714 -0.12898071
000340 86 24 21 bc 1e a9 6e bd 16 e7 9d 3d 47 a6 8a 3d
       -0.009835368 -0.05826675 0.07710092 0.06769996
000350 de b4 84 3d 12 9f 8b bd f0 c3 b0 3c a7 84 e0 bc
       0.0647981 -0.0681745 0.021577805 -0.027407004
000360 11 10 ce 3d d2 cf 1d be b1 df d1 3e 9e 07 20 3d
       0.10061658 -0.15411308 0.40990975 0.039069764
000370 65 63 90 3d 11 7f 21 3e 74 02 71 bd 89 e3 ce bd
       0.07050208 0.15771128 -0.05884023 -0.10101993
000380 6f 49 01 3e da 4d dd bd 00 d6 f1 bc e1 e0 93 3d
       0.12625669 -0.10805865 -0.029520988 0.072206266
000390 00 59 80 bc 16 7c 93 bd b6 a4 91 3b 29 2e e8 3d
       -0.015667439 -0.07201402 0.004444684 0.11336929
0003a0 13 6b c5 3d 9c 57 2b 3e e3 bf 28 3e 6b 95 5e 3d
       0.096395634 0.16732639 0.16479449 0.054341715
0003b0 aa 9b aa 3c 1f 0d 16 3e 36 61 80 3d 81 31 0b 3d
       0.02082618 0.14653443 0.062685415 0.033982757
0003c0 ed bb 22 3e 41 f4 4b 3c 48 6b 66 3d d9 62 ac 3c
       0.15892 0.012448371 0.056254655 0.021043228
0003d0 9a ab 8d 3c b1 30 c2 bd 90 ac af bc bf f8 a1 bc
       0.01729374 -0.094819434 -0.021444589 -0.019771932
0003e0 0e 98 42 bd b7 f7 df 3d cf 93 c0 3d 22 26 90 3d
       -0.047508292 0.1093592 0.09403192 0.07038523
0003f0 5e 4b 73 3e bd fa cd 3d 32 84 f9 3b 88 da 4e 3d
       0.23759219 0.1005759 0.007614636 0.050501376

cell_list.3.conv_gates.weight f4 [20, 20, 1, 1]
000000 29 0b 94 bd 7f 37 c9 3c c2 85 29 3d 61 68 56 be
       -0.07228691 0.024562595 0.041387327 -0.20938255
000010 34 98 cb bc f1 40 e1 3d 59 a5 3b be 64 95 2e 3e
       -0.02485285 0.10998715 -0.18324794 0.17049176
000020 3b 7c 87 3d 82 ed 74 be 28 ce 37 bd 3b 87 a5 be
       0.06615492 -0.23918727 -0.04487434 -0.32329735
000030 4a e1 cb bd 74 91 c1 3e d0 0c b0 be f5 18 01 be
       -0.0995508 0.37806284 -0.34384775 -0.12607177
000040 7f a9 59 3e 49 5c e1 3d 57 28 cb 3d 4e e3 5e be
       0.21256064 0.1100393 0.099198036 -0.21766397
000050 ee 0e d6 3d 82 c3 5f be 29 8a 61 bc db 24 5e bd
       0.10452066 -0.21851924 -0.01376585 -0.054234367
000060 16 46 2e 3e f0 ca 0b 3e 2f 7e 67 3e d2 3a 68 be
       0.17018923 0.13651633 0.22606729 -0.22678688
000070 a1 85 da bd 1f eb 81 3e dd 65 98 3e 99 a8 e2 3c
       -0.10670019 0.25374696 0.29765216 0.027668284
000080 19 5f 3e 3e f3 45 9a bd d4 38 31 be b0 f3 9c 3e
       0.18590964 -0.07532873 -0.17306834 0.3065467
000090 cb d2 89 3e 33 4f d5 3b 34 26 4d be 3e 4c 10 3e
       0.26918635 0.0065096854 -0.20034105 0.14091584
0000a0 ee 3b b2 3e 7d fd b2 bd d7 a9 84 3e 7e a1 78 3e
       0.34811348 -0.08739755 0.25910828 0.24280354
0000b0 61 6d c3 bb 93 3f 7e 3e 9b 79 9f 3e 96 86 65 bd
       -0.0059639667 0.24828939 0.31147465 -0.056036554
0000c0 01 ce 60 3e 89 70 83 3e 13 52 9a 3d cb d8 2c 3e
       0.21953584 0.25671795 0.07535186 0.16879575
0000d0 bd 65 41 be 8f c5 37 be b8 1c 71 3e d2 74 22 3e
       -0.18886466 -0.17946456 0.23546112 0.15864876
0000e0 23 1c 99 bc 89 e9 84 3c 0a ad 93 be f9 03 78 3e
       -0.018690174 0.01622464 -0.28842956 0.24220265
0000f0 22 84 76 3d f0 93 22 3e c4 f3 1f 3e 53 b9 c5 bc
       0.060184605 0.15876746 0.15620333 -0.024136221
000100 33 b0 42 3e db 90 a7 3d dd ed 6f 3d 44 37 df 3d
       0.19012527 0.08181926 0.058576453 0.10899213
000110 ac 18 01 3e 2c 71 e9 3d d9 95 c3 bd 36 60 49 3d
       0.12607068 0.11398539 -0.095500655 0.04916402
000120 cf cf 6c bd 20 ac 86 3e 34 55 ce bd cb 1c c3 be
       -0.05781537 0.26303196 -0.10074845 -0.38107905
000130 a7 3e c7 3b b4 e6 51 3e a8 01 6e 3c 1b 3e 57 be
       0.006080467 0.20498163 0.014526762 -0.21019785
000140 00 e3 80 be ca a3 d6 3d aa 6c 9a bc 00 14 9a be
       -0.25173187 0.10480459 -0.018850643 -0.30093384
000150 2e 4a 8b bd 81 c2 88 be b9 bf 7c be 0f a0 83 3e
       -0.06801258 -0.26710895 -0.24682511 0.25708053
000160 45 ea 90 be 44 b5 68 be fa b6 57 be 86 64 ad 3c
       -0.28303733 -0.22725397 -0.21065894 0.021166097
000170 78 26 10 ba 26 41 74 3e b4 01 a0 be 33 ac 98 bd
       -0.00054988964 0.23852977 -0.312513 -0.074547194
000180 4e 48 44 be b7 4b 3c 3e bc 2a 41 3d b9 04 e4 bd
       -0.19168207 0.18388258 0.047159895 -0.11133713
000190 27 dd 55 3c bb d5 63 3e 82 28 61 bd 86 60 98 3d
       0.013053215 0.222495 -0.054970272 0.074402854
0001a0 a2 ce c3 bd 74 66 20 be b8 11 68 3e a9 64 29 be
       -0.095608965 -0.15664083 0.22663009 -0.16542305
0001b0 f8 04 02 be 0a 8a 2c 3a 6f bf 6d be 81 36 b0 bc
       -0.12697208 0.0006581849 -0.23217557 -0.021510364
0001c0 e4 0a 62 3e 73 41 8b 3c b5 39 a5 bd d7 a3 20 be
       0.22074467 0.016998982 -0.08067647 -0.156875
0001d0 10 eb 21 bd b9 a3 16 3e 28 28 a5 3d 94 82 96 be
       -0.039530814 0.14710893 0.080643 -0.29396498
0001e0 59 73 92 3e 23 98 43 3d 93 c5 9a bc d4 56 8b 3d
       0.28603628 0.04775251 -0.018893039 0.068036705
0001f0 bf 43 27 3e bb 48 b4 3d 06 bb 71 3d df 92 9c 3d
       0.16334437 0.08802935 0.05901625 0.07645201
000200 cf 0c b1 3d 02 74 47 be 18 8a ef 3c da 61 b3 bb
       0.08645021 -0.19477847 0.029240653 -0.0054743113
000210 9c 00 17 be 4f f0 91 be ac 6e ca 3e 03 f0 82 bd
       -0.14746326 -0.28503653 0.3953756 -0.06393435
000220 b8 c4 20 be 9c 9e 43 bd 91 ce 3a bd 62 d4 eb bd
       -0.15700042 -0.047758684 -0.045607153 -0.11515118
000230 1b 8d bc be a5 85 c3 3e f8 59 9c be 9a 1a 08 bf
       -0.36826405 0.381879 -0.3053739 -0.5316559
000240 05 2b 5a 3b 24 de 9b bd 02 f5 cf be 7d 63 43 3e
       0.0033289802 -0.07610729 -0.40616614 0.1908092
000250 a6 a3 f1 be b6 38 3a be 15 80 a9 3d 48 93 fd bd
       -0.47195166 -0.18185696 0.08276383 -0.12381607
000260 eb 18 4a 3e e5 84 65 3e 6f 3e d6 bd c3 ec 1f be
       0.19736068 0.22413976 -0.10461127 -0.15617661
000270 e6 46 d6 bd 3c 51 a4 3e a8 f2 cd bd 9d 1d 55 be
       -0.104627416 0.32093227 -0.10056049 -0.20812078
000280 08 08 02 3c 98 72 24 38 4e c5 29 be 70 7f db bd
       0.007936485 3.920737e-05 -0.16579172 -0.10717666
000290 22 c6 6e bc c9 c7 a3 be 9f bf 11 be fe 59 1c 3e
       -0.014573606 -0.3198836 -0.14233254 0.15268704
0002a0 5f cb 9d be 32 4e 61 bd 0d 46 69 3d bc 4c c8 be
       -0.30819222 -0.055006213 0.05695157 -0.39121044
0002b0 6c 5d 78 bd ed 8b a0 3c 2b 43 9d bd bd 75 a7 3d
       -0.06063597 0.019597972 -0.07678827 0.08176754
0002c0 52 f8 89 be 57 88 85 be 8e 7c b1 3e 6c 2b 07 be
       -0.26947266 -0.26080582 0.3466534 -0.13200158
0002d0 68 c4 32 3d 06 14 40 3e ae 64 56 bd e9 34 ab bc
       0.04364434 0.18757638 -0.05234211 -0.020899253
0002e0 f3 f9 fa 3d ff b0 42 3e 36 ca 59 be 24 c9 ca bd
       0.12254705 0.19012831 -0.21268544 -0.09901646
0002f0 b2 29 ca 3b b6 72 f5 3d 5e 90 4b be e7 ff c9 be
       0.0061695212 0.1198477 -0.1987929 -0.3945305
000300 ff 36 b5 3d 60 cb d4 bd 0e 5e f1 3d 03 28 7d be
       0.0884838 -0.10390353 0.11785518 -0.24722295
000310 c5 8e 54 3d 61 84 57 3d e5 8e 91 3d 26 7c 11 be
       0.051893968 0.05261648 0.07107333 -0.14207515
000320 48 3f ec 3a 15 06 98 bd 27 91 eb bc bd c1 02 be
       0.001802423 -0.07423035 -0.028755737 -0.12769218
000330 fe 82 c9 bd 5b 74 0b 3d 81 6d 20 3c 15 26 a3 3d
       -0.09839438 0.034046512 0.009791733 0.07966248
000340 aa 3f 69 bd 9c 2a 13 bd 37 f1 51 3d 66 43 80 3d
       -0.05694548 -0.035929307 0.05125543 0.06262855
000350 42 47 0c 3d 0c 0f 89 bd ce 13 62 3e 88 2a a7 bc
       0.034247644 -0.06692323 0.22077867 -0.020406023
000360 1e db b8 bd a5 c5 36 be ae bc ad 3d 77 c4 a0 3d
       -0.09026168 -0.17848833 0.084832534 0.07849973
000370 13 a6 b1 3b 91 f8 2b be 91 89 72 3c eb 71 2a 3d
       0.005421409 -0.1679404 0.014803306 0.041612547
000380 e4 8b d3 bd 72 e6 81 3e ee 02 07 be bf 76 8e bd
       -0.103294164 0.25371128 -0.13184711 -0.06956243
000390 b1 d9 95 bd e9 1c bf 3d ba 5c 98 bd 16 87 31 3c
       -0.07316912 0.09331686 -0.07439561 0.01083543
0003a0 1a bc 51 3e d1 06 5b bd 96 31 e9 3d c9 27 17 3e
       0.20481911 -0.053473298 0.11386411 0.1476127
0003b0 e0 0b 90 be a4 74 9b 3e 0c ac 0f be 16 91 e7 bd
       -0.2813406 0.30362427 -0.14030474 -0.1130697
0003c0 d8 e5 2e 3d b4 8f 59 3d 6e 9f 7d be ec ee 5e be
       0.042699665 0.05311556 -0.24767849 -0.21770829
0003d0 ae b4 b7 3c f6 f5 24 3e f1 f6 04 be b8 10 10 3e
       0.022425022 0.16109452 -0.12984826 0.14068878
0003e0 5d f7 a5 3d 7a ad 24 3e 26 73 f4 3d f5 e1 47 bd
       0.081038214 0.16081801 0.11936025 -0.048799474
0003f0 ab 7c 36 3b d2 16 67 3e 35 68 6c be 94 92 f3 be
       0.0027845304 0.22567299 -0.23086627 -0.47572768
