saved_models/4task/random2_15.pt (torch, 140450 bytes, 16 tensors)

cell_list.0.conv_gates.weight f4 [20, 11, 3, 3]
000000 b3 bc 89 3d 6a ff c4 3d e1 04 26 3e cb f1 05 3e
       0.06725445 0.09619029 0.16212799 0.13080518
000010 d1 d1 6c 3e eb 2a af 3d 75 0e 34 3d 03 5b d1 bc
       0.23126914 0.08553108 0.0439591 -0.025556093
000020 39 81 85 bd e5 3a 8d bd b5 47 8b bb 25 f2 4b bd
       -0.06518788 -0.06895999 -0.0042504915 -0.049791474
000030 3b cd 64 3d 69 18 d7 3e 9b bc 3d 3e e9 50 83 3d
       0.055859786 0.4201081 0.18528979 0.06411917
000040 c0 15 df 3d 94 f4 8e 3d 00 a9 2f 3e 44 91 54 3d
       0.1089282 0.06980243 0.17154312 0.05189635
000050 00 22 dc 3d 46 51 1b 3e e8 ab 42 3e 3b 4a 12 3e
       0.107486725 0.15167722 0.1901089 0.14286129
000060 a4 39 b4 3e 03 c6 39 3e 42 f5 81 3e fc 6d 10 be
       0.35200226 0.18141942 0.2538243 -0.14104456
000070 68 70 5c 3c 4c 35 0d be 5a cc e3 bd ec 51 36 be
       0.013454534 -0.13789862 -0.11122961 -0.17804688
000080 01 54 19 be db 4a f4 bd a0 50 b1 bd 37 0f 7d be
       -0.14973451 -0.1192834 -0.08657956 -0.24712835
000090 e4 b3 1d be 10 99 1a bd 52 d2 16 be 08 f2 01 be
       -0.15400654 -0.037743628 -0.14728668 -0.12689984
0000a0 06 4a 92 bc af 87 0a 3d 5c 62 0f be 95 7b 20 be
       -0.017857563 0.033820804 -0.14002365 -0.15672143
0000b0 23 55 6e bd 9a 6c c9 bd c8 c6 b9 bd 9d 6c b5 3c
       -0.05818666 -0.09835167 -0.09071118 0.022146517
0000c0 6c 84 5b be 81 16 7c be 93 e0 5e bd 90 02 94 be
       -0.21437234 -0.2461796 -0.05441339 -0.28908205
0000d0 f8 37 b9 be e0 11 96 be 49 44 de bd 83 e2 03 bd
       -0.36175513 -0.29310513 -0.10852868 -0.03219844
0000e0 a9 25 2f be d9 98 fd 3d 0a fb cb 3d df f0 5d 3d
       -0.1710421 0.12382669 0.09959991 0.05418479
0000f0 5f 13 89 3d d1 71 d7 3d 66 75 97 3d 0a eb 15 3e
       0.06693148 0.10519756 0.07395439 0.14640442
000100 6a 98 0d 3d b4 f6 1d bd 41 80 1c 3c 76 58 93 3d
       0.03456918 -0.038565353 0.0095520625 0.07194607
000110 13 79 37 3d 0f 53 87 3b 52 fe 6b bd d8 51 de b9
       0.0447932 0.0041297744 -0.057615586 -0.00042404118
000120 c2 dc 2f bd 8b e7 c1 3c 83 8f a1 bd b0 0f 27 3d
       -0.04293514 0.023669979 -0.07888701 0.040786445
000130 ec 64 e2 3d f1 5f a4 bc 38 b3 fa 3d 19 aa 0a 3e
       0.110544056 -0.02006528 0.122412145 0.1354145
000140 b9 c3 e0 3c 68 97 97 bb 0d 98 6b bd ac 9c 0c bc
       0.027437078 -0.0046262033 -0.057518054 -0.008582275
000150 4c e7 a3 be 77 41 34 be fa 23 86 be 23 47 54 be
       -0.32012403 -0.17603098 -0.26199323 -0.20730262
000160 eb 45 8e be 56 92 8a be c2 d2 90 3d f2 10 ed 3c
       -0.27787718 -0.2706477 0.07071449 0.028938744
000170 fb 7f 9c 3d 3f 4a 04 3e 15 13 58 3e 2c e0 60 3e
       0.07641598 0.12918948 0.21101029 0.21960515
000180 a2 ca 99 3e 91 a5 ad 3e ed 53 56 3e 5c ab bd be
       0.3003741 0.3391538 0.20930453 -0.370448
000190 7f e8 80 be 54 90 b1 be fd 61 a0 be 93 95 47 be
       -0.2517738 -0.34680426 -0.3132476 -0.19490652
0001a0 77 46 9e be d6 e8 5c be 93 37 75 be 92 c8 a1 bd
       -0.30913135 -0.21573195 -0.23946981 -0.07899584
0001b0 65 14 aa 3e 37 3a 01 3e ac 3c 84 3e cb d6 1e 3f
       0.33218685 0.12619863 0.2582754 0.620465
0001c0 f3 44 0a 3f 7e cd 22 3f 05 c7 49 3f 62 66 37 3f
       0.5401146 0.63594806 0.78819305 0.716406
0001d0 d3 c8 36 3f 69 ad 04 be af c6 3f be ef 84 8b bd
       0.71400183 -0.12956776 -0.18728136 -0.068124644
0001e0 6c 95 05 be ce 26 22 bd b0 34 3e be fd 4f 58 bd
       -0.13045281 -0.03958779 -0.18574786 -0.052810658
0001f0 eb 4f f8 bd 16 c8 d8 3c 84 68 4b bf 71 a2 68 bf
       -0.12124618 0.026462596 -0.79456353 -0.90872866
000200 4f cb 76 bf f0 f3 84 bf 0c 11 8e bf 3f 55 99 bf
       -0.96403974 -1.0386944 -1.1098952 -1.197914
000210 34 15 9a bf 15 38 8f bf 5e d3 9f bf 46 1a 93 3e
       -1.2037721 -1.118899 -1.2486379 0.28730983
000220 bd 87 d4 3e 53 6e 99 3e 5f 34 03 3f d5 35 05 3f
       0.4150981 0.29966983 0.51251787 0.52035266
000230 42 03 ce 3e f3 ef 17 3f e4 a4 02 3f 3a ac f3 3e
       0.4023686 0.5935051 0.51032853 0.47592336
000240 79 22 06 3e 11 5c 84 3e 4b 79 89 3d 8f 43 f7 3b
       0.13099088 0.2585149 0.06712588 0.0075458954
000250 b2 74 49 3e 1c 12 f8 3d 5b a9 b4 3d 76 3d c9 3d
       0.19673422 0.12112829 0.088213645 0.09826176
000260 98 aa 4c 3c 3d 46 bf 3c 1a 29 3b bd 9f 0c d4 3d
       0.012491845 0.023348922 -0.045693494 0.1035397
000270 40 09 8f 3e 0c fb 08 3e c9 08 6a 3d 2e 62 c4 3e
       0.27936745 0.13377017 0.057137284 0.38356155
000280 50 a3 6d 3e 24 db 82 3e e4 0f 22 3f 0e 39 1a 3f
       0.2320683 0.25557816 0.633055 0.6024331
000290 ec 22 22 3f 42 31 38 3f f0 a5 3f 3f 5a 82 20 3f
       0.63334537 0.7195016 0.74862576 0.626989
0002a0 1e 73 37 3f d6 73 22 3f e7 8d 22 3f 21 cc c2 3e
       0.7166003 0.63458 0.63497776 0.38046363
0002b0 a2 92 bf 3e 5e 3e ea 3e ac 91 0e 3f 66 e1 d7 3e
       0.3741656 0.45750707 0.5569103 0.42164153
0002c0 a4 1b 14 3f 84 da 71 3f 0d 5b 35 3f 4e 71 33 3f
       0.57854676 0.94474053 0.7084206 0.70094764
0002d0 05 0a d6 bd b7 51 ed bd ed 66 ed bd 7d 7a 7f be
       -0.1045113 -0.115878515 -0.11591897 -0.2494907
0002e0 f6 79 05 be 99 d5 3e be 3a 26 ee bd 73 6b 3b be
       -0.13034806 -0.18636169 -0.11628385 -0.18302707
0002f0 20 b3 63 bd 5e 60 57 3c c4 7e f7 bb e4 23 01 3e
       -0.05559075 0.013145534 -0.0075529534 0.12611347
000300 73 cc e5 3d b2 f4 a3 3d e7 5f 24 3e 20 13 2a 3e
       0.11220636 0.08005656 0.16052209 0.16608858
000310 be a4 e2 3d ae 39 ae 3d b0 94 33 3d cf ab 83 3e
       0.11066578 0.08507095 0.04384297 0.25717017
000320 e9 c3 c4 3e 73 fc ca 3d 6b fd 4b 3d 75 07 03 3e
       0.38430718 0.09911432 0.049802225 0.12795813
000330 41 0b 37 bd e2 2f b8 bb 72 3f 8e bd 65 b2 c7 bc
       -0.044688467 -0.0056209425 -0.06945695 -0.024377057
000340 00 ed 2c be a0 1f 3c be 6c a4 2b bc 2b 07 14 be
       -0.16887283 -0.18371439 -0.010476213 -0.1445586
000350 b9 84 c3 bc eb 4f a1 bd 7a 50 28 3c 60 cf 2d bd
       -0.023866998 -0.07876571 0.010273093 -0.042434096
000360 00 a1 28 3e 33 b3 40 3e 4b f1 0e 3e e6 04 62 3e
       0.16467667 0.18818359 0.13959233 0.22072181
000370 6b 43 2c 3e 52 44 7e 3e 6a fc 90 3e bb 51 dd 3e
       0.16822593 0.2483075 0.28317577 0.43226418
000380 23 56 57 3e 42 a9 bc 3d 44 8c 61 3e 53 b6 a6 3e
       0.21028952 0.09211971 0.22026163 0.32560977
000390 1b 84 8c 3d 58 94 43 be a2 a5 b2 3d 9f 66 38 3e
       0.068611346 -0.19099557 0.08722998 0.18007897
0003a0 92 c7 64 3e 1e e7 81 3d ad 32 dd bd cf 19 65 be
       0.22341755 0.0634291 -0.10800681 -0.22373126
0003b0 7b 0c 3b be 40 5c 47 be 17 bc 53 be ad 9e 89 be
       -0.1826648 -0.19468784 -0.2067722 -0.26878873
0003c0 1c 34 bd be 88 44 07 bf e7 63 fc be a3 5a ea bd
       -0.3695382 -0.52838945 -0.4929497 -0.11443069
0003d0 05 35 ae bd 41 cf c9 bc 75 21 b0 be b8 8d 5a be
       -0.085062064 -0.02463496 -0.34400526 -0.21343124
0003e0 49 ee 38 be 09 f2 dc be 63 25 e3 be df 4b 00 bf
       -0.18059649 -0.43153408 -0.4436446 -0.5011577
0003f0 7d d1 08 bd 3c e7 b4 3d ae d5 20 be 0d 39 ad 3d
       -0.03340291 0.08833167 -0.15706512 0.08458147

cell_list.0.conv_can.weight f4 [10, 11, 3, 3]
000000 6f 70 a5 3d ba 16 7f bd cc 2b 83 3d 4d b3 30 be
       0.08078086 -0.062277533 0.06404838 -0.17255898
000010 18 d6 c0 bd 88 61 d7 bd 6c 12 17 bd d6 dc 4a be
       -0.09415835 -0.105166495 -0.036882803 -0.19810805
000020 fc 53 54 be 64 3a f7 be a6 aa c5 be 8d 3d 8f be
       -0.20735162 -0.48286736 -0.38606757 -0.27976647
000030 0c 55 99 be 44 f8 0f bf ce 6f ec be 64 6a a7 be
       -0.29947698 -0.562382 -0.4617905 -0.32698357
000040 df 63 b3 be 0f 84 d5 be 51 f5 1c bf e0 15 dd be
       -0.35037133 -0.41702315 -0.61311823 -0.43180752
000050 e9 9b ba be 74 9f 05 bf fc 43 0b bf c8 23 c4 be
       -0.36447075 -0.5219643 -0.5440061 -0.3830855
000060 c6 84 bc be 56 1c b3 be af e4 9c be d1 fd 05 3e
       -0.36820048 -0.34982556 -0.30643222 0.13085105
000070 d4 6d e2 3d 24 85 37 3d 50 fd 7b 3e 98 c3 52 3e
       0.11056104 0.044804707 0.2460835 0.20582426
000080 b7 a4 6f bd f5 1c dc 3d 90 8f 56 3e a7 6b ee 3d
       -0.058506694 0.107477106 0.20953202 0.11641627
000090 a7 e6 b7 be 57 c9 66 be 7b d2 91 be 57 33 c5 be
       -0.3591816 -0.22537743 -0.28480896 -0.38515732
0000a0 f9 b4 ad be be 5e 9b be d5 72 3e be 03 81 37 be
       -0.33927134 -0.3034572 -0.18598492 -0.17920308
0000b0 04 7d 96 be 3c 15 a4 3e 8c 0d af 3e f0 50 75 3e
       -0.29392254 0.3204745 0.34190023 0.23956656
0000c0 48 6d 85 3e e1 5d a4 3e 55 be 6a 3e 5e b1 82 3e
       0.26059937 0.32102874 0.22924168 0.25525945
0000d0 49 61 a2 3e 79 3b 12 3d e6 32 f4 be 6b 72 f1 be
       0.31714848 0.03570125 -0.47695082 -0.47157606
0000e0 33 0c 62 be c9 a3 a6 be 61 af df be f7 b7 c1 be
       -0.22074966 -0.32546833 -0.4368849 -0.37835667
0000f0 f4 4e 9e be 12 1e d3 be cf 08 b1 be a5 bd 8c be
       -0.3091961 -0.4123388 -0.34577033 -0.27488437
000100 5a 44 87 be 1c 39 2a be 33 d8 8a be c3 0a 87 be
       -0.26419336 -0.16623348 -0.27118072 -0.26375398
000110 50 d3 33 be 6c 73 32 be 48 ed b3 be e6 9e 71 be
       -0.17561078 -0.17426842 -0.3514197 -0.23595771
000120 a8 9c f3 be 80 e3 c8 be a7 78 42 be 72 f0 cb be
       -0.47580457 -0.3923607 -0.18991338 -0.39831883
000130 27 9f 84 be 3b d6 a9 be 39 a4 a6 be 69 9f 94 be
       -0.25902674 -0.33171257 -0.32547167 -0.2902787
000140 ce f0 a1 be c7 c1 a6 3e 75 a5 cc 3d c2 83 c3 3e
       -0.31629032 0.32569715 0.09992496 0.3818646
000150 3c fa f3 3d 2a 0b 19 be 96 13 8d bd a3 5a 22 3e
       0.11912963 -0.14945665 -0.06888501 0.15854888
000160 14 5c 2b bc 96 b4 ab 3b 7d 58 0f bf 5d 0c 26 bf
       -0.010458965 0.0052400334 -0.559944 -0.64862615
000170 be 83 0b bf 5c 05 c5 be a7 81 bb be 3f e5 b7 be
       -0.544979 -0.3848065 -0.36622354 -0.35917088
000180 a3 26 a6 bd 12 53 7f be 3d 60 22 be 3e 7e b2 3d
       -0.08112838 -0.24934033 -0.15857024 0.08715485
000190 c6 bb a0 bd 36 18 69 bd 2d 42 ee bd af ec 98 bd
       -0.07848315 -0.056907855 -0.11633716 -0.07467019
0001a0 46 50 8c bd 6a 47 f0 bd c8 89 7c be 9b 38 f1 bd
       -0.068512484 -0.11732371 -0.24661934 -0.11778375
0001b0 15 8b 26 3d 04 0e ae bd ac d1 25 3c c3 4e 20 bc
       0.040659983 -0.08498767 0.01012079 -0.009784403
0001c0 57 c1 8e 3d 4c bf a6 3d f5 75 fb 3d a4 6a d2 3d
       0.069704704 0.08141956 0.12278358 0.10274246
0001d0 9d 68 73 bd 5f 0e 94 bc 52 a6 f9 3d 8e bc c1 3d
       -0.05942594 -0.018073259 0.12189926 0.09459792
0001e0 d4 b7 37 3e 93 ca 2f 3c 56 27 6b 3e 99 1d 15 3e
       0.17941219 0.01072945 0.22964224 0.14562072
0001f0 36 05 e8 3d 23 cc 7c 3e a6 f8 3a bd d8 5d ba bd
       0.11329119 0.24687247 -0.045647286 -0.090999305
000200 29 53 3c 3d 2d fc 9a 3b cb 23 0c bd da cb 56 3d
       0.045977745 0.0047297687 -0.034213822 0.0524405
000210 ff 82 ce ba 57 41 d1 3d 80 e4 13 3e fb 03 fe bd
       -0.0015755593 0.10217541 0.14442635 -0.12403103
000220 aa 17 dc bd d8 73 0e be 51 ba 9c bd 38 af 4b bd
       -0.10746701 -0.13911378 -0.076527245 -0.04972765
000230 59 bd a0 3c 66 f3 46 bd 34 20 a6 3d 9e e4 ee bc
       0.019621538 -0.048571967 0.08111611 -0.029161748
000240 1c 14 85 be 98 83 13 be 75 4f 9d be 9c 3e 5e be
       -0.25991905 -0.14405668 -0.30724683 -0.21703571
000250 83 e8 56 be ff c0 9e be 70 29 c9 be 97 37 8d be
       -0.20987134 -0.3100662 -0.39289427 -0.27581474
000260 76 27 ad be c3 6f 26 3e 33 f9 11 3e 2b e3 10 3e
       -0.3381917 0.16253571 0.14255218 0.14149158
000270 c8 a0 90 3c 6e f4 b6 3d 78 5e 78 3e c4 49 52 3e
       0.017654791 0.0893334 0.24254787 0.20535952
000280 f6 b7 3f 3e 70 99 36 3e 09 b7 f3 3c 93 96 76 bd
       0.1872252 0.1783197 0.029750364 -0.060202193
000290 1d e4 fa b9 41 b3 ea 3d 51 83 ac 3d 20 d9 18 3d
       -0.00047853673 0.11459971 0.08423484 0.03731644
0002a0 aa 8e f9 3d d6 6f ea 3d f6 a0 da 3d 9c 02 3f 3d
       0.12185414 0.11447112 0.10675232 0.046633348
0002b0 ec 11 81 3d 72 ca ce 3d eb 48 f2 3d 16 18 20 3e
       0.063022465 0.10097207 0.11830314 0.15634188
0002c0 92 af 46 3e f1 43 1e 3d b2 de 0c 3e a4 b8 36 3e
       0.19402912 0.038639013 0.13756827 0.17843872
0002d0 63 5d be bd 1f ce b2 bd c3 dd a6 bd a9 3f be bb
       -0.09295156 -0.08730721 -0.081477664 -0.0058059287
0002e0 c0 32 3b be b8 fd 8e be 2b cd 38 be 52 78 1e be
       -0.18281078 -0.27927947 -0.18047015 -0.15475586
0002f0 95 b0 33 be f2 cb 20 3d f0 4a 69 3e 04 59 43 3e
       -0.1754783 0.039256997 0.22782493 0.19076926
000300 1d 6f cf 3d 9c 3e 26 3e 3d fa 16 3e 8e 87 cb 3d
       0.10128615 0.16234821 0.14743896 0.099379644
000310 e2 68 a5 3e 0f 88 6d 3d 0a 77 d1 bd 7d 55 fa 3c
       0.32306582 0.057991084 -0.10227783 0.030558342
000320 00 90 3b 3c 35 36 79 3c a9 6d a9 3c 48 24 16 3e
       0.0114479065 0.015210678 0.020682173 0.14662278
000330 07 7f 40 3e bd 82 65 3e 35 89 40 3e 55 23 9d 3e
       0.18798457 0.22413154 0.1880234 0.3069102
000340 07 5a 92 3e 23 7f 9a 3e aa 44 99 3e d0 d0 ac 3e
       0.2858431 0.30175123 0.299352 0.3375306
000350 35 37 de 3d 71 fa ae 3e c0 a9 92 3e 74 a7 4d 3e
       0.10850374 0.34175447 0.28645134 0.2008341
000360 fd a0 4d 3f b1 54 21 3f b9 94 19 3f 5a c3 39 3f
       0.80323774 0.63019854 0.5999256 0.7256371
000370 30 c0 05 3f aa 19 0f 3f 7b 6e 01 3f 6e 40 13 3f
       0.5224638 0.55898535 0.50559205 0.57520187
000380 42 94 11 3f d7 98 bf be 01 db b7 be af 23 72 be
       0.5686685 -0.37421295 -0.35909274 -0.23646425
000390 82 b5 53 be a5 25 bc be df 28 66 be 9d e3 2c be
       -0.20674708 -0.3674747 -0.22476529 -0.16883703
0003a0 82 77 75 be 54 0e cb bd e0 8f 99 3e 89 81 9d 3e
       -0.2397137 -0.09914842 0.2999258 0.3076289
0003b0 58 01 9b 3e fe 49 45 3e cc cf 47 3e d0 eb 82 3e
       0.30274463 0.19266507 0.19512862 0.25570536
0003c0 a9 48 92 3e d1 9a 7b 3e cb 30 46 3e 99 66 17 bf
       0.2857106 0.24570777 0.1935455 -0.59140927
0003d0 e9 18 ff be 28 47 e0 be ef a5 15 bf fc 33 0c bf
       -0.49823692 -0.43804288 -0.5845632 -0.5476682
0003e0 7a 50 e6 be f9 06 8a be 2b 76 c2 be dc 7b dd be
       -0.44983274 -0.26958445 -0.3798078 -0.4325856
0003f0 8d e5 ff 3e 1d e0 86 3e 00 77 14 3e 17 ba c5 3e
       0.4997982 0.2634286 0.1449852 0.38618538

cell_list.1.conv_gates.weight f4 [20, 20, 3, 3]
000000 31 5a 54 bc d9 be 05 3e e9 4d 92 3e 7b eb 99 be
       -0.012960956 0.13061084 0.28575066 -0.3006247
000010 14 a8 66 be df bc 9e bd 18 4b 56 be 32 0f d6 3c
       -0.22525054 -0.07750868 -0.20927083 0.026130293
000020 dd 6a 94 3e a5 20 a2 be 6f 31 7e be dc ce 86 3d
       0.2898778 -0.3166553 -0.24823545 0.06582424
000030 47 8c b3 be e3 87 c4 be 7a 2c 6e be 77 85 60 be
       -0.3506796 -0.38384923 -0.23259154 -0.21925913
000040 e6 38 15 bd 5a 34 33 3d b3 b0 b7 3d a0 dd 7d 3e
       -0.036431216 0.0437511 0.089692496 0.24791574
000050 db 70 88 3e 72 e0 e1 be f4 15 88 be 02 3c 5c 3d
       0.26648602 -0.4411655 -0.2657925 0.053768165
000060 ee 92 72 be 7c bc ac bc 94 d5 33 be da 23 94 be
       -0.23688862 -0.02108597 -0.17561942 -0.28933603
000070 f6 0c 86 bd 45 15 30 be b1 b3 6d 3e 91 14 a7 bd
       -0.06545441 -0.17195614 0.23213078 -0.081582196
000080 6a 29 85 be 16 99 b4 3d c9 4d 69 3e fc 1f a7 3e
       -0.2600816 0.08818261 0.22783579 0.3264159
000090 bb 6e b9 3c 2f ba 62 3c 20 76 f6 bc ab 3c f2 3e
       0.022635808 0.013838335 -0.030085623 0.4731191
0000a0 bb 61 c8 3e dd 4c 33 3e 98 c0 6d 3d a9 bd ef 3c
       0.39137062 0.1750979 0.058045 0.029265242
0000b0 9c c0 47 3e 3b da 95 be 3c 71 a4 bd 98 82 0d bd
       0.19507068 -0.2926806 -0.0802941 -0.034548372
0000c0 14 6d 3c be 43 ad c0 be cf 10 d2 be f3 df 2a be
       -0.18400985 -0.37632188 -0.4102845 -0.16686992
0000d0 c7 41 aa be a4 df a9 be b0 5d bc be 95 38 73 be
       -0.3325331 -0.33178437 -0.36790228 -0.23752053
0000e0 5e 74 eb bd ea 8b 13 be 97 b1 52 bd be d7 ae ba
       -0.11496805 -0.14408842 -0.051438894 -0.0013339443
0000f0 e9 ce 57 3e c4 6b 99 3e 89 48 92 3d 99 5f ca bd
       0.21075024 0.2996503 0.07142741 -0.09881515
000100 b3 1d 41 be 7a c0 77 bd 54 db 86 be f7 89 3a be
       -0.18858986 -0.060486294 -0.2633921 -0.18216692
000110 84 cb 2f 3d 8c cd 7f bd b8 f6 a6 3d 94 34 8b 3d
       0.042918697 -0.062451884 0.081525266 0.06797138
000120 a8 e8 29 3e 2a 2e 92 3d 36 b0 0f 3d ea 1f bb bb
       0.16592658 0.07137711 0.035080157 -0.0057105916
000130 73 a1 f5 3d 9e 48 64 3e ff a0 3b 3c 88 db 9c bc
       0.119936846 0.22293326 0.011451959 -0.01914765
000140 da 46 d9 3d a4 f6 58 3e 99 91 60 3e e2 d9 35 3e
       0.10609217 0.21187836 0.21930541 0.17758897
000150 b8 d5 e4 3c b6 48 40 3d c0 ca 38 3e 3b ab 3f be
       0.02793394 0.046944343 0.18046093 -0.18717663
000160 e9 52 b3 bd 9e 78 9c 3d e8 79 5f be 08 fe b6 bd
       -0.08756048 0.076401934 -0.21823847 -0.08935171
000170 1d 04 90 3c 87 18 7f 3d 28 fa 87 3d f7 b9 68 3e
       0.017580086 0.06227925 0.066395104 0.2272719
000180 35 2b c2 bd 2c 87 83 be 69 91 e4 bd 2b 73 76 3d
       -0.09480897 -0.25689065 -0.11160547 0.060168426
000190 18 1d 7f 3c 9a 39 ed 3b c0 39 20 3b d4 0d ec bd
       0.015570901 0.0072395327 0.0024448484 -0.11526075
0001a0 20 91 8f bc 86 f8 86 bd 01 13 b3 bd bb b3 2a 3d
       -0.017525256 -0.06590371 -0.08743859 0.04167531
0001b0 f2 fb 66 be 34 51 ab 3c 7a e2 a1 3d e9 67 0e bf
       -0.22557047 0.020912744 0.07904525 -0.55627304
0001c0 98 09 15 be 88 c4 fc bd b8 61 88 be 71 af f6 bc
       -0.14554441 -0.12342173 -0.26637053 -0.030112954
0001d0 dc 81 f3 3d 06 43 a9 bd f9 7d a5 be 9c 49 9d be
       0.11890003 -0.08264737 -0.32322672 -0.30720222
0001e0 06 23 08 3e 94 8f f4 bd 06 da b8 bd c7 de 67 3d
       0.1329461 -0.11941448 -0.0902596 0.05660894
0001f0 01 a2 2d bd 17 62 f2 3c f7 4c c7 be 5d 2b 12 bc
       -0.042390827 0.029587789 -0.38925907 -0.008921471
000200 24 c2 01 3e 5a c9 3d be 98 51 4a 3d 3f d3 29 3e
       0.12671715 -0.18533841 0.04939422 0.1658449
000210 b0 f2 ea be 76 72 85 bd de 35 91 3e a5 7a a4 bd
       -0.4588828 -0.06515972 0.2836141 -0.08031205
000220 43 a0 18 be 87 c5 53 3c c8 d2 b9 be 14 37 8c bd
       -0.14904885 0.012925512 -0.36293626 -0.06846443
000230 e9 7f bf 3d f7 90 12 bf 4d 35 a3 be ff 92 3c be
       0.09350569 -0.5725245 -0.31876603 -0.1841545
000240 8c 53 bf 3b 8b 8e 2e 3d a1 cd 0d 3e 76 64 84 be
       0.005838817 0.04261641 0.13847972 -0.25857896
000250 96 df a4 3d 1f 61 ca 3e 63 46 9f be 31 77 5c 3d
       0.08050458 0.39527223 -0.31108388 0.053824607
000260 2b 08 ad 3e 53 68 34 be e6 c2 06 be 00 64 27 3e
       0.33795294 -0.17617922 -0.13160285 0.1634674
000270 49 13 a3 ba a5 33 d3 bd 44 af 4e 3d 27 af dc 3c
       -0.001244166 -0.10312585 0.050460115 0.026938988
000280 74 d7 52 be 6e 9c 95 bd e8 a6 92 be 25 71 89 be
       -0.20590001 -0.07305227 -0.28642964 -0.26844135
000290 47 8b 83 bc 4e fa c7 bd 1f e2 4b bd c0 9f dc 3d
       -0.016057624 -0.09764539 -0.049776193 0.107726574
0002a0 46 a2 5f be e4 a5 73 be 8b fb d5 bd 42 53 b4 be
       -0.21839246 -0.23793751 -0.10448369 -0.3521977
0002b0 4c 62 59 be 32 7d 8b bd 5a e8 e3 bd 0f 06 84 3d
       -0.21228904 -0.068109885 -0.11128302 0.06446468
0002c0 2a a1 77 3e ca 52 00 bf 2e 12 14 be d8 76 64 bd
       0.24182573 -0.50126326 -0.1446006 -0.0557774
0002d0 d5 76 b4 3d 48 50 33 3e 0f d9 73 3e 5e e8 89 be
       0.08811728 0.17511094 0.2381327 -0.26935095
0002e0 3a f2 26 bd f4 21 33 3e 1e 8e a9 3d ff 9a 58 3e
       -0.04075835 0.17493421 0.0827906 0.21152876
0002f0 64 86 c8 3e bc ba b9 bd a6 0b 1f be 62 08 52 bc
       0.39165032 -0.0906882 -0.15531787 -0.012819381
000300 8d d9 84 bd 75 55 bb 3d 45 99 a6 3e ac 7f 91 be
       -0.06486807 0.09147159 0.3253881 -0.28417718
000310 ad 06 b6 be 67 ba b4 be 68 f6 a9 bc 72 73 af bc
       -0.35551968 -0.35298464 -0.020747378 -0.021417353
000320 32 bb da bd af f1 41 bf e0 15 08 bf 48 53 c4 be
       -0.10680236 -0.75759405 -0.5315838 -0.3834479
000330 08 a3 f3 bd c6 50 c3 3d bb fc 23 3c b4 0b ed 3d
       -0.1189633 0.09536891 0.010008986 0.11574498
000340 fe a1 c3 be 86 5e 0c bf 36 af 2f 3d 7d 02 30 be
       -0.38209528 -0.5483173 0.042891704 -0.17188449
000350 23 75 48 bd c5 36 4b be 6d 37 9c be 5f 6f 5a be
       -0.048939835 -0.19845112 -0.30511037 -0.21331547
000360 88 3d 08 3e ae dd 8f 3e 0f 46 df 3d 19 df 9f 3e
       0.13304722 0.28098816 0.109020345 0.31224898
000370 e8 65 ac 3e b5 01 d6 3e ac 70 fc bd 79 99 f3 3b
       0.33671498 0.41798177 -0.12326178 0.007434067
000380 10 66 48 3e 65 ee 0a bc 51 10 9d bd b3 4d 35 bd
       0.19570184 -0.008479689 -0.07669128 -0.044263553
000390 88 84 a1 be a8 4c 75 be 95 61 d1 bd ca ed 9d be
       -0.31546426 -0.23955023 -0.102236904 -0.3084548
0003a0 94 d3 e0 be 26 1c 13 bf fd 55 f8 3c 52 08 d6 3d
       -0.4391142 -0.57464826 0.03031444 0.10450806
0003b0 8a a2 29 be bd 0a 01 bf 7e b9 ac be 43 7a 17 bf
       -0.1656591 -0.5040701 -0.3373527 -0.5917093
0003c0 34 20 c1 3c 9f 58 a3 bd f5 4b ab be 5d 16 ef bc
       0.023574926 -0.079758875 -0.33456388 -0.029185468
0003d0 c5 0b c6 3d f5 c3 9f 3d c8 3a 51 3e 1c fb 4e 3e
       0.096702136 0.07801048 0.2043258 0.20212978
0003e0 d3 05 81 3e ab 88 60 be be 6c f9 bb c7 56 98 3e
       0.25199756 -0.21927135 -0.00761184 0.29753706
0003f0 fa 69 56 3e f5 7e bf 3e f8 cf c4 3e 39 4b 24 3e
       0.20938864 0.37401548 0.38439918 0.1604432

cell_list.1.conv_can.weight f4 [10, 20, 3, 3]
000000 57 17 7d be a0 55 7c be 70 5d 67 be ae d5 90 3c
       -0.24715935 -0.24642038 -0.22594237 0.017680015
000010 fa c9 86 3d bd 30 9a 3d ac 41 03 be 63 e5 47 bd
       0.06581493 0.07528827 -0.1281802 -0.048802745
000020 51 44 89 bc 13 9a 9c bd 9d 12 41 bd 21 a1 9a bd
       -0.016756209 -0.07646575 -0.04713689 -0.07550264
000030 3c 42 b6 3d 83 6b d6 3d 5e 87 dc 3d 29 84 86 3c
       0.08899352 0.10469725 0.10768007 0.01642044
000040 c2 2c 21 3d e5 29 33 3d 90 dd 31 3b 0c 6b db bc
       0.039349325 0.043741126 0.0027140118 -0.026784442
000050 d1 32 51 3e 0d 67 a3 be 3d 42 b9 bd 5a 48 2d 3d
       0.20429541 -0.3191456 -0.09045837 0.042305328
000060 23 1a 19 be e1 98 46 be 9a af 83 be fd e8 7f be
       -0.14951377 -0.19394256 -0.2571991 -0.24991222
000070 e1 47 d3 be 3f 0e 04 bf 4f 21 e9 bd 08 e8 17 be
       -0.41265777 -0.5158424 -0.11383306 -0.14834607
000080 56 46 9b be 27 b9 e5 3d de b4 a2 3d f6 18 36 3d
       -0.303271 0.11216956 0.07944654 0.0444574
000090 1a bd 30 3e 68 3f ee 3d 5a dc 75 3c aa 7d 81 3e
       0.17259637 0.116331875 0.015006149 0.25291187
0000a0 62 e4 a7 3e ad a2 a8 3e 3e 6b d6 3c d4 21 1a 3e
       0.3279143 0.32936612 0.026174184 0.15051967
0000b0 94 b8 23 3e f3 c1 62 3d 4a 85 7b 3e 52 5e a0 3e
       0.1598838 0.055360746 0.24562564 0.3132196
0000c0 b3 00 58 3e 2a 15 ae 3d a6 2f 6b 3d 5c ac af be
       0.21094017 0.085001305 0.057418488 -0.34311187
0000d0 85 c4 d8 be a9 78 89 be 50 4f 4a be 2f 23 2b be
       -0.42337433 -0.2684987 -0.19756818 -0.1671264
0000e0 dc 7d 10 be 42 c3 f3 3d d7 e0 f8 bc 27 7c 9e bd
       -0.14110512 0.11902477 -0.03038065 -0.07738524
0000f0 aa a7 ae 3c 70 a6 76 3d d9 9d 97 3c e7 a5 c3 3d
       0.021320183 0.06021732 0.018507885 0.09553128
000100 5f 80 e0 3d f0 05 36 bd 99 39 d1 3d 38 e2 f1 3d
       0.10961985 -0.044439256 0.10216064 0.11810726
000110 5c da a6 3d 5c 85 c9 3d 80 5d 1c 3e 67 56 77 3d
       0.081471175 0.098398894 0.15270042 0.060385134
000120 d5 f5 68 3e 16 6f 06 3e d7 84 81 bd 23 20 b5 3d
       0.22750027 0.13128313 -0.06324165 0.0884402
000130 ec 1a ae bd 4a 22 9e 3d a1 85 2b bb eb d3 b0 3c
       -0.08501229 0.07721384 -0.0026172178 0.021585425
000140 cd 83 8b 3e 2f ad cd bb 2e 13 58 bd a9 34 d8 bd
       0.27248994 -0.0062767486 -0.052752666 -0.10556919
000150 12 74 ba 3e e8 13 d5 3e 6b e8 90 3e 13 91 62 3e
       0.3641668 0.4161675 0.2830232 0.22125654
000160 6b cd 05 3e 6f 05 09 3d da 4c 03 3e ab 0e 6a 3d
       0.13066642 0.033452448 0.12822285 0.057142895
000170 f9 45 3b be 79 67 e5 3d ed 70 bc 3d c9 0c 32 3e
       -0.18288411 0.112013765 0.092012264 0.1738769
000180 0e c8 08 be 74 45 c1 bc be 6b 9c 3d 35 e6 51 3d
       -0.13357565 -0.023592688 0.07637738 0.051244933
000190 c2 f4 a9 bc 67 a9 5a bd 1c a7 44 bc ed 18 14 3d
       -0.020746592 -0.05338421 -0.012002733 0.036156584
0001a0 32 39 2f 3c 44 01 06 be 32 75 82 3c f6 26 98 3d
       0.010694789 -0.1308642 0.015925024 0.07429306
0001b0 6d 78 31 be 8e 25 9c bd 1e b3 a9 bd 52 06 cb bd
       -0.17331095 -0.076243505 -0.08286117 -0.09913315
0001c0 56 64 e4 bd 3d c9 99 3d 76 cc c1 bd 83 7e 71 3d
       -0.1115195 0.07509086 -0.09462826 0.05895854
0001d0 11 3a e9 3d de 01 49 3d 6c 8f 3c 3d 27 e6 af bc
       0.113880284 0.049074046 0.046035215 -0.02147205
0001e0 6c db af 3c 37 95 b6 3b 33 06 59 3d 0d 47 ed bd
       0.021466933 0.005571987 0.052984428 -0.115858175
0001f0 43 a1 10 be 33 b2 22 be 30 bc 24 be 67 2a 0d be
       -0.14124016 -0.1588829 -0.16087413 -0.13785706
000200 ca d3 d0 bd 9d f0 f7 bc f2 7f b5 3c 2a 26 e8 3c
       -0.101966456 -0.0302661 0.022155736 0.02833851
000210 66 aa 0a be 6c a3 27 3e 33 aa 4f 3e 66 7a 81 bc
       -0.13541564 0.16370934 0.2027977 -0.015805434
000220 90 e1 cb bd 30 76 61 bd 6c 5a e2 bd 6f ac b2 3c
       -0.09955132 -0.055044353 -0.11052403 0.021810738
000230 b2 79 59 3c 7f 37 91 be 5e fa 41 be d4 b0 60 be
       0.013273643 -0.28362653 -0.18943164 -0.21942455
000240 5e af ac 3c 45 95 09 bd 5c b9 9c bc 60 7f 4d 3d
       0.021079715 -0.03358962 -0.019131355 0.050170302
000250 10 9c bb 3d 5f 29 ee 3b f8 64 ba bd e5 23 f4 3d
       0.09160626 0.0072681154 -0.091012895 0.11920909
000260 11 ef 38 3e 99 b3 5e 3d 58 ca 02 3e 21 03 b6 3e
       0.18059947 0.054370496 0.127725 0.35549262
000270 6d 02 95 bd 4b cf 46 bd d2 9f 36 3e f6 39 2b be
       -0.07275853 -0.048537534 0.17834404 -0.16721329
000280 a1 21 41 be 59 b9 90 bd e8 bb 26 3e f5 8b 53 3e
       -0.18860485 -0.07066602 0.16282618 0.20658858
000290 bc 94 10 3e 1f 76 0e bd 51 12 7e bc 7b 52 30 3d
       0.14119238 -0.034780618 -0.015507297 0.04304741
0002a0 e7 8d 34 be 81 67 0c be 93 f8 70 3b 22 43 81 3d
       -0.17632256 -0.13711359 0.0036769256 0.06311633
0002b0 92 58 ab bc e6 1b 59 be 19 6f b8 3c ff 45 98 3d
       -0.020916257 -0.21202049 0.022513913 0.07435226
0002c0 ef 7b d7 3c 84 a8 6f be 08 bb dc bc 4f 3d 45 be
       0.026304213 -0.23404127 -0.026944652 -0.19261669
0002d0 a6 48 99 3d bb 4b 72 3d bc 0e 0c 3d 5b cf d6 bd
       0.0748456 0.059154253 0.03419374 -0.10488769
0002e0 11 af 6f bc c6 41 56 3d 66 26 20 3e 32 51 9c 3d
       -0.014629141 0.05230882 0.15639648 0.07632674
0002f0 9f 82 1a 3e 0f de 93 3e 1f 27 3a 3e 67 b3 21 bd
       0.1508889 0.28880355 0.18178986 -0.039477732
000300 e3 07 dc be e8 ff 82 be 16 ba 8c be e9 05 2f be
       -0.42974767 -0.25585866 -0.27485722 -0.17092098
000310 ea 2b 66 be 44 f1 38 be 60 c2 48 bd 17 c0 13 bd
       -0.2247769 -0.18060786 -0.049013495 -0.036071863
000320 c1 47 1d be b3 7b 29 bd 4f e0 48 bd 9a ac 7a 3c
       -0.15359403 -0.041377734 -0.049042042 0.0152999405
000330 45 73 f3 be a0 b3 9d be 9b 03 2f be 20 1a 9d bd
       -0.4754888 -0.30801105 -0.17091219 -0.076709986
000340 a8 4b d9 bd 3f 29 96 bd b8 5a c9 3c a2 86 a1 bd
       -0.106101334 -0.07332086 0.02457939 -0.07887007
000350 85 65 38 bd cf d8 6a 3e 5c 3c b1 3c 92 ae 90 bd
       -0.04501869 0.22934268 0.021635227 -0.07064547
000360 6c c2 64 bd 43 ff ec 3d 9a b6 32 3d 24 60 72 3e
       -0.055849478 0.11572125 0.043631174 0.23669487
000370 46 9d 3a 3e c1 f9 53 3e 9c f4 8e 3b d4 25 40 3d
       0.18224058 0.20700742 0.004362656 0.046911076
000380 c4 de 03 3e 10 a8 81 3e 08 fd 36 3e 4d fe ca 3d
       0.12877947 0.25323534 0.17869961 0.09911785
000390 6c 93 f1 bd 59 3e a9 bd 3d fc ec bd 18 0a 27 bd
       -0.117956966 -0.08263845 -0.11571548 -0.04078111
0003a0 e3 69 0b bd f0 89 b3 3c 9f ff d4 bd a4 e7 7a bd
       -0.03403653 0.02191636 -0.10400318 -0.061256066
0003b0 23 c2 cf 3c 30 73 76 be 3f f8 78 be cb 27 28 be
       0.025361126 -0.24067378 -0.24313448 -0.1642143
0003c0 a8 a2 2c bd b6 03 ed 3d ad c4 94 3d cb a6 95 bc
       -0.04214731 0.115729734 0.072640754 -0.01826801
0003d0 46 83 0e 3c 59 25 bf 3c 3b 1c 30 3e 78 48 43 3e
       0.00869829 0.023333238 0.17198269 0.19070613
0003e0 5f 45 2a 3e 88 a7 07 be b9 36 28 be 35 5b ac bd
       0.16628025 -0.13247502 -0.16427125 -0.08415834
0003f0 95 56 85 be 95 3a d6 bd 49 af 36 bd 4f c6 e4 3e
       -0.2604262 -0.104603924 -0.04460076 0.44682547

cell_list.2.conv_gates.weight f4 [20, 20, 3, 3]
000000 85 6b ca be e0 4d a0 3d 16 45 0a 3e 32 40 0d be
       -0.39535156 0.078273535 0.13502917 -0.1379402
000010 fa ec e7 3d b5 7c a4 3e 4f e3 27 be a4 24 78 be
       0.113244966 0.32126394 -0.16395305 -0.24232727
000020 bf 26 0b bf 9d 1e af be f3 37 b1 be 4f 7e a6 bd
       -0.54355997 -0.34203044 -0.34612998 -0.0812956
000030 cc 90 64 be 5f 87 82 be 5b 2b bf 3c 51 aa 6a 3d
       -0.2232086 -0.25493905 0.023336103 0.057291333
000040 25 5b 9d 3e 86 e7 5c 3e d4 c0 86 be ac 2c be be
       0.307336 0.21572694 -0.2631899 -0.37143457
000050 c7 b4 99 be 2f 06 01 3d ae da e9 bd 1f 96 94 bc
       -0.30020735 0.031500038 -0.11418663 -0.01813799
000060 34 8b 17 bd 0f 82 76 be c3 50 9a 3d 0a 68 8e be
       -0.03699799 -0.24073051 0.07534935 -0.2781375
000070 a2 d5 8f be 22 2d e3 3d 81 0f 2f bd 5f 41 f1 bc
       -0.28092676 0.11092593 -0.042739395 -0.029450117
000080 13 7d 99 3d c2 2e b6 3e fe c6 df 3e 5c 40 a0 3e
       0.07494559 0.35582548 0.43706506 0.31299102
000090 ff 58 75 bd d7 ba 09 bd da 29 43 bd f9 22 31 3e
       -0.059899326 -0.03362545 -0.047647335 0.17298497
0000a0 a3 e8 4e 3e 85 e6 de 3e 6f 34 01 3f 4f d3 e5 3e
       0.20205931 0.43535247 0.5047063 0.44887778
0000b0 63 d8 bb 3e 13 ef b0 3d e8 55 88 3e c0 f6 ac 3e
       0.36688527 0.0863935 0.2662804 0.33782005
0000c0 5e 19 84 be f3 50 bd 3d 95 54 22 3e 2a a0 64 be
       -0.25800604 0.092439555 0.15852578 -0.22326723
0000d0 72 2f 35 bd 4c cc 67 3e 95 8f c2 3c 03 80 9a bd
       -0.0442347 0.22636527 0.023750106 -0.075439475
0000e0 bc 84 2e 3c 65 69 81 3c b2 a6 05 3e 8f 48 c8 3e
       0.0106517635 0.015797326 0.1305187 0.39117858
0000f0 36 af 00 bf 9c ec a1 be 0e 11 b3 bd a4 a0 07 be
       -0.5026735 -0.3162583 -0.08743487 -0.13244873
000100 3c 3f 19 be 1f 3a 81 be 25 22 8c be 44 1b a5 be
       -0.14965528 -0.25239655 -0.273698 -0.32247365
000110 e7 db 6f be 6e 64 49 3e 58 66 53 3d b1 86 2f 3e
       -0.2342373 0.19667217 0.051611274 0.17141224
000120 02 36 c6 3c d5 82 04 3d 4b 4e cf bc 69 8d b1 bd
       0.024195675 0.032351334 -0.025305888 -0.0866955
000130 db 82 d6 3d 73 a0 05 bd 43 66 43 3d 28 76 d2 3c
       0.104741774 -0.03262372 0.047704946 0.025691107
000140 0b 9a 84 bd 7e 90 82 3e b3 79 3b be 48 47 cd be
       -0.06474694 0.25500864 -0.18308143 -0.40093446
000150 b4 ae 2c 3e 0e 07 74 3e 17 ee 36 3e 43 87 4c bd
       0.16863519 0.23830816 0.17864262 -0.049933683
000160 fe 40 bc bd 02 71 31 3d 12 fb 5b be 4f 0e b5 bd
       -0.09192084 0.043320663 -0.21482494 -0.0884062
000170 54 ab 7f be ec 6a 03 bd eb f4 a9 3d fa 92 f3 bd
       -0.249677 -0.03208439 0.082986675 -0.11893268
000180 96 aa d5 3d 8a fc 5e 3b 10 ad d0 bd f4 4d 85 3e
       0.10432927 0.0034025037 -0.10189259 0.26036036
000190 25 8c 86 3d e7 c2 cb 3c 81 c1 2f bd 4c 57 3d 3d
       0.06569699 0.02487321 -0.04290915 0.04622583
0001a0 63 d0 e1 3d a5 ce 59 be 64 6a 0c be 32 c0 ab bd
       0.11026075 -0.21270235 -0.1371246 -0.08386268
0001b0 a8 18 01 bd a6 e9 28 be 0c 33 95 3d eb ef 2d bd
       -0.031517655 -0.1649538 0.07285127 -0.04246513
0001c0 49 41 fb bd 10 85 82 3e cb d0 2f bb 64 fb 6d 3d
       -0.122683115 0.25492144 -0.0026827331 0.058101073
0001d0 43 10 42 3e e6 2e 0d be 9f 27 b2 bd 95 15 1b 3e
       0.18951516 -0.13787422 -0.086989634 0.15144952
0001e0 83 5f 3f be 5f f3 0f be d2 ce d0 3c 7b 81 89 be
       -0.18688779 -0.14057682 0.025489245 -0.26856598
0001f0 f7 86 c2 bd 2a 3a 99 bc 80 09 a3 bd 81 ec 7c bd
       -0.09498399 -0.018704493 -0.07960796 -0.061748985
000200 19 05 60 3e 5e 05 a1 3e 84 12 24 3e c3 14 9e 3d
       0.21876945 0.31449407 0.16022688 0.07718804
000210 05 dc 12 3e 67 b0 f1 3d c3 ef 06 3e ef 4c 02 3e
       0.14341743 0.11801224 0.131774 0.1272466
000220 38 23 c7 3d 40 d8 7e bb 4f e1 c4 bc d4 e7 30 be
       0.09723514 -0.003888622 -0.024033217 -0.17275935
000230 c9 70 c3 bd 68 bd d2 bd db 89 3f bd fa 74 37 be
       -0.095429964 -0.102900326 -0.04676233 -0.17915717
000240 88 33 77 be 50 a4 26 be 3b 8d b7 be 43 6a 9d 3d
       -0.24140751 -0.16273618 -0.35849938 0.076862834
000250 4a 58 80 3d 12 02 1f bd 32 86 da bd 75 69 f3 bd
       0.0626684 -0.038820334 -0.10670127 -0.11885349
000260 49 32 07 bd 6d 73 38 bd d5 e3 2d bd 99 46 12 3e
       -0.03300694 -0.045031954 -0.042453606 0.14284743
000270 3d 75 34 3e 40 5f 68 3e 8b e6 ed 3d 3d 50 93 bd
       0.17622848 0.22692585 0.11616238 -0.071930386
000280 2c ba d0 bd 8e 2f 44 be f0 ff 0f 3e b8 b4 3d 3e
       -0.101917595 -0.19158766 0.14062476 0.1852597
000290 f8 77 a4 3e 2e d0 5c 3e 8e d5 11 3e 9e e9 85 3d
       0.3212278 0.21563789 0.14241621 0.065386996
0002a0 ac dc 62 3e 40 2d 45 3e df bb 6c 3e fe fd 99 bd
       0.22154492 0.19255543 0.23118542 -0.07519148
0002b0 b0 b3 bf 3d df 98 6c bc 51 0e 57 3d e3 1d bc 3c
       0.093604445 -0.014440744 0.052503888 0.02296347
0002c0 79 b4 c1 3d 25 27 5d 3e 05 43 ac 3e 11 47 a0 3e
       0.094582506 0.21596964 0.33644882 0.3130422
0002d0 f4 19 56 bf 6c 42 0d bf 75 9d f6 be 2f 22 7c be
       -0.8363335 -0.55179477 -0.48167005 -0.24622415
0002e0 92 ee 96 be 13 76 34 be 48 b4 cb 3d ce 47 4d 3e
       -0.2947889 -0.17623167 0.09946495 0.20046923
0002f0 ec 29 05 3d b5 78 1e 3d 26 51 69 be 20 1f ac be
       0.032510683 0.038689334 -0.22784862 -0.33617496
000300 04 64 de 3e 20 94 5b 3d f0 39 a2 bd 4f ef 8c 3d
       0.4343568 0.05360806 -0.07921207 0.06881582
000310 ab fc b8 3d 13 a9 15 be 9e ee 2c 3f 35 70 17 3f
       0.090325676 -0.14615278 0.675516 0.5915559
000320 53 1c 5a 3e b2 d8 ce 3e 6b 6f a9 3e 96 ba 73 3e
       0.21299867 0.403997 0.33092818 0.23801646
000330 6d b9 a8 be 44 f2 ac be 12 0b 2a bd 91 19 0f bf
       -0.3295397 -0.33778584 -0.041514464 -0.55898386
000340 8e 76 5c bf 29 6e 45 bf 75 4c 3f 3e 4f a9 44 be
       -0.861184 -0.77121216 0.1868151 -0.19205211
000350 95 31 d4 be ef ef 1c 3e df 7e 62 bc a7 9d 73 3e
       -0.41444078 0.15325902 -0.013824194 0.23790608
000360 29 06 dc 3c 11 93 63 be 81 ff 11 bf 9f 3a df 3e
       0.026858406 -0.2222407 -0.57030493 0.43599412
000370 e5 41 48 3e c9 ec 55 3e 85 d2 70 be 0b 29 bb be
       0.19556387 0.20891108 -0.23517807 -0.3655475
000380 ec b9 af be 24 d1 cf 3e c3 fb cc 3e 2a 7e c9 3e
       -0.34321535 0.4058925 0.4003583 0.39354068
000390 d3 3e 90 be b0 04 8d be df 50 3d be 7e cd cd bd
       -0.2817293 -0.2754264 -0.18487881 -0.1004896
0003a0 56 80 ab be 37 70 36 be 24 21 ab bd d7 31 17 3d
       -0.3349635 -0.17816244 -0.083559304 0.036912765
0003b0 6c 57 9c bd 03 3c 93 be 05 73 f3 3c 5b ca 4b 3e
       -0.07633862 -0.28756723 0.029717932 0.19901411
0003c0 c9 42 bc bd 41 91 c3 bd e3 62 40 be f1 8a 13 3f
       -0.09192426 -0.09549189 -0.18787722 0.5763388
0003d0 64 86 6c 3f c6 ac 83 3f 38 f7 03 3f f7 26 1d 3f
       0.92392564 1.0287101 0.515491 0.6138758
0003e0 22 e5 13 3f 87 a9 ba 3e b4 2b c7 3e 2a a5 b5 3e
       0.57771504 0.36457464 0.3890053 0.35477573
0003f0 04 7a ee bc 15 6a 08 b9 b4 e2 59 be b7 5a df 3d
       -0.029110916 -0.0001300949 -0.21277887 0.10905974

cell_list.2.conv_can.weight f4 [10, 20, 3, 3]
000000 b0 a5 32 3c 04 58 f5 bc 26 a8 0e be b7 45 01 3d
       0.010903761 -0.029949196 -0.13931331 0.031560626
000010 e1 2b 29 3e da 0c 06 bd 6b 60 8d 3e 5b 47 ba 3e
       0.16520645 -0.0327271 0.27612624 0.36382565
000020 76 df b0 3e d9 51 d2 bd 57 a6 1e be 48 36 96 be
       0.34545487 -0.102695175 -0.15493141 -0.29338288
000030 ac 80 15 bd b4 c6 c4 bd da 4f 01 be 5c 06 5a 3e
       -0.036499664 -0.09608212 -0.12628117 0.21291488
000040 91 77 c3 3d 6e 2b 41 bd 06 d1 51 be 04 7c 91 be
       0.0954429 -0.04716056 -0.20489892 -0.2841493
000050 ca 9d a9 be 0d f9 73 3d ee 29 32 ba e2 32 53 3d
       -0.33128196 0.059563685 -0.0006796409 0.051562198
000060 d6 d1 b7 3e ab 6f b6 3e 69 dd b3 3e 4a f6 c7 be
       0.3590228 0.3563207 0.3512986 -0.3905509
000070 0d ab a7 be 11 c9 ba be de e0 84 be d5 88 67 bd
       -0.3274769 -0.36481526 -0.2595281 -0.056526978
000080 0a 7c 7a be 3b 9c 61 3e 56 58 9a 3e d7 66 8f 3e
       -0.2446138 0.22032253 0.3014552 0.28008148
000090 34 6a ea bd 25 43 c0 bd 15 66 61 ba 15 97 8a bc
       -0.11446038 -0.09387807 -0.000859828 -0.016917745
0000a0 c0 10 00 be 19 cd 11 3d 99 9e 25 be f9 5c 0c be
       -0.1250639 0.035595987 -0.16173781 -0.13707341
0000b0 f8 42 bc bc 05 ec 87 3e b0 c0 c0 3e e8 fa aa 3e
       -0.022981152 0.26547256 0.3764701 0.3339455
0000c0 f9 bc 57 be fa 5d 51 3d 71 bd 6f bd 3e bc 61 be
       -0.21068181 0.051115014 -0.058530275 -0.22044465
0000d0 4d c1 18 bd 07 46 ea bd 62 72 9d 3e b8 45 93 3e
       -0.03729372 -0.11439138 0.3075133 0.2876413
0000e0 2b c3 47 3e f5 dd ed 3e c5 f5 91 3e e2 20 e9 3d
       0.19508044 0.46458402 0.2850782 0.11383225
0000f0 04 94 47 3e 26 ab 2d bd 4b 4a aa bd 90 bd 7d be
       0.19490057 -0.042399548 -0.083149515 -0.24779344
000100 97 97 7e be 28 c2 b3 bd 42 20 95 bd 65 f4 c6 3c
       -0.24862514 -0.08777267 -0.07281543 0.024286458
000110 42 ca 68 3d 1d 8b b8 3d 98 08 fe 3d 61 aa ce 3d
       0.056833513 0.09010909 0.12403983 0.10091091
000120 b0 63 8c be d4 bc 78 be 22 c8 ab bd 50 f5 5e 3d
       -0.27419806 -0.24290782 -0.08387782 0.054433167
000130 d6 2b 16 3e 2b 4c 3a 3e 86 4f bc 3e 87 f3 a3 3e
       0.1466516 0.18193118 0.36779422 0.32021734
000140 13 fa 03 3f 7c 26 fb 3d da 6b a3 3d 13 34 68 3e
       0.5155346 0.122632 0.079795554 0.22676115
000150 4e 62 4b 3d 09 33 4a be 69 52 ff bd a3 8e 43 bb
       0.049654298 -0.19746031 -0.1246689 -0.0029839657
000160 68 3a 2e 3d bb 3a c4 3e a8 e5 44 3d a4 c9 80 3b
       0.04253617 0.38326058 0.04807058 0.0039302874
000170 86 42 2c 3d d2 6e cc 3d c0 85 a1 bd f2 df 8d 3c
       0.04205563 0.09982075 -0.07886839 0.0173187
000180 69 b9 54 be 96 10 bb bd b1 39 6e 3d 68 96 da 3d
       -0.20773853 -0.09134023 0.058160488 0.10673219
000190 cf 70 ee 3d 4c 7b 42 3e 81 bd 16 bd 15 74 63 3d
       0.1164261 0.18992347 -0.03680182 0.055530626
0001a0 cc 51 fb 3c 00 fe e8 3d 9b 49 d7 3c c6 24 25 be
       0.030678652 0.11376572 0.026280215 -0.16127309
0001b0 73 8a 7f 3e db e8 89 3c 30 49 f5 bd d0 54 d3 bd
       0.24955158 0.016834667 -0.1197685 -0.10318911
0001c0 a0 09 1c be 1c 47 de bd 1e 2c 33 bd 65 4d e9 bd
       -0.15238047 -0.10853407 -0.043743245 -0.11391715
0001d0 b3 b9 d5 bd ca 30 62 bd ca f9 3f bd 13 b1 9a bd
       -0.1043581 -0.05522231 -0.046869077 -0.075533055
0001e0 ef 99 30 3e 7d 57 31 3e 5a ff d6 3d 87 cc d2 3e
       0.17246221 0.1731853 0.10497923 0.41171667
0001f0 7a a6 8f 3e a0 65 89 3e 12 85 84 3d c5 fe f1 3d
       0.280567 0.26835346 0.06470694 0.118161716
000200 13 42 df bc ac 5e 24 3e 46 a4 a1 bc 57 aa c6 bd
       -0.027253186 0.1605174 -0.019731652 -0.097004585
000210 b8 b9 70 3e 9d 7a 6f 3e d0 44 fc 3d f9 be 6f 3c
       0.23508346 0.23386617 0.123178124 0.014632934
000220 40 d4 44 3d e8 61 57 bd 56 1f 39 be 62 5e 3f bd
       0.04805398 -0.052583605 -0.1807836 -0.04672087
000230 59 8a f4 bd 8b d7 1a 3e 80 c8 6f 3e 70 33 33 3e
       -0.1194045 0.15121286 0.23416328 0.1750009
000240 db 3a ac 3d b7 c1 5e b9 f1 db 42 bd 46 c8 06 3e
       0.08409663 -0.00021243734 -0.047573034 0.13162336
000250 7d 98 73 bd 98 05 1e be 3d a0 a3 be 08 65 9c be
       -0.059471596 -0.15431821 -0.3195819 -0.3054583
000260 49 a2 ac be 2c b1 18 3d 99 8c a9 3c 35 4b 76 bd
       -0.33717564 0.03727834 0.020696925 -0.060130317
000270 3c 99 5e 3e dd 61 20 3e 75 e3 5f 3d 65 65 a0 3d
       0.21738142 0.15662332 0.05466028 0.078318395
000280 a2 f9 4b 3e 7e 46 f4 3d 02 4e ff bd 9d e6 3c be
       0.19919446 0.11927508 -0.12466051 -0.18447347
000290 41 bf 80 be c5 77 4d bd 46 53 65 3d 59 75 29 3e
       -0.25145915 -0.05016305 0.05598762 0.16548671
0002a0 93 89 bd 3e 6f 6a a6 3e 4f 23 c4 3e fb b6 8b 3d
       0.37019023 0.32503077 0.38308188 0.0682201
0002b0 e9 e9 65 3d e1 39 56 bd c9 be 46 3e 7a 6d 0d 3e
       0.056131277 -0.05230129 0.19408716 0.13811293
0002c0 e9 85 b7 3d 33 e1 82 be d0 93 ba 3a d0 9c f3 3d
       0.08961088 -0.25562438 0.0014234725 0.11895144
0002d0 45 57 01 3f 27 20 29 3f bf fc ac 3e 5f d1 22 3e
       0.5052379 0.66064686 0.3378658 0.15900181
0002e0 dc 0e 65 3e 51 40 8c 3e c1 3a 56 3d fb 34 31 3e
       0.2236895 0.2739282 0.052302126 0.17305367
0002f0 83 6b 95 bc 5e af c1 3e 91 bc b6 3e 3c c7 99 3e
       -0.018239742 0.37829107 0.3569074 0.30034816
000300 6b 26 f9 3c fd dd 40 3d b7 05 30 bb 27 f1 ed 3c
       0.030413827 0.047086705 -0.0026858875 0.029045654
000310 97 b5 b1 3d e2 94 15 bd 3f 30 87 3e cd f6 fc 3d
       0.08677214 -0.03651894 0.26403996 0.12351761
000320 91 66 41 3e a2 24 20 be 48 31 39 be ad 64 65 be
       0.18886782 -0.15638974 -0.18085206 -0.22401686
000330 59 15 a6 bc 54 d0 2f bd f0 3a 17 be 98 07 9c 3e
       -0.020273851 -0.042923287 -0.14768577 0.30474544
000340 af cd 71 3e ec 69 45 3e ea 63 8b 3e f8 71 6d 3e
       0.23613618 0.19278687 0.27224666 0.23188007
000350 c8 1e ae 3e 05 e8 ad be 5c c6 c4 bd 65 94 99 be
       0.3400786 -0.3396608 -0.096081465 -0.2999603
000360 ca a7 4d 3e 93 24 84 3d d7 60 9a 3d 43 7d a4 bd
       0.20083538 0.064522885 0.07538002 -0.08031704
000370 40 f3 fd bd 7d bb 31 bd 9e 52 76 3d 94 39 4c 3d
       -0.12399912 -0.043391693 0.060137384 0.0498596
000380 86 82 7e bc 9c 76 b9 be 9f 25 94 be d7 2b 81 bd
       -0.015534049 -0.36223304 -0.28934953 -0.0630719
000390 da 0b d0 bc 9d 65 97 3d 36 c5 0a 3e dc af 8f bd
       -0.025396276 0.07392428 0.13551793 -0.070159644
0003a0 25 d4 1f bc fc c8 b9 3d 31 a5 6a be 96 fd 3d be
       -0.009755169 0.09071538 -0.22914578 -0.18553767
0003b0 d3 09 45 bd 9d 7d 74 be d4 a8 26 be 81 d0 70 be
       -0.048105072 -0.23876043 -0.1627534 -0.23517038
0003c0 fb ff 43 bc 0c 90 69 bd c1 75 2a bd 3a 5a 8c 3d
       -0.011962886 -0.05702214 -0.041616205 0.06853147
0003d0 03 7a 26 3d 0f 22 83 bd 82 09 5b 3e b0 c5 07 3e
       0.040643703 -0.064029805 0.21390346 0.13259006
0003e0 ed b0 0d 3d be 1d 3c be 3f 46 6c be 1c 7b 92 be
       0.034592558 -0.1837072 -0.23073672 -0.2860955
0003f0 95 47 96 3e 13 9a 42 3e e1 a9 96 3e 30 ca 7c 3c
       0.29351488 0.19004087 0.29426482 0.015429065

cell_list.3.conv_gates.weight f4 [20, 20, 1, 1]
000000 a8 eb 93 be f4 c4 16 3e a1 0a 03 be df c1 87 3d
       -0.2889073 0.14723569 -0.12797023 0.06628775
000010 e5 97 73 bd d3 e0 de bd 62 a8 ce 3b 0c db c3 3d
       -0.05947103 -0.108827256 0.006306694 0.09563264
000020 d9 b3 80 be 9d 15 cd be ea 34 67 be 20 cb 2c be
       -0.25137213 -0.40055552 -0.22578779 -0.16874361
000030 06 df 86 3e a6 0f 5b be 24 69 0a 3b cf 2c 18 3d
       0.26342028 -0.21392688 0.0021119798 0.037152108
000040 a5 cd 6f bd 57 81 7b be ae 28 66 bd 59 50 08 3e
       -0.058545727 -0.24561058 -0.05619114 0.133119
000050 49 04 65 be 80 f8 d8 3e a1 83 9a 3e 0e 5d c7 bd
       -0.22364916 0.4237709 0.3017855 -0.09734546
000060 28 6e 09 3f 4a e8 30 3d f4 b1 96 be 60 e5 9a 3c
       0.5368371 0.043190278 -0.29432642 0.018908203
000070 f7 89 52 3e 6b d2 43 3e 89 99 11 3d 54 f3 05 3e
       0.20560442 0.19123237 0.035546813 0.13081104
000080 99 6b b9 3d b4 de e0 3d 50 28 6d 3d 18 35 c7 be
       0.09053726 0.10979977 0.057899773 -0.38907695
000090 2d 90 ef bd aa 2d 82 bc 1f c9 db bd 52 6a df 3d
       -0.11697421 -0.015890915 -0.1073172 0.10908951
0000a0 32 08 6e bd 49 2c b2 3e f4 ee b5 3e d3 6c b5 3d
       -0.058113284 0.34799412 0.3553387 0.08858647
0000b0 46 94 c0 be 1d 69 f5 bc 84 0f 65 3e f3 fb cc 3e
       -0.37613124 -0.029957348 0.223692 0.40035972
0000c0 62 6b 70 bd 17 72 c8 be 13 7c 87 bc 0b f5 90 3d
       -0.05869616 -0.39149544 -0.016538655 0.07077988
0000d0 53 80 8c 3e f4 ca bd be 85 e0 e4 3d 5c dd be bd
       0.27441654 -0.37068903 0.11175636 -0.09319565
0000e0 bf 3a bc 3e 44 83 65 bd 8d be 10 bf 8f 14 42 3c
       0.3676357 -0.056033388 -0.5654076 0.011845722
0000f0 27 db 46 3e 97 74 a1 be d7 32 56 be c7 da 6f bd
       0.19419537 -0.31534263 -0.20917831 -0.05855825
000100 b3 b8 9a 3d 2f 73 ca bd 40 0f 97 3e a3 84 06 3b
       0.0755476 -0.09885251 0.29503822 0.0020525835
000110 71 f1 37 3e 2b 09 9b bd 17 1e 3e 3e ed 79 b8 be
       0.17963196 -0.07570108 0.18566166 -0.36030522
000120 25 98 c8 3e 5f ff 41 bd 4d e4 cc bd 99 ac be 3e
       0.39178577 -0.04736268 -0.100044824 0.37241057
000130 10 7f 1b be 70 e4 b8 be ff 22 dd 3d 36 4c 91 3d
       -0.15185189 -0.36111784 0.107976906 0.07094614
000140 19 2c 41 3e 36 dd f5 3c 8c b0 11 bd 44 10 b8 3e
       0.18864478 0.030012708 -0.03556876 0.3594991
000150 3a 11 ba be 95 a9 40 3d ef ad 00 be 5f d6 00 3e
       -0.36341268 0.047036726 -0.1256635 0.12581776
000160 47 bd 27 bf 61 5e 32 bf 08 53 52 bd 43 63 b4 be
       -0.6552319 -0.6967526 -0.051348716 -0.3523198
000170 f3 82 d0 3e b3 fe bc be 4e f5 38 3e 23 c0 05 bd
       0.40724906 -0.3691307 0.18062326 -0.03265394
000180 63 71 8e 3e ef b8 90 3d 60 ee 9c be b0 88 06 3e
       0.27820882 0.07066523 -0.30650616 0.1313808
000190 c0 47 38 3e 8d 74 3d 3e 36 a5 7c bd 74 3d 7c 3e
       0.1799612 0.18501492 -0.061680995 0.24632818
0001a0 ea 01 2e bc b5 c0 9c 3e ae d2 54 be 14 56 42 3d
       -0.010620574 0.30615774 -0.20783493 0.04744537
0001b0 e8 f8 d4 be e5 9d c7 be b9 7e 3b be 9e 60 f9 bd
       -0.4159615 -0.3898765 -0.1831006 -0.121766314
0001c0 af 35 a6 3e a5 a5 da 3c d4 3a 3e 3e 7c 90 06 3e
       0.32462832 0.026690314 0.18577129 0.13141054
0001d0 b4 02 b7 3e 45 40 0c bb 69 5c 4c bd ae 42 0c 3e
       0.3574425 -0.0021400612 -0.049892817 0.13697311
0001e0 90 cf 03 bf 68 e4 a2 be f2 53 20 be e9 a2 d4 be
       -0.5148859 -0.31814885 -0.15657023 -0.4153054
0001f0 05 d8 8c 3e c9 49 bd be 59 56 7e 3c 4c 05 1e bf
       0.2750856 -0.36970356 0.015523517 -0.6172683
000200 d5 22 9d 3e 57 c8 7d be 4d 71 40 3e 8e d7 2d be
       0.30690637 -0.24783455 0.18793221 -0.16976759
000210 a2 19 05 3f 6c 44 e1 3d 2c 84 0c bf 90 a3 15 3e
       0.5199224 0.109993786 -0.5488918 0.14613175
000220 d7 f5 8c be e4 41 c0 be 65 30 ea 3e 28 98 f5 bd
       -0.2753131 -0.3755027 0.45740047 -0.11991912
000230 cd 47 92 be e0 73 fc bd db cc 67 be 0f 45 69 be
       -0.28570405 -0.12326789 -0.2263674 -0.2278025
000240 38 d8 d3 3b b6 08 4d 3e 7c b4 9f bd 28 61 79 bd
       0.0064649843 0.20022854 -0.077980965 -0.06088367
000250 9d 55 83 be 10 6e 3f be f5 52 8f be 04 bf 15 be
       -0.25651255 -0.1869433 -0.2799298 -0.14623648
000260 d1 60 38 bd a2 81 dd be 2c 13 58 3e 42 eb a3 3b
       -0.045014206 -0.43262964 0.21101063 0.00500241
000270 70 58 e7 3e 85 5f a6 3c 80 f6 bf be dc 1c 7d 3e
       0.4518466 0.02030922 -0.37492752 0.2471804
000280 f7 5f c2 3e 1c 04 f7 bd 5e 15 40 bd b5 93 1f 3e
       0.3796384 -0.12061331 -0.046895377 0.1558369
000290 8b da 20 3e 38 22 13 3d 56 a8 87 3d ba be d0 be
       0.15708368 0.035921305 0.066239044 -0.40770513
0002a0 c1 61 89 3d 5f b4 d2 3e fe 77 cd 3e f1 31 d7 bd
       0.06708098 0.41153237 0.4013061 -0.105075724
0002b0 12 3b 83 be e7 26 07 3d b3 99 a1 3d 86 5b dc 3d
       -0.25631005 0.032996085 0.07890644 0.10759644
0002c0 c0 3e ac bc 6f b0 94 3e b6 fc 57 3e ec 24 a9 bd
       -0.021026015 0.29040858 0.21092495 -0.082589954
0002d0 19 e6 32 3e 63 af 8e be eb 00 1c 3d 27 60 28 be
       0.17470588 -0.27868184 0.038086813 -0.16442929
0002e0 15 f2 0c 3b 0f 01 5f 3e 12 d0 80 3e de 2a 46 3d
       0.0021506597 0.21777748 0.25158745 0.048380725
0002f0 ea c9 e0 3d 6f a2 bb be c7 30 bb be 48 23 ae bd
       0.10976012 -0.36647364 -0.36560652 -0.08502823
000300 5b 8e 1d 3d f1 7d 27 3e b8 7f 1d 3e a7 74 0b be
       0.03846584 0.16356637 0.15380752 -0.13618718
000310 c4 3c 0e bd 2d a1 81 bc 9d 46 92 3b 79 6c 13 3e
       -0.03472592 -0.015823925 0.004463984 0.14396848
000320 df 56 ec 3c 04 99 dc bd 8a c3 26 3e 2a e2 4a 3e
       0.028850017 -0.10771373 0.1628553 0.19812837
000330 0d 88 0a 3e 92 85 14 bd f5 7b 1f be 5a 3e 36 bc
       0.13528462 -0.036260195 -0.1557463 -0.011123264
000340 05 00 05 bd eb 89 d4 3d 47 c7 31 be 75 2c 9e 3d
       -0.03247072 0.10377868 -0.17361175 0.07723323
000350 75 fc 27 be 54 66 b0 be e1 36 6e bd 48 61 24 be
       -0.16404898 -0.3445307 -0.058157805 -0.16052735
000360 0c 1c 2e 3e 10 e0 56 3e 72 9f 70 be 97 4b 84 be
       0.17002887 0.2098391 -0.23498324 -0.2583892
000370 10 1c 2e 3e f2 2f 2f 3f f0 99 39 3f 0e 84 12 3e
       0.17002892 0.68432534 0.72500515 0.14308187
000380 f2 3e 32 3e fb 57 b6 3e 53 bc c7 be f4 1f c5 3e
       0.17406824 0.35614 -0.39010867 0.3850094
000390 6b 89 16 bf 61 ff 17 3e 8c ea ad bd ab 20 d1 3e
       -0.58803433 0.14843513 -0.08492002 0.40845236
0003a0 3a 1f b8 3d b6 b3 c6 be b2 12 45 3b 4c 58 f3 be
       0.08990331 -0.38808984 0.0030070958 -0.47528303
0003b0 00 76 1d 3f af 65 a2 3e f2 40 f9 be 7f 20 2d bf
       0.6150818 0.31718203 -0.48682362 -0.6762771
0003c0 89 82 50 3e ae 8f 3e 3f 2b 7e 07 3f ce b7 c2 3e
       0.20362295 0.7443799 0.5292689 0.38030857
0003d0 ba 96 5e bd a5 9a 18 3f 9d 9c 83 bd 04 ce 97 3e
       -0.054342963 0.5961097 -0.06426356 0.29649365
0003e0 7e b2 ff bc 55 f4 8f 3e c1 9d 53 3d fe ba 10 3e
       -0.031213041 0.28116098 0.051664118 0.14133832
0003f0 94 53 c8 3e 6e cf b0 bd 4e 21 88 3e bb 2b 10 bf
       0.39126265 -0.08633314 0.2658791 -0.5631673
