saved_models/4task/random3_15.pt (torch, 140450 bytes, 16 tensors)

cell_list.0.conv_gates.weight f4 [20, 11, 3, 3]
0	0xbdd8a026	-0.10577421
1	0xbe009d4f	-0.12560008
2	0xbbd5e4cb	-0.0065275184
3	0xbd47c2a2	-0.0487696
4	0x3c5d63af	0.013512536
5	0xbd81dc4b	-0.06340846
6	0x3dc57338	0.09641117
7	0x3d8f402c	0.06994662
8	0x3d84ffa8	0.06494075
9	0x3d8c2ea7	0.06844836
10	0x3e4f09e7	0.20218621
11	0x3e039b90	0.12852311
12	0x3e1825c3	0.14858155
13	0x3f19f0a4	0.60132813
14	0x3e80059e	0.25004286
15	0x3d8b9b7b	0.06816765
16	0x3e169896	0.14706644
17	0x3d02642f	0.031833824
18	0x3e0ca528	0.13734877
19	0x3d2d5c3a	0.042324282
20	0x3e0256e4	0.12728459
21	0xbcafcac6	-0.021458995
22	0x3ce269f1	0.027638407
23	0x3cc99988	0.024609342
24	0x3e0eab1e	0.13932464
25	0x3cf1f2a2	0.029534642
26	0x3e2728af	0.16324113
27	0xbd465a9c	-0.048426256
28	0xbcae2f5a	-0.021262813
29	0xbd2de606	-0.042455696
30	0x3d965ce7	0.073419385
31	0xbda14e7e	-0.07876299
32	0x3cffb53d	0.03121435
33	0x3e344d2d	0.17607565
34	0x3e3166fd	0.17324443
35	0x3de78aaf	0.11305749
36	0xbe52b131	-0.20575406
37	0xbddfc013	-0.10925307
38	0xbe694c38	-0.22782981
39	0xbe7ae557	-0.24501549
40	0xbe5ebae9	-0.21750988
41	0xbe3cf21e	-0.18451735
42	0xbe1e3b1c	-0.15452236
43	0xbe48e14e	-0.19617197
44	0xbdcbebff	-0.09957122
45	0xbc5e5499	-0.013569974
46	0xbdec05ee	-0.115245685
47	0xbe6a7a28	-0.22898161
48	0x3d6c3ef1	0.057677213
49	0xbe1a32dd	-0.15058465
50	0xbe0c51a1	-0.13703014
51	0x3cba4df6	0.022742253
52	0xbe026c4c	-0.12736624
53	0xbe81cfbb	-0.25353798
54	0x3e197226	0.1498495
55	0x3e8f9fcb	0.280516
56	0x3e7c2de6	0.24626884
57	0x3e94f0da	0.29090005
58	0x3ebaa7eb	0.36456236
59	0x3ead30e1	0.33826354
60	0x3e44b8d5	0.19211133
61	0x3e862a55	0.26204172
62	0x3e820cba	0.25400335
63	0xbb414de0	-0.002949588
64	0xbc8792bf	-0.016549466
65	0xbdc050a4	-0.09390381
66	0x3b4e9edd	0.0031527795
67	0x3df01b60	0.11723971
68	0x3d3f8bab	0.046764057
69	0xbd0102d3	-0.031496834
70	0xbc8e2c3a	-0.017355073
71	0xbd9f6099	-0.077820964
72	0xbde9dbfc	-0.11418912
73	0xbdb63a9b	-0.08897897
74	0xbe5baec6	-0.2145339
75	0xbe29e26a	-0.16590276
76	0xbde3b539	-0.1111855
77	0xbe6f7e51	-0.2338803
78	0x3d1648bf	0.03669047
79	0x3b49139f	0.003068186
80	0xbd9e4b8e	-0.07729255
81	0xbb859dd0	-0.0040776506
82	0xbd3773d5	-0.0447882
83	0xbc883515	-0.016626874
84	0xbda3439e	-0.07971881
85	0x3c837b6c	0.016050063
86	0xbd55c3f6	-0.052188836
87	0x3c6c5fa6	0.014427101
88	0xbd2fecac	-0.042950317
89	0xbbedd721	-0.0072583114
90	0x3e84bed4	0.2592684
91	0x3eba4fa5	0.3638889
92	0x3ec888cc	0.39166868
93	0x3e9c65ac	0.3054632
94	0x3ede05d5	0.43363824
95	0x3ee13f3f	0.43993565
96	0x3e664f2f	0.22491144
97	0x3e9e5650	0.30925226
98	0x3e34e2a2	0.17664579
99	0x3d1980f2	0.037476487
100	0x3daa9db1	0.083308585
101	0xbd042cf9	-0.03226945
102	0x3d78c1fd	0.060731877
103	0x3e3404f0	0.17580009
104	0xbd7c5eb7	-0.061613765
105	0xbdb2545a	-0.08707495
106	0xbd8c953c	-0.06864402
107	0x3c871dd4	0.016493715
108	0x3dc96e56	0.09835498
109	0xbe06556f	-0.13118528
110	0xbcb90298	-0.022584245
111	0xbd2e853b	-0.042607527
112	0xbdb22482	-0.086983696
113	0xb9e3008f	-0.0004329723
114	0x3cbd5f0a	0.023116607
115	0xbc2aa537	-0.010415367
116	0x3dccabd0	0.09993708
117	0xbe597ab9	-0.21238221
118	0xbe67d08c	-0.22638148
119	0xbe33f70c	-0.1757471
120	0xbe1d33b9	-0.15351762
121	0x3fb91f1d	1.446262
122	0xbe577ec3	-0.2104445
123	0xbe269602	-0.16268161
124	0xbe5c09dc	-0.21488136
125	0xbe03c6c2	-0.12868789
126	0xbda4ebe0	-0.08052802
127	0xbdee2919	-0.116289325
128	0xbdcdcbd1	-0.100486405
129	0x3ad05ca7	0.0015896753
130	0xbdb3cb16	-0.0877897
131	0x3d7eb1ee	0.062181406
132	0xbd813e8e	-0.063107595
133	0xbdb17f16	-0.08666818
134	0xbdcae4d9	-0.099069305
135	0xbdbecfe3	-0.09316995
136	0x3dc65bce	0.09685479
137	0xbc8b2de2	-0.016989652
138	0x3d6ef053	0.05833466
139	0x3e5ef3c3	0.21772675
140	0x3d613e39	0.05499098
141	0x3d276435	0.04086705
142	0x3da3c398	0.07996291
143	0x3cca7a05	0.024716387
144	0xbf6cf299	-0.92557675
145	0xbe87b168	-0.26502538
146	0xbdf36a69	-0.118855305
147	0xbf359cc3	-0.70942324
148	0xbd331735	-0.043723304
149	0x3dcaed6b	0.09908565
150	0xbf3eadcb	-0.7448394
151	0xbe28d3c3	-0.1648703
152	0xbdca7566	-0.09885673
153	0xbd0a8ff1	-0.03382868
154	0xbd6890ca	-0.056778707
155	0x3d9b4ca9	0.07582981
156	0xbcfbcb93	-0.03073672
157	0xbdd5638a	-0.10419376
158	0xbe09e463	-0.13466029
159	0xba6e4c58	-0.00090903556
160	0xbb631e98	-0.0034655686
161	0x3d884218	0.066532314
162	0x3e24177e	0.16024587
163	0x3d825d4b	0.063654505
164	0x3dc23f1a	0.09484692
165	0xbd1042c9	-0.03521994
166	0xbbdb0613	-0.0066840737
167	0xbc04da34	-0.008108664
168	0xbd0e1529	-0.03468815
169	0xbd941739	-0.07230992
170	0x3df57970	0.11986053
171	0xbd17dcb4	-0.037075713
172	0x3d9fa650	0.077953935
173	0x3d4d9934	0.050194934
174	0xbd67791d	-0.056511987
175	0xbb991aef	-0.0046724
176	0x3db08965	0.08619956
177	0x3cd2c60f	0.025729207
178	0x3d9b3d67	0.07580071
179	0xbd37d8b3	-0.044884395
180	0x3e076eb9	0.13225831
181	0x3dfa7015	0.12228409
182	0x3e2351e4	0.15949208
183	0x3cf11bbd	0.029432172
184	0x3e2af8c7	0.16696464
185	0x3df9b2db	0.12192317
186	0x3e31f214	0.17377502
187	0x3e20fa5b	0.15720503
188	0x3e82378a	0.25432998
189	0xbb2d8e32	-0.002648246
190	0xbd75ef01	-0.060042385
191	0x3c85771a	0.016292144
192	0xbe0c1ed4	-0.13683635
193	0xbe232317	-0.15931354
194	0xbda3d9ff	-0.08000564
195	0xbc7c9cd6	-0.015418252
196	0xbd4cb83f	-0.0499804
197	0xbd279269	-0.040911112
198	0xbc052394	-0.008126158
199	0x3e3dad5f	0.18523167
200	0x3e193a64	0.1496368
201	0x3dd0e0f4	0.101991564
202	0x3d7608ea	0.060067095
203	0x3b8dd91c	0.00432886
204	0x3c03dfe5	0.008048986
205	0x3ddf0d7d	0.108912446
206	0x3c952712	0.018207107
207	0xbcece625	-0.028918335
208	0xbe072966	-0.13199386
209	0xbd4ef64d	-0.05052786
210	0xbe081f70	-0.13293242
211	0xbe80569b	-0.25066075
212	0xbde7b0bf	-0.113130085
213	0xbe01f13a	-0.12689677
214	0xbd985371	-0.0743779
215	0x3c12b1ca	0.008953521
216	0x3daf11fe	0.085483536
217	0x3d665191	0.05623013
218	0xbc433e53	-0.011916715
219	0x3e056163	0.13025431
220	0x3d24c05e	0.04022252
221	0x3d504aeb	0.050852697
222	0x3cd0692e	0.025440779
223	0x3d9d579f	0.07682728
224	0xbe1f8499	-0.15577926
225	0xbe22e398	-0.15907133
226	0xbc9e9d5d	-0.019362146
227	0xbd847c7e	-0.064690575
228	0x3c0732bf	0.008251845
229	0x3f289833	0.6585724
230	0xbd925cf6	-0.07146637
231	0xbdc5eace	-0.09663926
232	0x3c3fdab7	0.0117098605
233	0xbe8b161c	-0.27165306
234	0x3d6a5f4d	0.057219792
235	0x3d24cbaf	0.04023331
236	0x3d9d76f5	0.07688705
237	0x3de1abe0	0.11019111
238	0x3e4977f0	0.19674659
239	0x3d8fe4fa	0.07026096
240	0x3de0f563	0.10984304
241	0x3d1347fa	0.035957314
242	0xbd207c96	-0.039181314
243	0xbe129190	-0.1431334
244	0x3dc68baa	0.096946076
245	0x3e994001	0.29931644
246	0xbe77692f	-0.24161218
247	0x3e28c2cf	0.16480564
248	0x3ece8a54	0.4033991
249	0xbe25d982	-0.16196254
250	0x3e1d4d95	0.15361626
251	0x3e86c445	0.26321617
252	0xbe39968a	-0.18123832
253	0xbe02f824	-0.1278997
254	0xbe500e84	-0.20318037
255	0xbe8283b7	-0.25491115

cell_list.0.conv_can.weight f4 [10, 11, 3, 3]
0	0x3d89e073	0.067322634
1	0x3d99c620	0.075084925
2	0x3e4a461f	0.19753312
3	0x3d580c5b	0.052746158
4	0x3e852835	0.26007238
5	0x3e45740f	0.19282554
6	0x3e33432f	0.17506097
7	0x3dbdcef6	0.0926799
8	0xbc89fc4d	-0.01684394
9	0xbdacae4b	-0.08431681
10	0xbd84902d	-0.06472812
11	0xbe0e7f83	-0.1391583
12	0x3ca9b3d4	0.020715632
13	0xbe467062	-0.19378808
14	0xbe9bdcff	-0.30442044
15	0x3da11651	0.07865585
16	0x3cca2961	0.024677934
17	0xbe4bbfbf	-0.19897364
18	0xbe030f6c	-0.12798852
19	0xbe930c6a	-0.2872041
20	0xbe924a8d	-0.28572503
21	0xbe80289c	-0.25030982
22	0xbef625a7	-0.480756
23	0xbecde110	-0.40210772
24	0xbde7005e	-0.11279367
25	0xbeb7a5bf	-0.35868642
26	0xbe678df6	-0.22612748
27	0xbdfb8232	-0.12280692
28	0xbe85d065	-0.26135555
29	0xbe9c57fe	-0.30535883
30	0xbd78610a	-0.06063942
31	0xbe70a812	-0.23501614
32	0xbeaaf020	-0.33386326
33	0xbac22255	-0.0014811257
34	0xbd86ff66	-0.06591682
35	0xbdd3b9f1	-0.103382
36	0x3e1d63d2	0.1537011
37	0x3e8aa345	0.2707769
38	0x3e805170	0.25062132
39	0x3db30cc9	0.08742673
40	0x3e3706b7	0.17873655
41	0x3e72a1f2	0.2369459
42	0x3dce424a	0.100712374
43	0x3e279a5c	0.16367477
44	0x3d80e636	0.06293909
45	0xbe720459	-0.23634471
46	0x3cbc9ade	0.023023065
47	0x3c718578	0.014741294
48	0xbd4f832c	-0.050662205
49	0x3e674b74	0.22587377
50	0x3e548d9b	0.20757143
51	0x3d81c4e6	0.063363835
52	0x3e9bd1b9	0.30433443
53	0x3d9a9072	0.07547082
54	0xbee43bf9	-0.44577006
55	0xbefdf4b5	-0.4960076
56	0xbea34c6d	-0.31894246
57	0xbe929307	-0.28627798
58	0xbf0e4c5b	-0.5558526
59	0xbefd2be8	-0.4944756
60	0xbe75ce33	-0.2400444
61	0xbecc005e	-0.3984403
62	0xbeabce9d	-0.3355607
63	0x3d8231d4	0.0635716
64	0x3e895935	0.26825872
65	0x3e9c98c8	0.30585313
66	0x3e38a632	0.18032148
67	0x3ec0ce8a	0.37657577
68	0x3eb6560e	0.3561253
69	0x3d9c1f18	0.07623118
70	0x3dde1e2a	0.10845597
71	0x3d8dc695	0.06922642
72	0x3cc15ff6	0.023605328
73	0x3e0e7320	0.13911104
74	0x3e2443e1	0.16041519
75	0x3dec5100	0.11538887
76	0x3e4ad9a0	0.1980958
77	0x3dfe4903	0.1241627
78	0x3ca63b4d	0.020291949
79	0x3dc5e62d	0.09663043
80	0x3acaf619	0.001548472
81	0x3dd0782f	0.10179173
82	0x3e86dd73	0.26340827
83	0x3eebdecd	0.4606842
84	0x3e82bd36	0.2553498
85	0x3ec69cf7	0.3879163
86	0x3ef8b5a4	0.4857608
87	0x3e695808	0.22787488
88	0x3eaa89d4	0.3330828
89	0x3eb7dbd3	0.359099
90	0xbedac9a6	-0.4273197
91	0xbecf8b19	-0.4053581
92	0xbe8413a0	-0.25796223
93	0xbee68228	-0.45021176
94	0xbeb9eefe	-0.3631515
95	0xbea90115	-0.33008638
96	0xbe9b8214	-0.3037268
97	0xbeb164de	-0.34647268
98	0xbe2ef017	-0.17083775
99	0xbd075d4f	-0.03304797
100	0xbea624be	-0.32449907
101	0xbe5c4dbf	-0.21514033
102	0xbe924e79	-0.28575495
103	0xbea38069	-0.31933907
104	0xbe36285d	-0.17788835
105	0xbe61f989	-0.22067846
106	0xbec2f51b	-0.38077626
107	0xbd9d4a91	-0.07680238
108	0x3e7c8a0d	0.24662037
109	0x3e264cad	0.16240187
110	0x3e47a554	0.19496661
111	0x3db3bf21	0.08776689
112	0x3e83eb41	0.25765422
113	0x3e5be72f	0.21474908
114	0x3e240ae9	0.16019787
115	0x3e85b224	0.26112473
116	0x3e1b94cc	0.1519348
117	0xbef9200a	-0.48657256
118	0xbebcb7af	-0.3685889
119	0xbebecf72	-0.37267643
120	0xbeeecd0e	-0.4664082
121	0xbec3848b	-0.3818706
122	0xbee3d1ea	-0.4449609
123	0xbebfdbb2	-0.37472302
124	0xbf027906	-0.5096592
125	0xbea94518	-0.33060527
126	0xbe2243bb	-0.1584615
127	0xbe9719fb	-0.2951201
128	0x3a48b69f	0.0007656607
129	0xbe874f47	-0.2642767
130	0xbe8bf2f8	-0.27333808
131	0xbe3ec11b	-0.18628351
132	0xbe6417ab	-0.22274654
133	0xbe45d222	-0.1931844
134	0xbea8005c	-0.32812774
135	0xbecabc8a	-0.3959697
136	0xbee3d69e	-0.44499677
137	0xbf040b47	-0.5157971
138	0xbebaa604	-0.36454785
139	0xbec2d57d	-0.38053504
140	0xbeb0d2be	-0.34535784
141	0xbf04a8f0	-0.5182028
142	0xbed55046	-0.41662806
143	0xbf07f868	-0.5311341
144	0xbeaa73a4	-0.33291352
145	0xbeb27977	-0.34858295
146	0xbf11156a	-0.566733
147	0xbe6421cd	-0.22278519
148	0xbe39cfa2	-0.18145612
149	0xbeb0fefa	-0.34569532
150	0xbec2424d	-0.37941208
151	0xbea3f91d	-0.32025996
152	0xbed597b6	-0.4171731
153	0x3f0599b6	0.5218767
154	0x3efdb912	0.4955526
155	0x3edf304b	0.43591532
156	0x3eb80151	0.35938504
157	0x3ea69735	0.32537237
158	0x3f025bb6	0.5092119
159	0x3f0177f0	0.50573635
160	0x3f10d6e5	0.56577903
161	0x3ef056a3	0.469411
162	0x3e2c503f	0.16827486
163	0x3b30b60e	0.0026963982
164	0x3ce58639	0.028018104
165	0x3e9026cf	0.2815461
166	0x3e945fdb	0.28979382
167	0x3e633ab5	0.22190364
168	0x3e933590	0.28751802
169	0x3eb75fc8	0.35815263
170	0x3ecf5ece	0.40502018
171	0xbea25c3a	-0.31710988
172	0xbeb48968	-0.35261083
173	0xbecaa746	-0.39580745
174	0xbe773940	-0.24142933
175	0xbe6e9699	-0.23299636
176	0xbe3d7d0b	-0.18504731
177	0xbe943fe4	-0.28954995
178	0xbe0bc82c	-0.13650578
179	0xbe283135	-0.16425021
180	0x3e9939fc	0.2992705
181	0x3ead139d	0.33804026
182	0x3eb94da3	0.36192045
183	0x3ecb9045	0.39758506
184	0x3edf94f9	0.43668345
185	0x3e411481	0.18855478
186	0x3e664a41	0.22489263
187	0x3e424a7d	0.18973728
188	0x3ebcfe7b	0.36912903
189	0x3e58ab71	0.2115915
190	0x3ed3be7c	0.41356266
191	0x3ebd523f	0.3697681
192	0x3e07cf6b	0.13262717
193	0x3e8a9b25	0.2707149
194	0x3e2e6b57	0.17033134
195	0x3e1d7b07	0.15378962
196	0x3ec14f93	0.37756023
197	0x3e36f1c3	0.17865662
198	0x3d02dbc5	0.03194787
199	0x3c3e3486	0.011609202
200	0x3d028d6a	0.031873144
201	0xbe301876	-0.17196831
202	0xbe8ff40f	-0.2811589
203	0xbd9efefc	-0.07763478
204	0xbcd93da4	-0.02651865
205	0xbd55b5b3	-0.052175235
206	0x3caeec84	0.021353014
207	0x3e22f012	0.15911892
208	0x3e4f4d50	0.20244336
209	0x3e5e98b9	0.21737947
210	0x3e0969a8	0.13419211
211	0x3e5ca8dc	0.2154879
212	0x3e0585e4	0.13039356
213	0x3e4c6f91	0.19964434
214	0x3e99a309	0.30007198
215	0x3e04d4aa	0.1297175
216	0x3e6daae2	0.23209718
217	0x3e057bb9	0.13035478
218	0x3e34cd3e	0.17656419
219	0x3ea1ad5f	0.31577584
220	0x3e69f62c	0.22847813
221	0x3e52fae7	0.20603524
222	0x3e878a1c	0.26472557
223	0x3e84353c	0.25821865
224	0x3e32ac3e	0.17448518
225	0x3e1dd3b8	0.15412796
226	0x3e41dea1	0.18932582
227	0x3d55639f	0.05209696
228	0x3e950385	0.29104248
229	0x3e711760	0.23544073
230	0x3e39a79a	0.18130341
231	0x3e7638c6	0.24045095
232	0x3e33f68c	0.17574519
233	0x3e25258e	0.16127607
234	0xbe1fc949	-0.15604128
235	0xbe1fde19	-0.15612067
236	0xbdf190e2	-0.11795212
237	0xbe868262	-0.2627135
238	0xbe5a3fe6	-0.21313438
239	0xbdcf35aa	-0.101176575
240	0xbe430242	-0.1904383
241	0xbe934297	-0.28761742
242	0xbe5f06ed	-0.21779986
243	0x3e23566e	0.15950939
244	0x3e739f9c	0.23791355
245	0x3ebb4c21	0.3658152
246	0xbd9a600f	-0.07537853
247	0xbd9115cb	-0.07084235
248	0x3e0130ba	0.12616244
249	0xbe171254	-0.14753085
250	0xbe005895	-0.12533791
251	0xbcb4e82a	-0.02208336
252	0x3ec871b5	0.39149252
253	0x3ebdb8cb	0.37055048
254	0x3ea4b341	0.3216801
255	0x3ecdd48e	0.4020123

cell_list.1.conv_gates.weight f4 [20, 20, 3, 3]
0	0x3f09c016	0.53808725
1	0x3f194c96	0.59882486
2	0x3ed27915	0.41108003
3	0x3e2245ad	0.15846892
4	0x3e8ffb9a	0.28121644
5	0x3e96d013	0.29455623
6	0x3decfc04	0.11571506
7	0x3e9edf66	0.31029814
8	0x3eac5659	0.33659628
9	0xbdcc997b	-0.099902116
10	0xbe1d8ac9	-0.15384974
11	0x3b9219eb	0.004458656
12	0xbdb66b82	-0.08907224
13	0x3ce8b927	0.0284086
14	0xbe14c806	-0.14529428
15	0x3e2299a4	0.15878922
16	0x3e980141	0.29688457
17	0x3dcafecf	0.09911882
18	0x3e0fbfdf	0.14038037
19	0x3dbc13bc	0.091834515
20	0x3d3b6f9e	0.045760743
21	0x3e8f4334	0.2798096
22	0x3e142a8b	0.14469354
23	0x3da9a353	0.08283105
24	0x3edab5a8	0.42716718
25	0x3ca30fc8	0.019904986
26	0xbe870535	-0.2637116
27	0x3e989dcd	0.29807892
28	0x3f231ba8	0.63714075
29	0x3f314555	0.6924642
30	0x3f142d71	0.5788184
31	0x3f1057ac	0.56383777
32	0x3ed7a309	0.42116573
33	0x3f1774dc	0.5916269
34	0x3eec8d26	0.46201438
35	0x3e885f32	0.26635128
36	0x3ef5a8a3	0.47980222
37	0x3e855faa	0.26049548
38	0x3d80b581	0.06284619
39	0x3f3123e4	0.6919539
40	0x3edd6a66	0.43245238
41	0x3e403ea5	0.18773897
42	0x3e96829d	0.29396525
43	0x3ec0e513	0.3767477
44	0x3d05b061	0.03263891
45	0xbe0d1a95	-0.13779671
46	0xbb3ff462	-0.002928995
47	0xbe0c049a	-0.1367363
48	0xbe04d12e	-0.1297042
49	0xbd40dc56	-0.04708513
50	0xbd77e131	-0.060517494
51	0xbe71562f	-0.23568033
52	0xbe9e008f	-0.308598
53	0xbe369720	-0.17831087
54	0x3da842f9	0.08215899
55	0x3be3de06	0.0069539575
56	0x3de6b4be	0.112649426
57	0xbbe0d1bf	-0.006860941
58	0x3d95fb00	0.07323265
59	0x3e8d3234	0.27577364
60	0x3e4971cc	0.19672316
61	0x3e50f889	0.20407309
62	0x3e548582	0.20754054
63	0x3f4af496	0.7927946
64	0x3f2ef463	0.68341655
65	0x3f17e52e	0.59334075
66	0x3f2fd78e	0.68688285
67	0x3f12443a	0.57135355
68	0x3eb568dc	0.35431564
69	0x3ecf1960	0.40449047
70	0x3f0289cb	0.50991505
71	0x3eba36b2	0.36369854
72	0x3ed4487b	0.41461548
73	0x3ebc6458	0.36795306
74	0x3e0a38ce	0.13498232
75	0x3eb10c2f	0.34579608
76	0x3dccdf77	0.1000356
77	0xbe16d5b9	-0.14729966
78	0xbcb3fbdf	-0.021970687
79	0x3c105b55	0.008810838
80	0xbda1b059	-0.07894964
81	0x3f2a8b1f	0.6661853
82	0x3f146543	0.57967013
83	0x3ee5b0ac	0.44861352
84	0x3f1a50ec	0.60279727
85	0x3eb4c39d	0.3530549
86	0x3e85d818	0.2614143
87	0x3d976b6b	0.07393535
88	0x3e2e0af8	0.16996372
89	0x3d6931f1	0.056932393
90	0x3edc1112	0.42981774
91	0x3e88bf69	0.26708534
92	0x3da37d67	0.07982903
93	0x3ed65d28	0.41867948
94	0x3e367495	0.1781791
95	0x3d8e3bd3	0.06945004
96	0x3e4bd71c	0.19906276
97	0x3e18dd85	0.14928253
98	0x3b5dd7f5	0.0033850644
99	0x3eeaa90d	0.458321
100	0x3ef251e8	0.47328115
101	0x3e83570c	0.2565235
102	0x3ebf0a90	0.37312746
103	0x3ed97d87	0.42478582
104	0x3e84694d	0.25861588
105	0xbd5af603	-0.05345727
106	0x3e3296f1	0.17440392
107	0x3d7548d7	0.05988392
108	0xbd8650df	-0.06558394
109	0x3d84f5a3	0.06492164
110	0x3e1d3b41	0.15354635
111	0xbd70487c	-0.058662876
112	0x3d0f2ded	0.034955908
113	0x3da29b85	0.07939819
114	0x3e8a9a6f	0.27070948
115	0x3e28073e	0.16409013
116	0x3e027fa8	0.1274401
117	0xbe97f5fb	-0.29679856
118	0xbe9fe3b9	-0.31228426
119	0xbdd94a8d	-0.106099226
120	0xbe0964aa	-0.13417307
121	0xbe317dee	-0.17333195
122	0x3c821ec0	0.015883803
123	0x3d4a6255	0.049410183
124	0xbd1742ba	-0.03692887
125	0xbdd981a2	-0.106204286
126	0xbe0069f3	-0.12540416
127	0xbd367918	-0.044549078
128	0x3c939699	0.018016146
129	0x3ce385bc	0.02777373
130	0xbd6261c3	-0.055269014
131	0x3d88949f	0.06668972
132	0x3e7d7ca2	0.24754575
133	0x3eb0f5d2	0.34562546
134	0x3ea847f5	0.328674
135	0x3e61a362	0.22034982
136	0x3e382676	0.17983422
137	0x3daf26ee	0.08552347
138	0xbcc922f5	-0.024552802
139	0x3e28361e	0.16426894
140	0x3c864793	0.016391551
141	0xbc779e19	-0.015113377
142	0x3e25f933	0.16208343
143	0x3dc5dad4	0.09660879
144	0x3e5e72c8	0.21723473
145	0xbde28a98	-0.11061591
146	0xbe29c200	-0.16577911
147	0x3d1646eb	0.036688726
148	0xbe0ac8ad	-0.13553114
149	0xbd370e5e	-0.044691436
150	0x3e1d1858	0.15341318
151	0xbca0fd54	-0.019652046
152	0x3a62348b	0.00086290453
153	0x3e115c70	0.14195418
154	0x3dfe8e4d	0.124294855
155	0x3dbb3240	0.09140444
156	0x3d23cccd	0.039990235
157	0x3e13ed84	0.14446074
158	0x3e022d92	0.12712696
159	0x3d8e0b34	0.069357306
160	0xbbb86c1c	-0.005628122
161	0x3e0a7df3	0.13524608
162	0xbe7d39f2	-0.24729136
163	0xbe434284	-0.19068342
164	0x3d9a2a3e	0.07527588
165	0xbd82da8b	-0.0638934
166	0xbdcdd2c3	-0.10049965
167	0xbd92b6c1	-0.07163764
168	0x3ea60ace	0.32430118
169	0x3cf6f03a	0.030143846
170	0xbcdbf811	-0.026851686
171	0xbe001650	-0.12508512
172	0x3d5fda41	0.054651503
173	0x3bf0e112	0.007351049
174	0xbda7bde0	-0.08190513
175	0x3d826840	0.0636754
176	0x3dc1ee33	0.09469261
177	0xbd819612	-0.06327452
178	0x3dae8b76	0.08522694
179	0xbda23aac	-0.07921347
180	0x3f688274	0.90824056
181	0x3f4e1a7e	0.80509174
182	0x3ed43f00	0.41454315
183	0x3f94127e	1.1568143
184	0x3f72c9d3	0.9483921
185	0x3f17f0a8	0.5935159
186	0x3f71a662	0.94394505
187	0x3f37f128	0.7185235
188	0x3ee2efce	0.4432358
189	0x3e089f08	0.13341916
190	0x3dbd711e	0.09250091
191	0xbe1e583c	-0.15463346
192	0x3e2760e2	0.16345552
193	0x3d87bdb3	0.06627979
194	0xbe11486a	-0.1418778
195	0xbe1e8eb0	-0.15484118
196	0xbd7c134b	-0.061541837
197	0xbe672e88	-0.22576344
198	0x3e8b2a11	0.27180532
199	0x3e300dc4	0.17192751
200	0x3e0de4fc	0.13856882
201	0x3f0207d3	0.5079319
202	0x3ea09d00	0.31369781
203	0x3d9a6aaa	0.07539876
204	0x3ec81a12	0.3908239
205	0x3dddc817	0.1082918
206	0xbe8da7f2	-0.27667195
207	0x3ec92e6e	0.39293236
208	0x3eb0296c	0.34406602
209	0x3f058ccf	0.5216798
210	0x3f03b4d4	0.51447797
211	0x3efc7463	0.49307546
212	0x3ef4f66a	0.4784425
213	0x3f1a2ea4	0.6022742
214	0x3edefbf2	0.43551594
215	0x3e9ceede	0.3065099
216	0x3ecab8be	0.39594072
217	0x3eb6ecb0	0.35727453
218	0x3d46822a	0.048463978
219	0x3f2def6a	0.6794344
220	0x3ec3f1fe	0.38270563
221	0x3e4ad1e2	0.19806626
222	0x3f57920e	0.84207237
223	0x3f3743c0	0.71587753
224	0x3eb44cc6	0.35214823
225	0xbd919713	-0.07108893
226	0xbd4d416e	-0.050111227
227	0xbe533985	-0.2062741
228	0xbe802474	-0.25027812
229	0x3c61b110	0.013775125
230	0x3cc82058	0.024429485
231	0xbd1b5687	-0.037924316
232	0x3acfc434	0.001585132
233	0xbd91755d	-0.071024634
234	0x3cb53801	0.022121431
235	0x3e0ce847	0.13760482
236	0xbd10b5f4	-0.035329774
237	0x3bd2279e	0.006413414
238	0x3e6d338a	0.23164192
239	0x3dcd3a51	0.100208886
240	0xbc1187a2	-0.008882435
241	0x3da8189f	0.08207821
242	0x3d543480	0.05180788
243	0x3f043e56	0.5165762
244	0x3eb2ede6	0.34947127
245	0x3f09c6d3	0.53819007
246	0x3f39c3f9	0.72564656
247	0x3ed35716	0.4127738
248	0x3ede3aaf	0.43404147
249	0x3f74c408	0.9561162
250	0x3f53ae84	0.82688165
251	0x3f3b0394	0.73052335
252	0x3d19af3d	0.037520636
253	0x3ee99e72	0.45628697
254	0x3ee153dc	0.44009292
255	0x3e4660ad	0.19372816

cell_list.1.conv_can.weight f4 [10, 20, 3, 3]
0	0x3e977f57	0.2958934
1	0x3eb55a12	0.3542028
2	0x3e5d4a00	0.2161026
3	0x3e30e621	0.17275287
4	0x3e447d7e	0.19188496
5	0x3dc5fbc1	0.09667159
6	0xbe37e866	-0.17959747
7	0xbe38354f	-0.17989086
8	0xbcf4b625	-0.02987201
9	0xbe7338f6	-0.23752198
10	0xbc387e8f	-0.011260643
11	0xbe689313	-0.22712354
12	0xbe8fdcd5	-0.2809817
13	0xbe6f0e5a	-0.23345318
14	0x3c11ef3a	0.008907134
15	0x3e9c4425	0.3052074
16	0x3e04b2d4	0.12958843
17	0x3ef0da67	0.47041628
18	0xbb5576db	-0.0032572064
19	0xbdfb316d	-0.122652866
20	0xbc7c5c6d	-0.015402895
21	0xbe839358	-0.25698352
22	0xbd2c2cd4	-0.04203494
23	0xbd4f5d83	-0.05062629
24	0x3bd52c0d	0.0065054954
25	0x3dd1ad1a	0.10238095
26	0xbdb32890	-0.08747971
27	0xbeae6fd0	-0.3406968
28	0xbe387de3	-0.18016772
29	0x3c5a9bf9	0.013342851
30	0xbcef5b3f	-0.029218314
31	0x3e73df0c	0.23815554
32	0x3eba97bf	0.36443898
33	0x3def22f1	0.116765864
34	0x3e0a6d30	0.13518214
35	0x3d925763	0.07145574
36	0x3e0dedab	0.13860194
37	0x3dc9caeb	0.09853157
38	0x3e37e91f	0.17960022
39	0x3e697f73	0.22802524
40	0x3e7ed742	0.24886802
41	0x3eab2e0a	0.33433563
42	0xbe4729a4	-0.19449478
43	0x3e395a02	0.18100742
44	0x3ea38388	0.31936288
45	0x3e3e771b	0.18600123
46	0x3e815add	0.25264636
47	0x3d7b1999	0.06130371
48	0xbd133d7e	-0.035947315
49	0xbdedfaa3	-0.11620071
50	0xbdb64f87	-0.089018874
51	0xbda75f89	-0.08172519
52	0x3c297036	0.010341695
53	0x3deb0153	0.11474862
54	0xbded0579	-0.115733095
55	0xbc634a23	-0.013872656
56	0xbcdcd9a1	-0.026959242
57	0x3d4355ea	0.047689356
58	0x3cfb75a6	0.030695748
59	0xbd1d0d4f	-0.03834277
60	0x3d358cb7	0.04432365
61	0x3d7e2786	0.06204941
62	0x3d57d43c	0.052692637
63	0x3c231657	0.009954057
64	0x3eb7c12f	0.35889575
65	0x3f01ba98	0.50675344
66	0x3e170c83	0.14750867
67	0x3edef905	0.43549362
68	0x3f048f0a	0.5178076
69	0xbd5019cf	-0.050805863
70	0x3e0adaf4	0.13560086
71	0x3ec5a962	0.3860579
72	0xbcce54b1	-0.025186868
73	0xbd275e8c	-0.04086165
74	0x3dcd3b01	0.1002102
75	0x3e13a5a3	0.14418654
76	0x3da78381	0.08179379
77	0x3e79fea6	0.24413547
78	0xbda40278	-0.080082834
79	0xbe1bf9d0	-0.15232015
80	0xbe3d715c	-0.18500274
81	0x3e81a19c	0.2531861
82	0x3dd54290	0.104130864
83	0x3e79a5d7	0.24379669
84	0x3da5728d	0.080784895
85	0x3e1912c8	0.1494857
86	0x3e7e1873	0.24814014
87	0xbe6d1b38	-0.23154914
88	0xbd715777	-0.058921304
89	0xbd2ae74c	-0.04172449
90	0xbb2b3b3e	-0.002612784
91	0x3e19b524	0.15010506
92	0xbc8498a7	-0.016186072
93	0x3db89895	0.09013478
94	0xbd50a411	-0.050937716
95	0xbcecca6c	-0.028905116
96	0xbdce9aee	-0.10088144
97	0xbcfc45db	-0.030795028
98	0xbc2d124a	-0.0105634425
99	0x3e36b0d5	0.17840894
100	0x3e5d1821	0.21591236
101	0x3e6512cf	0.22370456
102	0x3eac4815	0.33648744
103	0x3eb66159	0.35621145
104	0x3e5a3b24	0.21311623
105	0xbdc3f96e	-0.09569059
106	0x3d899264	0.06717375
107	0x3e2d4c0a	0.16923538
108	0x3e806ea9	0.25084427
109	0x3e82a107	0.2551348
110	0x3dd35a82	0.10319997
111	0xba36af48	-0.0006968868
112	0xbcd0f41f	-0.025507031
113	0xbd478994	-0.04871519
114	0xbea46763	-0.32110128
115	0xbe42f642	-0.19039252
116	0xbdae8faf	-0.08523499
117	0x3e33f812	0.175751
118	0x3e035bf6	0.12828049
119	0xbd3c01e9	-0.04590026
120	0x3d743c7f	0.059628006
121	0xbd57f92f	-0.052727874
122	0xbe18238d	-0.14857312
123	0xbc2cc4c2	-0.010544958
124	0xbe260f37	-0.16216742
125	0xbe96693d	-0.29377165
126	0x3e2a2456	0.16615424
127	0x3dd8d8bf	0.10588216
128	0x3e014f6c	0.12627953
129	0x3ddedc86	0.10881905
130	0xbd709274	-0.05873342
131	0x3d0ba036	0.034088336
132	0x3d0e9ee5	0.034819502
133	0x3d8469fb	0.06465527
134	0x3ca4deb1	0.020125719
135	0xbdd9e5f2	-0.10639562
136	0xbe68b2eb	-0.22724502
137	0x3c9ec156	0.0193793
138	0x3e2462b0	0.16053271
139	0x3dae67a1	0.085158594
140	0x3d4d57d1	0.050132576
141	0x3dbab485	0.091164626
142	0x3d6d0633	0.05786724
143	0x3d00f672	0.03148503
144	0x3e3d6e83	0.18499188
145	0x3e361656	0.17781958
146	0xbddbc67f	-0.107312195
147	0x3d1d6daa	0.038434662
148	0xbd2042df	-0.039126273
149	0xbe5a394c	-0.2131092
150	0xbe6d7021	-0.23187305
151	0xbe5660e0	-0.20935392
152	0xbe7303cd	-0.23731919
153	0xbdafebb3	-0.08589878
154	0xbd60ce4e	-0.054884247
155	0x3cf0e703	0.02940703
156	0x3d3bc5d2	0.045842953
157	0xbd248df6	-0.040174447
158	0x3dfd64e0	0.12372756
159	0xbda8bb16	-0.08238809
160	0x3cbde6c7	0.023181332
161	0x3c2f5923	0.010702404
162	0x3c661922	0.014044078
163	0x3d1d1aba	0.038355567
164	0xbbd24902	-0.0064173946
165	0xbe0803cd	-0.132827
166	0xbddbeb51	-0.107382424
167	0xbe22a0df	-0.1588168
168	0x3e051967	0.12997971
169	0x3c18510b	0.009296666
170	0xbbc96965	-0.006146597
171	0xbb2e39e7	-0.0026584805
172	0x3be3c7ae	0.006951294
173	0x3e2f7b3c	0.17136854
174	0x3dc7df4e	0.09759389
175	0x3ddd1798	0.10795516
176	0x3e5879b1	0.21140172
177	0x3b4fa663	0.0031684868
178	0x3d81c3dc	0.06336185
179	0x3cc9028d	0.02453735
180	0x3d5138eb	0.05107967
181	0x3dcbc72f	0.09950101
182	0x3dc59cf5	0.09649078
183	0x3cd31176	0.025765162
184	0x3d731b5e	0.05935227
185	0xbc3e58d4	-0.011617858
186	0xbe4bdb18	-0.19907796
187	0xbe671ca9	-0.22569527
188	0xbd92c14b	-0.07165774
189	0xbc83d40e	-0.016092326
190	0x3e369d94	0.17833549
191	0xbe29fbaa	-0.16599908
192	0xbcff2a84	-0.031148203
193	0x3cdc546e	0.026895728
194	0xbe8a930b	-0.2706531
195	0xbca021fe	-0.019547459
196	0x3e538a29	0.20658173
197	0x3edab656	0.42717236
198	0x3dceff51	0.101072915
199	0x3e1edaec	0.155132
200	0xba671241	-0.0008814671
201	0x3dfa6451	0.12226165
202	0x3c8ece32	0.017432306
203	0x3e106895	0.14102395
204	0x3d021d43	0.031766187
205	0x3c536890	0.012903348
206	0x3d48c220	0.049013257
207	0xbc452ca8	-0.012034573
208	0xbc735f43	-0.014854255
209	0xbc139bef	-0.009009345
210	0xbdb3856e	-0.08765684
211	0xbd4f22e3	-0.05057038
212	0x3b189ef9	0.0023288114
213	0x3ec32a83	0.3811837
214	0x3e9f90fd	0.31165305
215	0xbda8e64d	-0.082470514
216	0x3a8f38f8	0.0010927012
217	0x3da770b9	0.08175797
218	0xbe0dc708	-0.13845456
219	0x3ef3589d	0.47528544
220	0x3ea9523c	0.33070552
221	0xbb182b6a	-0.0023219236
222	0x3e2adb29	0.16685165
223	0x3e874b0d	0.26424447
224	0x3e2feb3b	0.17179577
225	0x3d5e9f4b	0.054351132
226	0x3e5231c7	0.20526801
227	0x3dbf2f78	0.09335226
228	0x3dbc09b4	0.09181538
229	0x3db01498	0.08597678
230	0xbd7c2a86	-0.06156399
231	0xbe1f279b	-0.15542452
232	0xbd7e9bff	-0.06216049
233	0x3d97e0de	0.07415937
234	0x3d392e83	0.045210373
235	0x3d0ad280	0.033892155
236	0x3d8190e3	0.06326463
237	0x3d32c95e	0.04364907
238	0x3bc08b63	0.005875991
239	0x3dbabd2b	0.09118112
240	0x3cfb5b7d	0.030683273
241	0x3c9267a5	0.017871687
242	0x39630c8d	0.00021653083
243	0x3eb5ef32	0.35534054
244	0x3e97f3b7	0.29678127
245	0x3e8d1b3c	0.2755984
246	0x3ed0f12e	0.40809005
247	0x3ef41d7e	0.4767875
248	0x3ed5f55c	0.41788757
249	0x3ee322d4	0.4436251
250	0x3ec71ea4	0.38890564
251	0x3ea28025	0.31738392
252	0xbc9670a6	-0.018364262
253	0xbd9a5b9f	-0.075370066
254	0xbec31000	-0.38098145
255	0xbdd6f22e	-0.10495411

cell_list.2.conv_gates.weight f4 [20, 20, 3, 3]
0	0xbd71f9e0	-0.05907619
1	0xbf090e8a	-0.5353781
2	0xbee9a137	-0.4563081
3	0x3e073f84	0.13207823
4	0x3c915ab4	0.017743446
5	0xbda6251a	-0.08112545
6	0x3e742a66	0.23844299
7	0x3de22a63	0.11043241
8	0x3e6af73d	0.22945876
9	0xbe7ef9eb	-0.24900024
10	0xbed37cb4	-0.41306078
11	0x3c05a50b	0.008157025
12	0xbdec724c	-0.11545238
13	0xbf31951a	-0.69368136
14	0xbe246711	-0.16054942
15	0x3e58016f	0.21094297
16	0xbefda999	-0.49543455
17	0xbeeb8082	-0.4599648
18	0xbdda060f	-0.10645687
19	0x3e3926dc	0.1808123
20	0xbeb9b9d7	-0.36274597
21	0xbf211ceb	-0.6293475
22	0xbe04d794	-0.12972862
23	0x3e433d25	0.19066294
24	0xbf545556	-0.8294271
25	0xbf0de37f	-0.55425256
26	0xbf07d2c4	-0.5305598
27	0xb9a7d735	-0.00032013064
28	0xbf8c0dda	-1.0941727
29	0xbeb55025	-0.35412708
30	0x3d5192cf	0.0511654
31	0xbf00cb38	-0.5031009
32	0xbebdf5b1	-0.3710151
33	0xbf417f4c	-0.75584865
34	0xbf2a4d78	-0.6652446
35	0xbed0f745	-0.40813652
36	0xbdd763a1	-0.105170496
37	0x3ee0c407	0.43899557
38	0xbc82cbfa	-0.015966404
39	0x3e08c451	0.13356139
40	0x3f3ee1fc	0.74563575
41	0x3e6c1972	0.23056582
42	0x3dbc5f3a	0.091978505
43	0x3f0bb995	0.5458005
44	0x3ed8036b	0.42190108
45	0x3e9cee0a	0.3065036
46	0xbd04aec1	-0.03239322
47	0xbec4e7fc	-0.3845824
48	0x3e03342c	0.1281287
49	0x3eaaf8e5	0.33393016
50	0x3d893960	0.067003965
51	0x3e8f59f9	0.2799833
52	0xbe27ced7	-0.16387497
53	0xbe7daa49	-0.2477199
54	0x3dd9ef41	0.10641337
55	0xbeb988c0	-0.36237144
56	0xbe2a3c7f	-0.1662464
57	0xbddcac41	-0.10775042
58	0xbf265688	-0.64975786
59	0xbe32eb54	-0.17472583
60	0xbe7e758d	-0.2484953
61	0xbefc786d	-0.49310628
62	0xbd0e493b	-0.034737807
63	0x3cf4cba9	0.029882269
64	0xbe1a8dbc	-0.1509313
65	0x3f0f6b1b	0.56022805
66	0x3e36007b	0.17773621
67	0xbde1aa9c	-0.11018869
68	0x3ebf3a0f	0.37348983
69	0x3f55fdef	0.83590597
70	0x3ea222aa	0.31667072
71	0x3f4df086	0.80445135
72	0x3e82fddb	0.255843
73	0x3f06e37e	0.52690876
74	0x3f168236	0.58792436
75	0x3e42d126	0.19025096
76	0x3e205e16	0.15660891
77	0x3e944d9b	0.28965458
78	0x3dcf64b6	0.10126631
79	0xbdcc73d9	-0.09983034
80	0x3c8f3aa1	0.017484011
81	0x3dbecf5e	0.09316896
82	0x3d90753c	0.07053611
83	0x3dce71bd	0.100802876
84	0xbb980bad	-0.0046400637
85	0xbe3e1897	-0.18564068
86	0xbe8d062b	-0.27543768
87	0xbd4ff963	-0.050774943
88	0x3e1db270	0.154001
89	0xbdb129c9	-0.08650548
90	0xbe27684c	-0.1634838
91	0xbe17d7a4	-0.14828354
92	0x3d0da454	0.034580544
93	0xbe336781	-0.17519952
94	0xbe75ebf5	-0.24015792
95	0xbdd484ae	-0.10376869
96	0xbd83163d	-0.06400726
97	0xbe152168	-0.14563525
98	0xbcbecb01	-0.02329016
99	0x3e407ca7	0.18797551
100	0xbe42abfd	-0.19010921
101	0x3ec3830c	0.38185918
102	0x3eae4c98	0.3404281
103	0xbe747a9c	-0.23874897
104	0x3e889907	0.2667925
105	0x3d8d7a29	0.06908066
106	0xbdd00f75	-0.10159198
107	0x3e71673a	0.23574534
108	0x3db81311	0.08988012
109	0x3e255cf6	0.16148743
110	0x3e5905c1	0.21193601
111	0x3e072dd7	0.1320108
112	0x3df6331e	0.120214686
113	0x3e36328e	0.17792723
114	0x3e0f0789	0.13967718
115	0x3e489adf	0.19590329
116	0x3e1e41df	0.15454815
117	0x3cdeae62	0.027182762
118	0x3d2937e9	0.041313086
119	0xbd927e7a	-0.0715303
120	0xbe373c69	-0.17894138
121	0x3dcb1781	0.099165924
122	0xbd858601	-0.065197
123	0xbd85efb8	-0.06539863
124	0x3e710486	0.23536882
125	0xbc9ced1a	-0.019156028
126	0x3dee9daa	0.11651166
127	0x3e947b32	0.2900024
128	0x3dcb75cb	0.099345766
129	0x3e17430a	0.14771667
130	0x3e1b695d	0.15176912
131	0x3e5262d0	0.20545506
132	0x3e6bd699	0.23031081
133	0x3cc5d6cf	0.02415028
134	0x3d9e66f5	0.07734481
135	0x3e229a1a	0.15879098
136	0xbd884c9c	-0.06655237
137	0x3f082638	0.5318332
138	0x3e5b6425	0.21424921
139	0xbe3b61bb	-0.18299
140	0x3ef4216a	0.47681743
141	0xbd067255	-0.03282388
142	0xbe4ad555	-0.19807942
143	0x3d85206d	0.06500325
144	0xbdbec3b6	-0.09314673
145	0xbe4c4dde	-0.19951579
146	0xbeb1ce84	-0.3472787
147	0xbdd7071f	-0.10499405
148	0xbe5a0348	-0.21290314
149	0xbe75aaa6	-0.23990878
150	0x3c482894	0.012216706
151	0xbc1e8344	-0.009674851
152	0x3c4a9aa8	0.0123659745
153	0x3e948227	0.29005548
154	0x3ea371fe	0.31922907
155	0x3e60ce8f	0.21953796
156	0x3df12601	0.11774827
157	0x3ead234c	0.33815992
158	0x3e7aaa59	0.24479045
159	0xba916e6f	-0.0011095534
160	0xbc6ed8c7	-0.014578051
161	0x3da5a32b	0.080877624
162	0xbe0427e9	-0.1290585
163	0xbee2a67f	-0.4426765
164	0xbd275cd1	-0.04086
165	0x3e3568e4	0.17715794
166	0xbdc646a8	-0.09681445
167	0xbddac503	-0.10682108
168	0x3dcdd2ef	0.10049998
169	0x3cc537fe	0.02407455
170	0x3e64193a	0.22275248
171	0x3e2703da	0.16310063
172	0x3e426eea	0.18987623
173	0x3e09a103	0.13440327
174	0x3e33c5fa	0.17555991
175	0x3ea177dc	0.31536758
176	0x3ea4a71c	0.32158744
177	0x3da331ed	0.07968507
178	0x3e51c862	0.20486596
179	0x3e6e5e7f	0.23278235
180	0x3e0a3b80	0.1349926
181	0x3c123b37	0.008925251
182	0xbe7d32b8	-0.24726379
183	0x3e8c7548	0.27433228
184	0xbe9c6356	-0.30544537
185	0xbe647075	-0.22308524
186	0x3db93368	0.09043008
187	0xbe9a0c93	-0.30087718
188	0xbe9de82d	-0.308412
189	0xbe978712	-0.29595238
190	0xbe5c3b82	-0.21507075
191	0xbd0a4302	-0.03375531
192	0xbe06fc67	-0.13182221
193	0xbec3618e	-0.38160366
194	0xbf27c89a	-0.6554047
195	0x3e1077d1	0.14108206
196	0x3d972409	0.0737992
197	0xbeaa1af2	-0.33223683
198	0xbe74078e	-0.23831007
199	0x3d14cdd9	0.036329124
200	0x3c8d71e6	0.017266225
201	0xbd205d3c	-0.039151415
202	0x3e4543f5	0.19264205
203	0x3e63b2a6	0.22236118
204	0xbe6a3657	-0.22872292
205	0x3d790cd7	0.06080326
206	0x3c97638f	0.01848009
207	0xbd667262	-0.056261428
208	0xbdd93b5b	-0.10607024
209	0xbefd9112	-0.49524742
210	0x3e95ff58	0.29296374
211	0x3e97616a	0.2956651
212	0x3e1fc271	0.15601517
213	0x3e4783b4	0.19483835
214	0x3e5059b7	0.20346723
215	0xbe5510aa	-0.20807138
216	0xbda69a15	-0.081348576
217	0x3eb43d9c	0.35203254
218	0xbdebca71	-0.11513222
219	0xbe4eb73b	-0.20187084
220	0x3dcb0353	0.099127434
221	0x3e073ea6	0.13207492
222	0xbe265602	-0.16243747
223	0x3e52080a	0.20510879
224	0xbcff4ba8	-0.031164005
225	0x3e8ec06a	0.27881175
226	0x3e6a29ea	0.22867551
227	0xbdc8b9c0	-0.09801054
228	0x3c62c304	0.013840441
229	0xbe9b81be	-0.30372423
230	0xbec2b157	-0.38025925
231	0x3dcee8de	0.1010301
232	0xbe079004	-0.13238531
233	0xbde56762	-0.11201359
234	0xbdbc5611	-0.09196103
235	0x3e9d076f	0.30669734
236	0x3ee9b0c1	0.45642665
237	0x3e4708cd	0.19436951
238	0x3d23788d	0.039909888
239	0x3e8f3bae	0.2797522
240	0x3f420230	0.7578459
241	0x3ea74e2f	0.32676837
242	0x3e93fed4	0.28905356
243	0xbe3dadb0	-0.18523288
244	0xbf581eb1	-0.8442183
245	0xbf19f74b	-0.60142964
246	0x3b4efeda	0.003158501
247	0xbee5753a	-0.44816
248	0xbe488406	-0.19581613
249	0xbe355f37	-0.17712103
250	0xbf1fef18	-0.62474203
251	0xbdda308c	-0.10653791
252	0x3d2d8435	0.04236241
253	0x3eb8a6ba	0.36064702
254	0x3e9fadf8	0.31187415
255	0xbe3a8415	-0.18214448

cell_list.2.conv_can.weight f4 [10, 20, 3, 3]
0	0x3d17f959	0.03710303
1	0x3e974e1c	0.2955178
2	0x3d6ee68d	0.05832534
3	0xbc62272b	-0.013803284
4	0xbb59ac6a	-0.003321434
5	0x3c6b5884	0.0143643655
6	0x3e73d0d0	0.23810124
7	0xbd6024a5	-0.054722447
8	0xbdd225a7	-0.10261088
9	0xbe33cced	-0.17558642
10	0x3dd75048	0.10513359
11	0x3d81ab44	0.063314945
12	0x3c82518e	0.015908029
13	0x3e5da5fb	0.21645348
14	0x3eb40ee7	0.3516762
15	0xbdd69aba	-0.104787305
16	0xbc9bc04d	-0.019012595
17	0x3e02ff6b	0.12792747
18	0xbcd46e38	-0.025931463
19	0xbd38302d	-0.04496782
20	0xbde6c07d	-0.11267183
21	0xbdfaf224	-0.12253216
22	0xbd5c21b7	-0.05374309
23	0xbd314dd1	-0.043287102
24	0x3d7cbf45	0.061705846
25	0x3e0d8b45	0.13822658
26	0xbdd51e0e	-0.10406123
27	0xbdc28b26	-0.09499197
28	0x3dd9f564	0.10642508
29	0xbdad83f9	-0.084724374
30	0xbe3c3ebf	-0.1838331
31	0xbce0afd1	-0.027427586
32	0xbd2b54f5	-0.04182907
33	0xbda7c2ef	-0.081914775
34	0xbdb30c0d	-0.08742533
35	0x3db5d3eb	0.08878311
36	0xbd8fc3a4	-0.07019737
37	0xbdd5c4b2	-0.10437907
38	0xba59ea55	-0.0008312811
39	0x3dbfcbb4	0.09365025
40	0xbe72682b	-0.2367255
41	0xbd0b0489	-0.033939872
42	0x3dbadbdf	0.09123968
43	0xbdcee611	-0.101024754
44	0x3d3d09ad	0.046151806
45	0xbdd3bab6	-0.10338347
46	0x3da5821d	0.08081458
47	0x3e9ed53a	0.31022054
48	0xbe3e5a77	-0.18589197
49	0x3d8fc874	0.07020655
50	0x3dbdb1d6	0.09262435
51	0xbd2a74e8	-0.041615397
52	0xbcae68de	-0.021290239
53	0x3e21f6b7	0.1581677
54	0xbe047f65	-0.12939222
55	0x3e258679	0.16164578
56	0x3e627c48	0.22117722
57	0xbc694cb8	-0.014239483
58	0x3dd46da5	0.103724755
59	0x3c4630b8	0.012096576
60	0xbdaeeab0	-0.08540857
61	0xba91d24a	-0.0011125293
62	0xbd6dc16f	-0.0580458
63	0x3dec3e5d	0.11535332
64	0x3e6528d1	0.22378851
65	0xbdec7096	-0.115449116
66	0x3d91a455	0.07111422
67	0x3eaa2a86	0.33235568
68	0x3e3fcb7c	0.18729967
69	0xbcb47388	-0.022027746
70	0x3e77ee5e	0.24212024
71	0x3db45f57	0.08807247
72	0xbe135a09	-0.14389814
73	0xbe95f8ce	-0.29291385
74	0xbe29e273	-0.1659029
75	0x3c4bea9b	0.012446071
76	0x3c894188	0.01675488
77	0xbd37d334	-0.044879153
78	0xbd8454bd	-0.06461475
79	0xbe5e42cc	-0.21705168
80	0xba756d3b	-0.0009362285
81	0x3d965e8c	0.07342252
82	0xbdae4f7d	-0.08511255
83	0xbe4aa68c	-0.19790095
84	0xbd389637	-0.04506513
85	0xbe098cd5	-0.1343263
86	0xbe21feb9	-0.15819825
87	0xbdb30b59	-0.08742399
88	0xbe8edbdc	-0.27902114
89	0xbe52415c	-0.20532745
90	0xbcee9915	-0.02912573
91	0xbd960d1e	-0.07326721
92	0xbdd470c6	-0.10373072
93	0xbe8f20fb	-0.2795485
94	0x3bc79a77	0.0060914117
95	0x3d86abc3	0.0657573
96	0xbe9baa7b	-0.30403504
97	0xbd2b2b10	-0.041789114
98	0x3dd6be82	0.10485555
99	0x3de351f1	0.110996135
100	0x3d9b6bec	0.07588944
101	0x3e0e90bb	0.13922398
102	0x3db9d6ff	0.090742104
103	0xbc9f4d4b	-0.019446036
104	0x3e2328ff	0.15933608
105	0x3e203cf8	0.15648258
106	0x3d158d34	0.036511615
107	0x3e3a5ef2	0.18200281
108	0xbd0e9ef1	-0.034819547
109	0xbe35bc6e	-0.17747661
110	0xbc1b5d06	-0.009482628
111	0xbe1dfc0a	-0.15428177
112	0xbe12a21f	-0.14319657
113	0x3e14c1be	0.14527032
114	0x3da0c132	0.07849349
115	0xbc4b8be5	-0.01242349
116	0x3e8bac5f	0.27279946
117	0xbc6f8e8f	-0.014621391
118	0xbe2f147d	-0.1709766
119	0xbc950a97	-0.018193526
120	0xbd625846	-0.055259965
121	0xbe106429	-0.14100708
122	0xbc6c5854	-0.014425356
123	0x3aabd5e8	0.0013110014
124	0xbe6b00f1	-0.22949578
125	0xbd943c51	-0.07238067
126	0x3d6a0c3a	0.057140566
127	0x3d574a87	0.05256131
128	0x3e5696b4	0.20955926
129	0x3e0c915b	0.13727324
130	0x3d3b1352	0.045672722
131	0x3dfa178e	0.12211524
132	0xbe3edc88	-0.18638813
133	0x3dd853e9	0.105628796
134	0x3d30490f	0.043038424
135	0x3e0e1bcf	0.13877796
136	0x3d1894c0	0.037251234
137	0x3bebe392	0.0071987594
138	0x3e8ca00f	0.27465865
139	0x3e0d407e	0.13794133
140	0x3df06586	0.11738114
141	0x3dde3cfe	0.10851477
142	0x3e0db571	0.13838746
143	0x3e297159	0.16547145
144	0xbda53eba	-0.08068605
145	0xbd811640	-0.06303072
146	0xbd9237f1	-0.07139576
147	0xbd965927	-0.07341223
148	0xbde4ebb4	-0.11177769
149	0xbe0b24d4	-0.13588268
150	0xbe091d29	-0.1339003
151	0xbe03aca7	-0.1285883
152	0xbe8b27f1	-0.2717891
153	0x3d3f4571	0.046697084
154	0xb95354ec	-0.00020154164
155	0x3dd53af1	0.10411633
156	0x3e092d0c	0.1339609
157	0xbbb0ce3c	-0.005395679
158	0x3e0ce501	0.13759233
159	0x3c450c1d	0.012026814
160	0x3cb24011	0.021759065
161	0x3e29a399	0.16566314
162	0xbe27a768	-0.16372454
163	0xbc171990	-0.009222403
164	0xbddeb823	-0.10874965
165	0xbe9dfd1c	-0.3085717
166	0xbe25a858	-0.161775
167	0xbea8e347	-0.329859
168	0xbe9cfd12	-0.30661827
169	0xbe91bc2a	-0.2846387
170	0xbeba5cc8	-0.3639891
171	0x3df67ff1	0.12036122
172	0x3c6be7ff	0.014398574
173	0x3ea350d5	0.31897607
174	0x3e228d99	0.15874328
175	0x3e074527	0.13209973
176	0x3e9a8da2	0.30186182
177	0x3e84b742	0.25921065
178	0x3ec5af58	0.3861034
179	0x3cc192b5	0.023629526
180	0xbe84914a	-0.25892097
181	0xbe1b601f	-0.15173386
182	0xbdb12b75	-0.08650867
183	0xbed53943	-0.4164525
184	0xbb5c08b7	-0.003357453
185	0x3e9604a9	0.2930043
186	0xbd87e048	-0.06634575
187	0x3de7df7f	0.11321925
188	0x3e5f0933	0.21780853
189	0x3e2f42a9	0.17115273
190	0x3d13b789	0.036063705
191	0xbd704730	-0.05866164
192	0x3e81924c	0.25306928
193	0xbcb24d2e	-0.021765318
194	0xbd27d4c8	-0.04097441
195	0xbe59504d	-0.21222039
196	0xbdac3ca4	-0.08410004
197	0x3d04abbc	0.03239034
198	0x3d68c9e1	0.05683315
199	0xbe108b9a	-0.14115754
200	0x3e3a7a9d	0.18210836
201	0x3d0c381b	0.034233194
202	0xbd2d12a3	-0.0422541
203	0x3d97136b	0.073767506
204	0x3da902f0	0.082525134
205	0xbd1d8d8d	-0.03846507
206	0xbd8913f4	-0.06693259
207	0x3d47415c	0.048646316
208	0x3d57a450	0.052646935
209	0xbe041f4e	-0.12902567
210	0x3e1a7ab3	0.15085869
211	0x3dcf753d	0.10129783
212	0x3d0eb921	0.03484452
213	0xbe81e69f	-0.25371262
214	0x3d3e3f6c	0.046447203
215	0x3ca75c9c	0.020429902
216	0x3dc32a26	0.095295236
217	0xbd4ff974	-0.050775006
218	0xbb1ff501	-0.0024407508
219	0x3e7a508a	0.24444786
220	0xbce5814a	-0.028015751
221	0x3e093794	0.13400108
222	0x3eb3a9f3	0.35090598
223	0x3e3f438a	0.18678108
224	0x3d85ad2b	0.0652717
225	0xbd5c54cd	-0.05379181
226	0xbd81a28d	-0.06329832
227	0x3d9ba43b	0.07599684
228	0xbe287d9c	-0.16454166
229	0x3d85effc	0.06539914
230	0x3e2991b5	0.16559489
231	0x3da73161	0.08163715
232	0xbd9ed0aa	-0.07754643
233	0x3b4dd0a9	0.0031404889
234	0x3dee1dc0	0.11626768
235	0x3da0f396	0.0785896
236	0xbd793487	-0.06084111
237	0x3c2efc49	0.010680267
238	0x3b908bb5	0.0044111856
239	0xbe1057c4	-0.1409598
240	0xbeeb72c3	-0.45985994
241	0xbe336a46	-0.17521009
242	0xbdc52566	-0.09626274
243	0x3ed86523	0.4226466
244	0x3d239c13	0.039943766
245	0xbe8a61c7	-0.27027723
246	0x3e0882de	0.13331172
247	0x3d37ba8e	0.044855647
248	0xbddd0e4e	-0.10793744
249	0x3e064e1c	0.13115734
250	0x3ed9e6e7	0.42558977
251	0xbc3b4de4	-0.011432145
252	0x3e4201d8	0.18946016
253	0x3c7738c6	0.015089219
254	0xbda45740	-0.08024454
255	0xbcae933b	-0.02131044

cell_list.3.conv_gates.weight f4 [20, 20, 1, 1]
0	0xbd986a7d	-0.07442186
1	0x3e157c49	0.14598192
2	0xbe96e52b	-0.29471716
3	0xba2a7eae	-0.0006503862
4	0xbe4b3616	-0.19844851
5	0xbd355606	-0.04427149
6	0x3d880f03	0.06643488
7	0xbdae5e9f	-0.08514141
8	0xbe03077b	-0.12795822
9	0x3e6e74d0	0.23286748
10	0x3d60d5a7	0.054891255
11	0x3c09dbaa	0.008414188
12	0x3d8ee589	0.06977374
13	0xbdef8543	-0.116953395
14	0xbdd27d30	-0.10277784
15	0xbdb34316	-0.0875303
16	0xbe43d355	-0.19123586
17	0xbde648f0	-0.112443805
18	0x3d94f72b	0.07273706
19	0x3e8ee3a3	0.27908048
20	0x3d19eb9e	0.037578218
21	0x3dd4f232	0.103977576
22	0x3e0de0f6	0.13855347
23	0xbdb005aa	-0.0859483
24	0x3edea080	0.43481827
25	0xbe2ee8de	-0.1708102
26	0xbe27a256	-0.1637052
27	0x3d8dedf8	0.069301546
28	0x3efe8622	0.4971171
29	0x3e3638fb	0.17795174
30	0xbe0d2afe	-0.13785931
31	0x3c4b0ae9	0.012392738
32	0x3ec06957	0.37580368
33	0x3eb6bf00	0.35692596
34	0xbd3a7f9d	-0.045531858
35	0xbe0c2f25	-0.13689859
36	0x3e05c5a0	0.13063669
37	0x3ed398e5	0.41327587
38	0xbe345850	-0.17611814
39	0x3e776c8b	0.241625
40	0xbe07ad29	-0.13249649
41	0x3e2a0749	0.16604342
42	0xbab0875b	-0.0013468073
43	0xbd9428fa	-0.07234378
44	0xbd92c8c3	-0.071671985
45	0xbdcd8805	-0.10035709
46	0x3def64e6	0.11689167
47	0xbe5f78ef	-0.21823476
48	0x3eec24fa	0.4612196
49	0x3e246379	0.16053571
50	0x3e2f9d76	0.1714991
51	0xbdab7b46	-0.08373122
52	0x3d695ef0	0.056975305
53	0xbde926a6	-0.11384325
54	0x3e8b4e7d	0.2720832
55	0x3e2bd89f	0.16781853
56	0x3de228f4	0.110429674
57	0xbdab855f	-0.08375048
58	0xbe219a63	-0.1578155
59	0x3e86b11f	0.26307008
60	0x3e4522fe	0.1925163
61	0x3e42a17c	0.19006914
62	0xbd3e03cf	-0.04639035
63	0x3e9d538a	0.30727798
64	0x3d35fbfa	0.044429757
65	0x3e34bfdc	0.17651314
66	0x3e16e0c5	0.1473418
67	0xbe0585d0	-0.13039327
68	0x3dce70ce	0.100801095
69	0x3e44efbe	0.1923208
70	0x3e56d1cf	0.20978473
71	0x3ea8234a	0.32839423
72	0x3e04a0e3	0.12951998
73	0x3c4b0698	0.012391709
74	0x3e579b6a	0.2105538
75	0xbe62106b	-0.22076575
76	0xbd933db8	-0.07189506
77	0xbeb2ac3f	-0.34897038
78	0x3d2fbd01	0.042904858
79	0xbec5b7d3	-0.3861681
80	0xbd6e60e6	-0.05819788
81	0x3e70b9d9	0.23508395
82	0x3def4018	0.11682147
83	0x3ea2178d	0.31658593
84	0xbe015d29	-0.12633194
85	0x3e08a8fc	0.13345712
86	0xbea9f5c0	-0.33195305
87	0xbc8e0709	-0.017337339
88	0x3dce1d16	0.100641415
89	0xbe56722c	-0.2094199
90	0xbd5b729d	-0.0535761
91	0x3d3d5847	0.046226766
92	0x3e4f4457	0.20240913
93	0xbe02ed2b	-0.12785785
94	0x3e00fa6e	0.12595531
95	0xbe9b975e	-0.30388921
96	0x3dbc8ef8	0.092069566
97	0xbd403d3b	-0.046933394
98	0xbe99a9b0	-0.30012274
99	0xbe101551	-0.14070632
100	0x3e5cc262	0.21558526
101	0x3e734367	0.2375618
102	0xbe891495	-0.26773515
103	0x3d16da27	0.03682914
104	0xbe252bdd	-0.16130014
105	0x3ec4b21f	0.38417146
106	0x3d9850cd	0.074372865
107	0xbe44e5eb	-0.19228332
108	0xbd5cd6ce	-0.05391579
109	0x3e90ca2b	0.28279242
110	0x3e037746	0.12838468
111	0x3e973605	0.295334
112	0x3dc28818	0.09498614
113	0x3b43c8c8	0.0029874314
114	0x3e8ccd5a	0.2750042
115	0xbc4ee8cc	-0.012628745
116	0xbd842c8f	-0.064538114
117	0xbe8ed26a	-0.27894908
118	0x3ea286f8	0.31743598
119	0x3ddd497f	0.10805034
120	0xbaa2e21a	-0.0012427003
121	0x3c8c6b0c	0.017140888
122	0xbdb5f952	-0.08885445
123	0xbe54f42f	-0.20796274
124	0xbecd077d	-0.40044776
125	0x3e9427ac	0.28936517
126	0xbe0a060a	-0.13478866
127	0xbe9650f2	-0.2935863
128	0x3eb35a9f	0.35030076
129	0x3d00de71	0.031462137
130	0x3bbd6960	0.005780384
131	0x3d9573ff	0.07297515
132	0x3e8c1a01	0.2736359
133	0xbcdd1905	-0.02698947
134	0xbe7c8d3c	-0.24663252
135	0x3ddc72ce	0.10764085
136	0x3ccb9d90	0.024855405
137	0xbcc17f30	-0.023620218
138	0x3e1340b9	0.14380158
139	0xbdc05d4e	-0.093927965
140	0xbe7d1eda	-0.247188
141	0xbd8a2f46	-0.06747298
142	0xbc16c47e	-0.009202121
143	0xbe1e0e11	-0.15435053
144	0x3e396999	0.18106689
145	0xbc4e0e75	-0.012576689
146	0x3b81e7b9	0.003964391
147	0xbdb922dc	-0.09039852
148	0x3dd79ff4	0.105285555
149	0x3c72e628	0.014825381
150	0xbe77f37f	-0.2421398
151	0xb98467b0	-0.00025254255
152	0xbd17fc4b	-0.03710584
153	0xbdf91314	-0.12161842
154	0x3e608d15	0.21928819
155	0x3c7b49b7	0.015337399
156	0x3e862d81	0.26206592
157	0x3de2721e	0.110569224
158	0xbe581856	-0.21103033
159	0x3de98cbc	0.11403796
160	0x3deefc83	0.116692565
161	0xbd3b1f9c	-0.045684442
162	0x3e3dbfe6	0.18530235
163	0x3e9ced85	0.30649963
164	0x3e88e5ad	0.2673773
165	0x3bbfd8a4	0.005854683
166	0xbdef3da6	-0.116816804
167	0x3de1474f	0.10999929
168	0x3e7ee509	0.24892057
169	0x3e6faa43	0.23404793
170	0xbd0d50b3	-0.03450079
171	0xbe1586c1	-0.14602186
172	0xbc09f371	-0.008419857
173	0x3eec0033	0.46093902
174	0x3d0101cd	0.031495858
175	0x3e053763	0.1300941
176	0x3ea1c02b	0.31591925
177	0x3eb3d109	0.3512042
178	0xbd97c4fb	-0.07410618
179	0x3d8240cc	0.06360015
180	0xbe2ae667	-0.16689454
181	0xbb266152	-0.0025387597
182	0x3ea33bff	0.3188171
183	0x3ef7d4a7	0.48404428
184	0x3ebe7bd0	0.37203836
185	0xbcb81e13	-0.022475278
186	0x3d52e2c7	0.051485803
187	0x3f06be2c	0.5263393
188	0x3dda0081	0.10644627
189	0xbe995f8b	-0.29955706
190	0xbe82135e	-0.254054
191	0x3e3b3b7a	0.18284407
192	0xbd8d67f7	-0.06904595
193	0x3e9d3b4a	0.30709296
194	0x3e5608ba	0.20901766
195	0xbe09f31e	-0.13471648
196	0x3edf451e	0.4360742
197	0xbdd7cfca	-0.105376795
198	0xbeb2a045	-0.348879
199	0x3daba463	0.08380964
200	0x3f155933	0.5833923
201	0x3f2ebcaa	0.6825663
202	0xbefe9943	-0.49726304
203	0x3f1b751f	0.6072559
204	0xbee05bcd	-0.43820038
205	0x3f021523	0.508135
206	0x3ef2ded9	0.47435644
207	0xbf39fe53	-0.7265369
208	0xbdcb75b5	-0.0993456
209	0x3ec5de0e	0.38645977
210	0x3e3fd51d	0.1873364
211	0x3f2710a6	0.6525978
212	0xbe8d84fc	-0.27640522
213	0xbefc6f86	-0.49303836
214	0x3e271a65	0.16318662
215	0xbe59ebde	-0.21281382
216	0xbe4e0841	-0.20120336
217	0x3dca8bce	0.09889947
218	0x3ddb16b9	0.106976934
219	0xbf0b39dc	-0.5438516
220	0x3ea55d69	0.3229783
221	0x3e840e49	0.2579215
222	0x3d1ebc01	0.038753513
223	0xbc7ab1ff	-0.015301227
224	0x3d4d0596	0.050054155
225	0x3e92322e	0.2855391
226	0xbd395606	-0.045248054
227	0xbe4c21fa	-0.19934836
228	0x3bcb9d1f	0.0062137987
229	0xbdd29e3d	-0.10284088
230	0x3e4f5889	0.20248617
231	0xbd2f23a6	-0.042758606
232	0xbe7ba5b9	-0.24574937
233	0x3c14464d	0.009049964
234	0xbe3d38f7	-0.18478762
235	0x3d4bb1f7	0.049730267
236	0xbd9a541c	-0.07535574
237	0xbda0882f	-0.07838475
238	0x3d235bfb	0.03988264
239	0xbe627f29	-0.2211882
240	0x3eb3f42c	0.35147226
241	0x3ebe6e10	0.37193346
242	0x3d24f31b	0.040270906
243	0x3e685240	0.22687626
244	0xbdd8ba5e	-0.10582422
245	0x3ed1e5b8	0.40995574
246	0x3e83d694	0.25749648
247	0xbe53e08d	-0.20691128
248	0x3f0d5d9a	0.5522095
249	0x3e88b754	0.26702368
250	0x3f0c4f0d	0.5480812
251	0x3e55f0e1	0.2089267
252	0x3dfa72af	0.122289054
253	0xbd3d80ae	-0.046265297
254	0x3f03b93e	0.5145453
255	0xbf160b35	-0.5861085
