saved_models/4task/random1_4.pt (torch, 140430 bytes, 16 tensors)

cell_list.0.conv_gates.weight f4 [20, 11, 3, 3]
0.22004816 0.3060979 0.37913474 0.36684212 0.42352065 0.56165826 0.40641168 0.5576093
0.6291378 0.27123818 0.36351126 0.67246425 -0.19490667 -0.29124036 -0.16321851 -0.59697527
-0.5988237 -0.6889343 -0.15485303 -0.1971431 -0.16672304 -0.24872905 -0.15150413 -0.18512769
-0.6525068 -0.7068284 -0.55055106 0.46867126 0.90339863 1.0618085 -0.10864143 -0.11100911
-0.059976522 -0.80650604 -0.77834505 -0.86508673 -0.08963542 0.22858264 0.41909534 -0.22639665
-0.069536485 0.09035198 -0.73190737 -0.88741434 -0.6545135 -0.097876236 -0.1669416 -0.38357586
0.17151102 0.3166181 0.14230756 -0.20319387 -0.17193516 -0.32635757 0.1295488 0.34694985
0.5329583 -0.06258108 -0.20382284 -0.08575134 0.1998184 0.2643795 0.13671346 -0.08701948
-0.26797682 -0.47807258 0.2846412 0.19465557 0.19002609 0.078979485 0.17074877 0.040844206
-0.2641645 -0.717949 -1.0193286 0.15956725 0.0065004667 -0.1814002 0.8120657 0.84346426
0.82403255 0.25244522 0.49271652 0.62985736 -0.19673634 -0.0994483 0.081385486 -0.78998494
-0.8708594 -0.78156775 -0.02192404 0.0554989 -0.040980592 0.074137844 0.21707927 0.093733914
-0.58314687 -0.41050798 -0.30496183 -0.12365514 -0.3092514 -0.2500129 0.4391632 0.19570526
0.02499266 0.52624905 0.26973572 0.22152318 -0.0016717955 0.19201958 0.32374436 0.122440375
0.271595 0.48086753 -0.0965579 0.09740568 0.0973243 -0.015349413 -0.09856782 -0.17466484
0.14734717 -0.18180503 0.061681934 0.16594955 0.17611265 0.10504496 0.0769303 0.26229286
0.17955388 0.27717093 0.43063706 0.5841101 0.08425671 0.1733523 0.24158294 -0.03483944
-0.011682344 -0.23477182 0.23146999 0.17506745 0.21519506 0.049498033 0.006769443 0.13486281
-0.046989277 -0.19619909 -0.3035843 0.00057686976 -0.08942069 -0.14832607 0.10179529 0.18768612
0.08299038 0.1178641 0.2376957 0.31841213 -0.0784249 0.24188648 0.18460399 -0.1315866
-0.09357547 -0.11901645 -0.10020522 -0.17392981 -0.35595372 0.01621878 -0.06294484 -0.20241448
0.17086805 0.031409938 0.19038254 0.15222059 0.13929151 0.16465995 -0.047610775 -0.20657416
-0.24944645 0.08576371 -0.18935393 -0.11899622 0.16535896 0.12739277 -0.045269035 0.17228188
0.32657 0.34457225 0.010849673 0.08602451 0.19303322 -0.0044122483 -0.1499288 -0.17700006
0.394096 0.12659805 0.14752458 0.17587411 0.17956261 0.15585761 0.18658252 0.20225601
0.5249898 0.24599986 0.5031649 0.69850975 0.40087754 0.56350374 0.5556496 0.2607666
0.29770598 0.48603418 -0.13633572 -0.27021778 -0.19713967 -0.24610564 -0.33097532 -0.3054098
-0.11231865 -0.13199583 -0.12911259 -0.25389 -0.23119274 -0.32532337 -0.8268992 -0.67197526
-0.44038627 0.3611681 0.5390644 0.62253684 -0.2539305 -0.19038229 -0.23755659 -0.66806185
-0.6336927 -0.5386804 -0.054854844 0.12770724 0.3215712 -0.400973 -0.34646818 -0.04816395
-0.92393833 -0.8129527 -0.67817193 -0.15837811 -0.06303496 -0.12621205 -0.06851969 0.023010017
-0.02629098 -0.34363115 -0.40409788 -0.2967219 0.17520565 0.15276404 0.19631572 -0.034214713
00000000: 4e54 613e ddb8 9c3e f31d c23e bbd2 bb3e
00000010: b3d7 d83e d6c8 0f3f 3115 d03e 7cbf 0e3f
00000020: 2d0f 213f bbdf 8a3e 261e ba3e 9e26 2c3f
00000030: 9d95 47be 751d 95be c122 27be 5fd3 18bf
00000040: 834c 19bf 005e 30bf cb91 1ebe e1df 49be
00000050: 72b9 2abe d4b2 7ebe e623 1bbe 1d92 3dbe
00000060: b00a 27bf b5f2 34bf eaf0 0cbf aef5 ef3e
00000070: 2245 673f 57e9 873f 667f debd bf58 e3bd
00000080: f1a9 75bd 2e77 4ebf 9f41 47bf 5376 5dbf
00000090: c692 b7bd 9111 6a3e aa93 d63e 86d4 67be
000000a0: 2569 8ebd 750a b93d 485e 3bbf 962d 63bf
000000b0: 328e 27bf 5673 c8bd bdf2 2abe 0e64 c4be
000000c0: 96a0 2f3e c51b a23e 13b9 113e 0e12 50be
000000d0: c50f 30be 5718 a7be 71a8 043e 69a3 b13e
000000e0: f56f 083f 822a 80bd efb6 50be 669e afbd
000000f0: 329d 4c3e c05c 873e 9dfe 0b3e 4537 b2bd
00000100: 4234 89be eec5 f4be 7ebc 913e ca53 473e
00000110: 3396 423e ffbf a13d c4d8 2e3e 414c 273d
00000120: 9240 87be 81cb 37bf 5c79 82bf 9965 233e
00000130: de01 d53b f9c0 39be 8ae3 4f3f 46ed 573f
00000140: ccf3 523f 8040 813e 5745 fc3e 553e 213f
00000150: 4075 49be 8dab cbbd 6fad a63d 743c 4abf
00000160: a4f0 5ebf d314 48bf 0b9a b3bc d152 633d
00000170: 44db 27bd 95d5 973d 074a 5e3e 91f7 bf3d
00000180: 1d49 15bf 1a2e d2be f523 9cbe e83e fdbd
00000190: 3356 9ebe b101 80be 00da e03e f666 483e
000001a0: 68bd cc3c 42b8 063f cd1a 8a3e f9d6 623e
000001b0: 2620 dbba c8a0 443e d2c1 a53e 05c2 fa3d
000001c0: 800e 8b3e 4534 f63e 26c0 c5bd a17c c73d
000001d0: f651 c73d 1b7c 7bbc eddd c9bd 57db 32be
000001e0: 2de2 163e 192b 3abe 32a6 7c3d aeee 293e
000001f0: e056 343e d021 d73d a28d 9d3d 404b 863e
00000200: f9dc 373e 59e9 8d3e 767c dc3e 3d88 153f
00000210: c88e ac3d 4483 313e 8561 773e cdb3 0ebd
00000220: 4d67 3fbc 0668 70be 7806 6d3e e244 333e
00000230: 185c 5c3e 73be 4a3d 34d2 dd3b 7a19 0a3e
00000240: d477 40bd 6ae8 48be 676f 9bbe 1339 173a
00000250: 3222 b7bd cae2 17be 0d7a d03d ca30 403e
00000260: dcf6 a93d bc62 f13d 8066 733e ea06 a33e
00000270: 3c9d a0bd 17b1 773e d408 3d3e a3be 06be
00000280: 7fa4 bfbd e6be f3bd 6538 cdbd a81a 32be
00000290: 913f b6be 3fdd 843c 39e9 80bd be45 4fbe
000002a0: 09f8 2e3e b5a7 003d a4f3 423e b7df 1b3e
000002b0: 6fa2 0e3e 9e9c 283e 8403 43bd 2d88 53be
000002c0: e46e 7fbe e2a4 af3d ffe5 41be 4ab4 f3bd
000002d0: dc53 293e 4073 023e 066c 39bd a96a 303e
000002e0: 2f34 a73e c66b b03e d4c2 313c 9e2d b03d
000002f0: 80aa 453e 9f94 90bb ef86 19be 813f 35be
00000300: f3c6 c93e eba2 013e af10 173e 5818 343e
00000310: 43df 373e 2399 1f3e 7d0f 3f3e 331c 4f3e
00000320: bb65 063f 63e7 7b3e 6acf 003f 89d1 323f
00000330: d23f cd3e c841 103f 0d3f 0e3f 3383 853e
00000340: eb6c 983e 79d9 f83e 979b 0bbe fc59 8abe
00000350: fbde 49be 1e03 7cbe 9975 a9be ac5e 9cbe
00000360: 5207 e6bd ea29 07be 1736 04be dffd 81be
00000370: cabd 6cbe c990 a6be aaaf 53bf 9206 2cbf
00000380: 4f7a e1be 06eb b83e 2000 0a3f 935e 1f3f
00000390: 2e03 82be 93f3 42be 0942 73be 1a06 2bbf
000003a0: af39 22bf f5e6 09bf 79af 60bd b0c5 023e
000003b0: fba4 a43e 554c cdbe 4764 b1be 9047 45bd
000003c0: 3987 6cbf ab1d 50bf ad9c 2dbf df2d 22be
000003d0: 7918 81bd bb3d 01be 0d54 8cbd 817f bc3c
000003e0: 2e60 d7bc 6cf0 afbe ebe5 cebe efeb 97be
000003f0: 1c69 333e 2d6e 1c3e fd06 493e ba24 0cbd

cell_list.0.conv_can.weight f4 [10, 11, 3, 3]
-0.27277017 -0.3175375 -0.29413143 -0.1903955 -0.179714 -0.0628635 0.02419898 0.113735445
0.19417876 0.72496164 0.6611717 0.47175628 0.67682457 0.79332256 0.69328994 0.38946408
0.2642349 0.30582893 -0.32685322 -0.2903911 -0.25627616 0.0795703 -0.08254582 0.029696058
0.24218328 0.3113641 0.35073254 0.635032 0.6027088 0.35849786 0.89301753 1.133674
0.6738485 0.5527467 0.54674953 0.34349674 -0.2882677 -0.27889135 -0.3416934 0.25103322
0.23289144 0.21564768 0.4112625 0.4540383 0.32865116 -0.6112771 -0.6809584 -0.37607503
-0.2673501 -0.47991621 -0.30017906 -0.0041584047 0.09244938 0.036607016 0.7309131 0.61590594
0.53012216 0.36942655 0.48095068 0.3819221 -0.1080538 -0.02895981 0.0113817565 -0.61570513
-0.57670164 -0.6065198 -0.48742536 -0.54016304 -0.47091037 -0.16905667 -0.0029013995 -0.12453666
-0.116865344 -0.12092134 -0.04150889 -0.6796414 -0.7149897 -0.5824311 -0.6748402 -0.74350154
-0.68667775 0.02163625 0.028900392 0.042533033 0.61073655 0.5219215 0.55483073 0.7370283
0.6408701 0.3804158 -0.48205897 -0.47111768 -0.48425573 -0.08056548 -0.06538428 0.039647963
0.37036934 0.25644803 0.40396267 0.17182285 0.08916717 -0.033942364 0.16565664 0.23024163
0.08445631 0.34749743 0.42606127 0.22604896 -0.12022719 0.0131160095 -0.063358225 -0.047591824
-0.18355021 -0.23083897 -0.3997132 -0.6370152 -0.47131148 0.18641928 0.06343077 0.007867739
0.33757487 0.45742312 0.4104485 0.52562404 0.47473812 0.5115921 -0.0123343775 -0.04259764
0.11062097 -0.12559193 -0.10513174 -0.00036361214 -0.32925045 -0.36374298 -0.35700756 0.09660025
0.35353565 0.31539196 0.43464223 0.47612086 0.38160062 0.4516823 0.4660082 0.30251125
0.1175798 0.08318585 0.029047335 0.07187719 0.23053832 0.14046696 0.5398191 0.7117744
0.5924309 -0.14625618 -0.020600835 -0.002789102 -0.17222086 -0.14842963 -0.061096303 -0.4101875
-0.60772824 -0.5395578 0.15068373 0.119999476 0.113186724 0.11026575 0.19228192 0.071069255
0.4180411 0.7000305 0.46979254 0.035110135 -0.1818017 -0.24492024 -0.015921274 -0.11245326
-0.06863115 0.18568116 0.0018140961 -0.0123817595 0.08770548 0.32015783 0.36113748 0.19048455
0.15230481 0.12981157 -0.015664665 0.07326786 -0.02010989 0.14782672 0.263349 0.13446987
0.25898972 0.2551476 0.15881783 0.7553545 0.69528 0.66076154 -0.2583831 -0.2304967
-0.112264894 -0.10203774 -0.15951954 -0.13564897 0.12436702 0.17871422 0.09900581 0.34160048
0.55597115 0.45524698 0.25744173 0.37581608 0.45102876 0.073676385 0.06688335 0.112212755
-0.08329317 -0.16100454 -0.2504714 0.12104552 0.056988865 0.045251366 0.37842393 0.3833115
0.19998929 0.32774282 0.5326612 0.5863747 0.32422507 0.5689265 0.57296914 0.09040762
0.19544156 0.15782143 -0.05080594 -0.039374065 -0.05761428 0.075727 0.15819266 0.11715305
0.42404097 0.38818848 0.46506345 -0.3927504 -0.3983549 -0.44111797 -0.17360881 -0.16618048
-0.08345712 0.2074044 0.12194507 0.039048772 0.34671322 0.48269764 0.48375922 0.19312802
00000000: 88a8 8bbe 4694 a2be 6598 96be 0af7 42be
00000010: f206 38be 94be 80bd f03c c63c 21ee e83d
00000020: ccd6 463e 1697 393f 8c42 293f 0a8a f13e
00000030: 6044 2d3f 3017 4b3f 737b 313f d667 c73e
00000040: cc49 873e 9c95 9c3e 4e59 a7be 24ae 94be
00000050: a136 83be c1f5 a23d c80d a9bd 2645 f33c
00000060: e5fe 773e 1e6b 9f3e 3793 b33e 7591 223f
00000070: 204b 1a3f 088d b73e cc9c 643f 3b1c 913f
00000080: 5681 2c3f cf80 0d3f c7f7 0b3f cede af3e
00000090: d397 93be d9ca 8ebe 70f2 aebe 6d87 803e
000000a0: 187b 6e3e bfd2 5c3e 0091 d23e b577 e83e
000000b0: f744 a83e a87c 1cbf 4a53 2ebf e88c c0be
000000c0: 1de2 88be 94b7 f5be 12b1 99be 3a43 88bb
000000d0: 1a56 bd3d 3df1 153d 1f1d 3b3f 03ac 1d3f
000000e0: 16b6 073f 7a25 bd3e 2b3f f63e 4b8b c33e
000000f0: 504b ddbd 203d edbc 8c7a 3a3c da9e 1dbf
00000100: b8a2 13bf e244 1bbf d18f f9be 2048 0abf
00000110: 2a1b f1be 311d 2dbe 6825 3ebb 140d ffbd
00000120: 1957 efbd 9ca5 f7bd 3a05 2abd fbfc 2dbf
00000130: 9109 37bf 341a 15bf 54c2 2cbf 1e56 3ebf
00000140: 1dca 2fbf 813e b13c 84c0 ec3c 1e37 2e3d
00000150: 3b59 1c3f a69c 053f 6309 0e3f e3ad 3c3f
00000160: 1010 243f dcc5 c23e 6fd0 f6be 5636 f1be
00000170: 5ef0 f7be 84ff a4bd 32e8 85bd e765 223d
00000180: 0da1 bd3e 284d 833e 32d4 ce3e 54f2 2f3e
00000190: 479d b63d 2607 0bbd e5a1 293e 76c4 6b3e
000001a0: 6ef7 ac3d 2feb b13e b424 da3e 6179 673e
000001b0: ac39 f6bd 88e4 563c f5c1 81bd a5ef 42bd
000001c0: 96f4 3bbe 0d61 6cbe 35a7 ccbe 6e13 23bf
000001d0: bd4f f1be b2e4 3e3e fee7 813d b0e7 003c
000001e0: 9dd6 ac3e 5d33 ea3e 4e26 d23e 4c8f 063f
000001f0: e010 f33e b3f7 023f 2116 4abc dd7a 2ebd
00000200: 3f8d e23d 2c9b 00be 4f4f d7bd 32a3 beb9
00000210: 8493 a8be 853c babe b2c9 b6be 5ad6 c53d
00000220: a002 b53e 0e7b a13e 6d89 de3e 1dc6 f33e
00000230: 2861 c33e e742 e73e a098 ee3e c1e2 9a3e
00000240: aecd f03d 585d aa3d adf4 ed3c 5934 933d
00000250: 3d12 6c3e 92d6 0f3e 9631 0a3f d936 363f
00000260: 8da9 173f 2ec4 15be 15c3 a8bc 5ec9 36bb
00000270: aa5a 30be f0fd 17be 1e40 7abd 1904 d2be
00000280: 1494 1bbf 7620 0abf d64c 1a3e 49c2 f53d
00000290: 71ce e73d 02d3 e13d 8de5 443e c28c 913d
000002a0: 7c09 d63e 3335 333f a688 f03e a5cf 0f3d
000002b0: 3a2a 3abe 5fcc 7abe 556d 82bc e54d e6bd
000002c0: 7d8e 8cbd 3423 3e3e f7c6 ed3a dddc 4abc
000002d0: ee9e b33d baeb a33e 03e7 b83e 620e 433e
000002e0: cbf5 1b3e 53ed 043e 2f53 80bc 760d 963d
000002f0: 7fbd a4bc e35f 173e aed5 863e 78b2 093e
00000300: 4d9a 843e b5a2 823e 24a1 223e ea5e 413f
00000310: dffd 313f ab27 293f ca4a 84be 5407 6cbe
00000320: 23eb e5bd 2af9 d0bd 1759 23be 90e7 0abe
00000330: 23b4 fe3d dc00 373e 8fc3 ca3d 42e6 ae3e
00000340: 2054 0e3f 2216 e93e 67cf 833e f76a c03e
00000350: 3eed e63e a5e3 963d 23fa 883d cdcf e53d
00000360: 9c95 aabd 60de 24be ca3d 80be b7e6 f73d
00000370: 286d 693d 7f59 393d c8c0 c13e 6841 c43e
00000380: fec9 4c3e e8cd a73e 7c5c 083f a71c 163f
00000390: d400 a63e 2ba5 113f 1bae 123f a127 b93d
000003a0: d521 483e f19b 213e e419 50bd b346 21bd
000003b0: f4fc 6bbd c216 9b3d 42fd 213e f0ed ef3d
000003c0: e61b d93e a4c0 c63e cc1c ee3e 9516 c9be
000003d0: 2cf5 cbbe 37da e1be 82c6 31be 372b 2abe
000003e0: 91eb aabd d261 543e 56be f93d 9bf1 1f3d
000003f0: 6584 b13e 2524 f73e 4aaf f73e 5ac3 453e

cell_list.1.conv_gates.weight f4 [20, 20, 3, 3]
0.3614791 0.18006691 0.11842474 0.16516483 0.13820463 0.18217315 -0.16608424 -0.07107049
0.006888307 -0.6356748 -0.7190044 -0.43943518 -0.2646015 -0.20232923 -0.107828535 0.010074711
-0.14937076 -0.013328633 -0.68497586 -0.46011657 -0.13017635 -0.31678778 -0.3389422 -0.11583471
-0.4603823 -0.5225196 -0.28963095 -0.35063624 -0.55323595 -0.4923919 -0.31985804 -0.33018205
-0.31877318 0.04458892 0.019460056 -0.021296771 -0.15695982 -0.3029587 -0.13649166 0.39146817
-0.12841183 -0.17083588 0.39374703 -0.09174963 -0.117335945 0.30437657 0.27547622 0.46517223
-0.048768815 -0.14089498 0.050947722 -0.11470122 -0.18395281 0.03832985 -0.2672519 -0.1775125
-0.19109914 -0.9042302 -0.7847628 -0.48018888 -0.86913705 -0.7487683 -0.30709925 0.020386474
-0.061179694 -0.080657996 0.19792217 0.19511293 0.14299996 0.1558473 -0.031437796 0.021377148
0.22800654 0.54859465 0.47402653 -0.65687186 -0.40927356 -0.3585762 -0.7251011 -0.21908441
0.044140328 -0.04937201 -0.13803074 -0.15032682 0.12232909 -0.1256539 -0.23569763 0.05255301
-0.097890325 -0.31203613 0.012221215 -0.080920964 -0.19803354 -0.1780458 0.03350462 -0.29570276
-0.32600787 -0.067213945 -0.0027229877 -0.06852267 -0.15504406 -0.20989802 -0.32665733 -0.108418286
-0.10095844 -0.23042144 -0.12361392 -0.15151195 -0.15830068 -0.13641664 -0.0076839686 -0.16301505
-0.045482002 0.26648706 -0.19463256 -0.24956214 -0.051206063 -0.029229142 -0.18069702 -0.36258808
0.18308403 0.1752289 0.11599252 -0.0064462726 0.2254623 0.06853401 -0.3140903 -0.14732248
-0.25445488 -0.24460386 -0.18578131 -0.2611933 -0.18418358 -0.116265565 0.0287088 0.015888397
0.17424212 0.058409788 -0.010451211 0.29012343 0.34083858 -0.11558845 0.00424613 -0.07812024
-0.039856557 -0.100974046 -0.03796011 0.16643895 -0.11380988 -0.04750074 0.9276789 0.47122285
0.098722346 -0.03761813 0.08385084 0.14426468 -0.06443537 0.16380757 -0.010044872 0.021832747
-0.07205456 -0.15840589 0.05706769 0.12879892 0.11481557 -0.019475728 -0.028227462 -0.22993106
-0.30370852 -0.13830498 -0.3218128 -0.13735528 0.0011740827 0.08328892 0.22836706 -0.0033647513
0.03365705 0.24368578 0.15066199 0.001455171 0.13939302 0.15201798 0.25460517 -0.03311927
0.09595346 0.20086144 -0.3144472 -0.12191506 -0.10879305 -0.06817168 -0.048213623 0.027776204
0.2409945 0.08142032 0.05772405 -0.02345785 -0.18213631 -0.35547242 0.013386587 0.072822936
0.074465856 0.23574144 0.12895793 0.24544701 -0.12148951 -0.08305529 0.15265319 0.30631185
0.061716042 -0.07207684 0.123248406 -0.14883739 -0.407696 0.06445639 -0.3760518 -0.41715154
0.22474329 -0.04289813 -0.2646629 0.28108656 0.066787556 -0.18046597 0.063993275 -0.021630459
-0.008615896 0.0014937709 0.061477117 0.3565114 0.11603168 0.26324925 0.374941 0.2658911
0.2828098 0.26679578 0.26519802 0.120940864 0.008586053 0.53156865 0.39340946 0.23855066
0.24209127 0.022194562 0.006020164 -0.03046563 0.029568376 0.12942617 0.18227391 0.09001486
0.15685304 0.14854454 0.107702784 0.20958376 -0.09897509 0.08675498 0.18318498 -0.18606511
00000000: ca13 b93e 7663 383e ac88 f23d f820 293e
00000010: 8485 0d3e 998b 3a3e fd11 2abe 688d 91bd
00000020: 4fb7 e13b 95bb 22bf ac10 38bf a6fd e0be
00000030: d979 87be 652f 4fbe 35d5 dcbd 6710 253c
00000040: a6f4 18be 5760 5abc 945a 2fbf 6694 ebbe
00000050: f34c 05be 0232 a2be d589 adbe c03a edbd
00000060: 3bb7 ebbe d8c3 05bf 824a 94be 9886 b3be
00000070: dfa0 0dbf cb1a fcbe 6fc4 a3be 9f0d a9be
00000080: 3d36 a3be dfa2 363d b26a 9f3c 9176 aebc
00000090: 13ba 20be 671d 9bbe 78c4 0bbe 846e c83e
000000a0: 647e 03be 9aef 2ebe 3699 c93e 3be7 bbbd
000000b0: d44d f0bd 3fd7 9b3e 380b 8d3e 0e2b ee3e
000000c0: cfc1 47bd c646 10be 8fae 503d 79e8 eabd
000000d0: 205e 3cbe c3ff 1c3d 3ed5 88be d6c5 35be
000000e0: 7eaf 43be a17b 67bf 37e6 48bf 51db f5be
000000f0: c47f 5ebf 48af 3fbf 1d3c 9dbe 8901 a73c
00000100: 8f97 7abd 0530 a5bd 1cac 4a3e afcb 473e
00000110: 956e 123e 6f96 1f3e ebc4 00bd 211f af3c
00000120: 8c7a 693e b370 0c3f 9bb3 f23e c128 28bf
00000130: 4e8c d1be 4d97 b7be 3aa0 39bf aa57 60be
00000140: 7dcc 343d 4e3a 4abd ee57 0dbe 46ef 19be
00000150: ad87 fa3d 6aab 00be b85a 71be d341 573d
00000160: b97a c8bd 33c3 9fbe 7e3b 483c e4b9 a5bd
00000170: 4ec9 4abe a351 36be 243c 093d 5a66 97be
00000180: 81ea a6be 77a7 89bd 2774 32bb 9d55 8cbd
00000190: dfc3 1ebe 82ef 56be a13f a7be 680a debd
000001a0: 4cc3 cebd 99f3 6bbe 4b29 fdbd f325 1bbe
000001b0: 9319 22be ceb0 0bbe cdc9 fbbb 6bed 26be
000001c0: 564b 3abd fe70 883e c24d 47be 388d 7fbe
000001d0: 73bd 51bd f471 efbc a408 39be 25a5 b9be
000001e0: 617a 3b3e 346f 333e 7c8d ed3d 413b d3bb
000001f0: 97df 663e 8f5b 8c3d 72d0 a0be b4db 16be
00000200: e947 82be 6f79 7abe 753d 3ebe 21bb 85be
00000210: 9f9a 3cbe a41c eebd b82e eb3c 6228 823c
00000220: 876c 323e 1a3f 6f3d 8e3b 2bbc 0f8b 943e
00000230: 6582 ae3e a3b9 ecbd 1f23 8b3b 81fd 9fbd
00000240: a140 23bd 7bcb cebd 0f7c 1bbd f96e 2a3e
00000250: 2815 e9bd 2390 42bd 5d7c 6d3f 1f44 f13e
00000260: f12e ca3d 7815 1abd fdb9 ab3d 1fba 133e
00000270: b1f6 83bd 2cbd 273e 3f93 24bc 97da b23c
00000280: 5791 93bd 2735 22be cfbf 693d dde3 033e
00000290: 6d24 eb3d 908b 9fbc 473d e7bc 0c73 6bbe
000002a0: af7f 9bbe d29f 0dbe a6c4 a4be dda6 0cbe
000002b0: aee3 993a 6293 aa3d 0ed9 693e 2983 5cbb
000002c0: fadb 093d c488 793e 2347 1a3e 70bb be3a
000002d0: 0bbd 0e3e 9aaa 1b3e 9c5b 823e 12a8 07bd
000002e0: 3f83 c43d 9fae 4d3e 39ff a0be 9aae f9bd
000002f0: e4ce debd 989d 8bbd a67b 45bd ec8a e33c
00000300: 43c7 763e b2bf a63d 0e70 6c3d ad2a c0bc
00000310: f181 3abe 7b00 b6be 6a53 5b3c 3124 953d
00000320: 8e81 983d 3466 713e 8c0d 043e 7656 7b3e
00000330: 7ecf f8bd e418 aabd 1e51 1c3e e8d4 9c3e
00000340: f6c9 7c3d 069d 93bd a969 fc3d d468 18be
00000350: 88bd d0be b601 843d dd89 c0be e394 d5be
00000360: 1b23 663e f3b5 2fbd e581 87be 94ea 8f3e
00000370: eac7 883d 12cc 38be e80e 833d 5c32 b1bc
00000380: b029 0dbc a2ca c33a 6ecf 7b3d aa88 b63e
00000390: 04a2 ed3d 9bc8 863e 44f8 bf3e e122 883e
000003a0: 72cc 903e 7599 883e 09c8 873e d8af f73d
000003b0: 84ac 0c3c e214 083f f76c c93e a046 743e
000003c0: c6e6 773e 5fd1 b53c cc44 c53b 0f93 f9bc
000003d0: 6139 f23c 4b88 043e 03a6 3a3e b659 b83d
000003e0: 159e 203e 0f1c 183e 4793 dc3d 209d 563e
000003f0: 74b3 cabd 98ac b13d d894 3b3e da87 3ebe

cell_list.1.conv_can.weight f4 [10, 20, 3, 3]
0.0760693 0.13075665 0.099075 0.2737576 0.30194002 0.25007275 0.006299323 0.00838405
0.007319195 -0.38104895 -0.29072478 -0.13638607 -0.09006677 -0.18821746 -0.15923658 0.2742577
0.06510491 -0.1714943 -0.025434878 -0.07099559 0.03806821 0.07140173 0.084687434 -0.0051310193
0.096664354 -0.008379216 -0.039564863 -0.18544804 -0.27429137 -0.083655864 -0.031692922 -0.015597137
0.06556534 0.02278633 0.20064712 0.12716372 0.0154245 -0.13788682 0.023670506 0.044355568
0.07092131 0.005392022 0.068776764 0.07208163 0.019446751 0.18135872 0.07897043 0.113554604
0.017726522 -0.07034729 -0.16219297 0.018312782 -0.12643431 -0.15306592 -0.21754664 -0.16624433
0.117933124 -0.44544467 -0.13443816 0.014369896 0.012444248 0.076923564 0.02484984 -0.15143622
-0.19494914 -0.176509 0.30569685 0.28737044 0.12650643 -0.017270481 0.061717845 -0.028306078
0.3863101 0.34421328 0.39587083 -0.005661127 0.06443708 0.11047688 -0.16961055 -0.06996532
0.031969152 -0.023374438 -0.17012852 -0.17672458 -0.06738925 -0.12265156 0.0099604055 -0.019279312
0.065819584 0.15739068 -0.29033035 -0.34598932 -0.1936074 -0.10942949 -0.05288257 -0.04183609
-0.050124876 -0.119700305 -0.014398078 0.13964954 0.062798135 -0.10030378 0.070814945 0.014695774
0.057550464 0.077065766 0.10348905 0.107610516 -0.30139878 -0.25971922 -0.09287074 -0.17876203
-0.24024816 -0.16096616 0.037340306 0.028117731 -0.026002131 -0.2639422 -0.2913271 -0.2550954
-0.10645838 -0.050372925 -0.038826026 0.031260587 -0.07960036 -0.05984102 0.3786681 0.28787023
0.216655 0.33464885 0.2810164 0.11457563 0.35103562 0.20648852 0.17010035 0.09720775
0.07570842 0.13140942 -0.055246793 0.005358212 0.082468316 -0.19369468 -0.030010393 0.22824772
-0.21277998 -0.13614075 0.014111679 -0.24417616 -0.078223005 0.09950068 -0.15122743 -0.054854725
-0.020869792 -0.013079375 -0.05437965 -0.012818982 -0.104066715 -0.026784625 0.111521326 -0.23398866
0.013312806 0.23462713 -0.27956283 -0.03650012 -0.013664936 -0.22773007 0.044246353 0.11835495
-0.10290659 -0.0139977075 0.041941985 -0.13089183 0.04994359 0.04290495 -0.09631636 0.046105165
0.09992349 -0.08603701 -0.05072739 -0.15673141 -0.29726812 -0.27179503 -0.08840439 -0.1159439
0.014522655 0.017796012 0.19414629 0.15269007 0.12744245 0.072234824 -0.07923683 -0.17233075
-0.24633346 -0.16752099 -0.12483763 -0.21800911 -0.09590225 0.04213008 -0.076579705 -0.20915434
-0.07271231 -0.36268178 -0.2670518 -0.19473964 -0.22445026 -0.09632725 -0.07520567 0.013691954
-0.16798219 -0.14090683 0.08876356 -0.017703537 0.08643917 0.29348388 0.18857785 0.25317338
0.06884514 -0.040497247 -0.08456053 -0.12987159 -0.08011456 -0.09862271 -0.24383704 -0.17375866
-0.14413705 0.025805969 -0.07836525 -0.13918172 0.15879995 0.039314374 -0.051509656 -0.0019089448
0.08662772 0.20443016 0.20479354 -0.060611904 -0.073092625 -0.072362475 -0.21335748 -0.20558666
-0.0840685 -0.038672265 -0.036530674 -0.11072209 -0.10192849 -0.19304986 -0.09256229 -0.019036848
-0.030157935 -0.011595885 0.04579641 -0.05000325 -0.06787619 -0.092463076 0.08366106 0.13744925
00000000: 39ca 9b3d 12e5 053e d5e7 ca3d f529 8c3e
00000010: e297 9a3e 8909 803e 8d6a ce3b 415d 093c
00000020: dcd5 ef3b d918 c3be e1d9 94be caa8 0bbe
00000030: ed74 b8bd 14bc 40be ea0e 23be 816b 8c3e
00000040: b955 853d 349c 2fbe ce5c d0bc 2366 91bd
00000050: 69ed 1b3d 123b 923d 9b70 ad3d 1c22 a8bb
00000060: f6f7 c53d fb48 09bc c40e 22bd 17e6 3dbe
00000070: eb6f 8cbe c453 abbd 70d0 01bd 228b 7fbc
00000080: 1f47 863d 66aa ba3c 7076 4d3e 3537 023e
00000090: 0bb7 7c3c 3432 0dbe a6e8 c13c 2fae 353d
000000a0: 313f 913d 8faf b03b d5da 8c3d 899f 933d
000000b0: cb4e 9f3c 1ab6 393e 40bb a13d 518f e83d
000000c0: 3637 913c 3d12 90bd ea15 26be b004 963c
000000d0: ff77 01be 50bd 1cbe 8cc4 5ebe f43b 2abe
000000e0: ec86 f13d 5311 e4be 28aa 09be b66f 6b3c
000000f0: f6e2 4b3c 1a8a 9d3d e491 cb3c 1912 1bbe
00000100: bfa0 47be c6be 34be 4c84 9c3e 3822 933e
00000110: e78a 013e d37a 8dbc dacb 7c3d 26e2 e7bc
00000120: 70ca c53e b93c b03e 95af ca3e fa80 b9bb
00000130: 96f7 833d b441 e23d 63ae 2dbe fa49 8fbd
00000140: 16f2 023d c07b bfbc 2c36 2ebe 4af7 34be
00000150: 6003 8abd be30 fbbd f830 233c a6ef 9dbc
00000160: 6bcc 863d 062b 213e 2ea6 94be 8325 b1be
00000170: 0541 46be 921c e0bd 659b 58bd 525c 2bbd
00000180: be4f 4dbd 6f25 f5bd ebe5 6bbc 4a00 0f3e
00000190: 4f9c 803d 116c cdbd 6d07 913d 8bc6 703c
000001a0: 09ba 6b3d a8d4 9d3d 11f2 d33d e762 dc3d
000001b0: f150 9abe ebf9 84be 0433 bebd 650d 37be
000001c0: 9d03 76be 50d4 24be 26f2 183d 2857 e63c
000001d0: 6c02 d5bc 6f23 87be d328 95be dd9b 82be
000001e0: da06 dabd d753 4ebd 0a08 1fbd 1a0b 003d
000001f0: 8305 a3bd db1b 75bd c9e0 c13e ba63 933e
00000200: cfda 5d3e 1857 ab3e 62e1 8f3e a1a6 ea3d
00000210: f1ba b33e ba71 533e c92e 2e3e db14 c73d
00000220: 040d 9b3d 3190 063e 764a 62bd f193 af3b
00000230: 26e5 a83d e657 46be 5bd8 f5bc c5b9 693e
00000240: ffe2 59be 7b68 0bbe ac34 673c 5109 7abe
00000250: 6233 a0bd 03c7 cb3d 5ddb 1abe 59af 60bd
00000260: 20f7 aabc e04a 56bc 32bd 5ebd b506 52bc
00000270: ee20 d5bd 6e6b dbbc 4b65 e43d b99a 6fbe
00000280: f51d 5a3c 1842 703e dc22 8fbe 2681 15bd
00000290: e5e2 5fbc 1232 69be aa3b 353d 1464 f23d
000002a0: b1c0 d2bd a456 65bc 5ccb 2b3d 8208 06be
000002b0: a691 4c3d 1abd 2f3d 8341 c5bd c5d8 3c3d
000002c0: b0a4 cc3d 2c34 b0bd 86c7 4fbd 337e 20be
000002d0: 8733 98be b828 8bbe 5c0d b5bd ff73 edbd
000002e0: 6ef0 6d3c f1c8 913c 49ce 463e c95a 1c3e
000002f0: 4680 023e daef 933d eb46 a2bd 7977 30be
00000300: d73e 7cbe 9f8a 2bbe dfaa ffbd c83d 5fbe
00000310: 6668 c4bd 9790 2c3d d2d5 9cbd 8e2c 56be
00000320: 31ea 94bd 6db1 b9be 03bb 88be d469 47be
00000330: 4ad6 65be 3947 c5bd 6e05 9abd 3854 603c
00000340: 8603 2cbe e149 10be abc9 b53d 0207 91bc
00000350: 0507 b13d 8543 963e 8d1a 413e f19f 813e
00000360: aefe 8c3d 71e0 25bd 122e adbd 0ffd 04be
00000370: 1a13 a4bd b4fa c9bd 6bb0 79be caed 31be
00000380: aa98 13be 0a67 d33c f67d a0bd a785 0ebe
00000390: 749c 223e 1c08 213d cafb 52bd 8f35 faba
000003a0: e069 b13d 2456 513e 66b5 513e 3044 78bd
000003b0: 96b1 95bd c732 94bd 627a 5abe 4f85 52be
000003c0: 1b2c acbd cf66 1ebd 30a1 15bd 43c2 e2bd
000003d0: e2bf d0bd ddae 45be 4c91 bdbd 2af3 9bbc
000003e0: c60d f7bc abfc 3dbc 0495 3b3d 35d0 4cbd
000003f0: ac02 8bbd 485d bdbd 7d56 ab3d 7fbf 0c3e

cell_list.2.conv_gates.weight f4 [20, 20, 3, 3]
-0.32645294 -0.27948382 -0.25371853 -0.21838506 -0.1575797 -0.30506188 0.21902427 0.16063021
0.03414946 0.079515524 0.07670617 0.25180075 -0.2056154 0.00477595 -0.008776006 -0.0011356107
0.07015881 0.0066808043 -0.012804333 0.07748719 0.12711965 -0.18067282 -0.18135516 -0.08847621
-0.36566523 -0.3299793 -0.23940644 -0.2586606 -0.21161798 -0.34990603 0.42823076 0.42412388
0.29618645 0.3345869 0.30792084 0.21546103 0.14289288 -0.04061342 -0.0036767689 0.118386894
0.059695303 0.13278133 0.020297261 -0.06967992 0.08874372 -0.13588661 -0.07949484 -0.11443141
-0.080583334 -0.028167458 -0.14221501 -0.14201339 -0.14642534 -0.20382607 -0.018844938 -0.13269944
-0.13229479 -0.09553322 -0.30845046 -0.081744656 -0.26919183 -0.02809978 0.12678616 0.12820633
0.13948712 0.12133584 0.12437179 0.189473 0.15134336 -0.008105277 -0.07502396 0.1062384
-0.05034734 -0.043615907 0.11306349 -0.029442916 -0.090928495 -0.061368324 -0.113277234 -0.09163555
0.14387496 -0.3792815 -0.33767074 -0.31240627 -0.14707355 -0.12176358 -0.08396784 0.08256819
0.032836623 -0.13236032 0.16660857 0.074160516 0.03369751 -0.00096334796 -0.09806297 -0.064656384
-0.044065084 -0.042346586 -0.04485319 0.2506936 0.18005793 0.07299637 0.04770698 0.06339922
-0.11065629 0.09158294 0.018876571 -0.14352475 0.057371337 0.03551171 0.08736465 0.029638208
-0.054057233 -0.035392687 0.025177712 -0.04145791 -0.12116283 0.10141482 0.11692014 0.08435693
0.05952761 0.016594147 -0.09127551 0.03599724 0.0060824994 0.012220291 -0.02330661 0.033105697
-0.046215482 -0.09839213 -0.12767097 -0.034304474 0.021551484 0.06632339 0.085860826 -0.112127975
-0.06236772 -0.026209584 -0.30219314 -0.18481748 -0.1569826 -0.2566334 -0.26664528 -0.22168952
0.049561404 0.031186128 0.05370006 0.015456965 0.06418328 -0.04162152 0.07607248 0.095596574
-0.026576819 0.020662101 0.12662001 0.08017475 -0.19079572 -0.19982024 -0.15151902 -0.09577374
-0.07825576 -0.045545887 0.2849422 0.26348552 0.12014523 0.22477484 0.1169646 -0.029446598
0.10929909 0.08230305 0.026875801 -0.038612865 -0.06910446 0.0009373425 0.057937026 -0.06443466
0.03641106 -0.12235499 -0.062281273 0.04970653 -0.010931981 -0.045175605 -0.24028306 -0.22824319
-0.17053513 -0.16043693 0.09423443 -0.06962723 -0.04646858 0.087877706 0.097581364 0.28179565
-0.24593893 -0.0557961 0.05135452 -0.1977353 -0.213774 -0.15784515 -0.122294866 -0.030871252
0.108755276 -0.3876297 -0.26024488 -0.11704396 -0.3494834 -0.20893964 -0.12767537 -0.13375704
-0.16197993 -0.27245662 0.24618375 0.3200436 0.27914262 0.32315016 0.32899728 0.34965074
0.04161997 -0.099100046 -0.14482276 -0.053378068 -0.13180223 -0.08702825 0.021732064 -0.025095511
0.15869483 -0.09415944 -0.051385064 -0.013566882 -0.32715586 -0.13261887 -0.13632326 -0.37599137
-0.3656302 -0.14600414 0.100354075 0.094045244 0.054887086 0.050134756 -0.0030197685 0.12322983
-0.16700825 -0.108403474 0.1616658 0.14681864 0.101562455 0.12989758 0.1685385 0.2167444
0.10021674 0.30388504 0.22944264 0.16989201 -0.068693355 0.005703145 0.0050910073 -0.21646324
00000000: d724 a7be 8118 8fbe 65e7 81be 55a0 5fbe
00000010: 935c 21be 1231 9cbe e647 603e 3f7c 243e
00000020: 4ee0 0b3d 09d9 a23d 2018 9d3d 07ec 803e
00000030: d88c 52be 937f 9c3b 3dc9 0fbc c6d8 94ba
00000040: 6caf 8f3d a6ea da3b 44c9 51bc 9bb1 9e3d
00000050: a72b 023e 4c02 39be 2bb5 39be 0433 b5bd
00000060: 7938 bbbe 0cf3 a8be f626 75be 2a6f 84be
00000070: 62b2 58be e226 b3be 1041 db3e c426 d93e
00000080: c0a5 973e f94e ab3e cda7 9d3e d1a1 5c3e
00000090: 8352 123e 425a 26bd f2f5 70bb d474 f23d
000000a0: 1083 743d d4f7 073e 7146 a63c 59b4 8ebd
000000b0: 44bf b53d dc25 0bbe 31ce a2bd 045b eabd
000000c0: e008 a5bd 71bf e6bc d0a0 11be f56b 11be
000000d0: 86f0 15be c8b7 50be b360 9abc 5de2 07be
000000e0: 4978 07be eca6 c3bd 38ed 9dbe be69 a7bd
000000f0: 83d3 89be 8331 e6bc 3bd4 013e 8548 033e
00000100: b6d5 0e3e ed7e f83d a3b6 fe3d 3605 423e
00000110: c1f9 1a3e ffcb 04bc 29a6 99bd 8593 d93d
00000120: 0339 4ebd 98a6 32bd d58d e73d 4532 f1bc
00000130: b838 babd 5a5d 7bbd e5fd e7bd 6bab bbbd
00000140: f553 133e 2f31 c2be 2ee3 acbe b7f3 9fbe
00000150: 739a 16be 2f5f f9bd 55f7 abbd 8319 a93d
00000160: b27f 063d 7789 07be 709b 2a3e 78e1 973d
00000170: 6606 0a3d 3089 7cba 3dd5 c8bd 916a 84bd
00000180: 977d 34bd 9d73 2dbd fbb7 37bd e95a 803e
00000190: 1b61 383e 1f7f 953d 6568 433d 73d7 813d
000001a0: c49f e2bd d68f bb3d 0aa3 9a3c 27f8 12be
000001b0: 35fe 6a3d ba74 113d 3dec b23d d4cb f23c
000001c0: 1e6b 5dbd ecf7 10bd 7d41 ce3c c5cf 29bd
000001d0: 3824 f8bd 93b2 cf3d d473 ef3d 53c3 ac3d
000001e0: 39d3 733d 73f0 873c a8ee babd d871 133d
000001f0: b44f c73b 9e37 483c 81ed bebc d799 073d
00000200: 724c 3dbd d081 c9bd 2ebc 02be d982 0cbd
00000210: bd8c b03c 8fd4 873d cdd7 af3d 5aa3 e5bd
00000220: 4b75 7fbd 7bb5 d6bc 0fb9 9abe cb40 3dbe
00000230: 0cc0 20be 7465 83be bb85 88be 9402 63be
00000240: e600 4b3d 0d7a ff3c 98f4 5b3d 363f 7d3c
00000250: 8672 833d 547b 2abd e3cb 9b3d 23c8 c33d
00000260: a1b7 d9bc 9143 a93c ada8 013e a932 a43d
00000270: f45f 43be ad9d 4cbe cd27 1bbe 0625 c4bd
00000280: 8e44 a0bd 538e 3abd f2e3 913e 93e7 863e
00000290: b40e f63d 602b 663e 238b ef3d fe39 f1bc
000002a0: 34d8 df3d 808e a83d a42a dc3c 8628 1ebd
000002b0: a486 8dbd feb7 753a 604f 6d3d 52f6 83bd
000002c0: c323 153d 4195 fabd a61a 7fbd 1399 4b3d
000002d0: 0d1c 33bc 0e0a 39bd c30c 76be 95b8 69be
000002e0: c3a0 2ebe 9449 24be fbfd c03d b998 8ebd
000002f0: d655 3ebd 3af9 b33d bdd8 c73d 8547 903e
00000300: 6ad7 7bbe 748a 64bd 1e59 523d 1f7b 4abe
00000310: 92e7 5abe 29a2 21be bb75 fabd b5e5 fcbc
00000320: 16bb de3d 6677 c6be d13e 85be beb4 efbd
00000330: 7def b2be 46f4 55be 55bd 02be 9bf7 08be
00000340: 11de 25be 6f7f 8bbe 9817 7c3e c1dc a33e
00000350: c8eb 8e3e f073 a53e 5572 a83e 6c05 b33e
00000360: b479 2a3d f7f4 cabd 6b4c 14be f6a2 5abd
00000370: 2af7 06be de3b b2bd 7107 b23c 1a95 cdbc
00000380: e680 223e aad6 c0bd 2579 52bd a147 5ebc
00000390: f980 a7be 3ecd 07be 5398 0bbe f181 c0be
000003a0: e233 bbbe 1c82 15be 7086 cd3d cb9a c03d
000003b0: 48d1 603d 1a5a 4d3d 4fe7 45bb ec5f fc3d
000003c0: 3604 2bbe a402 debd b88b 253e a057 163e
000003d0: faff cf3d df03 053e 5b95 2c3e 3ef2 5d3e
000003e0: 6f3e cd3d d296 9b3e 03f3 6a3e 2cf8 2d3e
000003f0: 1aaf 8cbd 73e1 ba3b 77d2 a63b 8aa8 5dbe

cell_list.2.conv_can.weight f4 [10, 20, 3, 3]
0.24773078 0.15272744 0.3007991 0.18759672 0.27371994 0.28871092 -0.099651344 -0.02938577
0.19233009 -0.385385 -0.42336395 -0.19307198 -0.03567673 -0.07821468 -0.044516545 0.12271972
0.05805807 0.15547647 -0.30418846 -0.3542002 -0.35201004 -0.029399695 -0.041416567 -0.17560907
0.07573532 0.1354419 0.073481105 0.16387507 0.13184685 0.53644747 -0.20675118 -0.111975536
0.06063007 -0.5105274 -0.6473776 -0.46909398 -0.029623605 -0.017743584 -0.2326423 -0.052891586
-0.033175454 0.06298667 -0.09762969 -0.13185985 -0.14933789 0.011842003 -0.030913012 0.043131683
-0.12622833 -0.081021756 0.018067788 0.10807639 -0.015436269 -0.054252647 0.20435548 0.08494938
0.02264709 0.12882672 0.06383194 -0.08810451 0.023583336 0.084524594 -0.050222658 -0.04413346
-0.04751906 -0.20199384 -0.07713921 -0.11794688 -0.14813 -0.010132136 -0.2111981 -0.07706131
-0.036914013 0.0062254774 -0.20972256 -0.07949911 -0.14678952 -0.2022459 -0.15657261 -0.12438501
-0.13501495 -0.29149702 -0.17905407 -0.17059167 0.04699209 0.04569288 0.061574657 -0.08784376
-0.11638925 -0.08705262 0.13518715 0.12980106 0.12354684 0.06122234 0.19274847 0.2709103
0.15078144 0.22013429 0.19473343 0.11134453 0.08126929 0.07636322 0.13941179 0.19209245
0.12198436 0.17080812 0.13988712 0.2201781 0.13889644 0.12977442 0.14792955 0.15940493
0.28879097 0.3224743 0.11247006 0.21844597 0.22695816 0.102804236 0.09071672 0.029065343
0.06740674 0.018616185 0.056939125 -0.02687579 0.06234832 0.17872505 0.012479553 0.22057846
0.15210389 0.14873114 0.14453565 0.4101982 0.14298673 0.20621853 0.32329103 -0.05824288
-0.21903948 -0.100631125 0.17748332 0.14335467 -0.025583416 0.28085455 0.2755301 0.2210386
0.14546336 0.15197355 0.20114277 0.09214227 0.12431075 0.25558302 0.12754448 0.089664236
0.18008181 0.0576824 0.10847084 -0.1401794 0.22405946 0.1799641 0.081004634 0.3771787
0.31721503 0.3410509 0.1430097 0.05478057 0.13703908 -0.05801283 0.10794458 0.1515018
-0.055439793 0.13830334 0.025662912 -0.17277963 -0.24001454 -0.19884238 -0.10582068 -0.18696775
-0.20728323 -0.14865676 -0.20221093 -0.26297817 0.13677177 0.06238976 0.071619265 0.2066093
0.20789994 0.11852643 -0.15151918 -0.07866686 -0.020806368 -0.24996941 -0.1525736 -0.2653825
0.141343 0.23431543 0.2322067 0.1674595 0.13775241 0.10159679 -0.24437504 -0.17348738
-0.27492177 -0.0859301 -0.15285446 -0.07126214 -0.034846593 0.01622913 0.026461283 0.29780015
0.22518711 0.29868558 -0.23936221 -0.21474674 -0.20897403 -0.2089874 -0.16409795 -0.098266475
0.0798581 0.074914925 0.10535531 -0.20099762 -0.04202203 -0.013332568 -0.121613696 -0.16966727
-0.24157344 -0.003655576 0.06553289 0.04936531 -0.095709376 -0.015096443 0.10199886 0.10577123
0.0891062 0.04927971 0.15568578 0.08693987 -0.04643989 0.11887774 0.10250176 0.00039466482
-0.08871856 -0.056059368 -0.14369008 -0.18782406 -0.31751078 -0.32431495 -0.26525956 -0.20131914
-0.26854825 -0.17787424 -0.15113196 -0.16619828 -0.09272646 -0.11500498 -0.15377142 -0.06044821
00000000: 23ad 7d3e 9564 1c3e 5702 9a3e 5b19 403e
00000010: 0525 8c3e ebd1 933e 0116 ccbd 6dba f0bc
00000020: 2ef2 443e 2f51 c5be 29c3 d8be a9b4 45be
00000030: c321 12bd 052f a0bd fb56 36bd 7a54 fb3d
00000040: 4cce 6d3d 3935 1f3e 97be 9bbe bb59 b5be
00000050: a93a b4be a1d7 f0bc 6ba4 29bd ddd2 33be
00000060: 1f1b 9b3d 48b1 0a3e 437d 963d dece 273e
00000070: dc02 073e 9f54 093f 95b6 53be 6e53 e5bd
00000080: 3c57 783d ecb1 02bf 8aba 25bf 162d f0be
00000090: 34ad f2bc fe5a 91bc c839 6ebe d9a4 58bd
000000a0: fce2 07bd 28ff 803d 13f2 c7bd 4506 07be
000000b0: 08ec 18be f604 423c 493d fdbc d9aa 303d
000000c0: 0042 01be bcee a5bd e602 943c 2857 dd3d
000000d0: 68e8 7cbc 0638 5ebd 9042 513e f1f9 ad3d
000000e0: 6486 b93c 27eb 033e 52ba 823d 2370 b4bd
000000f0: d731 c13c 3b1b ad3d 46b6 4dbd 49c5 34bd
00000100: 59a3 42bd 79d7 4ebe 2afb 9dbd 228e f1bd
00000110: 64af 17be 4201 26bc 5144 58be 52d2 9dbd
00000120: 2633 17bd 17ff cb3b 83c1 56be 6ed0 a2bd
00000130: fe4f 16be 8d19 4fbe 9254 20be 91bd febd
00000140: 5c41 0abe 193f 95be f359 37be 95af 2ebe
00000150: c77a 403d 7528 3b3d b535 7c3d 6ee7 b3bd
00000160: 7d5d eebd a548 b2bd 806e 0a3e 92ea 043e
00000170: 2006 fd3d 47c4 7a3d db5f 453e c1b4 8a3e
00000180: 7366 1a3e e26a 613e 3368 473e 9a08 e43d
00000190: 8370 a63d 5264 9c3d f7c1 0e3e e2b3 443e
000001a0: f0d2 f93d 53e8 2e3e 923e 0f3e 5e76 613e
000001b0: de3a 0e3e 96e3 043e d87a 173e 0c3b 233e
000001c0: 69dc 933e 5a1b a53e b456 e63d 4db0 5f3e
000001d0: b867 683e 078b d23d b0c9 b93d 711a ee3c
000001e0: 8b0c 8a3d f880 983c 0039 693d 9e2a dcbc
000001f0: f460 7f3d b303 373e 0a77 4c3c 52df 613e
00000200: 1fc1 1b3e fa4c 183e 2701 143e 8005 d23e
00000210: 1d6b 123e f32a 533e 6786 a53e 1690 6ebd
00000220: e34b 60be b117 cebd 30be 353e 91cb 123e
00000230: 5094 d1bc 2bcc 8f3e 4812 8d3e f157 623e
00000240: 59f4 143e f49e 1b3e 5ff8 4d3e 16b5 bc3d
00000250: a296 fe3d c7db 823e 059b 023e e2a1 b73d
00000260: 5e67 383e 6144 6c3d f625 de3d 308b 0fbe
00000270: d86f 653e 8248 383e c2e5 a53d 911d c13e
00000280: 026a a23e 399e ae3e 2371 123e 9761 603d
00000290: f953 0c3e dc9e 6dbd 0c12 dd3d 4a23 1b3e
000002a0: d614 63bd 649f 0d3e 073b d23c 25ed 30be
000002b0: 5fc6 75be 569d 4bbe 83b8 d8bd 7974 3fbe
000002c0: 0e42 54be 7a39 18be 6210 4fbe 13a5 86be
000002d0: e60d 0c3e 688c 7f3d 1fad 923d 6391 533e
000002e0: b9e3 543e fcbd f23d d827 1bbe 171c a1bd
000002f0: 1e72 aabc fbf7 7fbe 413c 1cbe 37e0 87be
00000300: 38bc 103e 62f0 6f3e 98c7 6d3e 817a 2b3e
00000310: f80e 0d3e fa11 d03d 733d 7abe ada6 31be
00000320: 8cc2 8cbe 1ffc afbd e185 1cbe e3f1 91bd
00000330: 4dbb 0ebd f4f2 843c 55c5 d83c 4379 983e
00000340: 7397 663e 51ed 983e 5e1b 75be 92e6 5bbe
00000350: 4afd 55be cb00 56be 4b09 28be ef3f c9bd
00000360: a58c a33d ff6c 993d 86c4 d73d 52d2 4dbe
00000370: 4b1f 2cbd d870 5abc 9a10 f9bd 42bd 2dbe
00000380: 075f 77be 6392 6fbb 1c36 863d 4833 4a3d
00000390: 4703 c4bd 1257 77bc c7e4 d03d 969e d83d
000003a0: 507d b63d 85d9 493d 186c 1f3e 880d b23d
000003b0: c137 3ebd 2c76 f33d 71ec d13d 04eb ce39
000003c0: 14b2 b5bd 829e 65bd 7e23 13be f354 40be
000003d0: c690 a2be 9c0c a6be 1ad0 87be 9b26 4ebe
000003e0: 287f 89be aa24 36be 56c2 1abe e22f 2abe
000003f0: 5fe7 bdbd bb87 ebbd 4176 1dbe 8b98 77bd

cell_list.3.conv_gates.weight f4 [20, 20, 1, 1]
-0.01927094 -0.18234922 -0.12112278 -0.25345403 -0.13443075 -0.19178537 0.22119595 -0.025054574
0.10806449 -0.00018950271 0.111508854 -0.11706426 -0.022897797 0.1850141 -0.0676983 -0.3783838
0.26171944 0.050539155 -0.32261854 0.038729537 0.011266954 0.0032163705 -0.025871325 0.030024847
0.33090773 -0.43097013 0.066853136 -0.32814702 0.05458737 -0.348634 0.10392504 -0.45444947
-0.25596383 0.3711521 0.19949229 -0.051035345 -0.09070868 0.35899612 0.05164553 0.20366497
-0.014585278 -0.50566864 -0.12537833 -0.0661484 0.22587012 -0.18607777 -0.15619601 0.040549625
-0.032191224 0.2396548 0.18966506 -0.19480178 0.14971665 -0.25385946 -0.27884802 -0.06251758
-0.13399276 0.31488615 0.17596895 0.19617446 0.3080222 -0.018084837 0.15528177 0.02268828
-0.011020827 0.24095285 0.1348726 0.041236658 0.08173165 -0.33080795 -0.05287035 -0.2375744
-0.15233172 0.14997095 -0.08342258 -0.04341538 0.020269897 -0.23321012 0.007623972 -0.11946009
0.09994277 -0.07256466 -0.12532985 0.18751697 0.20264903 0.0698264 -0.095559366 0.09952802
-0.28419763 0.32832992 -0.15826151 0.10129959 0.18141282 0.0035585316 0.06654904 0.012640722
0.12388622 0.04543344 0.08076203 0.095153905 -0.1893675 -0.09370913 -0.4419873 -0.027627278
0.00024179464 -0.068748385 0.19867727 0.17751451 0.25462824 0.13875839 -0.030105243 -0.19331191
0.1495095 -0.22772092 0.5450268 0.17381315 0.13468365 -0.13401832 0.06852603 0.041696876
0.20722638 -0.17774652 0.07732531 0.033912066 0.17434794 0.0059271054 0.24329214 -0.26203737
-0.09122553 0.2760506 0.046571292 0.17408168 -0.1385705 0.101182245 0.048085824 0.19261369
-0.034471136 0.21099319 -0.084430985 -0.052020077 0.44662666 -0.26880282 -0.3892905 0.14838511
-0.24341683 0.011112001 0.22056429 0.009145266 0.063805014 -0.106943294 -0.13509749 0.035414267
-0.523294 -0.1430257 0.078351304 0.15158075 0.08256939 0.13889806 -0.15357007 0.09512736
-0.14470501 0.0696304 0.11793749 0.38338616 -0.083790876 -0.14176571 0.12663868 -0.38062018
-0.10593401 0.33328497 0.23870409 -0.35365018 -0.25382122 0.44948623 0.11162534 -0.23190068
0.009761494 0.28159016 0.0808772 -0.1982628 -0.12637608 0.25145587 -0.10677341 0.11897509
-0.1743742 -0.1674833 0.08735206 0.024194961 -0.07509874 0.16999751 0.023701593 -0.17759112
-0.20029294 -0.19937736 -0.12536803 0.03874258 0.047922384 0.022836208 0.011183588 0.35487223
-0.04152817 -0.007830579 0.17796662 -0.25920558 0.07929065 -0.0775724 0.12945397 -0.37593776
0.15539356 -0.10653803 -0.016436446 -0.112583175 0.03086102 0.14131321 0.38989383 -0.18339008
-0.31053516 -0.045245834 -0.24039413 0.18389384 0.17856163 0.048245624 -0.016239401 0.16783854
0.26044214 -0.21652329 -0.09030854 0.08709874 -0.17160578 -0.035777703 0.22288673 0.120713755
-0.045802847 -0.14591306 -0.24309565 0.112335235 -0.22922018 0.09887047 -0.2464657 -0.06385344
0.37259793 0.19726498 0.27273616 -0.3739427 0.480086 -0.329863 -0.039140034 0.23992519
-0.23989865 0.074659735 0.30203295 -0.26872486 0.02023208 0.403573 0.07900732 -0.11888745
00000000: 17de 9dbc c1b9 3abe 380f f8bd bac4 81be
00000010: 37a8 09be 6263 44be 3181 623e 403f cdbc
00000020: ea50 dd3d 3fb5 46b9 c15e e43d 63bf efbd
00000030: 2994 bbbc 5674 3d3e 68a5 8abd 85bb c1be
00000040: 1700 863e 2502 4f3d 422e a5be dda2 1e3d
00000050: 0899 383c bec9 523b 1af0 d3bc abf6 f53c
00000060: bd6c a93e 1ea8 dcbe 4cea 883d e302 a8be
00000070: 0297 5f3d 2880 b2be a7d6 d43d 9aad e8be
00000080: b10d 83be a607 be3e b547 4c3e 700a 51bd
00000090: 79c5 b9bd 57ce b73e 438a 533d 8d8d 503e
000000a0: 17f7 6ebc 8073 01bf 2d63 00be d078 87bd
000000b0: 7f4a 673e 2c8b 3ebe d9f1 1fbe 5d17 263d
000000c0: f2da 03bd 1168 753e 8f37 423e 1e7a 47be
000000d0: 524f 193e def9 81be 2bc5 8ebe 3809 80bd
000000e0: 6635 09be c238 a13e 3431 343e f5e1 483e
000000f0: 16b5 9d3e a726 94bc 2f02 1f3e c6dc b93c
00000100: b390 34bc 58bc 763e 0b1c 0a3e c5e7 283d
00000110: ec62 a73d a95f a9be 958e 58bd b446 73be
00000120: d9fc 1bbe fc91 193e 75d9 aabd 53d4 31bd
00000130: 0e0d a63c a2ce 6ebe 83d2 f93b 7ea7 f4bd
00000140: ccae cc3d c89c 94bd 7856 00be 7304 403e
00000150: 3a83 4f3e 2501 8f3d a1b4 c3bd 59d5 cb3d
00000160: 5a82 91be dc1a a83e 4e0f 22be 2976 cf3d
00000170: 48c4 393e 4136 693b dd4a 883d 081b 4f3c
00000180: 0fb8 fd3d 6a18 3a3d 9066 a53d 0de0 c23d
00000190: 8ee9 41be 93ea bfbd 294c e2be 9a52 e2bc
000001a0: 418a 7d39 f4cb 8cbd 0e72 4b3e 5dc6 353e
000001b0: a25e 823e ae16 0e3e 459f f6bc 8ff3 45be
000001c0: 0519 193e ac2f 69be e086 0b3f 13fc 313e
000001d0: 83ea 093e 193c 09be 6057 8c3d 58ca 2a3d
000001e0: 2733 543e 2f03 36be bb5c 9e3d 61e7 0a3d
000001f0: 4488 323e 2a38 c23b 9321 793e c329 86be
00000200: 73d4 babd 8156 8d3e 8ac1 3e3d 7842 323e
00000210: 6de5 0dbe a338 cf3d a4f5 443d 863c 453e
00000220: 9b31 0dbd 990e 583e 27ea acbd 0113 55bd
00000230: 40ac e43e 86a0 89be 1651 c7be 44f2 173e
00000240: 4342 79be 1c0f 363c 9bdb 613e 07d6 153c
00000250: 34ac 823d 1605 dbbd ff56 0abe 8d0e 113d
00000260: 98f6 05bf 5475 12be a676 a03d fc37 1b3e
00000270: 241a a93d 4b3b 0e3e 7941 1dbe 22d2 c23d
00000280: 8d2d 14be 629a 8e3d 3689 f13d 314b c43e
00000290: 8d9a abbd 082b 11be 92ad 013e a6e0 c2be
000002a0: eef3 d8bd 54a4 aa3e d86e 743e a311 b5be
000002b0: dbf4 81be 0f23 e63e d49b e43d 5f77 6dbe
000002c0: acee 1f3c 962c 903e f2a2 a53d 6705 4bbe
000002d0: bb68 01be d3be 803e 05ac dabd 36a9 f33d
000002e0: 268f 32be be80 2bbe a3e5 b23d 8334 c63c
000002f0: 5ecd 99bd d413 2e3e d829 c23c 72da 35be
00000300: 9819 4dbe 9429 4cbe 7a60 00be 8ab0 1e3d
00000310: 434a 443d 0013 bb3c 5e3b 373c d0b1 b53e
00000320: 7119 2abd d44b 00bc e23c 363e 98b6 84be
00000330: 2363 a23d 47de 9ebd 958f 043e ea7a c0be
00000340: 7d1f 1f3e 9c30 dabd baa5 86bc 0292 e6bd
00000350: 40d0 fc3c 69b4 103e 2aa0 c73e 9cca 3bbe
00000360: 77fe 9ebe b253 39bd e129 76be ab4e 3c3e
00000370: dcd8 363e 349d 453d 7e08 85bc dedd 2b3e
00000380: ac58 853e 48b8 5dbe aff3 b8bd d360 b23d
00000390: 6db9 2fbe a48b 12bd 6b3c 643e c638 f73d
000003a0: c49b 3bbd 3c6a 15be 11ee 78be 0410 e63d
000003b0: b2b8 6abe 9a7c ca3d 8161 7cbe 98c5 82bd
000003c0: 28c5 be3e d5ff 493e 13a4 8b3e 6b75 bfbe
000003d0: d5cd f53e cee3 a8be 4d51 20bd f3ae 753e
000003e0: fea7 75be 34e7 983d 10a4 9a3e 4e96 89be
000003f0: bfbd a53c 1fa1 ce3e 97ce a13d 437b f3bd

cell_list.3.conv_can.weight f4 [10, 20, 1, 1]
-0.28264552 -0.38832873 0.29148397 -0.13811404 0.12366881 -0.26427293 -0.22610325 -0.079689525
-0.013513139 -0.06051319 0.08704512 -0.035780538 -0.04152071 0.14536944 -0.046806343 -0.23753631
-0.058044054 0.1350658 -0.06381411 0.26069614 -0.032014858 -0.15581809 -0.13343279 -0.19058731
-0.18367137 0.21529564 -0.029182877 0.07618556 0.067220174 -0.055052347 -0.33601442 0.27073005
0.020232491 0.08784399 0.2594145 0.40482336 -0.0051520905 -0.031452324 0.10168768 -0.13934472
0.10389446 0.19379923 0.2955548 -0.2316006 0.4885669 0.10013045 0.01150381 0.21261673
-0.061126374 -0.24240217 0.3241003 -0.6032494 0.30779207 0.33240148 -0.21613625 -0.12405754
0.26905188 0.30048203 -0.29815608 0.0012302643 -0.0737217 -0.14671451 0.17938885 -0.30824497
-0.18725327 -0.06319917 0.019984053 -0.042735893 -0.07747511 0.15147145 0.00709794 -0.11225519
-0.11680202 0.14463189 -0.04308801 0.026329132 0.22234128 0.23213637 0.12623669 0.04308293
-0.25847587 0.13395871 -0.09136093 -0.19739772 -0.074308015 0.22545354 0.48237723 0.33073074
0.22649796 0.11849256 -0.0026391968 0.06875013 0.36969504 0.011782031 -0.16618657 -0.057903588
-0.016831817 -0.153467 0.0025073935 0.076016486 0.085848235 0.14437951 -0.10664163 -0.20512804
-0.051894087 0.22713056 0.26827797 -0.14591396 0.37765908 0.025073882 -0.0016034476 0.32025206
0.023324342 -0.058669943 0.37381238 0.1491973 -0.29069635 0.037033126 0.22651142 -0.061594013
0.16048191 -0.028279712 0.04493268 -0.08142368 0.09492212 -0.09570131 0.10256468 -0.067751415
-0.19684295 -0.21144657 -0.0019003501 -0.13100186 -0.09272304 0.018226445 -0.018548964 0.18835369
-0.44367334 0.16381133 -0.070681855 -0.00072292564 0.2926888 -0.31313428 -0.2152555 -0.087991804
-0.315068 -0.13661021 -0.05047541 -0.045359366 0.069180734 0.50112355 0.20538844 0.32938793
-0.035445046 -0.0683635 -0.21563311 0.08092409 -0.08671613 -0.042613093 0.3892816 -0.22141922
-0.18917312 0.074599124 0.18655455 0.00049754814 0.10939521 0.1658838 -0.1538226 0.2167394
-0.1559343 0.37824196 0.22822265 0.10559969 0.067466244 0.04972532 0.020792814 0.15246975
0.057838183 -0.025721677 -0.09381482 -0.29089153 0.099303104 -0.08434039 -0.058734175 0.19630887
-0.08060224 0.059022408 -0.23349018 0.21677396 -0.15967873 0.050209444 -0.32098594 0.17009844
-0.28916794 -0.20961893 0.032270096 -0.06309607 0.052939568 -0.05402241 -0.20086353 -0.21573502
00000000: eab6 90be 06d3 c6be 633d 953e c46d 0dbe
00000010: 1346 fd3d c84e 87be 9c87 67be 4334 a3bd
00000020: 3766 5dbc aedc 77bd b644 b23d 9d8e 12bd
00000030: 9f11 2abd badb 143e 02b8 3fbd b83c 73be
00000040: 9abf 6dbd b04e 0a3e f9b0 82bd f779 853e
00000050: 0322 03bd c78e 1fbe 9ba2 08be 5229 43be
00000060: 5914 3cbe 7676 5c3e ee10 efbc 2d07 9c3d
00000070: bbaa 893d 927e 61bd 150a acbe 219d 8a3e
00000080: 9cbe a53c 8de7 b33d fad1 843e 0245 cf3e
00000090: ded2 a8bb 27d4 00bd a141 d03d 62b0 0ebe
000000a0: 9ec6 d43d 4e73 463e f552 973e b528 6dbe
000000b0: 7125 fa3e 3211 cd3d 7a7a 3c3c 33b8 593e
000000c0: a65f 7abd 4638 78be 79f0 a53e 8d6e 1abf
000000d0: ec96 9d3e 8730 aa3e d252 5dbe e111 febd
000000e0: 2bc1 893e c8d8 993e eaa7 98be d240 a13a
000000f0: 67fb 96bd 543c 16be b6b1 373e 49d2 9dbe
00000100: 52bf 3fbe 916e 81bd 99b5 a33c d50b 2fbd
00000110: 45ab 9ebd 551b 1b3e d695 e83b 0de6 e5bd
00000120: e635 efbd 621a 143e 0e7d 30bd 31b0 d73c
00000130: 6fad 633e 28b5 6d3e 3144 013e ba77 303d
00000140: f356 84be 792c 093e 701b bbbd a122 4abe
00000150: cd2e 98bd 4bdd 663e 26fa f63e 8a55 a93e
00000160: 15ef 673e 3aac f23d 60f6 2cbb decc 8c3d
00000170: ab48 bd3e 6b09 413c d02c 2abe 502c 6dbd
00000180: e1e2 89bc 7426 1dbe 1553 243b 88ae 9b3d
00000190: 33d1 af3d 39d8 133e ed66 dabd 160d 52be
000001a0: e58e 54bd ea94 683e bb5b 893e 786a 15be
000001b0: 885c c13e be67 cd3c c62a d2ba 14f8 a33e
000001c0: b112 bf3c e54f 70bd 5664 bf3e 2dc7 183e
000001d0: 27d6 94be 0cb0 173d 9cf2 673e 014a 7cbd
000001e0: 5f55 243e dbaa e7bc 540b 383d 75c1 a6bd
000001f0: 8766 c23d 0cff c3bd 6e0d d23d 41c1 8abd
00000200: 3391 49be 7385 58be 2b15 f9ba 5a25 06be
00000210: 94e5 bdbd a04f 953c fff3 97bc cadf 403e
00000220: 2729 e3be 28be 273e a6c1 90bd b882 3dba
00000230: 4edb 953e 2353 a0be f06b 5cbe 0c35 b4bd
00000240: 9850 a1be 8ce3 0bbe 4ebf 4ebd beca 39bd
00000250: a1ae 8d3d a249 003f 5951 523e 89a5 a83e
00000260: d32e 11bd 2a02 8cbd edce 5cbe 88bb a53d
00000270: 3a98 b1bd 118b 2ebd eb4f c73e b8bb 62be
00000280: 99b6 41be 6dc7 983d 2808 3f3e e46d 023a
00000290: 990a e03d 71dd 293e ac83 1dbe eff0 5d3e
000002a0: 3ead 1fbe eea8 c13e 33b3 693e a644 d83d
000002b0: be2b 8a3d c7ac 4b3d b155 aa3c 0821 1c3e
000002c0: bbe7 6c3d 44b6 d2bc fc21 c0bd bcef 94be
000002d0: 6d5f cb3d a8ba acbd 3f93 70bd 3105 493e
000002e0: ca12 a5bd 7bc1 713d 0d18 6fbe fef9 5d3e
000002f0: d282 23be 6ba8 4d3d 4558 a4be 492e 2e3e
00000300: d20d 94be 58a6 56be a62d 043d 8338 81bd
00000310: 29d7 583d 9a46 5dbd 2baf 4dbe a4e9 5cbe
